deep_emotion-ckplus-30-8-0.005.pt (torch, 274522 bytes, 24 tensors)

conv1.weight f4 [10, 1, 3, 3]
-0.03240887 0.41348052 0.11564232 -0.45542815 -0.030442566 0.31659475 -0.045198824 -0.04360498
-0.15545125 0.15418924 -0.102006845 -0.09023303 0.14682844 0.19788583 -0.33600184 0.3972532
-0.26391178 -0.053573243 -0.20075974 -0.3209515 -0.30138087 0.19484809 -0.2742989 0.12970905
0.19109732 0.2309241 -0.292247 0.03549835 0.31830546 0.29995376 -0.0026387372 0.01808094
0.40833557 -0.12310528 -0.37493175 0.2587864 -0.07350901 0.09034146 0.06684682 0.08425229
-0.39867598 -0.38480565 -0.07566529 -0.30719185 -0.047836673 0.25678825 0.07248991 -0.2628522
0.14059271 0.07248833 -0.14670935 0.075998634 -0.2920821 0.055442266 0.31059742 -0.15875961
0.08543599 0.035052743 0.25749552 0.057243906 -0.17633204 -0.33797592 0.22843315 0.38636482
0.35601687 -0.1931159 0.28090084 -0.19158533 0.0644239 -0.39522332 -0.20996659 -0.35164726
0.48320413 0.3710291 0.09720495 0.29542685 -0.20982347 -0.36399284 -0.10341977 -0.40102696
-0.51201534 0.10138219 0.3215753 0.38164458 0.26212496 -0.26460063 0.2124252 -0.19116859
-0.48711085 -0.39215028
00000000: 2abf 04bd b8b3 d33e e1d5 ec3d e12d e9be
00000010: b062 f9bc b518 a23e 6722 39bd 239b 32bd
00000020: 9d2e 1fbe c9e3 1d3e f7e8 d0bd 18cc b8bd
00000030: 325a 163e 95a2 4a3e 6f08 acbe c564 cb3e
00000040: 721f 87be 9e6f 5bbd f693 4dbe c153 a4be
00000050: 984e 9abe 4286 473e e870 8cbe 73d2 043e
00000060: 04af 433e 5e77 6c3e 66a1 95be b866 113d
00000070: eff8 a23e 8a93 993e aaee 2cbb 7b1e 943c
00000080: 5c11 d13e 9f1e fcbd 0ef7 bfbe a77f 843e
00000090: e48b 96bd f204 b93d fce6 883d 778c ac3d
000000a0: 421f ccbe 3f05 c5be 67f6 9abd 4048 9dbe
000000b0: 63f0 43bd c079 833e 9775 943d 9094 86be
000000c0: 89f7 0f3e c374 943d fa3a 16be 2ca5 9b3d
000000d0: c98b 95be 6e17 633d a006 9f3e e191 22be
000000e0: 10f9 ae3d 7793 0f3d 74d6 833e 9678 6a3d
000000f0: 6390 34be 2e0b adbe 61ea 693e 9cd1 c53e
00000100: d847 b63e 2dc0 45be 3cd2 8f3e f22e 44be
00000110: adf0 833d b65a cabe 7b01 57be 1c0b b4be
00000120: 8866 f73e 87f7 bd3e 6413 c73d 3042 973e
00000130: f7db 56be 455d babe bfcd d3bd 6853 cdbe
00000140: 7013 03bf 77a1 cf3d 85a5 a43e eb66 c33e
00000150: 3e35 863e bc79 87be fe85 593e b3c1 43be
00000160: 9866 f9be ecc7 c8be

conv1.bias f4 [10]
0.2244971 0.10580939 -0.3454902 0.030185927 -0.28664035 -0.2810498 0.35708752 -0.36734164
-0.2856798 0.07060079
00000000: 91e2 653e 98b2 d83d 17e4 b0be 7a48 f73c
00000010: 86c2 92be c2e5 8fbe 2dd4 b63e 3414 bcbe
00000020: 9f44 92be 2697 903d

conv2.weight f4 [10, 10, 3, 3]
0.021159759 0.02631488 -0.15462644 -0.08798033 -0.15317082 -0.08258014 -0.102516055 -0.19731906
-0.044688717 -0.06730735 -0.021013921 -0.031105194 -0.021078173 0.0059388187 -0.12797461 -0.10117741
-0.17102346 -0.16116935 -0.11697834 -0.11380464 -0.1010008 0.099607125 -0.0118379 -0.040340886
-0.03228942 -0.04213933 0.028771112 0.05587133 0.063398525 0.006384152 -0.07400214 0.024997082
0.042791832 -0.1126393 0.07968347 0.029054973 0.028616644 0.053902306 -0.0986087 0.033173587
0.045468863 -0.026325155 0.009394576 0.07266395 0.06377836 -0.026043331 0.08821722 0.015502432
0.03561973 -0.0021403385 0.049168136 0.00095633086 0.08956416 0.09367031 0.044418782 -0.033024434
-0.09443341 0.014824768 -0.11135327 -0.11780685 -0.059067115 -0.08933468 0.028808972 0.010178753
-0.12777972 0.035909332 -0.10076662 -0.046568945 -0.003873828 -0.019330382 0.030843796 -0.10931604
-0.028942894 -0.0066206045 -0.13189729 -0.15080462 -0.09593394 -0.019302426 0.02715211 0.060002632
0.051714264 0.07299954 0.048782025 0.012407317 -0.0045381445 -0.0664943 -0.01108396 -0.082847826
-0.088460766 -0.10881133 -0.013695182 -0.061249875 -0.050266735 0.09188232 -0.05306129 -0.08582734
-0.03537938 -0.09031397 -0.03908063 -0.11731282 0.044562366 -0.02328198 0.0060731624 0.028081963
0.041103046 -0.052988626 -0.08586683 0.04255686 -0.12739196 0.02868862 0.03528738 0.0056991023
-0.0718688 -0.05637912 0.03128738 0.018633636 0.018521203 -0.02252738 0.009437528 -0.010774791
-0.09250854 -0.04246938 0.06013034 0.11183649 0.027214397 0.043985043 0.02125091 -0.039947722
-0.052685045 0.087534815 -0.012150394 -0.12605108 0.06939334 -0.009686685 0.041839946 -0.015844358
0.010772518 0.002660051 -0.089031965 -0.010333984 -0.09113543 -0.14891441 -0.059921533 -0.033075843
-0.14008957 -0.03850809 -0.071512245 -0.07735777 -0.09139277 -0.045842703 -0.0760891 -0.021664081
-0.059811387 0.08417715 0.13594516 0.014074281 0.0665103 -0.10344927 0.04467755 0.056784675
0.104141265 -0.013042588 0.0060579083 -0.0820225 0.028229078 -0.06853801 -0.1230952 0.020719597
0.09909298 -0.09930438 -0.056616277 0.051590424 0.028743053 0.016054811 -0.082657196 -0.08155655
0.013978398 -0.12936974 -0.12142811 0.011906995 0.09472699 -0.065453336 -0.03077563 -0.13396722
-0.08073806 -0.09840499 -0.08099171 0.010428374 -0.05499259 0.08248291 -0.1503571 -0.121075235
-0.05108753 -0.11933314 0.051582742 0.011142144 0.049336314 0.018563755 0.064419076 -0.05964875
-0.045646828 -0.11024467 -0.042479362 -0.07044057 0.10736676 -0.05917832 -0.002764272 -0.11093284
-0.04909255 0.067388095 0.016104035 -0.12969603 -0.056552924 -0.060293227 -0.124666736 -0.061344616
0.0041335113 -0.0035049517 -0.008997807 0.06718453 -0.07384228 0.01618603 0.05739838 -0.12076873
-0.15109123 -0.09254787 0.048969917 -0.035083033 0.08266923 0.055905998 0.0043595526 -0.026560426
-0.06096536 0.022732863 -0.057191078 0.028426701 -0.07626399 -0.05597626 -0.06317368 0.061191496
-0.089430265 -0.11203364 -0.0076698307 -0.0348677 0.017861977 0.043141484 0.041199327 0.101561815
0.023021013 -0.06969909 0.047774073 0.12153683 -0.07712544 0.037428327 -0.05198663 0.050703947
00000000: 3b57 ad3c 4e92 d73c 6556 1ebe 082f b4bd
00000010: d0d8 1cbe c71f a9bd f0f3 d1bd 020e 4abe
00000020: 840b 37bd 70d8 89bd 6325 acbc 52d0 febc
00000030: 22ac acbc 6c9a c23b c70b 03be 1a36 cfbd
00000040: c620 2fbe 9409 25be 5792 efbd 6812 e9bd
00000050: 82d9 cebd d2fe cb3d c0f3 41bc 7c3c 25bd
00000060: e941 04bd 4a9a 2cbd 65b1 eb3c 56d9 643d
00000070: 16d7 813d 2632 d13b 6f8e 97bd aec6 cc3c
00000080: 7d46 2f3d 6faf e6bd 1631 a33d b204 ee3c
00000090: 746d ea3c aac8 5c3d 5cf3 c9bd 07e1 073d
000000a0: 8f3d 3a3d daa7 d7bc b5eb 193c d6d0 943d
000000b0: 3b9e 823d d358 d5bc 3bab b43d eafd 7d3c
000000c0: fee5 113d ec44 0cbb 8764 493d 47b2 7a3a
000000d0: 6a6d b73d 38d6 bf3d 78f0 353d a144 07bd
000000e0: 4e66 c1bd 95e3 723c 2f0d e4bd b844 f1bd
000000f0: 5cf0 71bd 1af5 b6bd cb00 ec3c c9c4 263c
00000100: b0d8 02be aa15 133d bb5e cebd 14bf 3ebd
00000110: 0de0 7dbb c05a 9ebc 21ac fc3c 17e1 dfbd
00000120: a619 edbc a8f1 d8bb 1510 07be 876c 1abe
00000130: 0379 c4bd 1f20 9ebc 1a6e de3c 52c5 753d
00000140: 56d2 533d c880 953d a9cf 473d 0f48 4b3c
00000150: b7b4 94bb 2a2e 88bd 7f99 35bc 1fac a9bd
00000160: eb2a b5bd 79d8 debd c261 60bc 26e1 7abd
00000170: 7ee4 4dbd cc2c bc3d cc56 59bd 3fc6 afbd
00000180: f8e9 10bd 88f6 b8bd 0313 20bd b441 f0bd
00000190: 0787 363d dab9 bebc 6101 c73b 250c e63c
000001a0: ab5b 283d 9a0a 59bd f3da afbd 1a50 2e3d
000001b0: 0a73 02be 6604 eb3c 8089 103d 89bf ba3b
000001c0: f32f 93bd cbed 66bd 3227 003d 91a5 983c
000001d0: c7b9 973c 578b b8bc dd9f 1a3c c088 30bc
000001e0: 1e75 bdbd 5ff4 2dbd 3b4b 763d 880a e53d
000001f0: baf0 de3c a929 343d 6316 ae3c 39a0 23bd
00000200: 46cc 57bd 7445 b33d 7212 47bc 8913 01be
00000210: 181e 8e3d e7b4 1ebc 5d60 2b3d 07cc 81bc
00000220: 377f 303c 4054 2e3b 6456 b6bd df4f 29bc
00000230: 36a5 babd 057d 18be 4870 75bd 897a 07bd
00000240: a473 0fbe a9ba 1dbd 0375 92bd c06d 9ebd
00000250: 222c bbbd 8fc5 3bbd 9ad4 9bbd df78 b1bc
00000260: c9fc 74bd 1265 ac3d 3535 0b3e d097 663c
00000270: 8d36 883d 36dd d3bd cfff 363d 0c97 683d
00000280: 0448 d53d 94b0 55bc 6b81 c63b 6afb a7bd
00000290: ab40 e73c a85d 8cbd 5619 fcbd 25bc a93c
000002a0: 43f1 ca3d 1860 cbbd 78e6 67bd 7b50 533d
000002b0: 8d76 eb3c 6185 833c 2d48 a9bd 1f07 a7bd
000002c0: a705 653c 8079 04be 4daf f8bd 8f15 433c
000002d0: 3900 c23d 660c 86bd 2d1d fcbc b42e 09be
000002e0: ff59 a5bd 8e88 c9bd fbde a5bd c5db 2a3c
000002f0: e93f 61bd cdec a83d 36f7 19be 4bf6 f7bd
00000300: 2841 51bd ef64 f4bd 6d48 533d 8a8d 363c
00000310: e014 4a3d 0413 983c 26ee 833d 3f52 74bd
00000320: 2bf8 3abd f5c7 e1bd d7fe 2dbd 2543 90bd
00000330: 1be3 db3d f764 72bd ca28 35bb c230 e3bd
00000340: 4515 49bd c502 8a3d 9cec 833c 09cf 04be
00000350: 0aa4 67bd 08f6 76bd 4651 ffbd 7e44 7bbd
00000360: 6872 873b 55b3 65bb 8a6b 13bc 0b98 893d
00000370: 9f3a 97bd 9198 843c 901a 6b3d 9955 f7bd
00000380: a9b7 1abe bd89 bdbd ae94 483d 3ab3 0fbd
00000390: 7c4e a93d b0fd 643d 94da 8e3b 4095 d9bc
000003a0: d0b6 79bd 453a ba3c 3141 6abd 1ddf e83c
000003b0: 4b30 9cbd 5d47 65bd 3461 81bd efa3 7a3d
000003c0: 3727 b7bd e571 e5bd 3453 fbbb 6fd1 0ebd
000003d0: 4853 923c 20b5 303d a0c0 283d a4ff cf3d
000003e0: 9096 bc3c 66be 8ebd bfae 433d 4de8 f83d
000003f0: f1f3 9dbd 724e 193d efef 54bd f1ae 4f3d

conv2.bias f4 [10]
-0.113742806 -0.08357438 0.020675888 -0.012279998 -0.1373123 0.07332721 0.004634608 -0.026207212
0.033206094 -0.11871364
00000000: fdf1 e8bd 0b29 abbd 7b60 a93c 0b32 49bc
00000010: 989b 0cbe 942c 963d e9dd 973b 82b0 d6bc
00000020: 1d03 083d 2320 f3bd

conv3.weight f4 [10, 10, 3, 3]
-0.115153715 -0.08396475 -0.080326885 0.037201636 -0.12779218 0.074524835 -0.02303006 -0.09000576
0.072282314 0.039216757 0.065443575 0.062088765 0.04696689 0.04071326 0.037614975 -0.0041722637
0.123905115 0.006045549 0.062159445 -0.12411618 0.0372703 -0.051623628 -0.041065738 -0.12956996
-0.07163919 0.022728447 0.08935767 -0.103392884 0.010274572 0.022619888 0.051359568 -0.0009579129
-0.06801831 0.13195856 -0.04446936 -0.082856394 0.041702796 -0.019382052 0.025913933 0.062786125
0.10713272 0.022822363 0.02088362 0.039387614 0.013817085 -0.11825218 0.015225755 0.049965456
-0.16653131 -0.20176348 -0.15198989 -0.09750958 -0.058953423 0.029600475 -0.13538781 -0.060443223
0.013554906 0.05083796 0.0147078475 -0.17003492 -0.095280126 -0.17719947 -0.14593226 0.079746656
-0.03118052 0.011714492 0.054868758 0.07182583 -0.0078085284 -0.07536594 -0.11600028 0.0070992457
0.04435432 -0.18219441 -0.09267471 -0.0857978 0.03239619 -0.10621523 0.0019520933 -0.073349014
-0.019757925 -0.13085468 -0.0906115 0.0076279547 0.016359001 0.07208506 -0.035928167 -0.02691779
0.086558 0.013020319 0.066335544 -0.003805049 0.03647855 0.010247888 -0.018494656 0.044948667
0.08504433 -0.117720135 0.012946711 -0.040434964 -0.092230484 -0.10858236 -0.07897325 -0.11355272
-0.025714371 0.046746243 0.019037824 -0.065504916 -0.0037823122 -0.04257837 0.11307864 0.099531144
-0.07234297 0.047183495 0.049581517 -0.10592323 -0.008736663 0.08669576 0.043820012 0.06428825
-0.017949298 0.08341608 0.05486923 -0.060322937 0.064252056 0.050747313 0.076953076 -0.015514712
0.0014431142 0.055501398 0.036294527 -0.12150421 -0.09962785 0.04316912 -0.0646658 -0.098378554
-0.14119829 -0.095229045 -0.08491302 0.027460963 0.015105856 -0.012919735 0.06735774 -0.10094189
-0.08496735 -0.0017035867 -0.01845341 -0.06738188 0.021006333 -0.012450389 0.004243962 0.026900087
-0.084503345 -0.11717465 0.052666824 -0.10062869 0.03903924 -0.03620833 -0.00913929 0.07528954
-0.03470666 0.091704555 0.025706697 -0.11395068 -0.011239002 -0.0008799412 0.047887087 -0.086520165
0.0015110117 -0.07542265 0.04991349 -0.0769787 0.0037155945 0.022574749 -0.08822122 0.07128397
-0.11639606 0.057713307 -0.044228483 -0.013962675 0.09741073 0.12773877 0.016063346 0.11762674
0.087305255 0.13920498 0.094643556 -0.048327044 0.062944554 -0.04438537 -0.018314352 -0.04974955
-0.039478097 0.04837032 0.026267683 0.036148325 -0.041734427 0.11492991 -0.07447002 0.011287111
0.016373241 0.15456054 -0.012343716 0.022219911 -0.04422652 -0.007328289 0.059378352 0.04425066
-0.115995586 -0.105500005 -0.011737621 -0.15223317 -0.028815981 0.063540585 0.03641807 -0.0248721
0.027444748 0.03351574 0.07115882 -0.09643924 0.11312582 0.13619976 -0.08775751 -0.047462843
0.13839704 0.004153665 0.19243012 0.33109653 -0.0033304377 -0.08941648 0.20701171 -0.23159346
-0.32077083 -0.20231795 0.14129275 0.39711696 0.120560564 0.24273357 0.14219102 -0.024798647
-0.06374918 -0.44435433 -0.2924535 -0.17670721 -0.10790501 -0.011344304 0.077307 -0.03417222
0.166562 0.0063289073 0.01872017 0.013532983 -0.0012823637 -0.07966402 -0.03765368 0.10760126
00000000: b6d5 ebbd b6f5 abbd 6c82 a4bd be60 183d
00000010: f4db 02be 7aa0 983d 89a9 bcbc f154 b8bd
00000020: c008 943d c0a1 203d 4807 863d ca50 7e3d
00000030: 5b60 403d f3c2 263d 2912 1a3d 7cb7 88bb
00000040: f7c1 fd3d be19 c63b e79a 7e3d a030 febd
00000050: bea8 183d 4c73 53bd 8c34 28bd fdad 04be
00000060: 91b7 92bd 0231 ba3c 2701 b73d a6bf d3bd
00000070: ae56 283c 584d b93c 695e 523d 721c 7bba
00000080: 2f4d 8bbd 2520 073e 8125 36bd 9db0 a9bd
00000090: 8dd0 2a3d 1cc7 9ebc 7549 d43c 0396 803d
000000a0: 6668 db3d f7f5 ba3c 2014 ab3c e854 213d
000000b0: 0e61 623c 332e f2bd 7275 793c 94a8 4c3d
000000c0: 2f87 2abe 169b 4ebe 3da3 1bbe 1ab3 c7bd
000000d0: 2579 71bd b27c f23c 1aa3 0abe 5093 77bd
000000e0: 6515 5e3c 773b 503d 2ff9 703c a21d 2ebe
000000f0: 3a22 c3bd c773 35be 446f 15be 3752 a33d
00000100: 4a6e ffbc 24ee 3f3c 10be 603d 6c19 933d
00000110: afde ffbb 7559 9abd 8e91 edbd caa0 e83b
00000120: e0ac 353d 2c91 3abe 3dcc bdbd c2b6 afbd
00000130: deb1 043d 5f87 d9bd 62dd ff3a 0238 96bd
00000140: 5fdb a1bc c5fe 05be 8692 b9bd ecf3 f93b
00000150: 5003 863c 55a1 933d 6a29 13bd b282 dcbc
00000160: 5245 b13d 2d53 553c eeda 873d 215e 79bb
00000170: 886a 153d c2e6 273c 1b82 97bc 181c 383d
00000180: b92b ae3d 4117 f1bd 711e 543c 229f 25bd
00000190: 56e3 bcbd 6e60 debd babc a1bd 548e e8bd
000001a0: f2a6 d2bc fd78 3f3d 36f5 9b3c 7127 86bd
000001b0: abe0 77bb a866 2ebd c695 e73d fcd6 cb3d
000001c0: 8d28 94bd 7b43 413d fd15 4b3d 47ee d8bd
000001d0: 3824 0fbc 8c8d b13d 9d7c 333d 8fa9 833d
000001e0: 680a 93bc 0dd6 aa3d 8fbe 603d 2f15 77bd
000001f0: 9596 833d 6adc 4f3d 9399 9d3d 6b31 7ebc
00000200: e126 bd3a 6f55 633d 92a9 143d 33d7 f8bd
00000210: b009 ccbd 1ad2 303d 816f 84bd b27a c9bd
00000220: 4996 10be 7207 c3bd e1e6 adbd d0f5 e03c
00000230: 8d7e 773c 4cad 53bc dbf2 893d 9fba cebd
00000240: 5d03 aebd e24a dfba 9b2b 97bc 83ff 89bd
00000250: 7915 ac3c b7fc 4bbc ef10 8b3b 925d dc3c
00000260: 1710 adbd 43f9 efbd 2bb9 573d 6a16 cebd
00000270: 9ce7 1f3d 304f 14bd f6bc 15bc 6731 9a3d
00000280: 9228 0ebd 99cf bb3d da96 d23c f95e e9bd
00000290: cb23 38bc dbab 66ba 4025 443d 7c31 b1bd
000002a0: 240d c63a 3177 9abd 1672 4c3d 02a7 9dbd
000002b0: 5581 733b aeee b83c 54ad b4bd 54fd 913d
000002c0: 0f61 eebd ca64 6c3d ed28 35bd b4c3 64bc
000002d0: 477f c73d f4cd 023e 4797 833c 4ae6 f03d
000002e0: 19cd b23d c08b 0e3e 7bd4 c13d 94f2 45bd
000002f0: 13e9 803d 6fcd 35bd fb07 96bc 2fc6 4bbd
00000300: c9b3 21bd f51f 463d 532f d73c 4410 143d
00000310: b8f1 2abd 5f60 eb3d bd83 98bd 93ed 383c
00000320: 2d21 863c 1e45 1e3e 4c3d 4abc 8806 b63c
00000330: de26 35bd 2522 f0bb b736 733d 2e40 353d
00000340: 188f edbd 6310 d8bd 274f 40bc 03e3 1bbe
00000350: 7e0f ecbc 9121 823d 1d2b 153d 93c0 cbbc
00000360: cfd3 e03c cd47 093d b7bb 913d f081 c5bd
00000370: 83ae e73d f377 0b3e 36ba b3bd 6668 42bd
00000380: f4b7 0d3e 781b 883b 670c 453e 7c85 a93e
00000390: 7943 5abb fd1f b7bd e1fa 533e d626 6dbe
000003a0: 133c a4be 702c 4fbe 0caf 103e ea52 cb3e
000003b0: 75e8 f63d 268f 783e 869a 113e 8826 cbbc
000003c0: ee8e 82bd 6982 e3be 77bc 95be bcf2 34be
000003d0: 4dfd dcbd 76dd 39bc 2253 9e3d 2bf8 0bbd
000003e0: 3b8f 2a3e b962 cf3b 0b5b 993c 72b9 5d3c
000003f0: fc14 a8ba e426 a3bd bf3a 1abd 0d5e dc3d

conv3.bias f4 [10]
-0.17507124 -0.09937608 -0.029427372 -0.016300743 -0.11395533 -0.08085471 -0.08617499 0.08437005
0.052105993 0.06061178
00000000: e045 33be b085 cbbd ac11 f1bc 2389 85bc
00000010: 6961 e9bd 2797 a5bd 837c b0bd 34ca ac3d
00000020: 186d 553d 0f44 783d

conv4.weight f4 [10, 10, 3, 3]
-0.093714856 -0.09536686 -0.16926982 -0.19875324 -0.13125269 0.09156064 0.14747462 -0.029537769
-0.24954578 -0.029474236 0.057160508 -0.13285492 -0.028669426 -0.06743923 -0.031415205 -0.128946
0.021798285 0.009657995 0.054511286 0.16542508 0.39183596 -0.0761784 -0.13416652 -0.0053242175
-0.045565404 -0.060591664 0.058562998 0.0849839 0.07803395 0.00020189106 0.10203079 -0.06695584
0.040740255 0.050812505 -0.10814008 -0.1156235 -0.0009335128 0.14692031 0.0996082 -0.049210224
0.06150294 -0.037236314 0.004626363 -0.1231088 -0.047261883 -0.111090295 -0.044871714 0.04177365
0.07020883 -0.10239423 -0.06519619 -0.087817 0.010743471 -0.075146094 -0.103480875 -0.03641195
0.11577913 -0.042615138 0.120019294 0.02058015 -0.051803004 0.09190944 0.009042217 -0.23616123
-0.076608874 -0.07122983 -0.037782617 -0.19602011 0.023830859 0.31167284 0.18678588 0.34579104
-0.0035617542 -0.03801055 0.009080806 0.36877954 0.24501438 0.19742312 0.10348803 -0.19110213
-0.12328401 -0.07593936 -0.06330181 -0.06437538 0.016757984 -0.009915247 -0.032178856 -0.07175951
0.011269422 0.02853468 0.031662628 0.04880516 0.024915662 -0.1175182 -0.11366786 -0.14341678
0.024672218 -0.14405464 -0.06799317 0.031920567 -0.08433285 -0.08527707 -0.026724871 0.023380188
-0.052184545 0.124873966 0.088078044 -0.016178623 -0.1498209 -0.19816706 -0.15247945 -0.11673746
-0.05259902 -0.029988542 0.07756699 0.15497687 -0.0725867 0.05299256 0.01955836 -0.085335836
0.026312215 0.011368413 0.06320212 -0.15350425 -0.061541624 -0.09023298 0.051215455 -0.06322294
-0.03701063 -0.11166639 -0.05409774 0.02867316 -0.06398986 -0.12108981 0.03401974 -0.11918503
-0.08353458 -0.021647958 0.01926958 0.028433554 0.098090366 -0.10435 -0.10400708 0.00643879
-0.07319691 0.027175592 -0.029788448 0.05821071 -0.025150063 -0.1143949 -0.0934449 0.05127295
-0.071446456 -0.106551506 -0.11829158 0.18604387 -0.07569038 -0.3482925 -0.18707198 0.035818767
-0.063304365 -0.2791691 -0.091438435 -0.19551349 0.06753237 0.08650139 -0.049108952 -0.1381833
0.32182395 0.24274752 0.19983682 -0.030874766 0.11066749 0.03938316 -0.028588463 0.020475626
0.03709611 -0.07933572 -0.11732749 0.026092509 -0.04352563 0.0106336465 -0.1806734 -0.011509835
-0.03641278 -0.14162378 -0.13507563 -0.13827829 -0.12074446 -0.027280057 -0.028462594 -0.058887232
-0.0004907455 0.070254914 0.042222902 -0.067558534 -0.008058236 0.10293671 0.22384867 0.14033504
0.011570696 -0.087550424 -0.09675839 -0.065173596 -0.22614096 -0.18184173 -0.049807824 0.059832007
0.017512491 -0.07350142 -0.12354252 0.020501647 0.09355876 -0.0030298098 -0.09602925 0.01530312
-0.117764406 -0.038368348 0.04820514 0.07433179 -0.08748766 -0.07312009 0.04900087 0.026717862
0.06346917 -0.030563481 0.006823319 -0.0061880983 -0.09870796 0.028473726 -0.061876647 0.068928294
-0.059088685 -0.02064616 -0.066735595 0.001546585 -0.013481878 0.039290693 0.041809086 -0.029080968
0.102280505 -0.07652115 -0.10120042 -0.0437035 0.068305045 0.11676898 0.12470714 0.02936674
0.16718985 0.20901993 0.2758834 0.2297597 -0.048957154 0.1761069 0.23712854 0.26774123
00000000: 93ed bfbd b34f c3bd 1155 2dbe f885 4bbe
00000010: 1b67 06be 2584 bb3d 9603 173e 31f9 f1bc
00000020: ee88 7fbe f473 f1bc 2321 6a3d 1f0b 08be
00000030: 25dc eabc 941d 8abd 3bad 00bd 6c0a 04be
00000040: 5192 b23c 913c 1e3c 3a47 5f3d 3165 293e
00000050: b99e c83e 6c03 9cbd f362 09be c676 aebb
00000060: caa2 3abd f72e 78bd c1df 6f3d 0a0c ae3d
00000070: 43d0 9f3d b8b2 5339 85f5 d03d 2520 89bd
00000080: 41df 263d c620 503d 8c78 ddbd 03cc ecbd
00000090: fcb6 74ba 4772 163e 62ff cb3d a990 49bd
000000a0: 82ea 7b3d 1b85 18bd bf98 973b 7720 fcbd
000000b0: ad95 41bd 4f83 e3bd 67cb 37bd d91a 2b3d
000000c0: a6c9 8f3d 11b4 d1bd 9485 85bd 66d9 b3bd
000000d0: 6205 303c 32e6 99bd c8ed d3bd b224 15bd
000000e0: 9c1d ed3d 368d 2ebd adcc f53d b497 a83c
000000f0: 632f 54bd 043b bc3d cf25 143c 40d4 71be
00000100: 1de5 9cbd f2e0 91bd f2c1 1abd 7fb9 48be
00000110: ef38 c33c 9593 9f3e cc44 3f3e 860b b13e
00000120: 526c 69bb f3b0 1bbd a9c7 143c acd0 bc3e
00000130: 0de5 7a3e 4929 4a3e 88f1 d33d 47b0 43be
00000140: 547c fcbd 1886 9bbd 61a4 81bd 3dd7 83bd
00000150: 0a48 893c 8f73 22bc facd 03bd a6f6 92bd
00000160: 62a3 383c 90c1 e93c acb0 013d ebe7 473d
00000170: ee1b cc3c 62ad f0bd b2ca e8bd d9db 12be
00000180: 641d ca3c 0f83 13be 0140 8bbd 24bf 023d
00000190: b4b6 acbd bfa5 aebd 1eee dabc cf87 bf3c
000001a0: 76bf 55bd ecbd ff3d 4362 b43d 0889 84bc
000001b0: a66a 19be 4eec 4abe 9323 1cbe 0d14 efbd
000001c0: 1272 57bd 88aa f5bc 71db 9e3d 42b2 1e3e
000001d0: 56a8 94bd ba0e 593d db38 a03c 8ec4 aebd
000001e0: b78c d73c 9542 3a3c 1d70 813d 3830 1dbe
000001f0: 1213 7cbd 12cc b8bd 4cc7 513d 077b 81bd
00000200: 7598 17bd 59b1 e4bd 9895 5dbd fae3 ea3c
00000210: 1e0d 83bd effd f7bd 4858 0b3d 4817 f4bd
00000220: 2e14 abbd 0f57 b1bc 3ddb 9d3c 7ced e83c
00000230: 9ae3 c83d 74b5 d5bd aa01 d5bd 7cfc d23b
00000240: 43e8 95bd 599f de3c e706 f4bc 5a6e 6e3d
00000250: 8107 cebc e047 eabd 0a60 bfbd 9603 523d
00000260: 8552 92bd ad37 dabd db42 f2bd 4982 3e3e
00000270: 8f03 9bbd 6553 b2be cc8f 3fbe b3b6 123d
00000280: b8a5 81bd 41ef 8ebe 1344 bbbd b034 48be
00000290: 694e 8a3d a427 b13d 7826 49bd ec7f 0dbe
000002a0: 1cc6 a43e ce92 783e 06a2 4c3e 14ed fcbc
000002b0: a3a5 e23d 3d50 213d 5a32 eabc 80bc a73c
000002c0: 17f2 173d c47a a2bd 6549 f0bd f5bf d53c
000002d0: ee47 32bd bf38 2e3c 7302 39be bf93 3cbc
000002e0: 9125 15bd d305 11be 4451 0abe d398 0dbe
000002f0: df48 f7bd 6d7a dfbc 632a e9bc bd33 71bd
00000300: 5fa5 00ba cfe1 8f3d ecf1 2c3d 215c 8abd
00000310: b106 04bc 7bd0 d23d 9638 653e fdb3 0f3e
00000320: 0493 3d3c a34d b3bd 4329 c6bd bc79 85bd
00000330: 7f91 67be b834 3abe 4a03 4cbd 6812 753d
00000340: 5b76 8f3c ea87 96bd dc03 fdbd 12f3 a73c
00000350: bc9b bf3d c68f 46bb fcaa c4bd f0b9 7a3c
00000360: 772e f1bd 2128 1dbd c172 453d 443b 983d
00000370: bb2c b3bd fcbf 95bd 23b5 483d 6bdf da3c
00000380: 20fc 813d 4460 fabc 2696 df3b 88c5 cabb
00000390: 6627 cabd bb41 e93c 5e72 7dbd 472a 8d3d
000003a0: fa06 72bd 2322 a9bc acac 88bd c8b6 ca3a
000003b0: 18e3 5cbc 47ef 203d 0140 2b3d 363b eebc
000003c0: 7178 d13d 1fb7 9cbd 2a42 cfbd 7102 33bd
000003d0: 84e3 8b3d 9324 ef3d 7566 ff3d 8492 f03c
000003e0: d133 2b3e 5209 563e 9740 8d3e 2046 6b3e
000003f0: 4c87 48bd 5e55 343e d3d1 723e 6115 893e

conv4.bias f4 [10]
-0.22294988 -0.117185 -0.05544749 -0.03065486 -0.049469396 -0.16619809 -0.12182717 0.03885729
-0.093897834 0.020793999
00000000: f94c 64be b0fe efbd e81c 63bd e71f fbbc
00000010: 6ca0 4abd d52f 2abe 8680 f9bd d228 1f3d
00000020: 824d c0bd 2d58 aa3c

norm.weight f4 [10]
0.9166105 1.068394 0.8444005 0.99065846 1.053503 1.1186163 0.9425496 1.058457
0.9778328 1.0471673
00000000: fca6 6a3f 22c1 883f a22a 583f cb9b 7d3f
00000010: 30d9 863f d22e 8f3f ee4a 713f 857b 873f
00000020: 4053 7a3f 9409 863f

norm.bias f4 [10]
-0.3262296 -0.33615 -0.23417108 -0.31341124 -0.26961407 -0.36893085 -0.3564042 -0.23677482
-0.31142572 -0.36823145
00000000: 9107 a7be da1b acbe 8bca 6fbe 7077 a0be
00000010: db0a 8abe 81e4 bcbe 9c7a b6be 1975 72be
00000020: 3173 9fbe d588 bcbe

norm.running_mean f4 [10]
0.6010832 -0.63273126 1.577099 -0.47793087 0.2810794 -0.35853672 -0.3060414 0.46275088
0.57953846 0.21373354
00000000: 97e0 193f adfa 21bf 61de c93f 5bb3 f4be
00000010: a4e9 8f3e 2092 b7be 75b1 9cbe afed ec3e
00000020: a25c 143f f7dc 5a3e

norm.running_var f4 [10]
0.72484666 0.6714767 1.1488296 0.80211 0.4773148 0.5296607 0.37334147 0.73511344
0.5294846 0.66240406
00000000: 8d8f 393f e6e5 2b3f d90c 933f 1557 4d3f
00000010: 9b62 f43e d897 073f 9d26 bf3e 6530 3c3f
00000020: 4e8c 073f 5093 293f

fc1.weight f4 [50, 810]
0.022021443 -0.03401741 0.035017133 -0.005614174 -0.03925768 0.0027471406 -0.03199063 -0.017841997
0.035417244 -0.060454834 -0.015874779 -0.015566733 0.0055573205 0.042875327 0.0287409 -0.022422392
0.017681483 0.0071078273 -0.072647765 -0.01804711 0.030318456 0.050623596 -0.003948125 -0.063423224
0.02026715 -0.030049544 0.051917505 -0.012602821 -0.033593934 -0.00032725785 -0.056024686 0.020534124
-0.022601897 -0.014799434 -0.02034951 0.027107986 -0.024846124 -0.04840878 0.033210408 0.029732203
0.016707813 -0.0733501 0.008003219 0.018427908 0.028671077 -0.006408216 0.054514304 0.0033609902
-0.032592468 0.01757503 -0.024049243 0.025817012 0.0020278017 0.005326554 0.022585176 -0.005169414
0.009081215 0.018323092 0.001068573 -0.06380987 0.023575924 0.018619107 -0.05292896 -0.062351774
-0.0111155715 0.0059263497 0.0075796396 -0.0064295107 0.008221232 -0.019443294 0.00043014862 0.06682832
-0.0043745833 -0.030041175 -0.031341493 -0.020947449 0.0208085 0.012625296 -0.0027949328 -0.00035846254
-0.02470901 -0.04088303 -0.021730771 -0.030477958 -0.019837871 0.020386957 0.035220906 -0.053393587
0.018178847 0.0021267214 -0.04805428 0.03139025 -0.032528717 0.027638635 -0.03277528 0.016293041
0.059403427 -0.015359314 -0.030084249 -0.05451723 -0.06652299 0.038274206 0.024387885 -0.027829064
-0.012078451 0.034473423 -0.010800734 0.009410231 0.03150793 0.004086458 -0.0059117274 0.022693448
-0.012876245 -0.013234637 -0.028192181 0.047166765 -0.05696343 -0.013928731 0.044256333 -0.018270243
-0.014238655 0.006438882 -0.015688866 -0.0026824889 -0.06452764 -0.0044692135 0.011405834 -0.05408111
-0.02512208 -0.01732413 0.0005291762 0.012212699 -0.04618476 -0.03934961 -0.047433104 0.03125786
0.032349575 -0.01077242 0.03998029 0.011408775 0.01351367 0.006987116 0.015131955 -0.025455248
-0.027484464 -0.03413813 -0.025254473 0.026387831 0.05536146 -0.054486558 0.032753047 0.00048268758
-0.053252455 0.02730388 0.014315781 -0.00425336 0.0021430696 -0.0024259386 0.05273558 0.021700032
0.05393091 0.051992383 -0.028385118 0.0054760086 0.018497601 0.02058753 -0.060031682 0.039891995
-0.06236785 -0.033549123 0.06403029 0.005423234 -0.03602674 0.0068052923 0.03934707 0.026541002
0.023589838 0.015341385 -0.006780284 -0.016092164 -0.045338385 0.0033445065 -0.0125617 0.054757122
-0.030059006 -0.024044305 0.013673221 -0.0014303961 0.04718713 -0.0006804029 0.04784728 0.02592155
-0.010306676 0.046297148 0.04033933 0.024740161 0.04012315 0.00030540273 -0.009962213 0.036187083
-0.00056000054 0.041827906 0.034978446 -0.0631367 -0.015826317 0.05787438 -0.0095897205 -0.07742783
-0.019386422 0.0059849108 0.027681664 -0.022434238 -0.034150258 0.05847029 -0.009704256 -0.038642664
0.014470698 0.0049493695 0.042865433 -0.059933405 0.010613449 -0.020913292 -0.07068786 0.035123687
-0.022409147 0.009805308 0.010103329 0.020122241 0.057823665 -0.036856186 0.021996344 -0.019648965
-0.004382502 0.03477054 -0.07016343 -0.02843075 0.008719757 -0.0134979775 -0.010616037 0.02032115
-0.029468382 0.028526105 -0.047578372 -0.00091917405 -0.008705451 -0.01910669 0.0010278592 -0.011985175
-0.06588024 -0.030639624 -0.02378747 -0.014515454 -0.011440443 -0.01712333 -0.049608916 -0.050993476
00000000: 5066 b43c d755 0bbd 206e 0f3d 1bf7 b7bb
00000010: a9cc 20bd 5f09 343b 9b08 03bd 6129 92bc
00000020: ac11 113d 7d9f 77bd d30b 82bc 9c0b 7fbc
00000030: 2f1a b63b 0a9e 2f3d 0972 eb3c 2aaf b7bc
00000040: c2d8 903c c7e8 e83b 5ac8 94bd 88d7 93bc
00000050: 695e f83c b05a 4f3d 465f 81bb 09e4 81bd
00000060: 4b07 a63c 762a f6bc 73a7 543d 107c 4ebc
00000070: cb99 09bd ce93 abb9 247a 65bd 2e37 a83c
00000080: 9d27 b9bc 5379 72bc 04b4 a6bc 9111 de3c
00000090: 198a cbbc 4948 46bd a307 083d f390 f33c
000000a0: d3de 883c 9438 96bd ef1f 033c 20f6 963c
000000b0: 9bdf ea3c 03fc d1bb 644a 5f3d 0f44 5c3b
000000c0: ae7f 05bd 82f9 8f3c eb02 c5bc 337e d33c
000000d0: dee4 043b 608a ae3b 8c04 b93c 3064 a9bb
000000e0: 60c9 143c 4f1a 963c 5c0f 8c3a c0ae 82bd
000000f0: 4c22 c13c 1987 983c 0acc 58bd 9364 7fbd
00000100: 161e 36bc d331 c23b a05e f83b a5ae d2bb
00000110: 59b2 063c 8b47 9fbc 9285 e139 49dd 883d
00000120: aa58 8fbb e918 f6bc f05f 00bd fc99 abbc
00000130: 9676 aa3c 54da 4e3c 312b 37bb 07f0 bbb9
00000140: 8d6a cabc f774 27bd bb04 b2bc e9ac f9bc
00000150: 0883 a2bc 8c02 a73c cc43 103d 3cb3 5abd
00000160: ceeb 943c 7760 0b3b 91d4 44bd 1093 003d
00000170: d53c 05bd 6b6a e23c 5f3f 06bd fc78 853c
00000180: 0251 733d a2a5 7bbc 3e73 f6bc 754d 5fbd
00000190: 353d 88bd 6ac5 1c3d 1ac9 c73c c7f9 e3bc
000001a0: b2e4 45bc 0134 0d3d 90f5 30bc 5f2d 1a3c
000001b0: 760e 013d b2e7 853b 2ab7 c1bb 9ce7 b93c
000001c0: e3f6 52bc 17d6 58bc 4af3 e6bc f031 413d
000001d0: 7c52 69bd 5535 64bc 2146 353d 7aab 95bc
000001e0: 3f49 69bc 42fd d23b f085 80bc b2cc 2fbb
000001f0: 1127 84bd 7b72 92bb 89df 3a3c 2784 5dbd
00000200: d2cc cdbc 55eb 8dbc 6ab8 0a3a c617 483c
00000210: 3b2c 3dbd 0f2d 21bd 3749 42bd 3e08 003d
00000220: fd80 043d ce7e 30bc 5fc2 233d dfeb 3a3c
00000230: 7168 5d3c 2df4 e43b 05ec 773c 8687 d0bc
00000240: 1927 e1bc 6cd4 0bbd 78e2 cebc 4b2b d83c
00000250: b3c2 623d 4c2d 5fbd 0f28 063d 3b11 fd39
00000260: 3f1f 5abd 63ac df3c bd8c 6a3c c55f 8bbb
00000270: be72 0c3b 7ffc 1ebb 4301 583d 44c4 b13c
00000280: a8e6 5c3d f7f5 543d e887 e8bc 1770 b33b
00000290: 4888 973c 2ea7 a83c c8e3 75bd ca65 233d
000002a0: 6e75 7fbd ce6a 09bd 5022 833d 62b5 b13b
000002b0: c690 13bd eefe de3b 652a 213d 846c d93c
000002c0: 7a3f c13c 6f5a 7b3c 252d debb b7d3 83bc
000002d0: beb4 39bd 822f 5b3b 97cf 4dbc 0149 603d
000002e0: 4e3e f6bc 90f8 c4bc a505 603c 217c bbba
000002f0: 4b47 413d 115d 32ba 82fb 433d 6e59 d43c
00000300: 55dd 28bc 14a2 3d3d da3a 253d e1ab ca3c
00000310: 2c58 243d 761e a039 8d38 23bc e838 143d
00000320: 00cd 12ba bd53 2b3d 8f45 0f3d d04d 81bd
00000330: 31a6 81bc b00d 6d3d 341e 1dbc 7b92 9ebd
00000340: 46d0 9ebc 121d c43b a8c4 e23c 02c8 b7bc
00000350: 24e1 0bbd 8b7e 6f3d 9afe 1ebc c547 1ebd
00000360: 8216 6d3c 522e a23b aa93 2f3d bb7c 75bd
00000370: 08e4 2d3c 5a52 abbc ccc4 90bd dbdd 0f3d
00000380: 6393 b7bc 71a6 203c 6f88 253c 66d7 a43c
00000390: 82d8 6c3d 83f6 16bd ad31 b43c def6 a0bc
000003a0: 179b 8fbb 8e6b 0e3d d8b1 8fbd 9be7 e8bc
000003b0: 50dd 0e3c 9f26 5dbc e3ee 2dbc 8a78 a63c
000003c0: ad67 f1bc 94af e93c 8ae1 42bd baf4 70ba
000003d0: 4fa1 0ebc a285 9cbc 3bb9 863a 785d 44bc
000003e0: 38ec 86bd f3ff fabc f1dd c2bc 3ad2 6dbc
000003f0: b270 3bbc 3a46 8cbc b832 4bbd 89de 50bd

fc1.bias f4 [50]
-0.0026620713 0.04817601 -0.03456996 -0.06339763 0.07477209 0.0027193625 0.08922095 0.10079865
-0.048567183 -0.059082888 -0.0053944485 0.009218628 0.20278338 -0.0471724 0.078715764 -0.06725801
0.015227124 -0.019575061 -0.043552283 -0.043518316 -0.017633613 -0.060723145 -0.009907474 -0.014016137
-0.060583964 0.2773311 0.0007008627 -0.03159933 -0.007789361 -0.017110635 -0.062880605 -0.06059532
-0.017956508 -0.0039433865 -0.026413972 -0.011985666 -0.010535519 -0.025221674 -0.014182032 -0.0028327587
-0.0036968405 -0.04737006 -0.04450116 -0.039671544 0.0092262095 -0.020296888 -0.0047718417 -0.016497174
-0.039320543 0.04178272
00000000: 2576 2ebb 3554 453d 3b99 0dbd 9ed6 81bd
00000010: 1c22 993d 5537 323b 79b9 b63d 866f ce3d
00000020: 62ee 46bd e600 72bd eac3 b0bb ba09 173c
00000030: 72a6 4f3e d937 41bd bb35 a13d 91be 89bd
00000040: 307b 793c e15b a0bc e163 32bd 4340 32bd
00000050: 5e74 90bc d5b8 78bd f552 22bc f1a3 65bc
00000060: e426 78bd 58fe 8d3e 1aba 373a 4d6e 01bd
00000070: e53d ffbb 9a2b 8cbc 8cc7 80bd cc32 78bd
00000080: 8719 93bc 8637 81bb 1d62 d8bc 875f 44bc
00000090: 2b9d 2cbc af9d cebc c15b 68bc cea5 39bb
000000a0: b146 72bb 1c07 42bd d946 36bd a17e 22bd
000000b0: 8729 173c a945 a6bc 1c5d 9cbb 1525 87bc
000000c0: 940e 21bd 5b24 2b3d

fc2.weight f4 [7, 50]
-0.027090304 0.032280054 -0.015882708 -0.06411522 0.08578494 0.12536006 0.055931974 0.047541883
-0.16310444 -0.045355294 -0.09105774 0.047420904 0.30417654 -0.022976099 0.24252991 0.1536087
-0.17781551 -0.11372424 0.09826104 -0.10140019 -0.045307864 0.1018035 -0.16030371 -0.021228429
0.00931211 -0.077052884 -0.15970995 -0.10760751 0.06591298 0.016893633 -0.28904542 -0.16128536
0.014921762 -0.078193665 0.07111581 -0.024928696 -0.061913025 0.038180172 0.10682737 0.024473244
0.0026634692 -0.0012758392 0.098548874 -0.13660008 0.079976864 0.052915238 0.102745816 -0.09906205
0.09470576 -0.18119851 -0.06613437 0.06814055 -0.044744063 0.06865559 -0.09344848 -0.1060996
0.04594379 -0.10656411 -0.06422649 0.091917224 -0.01946006 0.10184075 0.22662316 -0.1600497
0.06950009 -0.041453373 -0.25584775 -0.37481594 0.08878771 0.080885194 0.008559755 -0.0573182
0.058045313 0.023530403 -0.09786843 0.504396 -0.4513679 0.050582565 0.08938499 -0.28176
-0.18047856 -0.026101083 -0.048214745 -0.0968424 -0.013290259 -0.18425204 0.093399964 -0.15484643
0.09692534 0.07281631 0.10323532 -0.05539628 0.10610964 0.030939152 0.012110812 -0.10551363
0.0281762 0.01831046 -0.05055303 -0.14761314 -0.068827406 -0.14401004 0.10972813 0.10947198
0.02189325 -0.06970419 -0.15189552 0.24317904 -0.06190085 0.048859015 0.0759093 0.09858876
-0.005401044 0.031817608 0.05977286 0.09074199 0.18708731 0.18995173 0.07051893 0.03026594
-0.08370886 0.0023471385 -0.0610004 -0.06558636 -0.023723898 -0.09945465 -0.11596872 0.011831451
0.10930636 0.015530541 -0.09312177 -0.07595336 0.034111302 0.100162536 0.0074255113 -0.015819976
0.11090825 -0.088996194 0.019787507 -0.07008068 -0.011078917 -0.026973262 -0.11600605 -0.049742885
-0.052679814 0.0019193649 -0.088479795 -0.08522647 -0.07825555 0.096272916 -0.04346159 -0.31628016
-0.07302255 -0.059859734 -0.05594148 -0.1350955 0.010305873 -0.18264915 -0.10309017 0.0015033317
-0.10162185 -0.09770496 -0.04079226 -0.0694043 0.03861472 0.019354587 -0.05902055 -0.10145493
-0.048059907 0.0822198 0.012782561 0.06550776 0.036767785 -0.0899319 0.077213764 -0.042718295
-0.03876502 -0.11488315 -0.0025584036 -0.108776815 0.36005816 0.070366226 0.100385934 0.0013041807
0.13656303 -0.1578268 0.010799736 -0.08963519 -0.095421314 -0.10239065 -0.10590013 0.08903046
-0.12614599 0.08454367 -0.008452582 0.080215715 0.19566083 -0.09748434 0.10350564 -0.036601692
0.074568436 0.26603234 -0.08777349 0.046144217 0.117252894 -0.0356407 -0.18237989 -0.1686034
0.07605783 -0.14088352 -0.16832078 -0.030323545 -0.1548258 -0.009230453 0.008481836 0.11311268
0.29562402 -0.16195051 0.045719445 -0.090400785 -0.026337244 -0.13108596 -0.056311555 0.05405452
0.03851737 0.026527574 0.006371978 -0.17366576 -0.035687868 -0.31507012 0.18518387 0.09739249
-0.061684657 0.09229225 -0.07010433 -0.25335208 -0.10674184 -0.027566265 -0.012282596 0.033338487
0.09147604 0.051392406 0.14659993 0.033811755 -0.025443992 0.09846025 -0.030487146 -0.147267
-0.07906627 -0.19227424 0.06662377 -0.1656101 -0.13138561 -0.10362145 -0.071904995 0.06442445
00000000: 7cec ddbc 1738 043d 741c 82bc d74e 83bd
00000010: 04b0 af3d 635e 003e ed18 653d 47bb 423d
00000020: da04 27be 79c6 39bd 7b7c babd 6c3c 423d
00000030: 07bd 9b3e 5f38 bcbc c359 783e 994b 1d3e
00000040: 4515 36be 41e8 e8bd 163d c93d e7aa cfbd
00000050: bd94 39bd 5a7e d03d a826 24be 3ee7 adbc
00000060: d291 183c e7cd 9dbd 018b 23be 5461 dcbd
00000070: 62fd 863d 8464 8a3c c3fd 93be fd27 25be
00000080: 687a 743c 0024 a0bd 2aa5 913d 4437 ccbc
00000090: 8398 7dbd d062 1c3d 4fc8 da3d 1d7c c83c
000000a0: 998d 2e3b 0f3a a7ba fed3 c93d e4e0 0bbe
000000b0: e9ca a33d a6bd 583d 666c d23d 0be1 cabd
000000c0: 18f5 c13d 1a8c 39be 7571 87bd 468d 8b3d
000000d0: 8d45 37bd 4d9b 8c3d eb61 bfbd bf4a d9bd
000000e0: 8e2f 3c3d 493e dabd 2e89 83bd 193f bc3d
000000f0: b46a 9fbc e291 d03d e70f 683e 12e4 23be
00000100: 1056 8e3d 03cb 29bd 7afe 82be e0e7 bfbe
00000110: 55d6 b53d 23a7 a53d 373e 0c3c 7dc6 6abd
00000120: ecc0 6d3d d5c2 c03c 3e6f c8bd 1920 013f
00000130: b219 e7be aa2f 4f3d 7a0f b73d d942 90be
00000140: 5fcf 38be f0d1 d5bc d37c 45bd 4f55 c6bd
00000150: 63bf 59bc 91ac 3cbe 7b48 bf3d 1090 1ebe
00000160: cb80 c63d b820 953d 0a6d d33d 36e7 62bd
00000170: 0350 d93d 1b74 fd3c 6d6c 463c 8817 d8bd
00000180: c6d1 e63c d1ff 953c b210 4fbd e627 17be
00000190: 62f5 8cbd 5e77 13be 24b9 e03d d832 e03d
000001a0: 7959 b33c 12c1 8ebd 808a 1bbe ed03 793e
000001b0: bf8b 7dbd 6420 483d 5676 9b3d e7e8 c93d
000001c0: 3efb b0bb 2e53 023d 63d4 743d f0d6 b93d
000001d0: d193 3f3e b582 423e 3b6c 903d 47f0 f73c
000001e0: 8d6f abbd 73d2 193b 8edb 79bd 2452 86bd
000001f0: 9f58 c2bc e1ae cbbd 0281 edbd b4d8 413c
00000200: 03dc df3d cf73 7e3c a0b6 bebd 6f8d 9bbd
00000210: 4bb8 0b3d 0422 cd3d b451 f33b e598 81bc
00000220: dd23 e33d a343 b6bd 6919 a23c 7686 8fbd
00000230: 5984 35bc 08f7 dcbc 9494 edbd 32bf 4bbd
00000240: cac6 57bd 3393 fb3a e534 b5bd 378b aebd
00000250: 7244 a0bd bc2a c53d c804 32bd 79ef a1be
00000260: d98c 95bd 7b2f 75bd e522 65bd 7a56 0abe
00000270: f7d9 283c 6108 3bbe f020 d3bd 710b c53a
00000280: 1e1f d0bd 8a19 c8bd c915 27bd d723 8ebd
00000290: 782a 1e3d 838d 9e3c 88bf 71bd 9ac7 cfbd
000002a0: 77da 44bd db62 a83d f26d 513c ef28 863d
000002b0: d199 163d 372e b8bd 4022 9e3d 61f9 2ebd
000002c0: 12c8 1ebd db47 ebbd e4aa 27bb 61c6 debd
000002d0: 8b59 b83e 2b1c 903d 2497 cd3d 0bf1 aa3a
000002e0: 2ed7 0b3e 599d 21be 60f1 303c a892 b7bd
000002f0: 406c c3bd 30b2 d1bd 2be2 d8bd 9a55 b63d
00000300: 6a2c 01be 3b25 ad3d b37c 0abc 2348 a43d
00000310: 505b 483e dfa5 c7bd c4fa d33d a8eb 15bd
00000320: 56b7 983d 6435 883e 96c2 b3bd b801 3d3d
00000330: 4922 f03d fcfb 11bd cbc1 3abe 5fa6 2cbe
00000340: 35c4 9b3d c543 10be 485c 2cbe 1569 f8bc
00000350: a88a 1ebe 533b 17bc 66f7 0a3c 9fa7 e73d
00000360: 085c 973e 5bd6 25be 5044 3b3d 0c24 b9bd
00000370: 34c1 d7bc 663b 06be f2a6 66bd 4668 5d3d
00000380: 64c4 1d3d 5b50 d93c 07cc d03b 70d5 31be
00000390: 712d 12bd df50 a1be d7a0 3d3e b775 c73d
000003a0: 0da9 7cbd b803 bd3d dc92 8fbd 5db7 81be
000003b0: 779b dabd a6d2 e1bc f13c 49bc f08d 083d
000003c0: ca57 bb3d d880 523d 4b1e 163e 327e 0a3d
000003d0: eb6f d0bc 87a5 c93d 2ec0 f9bc 29cd 16be
000003e0: 7fed a1bd 8ae3 44be 0b72 883d b295 29be
000003f0: f389 06be 7c37 d4bd ed42 93bd f7f0 833d

fc2.bias f4 [7]
0.015851144 0.33851102 -0.07467564 0.09065149 -0.20105125 -0.08983311 -0.19100006
00000000: 42da 813c 5151 ad3e 8bef 98bd 7da7 b93d
00000010: 61e0 4dbe 6cfa b7bd 8595 43be

localization.0.weight f4 [8, 1, 7, 7]
-0.05833183 0.081608206 -0.07334265 -0.13631028 -0.053957395 0.0001701489 -0.111275546 -0.042874247
-0.18472967 -0.013389933 -0.1505361 -0.09254322 0.13883737 0.075013354 0.061954077 -0.024340102
-0.07093767 0.052149348 -0.1489678 -0.03502642 0.06184988 -0.088303566 0.073097356 -0.07509261
-0.16168639 -0.09424428 -0.20904547 -0.1306463 0.056222882 0.019446323 0.055895627 0.054207757
0.0017252162 -0.17214319 -0.02422573 -0.10784683 0.0055584456 -0.10234889 -0.046718534 -0.018261164
-0.1315825 -0.15421157 -0.06772858 -0.10578203 -0.00204266 0.10598093 -0.0558388 -0.013975832
0.112076424 -0.052515253 0.09863123 0.03879793 -0.04149268 -0.053918958 0.023901852 0.051939014
-0.120985664 5.1327825e-05 -0.22188684 0.027542695 -0.11820824 -0.14443399 0.033940505 -0.054056972
-0.119180515 -0.1613309 -0.09553922 -0.1390409 -0.087833166 -0.031718418 0.12235321 -0.0062778457
0.15491721 -0.07952003 -0.023702145 -0.07983992 -0.13799684 0.07095461 0.1348258 0.14311655
0.07015343 0.20046754 0.13276447 0.1159966 0.073792264 0.035135534 -0.07197835 -0.06093507
0.124850966 -0.09932273 -0.0070783785 0.0875562 -0.123640925 -0.02899033 0.12871183 0.118263446
0.0016907587 0.025809838 0.084341764 0.035308886 0.031280234 -0.17319767 -0.16528441 0.018694893
-0.21199067 0.044433475 0.04160599 0.061279602 0.02249954 -0.13154837 -0.078214124 -0.013885906
-0.058779232 0.19161303 0.010306665 0.14454605 -0.05131774 0.117982686 0.021991564 -0.029923996
0.1431256 0.045360196 0.014426711 -0.014603906 -0.08457492 -0.124015406 0.027471203 -0.06612004
0.04701626 -0.12621443 0.11280432 0.16323395 -0.076408915 0.12366747 -0.09951156 0.12983225
-0.032726675 0.1561915 -0.053467944 0.13753812 0.07737568 -0.023674093 -0.02223712 0.123373374
-0.10327455 -0.10379913 -0.068893105 -0.114285305 -0.2465517 -0.03128873 -0.22334231 -0.024438549
-0.08405429 0.023172025 -0.03462295 -0.084646486 -0.061946657 -0.12139461 -0.20670024 -0.013746811
0.07779759 -0.18117522 -0.08579488 -0.09935261 0.06153298 -0.16138536 -0.027765768 0.018587582
-0.05377541 -0.08910574 0.036207013 -0.13084741 -0.2018071 0.062119536 0.016709013 -0.043222435
0.0028356165 -0.14706874 -0.07131662 -0.11251236 0.033689387 0.1108179 -0.038872533 -0.16251457
0.06901752 0.016225431 0.0077401944 0.05525402 -0.022002539 -0.057474166 -0.10823696 -0.22669657
-0.008170621 0.04175211 -0.1005296 0.08036698 -0.108277224 0.0057514235 0.09620396 0.11914641
-0.057620134 -0.027235828 -0.09648016 -0.0392016 0.17522825 -0.039205052 0.056162838 -0.095082104
-0.055514283 0.11732826 -0.016901989 0.046614334 0.03933689 0.04625748 0.062570035 -0.06332591
0.03232585 -0.08363536 -0.13787559 -0.034607515 0.039446853 -0.044448663 -0.21340574 -0.10946606
-0.12416571 -0.04483706 0.015327245 0.0046297596 -0.057217214 -0.07383836 -0.08097956 -0.07784542
-0.13578203 -0.18506943 -0.15045495 0.08351343 -0.0075210882 -0.023747081 -0.14993806 -0.19440655
-0.02691807 -0.0671488 -0.17808059 0.07882746 -0.007901882 -0.20711736 0.053689726 0.06494246
0.004786034 0.028692413 -0.029333996 -0.0017275244 -0.0604888 0.04986879 0.064754196 0.007953941
00000000: 5bed 6ebd 3422 a73d ac34 96bd ec94 0bbe
00000010: 6e02 5dbd ff69 3239 6fe4 e3bd e89c 2fbd
00000020: c629 3dbe 7361 5bbc 2326 1abe 4d87 bdbd
00000030: 622b 0e3e 9aa0 993d 8fc3 7d3d e564 c7bc
00000040: c547 91bd 8e9a 553d 048b 18be dd77 0fbd
00000050: 4d56 7d3d 80d8 b4bd 11b4 953d 28ca 99bd
00000060: 1e91 25be 2503 c1bd 0410 56be 25c8 05be
00000070: f749 663d e54d 9f3c d0f2 643d f408 5e3d
00000080: a620 e23a 4e46 30be 0a75 c6bc ccde dcbd
00000090: 9f23 b63b 4b9c d1bd ef5b 3fbd 7098 95bc
000000a0: 90bd 06be a3e9 1dbe 48b5 8abd 40a4 d8bd
000000b0: 26de 05bb 880c d93d 3ab7 64bd e3fa 64bc
000000c0: 5388 e53d 3c1a 57bd 2cff c93d 94ea 1e3d
000000d0: 3af4 29bd 20da 5cbd d1cd c33c 01be 543d
000000e0: 55c7 f7bd d548 5738 4e36 63be 38a1 e13c
000000f0: 2917 f2bd 81e6 13be 3305 0b3d d86a 5dbd
00000100: ea14 f4bd ed33 25be 11aa c3bd bd60 0ebe
00000110: e0e1 b3bd 2ceb 01bd 5294 fa3d 63b6 cdbb
00000120: 9ea2 1e3e 66db a2bd 002b c2bc 1d83 a3bd
00000130: 0b4f 0dbe a750 913d c60f 0a3e 258d 123e
00000140: 9aac 8f3d 5d47 4d3e 69f3 073e a08f ed3d
00000150: 6620 973d 47ea 0f3d 6369 93bd 0d97 79bd
00000160: ddb1 ff3d b769 cbbd bef1 e7bb aa50 b33d
00000170: 7437 fdbd 217d edbc 09cd 033e 1b34 f23d
00000180: 739c dd3a 276f d33c 60bb ac3d 0da0 103d
00000190: b41f 003d bb5a 31be 5140 29be 0826 993c
000001a0: 1514 59be e0ff 353d 0b6b 2a3d 5200 7b3d
000001b0: f550 b83c 9eb4 06be ba2e a0bd b681 63bc
000001c0: 7ec2 70bd 3536 443e 49dd 283c e103 143e
000001d0: 8d32 52bd e8a0 f13d a727 b43c 2b23 f5bc
000001e0: 848f 123e 9dcb 393d 035e 6c3c 3945 6fbc
000001f0: 9e35 adbd cafb fdbd 4a0b e13c f269 87bd
00000200: 1f94 403d 5b3e 01be f405 e73d cd26 273e
00000210: 477c 9cbd 5f45 fd3d b7cc cbbd bff2 043e
00000220: 680c 06bd aaf0 1f3e 3401 5bbd cbd6 0c3e
00000230: 2477 9e3d 2cf0 c1bc 9f2a b6bc 2eab fc3d
00000240: 9b81 d3bd a394 d4bd d417 8dbd 6a0e eabd
00000250: 0d78 7cbe 9d28 00bd d9b3 64be 5a33 c8bc
00000260: a824 acbd 42d3 bd3c cbd0 0dbd 235b adbd
00000270: c7bb 7dbd bd9d f8bd 3aa9 53be 4e3a 61bc
00000280: 5854 9f3d ff85 39be 3ab5 afbd 6279 cbbd
00000290: 020a 7c3d 3442 25be 0975 e3bc fc44 983c
000002a0: 9b43 5cbd 127d b6bd ce4d 143d ddfc 05be
000002b0: 85a6 4ebe 0e71 7e3d 57e1 883c 020a 31bd
000002c0: c0d5 393b 3099 16be 730e 92bd e16c e6bd
000002d0: e2fd 093d 7ff4 e23d ce38 1fbd 386a 26be
000002e0: 0f59 8d3d 32eb 843c 75a1 fd3b 0a52 623d
000002f0: ab3e b4bc 086a 6bbd 57ab ddbd 2523 68be
00000300: 11de 05bc 4304 2b3d 77e2 cdbd 7197 a43d
00000310: 73c0 ddbd 7076 bc3b 9506 c53d 0803 f43d
00000320: 1703 6cbd ac1d dfbc 6497 c5bd db91 20bd
00000330: 096f 333e 7a95 20bd 010b 663d 68ba c2bd
00000340: f262 63bd cc49 f03d 0a76 8abc acee 3e3d
00000350: b81f 213d 7c78 3d3d b824 803d 04b1 81bd
00000360: 1c68 043d 0449 abbd 422f 0dbe 9cc0 0dbd
00000370: 0693 213d cd0f 36bd 0987 5abe be2f e0bd
00000380: 974a febd 11a7 37bd 201f 7b3c 3db5 973b
00000390: 995c 6abd 9138 97bd 9dd8 a5bd 6b6d 9fbd
000003a0: 720a 0bbe d782 3dbe dd10 1abe 1709 ab3d
000003b0: 7673 f6bb 3d89 c2bc 5d89 19be 8312 47be
000003c0: 4983 dcbc 4f85 89bd c25a 36be 4b70 a13d
000003d0: e576 01bc 9316 54be c2e9 5b3d 8d00 853d
000003e0: 2ad4 9c3b 5a0c eb3c d94d f0bc 1a6e e2ba
000003f0: 1bc3 77bd 3743 4c3d d99d 843d 3f51 023c

localization.0.bias f4 [8]
-0.16797377 -0.01572603 -0.034822512 0.011751389 -0.14000502 -0.34373283 -0.12930425 -0.029870367
00000000: 5101 2cbe e0d3 80bc 0da2 0ebd e688 403c
00000010: 7a5d 0fbe c0fd afbe 5568 04be b3b2 f4bc

localization.3.weight f4 [10, 8, 5, 5]
-0.020985868 0.008356152 -0.03960479 -0.043215394 0.00021139297 0.04738119 0.013838222 -0.0069114254
-0.032221157 0.037082035 -0.04829535 -0.01999838 -0.053331614 0.041723195 0.052870702 -0.0070165955
-0.028103694 -0.068546705 -0.056557532 0.043672398 0.0313731 0.023709342 0.0059971316 -0.09384654
0.0039036062 0.0071477066 -0.063787445 -0.103493206 -0.05176827 -0.0583958 -0.04481683 0.02070738
-0.06321697 -0.019606533 -0.058766313 -0.054736275 -0.014706497 -0.058135748 -0.08657022 0.015894301
-0.06545044 -0.018811917 -0.0535234 0.028093662 -0.0480463 -0.043981068 0.00043123023 -0.026295304
-0.02663789 -0.016139844 -0.09845122 -0.049902644 -0.10437139 -0.1058614 -0.078920096 -0.09420095
-0.069768034 -0.028368829 0.042991217 0.033112373 0.03173708 -0.066992424 0.0023437983 -0.07780024
0.026143035 -0.046779655 0.026731081 0.012459293 -0.036241274 0.0005359068 -0.05720129 0.03178699
-0.030722762 -0.03522905 -0.08372523 -0.093645565 -0.06744237 -0.076785065 -0.07078952 0.018776787
0.037629787 -0.08365788 0.024629239 -0.092942424 0.029656166 -0.01917286 -0.07149935 0.03446041
-0.03477902 -0.06263591 -0.102151036 -0.04628524 0.0060626366 -0.08354253 -0.07631312 -0.07034354
-0.060298588 -0.015204096 -0.041833572 0.04174985 0.024849845 -0.03204511 -0.0452103 -0.042803045
-0.0612205 -0.04300351 2.3637496e-05 -0.067433275 -0.107475504 0.003953569 -0.052842118 0.048051484
-0.1095722 0.0032872623 0.00034919262 0.0021930295 -0.088741295 -0.0070215017 -0.0722462 0.011713802
-0.03594282 -0.08183714 0.054225165 0.042483285 0.054565433 -0.05710362 -0.021643182 -0.017771158
0.052300427 -0.047425795 -0.036072493 -0.05713163 -0.07480061 -0.023505745 0.0073952475 -0.0018208988
-0.008466935 -0.015426029 -0.03668833 0.011834306 -0.08313722 0.032436 0.004793876 0.045420773
0.05896456 -0.00668905 -0.035018757 0.03901801 0.051248796 -0.07317517 -0.05282267 -0.06641005
0.027775418 -0.08743132 0.012110729 -0.062388625 0.0421536 -0.005165851 0.018259864 0.021906512
0.017463975 0.005362923 -0.041947894 0.025875539 -0.11147078 -0.073515646 -0.08950115 0.032116923
-0.027803639 0.048931714 -0.0830692 0.013726207 -0.045648497 -0.07149273 0.02423921 -0.030547315
-0.023772996 0.00907684 0.039143942 0.021848263 -0.016971549 -0.046515882 0.031720392 0.027885122
0.012192043 0.04143036 -0.040534113 -0.021455364 -0.039394 -0.061644435 -0.041427966 -0.078995824
-0.03991015 -0.05197736 -0.08249769 0.009931706 -0.10625814 -0.006249764 -0.06636526 0.054617673
-0.016576074 -0.06411558 0.01843143 -0.06708188 -0.0082923295 0.004539955 0.03626925 -0.022953661
-0.046848703 0.009659231 -0.046738464 -0.04386509 -3.4548866e-05 0.03303845 -0.061103705 -0.072982974
-0.069581844 0.019452615 -0.020438021 -0.06781442 0.0019903767 -0.012681695 0.043905884 0.043424908
-0.031149864 -0.06574466 -0.049760148 -0.058747236 -0.08805141 -0.06235005 -0.06494787 -0.04430742
-0.00073380955 -0.04063768 -0.013274462 -0.04883362 -0.075446196 0.031043706 -0.081569746 -0.05580594
0.008532741 -0.04565432 -0.036575526 -0.09304916 -0.049615964 -0.02404926 -0.042654417 -0.054628298
0.04502934 -0.05194157 0.0041146735 -0.03458147 -0.07104137 -0.08130762 0.02474574 -0.083598696
00000000: 8eea abbc 3ee8 083c a238 22bd a002 31bd
00000010: 5ea9 5d39 c712 423d b6b9 623c 3d79 e2bb
00000020: 55fa 03bd 55e3 173d 58d1 45bd a5d3 a3bc
00000030: 4072 5abd f1e5 2a3d f38e 583d 78eb e5bb
00000040: b839 e6bc 3762 8cbd dfa8 67bd d4e1 323d
00000050: 1481 003d 183a c23c 9683 c43b 9d32 c0bd
00000060: a5d3 7f3b 4f37 ea3b fea2 82bd 3ff4 d3bd
00000070: f70a 54bd 6f30 6fbd da91 37bd 86a2 a93c
00000080: e677 81bd e19d a0bc f2b4 70bd 2533 60bd
00000090: 85f3 70bc c01f 6ebd ba4b b1bd c434 823c
000000a0: e10a 86bd 731b 9abc 5a3b 5bbd ae24 e63c
000000b0: 32cc 44bd 7e25 34bd be16 e239 4069 d7bc
000000c0: b437 dabc b537 84bc cba0 c9bd b766 4cbd
000000d0: abc0 d5bd ddcd d8bd dca0 a1bd 6dec c0bd
000000e0: 8be2 8ebd bf65 e8bc 8f17 303d d7a0 073d
000000f0: befe 013d 5333 89bd 699a 193b bb55 9fbd
00000100: eb29 d63c 069c 3fbd 24fb da3c 1022 4c3c
00000110: bb71 14bd 197c 0c3a e64b 6abd 1333 023d
00000120: 4dae fbbc 564c 10bd 2278 abbd 3fc9 bfbd
00000130: 3a1f 8abd 7d41 9dbd 19fa 90bd c7d1 993c
00000140: b121 1a3d d354 abbd 42c3 c93c 9958 bebd
00000150: 7df1 f23c 6710 9dbc 406e 92bd 5c26 0d3d
00000160: 7274 0ebd 4247 80bd 9034 d1bd 9895 3dbd
00000170: 15a9 c63b 5918 abbd 0e4a 9cbd 4610 90bd
00000180: a7fb 76bd 9a1a 79bc ae59 2bbd e401 2b3d
00000190: e791 cb3c bc41 03bd 6f2e 39bd 3f52 2fbd
000001a0: 59c2 7abd 7324 30bd 2349 c637 751a 8abd
000001b0: 1e1c dcbd f18c 813b fa70 58bd a2d1 443d
000001c0: 6467 e0bd 1c6f 573b d713 b739 eeb8 0f3b
000001d0: ffbd b5bd a014 e6bb d1f5 93bd 3feb 3f3c
000001e0: c738 13bd 3b9a a7bd 351b 5e3d f402 2e3d
000001f0: 0180 5f3d 7ce5 69bd 0b4d b1bc d294 91bc
00000200: f938 563d 8d41 42bd c0c0 13bd db02 6abd
00000210: 1031 99bd 1f8f c0bc d553 f23b 3aab eeba
00000220: e6b8 0abc 75bd 7cbc 8146 16bd ade4 413c
00000230: d943 aabd 9cdb 043d f215 9d3b 220b 3a3d
00000240: d384 713d d12f dbbb d46f 0fbd 59d1 1f3d
00000250: 42ea 513d dddc 95bd 965c 58bd fe01 88bd
00000260: 4689 e33c 310f b3bd 146c 463c 378b 7fbd
00000270: 41a9 2c3d 4d46 a9bb b695 953c 4975 b33c
00000280: 9c10 8f3c 75bb af3b 8ed1 2bbd f0f8 d33c
00000290: cb4a e4bd 5f8f 96bd 614c b7bd 098d 033d
000002a0: 75c4 e3bc 9f6c 483d 2f20 aabd e3e3 603c
000002b0: ebf9 3abd c86a 92bd 4f91 c63c 5d3e fabc
000002c0: 96bf c2bc 07b7 143c 6655 203d 21fb b23c
000002d0: eb07 8bbc 7087 3ebd 3eed 013d 576f e43c
000002e0: 22c1 473c e2b2 293d 1907 26bd 29c3 afbc
000002f0: 9a5b 21bd e07e 7cbd 5fb0 29bd 90c8 a1bd
00000300: d378 23bd 36e6 54bd 8df4 a8bd 98b8 223c
00000310: de9d d9bd d2ca ccbb 82ea 87bd c8b6 5f3d
00000320: 8cca 87bc 074f 83bd 83fd 963c 3a62 89bd
00000330: 8ddc 07bc e7c3 943b 118f 143d 5109 bcbc
00000340: 6de4 3fbd c041 1e3c d570 3fbd e1ab 33bd
00000350: 90e8 10b8 5353 073d e147 7abd 1978 95bd
00000360: ed80 8ebd 175b 9f3c a36d a7bc 49e2 8abd
00000370: fb70 023b e2c6 4fbc a8d6 333d 51de 313d
00000380: 002e ffbc 23a5 86bd 4cd1 4bbd f1a0 70bd
00000390: 4c54 b4bd c462 7fbd 6403 85bd b27b 35bd
000003a0: 205d 40ba b273 26bd 217d 59bc c305 48bd
000003b0: 8983 9abd 5f4f fe3c 0a0e a7bd c594 64bd
000003c0: e9cc 0b3c 0600 3bbd 38d0 15bd 8f90 bebd
000003d0: 1c3a 4bbd f402 c5bc 66b6 2ebd ecc1 5fbd
000003e0: af70 383d afc0 54bd 62d4 863b 4da5 0dbd
000003f0: 237e 91bd 9c84 a6bd 94b7 ca3c cb35 abbd
