deep_emotion-ckplus-30-8-0.003.pt (torch, 274522 bytes, 24 tensors)

conv1.weight f4 [10, 1, 3, 3]
0	0x3cd8ed72	0.02648041
1	0x3e042839	0.12905969
2	0x3ead1112	0.33802086
3	0x3e4cb04b	0.19989125
4	0xbe903d42	-0.28171736
5	0x3d501f4c	0.050811097
6	0xbce2786f	-0.027645318
7	0xbea27e82	-0.31737143
8	0xbe0a74c8	-0.13521111
9	0xbdbe5658	-0.092938125
10	0x3e92b6ca	0.28655082
11	0x3e136f27	0.1439787
12	0xbe9e5e0b	-0.30931124
13	0x3ce52877	0.027973397
14	0xbe19f36e	-0.15034267
15	0x3d971e31	0.073788054
16	0x3d4c3445	0.049854536
17	0xbd8b6ad6	-0.06807487
18	0xbe2c197b	-0.16806595
19	0xbd310182	-0.04321433
20	0x3c5ee74a	0.013604948
21	0x3e335ba8	0.17515433
22	0xbe159edc	-0.14611381
23	0x3ecb6b6a	0.39730388
24	0xbeb252f8	-0.34828925
25	0xbd9b2c0d	-0.075767614
26	0x3e1645d8	0.14675081
27	0xbe60426d	-0.2190034
28	0xbed27728	-0.41106534
29	0xbe02e87b	-0.12783997
30	0x3e1f5672	0.1556032
31	0x3ddbada4	0.10726479
32	0xbe59a5e4	-0.21254689
33	0x3df0df6b	0.117613636
34	0x3e202a15	0.15641053
35	0x3e5e17d6	0.2168878
36	0x3c249fc4	0.010047857
37	0x3e094fae	0.13409302
38	0xbe9ca65f	-0.3059568
39	0xbdb89a39	-0.09013791
40	0x3e4bbcbe	0.19896218
41	0x3e9361d7	0.28785583
42	0x3e76392b	0.24045245
43	0x3d9e9d5e	0.07744859
44	0xbeaaadfb	-0.33335862
45	0xbe0b760f	-0.13619255
46	0xbe441015	-0.1914676
47	0x3e8ec3d1	0.2788377
48	0x3b81517f	0.0039464827
49	0x3df01c1e	0.11724113
50	0x3e7f9f2b	0.24963062
51	0xbd84db24	-0.0648711
52	0xbe2a1301	-0.16608812
53	0x3ea4d2c5	0.32192054
54	0xbd025b60	-0.031825423
55	0x3e000bd9	0.1250452
56	0x3e694772	0.2278116
57	0xbe7f0378	-0.24903667
58	0xbc8694a7	-0.016428305
59	0xbe65008e	-0.22363493
60	0x3e4422c9	0.19153894
61	0xbdcc28b0	-0.09968698
62	0x3e9925a7	0.2991154
63	0x3e22b8f9	0.15890874
64	0x3d13f234	0.036119655
65	0x3e840c34	0.2579056
66	0x3d10f27f	0.035387512
67	0xbd0b9723	-0.034079682
68	0xbdb440dd	-0.08801434
69	0x3d6397a5	0.05556454
70	0x3df23130	0.11825788
71	0x3e1c7676	0.15279564
72	0x3c0bda21	0.008535893
73	0xbd12213f	-0.035676237
74	0xbecfeaf8	-0.40608954
75	0x3de6dd63	0.11272695
76	0xbea69cc7	-0.32541487
77	0x3cc5ba83	0.024136787
78	0xbd2470ef	-0.040146764
79	0x3e5f84a7	0.21827947
80	0x3da7d26a	0.0819443
81	0x3b279501	0.002557099
82	0x3e250c92	0.16118076
83	0x3e6cdda6	0.23131427
84	0xbde5723c	-0.11203429
85	0xbe0a65aa	-0.13515344
86	0x3e85e9c7	0.2615492
87	0xbea30b53	-0.31844577
88	0xbdc9af0f	-0.09847843
89	0x3e917dc9	0.2841628

conv1.bias f4 [10]
0	0x3cf86e6e	0.030326094
1	0x3e0a8de8	0.13530695
2	0x3e600158	0.21875513
3	0xbd28336b	-0.04106466
4	0x3de361cf	0.1110264
5	0x3d943e02	0.072383896
6	0xbec2a6df	-0.38017938
7	0xbebb57df	-0.36590478
8	0xbe51f5c3	-0.20503907
9	0xbb95b26b	-0.004568388

conv2.weight f4 [10, 10, 3, 3]
0	0x3d771f14	0.060332373
1	0xbdabebc5	-0.08394579
2	0x3d9d63ba	0.07685037
3	0x3c7a1529	0.015263834
4	0xbd6f914d	-0.05848818
5	0xbdbac066	-0.09118728
6	0xbd433c4b	-0.04766492
7	0xbd2d2f44	-0.042281404
8	0xbd956969	-0.07295496
9	0x3c541f6d	0.012946946
10	0xbd88c4eb	-0.06678184
11	0xbd442063	-0.04788245
12	0xbdaa5c25	-0.083183564
13	0x3da058b9	0.078294225
14	0xb95590e8	-0.00020367245
15	0x3d553a85	0.05205776
16	0x3d8fcb22	0.070211664
17	0xbd797681	-0.06090403
18	0xbda2cc33	-0.07949104
19	0xbdee6ebf	-0.11642217
20	0xbd3b0892	-0.04566247
21	0x3b86dbe3	0.004115568
22	0xbc38614e	-0.011253668
23	0xbda36a8e	-0.07979308
24	0x3d5cd564	0.053914443
25	0xbc9089c3	-0.017643815
26	0xbddd3a40	-0.10802126
27	0x3da2480a	0.079238966
28	0x3d8f779a	0.07005234
29	0xbdc548c3	-0.09633019
30	0xbdb0c1f3	-0.08630743
31	0xbca07326	-0.019586157
32	0xbde2db55	-0.110769905
33	0x3c0c1c49	0.008551666
34	0x3cf1b09b	0.029503157
35	0xbdc668b7	-0.096879415
36	0x3d43c9ae	0.04779976
37	0xbd3e869e	-0.0465151
38	0xbdb4b84d	-0.08824215
39	0x3bdef0cf	0.006803609
40	0xbd80afcd	-0.06283531
41	0x3d1439a3	0.03618778
42	0xbda9c834	-0.08290139
43	0x3daf453e	0.08558129
44	0xbda931d9	-0.08261461
45	0xbd7c74c0	-0.06163478
46	0xbd548be2	-0.051891215
47	0xbd9dd5a3	-0.077067636
48	0xbc04e8a2	-0.008112105
49	0xbd745af2	-0.059657045
50	0xbd04d932	-0.032433696
51	0x3c30ff80	0.010803103
52	0x3d062984	0.032754436
53	0xbd9153f3	-0.0709609
54	0x3bab4dc6	0.005227777
55	0xbda310e0	-0.07962203
56	0x3b1301ea	0.002243156
57	0xbc91cf01	-0.017798902
58	0x3b43c838	0.0029873978
59	0x3da3be26	0.07995252
60	0xbdb324d9	-0.087472625
61	0x3cc68098	0.02423124
62	0x3ceaf365	0.028680513
63	0xbcb9b489	-0.022669094
64	0xbd0a5381	-0.03377104
65	0x3db215ed	0.08695588
66	0xbdb4c641	-0.088268764
67	0xbd9e1aa3	-0.07719924
68	0x3d0e17f0	0.034690797
69	0x3cdee090	0.02720669
70	0xbb7b4708	-0.0038341898
71	0x3d9ad8d6	0.075608894
72	0xbde4c525	-0.11170415
73	0x3c9c70f4	0.019096829
74	0x3d431bdc	0.04763399
75	0xbd594d28	-0.053052098
76	0xbdb77c8a	-0.08959301
77	0xbd9db9ae	-0.07701431
78	0xbd51081e	-0.05103313
79	0x3c2dbd21	0.010604174
80	0xbc0ce311	-0.008599059
81	0xbd664165	-0.05621471
82	0xbde27cba	-0.11058946
83	0x3c68300b	0.014171611
84	0x3d384e47	0.044996526
85	0xbda7e58d	-0.0819808
86	0xbd81bd78	-0.063349664
87	0x3cd5a2d6	0.026078623
88	0xbcc35734	-0.023845293
89	0x3c9bce26	0.019019198
90	0x3e03af2e	0.12859794
91	0x3cfebec2	0.03109682
92	0x3c880292	0.016602788
93	0x3cee4288	0.029084459
94	0x3d92e697	0.07172888
95	0xbd4e427b	-0.05035637
96	0x3dd0d0ca	0.10196073
97	0x3e0fa185	0.14026459
98	0xbd1c824f	-0.03821021
99	0xbd5ff80f	-0.054679926
100	0xb6e43c50	-6.801951e-06
101	0xbd207276	-0.03917166
102	0x3e21e64b	0.15810506
103	0x3dce8562	0.100840345
104	0xbd22f142	-0.039780863
105	0x3bf36f31	0.0074290265
106	0xbd886cd9	-0.06661386
107	0x3d53e961	0.05173624
108	0x3c426169	0.011864045
109	0x3db90c28	0.09035522
110	0xbcbcf155	-0.023064295
111	0xbe5060fd	-0.20349498
112	0x3dc77da6	0.097407624
113	0x3dcbed7e	0.099574074
114	0xbb7effc2	-0.0038909768
115	0x3c8cbadc	0.017178945
116	0x3dd7c4d7	0.10535591
117	0xbb2dac86	-0.0026500537
118	0x3d8197e1	0.06327797
119	0x3df59015	0.11990372
120	0xbda7cdf4	-0.08193579
121	0x3db68df7	0.089137964
122	0xbd1a79c8	-0.037713796
123	0x3d5c186d	0.05373423
124	0x3d3c4c05	0.045970935
125	0xbd1bf536	-0.03807565
126	0x3d4be3b0	0.049777687
127	0xbdb1c412	-0.086799756
128	0x3db3b6bb	0.087750874
129	0xbd9ab9a9	-0.07554943
130	0x3d0da75c	0.034583434
131	0x3c43c94e	0.01194985
132	0x3c00a8ea	0.007852772
133	0x3d07e9b1	0.03318185
134	0x3ca6e576	0.020373087
135	0x3da64b57	0.08119839
136	0x3d8875bb	0.0666308
137	0x3dc96012	0.09832777
138	0x3d2ac78a	0.0416942
139	0xbd679d91	-0.05654675
140	0x3d9f2521	0.07770754
141	0xbd8e9f26	-0.06963949
142	0xbdbbfa7c	-0.091786355
143	0x3ddee447	0.10883384
144	0xbd16cf46	-0.036818765
145	0x3d5823ac	0.052768394
146	0xbe11e3b0	-0.14247012
147	0xbc8aca17	-0.016942067
148	0x3d1583c1	0.036502603
149	0xbcbfa3b0	-0.023393482
150	0xbcc5c9dc	-0.024144106
151	0xbe19e754	-0.15029651
152	0xbddb1328	-0.10697013
153	0xbd11f0ab	-0.03562991
154	0x3dbd68ce	0.092485055
155	0xbd090db2	-0.033460326
156	0x3c252216	0.0100789275
157	0x3c11474b	0.008867095
158	0x3dae8ad6	0.085225746
159	0xbd9a4b39	-0.07533879
160	0x3c27c1ae	0.010239048
161	0xbe013d4e	-0.12621042
162	0x3d06d6a0	0.032919526
163	0x3da2b282	0.07944204
164	0x3d409103	0.047013294
165	0xbe18c8e8	-0.1492039
166	0x39b94078	0.00035333983
167	0x3d14ad34	0.036297992
168	0x3bc84a59	0.0061123786
169	0xbe03da16	-0.12876162
170	0xbe1362c0	-0.14393139
171	0x3d73917c	0.059464917
172	0xbd843d82	-0.06457044
173	0xbda26c28	-0.079307854
174	0x3d94fb87	0.072745375
175	0x3e9bf6a5	0.30461612
176	0x3e2f6227	0.17127286
177	0xbd9d4584	-0.07679275
178	0x3e66e7d5	0.22549374
179	0x3e1134b7	0.14180265
180	0x3d736a65	0.059427638
181	0xbd3f0a4e	-0.046640687
182	0xbd786565	-0.060643572
183	0xbde8d79d	-0.1136925
184	0x3c4e33b5	0.01258557
185	0xbdc9eb77	-0.098593645
186	0xbe5eabaf	-0.2174518
187	0xbdbc4bf2	-0.09194173
188	0xbd44a491	-0.048008505
189	0xbe255070	-0.16143966
190	0x3cfe7208	0.031060234
191	0x3d36c8f1	0.044625226
192	0x3dd31ed9	0.10308618
193	0xbd290798	-0.041267008
194	0xbe0660fb	-0.13122933
195	0x3e5a300b	0.2130739
196	0x3dd8f08a	0.10592754
197	0x3d70f634	0.058828548
198	0xba53f0b2	-0.00080848776
199	0x3d9140a9	0.07092411
200	0x3ce1c9aa	0.027561981
201	0x3e45cc1b	0.19316141
202	0x3d0148a5	0.03156342
203	0x3e1fc6e6	0.15603217
204	0xbb164f39	-0.0022935404
205	0x3df48d06	0.119409606
206	0x3d8ec1dc	0.069705695
207	0x3e8c49c0	0.27400017
208	0x3e9472ef	0.28993937
209	0x3e95e1f3	0.29273948
210	0x3d8e8e0b	0.06960686
211	0x3dd12576	0.10212223
212	0x3d42f53d	0.04759716
213	0x3d2b234a	0.0417817
214	0xbdb7d342	-0.08975841
215	0xbdb2bb08	-0.0872708
216	0xbdceb7ae	-0.10093628
217	0xbbffdbb2	-0.007808172
218	0x3d48f113	0.04905803
219	0xbc8d34c4	-0.017237075
220	0x3e1eac31	0.15495373
221	0xbafe467a	-0.0019399666
222	0x3dbcba87	0.09215265
223	0x3e56637a	0.20936385
224	0x3e287ec3	0.16454606
225	0xbd019720	-0.031638265
226	0x3c254df7	0.010089389
227	0x3de94f0d	0.11392031
228	0x3e06907f	0.13141058
229	0x3d151c0e	0.03640371
230	0x3e0020fd	0.12512584
231	0x3dc762b5	0.09735624
232	0x3dbde9f7	0.09273141
233	0x3e484431	0.19557263
234	0xbdc549f9	-0.0963325
235	0xbe3cf191	-0.18451525
236	0xbc1201a4	-0.008911524
237	0xbdae43ba	-0.085090116
238	0x3d36fd56	0.044675194
239	0xbd31bb36	-0.04339143
240	0x3d92b939	0.07164235
241	0x3d611b55	0.054957706
242	0x3e20be4c	0.15697592
243	0xbdd6012a	-0.10449441
244	0xbd4e979c	-0.050437555
245	0xbb915159	-0.004434746
246	0x3da2ac75	0.0794305
247	0x3e051286	0.12995347
248	0x3c43acd0	0.011943057
249	0x3df3431b	0.11878034
250	0x3daa253e	0.08307885
251	0x3bd863b9	0.0066036847
252	0x3e733e99	0.23754348
253	0x3dcec756	0.10096614
254	0xbc281ea2	-0.01026121
255	0x3d5efd45	0.054440755

conv2.bias f4 [10]
0	0x3ad92020	0.001656536
1	0x3ced1663	0.028941339
2	0x39d82dda	0.00041232893
3	0x3e282abf	0.16422556
4	0xbdd4f7ac	-0.10398802
5	0xbdc8d882	-0.098069206
6	0x3d90feb9	0.070798345
7	0xbde976b4	-0.11399594
8	0xbc776408	-0.015099533
9	0xbdb65b8e	-0.089041814

conv3.weight f4 [10, 10, 3, 3]
0	0xbd75fd94	-0.060056284
1	0x3d70b7fb	0.058769207
2	0x3d9b96f7	0.07597154
3	0xbdbc61d9	-0.091983505
4	0xbd04df34	-0.032439426
5	0xbd0c256d	-0.03421538
6	0x3d5fec7a	0.05466888
7	0x3d81d94e	0.06340276
8	0xbd4a00f8	-0.04931733
9	0x3c731144	0.014835659
10	0xbdbede8d	-0.09319792
11	0xbd35fafb	-0.044428807
12	0xbdae46ca	-0.08509596
13	0xbdee2916	-0.1162893
14	0xbde6bb68	-0.11266214
15	0x3d778d63	0.06043757
16	0xbda69329	-0.08133537
17	0x3d66abc6	0.05631616
18	0x3d5d4e71	0.054029886
19	0xbdf70a7d	-0.12062547
20	0xbdcf35ac	-0.10117659
21	0xbd7caf0a	-0.061690368
22	0xbc76d5d2	-0.015065627
23	0xbcba671c	-0.022754245
24	0x3d49adf2	0.049238153
25	0xbde061ba	-0.1095614
26	0xbd683762	-0.056693442
27	0x3d991fcd	0.07476769
28	0x3aa66c09	0.0012696992
29	0x3c92b52a	0.017908651
30	0xbcd60457	-0.026125116
31	0x3d43b01d	0.047775377
32	0xbd6d0a22	-0.05787099
33	0xbd8bd237	-0.06827205
34	0x3c9d7fd7	0.019225998
35	0x3d853bc2	0.065055385
36	0x3d0a3dcb	0.033750337
37	0x3c56f7c2	0.0131205935
38	0x3d16ae08	0.036787063
39	0x3d9f8664	0.07789305
40	0xbe03ea6d	-0.12882395
41	0xbe04dfbf	-0.12975977
42	0xbd417ead	-0.047239948
43	0xbd3f743f	-0.04674172
44	0xbdf04cba	-0.117333844
45	0xbde3f7e7	-0.11131268
46	0xbcc4a656	-0.024005096
47	0x3d80c44d	0.062874414
48	0xbd03781b	-0.032096963
49	0xbd0cfca5	-0.034420628
50	0x3c0ffc9a	0.008788252
51	0x3c604129	0.01368741
52	0xbaf04968	-0.0018332424
53	0xbdb585e4	-0.08863428
54	0xbd3d914d	-0.046281148
55	0x3baeeb7c	0.0053381305
56	0x3bc0899f	0.0058757807
57	0xbc3a4bc5	-0.011370604
58	0xbdb15373	-0.08658495
59	0xbc999b0d	-0.018750692
60	0x3ceb2006	0.028701793
61	0xbd98c63a	-0.07459684
62	0xbe056b11	-0.13029124
63	0x3dabc7c6	0.08387713
64	0x3cc8b4db	0.024500301
65	0x3d8433ba	0.064551786
66	0x3c92c76f	0.017917363
67	0xbdb9862e	-0.09058796
68	0x3c1e9070	0.009677991
69	0xbc2775ea	-0.010220984
70	0xbd68c1db	-0.0568255
71	0x3d5be249	0.0536826
72	0x3c14b70d	0.009076846
73	0xbc52f572	-0.012875902
74	0xbd064723	-0.032782685
75	0x3d8427e0	0.06452918
76	0xbde0aa9e	-0.10970043
77	0xbb3ccb5c	-0.0028807735
78	0x3c58d735	0.013234903
79	0x3db904ec	0.09034142
80	0x3dac5b73	0.0841588
81	0x3bd579ca	0.0065147625
82	0xbca1c93c	-0.019749276
83	0x3d71fce7	0.059079077
84	0x3db91e6d	0.090390064
85	0x3d64feb0	0.05590695
86	0xbdb1b3a1	-0.086768396
87	0xbd0627d9	-0.032752845
88	0x3d9e443e	0.0772786
89	0xbdaf7576	-0.08567326
90	0x3dc8c16c	0.09802517
91	0xbb8f478e	-0.0043725437
92	0x3d4f8b15	0.05066975
93	0xbd894826	-0.06703214
94	0xbc36c5f7	-0.011155597
95	0xbd087b44	-0.03332068
96	0x3c48d6c7	0.012258238
97	0x3c876172	0.016525958
98	0xbd0dbcf8	-0.034604043
99	0x3c9075d7	0.017634315
100	0x3e14dec0	0.14538097
101	0x3ca28fc5	0.019843945
102	0x3b83b083	0.0040188446
103	0x3e58f135	0.21185763
104	0x3c044986	0.00807417
105	0xbdfa5fcf	-0.12225305
106	0xbd0055b1	-0.03133172
107	0xbd1c189c	-0.038109407
108	0x3d0c41b7	0.034242358
109	0x3e236390	0.15955949
110	0x3e11c36d	0.14234705
111	0xbd0c3533	-0.034230422
112	0x3e23143c	0.15925688
113	0xbd4e6f4b	-0.050399106
114	0xbca0fe4e	-0.019652512
115	0xbcc661b6	-0.024216514
116	0xbe644a81	-0.22294046
117	0x3d22ca68	0.03974381
118	0x3dbc92ae	0.092076644
119	0x3d7723cd	0.060336877
120	0x3d95df33	0.073179625
121	0x3d783560	0.060597777
122	0x3dcb55d4	0.0992848
123	0xbe61489b	-0.22000353
124	0xbe8070d8	-0.25086093
125	0xbe15b4d8	-0.14619768
126	0xbdb95f2f	-0.09051358
127	0x3d2ccea9	0.042189274
128	0x3debd325	0.11514882
129	0xbdfe1726	-0.12406759
130	0x3e384fbc	0.17999166
131	0x3e1d8be6	0.15385398
132	0x3d845605	0.064617194
133	0x3d98af55	0.07455317
134	0x3ddd651f	0.10810303
135	0x3c2f87c1	0.010713519
136	0x3e2d0e6f	0.16900037
137	0x3d1bb2e8	0.038012415
138	0xbc0390dc	-0.008030143
139	0x3d601c9a	0.054714777
140	0x3dc1d568	0.09464532
141	0x3b51010d	0.0031891495
142	0xbcb6f4a5	-0.022333452
143	0xbde71504	-0.11283305
144	0x3e351aa8	0.1768595
145	0xbd032e55	-0.032026608
146	0xbd97184f	-0.07377683
147	0x38a3aaa0	7.804227e-05
148	0xbcfb46f7	-0.030673487
149	0xbcae2887	-0.02125956
150	0xbe0e8436	-0.13917622
151	0x3d3612ea	0.04445163
152	0x3e281606	0.16414651
153	0x3e8620f0	0.26197004
154	0x3def0fb8	0.1167292
155	0x3d4bbb4b	0.049739163
156	0xbda68392	-0.08130564
157	0xbd990def	-0.07473361
158	0xbe2d4a0e	-0.16922781
159	0xbe41dd26	-0.18932018
160	0xbdfe4373	-0.12415209
161	0xbdd3249c	-0.10309717
162	0xbb42f75d	-0.002974949
163	0xbd841c05	-0.06450657
164	0x3da906f8	0.08253282
165	0x3d9fda5a	0.07805319
166	0x3b1de697	0.002409374
167	0xbd7e8b0e	-0.06214433
168	0xbd2c093b	-0.04200099
169	0x3dc5d483	0.09659674
170	0xbd7f0c32	-0.06226749
171	0x3c873ddf	0.016508995
172	0x3db6c471	0.08924187
173	0x3d912b86	0.070883796
174	0xbd003bfb	-0.0313072
175	0xbdc837be	-0.09776257
176	0x3c96169a	0.018321324
177	0xbcaadd23	-0.0208574
178	0xbd6ac36f	-0.057315286
179	0xbd58f856	-0.052971207
180	0x3ca48fe9	0.020088153
181	0xba975776	-0.0011546451
182	0x3dcdb9fd	0.1004524
183	0x3d80ce15	0.06289307
184	0x3c80499e	0.015660103
185	0x3d18e5f7	0.037328687
186	0x3cc7dd90	0.024397641
187	0xbc3ffb2d	-0.0117176
188	0xbd878085	-0.0661631
189	0xbe0aac8f	-0.13542388
190	0xbe3a2618	-0.18178594
191	0xbe5d0050	-0.2158215
192	0xbc9464ac	-0.01811441
193	0xbdf3d84c	-0.1190649
194	0xbdc605db	-0.096690856
195	0x3d840d0c	0.06447801
196	0xbdb5feeb	-0.08886512
197	0x3d062345	0.03274848
198	0xbdb57d6b	-0.08861812
199	0xbd108e20	-0.03529179
200	0x3d7fb497	0.062428083
201	0xbdf8db65	-0.12151221
202	0xbd90d0d2	-0.07071079
203	0xbd3d3e10	-0.046201766
204	0x3da17bfd	0.07884977
205	0xbd1d1f00	-0.038359642
206	0x3dd5a397	0.10431593
207	0x3a09d209	0.0005257433
208	0xbdd395a3	-0.10331275
209	0xbd7aca09	-0.061227832
210	0x3d8b467e	0.06800555
211	0x3abc9be7	0.0014389724
212	0x3dfdaf6e	0.12386976
213	0xbcf8dbf7	-0.030378325
214	0xbd143a3d	-0.036188353
215	0x3b32ee60	0.0027302727
216	0x3c10745b	0.008816804
217	0x3db9ee46	0.0907865
218	0x3be7aea3	0.007070379
219	0x3d2146a0	0.039373994
220	0xbd6a4b47	-0.057200696
221	0xbd5c3abe	-0.05376696
222	0x3c43191c	0.011907842
223	0xbc2d02a0	-0.010559708
224	0xbd57580f	-0.052574214
225	0x3cd83bfe	0.026395794
226	0xbdc422a8	-0.09576923
227	0xbd28a1e6	-0.041170023
228	0x3d1b7090	0.037949145
229	0x3d8de04b	0.06927546
230	0x3ca038fe	0.019558426
231	0x3c164ed1	0.009174065
232	0xbd84e0f9	-0.06488223
233	0xbd839562	-0.06424977
234	0x3bce3415	0.0062928298
235	0xbdc5517e	-0.09634684
236	0xbe7b49e3	-0.24539904
237	0x3d0b9790	0.03408009
238	0xbdb3baaf	-0.087758414
239	0xbdb69fa1	-0.089171655
240	0xbd98637a	-0.07440849
241	0x3c27ec13	0.010249156
242	0xbd733599	-0.059377287
243	0xbb953c69	-0.0045543206
244	0xbd185d76	-0.037198506
245	0x3dd4dbbe	0.10393475
246	0xbe0ff7d1	-0.14059378
247	0xbdc64cc7	-0.09682613
248	0xbdee6f94	-0.116423756
249	0x3cd09765	0.025462816
250	0xbd3fac9d	-0.046795476
251	0x3dac06c9	0.08399732
252	0xbd3af56b	-0.045644205
253	0xbda3f025	-0.08004788
254	0x3d86e1ee	0.065860614
255	0xbd18b16c	-0.037278578

conv3.bias f4 [10]
0	0xbdad16ba	-0.084516004
1	0x3e966095	0.2937056
2	0xbca1254f	-0.01967111
3	0xbd431636	-0.047628604
4	0xbd8dc402	-0.06922151
5	0xbcd5943e	-0.026071664
6	0xbd839148	-0.064241946
7	0x3e435499	0.1907524
8	0x3e6e1f66	0.23254165
9	0x3ea4cd1f	0.32187745

conv4.weight f4 [10, 10, 3, 3]
0	0xbc8b9020	-0.017036498
1	0xbdaf12dd	-0.0854852
2	0xbddbe1ac	-0.10736403
3	0x3c532ea0	0.012889534
4	0x3d74541c	0.059650525
5	0xbd92103b	-0.07132002
6	0xbda611b6	-0.08108847
7	0xbc70b71a	-0.014692092
8	0x3dc065e3	0.09394433
9	0xbe57c925	-0.21072824
10	0xbe10c5c4	-0.14137942
11	0x3d101eb9	0.03518555
12	0xbe3e25a0	-0.1856904
13	0x3d5ff9b8	0.05468151
14	0x3d2f05ac	0.04273002
15	0x3dd7e601	0.10541917
16	0x3dba6d8a	0.09102924
17	0x3d0bf745	0.03417136
18	0xbe09b6f4	-0.13448697
19	0xbdf27b56	-0.11839931
20	0xbcfd0a45	-0.030888686
21	0xbc8034f6	-0.015650254
22	0x3ca8bac7	0.020596875
23	0x3b63010f	0.0034638082
24	0x3be02fb6	0.006841625
25	0xbda811bf	-0.0820651
26	0xbd395a09	-0.04525188
27	0xbd2c98e0	-0.04213798
28	0x3dcf196a	0.10112269
29	0xbcc6de67	-0.024275972
30	0x3c1d70ca	0.009609411
31	0x3e15e63e	0.14638612
32	0x3e30538b	0.17219369
33	0xbe0ed0c8	-0.13946831
34	0xbd91cdda	-0.07119341
35	0xbc841a7a	-0.016125906
36	0x3da0e691	0.07856477
37	0x3dc5fa68	0.09666902
38	0x3d7e76e8	0.062125117
39	0xbe0cbb3a	-0.13743296
40	0xbe200c2e	-0.15629646
41	0x3d98e283	0.07465079
42	0x3da26c24	0.079307824
43	0xbdcc7848	-0.09983879
44	0xbe0780de	-0.13232753
45	0x3d835189	0.06412036
46	0x3da88a65	0.08229522
47	0xbdd958bb	-0.10612627
48	0xbcb641b9	-0.022248136
49	0x3d64fd28	0.05590549
50	0x3d45f5c2	0.048330076
51	0xbb4c5505	-0.0031178605
52	0xbe0051fb	-0.12531273
53	0xbde030bf	-0.109467976
54	0xbd8557dc	-0.065108985
55	0x3d41113e	0.047135584
56	0xbcee7140	-0.029106736
57	0x3df10a50	0.11769545
58	0xbde98bb5	-0.114036
59	0xbd1ec360	-0.038760543
60	0xbc61567a	-0.013753528
61	0x3c4157d9	0.01180073
62	0xbc1547ea	-0.009111384
63	0xbdc8ac4e	-0.097984895
64	0xbd8ba7ac	-0.0681909
65	0x3d70439b	0.058658224
66	0xbe2705e6	-0.16310844
67	0xbe42b484	-0.19014174
68	0x3d9c2d34	0.07625809
69	0xbdb3cdcf	-0.08779489
70	0xbe257ede	-0.16161677
71	0x3d9086f5	0.07056991
72	0xbe4c1c2d	-0.19932623
73	0xbdf38d1d	-0.118921496
74	0x3d9665c1	0.07343627
75	0xbe48b8f5	-0.19601806
76	0x3cc54b1a	0.024083663
77	0x3df4bce2	0.11950089
78	0x3d09d9d9	0.03365502
79	0x3c529e96	0.012855193
80	0x3dde1a05	0.108448066
81	0xbe121f5d	-0.14269777
82	0xbe3da65b	-0.18520491
83	0xbd22e202	-0.03976632
84	0x3d615919	0.05501661
85	0xbe313a25	-0.17307337
86	0xbd3efd6c	-0.0466284
87	0x3e4bfe24	0.19921166
88	0x3c345f66	0.011009073
89	0x3d9dab88	0.076987326
90	0x3d880a17	0.066425495
91	0x3d5cf2ab	0.053942364
92	0xbd96bbb1	-0.07360018
93	0xbcd69155	-0.026192347
94	0xbd8f6c96	-0.07003133
95	0x3d89afc7	0.0672298
96	0xbdcb8c82	-0.09938909
97	0x3d01c052	0.03167755
98	0xbdbf9a0f	-0.09355556
99	0x3e1cf3ae	0.15327331
100	0x3de952b8	0.113927305
101	0x3dbc5140	0.09195185
102	0x3b0b3dde	0.0021246593
103	0x3dd3e691	0.103467114
104	0x3e1352dd	0.14387079
105	0x3de1cbb4	0.110251814
106	0x3db17e5f	0.086666815
107	0x3e3b1d02	0.18272784
108	0x3d51869d	0.051153768
109	0x3d537f50	0.051635087
110	0x3e2ed5bb	0.17073719
111	0xbda0d488	-0.07853037
112	0x3d88224a	0.06647165
113	0x3d0210ee	0.031754427
114	0xbe24d726	-0.16097698
115	0xbe13e5e2	-0.14443162
116	0x3d0c2622	0.034216054
117	0x3d9b9073	0.07595911
118	0xba5f5a74	-0.00085202535
119	0x3c41fa00	0.01183939
120	0xbd82b2df	-0.06381773
121	0x3db484e7	0.088144116
122	0x3cdc1301	0.02686453
123	0xbe42560e	-0.1897814
124	0xbe0fde40	-0.14049625
125	0xbd649812	-0.055809088
126	0xbe0406ba	-0.12893191
127	0x3d472fbf	0.04862952
128	0xbe2052ed	-0.15656634
129	0x3cc6a7c7	0.024249924
130	0x3b7595d2	0.0037473333
131	0x3d3bd3bb	0.04585622
132	0xbdfe926c	-0.124302715
133	0xbda5a326	-0.08087759
134	0xbd24a284	-0.04019405
135	0x3da2f788	0.07957369
136	0x3d98731a	0.07443829
137	0x3da03df6	0.07824318
138	0x3d030cf7	0.031994786
139	0x3ccec4bb	0.025240293
140	0x3db08284	0.08618644
141	0xbce4e0ed	-0.027939284
142	0xbdd2954d	-0.10282383
143	0x3adf5fcd	0.0017042101
144	0x3d68cb34	0.056834415
145	0xbd03600d	-0.032074023
146	0xbc2ae53b	-0.010430629
147	0xbdd59964	-0.104296476
148	0x3c84ed01	0.016226294
149	0x3d19957d	0.03749608
150	0xbda2f601	-0.07957078
151	0x3dbdfef4	0.09277144
152	0x3d7009dc	0.058603153
153	0xbd3dc00e	-0.046325736
154	0xbd9722ce	-0.07379685
155	0x3d20c8b3	0.0392539
156	0x3dcf46f8	0.10120958
157	0x3dbc0fef	0.091827266
158	0x3e04fadc	0.1298632
159	0x3e1881a5	0.14893205
160	0x3e2a9798	0.16659391
161	0x3dd34bca	0.1031719
162	0x3cfcfe86	0.030883085
163	0x3d0df112	0.03465373
164	0x3d963eb4	0.073361784
165	0xbcceedbb	-0.025259843
166	0x3d369d9d	0.044583905
167	0x3dc461bf	0.09588956
168	0x3e10f9a2	0.14157727
169	0x3cf34128	0.029694155
170	0x3da86c47	0.08223777
171	0x3a5e8649	0.0008488638
172	0x3d88e85a	0.066849425
173	0x3e281fff	0.16418456
174	0x3ce8100e	0.028327968
175	0xbc7419e2	-0.014898749
176	0x3e2082fa	0.15674964
177	0xbd6399b1	-0.055566493
178	0xbe243973	-0.1603754
179	0xbd862b16	-0.06551187
180	0xbd4996e4	-0.049216166
181	0x3cf8b337	0.030358894
182	0xbdc7c586	-0.097544715
183	0x3d74d88e	0.059776835
184	0x3cd0733b	0.025445571
185	0x3d17e778	0.03708598
186	0x3d9fd682	0.07804586
187	0xbdad06db	-0.08448573
188	0x3d05375b	0.032523494
189	0xbd396bff	-0.04526901
190	0xbd3b1823	-0.045677315
191	0xbda0f8b8	-0.07859939
192	0xbddd5b5f	-0.10808443
193	0x3c56b527	0.0131047135
194	0x3cbe7c2c	0.02325257
195	0xbd5a50ca	-0.053299703
196	0x3c855089	0.016273754
197	0x3dd43714	0.10362068
198	0x3c23bc52	0.0099936295
199	0x3d6a9aaa	0.057276405
200	0xbd1398a6	-0.03603425
201	0x3dc8a629	0.097973175
202	0xbdcaceab	-0.099027
203	0xbc0ad07d	-0.008472559
204	0x3d974cf9	0.07387728
205	0x3d9ad212	0.07559599
206	0xbc886878	-0.016651377
207	0x3bb516c5	0.005526396
208	0x3d53a31b	0.05166922
209	0xbdb51c6f	-0.08843314
210	0xbd3909d9	-0.045175407
211	0x3d889aaa	0.06670125
212	0x3d9ae3e4	0.07562998
213	0xbe102286	-0.1407567
214	0x3e0c283b	0.13687222
215	0x3ea8c277	0.32960865
216	0x3d5bd65e	0.053671233
217	0x3af35f94	0.0018567913
218	0x3dc52b95	0.09627453
219	0x3d7c5d43	0.06161238
220	0xbd692859	-0.056923244
221	0xbdf778bc	-0.12083575
222	0xbd3a81bb	-0.045533877
223	0xbdc7af53	-0.09750237
224	0xbe31fd2c	-0.17381734
225	0x3d293603	0.041311275
226	0xbce21edf	-0.027602611
227	0xbd403b48	-0.046931535
228	0x3dbf6212	0.09344877
229	0xbc4894d3	-0.012242514
230	0x3dc46b9f	0.095908396
231	0xbcce7403	-0.025201803
232	0xbd9158df	-0.07097029
233	0x3bc0f000	0.005887985
234	0xbd7b6ce7	-0.061383154
235	0x3d4c9a89	0.049952064
236	0x3d064b8f	0.032786902
237	0xbd4f9385	-0.050677795
238	0xbcf8caa4	-0.030370064
239	0xbd3496a4	-0.044088975
240	0x3db3e227	0.087833695
241	0x3df22773	0.118239306
242	0x3b835cd4	0.0040088687
243	0x3e276ebf	0.1635084
244	0x3e189609	0.14900984
245	0x3e0ae18b	0.135626
246	0xbd77a02a	-0.06045548
247	0xbd9142f8	-0.070928514
248	0x3e0b50e3	0.13605075
249	0xbe80df81	-0.2517052
250	0xbe39dca5	-0.18150575
251	0xbd2f25f7	-0.042760815
252	0xbccd3d9c	-0.025053792
253	0x3ced5573	0.02897141
254	0xbde96b71	-0.11397446
255	0xbe24af0a	-0.16082397

conv4.bias f4 [10]
0	0x3bcd25b0	0.006260596
1	0x3d8a86ec	0.067640156
2	0xbd18d0ca	-0.03730849
3	0x3d9bf316	0.07614724
4	0xbdf0fb6c	-0.11766705
5	0x3da3ff36	0.08007662
6	0xbe0ef7cf	-0.13961719
7	0xbd850616	-0.064953014
8	0x3e1dfd9f	0.1542878
9	0xbd9db0fe	-0.07699774

norm.weight f4 [10]
0	0x3f935ff1	1.1513654
1	0x3f91edbc	1.1400676
2	0x3f948178	1.1602011
3	0x3f8a96a6	1.0827224
4	0x3f9035b0	1.1266384
5	0x3f8814d9	1.0631362
6	0x3f92c05a	1.1464951
7	0x3f83342f	1.02503
8	0x3f92f394	1.1480584
9	0x3f823bfb	1.0174555

norm.bias f4 [10]
0	0xbe11653c	-0.14198774
1	0xbe7ef803	-0.24899296
2	0xbe5f900f	-0.21832298
3	0xbe2dc023	-0.16967826
4	0xbe6da758	-0.23208368
5	0xbe4aff3e	-0.1982393
6	0xbe5f1a54	-0.21787387
7	0xbe88df7e	-0.2673301
8	0xbe950e03	-0.29112253
9	0xbe207a7e	-0.15671727

norm.running_mean f4 [10]
0	0xbe828286	-0.25490206
1	0x3f2846da	0.6573311
2	0xbe8f4be2	-0.27987581
3	0x3ebac3e5	0.3647758
4	0xbbbd40d2	-0.0057755494
5	0xbe550e05	-0.2080613
6	0xbd4a8b9a	-0.04944954
7	0x3ef109c8	0.47077775
8	0x3ef8f212	0.48622185
9	0xbec9e908	-0.394356

norm.running_var f4 [10]
0	0x3d37b8e5	0.044854064
1	0x3d46691d	0.048440088
2	0x3cf3b524	0.02974946
3	0x3d6946fa	0.056952454
4	0x3d77c59d	0.060491193
5	0x3d129b5f	0.035792705
6	0x3cf24317	0.029573007
7	0x3dae94c3	0.08524468
8	0x3d70cfba	0.058791853
9	0x3d732feb	0.05937187

fc1.weight f4 [50, 810]
0	0xbd1f514c	-0.03889589
1	0x3db802da	0.08984919
2	0x3deb51f7	0.11490243
3	0x3e66ab1f	0.22526215
4	0xbdb0dcc9	-0.086358614
5	0x3d2db9e1	0.042413596
6	0xbdbed2b7	-0.093175344
7	0x3d372c31	0.04471988
8	0xbc89d56d	-0.016825402
9	0xbbc3ca7a	-0.005975065
10	0xbd3979ed	-0.045282293
11	0xbc96e7e1	-0.018421115
12	0xbdd62c5a	-0.10457678
13	0x3e22cb54	0.15897876
14	0x3e6919a2	0.22763684
15	0xbc8861a2	-0.016648117
16	0xbe2184f0	-0.15773368
17	0xbd085ece	-0.033293538
18	0xbda22634	-0.07917443
19	0xbd63acef	-0.055584844
20	0xbdf060a0	-0.1173718
21	0xbc8735af	-0.01650509
22	0xbde72efe	-0.1128826
23	0x3d458bfe	0.04822921
24	0xbb152bb5	-0.0022761647
25	0xbde00b61	-0.1093967
26	0xbc400917	-0.011720917
27	0xbd0822d2	-0.033236332
28	0x3b877c90	0.004134722
29	0xbccd608a	-0.025070447
30	0xbd09680a	-0.033546485
31	0x3db5c4ac	0.08875403
32	0x3c1ab293	0.0094419895
33	0x3da31dbf	0.07964658
34	0x3d68e3a0	0.056857705
35	0xbcd286a5	-0.02569897
36	0xbdd9b58d	-0.10630331
37	0xbc9c7316	-0.019097846
38	0x3d9f9f26	0.07794027
39	0xbd635056	-0.055496536
40	0xbe7c3627	-0.24630032
41	0xbcc39e13	-0.023879087
42	0x3d63e6d6	0.055640064
43	0x3e199cb8	0.1500119
44	0x3cd3a774	0.025836684
45	0x3c20ae65	0.009807204
46	0xbde46bc7	-0.111533694
47	0xbdc1ac86	-0.09456734
48	0xbd1e351f	-0.03862488
49	0x3dae7de6	0.08520107
50	0xbe02a50f	-0.12758277
51	0xbc06f650	-0.008237436
52	0x3d5b25d6	0.05350288
53	0x3da599c8	0.08085972
54	0x3c158092	0.009124892
55	0x3e82ad4b	0.25522837
56	0x3dcabe5e	0.09899591
57	0x3b95274e	0.0045518046
58	0xbb25328f	-0.0025207137
59	0xbcf2d8b7	-0.029644353
60	0x3d74d3ea	0.05977241
61	0x3e823584	0.25431454
62	0xbd5d37dd	-0.054008354
63	0x3dd77616	0.1052057
64	0x3d3c5778	0.045981854
65	0x3d45d8c4	0.048302427
66	0x3dafc028	0.08581573
67	0xbd5c6b64	-0.053813353
68	0xbdf4c88e	-0.11952315
69	0xbca8d4cf	-0.020609288
70	0xbe722ba3	-0.23649459
71	0xbd1858d8	-0.037194103
72	0xbb9ad2db	-0.004724843
73	0xbc9c1540	-0.019053102
74	0xbd81fb84	-0.06346801
75	0x3db001c7	0.08594089
76	0x3df3b0d2	0.1189896
77	0x3e0acc16	0.13554415
78	0x3de5b669	0.112164326
79	0x3da7526b	0.08170017
80	0x3ca54406	0.020174038
81	0xbc757e88	-0.014983781
82	0xbbd75fd1	-0.0065727015
83	0x3da04b73	0.07826891
84	0xbd21c596	-0.039495073
85	0xbda9b54b	-0.08286532
86	0xbddd5053	-0.10806336
87	0xbca181de	-0.019715246
88	0xb88182c2	-6.175555e-05
89	0xbce58b36	-0.028020483
90	0xbdec7ed8	-0.11547631
91	0x3c28c2dd	0.010300365
92	0x3ce6ecbf	0.028189061
93	0x3d1f06b3	0.03882475
94	0x3c9b34fd	0.018946165
95	0x3d213faa	0.039367355
96	0xbda17986	-0.07884507
97	0xbe08157d	-0.13289447
98	0xbe42fd76	-0.19042
99	0xbcee1901	-0.029064657
100	0xbd949c2c	-0.0725635
101	0xbbb7f2ee	-0.0056136763
102	0x3d403757	0.046927776
103	0xbe438905	-0.19095238
104	0x3d6a83e0	0.057254672
105	0xbc9c5929	-0.019085484
106	0x3d40ba12	0.04705245
107	0xbdd122d7	-0.10211723
108	0xbd0100dd	-0.031494964
109	0xbd0c873b	-0.034308653
110	0xbd4e8015	-0.050415117
111	0xbe0fac44	-0.14030558
112	0xbaa00cb0	-0.0012210812
113	0xbda93fe7	-0.082641415
114	0x3cc60bdf	0.024175582
115	0x3cade951	0.021229418
116	0xbd395180	-0.04524374
117	0x3e296f65	0.165464
118	0x3deea3fc	0.11652371
119	0x3e0347ee	0.12820408
120	0xbd8c6be0	-0.06856513
121	0xbda29d4a	-0.07940157
122	0x3d92cbc1	0.07167769
123	0x3de350c9	0.11099393
124	0x3e059bca	0.1304771
125	0x3dfc238a	0.12311466
126	0x3dd84a65	0.10561065
127	0x3c925b4f	0.017865805
128	0x3d6ee0ee	0.05831998
129	0xbd68e008	-0.056854278
130	0xba26ef41	-0.0006368049
131	0x3bf8fa95	0.007598231
132	0xbd2440c9	-0.040100846
133	0x3d83e900	0.064409256
134	0x3c0d752b	0.008633892
135	0xbe58fe2e	-0.21190712
136	0xbe78abeb	-0.24284332
137	0xbe48dcd2	-0.19615486
138	0xbe3b6e84	-0.18303877
139	0xbdff93ff	-0.124794
140	0x3d234166	0.03985729
141	0xbd4805b7	-0.048833575
142	0xbe5bb669	-0.21456303
143	0xbe8a3008	-0.2698977
144	0xbdbfb586	-0.09360795
145	0x3ddd3ebd	0.10802982
146	0x3daf775e	0.08567689
147	0x3d2bf76a	0.041984
148	0xbd2c3bd0	-0.04204923
149	0x3e00e28f	0.12586425
150	0x3e39128c	0.18073481
151	0x3e45f1a0	0.19330454
152	0x3e373432	0.17891005
153	0x3e57aa82	0.21061137
154	0x3e6198bb	0.22030918
155	0x3da8b2a6	0.082371995
156	0x3d1dd24f	0.038530644
157	0x3da77265	0.08176116
158	0x3dddd27f	0.108311646
159	0x3d8bb764	0.06822088
160	0x3e4b2a8c	0.19840449
161	0x3e5e6512	0.21718243
162	0x3c5bd095	0.013416429
163	0x3defc581	0.11707593
164	0x3db48316	0.08814065
165	0x3dcc3fd1	0.099731095
166	0x3dc8bd10	0.09801686
167	0xbdcc921c	-0.09988806
168	0xbcb1bf32	-0.021697614
169	0xbdfabe19	-0.122432895
170	0x3cb0cb82	0.021581415
171	0xbe17228e	-0.14759275
172	0xbde83d94	-0.1133987
173	0x3dee62b5	0.116399206
174	0x3e8a3ed5	0.27001062
175	0x3c11b236	0.008892586
176	0x3de6b498	0.11264914
177	0x3d0ad672	0.033895917
178	0xbe10790c	-0.14108676
179	0xbd0f2b0a	-0.034953155
180	0xbd724348	-0.059146196
181	0xbb5c68ee	-0.003363188
182	0xbdd1221e	-0.102115855
183	0xbdae21a3	-0.085025094
184	0xbde83193	-0.113375805
185	0xbd26e53b	-0.040745955
186	0xbcafa9de	-0.021443304
187	0x3d3baacd	0.045817185
188	0xbd68ba45	-0.056818265
189	0x3dcf9f8f	0.10137855
190	0x3df0ed55	0.117640175
191	0x3d6490e0	0.055802226
192	0x3e11b8eb	0.14230697
193	0x3d97cb36	0.07411806
194	0x3d461317	0.04835805
195	0x3da2bda4	0.07946327
196	0x3dbd18bd	0.09233234
197	0x3d1a0d3d	0.03761028
198	0xbca2c9a8	-0.019871548
199	0xbda2e65b	-0.07954093
200	0xbe1aacea	-0.15105024
201	0xbd8cc862	-0.068741575
202	0xbd865322	-0.06558825
203	0x3d5a6222	0.053316243
204	0x3e68cfc6	0.2273551
205	0x3d3b5fb8	0.04574558
206	0x3d64e8d7	0.055886116
207	0x3d81021d	0.06299231
208	0x3e8e7480	0.27823257
209	0x3db475c6	0.08811526
210	0xbcfec0ae	-0.031097736
211	0x3d7628fa	0.060097672
212	0x3d57a966	0.052651785
213	0x3d6e38f0	0.05815977
214	0x3ed0ec00	0.40805054
215	0x3eb0f8eb	0.3456491
216	0x3dbae162	0.091250196
217	0x3dbdcd04	0.09267619
218	0x3c2108ef	0.00982879
219	0xbd9c5c2c	-0.07634768
220	0xbdae3402	-0.085060135
221	0x3d0028a8	0.031288773
222	0xbd03ae6c	-0.032148764
223	0xbd558e7d	-0.05213784
224	0xbe24eb85	-0.16105469
225	0xbd691a51	-0.056909863
226	0xbb4dc20f	-0.0031396186
227	0xbd6d3afd	-0.057917584
228	0x3dc8e2e6	0.098089024
229	0x3e0eb710	0.1393702
230	0xbc6708bb	-0.014101203
231	0x3cac514f	0.021034865
232	0xbe79bff6	-0.24389634
233	0xbe86bdab	-0.2631658
234	0xbca0904c	-0.019600056
235	0x3e14c95d	0.14529939
236	0x3d182278	0.037142247
237	0x3dc3eae5	0.09566287
238	0xbd99b7f8	-0.075057924
239	0xbdeb0103	-0.11474802
240	0xbdcd5840	-0.10026598
241	0x3d636124	0.055512562
242	0x3de1c96e	0.11024748
243	0x3dc796e4	0.09745577
244	0xbdaaa7db	-0.08332797
245	0x3d4b051d	0.049565423
246	0x3d90b0a1	0.07064939
247	0x3d8d96bf	0.06913518
248	0x3da9e3fb	0.08295437
249	0x3de06598	0.109568775
250	0x3d715b56	0.058924995
251	0xbe4c23dc	-0.19935554
252	0xbe065940	-0.13119984
253	0xbe7fff9d	-0.24999852
254	0xbd3ed63b	-0.046591025
255	0xbd749f7c	-0.05972241

fc1.bias f4 [50]
0	0xbd2f6d98	-0.042829126
1	0xbc8f566f	-0.01749727
2	0xbc88d122	-0.016701285
3	0x3b89904c	0.0041981097
4	0x3d1d8a1d	0.038461793
5	0xbd6d5a70	-0.057947576
6	0xbd0958fa	-0.03353212
7	0xbd8670bf	-0.06564473
8	0xbc7fce3b	-0.015613134
9	0xbca021ee	-0.019547429
10	0xbd26aedc	-0.040694103
11	0x3a478fe8	0.0007612691
12	0x3c49d3ad	0.012318534
13	0xbd0f4fbe	-0.034988157
14	0xbc3fa610	-0.011697307
15	0x3c346ed9	0.011012756
16	0xbcb00adf	-0.021489559
17	0xbca8f126	-0.020622801
18	0x3e1ac58c	0.1511442
19	0x3aff2ddd	0.0019468624
20	0xbbdc2c27	-0.0067191306
21	0xbccff638	-0.025385961
22	0xbd3605f8	-0.044439286
23	0xbcaaac28	-0.020834044
24	0xbc8ca3f8	-0.01716803
25	0xbad54af6	-0.001627295
26	0x3b816abb	0.003949491
27	0xbb929ed7	-0.0044745016
28	0xbd21b6fa	-0.03948114
29	0x3b23921c	0.0024958914
30	0xbbca765a	-0.0061786594
31	0xbd1ba772	-0.038001485
32	0x3c176bdb	0.009242023
33	0x3d92d2d3	0.07169118
34	0xbb2cb5fc	-0.0026353588
35	0xbd440481	-0.047855858
36	0x3b5bec85	0.0033557725
37	0xbc8adc0b	-0.016950628
38	0x3cd1accd	0.025595093
39	0xbcee92eb	-0.02912279
40	0xbccc2123	-0.024918145
41	0x3b71169a	0.0036787153
42	0xbc0938ad	-0.008375329
43	0xbcaa6377	-0.020799382
44	0xbcdde728	-0.027087763
45	0xbd2f2a03	-0.042764675
46	0xbd50d631	-0.05098552
47	0x3c07bdc3	0.008284989
48	0xbc9ce3d5	-0.019151608
49	0x3c88b9bc	0.016690128

fc2.weight f4 [7, 50]
0	0xbe254a0b	-0.16141526
1	0xbdb0e00c	-0.086364836
2	0x3d85089f	0.06495785
3	0x3d06f761	0.032950763
4	0x3db4c7ad	0.08827148
5	0xbe027ed0	-0.12743688
6	0x3a5a0c77	0.00083178974
7	0xbcd995ec	-0.026560746
8	0xbe0d2ba7	-0.13786183
9	0x3ca83c35	0.020536521
10	0x3ccbef5a	0.024894405
11	0x3d33dec9	0.043913636
12	0xbbfa0299	-0.007629704
13	0x3d2f7caf	0.042843517
14	0x3c83a6b9	0.01607071
15	0x3d538f21	0.05165017
16	0xbdb46bd1	-0.08809627
17	0xbdbe1175	-0.092806734
18	0x3d935c3a	0.07195325
19	0xbe17c517	-0.14821278
20	0x3d9d92fb	0.0769405
21	0x3cabe174	0.020981528
22	0xbc092c22	-0.0083723385
23	0x3dc861f4	0.09784308
24	0x3b8c830a	0.004288082
25	0xbc918f18	-0.017768428
26	0xbb9fc3f3	-0.004875654
27	0x3df2681f	0.11836266
28	0x3df2671e	0.11836074
29	0xbdf652ff	-0.12027549
30	0x3d003ba7	0.03130689
31	0xbe0b9081	-0.13629343
32	0xbc253ca3	-0.010085258
33	0xbd2c2213	-0.042024683
34	0xbdfddfcd	-0.12396202
35	0x3d0685cb	0.03284244
36	0xbd81ff39	-0.06347508
37	0x3d991045	0.07473806
38	0x3d93aadf	0.072103254
39	0xbda1da84	-0.07903007
40	0xbd7a52c7	-0.0611141
41	0x3e325764	0.1741615
42	0x3e44dce0	0.19224882
43	0xbdcf2588	-0.101145804
44	0x3e2be3f2	0.16786173
45	0xbd20b70c	-0.039237067
46	0xbd0faf40	-0.03507924
47	0xbd1b4a00	-0.03791237
48	0xbd9b1d2e	-0.07573925
49	0xbdfdfb2f	-0.12401425
50	0xbec3e080	-0.38257217
51	0xbe0f346d	-0.13984843
52	0xbe5b60cf	-0.21423648
53	0x3e3169f1	0.1732557
54	0x3d73412d	0.05938833
55	0x3d0d864d	0.034551907
56	0x3d9c868d	0.07642851
57	0xbdfbe5f1	-0.12299717
58	0xbc2c209a	-0.01050582
59	0x3c6e7467	0.01455412
60	0x3db272a3	0.087132715
61	0x3dc75ff6	0.097351
62	0xbe1521c1	-0.14563657
63	0xbd72e32c	-0.05929868
64	0x3d8a7b70	0.06761825
65	0x3d38d8cc	0.04512863
66	0x3dc16752	0.09443535
67	0xbc4f8977	-0.0126670515
68	0x3e3e6141	0.18591787
69	0x3d4c688a	0.049904384
70	0x3d331004	0.043716446
71	0xbde5322f	-0.111912124
72	0xbd4a77d1	-0.049430672
73	0x3dca5ee7	0.098813824
74	0x3ce5bb1d	0.028043324
75	0x3d08decb	0.033415597
76	0xbdac1bc7	-0.084037356
77	0x3d48ac32	0.048992343
78	0xbe8234d4	-0.2543093
79	0xbcf2e733	-0.02965126
80	0xbda70fd4	-0.08157316
81	0x3d92f16a	0.07174952
82	0xbcd7b1cc	-0.026329897
83	0x3d93edac	0.07223067
84	0xbeb052d6	-0.344382
85	0x3cc1f076	0.023674231
86	0x3c258b2b	0.010103981
87	0x3d90426d	0.0704392
88	0xbe8c88fd	-0.27448264
89	0x3e14466b	0.14479987
90	0x3d4651e2	0.048417933
91	0x3e6f512b	0.23370807
92	0xbe5ffe0b	-0.21874253
93	0x3dc89749	0.0979448
94	0xbd32cc33	-0.04365177
95	0xbe08a2df	-0.1334338
96	0xbd92ad2b	-0.071619354
97	0xbc24ede6	-0.010066485
98	0xbc48770a	-0.012235412
99	0xbe4b78d2	-0.19870308
100	0xbd67be5d	-0.05657803
101	0xbd2a3713	-0.04155643
102	0xbd85ffd1	-0.06542934
103	0xbe8bb0cb	-0.2728332
104	0x3d969d03	0.07354166
105	0x3d4d4d40	0.0501225
106	0xbe1b9889	-0.15194906
107	0xbd7699a7	-0.060205128
108	0xbe18e4e2	-0.14931062
109	0x3dc88165	0.09790305
110	0xbd442cbc	-0.047894225
111	0xbdc7d843	-0.097580455
112	0xbdd6e981	-0.10493756
113	0xbdac8971	-0.08424652
114	0xbdc0c4ca	-0.094125345
115	0xbd7d386e	-0.061821394
116	0xbe01c93d	-0.12674423
117	0xbc27fde9	-0.010253408
118	0x3ce2b6f5	0.027675131
119	0xbd9d0bbd	-0.076682545
120	0xbcf68198	-0.030091092
121	0x3d9511c6	0.07278781
122	0xbd3220e5	-0.043488402
123	0xbb0f48ff	-0.0021863577
124	0xbe1ff280	-0.1561985
125	0xbd0a8ced	-0.033825804
126	0xbd503bd2	-0.0508383
127	0x3bc8c117	0.0061265337
128	0xbd2fce0e	-0.04292112
129	0xbe21892b	-0.15774982
130	0x3c3e6409	0.01162053
131	0x3d0f9b8c	0.03506045
132	0xbd803e54	-0.06261888
133	0x3deb26a2	0.11481978
134	0x3e3abbf3	0.1823576
135	0x3b8aac1f	0.004231944
136	0x3de912e8	0.11380559
137	0xbcc0d137	-0.023537261
138	0x3dd98fdb	0.106231414
139	0x3cea1b41	0.028577449
140	0x3b3403bf	0.0027468053
141	0xbe1d0294	-0.15333015
142	0xbd204f3c	-0.039138064
143	0xbd80c683	-0.06287863
144	0xbb24a94e	-0.0025125328
145	0x3d6a0a21	0.057138566
146	0x3dc7b7db	0.097518645
147	0x3d197ddb	0.03747354
148	0x3d917cd5	0.07103888
149	0x3d3cb64e	0.046072297
150	0x3ddb3454	0.1070334
151	0x3d132dfa	0.03593252
152	0xbd9a1604	-0.075237304
153	0x3e24c020	0.16088915
154	0x3dc5310e	0.09628497
155	0xbc8b6001	-0.017013552
156	0xbe0ded08	-0.13859951
157	0xbda70647	-0.08155494
158	0xbe00f13b	-0.12592022
159	0xbd89167e	-0.06693743
160	0xbe035918	-0.12826955
161	0x3ce2bb58	0.027677223
162	0xbcc2947c	-0.023752443
163	0x3ca5cbe1	0.020238819
164	0x3df4d12f	0.11953961
165	0xbe04053a	-0.12892619
166	0xbdd39968	-0.10331994
167	0x3d845073	0.06460657
168	0xbdb59557	-0.08866375
169	0x3e10c953	0.14139299
170	0x3c5f997b	0.013647432
171	0x3db9e5e1	0.09077049
172	0x3d999fde	0.07501195
173	0xbd895583	-0.06705763
174	0xbd676259	-0.056490276
175	0xbdcefffc	-0.10107419
176	0x3db89e2d	0.09014545
177	0x3d0572f0	0.032580316
178	0x3e30546e	0.17219707
179	0x3d4c5c78	0.049892873
180	0xbb50d717	-0.0031866485
181	0x3e05ced6	0.13067183
182	0x3df01920	0.11723542
183	0xbe410862	-0.18850854
184	0xbe330b45	-0.17484768
185	0x3d608282	0.054811962
186	0x3cfd850d	0.030947233
187	0x3d32330b	0.04350571
188	0xbe054fbd	-0.13018699
189	0x3de06340	0.109564304
190	0xbde7df8f	-0.11321937
191	0xbda035b1	-0.07822741
192	0xbe95ad26	-0.29233664
193	0x3bb873ea	0.0056290524
194	0x3c8e6785	0.017383346
195	0x3e426179	0.18982495
196	0xbc3bb498	-0.011456631
197	0x3db0c822	0.08631922
198	0x3d98e55f	0.07465624
199	0xbe82fe01	-0.25584415
200	0x3cc27db6	0.023741584
201	0xbcc99a8b	-0.024609825
202	0xbe3a64db	-0.18202536
203	0xbd356ff0	-0.044296205
204	0xbe71be30	-0.23607707
205	0xbdbb8de6	-0.09157924
206	0x3d9347b4	0.07191411
207	0x3d6af8cc	0.057366177
208	0x3d378b84	0.044810787
209	0xbdbb7dea	-0.091548756
210	0xbc224166	-0.0099032875
211	0xbd5e5119	-0.05427656
212	0xbe1851d8	-0.14874971
213	0xbb7ca792	-0.0038552028
214	0x3dc77b67	0.09740334
215	0x3dc5cf22	0.09658648
216	0xbdb91958	-0.09038037
217	0x3da32b7f	0.079672806
218	0xbebee864	-0.37286675
219	0xbd17478e	-0.036933474
220	0xbdeceb3c	-0.11568305
221	0x3d56da40	0.052454233
222	0xbdac604c	-0.08416805
223	0xbca70575	-0.020388344
224	0x3d46e6e5	0.048560042
225	0x3d608190	0.05481106
226	0x3de56b25	0.11202077
227	0x3da81370	0.082068324
228	0x3c9f400a	0.019439716
229	0x3d35846f	0.04431575
230	0xbde9a3a2	-0.114081636
231	0xbd334896	-0.043770395
232	0xbdd90d81	-0.10598279
233	0x3e03808e	0.12842008
234	0xbd290223	-0.041261803
235	0x3caf38fc	0.021389477
236	0xbd9956fd	-0.07487295
237	0xbdd75faf	-0.10516297
238	0xbe88432e	-0.26613754
239	0x3e5daadb	0.21647207
240	0xbe04d7fa	-0.12973014
241	0x3e2e2af1	0.17008568
242	0xbd1ab1ae	-0.037767105
243	0xbe230ef5	-0.15923674
244	0x3d5a37c5	0.053275842
245	0x3e3daca9	0.18522896
246	0x3d9668ef	0.07344233
247	0xbd1d1f7b	-0.0383601
248	0xbe125233	-0.14289169
249	0x3dca9459	0.09891576
250	0x3e6104c5	0.21974476
251	0x3af58964	0.0018732962
252	0x3cd085a7	0.025454355
253	0x3d40c6d9	0.047064636
254	0x3dbb102a	0.091339424
255	0x3d2a8d6e	0.041638784

fc2.bias f4 [7]
0	0x3d4b439d	0.049625028
1	0x3d8bea82	0.06831838
2	0x3e03e1f8	0.12879169
3	0x3d5af353	0.05345471
4	0x3d712a20	0.058878064
5	0xbdd18ac6	-0.10231547
6	0xbdbd1fbb	-0.09234568

localization.0.weight f4 [8, 1, 7, 7]
0	0x3dd7446a	0.10511096
1	0xbd282ebe	-0.0410602
2	0x3c445dc1	0.011985243
3	0xbe33e620	-0.17568254
4	0xbdde3f08	-0.10851866
5	0xbe0cc845	-0.13748272
6	0x3d98baa2	0.074574724
7	0xbd74820c	-0.059694335
8	0xbe039ff9	-0.12853993
9	0xbe161ab8	-0.1465863
10	0xbd05ba84	-0.03264858
11	0xbe2eb0e6	-0.17059669
12	0xbe8f3dc1	-0.27976802
13	0x3d223304	0.039599434
14	0xbe433ee6	-0.19066963
15	0xbdba863c	-0.091076344
16	0xbde8abe6	-0.11360912
17	0x3c4b26d2	0.012399392
18	0xbd4ee625	-0.05051245
19	0x3cf2f22d	0.029656494
20	0x3c3bfaae	0.011473341
21	0xbba0c688	-0.0049064793
22	0x3bcb5236	0.0062048687
23	0xbd6af9df	-0.057367202
24	0xbb033b9f	-0.002002455
25	0xbc813025	-0.015770027
26	0xbe260d7b	-0.1621608
27	0x3db72f43	0.08944561
28	0x3df22e12	0.118251935
29	0x3dc48785	0.09596161
30	0x3bf39589	0.0074335975
31	0xbc3eedcd	-0.011653376
32	0xbe098862	-0.13430932
33	0xbe1b69a2	-0.15177014
34	0xbd958179	-0.073000856
35	0xbe315c36	-0.17320332
36	0xbe295f79	-0.16540326
37	0x3c6c6b47	0.014429874
38	0xbbc3e401	-0.005978108
39	0xbde7aa04	-0.11311725
40	0xbe26fa68	-0.1630646
41	0xbe5b564b	-0.21419637
42	0x3ce853a5	0.028360197
43	0xbe18a52c	-0.14906758
44	0x3dd20060	0.10253978
45	0x3c91ce99	0.017798709
46	0xbdfd66f9	-0.12373156
47	0x3d9889f1	0.07448185
48	0x3e12c788	0.14333928
49	0xbe43b921	-0.1911359
50	0xbd653036	-0.05595418
51	0xbafc3417	-0.0019241598
52	0xbe4eb147	-0.20184813
53	0x3cf98f84	0.030463941
54	0x3db4865b	0.08814689
55	0x3d88de87	0.06683069
56	0x3a37515d	0.000699302
57	0xbe04829f	-0.12940453
58	0xbe05152c	-0.12996358
59	0xbe321f4c	-0.17394751
60	0xbe53a556	-0.2066854
61	0x3b9cda04	0.0047867317
62	0x3d47555f	0.0486654
63	0xbdbc338e	-0.09189521
64	0xbd3fe375	-0.04684778
65	0x3d71ffe0	0.059081912
66	0xbd3e3a8f	-0.046442565
67	0xbd6b8807	-0.057502773
68	0x3cb6f2cd	0.022332573
69	0xbe28b83f	-0.16476534
70	0xbc9ab9ef	-0.018887488
71	0xbd0dc86b	-0.03461496
72	0x3cf72f32	0.030173872
73	0xbe02d23b	-0.12775509
74	0xbd36f35e	-0.044665687
75	0x3d907954	0.070543915
76	0xbdfa88d7	-0.122331314
77	0x3e3f46ba	0.18679324
78	0x3d2496d3	0.0401829
79	0xbdc030eb	-0.0938433
80	0xbd8546d6	-0.065076515
81	0x3d8dfb10	0.06932652
82	0xbd85b6f9	-0.0652904
83	0x3d3499db	0.04409204
84	0x3d82c4b3	0.06385174
85	0x3dc671a4	0.09689644
86	0xbdf4e562	-0.11957814
87	0xbd54f668	-0.051992804
88	0xbe1d44c5	-0.15358265
89	0x3d9f3bf5	0.07775108
90	0xbe224a55	-0.15848668
91	0x3e0ab0bf	0.13543986
92	0x3dba9d10	0.091119885
93	0x3d853382	0.06503965
94	0x3c25db27	0.010123051
95	0xbd05d1ad	-0.032670666
96	0xbe01d619	-0.12679328
97	0xbde401fe	-0.111331925
98	0xbdad0901	-0.08448983
99	0x38ec8706	0.00011278507
100	0xbbcac016	-0.006187449
101	0x3d66f7d8	0.056388706
102	0x3d74c41a	0.05975733
103	0x3de1ada4	0.110194474
104	0xbd40f323	-0.047106873
105	0xbdcaf621	-0.099102266
106	0x3d90caff	0.070699684
107	0x3d2f8e82	0.042860515
108	0xbd56fd5d	-0.05248772
109	0x3d14f55e	0.036366813
110	0x3dc8aa1f	0.09798073
111	0xbccde72b	-0.025134644
112	0xbdb64d46	-0.089014575
113	0x3da7211d	0.08160613
114	0x3dcfe4a1	0.101510294
115	0xbdd30902	-0.103044525
116	0xbde8db81	-0.11369992
117	0x3d14cd76	0.036328755
118	0xbda8af5b	-0.082365714
119	0x3d7b68f5	0.06137939
120	0x3dd77239	0.10519833
121	0xbcf17511	-0.029474767
122	0x3c48e2e1	0.012261123
123	0xbbec675f	-0.007214471
124	0x3e074993	0.1321166
125	0xbd4ae455	-0.04953416
126	0xbd68047a	-0.056644894
127	0x3d9a4b64	0.07533911
128	0x3d5beb4c	0.053691193
129	0xbe12a61a	-0.14321175
130	0xbdd5075d	-0.10401795
131	0xbcd35df5	-0.025801638
132	0x3d7d7ac6	0.061884664
133	0xbddb7355	-0.10715357
134	0x3d7a0b87	0.06104615
135	0xbd9bbee2	-0.076047674
136	0xbdb7aded	-0.089687206
137	0xbe385ea7	-0.18004857
138	0xbe3614ca	-0.17781368
139	0xbe207117	-0.1566814
140	0xbe4cab0c	-0.19987124
141	0x3c74ec8c	0.014948975
142	0xbd30dc3a	-0.043178774
143	0xbdeae582	-0.114695564
144	0xbc1b08b4	-0.009462524
145	0xbe3b177d	-0.18270679
146	0xbca4b0d7	-0.020103855
147	0xbc97c3b0	-0.018525928
148	0x3e102728	0.14077437
149	0x3c9a3862	0.018825714
150	0xbb4aad61	-0.0030926096
151	0x3d6ac294	0.05731447
152	0xbceb7b1b	-0.028745225
153	0xbd39d732	-0.045371242
154	0xbe380a88	-0.17972767
155	0xbc762174	-0.015022624
156	0xbe2c0af3	-0.16801052
157	0xbd003a85	-0.03130581
158	0xbe181894	-0.14853126
159	0xbe609e65	-0.21935423
160	0xbe086461	-0.13319542
161	0xbe35db9a	-0.17759553
162	0xbdf8f45c	-0.12155983
163	0xbe0d28e9	-0.13785137
164	0xbe1675f7	-0.14693438
165	0xbd743d08	-0.059628516
166	0xbe3deb4e	-0.18546793
167	0xbcc0241d	-0.02345472
168	0x3c9231c5	0.017845998
169	0xbdd5b26e	-0.104344234
170	0xbdb9b297	-0.090672664
171	0x3de8bc1d	0.11364005
172	0xbd4b3bc8	-0.04961756
173	0x3db479c2	0.08812286
174	0xbda1e6c9	-0.07905347
175	0x3dc98c5d	0.09841225
176	0xbdb6e2ef	-0.08930003
177	0x3de9f109	0.11422927
178	0xbc98684d	-0.018604422
179	0x3e382e4a	0.17986408
180	0x3e48cc57	0.196092
181	0x3e2a94a3	0.16658263
182	0x3dc1eea7	0.094693474
183	0x3cbcf5c4	0.023066409
184	0x3b04f479	0.0020287319
185	0xbd9af2be	-0.07565831
186	0x3d563069	0.05229226
187	0xbd80ee83	-0.062954925
188	0xbcc7ca99	-0.024388598
189	0xbd10b8fd	-0.03533267
190	0xbdc72f9a	-0.09725876
191	0xbdd3455b	-0.10315963
192	0xbd794b43	-0.06086279
193	0xbe0ccfa1	-0.13751079
194	0xbdcfb68a	-0.101422384
195	0x3d9f8830	0.077896476
196	0x3d3147ab	0.04328124
197	0xbe2e7f19	-0.17040671
198	0xbdc97512	-0.098367825
199	0x3be588de	0.007004841
200	0x3dd595a1	0.1042893
201	0x3d0bb389	0.034106765
202	0x3e24e8b1	0.1610439
203	0xbd653bf7	-0.05596539
204	0xbe24aa15	-0.16080506
205	0xbd823d3c	-0.06359336
206	0x3e06347a	0.13105956
207	0x3da74740	0.08167887
208	0x3df4a341	0.11945201
209	0x3dd3d438	0.10343212
210	0xbc0e132d	-0.008671564
211	0xbc859cdd	-0.01631015
212	0x3da4dc8b	0.08049878
213	0x3c2609dc	0.010134187
214	0x3d481950	0.048852265
215	0x3e52e695	0.20595773
216	0x3e392ea7	0.18084203
217	0xbd1fe198	-0.039033502
218	0xbe3fe284	-0.18738753
219	0x3d482637	0.04886457
220	0x3e0516e5	0.12997015
221	0x3e04c8bc	0.12967199
222	0xbde70a3c	-0.11281249
223	0x3da55000	0.080718994
224	0x3dc80289	0.097661085
225	0x3e1d9599	0.15389098
226	0x3d3a151d	0.04543029
227	0x3e26150b	0.16218965
228	0x3b4b6833	0.003103745
229	0xbc1e8c71	-0.0096770385
230	0xbd90e1f2	-0.07074346
231	0xbd6b77f4	-0.057487443
232	0xbde083d3	-0.109626435
233	0xbdc2d54c	-0.095133394
234	0xbdfdade9	-0.12386686
235	0xbe0cd7d1	-0.13754202
236	0xbd260093	-0.04052789
237	0xbd99e9ce	-0.07515298
238	0x3d6e0b31	0.05811614
239	0x3e04eece	0.12981722
240	0x3d1937b8	0.037406653
241	0x3e096fec	0.13421601
242	0x3d854e66	0.06509094
243	0x3dcfcb3e	0.10146187
244	0x3e57a033	0.21057205
245	0xbc1b9c36	-0.009497693
246	0x3d826f7b	0.063689195
247	0xbcfd32c2	-0.030907992
248	0xbd5d18ca	-0.05397872
249	0xbd8b4bc2	-0.06801559
250	0x3cd03b3b	0.025418868
251	0xbe46abe4	-0.19401509
252	0xbe4c2555	-0.19936116
253	0xbe5761b2	-0.21033362
254	0xbe12d2ea	-0.1433827
255	0xbe61fe3f	-0.22069643

localization.0.bias f4 [8]
0	0x3d1b5217	0.037920084
1	0xbdd9aee1	-0.10629059
2	0xbd8a76e3	-0.06760957
3	0xbd17e0ef	-0.037079748
4	0xbe024961	-0.12723304
5	0xbe490064	-0.19629055
6	0xbdb6bc99	-0.08922691
7	0xbd99befc	-0.075071305
