deep_emotion-100-128-0.005.pt (torch, 274522 bytes, 24 tensors)

conv1.weight f4 [10, 1, 3, 3]
0	0xbdda0090	-0.106446385
1	0x3df8dfbd	0.1215205
2	0x3d357cef	0.0443086
3	0xbed4d27f	-0.41566846
4	0x3deae378	0.114691675
5	0x3e9aee33	0.30259857
6	0xbe348f9a	-0.17632905
7	0x3cc20750	0.023685127
8	0xbbec769c	-0.007216288
9	0x3ebcd4a3	0.3688098
10	0x3e955082	0.29162985
11	0xbd1dda6b	-0.038538378
12	0x3d8246fc	0.063611954
13	0xbc6fab53	-0.014628249
14	0x3e866292	0.26247078
15	0xbcbd84b4	-0.023134567
16	0xbe60fc05	-0.21971138
17	0xbe6ad919	-0.22934379
18	0xbe9f93b5	-0.3116738
19	0xbe0fb1de	-0.14032695
20	0xbe3a7e97	-0.18212353
21	0x3e9b4e2c	0.30333078
22	0x3e670419	0.22560157
23	0x3e884054	0.26611578
24	0x3d903040	0.07040453
25	0xbe49f1ca	-0.19721141
26	0xbd71bd39	-0.059018347
27	0x3e652a49	0.22379412
28	0xbc3a8b49	-0.011385747
29	0xbe86e20a	-0.2634433
30	0xbdd1d8e1	-0.102464445
31	0x3e1c11ad	0.15241118
32	0x3dc21cba	0.094781354
33	0xbe0a911e	-0.1353192
34	0x3e776df2	0.24163035
35	0xbe44f2b8	-0.19233215
36	0x3ebb390c	0.3656696
37	0xbe83a61c	-0.2571267
38	0x3da4645a	0.08026953
39	0xbcd66588	-0.02617146
40	0xbe3d1093	-0.18463354
41	0xbe8d3294	-0.2757765
42	0x3dd1e0fb	0.1024799
43	0x3e9b936f	0.3038592
44	0x3ea1bd6c	0.3158983
45	0xbd952d69	-0.07284052
46	0x3e13e24f	0.14441799
47	0x3eae6a47	0.34065458
48	0x3e36c43e	0.17848298
49	0xbe7f66a0	-0.24941492
50	0x3e8ea16b	0.27857527
51	0xbe944dad	-0.28965512
52	0xbeb572b8	-0.35439086
53	0x3e2d4f67	0.16924821
54	0xbe4dece2	-0.20109895
55	0x3d785384	0.06062652
56	0x3ec6fc83	0.38864526
57	0xbe7d588d	-0.2474081
58	0x3e0f2a9f	0.13981102
59	0xbdf3a198	-0.11896056
60	0x3d83c5c3	0.064342044
61	0xbe959683	-0.29216394
62	0xbdf32f62	-0.11874272
63	0x3eb4307f	0.3519325
64	0x3d8deb2c	0.06929621
65	0x3e840df2	0.2579189
66	0xbe54d962	-0.2078605
67	0x3e190901	0.14944841
68	0xbe38d67a	-0.18050566
69	0x3e0f358f	0.13985275
70	0xbe201716	-0.15633807
71	0x3e46ef0f	0.19427131
72	0x3d426cde	0.047467105
73	0xbe71b1e6	-0.23603019
74	0x3e77ada2	0.2418733
75	0xbecd39af	-0.40083072
76	0xbbea9a0e	-0.007159478
77	0x3bf28feb	0.0074024103
78	0x3e8cfb66	0.27535552
79	0x3cfc4570	0.03079483
80	0x3e90b696	0.28264302
81	0xbea6e856	-0.32599133
82	0x3c657dd9	0.014007055
83	0xbda6868e	-0.08131133
84	0xbe25fd70	-0.1620996
85	0xbe21243e	-0.15736482
86	0x3cd9091f	0.026493607
87	0x3dca972d	0.09892116
88	0xbe30934b	-0.17243688
89	0xbe4eaa5f	-0.20182179

conv1.bias f4 [10]
0	0xbe5c0cab	-0.21489207
1	0xbe44bc6b	-0.19212501
2	0xbe0bcde6	-0.13652763
3	0xbea73650	-0.32658625
4	0xbcd9b894	-0.026577272
5	0x3e3ab832	0.18234327
6	0x3e71aa84	0.23600203
7	0x3de2a87f	0.11067294
8	0x3c19b949	0.009382554
9	0xbe8c9ed7	-0.27464935

conv2.weight f4 [10, 10, 3, 3]
0	0xbd1cc4dd	-0.03827368
1	0x3df19c5e	0.11797403
2	0xbd428197	-0.047486868
3	0x3d3e11ab	0.04640357
4	0x3ce59283	0.028023964
5	0xbd8df232	-0.06930961
6	0x3db0d74a	0.08634813
7	0x3ce33232	0.027733896
8	0x3bf8dd49	0.0075947386
9	0x3d20f02c	0.039291546
10	0xbcc30f77	-0.023811085
11	0xbdf95969	-0.12175257
12	0xbdf4924a	-0.11941965
13	0xbdac45c0	-0.08411741
14	0xbccf8ba1	-0.025335135
15	0xbb0060f8	-0.0019589048
16	0xbda228a3	-0.07917907
17	0xbddbf0fe	-0.10739325
18	0xbd8b692d	-0.0680717
19	0xbdc49565	-0.09598807
20	0xbd4dae2f	-0.050214943
21	0x3dc1c455	0.094612755
22	0x3d474250	0.048647225
23	0xbd1080f7	-0.03527924
24	0xbd0d6a07	-0.034524944
25	0xbd9a328b	-0.075291716
26	0xbdffee72	-0.12496652
27	0x3c677220	0.014126331
28	0xbdf7fe47	-0.121090464
29	0xbc377cf7	-0.0111992275
30	0x3d1f474b	0.03888635
31	0x3ca6ec3c	0.020376317
32	0xbdc72d85	-0.09725479
33	0x3d78bae0	0.060725093
34	0x3d35fc43	0.04443003
35	0xbd8a5442	-0.06754352
36	0xbd866841	-0.065628536
37	0xbda04bb9	-0.07826943
38	0xbdbbef8f	-0.091765516
39	0xbe0aadd7	-0.13542877
40	0xbdc101e1	-0.094241865
41	0xbc7d2bbf	-0.015452324
42	0x3cddd600	0.027079582
43	0xbd7e3f67	-0.062072184
44	0xbd17be09	-0.037046466
45	0xbdb051c1	-0.08609343
46	0xbe1126e4	-0.14174992
47	0xbdbf9735	-0.09355012
48	0xbdef2e36	-0.11678736
49	0xbd9d8339	-0.07691044
50	0xbdd64704	-0.10462764
51	0xbdc2f9a6	-0.09520273
52	0xbda43877	-0.08018582
53	0xbde2fbfb	-0.11083218
54	0xbe1a0533	-0.15041046
55	0xbd9b1efd	-0.0757427
56	0xbdff9e83	-0.124814056
57	0x3c486664	0.012231443
58	0xbcfcffc8	-0.030883685
59	0x3cfdf984	0.031002767
60	0x3bfaa26d	0.007648757
61	0x3d45583c	0.04817985
62	0xbd2efa18	-0.042718977
63	0xbda4bb3a	-0.08043523
64	0x3d629188	0.05531457
65	0xbd8b2dd5	-0.06795851
66	0x3ced5a25	0.028973648
67	0xbd55db61	-0.05221117
68	0xbdde0a68	-0.108418286
69	0x3d2bac9b	0.041912656
70	0x3ca1d347	0.019754065
71	0xbdc25ed9	-0.09490747
72	0xbc801ffa	-0.015640248
73	0xbcc3469b	-0.023837378
74	0xbac78a08	-0.0015223632
75	0xbdff4021	-0.124634035
76	0xbc3e292c	-0.011606496
77	0xbcd466ff	-0.025928019
78	0x3d2694d4	0.040669277
79	0xbe0666fe	-0.13125226
80	0xbdf8b72e	-0.12144314
81	0x3b91941d	0.0044427053
82	0xbc6f67d4	-0.014612157
83	0x3cb1f92a	0.021725256
84	0xbd824385	-0.063605346
85	0x3d357dba	0.044309355
86	0xbd9f5073	-0.07779016
87	0xbd2ccfb7	-0.04219028
88	0xbcf190ed	-0.029488051
89	0x3d22641c	0.039646253
90	0x3cfeba8d	0.031094814
91	0xbe4698b3	-0.19394188
92	0x3e5b60a1	0.2142358
93	0x3d03c279	0.032167885
94	0xbd9b5962	-0.07585408
95	0xbd0b2726	-0.03397288
96	0x3d8aac1d	0.06771109
97	0xbde18521	-0.110117204
98	0x3e5c4ef3	0.21514492
99	0xbdba32cf	-0.09091722
100	0x3d87f4cd	0.06638489
101	0x3cb8213c	0.022476785
102	0xbceb6bad	-0.028737867
103	0xbc63b8a9	-0.013899007
104	0xbd013852	-0.03154785
105	0x3e0fccd5	0.14042981
106	0xbd7dc0f4	-0.061951593
107	0x3dbd9996	0.0925781
108	0xbe8c09e6	-0.27351302
109	0xbe9a2a1f	-0.3011026
110	0xbea29f59	-0.31762198
111	0xbe0ee42e	-0.13954231
112	0xbe3e1585	-0.18562897
113	0xbe6cc5e6	-0.23122367
114	0x3e0e8310	0.13917184
115	0x3d98206c	0.07428059
116	0xbe0848fe	-0.13309094
117	0xbd9e0d3a	-0.077173665
118	0xbd52a1e2	-0.051423915
119	0xbcfaee59	-0.030631231
120	0xbc486883	-0.012231949
121	0xbdf348d1	-0.11879123
122	0xbdbccc75	-0.092186846
123	0x3ab939ac	0.0014131567
124	0xbcba8348	-0.022767678
125	0x3c831384	0.016000517
126	0xbdefcd94	-0.11709133
127	0xbdb29f3c	-0.08721778
128	0x3d6c47b3	0.057685565
129	0xbdbeb98a	-0.093127325
130	0x3d0419c5	0.03225114
131	0x3d811688	0.063031256
132	0xbd0e78d6	-0.034783207
133	0xbdd078e0	-0.10179305
134	0xbd61e96e	-0.055154257
135	0x3d7f581c	0.062339887
136	0x3dc5a783	0.09651091
137	0x3e098374	0.13429052
138	0x3d56e1cb	0.052461427
139	0xbde9b166	-0.11410789
140	0x3cec5443	0.028848773
141	0x3dd9485b	0.10609504
142	0x3d6020c4	0.054718748
143	0x3e04dfc0	0.12975979
144	0x3e035e4a	0.12828937
145	0x3d4a21c3	0.049348604
146	0xbdad830b	-0.0847226
147	0xbdb86774	-0.09004107
148	0xbb5adfe0	-0.00333976
149	0x3b879059	0.0041370806
150	0x3c9ed5b2	0.019389007
151	0x3cd07a11	0.02544883
152	0xbd90c386	-0.07068543
153	0x3dc5923a	0.09647031
154	0x3dcd6bf6	0.100303575
155	0xba82bb8d	-0.0009974107
156	0xbc3f76da	-0.011686051
157	0x3d71482b	0.058906715
158	0xbd7a0234	-0.061037257
159	0xbdab811d	-0.08374236
160	0x3c8f29d4	0.017476
161	0x3cfbd522	0.030741278
162	0x3d949a68	0.07256013
163	0x3db2738a	0.087134436
164	0x3de924da	0.11383982
165	0x3d64ad20	0.055829167
166	0x3d1eeac3	0.038798105
167	0x3d87d823	0.06633022
168	0xbd9eee33	-0.07760277
169	0xbd9e669b	-0.07734414
170	0xbd321f5f	-0.04348695
171	0xbda3f2ad	-0.08005271
172	0x3deaeaf6	0.114705965
173	0x3d16ef04	0.036849037
174	0x3da32c2b	0.07967409
175	0x3dea36f6	0.11436264
176	0x3dd8b34d	0.10581074
177	0xbd390c6e	-0.04517787
178	0x3dd9234c	0.106024355
179	0xbd4ee69d	-0.0505129
180	0xbdcfdfb4	-0.1015009
181	0x3d91286e	0.070877895
182	0x3d46fc7d	0.048580635
183	0x3dfa3573	0.12217226
184	0x3d6848da	0.0567101
185	0x3d63974e	0.055564217
186	0x3db725ef	0.08942782
187	0xbda8de63	-0.08245542
188	0x3c8baf44	0.017051347
189	0xbbe9f262	-0.00713949
190	0xbbc8f26e	-0.0061324155
191	0xbd8d63f8	-0.06903833
192	0xbdd6270e	-0.10456668
193	0x3c399ef7	0.011329404
194	0x3df55c7e	0.11980532
195	0x3b4aedb7	0.0030964443
196	0x3da2da58	0.07951802
197	0x3d57ccef	0.052685674
198	0xbcf5b1d9	-0.029992031
199	0xbdb9176b	-0.0903767
200	0xbd9bb2ae	-0.0760244
201	0xbbe3b856	-0.006949465
202	0x3d71ac38	0.05900213
203	0x3a438f84	0.0007460045
204	0xbd6c2a2d	-0.05765741
205	0xbdebd996	-0.115161106
206	0xbd80e6dd	-0.06294034
207	0xbd82a076	-0.06378262
208	0xbd907412	-0.07053389
209	0x3d87a1f1	0.06622685
210	0xbd8d2970	-0.06892669
211	0x3c360eb6	0.011111906
212	0x3c870a13	0.016484296
213	0xbdef54cd	-0.11686096
214	0x3d75c3c0	0.060001135
215	0xbb25bb6c	-0.0025288714
216	0xbdef4bb1	-0.11684359
217	0xbcf65a1c	-0.030072264
218	0xbd9ab6b7	-0.07554381
219	0xbc88576a	-0.016643245
220	0x3b42650e	0.0029662284
221	0x3d98be04	0.074581176
222	0x3d42d3d9	0.047565315
223	0xbd8c0ff6	-0.06838982
224	0xbda1d891	-0.07902635
225	0xbde636a5	-0.11240891
226	0xbdec72ca	-0.11545332
227	0xbd4aa6e0	-0.04947555
228	0x3d3521a6	0.044221543
229	0xbc2eef9b	-0.010677244
230	0xbda362ea	-0.07977851
231	0x3bba7102	0.005689741
232	0xbd2fe278	-0.042940587
233	0xbdfe7da3	-0.12426307
234	0xbc549207	-0.012974269
235	0x3cb5a287	0.022172226
236	0xbbcaa618	-0.0061843507
237	0x3d6d0694	0.0578676
238	0x3d0696a8	0.03285852
239	0xbde9ecb0	-0.11422098
240	0xbdbcb14e	-0.09213506
241	0xbdfe405d	-0.1241462
242	0xbdda4cfe	-0.10659216
243	0x3d03c181	0.03216696
244	0x3d849d6a	0.06475337
245	0x3bac8797	0.005265187
246	0xbe053d73	-0.13011722
247	0xbcd72415	-0.026262322
248	0xbde07125	-0.109590806
249	0xbd25c96f	-0.040475305
250	0xbdd11cc7	-0.10210567
251	0xbd5c2b81	-0.053752426
252	0xbda98407	-0.08277135
253	0xbd2be5cd	-0.041967202
254	0x3d459a55	0.048242886
255	0xbdc9e99b	-0.0985901

conv2.bias f4 [10]
0	0x3d1025f7	0.035192456
1	0xbd806501	-0.06269265
2	0xbd4071ca	-0.046983518
3	0x3d72081c	0.059089765
4	0xba129951	-0.0005592304
5	0x3d06ed1e	0.032940976
6	0x3cdf9058	0.027290508
7	0x3d6a3ab1	0.05718488
8	0x3d975fce	0.0739132
9	0xbddbf17c	-0.10739419

conv3.weight f4 [10, 10, 3, 3]
0	0x3d16c4fe	0.03680896
1	0xbd559fcc	-0.052154347
2	0x3b695ba0	0.0035607591
3	0xbdaafe0a	-0.08349235
4	0xbd788144	-0.060670152
5	0xbd81b831	-0.0633396
6	0xbdcc3a74	-0.099720865
7	0x3d9ece05	0.07754139
8	0x3dad6a2f	0.084675185
9	0x3d28a47e	0.041172497
10	0x3d713832	0.058891483
11	0xbd97f5d9	-0.074199386
12	0xbd09cb06	-0.033640884
13	0xbc8200f0	-0.015869588
14	0x3c811e80	0.015761614
15	0x3d61c8ae	0.055123024
16	0xbd24a324	-0.040194646
17	0x3d997c1b	0.07494374
18	0xbb8c4510	-0.004280694
19	0x3d71d182	0.059037693
20	0x3da06bcb	0.0783306
21	0xbdb5cd51	-0.088770516
22	0x3dca591d	0.09880278
23	0x3da8f6a5	0.08250169
24	0x3c5608c8	0.013063617
25	0x3d563136	0.052293025
26	0xbdcd7cf0	-0.100335956
27	0xbdd29f62	-0.10284306
28	0xbcefec00	-0.029287338
29	0x3bcdcb40	0.006280333
30	0xbdaccf45	-0.08437971
31	0x3d5ee5e6	0.054418467
32	0x3db25925	0.08708409
33	0xbd5f3c65	-0.054500956
34	0x3c2410c8	0.010013767
35	0xbdd4610c	-0.10370073
36	0xbdc9f2bc	-0.09860751
37	0x3d188a96	0.03724154
38	0xbdd7da7a	-0.10539718
39	0xbd4e3eab	-0.050352734
40	0x3d500f9e	0.050796144
41	0x3c089058	0.0083351955
42	0xbdbd43c4	-0.09241441
43	0x3b650140	0.0034943372
44	0x3d9c2107	0.07623487
45	0xbba554b0	-0.005045496
46	0xbdc48264	-0.095951825
47	0xbc33a750	-0.010965183
48	0xbdd4bdb0	-0.103877425
49	0xbdcd3b6f	-0.10021102
50	0xbdbd67c5	-0.09248308
51	0xbc88765c	-0.016658
52	0x3cc014c4	0.023447402
53	0xbc790928	-0.015199937
54	0xbd0e13c2	-0.03468681
55	0xbc9b2e44	-0.01894296
56	0xbc920a58	-0.017827198
57	0xbd8b8a06	-0.06813435
58	0xbdcf8020	-0.1013186
59	0x3c48bb28	0.012251653
60	0xbdc52554	-0.096262604
61	0xbd50c90e	-0.05097299
62	0xbdc3fbd1	-0.095695145
63	0xbda5f7c2	-0.08103897
64	0xbd91a538	-0.07111591
65	0xbd95f71b	-0.07322522
66	0x3d53751e	0.051625364
67	0xbdd6d3e5	-0.104896344
68	0xbdac8070	-0.08422935
69	0x3c975d8c	0.018477224
70	0xbd9e4ec0	-0.07729864
71	0x3bd51c70	0.006503634
72	0xbdab54c6	-0.083657786
73	0x3d286f7e	0.041121952
74	0xbd9322d2	-0.07184376
75	0x3c9de1ec	0.019272767
76	0x3c7f4a70	0.015581712
77	0xbdaf1e2b	-0.08550676
78	0xbd1d4050	-0.03839141
79	0xbb49a620	-0.0030769184
80	0xbda66e1e	-0.08126472
81	0xbdabe654	-0.08393541
82	0x3c33d3b0	0.010975763
83	0xbd6f1365	-0.058368105
84	0xbdcd9b71	-0.10039414
85	0x3d342e56	0.043989502
86	0x3cc94574	0.02456925
87	0x3d32d176	0.04365679
88	0x3dba04e9	0.09082968
89	0xbd2180ca	-0.039429463
90	0xbcaaaa8c	-0.020833276
91	0x3e0b42ae	0.13599655
92	0xbcb863db	-0.022508552
93	0x3cc4e9fb	0.024037352
94	0xbda14286	-0.078740165
95	0xbd886f46	-0.06661849
96	0xbb118127	-0.0022202225
97	0xbd9553fc	-0.072914094
98	0x3d929723	0.07157733
99	0xbc93e9ca	-0.018055815
100	0x3dabc917	0.08387964
101	0xbc54ef62	-0.012996526
102	0x3d1348c0	0.03595805
103	0x3d0769a0	0.033059716
104	0x3d760ac7	0.06006887
105	0x3d981649	0.074261256
106	0xbd92409e	-0.07141231
107	0x3d692805	0.05692293
108	0xbd3d89d8	-0.046274036
109	0xbcab55e8	-0.020914987
110	0x3cb080e7	0.02154584
111	0xbdc110df	-0.09427046
112	0xbd7c2ef7	-0.061568227
113	0xbcf85dfe	-0.030318256
114	0xbc1ed90d	-0.009695304
115	0x3c08cbc0	0.008349359
116	0xbce936fc	-0.028468601
117	0x3da7b7b7	0.08189338
118	0xbca1a8b4	-0.019733764
119	0x3daea73c	0.08527991
120	0xbd21154d	-0.039326955
121	0xbdd2f867	-0.10301285
122	0xbd9fa924	-0.07795933
123	0xbc8afda0	-0.016966641
124	0x3b71f522	0.0036919792
125	0x3d8ac6d7	0.06776207
126	0x3cc49312	0.02399591
127	0xbd92f50e	-0.07175647
128	0xbde8f88d	-0.11375532
129	0x3d2365dc	0.039892063
130	0x3dbc067e	0.09180926
131	0x3e0364b7	0.12831388
132	0xb9508d5d	-0.00019889088
133	0x3c7222c7	0.014778799
134	0xbd5ce891	-0.05393273
135	0x3dc472fd	0.09592245
136	0xbce968f7	-0.028492434
137	0x3d811b23	0.06304004
138	0xbd297f84	-0.041381374
139	0xbe1682c0	-0.14698315
140	0xbcf39e0b	-0.029738447
141	0xbd5b12e8	-0.053484827
142	0xbc30a4e6	-0.010781502
143	0x3d9b8a56	0.07594745
144	0xbdbf60f1	-0.09344662
145	0xbe12adee	-0.14324161
146	0x3de360a9	0.11102421
147	0xbe1ffb15	-0.15623124
148	0xbe1e2856	-0.15445074
149	0xbdef476a	-0.11683543
150	0xbe2fa487	-0.17152606
151	0xbe259efc	-0.16173929
152	0xbd52c25f	-0.051454898
153	0x3ded260b	0.11579522
154	0x3d499992	0.04921872
155	0x3d30f11b	0.043198686
156	0x3c73d801	0.014883042
157	0x3dacac88	0.08431345
158	0x3df1f3ac	0.11814055
159	0xbde7b703	-0.113142036
160	0xbd40e560	-0.04709375
161	0xbd5892bb	-0.052874308
162	0x3e0355b3	0.1282566
163	0xbd84b0b7	-0.06479018
164	0xbc978bdb	-0.018499305
165	0x3c358d81	0.0110811
166	0xbb732b0a	-0.003710451
167	0x3d964e2a	0.07339127
168	0x3d1c36a5	0.03813805
169	0xbc78c6f8	-0.015184157
170	0x3d8063e8	0.062690556
171	0xbd36e2dc	-0.044649944
172	0xbaa7513d	-0.00127653
173	0x3d94bde1	0.07262779
174	0xbded5247	-0.11587959
175	0xbd0a7c27	-0.033809807
176	0xbe073688	-0.13204396
177	0xbdb3e198	-0.08783263
178	0xbdc7f709	-0.09763915
179	0xbb85c8f2	-0.0040827924
180	0x3db72e3d	0.08944366
181	0xbdd8ae5c	-0.105801314
182	0xbc74f7e8	-0.014951684
183	0xbd81a56e	-0.06330381
184	0x3c988d58	0.018622085
185	0x3c27e8e2	0.010248395
186	0x3beddb8c	0.007258838
187	0x3bcc1cbd	0.006229012
188	0xbdad3799	-0.0845787
189	0x3c0d0b4b	0.0086086495
190	0xbcbf04ea	-0.023317773
191	0xbca32e52	-0.019919548
192	0x3c9d5c04	0.019208916
193	0xbe4df966	-0.20114669
194	0xbb5ea552	-0.003397305
195	0x3b1beafe	0.002379119
196	0x3ca9153c	0.020640008
197	0xbe00d508	-0.12581265
198	0xbbb6e35a	-0.0055813016
199	0x3dca8673	0.098889254
200	0xbc8cdbfc	-0.01719474
201	0xbc638c43	-0.0138884215
202	0xbd2e2565	-0.04251613
203	0x3dfc45b8	0.12317985
204	0xbdcfc3f7	-0.10144799
205	0xbc6ef34d	-0.014584375
206	0xbdbfffef	-0.09374987
207	0x3dca4833	0.09877052
208	0x3bb42910	0.005498059
209	0x3cf5de7a	0.030013312
210	0x3d7ad2fb	0.061236363
211	0x3c706e2d	0.014674705
212	0xbda38d3c	-0.07985923
213	0xbd048c01	-0.03236008
214	0x3e2ad3fd	0.1668243
215	0x3d2b5197	0.041825857
216	0x3dcf7374	0.10129443
217	0xbd572b64	-0.052531615
218	0x3dea19bd	0.114306904
219	0x3e2de2fa	0.16981116
220	0x3cbe2e19	0.02321534
221	0x3d07a31a	0.03311453
222	0x3e3e3d7e	0.18578145
223	0xbd193163	-0.037400614
224	0xbd24b90c	-0.040215537
225	0x3d239f7d	0.03994702
226	0x3de50c8a	0.11184032
227	0x3d677b1a	0.056513883
228	0x3dc8b073	0.0979928
229	0xbddf3e03	-0.109005
230	0xbd3d72a0	-0.046251893
231	0xbbe8e0fc	-0.0071068984
232	0x3a7a604f	0.0009551094
233	0xbcfdaf96	-0.030967515
234	0xbd626dd0	-0.055280507
235	0x3d142f48	0.036177903
236	0x3e210a92	0.15726689
237	0x3db4bcf4	0.088251024
238	0xbddc5379	-0.10758109
239	0x3e35805a	0.17724743
240	0x3e2e4c17	0.17021213
241	0x3d64bb29	0.055842552
242	0xbda6418c	-0.08117971
243	0x3d986bb1	0.074424155
244	0xbdfe6d35	-0.12423173
245	0x3c81242b	0.015764317
246	0x3e2265b4	0.15859109
247	0x3d7f051b	0.06226073
248	0x3c598482	0.013276221
249	0xbd643071	-0.05571026
250	0xb98f5fe0	-0.00027346518
251	0x3e1667bb	0.14688008
252	0xbd03a796	-0.032142244
253	0xbdb0e032	-0.08636512
254	0xbd8b72a6	-0.06808977
255	0x3e3d6831	0.18496777

conv3.bias f4 [10]
0	0x3d62b5e2	0.05534924
1	0x3dad198e	0.0845214
2	0x3da9774a	0.08274706
3	0xbd31ea2e	-0.04343622
4	0x3bac6e97	0.005262207
5	0xbd79f69e	-0.061026208
6	0x3e2006d6	0.15627608
7	0xbca82fae	-0.020530548
8	0x3cff3b92	0.031156335
9	0xbdef0b9e	-0.11672138

conv4.weight f4 [10, 10, 3, 3]
0	0x3cf9597c	0.030438177
1	0x3d3948ca	0.045235433
2	0x3ca6d324	0.020364352
3	0x3ce8633c	0.028367631
4	0x3d4436ce	0.04790383
5	0x3dcd646d	0.1002892
6	0x3d59840e	0.053104453
7	0x3d2feb0a	0.04294876
8	0x3d3c30ae	0.045944862
9	0xbda916ce	-0.08256303
10	0xbd9db167	-0.076998524
11	0xbd9b2e72	-0.07577218
12	0x3d4d6a2a	0.050150074
13	0xbd144815	-0.036201555
14	0xbdad6722	-0.08466937
15	0x3dffa406	0.12482457
16	0x3e037cf7	0.12840639
17	0x3d70e30a	0.05881027
18	0x3d7ea278	0.06216666
19	0x3c1cb505	0.009564643
20	0xbbb4da77	-0.005519207
21	0xbcf878f9	-0.030331122
22	0x3dfa10d0	0.12210238
23	0xba64dce0	-0.00087304227
24	0x3e09d460	0.13459921
25	0x3c6851df	0.014179676
26	0x3df5e0c5	0.12005762
27	0x3cf9d7ba	0.030498374
28	0xbd050e52	-0.03248436
29	0xbd2bbc5d	-0.041927684
30	0x3e3e48f2	0.18582514
31	0xbbbd9532	-0.0057856077
32	0x3d1dd467	0.03853264
33	0x3e256ca0	0.16154718
34	0xbddccb1d	-0.10780928
35	0xbde7b061	-0.113129385
36	0x3d3f0a90	0.046640933
37	0xbc2a3966	-0.010389661
38	0xbd23098d	-0.03980403
39	0x3e451cc7	0.19249259
40	0xbd140890	-0.03614098
41	0x3d65542a	0.05598847
42	0x3e6f6107	0.23376857
43	0xbdf0b55f	-0.11753344
44	0xbbabcef3	-0.005243176
45	0x3d6ee34b	0.058322232
46	0x3d5baabc	0.053629622
47	0xbd32e449	-0.04367474
48	0x3d569b9e	0.052394502
49	0x3ccfbc29	0.025358276
50	0x3d9dd072	0.077057734
51	0xbd3f7d7a	-0.046750523
52	0xbd875674	-0.066082865
53	0x3c9db5e9	0.01925178
54	0xbe1b4371	-0.15162446
55	0x3dcf2f0a	0.10116394
56	0xbccf2f1c	-0.025291018
57	0xbdc90cde	-0.09816907
58	0x3da9633f	0.08270883
59	0x3e4c062f	0.19924234
60	0xbd55b86b	-0.052177828
61	0xbd9fa98d	-0.07796011
62	0x3dbe027e	0.09277819
63	0xbd23e1b7	-0.04001018
64	0xbdf59841	-0.11991931
65	0xbd4ae3e5	-0.049533743
66	0x3d282106	0.04104712
67	0x3d32e79e	0.04367792
68	0x3dc946f1	0.09827984
69	0xbccc4e32	-0.02493963
70	0x3cde5007	0.02713777
71	0xbd5cbb02	-0.053889282
72	0x3d4bb8de	0.04973685
73	0xbde3dbc6	-0.11125903
74	0x3d5ce47e	0.053928845
75	0x3dc96da9	0.09835369
76	0x3df57ccc	0.11986694
77	0xbd69f12f	-0.057114776
78	0x3de82be9	0.113365
79	0x3e0dfe1b	0.13866465
80	0x3cea09bb	0.028569093
81	0xbdbc0b7a	-0.091818765
82	0xbba3deb1	-0.005000912
83	0xbd6c51c4	-0.057695165
84	0x3d6d1983	0.057885658
85	0xbe1fe9b7	-0.15616499
86	0x3b8c7313	0.004286179
87	0x3cae9044	0.021309026
88	0x3d6622e1	0.056185607
89	0x3d6c4331	0.057681266
90	0x3d95fffd	0.073242165
91	0x3b9dae10	0.0048120096
92	0xbdcda6a2	-0.10041548
93	0x3dd0b2d7	0.10190361
94	0xbd5d1a8f	-0.053980406
95	0x3bf7fd70	0.007568054
96	0xbd8de9f2	-0.06929387
97	0x3c865974	0.016400076
98	0xbd796c91	-0.060894553
99	0xbc509e83	-0.012733105
100	0xbcc331ee	-0.02382752
101	0xbd934f54	-0.07192865
102	0xbdecabb2	-0.11556186
103	0x3ddaa2b6	0.10675566
104	0xbb287767	-0.0025705935
105	0x3df721d2	0.120669976
106	0x3d525436	0.05134984
107	0x3cd59c1e	0.026075419
108	0xbd266828	-0.040626675
109	0x3e1e233f	0.15443133
110	0xbd93b5b8	-0.072123945
111	0x3dcf2734	0.10114899
112	0xbccae39d	-0.024766738
113	0x3c47b182	0.012188317
114	0xbbbc19e9	-0.0057403934
115	0x3dc220ac	0.09478888
116	0x3c4d54e3	0.012532446
117	0x3e48c075	0.19604667
118	0x3d88aaaa	0.066731766
119	0xbdd7a309	-0.10529143
120	0x3dd003bb	0.101569615
121	0x3dd7a1b5	0.1052889
122	0xbdbf70b1	-0.09347666
123	0xbd02a070	-0.031891286
124	0xbe1bc516	-0.15211901
125	0xbab4267a	-0.0013744377
126	0x3e23dda4	0.16002518
127	0xbd9de0ff	-0.0770893
128	0xbd1e5986	-0.038659595
129	0x3e341f95	0.17590173
130	0x3e8ea2de	0.27858633
131	0xbd25225a	-0.040315963
132	0xbe06805f	-0.13134907
133	0x3df3f798	0.11912459
134	0x3d533b2e	0.05157011
135	0xbb80136d	-0.0039085657
136	0x3d8b706b	0.068085514
137	0x3d815821	0.063156374
138	0xbc6cfe35	-0.014464905
139	0xbd8cb660	-0.06870723
140	0xbd81bf22	-0.06335284
141	0xbd446662	-0.047949202
142	0xbde97a12	-0.11400236
143	0xbd97c812	-0.07411207
144	0xbdf5945e	-0.119911894
145	0xbdb489e0	-0.0881536
146	0x3dd06c42	0.101768985
147	0x3d9bfe43	0.07616856
148	0x3c79f2cb	0.01525564
149	0x3dbe81ad	0.093020774
150	0x3c3831d5	0.01124235
151	0xbc2c8896	-0.0105306115
152	0xbd28aca9	-0.041180287
153	0xbdd0bd89	-0.10192401
154	0xbd3b47e1	-0.045722846
155	0xbd4356da	-0.04769025
156	0x3bd8f099	0.0066204784
157	0xbda343b2	-0.07971896
158	0x3dbcdce9	0.09221823
159	0xbde4ba96	-0.11168401
160	0xbdb23247	-0.08700996
161	0xbd4fef08	-0.050765067
162	0x3e03cd05	0.12871177
163	0xbcb2fb42	-0.021848325
164	0xbbbf8dff	-0.0058457847
165	0x3d9627a8	0.073317826
166	0x3d3aadc2	0.045575865
167	0xbdbc377d	-0.09190271
168	0x3dc0f5b8	0.09421867
169	0x3b3d6914	0.0028901743
170	0xbdad70d8	-0.08468789
171	0x3dc7de34	0.09759179
172	0xbe0cfec9	-0.13769068
173	0x3afb6a24	0.0019181413
174	0x3db48284	0.088139564
175	0x3da9d0a7	0.082917504
176	0xbd0d0583	-0.034429085
177	0x3e1354df	0.14387845
178	0x3ba7add4	0.0051171575
179	0x3dbef624	0.09324291
180	0x3dac7675	0.084210314
181	0x3d707686	0.058706783
182	0xbbd60f20	-0.0065325648
183	0xbc5b6ec0	-0.013393104
184	0x3d88e6f1	0.066846736
185	0x3db9ac29	0.0906604
186	0x3cd576d4	0.026057638
187	0x3d069fca	0.03286723
188	0xbd97c352	-0.07410301
189	0x3d0541c5	0.032533426
190	0x3e2c7da7	0.16844808
191	0x3d5382a6	0.051638268
192	0xbe23cfac	-0.1599719
193	0x3d645998	0.055749506
194	0x3d163593	0.036672186
195	0x3daeb9ff	0.0853157
196	0x3dbe5d14	0.09295097
197	0x3e0f3925	0.13986643
198	0x3d48c4ee	0.04901593
199	0x3db2afe6	0.08724956
200	0x3e6f798b	0.23386209
201	0xbc592b76	-0.013254991
202	0xbd0b78f7	-0.034050908
203	0xbe1183ca	-0.1421043
204	0xbd5790ba	-0.052628256
205	0xbe692053	-0.22766237
206	0xbe0e748d	-0.13911648
207	0xbd26ae3f	-0.040693518
208	0xbcddcd0c	-0.027075313
209	0xbdce36e6	-0.10069065
210	0x3d1f11b9	0.03883526
211	0xbd48a689	-0.048986945
212	0xbe211f4a	-0.15734592
213	0x3dee04b0	0.11621988
214	0x3bec92f0	0.0072196648
215	0x3e0d141a	0.137772
216	0x3de61852	0.112351075
217	0x3c7684bf	0.015046298
218	0xbe124e43	-0.14287667
219	0xbe187f36	-0.14892277
220	0xbde3b015	-0.11117569
221	0x3d5f167f	0.054464813
222	0x3db9c3bc	0.090705365
223	0xb8b8936a	-8.801262e-05
224	0x3d43e7d2	0.047828503
225	0x3dd18224	0.102299005
226	0x3d69f8d5	0.05712207
227	0xbbd39b8c	-0.0064577516
228	0xbd7218de	-0.059105746
229	0xbdec51c5	-0.11539034
230	0xbd71721b	-0.05894671
231	0x39149edb	0.00014173558
232	0x3d84471b	0.06458875
233	0x3dbc0061	0.0917976
234	0xbcc77e4c	-0.024352215
235	0xbdf392e5	-0.11893252
236	0xbe1a704a	-0.15081897
237	0x3b2282e4	0.0024797255
238	0x3e25174c	0.16122168
239	0x3c248b87	0.010043032
240	0x3dd26c74	0.10274592
241	0xbccc6b0f	-0.024953393
242	0x3d6c97eb	0.057762068
243	0x3d85df93	0.06536784
244	0x3d458d31	0.048230354
245	0x3a06ba0a	0.00051394163
246	0xbd6ce1b9	-0.057832453
247	0x3d5498df	0.0519036
248	0xbe09b744	-0.13448817
249	0x3daa4d72	0.08315553
250	0xbd33998f	-0.043847617
251	0xbdf061f6	-0.117374346
252	0x3de712d4	0.11282888
253	0x3d9e4958	0.07728833
254	0xbca077f8	-0.019588456
255	0x3dd86c07	0.105674796

conv4.bias f4 [10]
0	0xbdd65eb6	-0.104672834
1	0xbde54687	-0.11195093
2	0x3d3bbba9	0.045833264
3	0xbd907a23	-0.07054546
4	0x3e15bae4	0.14622074
5	0x3e04036c	0.1289193
6	0xbcb70551	-0.022341402
7	0x3d01f375	0.03172632
8	0x3d41ede9	0.04734603
9	0xbdda97c5	-0.10673479

norm.weight f4 [10]
0	0x3f9b5bcb	1.2137388
1	0x3f98a554	1.1925454
2	0x3f90bec3	1.1308216
3	0x3f8d12e3	1.1021389
4	0x3f98174a	1.1882107
5	0x3f92b9d0	1.1462955
6	0x3f862993	1.0481437
7	0x3f964491	1.1739675
8	0x3f90088c	1.1252608
9	0x3f90aef2	1.1303389

norm.bias f4 [10]
0	0xbe8a9593	-0.2706724
1	0xbe984f8d	-0.29748192
2	0xbe369bcf	-0.17832874
3	0xbe1e327e	-0.15448949
4	0xbe2e2456	-0.17006049
5	0xbe56c426	-0.20973262
6	0xbe00a0b4	-0.12561303
7	0xbde79332	-0.11307372
8	0xbe1411c7	-0.14459907
9	0xbe0cef41	-0.13763143

norm.running_mean f4 [10]
0	0x3d15ee62	0.036604293
1	0x3b9b80b3	0.0047455668
2	0x3c442794	0.011972327
3	0x3dcb8bca	0.09938772
4	0x3de61271	0.11233986
5	0x3e9e66c6	0.30937785
6	0xbd3c47b0	-0.045966804
7	0x3d853ec3	0.065061115
8	0xbc61d842	-0.01378447
9	0xbea77a56	-0.32710522

norm.running_var f4 [10]
0	0x3bc88873	0.0061197816
1	0x3ba85e7c	0.0051382165
2	0x3bcb5bbf	0.0062060053
3	0x3b92038a	0.0044559883
4	0x3b6ed2da	0.0036441595
5	0x3baed114	0.0053349826
6	0x3b92c660	0.0044792145
7	0x3ba406ce	0.005005694
8	0x3c029d66	0.007972097
9	0x3c1431c8	0.009045072

fc1.weight f4 [50, 810]
0	0x3d4882ee	0.04895299
1	0x3ca87afc	0.020566456
2	0x3db3f383	0.087866805
3	0x3c8157ac	0.015788876
4	0xbd427ef3	-0.04748435
5	0xbda156f9	-0.07877917
6	0x3c421af3	0.0118472455
7	0xbb9e7a7b	-0.004836378
8	0x3d485bf5	0.048915822
9	0x3dab72a1	0.08371473
10	0xbc884422	-0.01663405
11	0x3da3a4d3	0.07990422
12	0xbd2bfadd	-0.04198729
13	0x3bc2248c	0.005924767
14	0xbd4f1d69	-0.050565157
15	0x3d2bff45	0.04199149
16	0xbd497808	-0.049186736
17	0x3d3f766f	0.046743806
18	0x3ddb1125	0.106966294
19	0x3de63ea1	0.11242414
20	0x3cab04a6	0.02087624
21	0x3b713db7	0.0036810467
22	0xbcf1cd77	-0.029516919
23	0xbc2179d2	-0.009855704
24	0xbad38c4b	-0.0016139833
25	0xbc8bdf97	-0.01707439
26	0xbd738da5	-0.059461255
27	0x3d45507e	0.048172466
28	0xbc88ecc0	-0.016714454
29	0x3ceb0118	0.028687045
30	0x3d4ff47c	0.050770268
31	0x3dcf5e18	0.10125369
32	0x3cf8d701	0.03037596
33	0x3d1fabc9	0.038982186
34	0xbc873836	-0.016506296
35	0x3c592bff	0.013255118
36	0xbcf411a0	-0.02979356
37	0x3dbd5320	0.092443705
38	0xbb425612	-0.0029653353
39	0x3e3cfac3	0.18455033
40	0x3cc5d82a	0.024150927
41	0x3dba15ec	0.090862125
42	0x3b47928f	0.0030452346
43	0x3cd6f666	0.026240539
44	0xbc57dcc3	-0.013175192
45	0x3dbf88f9	0.09352297
46	0x3d2e8242	0.042604692
47	0xbd1daa20	-0.038492322
48	0x3d8160d1	0.063172944
49	0x39f4d438	0.00046697422
50	0x3d3cd101	0.04609776
51	0x3d1eb76e	0.03874915
52	0xbac19cb5	-0.0014771434
53	0xbd8b946e	-0.0681542
54	0x3e37ed7d	0.17961688
55	0x3d8cb6ef	0.06870829
56	0xba65e89f	-0.000877032
57	0x3cc4ce80	0.024024248
58	0x3d0f6dfa	0.03501699
59	0x3d7cfa63	0.061762225
60	0x3e01e7da	0.126861
61	0x3d2b60ba	0.041840293
62	0xbc2f74f0	-0.010709032
63	0x3e260b94	0.16215354
64	0xbcb25d07	-0.021772875
65	0xbab3127b	-0.0013662124
66	0x3df1e355	0.11810938
67	0xbd3f0a7a	-0.04664085
68	0xbcabcb4f	-0.020970969
69	0x3d5d6f04	0.05406095
70	0xbe42ff43	-0.19042687
71	0x3d0c58c2	0.034264334
72	0xbc9b7820	-0.018978179
73	0x3c790141	0.015198053
74	0xbe945f04	-0.2897874
75	0xbd04f513	-0.032460283
76	0xbc928caa	-0.01788934
77	0xbcb82ea4	-0.022483177
78	0xbd78a7f2	-0.06070704
79	0xbe11404d	-0.14184685
80	0x3d54da50	0.05196601
81	0xbdfee5dc	-0.12446186
82	0x3e02515c	0.12726349
83	0x3e26cff9	0.16290273
84	0x3d35c76e	0.044379644
85	0x3cfd13f1	0.030893298
86	0xbdbd4b0d	-0.092428304
87	0xbdb71def	-0.08941256
88	0x3d43f43d	0.047840346
89	0x3c6c5943	0.0144255785
90	0x3e09b1b2	0.13446692
91	0x3d409b76	0.04702326
92	0x3da07fd1	0.07836879
93	0xbd0414c8	-0.03224638
94	0xbd76f2cd	-0.060290147
95	0xbe0d1ce0	-0.13780546
96	0xbdbe1d68	-0.092829525
97	0xbce947c7	-0.028476609
98	0xbd39fe67	-0.045408633
99	0x3dea30a6	0.1143506
100	0xbc81fedc	-0.015868597
101	0x3db87ea6	0.09008531
102	0x3da2fdf6	0.079585955
103	0xbd8def66	-0.06930427
104	0xbc2b700f	-0.010463729
105	0x3ca9dbd9	0.020734714
106	0xbc75a15a	-0.0149920825
107	0xbd14f018	-0.036361784
108	0x3d943b7d	0.07237909
109	0xbd4fb417	-0.050708856
110	0xbb3ffd3e	-0.0029295231
111	0xbd0e096d	-0.034676958
112	0x3d429c69	0.047512446
113	0xbd93d294	-0.07217899
114	0xbe050a39	-0.12992181
115	0xbd8c4c0c	-0.06850442
116	0x3cc6e0a6	0.024277043
117	0x3ded764b	0.11594828
118	0x3d418665	0.04724731
119	0x3c70df1e	0.014701633
120	0x3dc7351c	0.09726927
121	0x3d803177	0.06259435
122	0x3ce17de8	0.027525857
123	0xbd7e3188	-0.062058955
124	0x3dc21d4a	0.09478243
125	0xbe12137e	-0.14265248
126	0xbc030925	-0.007997786
127	0x3c9789f4	0.018498398
128	0xbdb6ee67	-0.089321904
129	0x3d1da3d1	0.038486306
130	0xbca9410e	-0.020660903
131	0xbdab4680	-0.08363056
132	0x3985b204	0.0002550037
133	0xbd28d0ea	-0.04121486
134	0xbb223847	-0.0024752782
135	0x3db6613a	0.08905263
136	0x3d5e3d9f	0.054257985
137	0x3c45a887	0.012064106
138	0x3cac8f1b	0.021064332
139	0x3b919382	0.004442633
140	0xbc07d5ba	-0.0082907025
141	0x3d868a81	0.06569386
142	0xbd18f56a	-0.03734342
143	0x3e1f5aef	0.15562032
144	0x3d87c1f1	0.06628788
145	0xbd75f42f	-0.060047325
146	0x3d8178cc	0.06321868
147	0x3de25e75	0.110531725
148	0x3d43b40e	0.047779135
149	0x3df95d69	0.1217602
150	0xbdceb853	-0.10093751
151	0x3d292790	0.041297495
152	0x3dc61767	0.096724324
153	0x3c8e13ed	0.017343486
154	0xbca5ffb4	-0.02026353
155	0xbe04f63d	-0.12984557
156	0x3e054431	0.13014294
157	0x3b5f7d5a	0.0034101815
158	0xbdd8dc21	-0.10588861
159	0xbd4ab6f8	-0.0494909
160	0xbdca7d07	-0.09887128
161	0x3e00eede	0.1259112
162	0x3dfa003e	0.122070774
163	0x3e3cd8f2	0.18442133
164	0x3d6d804f	0.057983693
165	0x3c881035	0.01660929
166	0x3dc2c3d3	0.09510007
167	0x3c664818	0.014055274
168	0x3d52381d	0.051323045
169	0x3d9fef6f	0.0780934
170	0x3c2bf048	0.010494299
171	0xbb332a66	-0.0027338504
172	0x3e6a35a7	0.22872029
173	0x3de078a9	0.10960514
174	0x3da76769	0.08174021
175	0x3da53429	0.080665894
176	0x3cbf6e70	0.02336809
177	0x3c9b2e08	0.018942848
178	0x3a404bec	0.0007335532
179	0xbcc1e467	-0.023668481
180	0xbd2c1d2c	-0.042020008
181	0xbd66554a	-0.05623368
182	0xbc8f82cc	-0.017518423
183	0xbd7fa786	-0.062415622
184	0xbb038171	-0.0020066167
185	0xbd4944a3	-0.049137723
186	0x3d27a57f	0.040929314
187	0xbc763182	-0.015026452
188	0xbd78db1b	-0.06075583
189	0xbc872002	-0.016494755
190	0x3e13ac01	0.14421083
191	0xbd3e8a62	-0.04651869
192	0x3c3918f5	0.011297454
193	0xbc7d8800	-0.015474319
194	0xbc3f21c1	-0.011665762
195	0xbd903773	-0.07041826
196	0xbc73dcb7	-0.0148841655
197	0x3c97474c	0.018466614
198	0xbd0e2a28	-0.034708172
199	0xbd1ab24f	-0.037767705
200	0x3cc734ca	0.024317164
201	0xbc3d474c	-0.011552643
202	0xbc650a56	-0.013979515
203	0xbccd9e1f	-0.025099812
204	0xbd033c15	-0.03203972
205	0xbd3e4508	-0.046452552
206	0xbbb3bf4c	-0.005485451
207	0x3bf43a6a	0.0074532526
208	0x3cbefc58	0.023313686
209	0xbd14526d	-0.03621142
210	0xbc60d418	-0.013722442
211	0x3c3abb61	0.011397214
212	0x3d46b3e3	0.048511397
213	0xbc458301	-0.01205516
214	0x3c7771d3	0.015102821
215	0x3c2dc9d3	0.010607201
216	0x3886d8aa	6.429975e-05
217	0x3cdd969b	0.027049353
218	0xbd689556	-0.056783043
219	0x3cdc9567	0.02692671
220	0xbcd6514a	-0.026161809
221	0x3c536787	0.012903101
222	0x3d0edc0a	0.034877814
223	0xbcbdec1e	-0.023183879
224	0xbc0a3ef1	-0.008437858
225	0x3d1e88c6	0.038704656
226	0xbe4aba16	-0.19797549
227	0xbd664a3d	-0.056223143
228	0xbd7b5a35	-0.061365325
229	0xbcf91dfe	-0.03040981
230	0xbd5a7729	-0.053336296
231	0xbd1b95e8	-0.03798476
232	0xbd99747e	-0.07492922
233	0x3ce5a519	0.028032826
234	0x3dad73b0	0.08469331
235	0xbdc188c2	-0.094499126
236	0x3c412bc5	0.011790221
237	0x3e14170a	0.14461914
238	0x3d839013	0.06423964
239	0x3d5cdfa5	0.05392422
240	0x3a1d3509	0.00059969776
241	0xbc5142c3	-0.012772265
242	0x3dcf10d8	0.101106346
243	0x3e0032b0	0.12519336
244	0xbcdd1322	-0.026986662
245	0xbd77b7c1	-0.060477976
246	0x3d11f453	0.035633396
247	0xbe1094fb	-0.14119332
248	0x3ce0dc88	0.027448907
249	0x3d906942	0.07051326
250	0x3e026354	0.12733203
251	0xbd872ea0	-0.0660069
252	0x3dbe5c55	0.09294955
253	0xbdb7ef3d	-0.08981178
254	0xbd713145	-0.058884878
255	0x3d6adbe0	0.057338595

fc1.bias f4 [50]
0	0x3c2b14d3	0.010441977
1	0xbc42c0e6	-0.011886811
2	0xbb8202d7	-0.0039676237
3	0xbd2329aa	-0.039834656
4	0xbb3f09ec	-0.00291502
5	0x3cbaeee0	0.022818983
6	0xbd419cff	-0.047268864
7	0xbbf03e24	-0.0073316265
8	0x3d0e4749	0.03473595
9	0xbcb95b83	-0.022626644
10	0xbb580897	-0.0032964104
11	0x3cd1dfeb	0.025619468
12	0xbc7f7e92	-0.015594142
13	0xbcbbfd26	-0.022947859
14	0xbbc3e9b9	-0.0059787896
15	0xbd4b0d80	-0.04957342
16	0xbd18630b	-0.03720383
17	0xbc7e7726	-0.015531337
18	0xbd1fc3eb	-0.0390052
19	0xbd28c67d	-0.04120492
20	0xbc34bc39	-0.011031204
21	0xbd5684c7	-0.05237272
22	0x3d88b5fb	0.06675335
23	0xbc88b9e8	-0.01669021
24	0xbcb6ca5a	-0.022313286
25	0xbd833f54	-0.06408563
26	0x3c95d6df	0.018290935
27	0xbd672006	-0.056427024
28	0xbc210d04	-0.009829763
29	0xbd1552e8	-0.03645602
30	0x3b122c23	0.002230414
31	0xbd77604a	-0.060394563
32	0x3a687276	0.00088671537
33	0x3c4c2cb1	0.012461827
34	0xbd68f07c	-0.05686997
35	0xbd27572c	-0.040854618
36	0x3bb7658c	0.005596822
37	0xbc90ea8b	-0.017689964
38	0xbce59e26	-0.028029513
39	0xbca7dc15	-0.020490685
40	0xbd435374	-0.04768701
41	0xbd35100a	-0.04420475
42	0x3cf31bf7	0.02967642
43	0xbc74083d	-0.014894542
44	0x3ab6fc0d	0.0013960615
45	0x3ce06b0b	0.027394792
46	0xbbb2851d	-0.0054479972
47	0xbc89c662	-0.01681823
48	0xbd2ba77b	-0.04190777
49	0xbd525cf2	-0.05135817

fc2.weight f4 [7, 50]
0	0x3e830d32	0.25596005
1	0xbcc9fd08	-0.024656788
2	0x3cb646cd	0.022250557
3	0xbe017f6d	-0.12646265
4	0x3db4af2c	0.08822474
5	0x3dc079c4	0.09398225
6	0xbd5e3727	-0.054251816
7	0x3d9c15a7	0.07621317
8	0xbc6fc020	-0.0146332085
9	0xbbd4de9b	-0.006496263
10	0x3e1df400	0.1542511
11	0xbe8a8fbc	-0.27062786
12	0xbd3b9a53	-0.045801472
13	0x3e177acb	0.14792936
14	0x3d1d36c4	0.038382307
15	0x3d24586d	0.040123392
16	0xbdaf9966	-0.0857418
17	0xbe14f062	-0.14544824
18	0xbcdeb2df	-0.027184902
19	0xbdd9c769	-0.106337376
20	0xbdb0a729	-0.08625633
21	0x3d24d095	0.04023798
22	0x3e4e0fa3	0.20123152
23	0x3dc90e4c	0.0981718
24	0x3c7b9555	0.015355428
25	0xbe1badb8	-0.15202987
26	0xbe81908b	-0.2530559
27	0xbd9572aa	-0.07297261
28	0xbbba2797	-0.005680989
29	0x3c9376b1	0.018000932
30	0xbbf07420	-0.007338062
31	0xbdfaac91	-0.12239946
32	0xbb9e1d17	-0.004825245
33	0xbe2b7ca3	-0.16746764
34	0x3caea5c7	0.021319283
35	0x3df4f48f	0.11960708
36	0xbbb7c11c	-0.005607737
37	0xbc4d7dfb	-0.012542243
38	0x3c96887c	0.018375628
39	0x3dd13bef	0.102165096
40	0x3d88e88a	0.06684978
41	0xbdacf486	-0.08445077
42	0xbde48830	-0.11158788
43	0x3ddb0bab	0.10695585
44	0xbbf985d8	-0.0076148324
45	0x3e044216	0.12915835
46	0xbdb621dc	-0.08893177
47	0xbd999b21	-0.075002916
48	0xbdb7bae5	-0.08971194
49	0x3bd34811	0.0064478
50	0xbe8d5598	-0.27604365
51	0x3ddae160	0.10687518
52	0xbe189cb6	-0.1490353
53	0xbe59b257	-0.21259438
54	0x3d695aaf	0.05697125
55	0x3ddecbec	0.10878739
56	0x3d3ba0c4	0.045807615
57	0xbda2e57e	-0.079539284
58	0xbd9cc271	-0.07654274
59	0x3dafc308	0.08582121
60	0xbca45242	-0.020058755
61	0xbde195e9	-0.11014921
62	0x3d070e1d	0.032972444
63	0xbdd9fd1a	-0.106439784
64	0x3bf2d82a	0.0074110227
65	0xbd443801	-0.047904972
66	0x3d788962	0.060677893
67	0x3e9587e4	0.2920524
68	0x3da1acd6	0.07894294
69	0x3d42b132	0.047532268
70	0x3d76e74f	0.060279187
71	0xbcd48653	-0.025942957
72	0x3d55c484	0.052189365
73	0x3cfbd3a2	0.030740563
74	0x3d31225d	0.043245662
75	0x3d71716e	0.058946066
76	0x3c3393d8	0.010960542
77	0x3ddcf2ec	0.10788521
78	0x3e042176	0.1290339
79	0xbdce6296	-0.100773975
80	0x3d5ad10b	0.053422015
81	0xbdc7d680	-0.097577095
82	0x3bf77a5b	0.0075524277
83	0xbd961527	-0.07328253
84	0xbd8d7331	-0.06906737
85	0xbdf02491	-0.117257245
86	0xb94dd4b9	-0.00019629569
87	0x3c98c20f	0.018647222
88	0x3dfbe6cb	0.1229988
89	0x3e186414	0.14881927
90	0xbd5c4829	-0.053779755
91	0xbdc34226	-0.09534101
92	0xbe770bf3	-0.24125652
93	0x3de788a6	0.113053605
94	0xbd996835	-0.07490579
95	0x3d9b8ebe	0.07595585
96	0xba2d103b	-0.0006601845
97	0xbde04df2	-0.10952367
98	0x3d4be203	0.04977609
99	0xbd56e12b	-0.05246083
100	0xbd295a47	-0.04134586
101	0xbdd96fa5	-0.10616998
102	0xbd31d76a	-0.043418325
103	0x3e0b278e	0.13589308
104	0xbd8ae722	-0.06782366
105	0xbdd828e9	-0.10554678
106	0xbdbf4c41	-0.09340716
107	0x3c8f7e49	0.017516272
108	0xbe05b4c6	-0.13057241
109	0xbda6e43e	-0.081490025
110	0xbe0dc756	-0.13845572
111	0x3d5b4bde	0.05353915
112	0xbb96a020	-0.004596725
113	0x3b17eaec	0.0023180796
114	0xbd885e5f	-0.06658625
115	0x3d161155	0.036637623
116	0x3d0304d4	0.031987026
117	0x3dba8e79	0.09109206
118	0xbdc23c40	-0.09484148
119	0x3bbe6047	0.005809817
120	0x3e680a9e	0.226603
121	0xbd82331f	-0.06357407
122	0xbe107562	-0.14107278
123	0xbd906e75	-0.07052318
124	0xbdbfff0a	-0.09374817
125	0x3dde286f	0.10847556
126	0x3c48ee30	0.01226382
127	0xbd949156	-0.07254283
128	0x3d5d466a	0.05402223
129	0xbc1a1ef7	-0.009406797
130	0xbdaa3a6f	-0.083119266
131	0x3d3821d9	0.044954155
132	0xbd929d9d	-0.071589686
133	0x3d5e69c3	0.05430008
134	0xbd94a989	-0.07258899
135	0xbd6fda07	-0.058557536
136	0xbd36bf0e	-0.044615798
137	0xbe0e9d85	-0.13927276
138	0x3d03f491	0.03221566
139	0x3cdf6255	0.027268568
140	0xbbb8858c	-0.0056311544
141	0x3d4be8fc	0.049782738
142	0x3d3b3bcc	0.045711324
143	0xbd93103d	-0.071808316
144	0xbdd33ca2	-0.10314299
145	0xbc1607a4	-0.009157095
146	0x3db8d7ee	0.0902556
147	0xbcc7d62a	-0.024394114
148	0xbd8fdf1d	-0.07024977
149	0xbb89b08e	-0.004201955
150	0x3de1bb23	0.110220216
151	0x3dabdb7d	0.083914734
152	0xbcdbe86d	-0.026844228
153	0x3d5e2bd6	0.054241024
154	0x3da81f19	0.082090564
155	0xbd014136	-0.03155633
156	0x3d4b46fc	0.049628243
157	0xbade7b3c	-0.0016973983
158	0x3dd8d247	0.10586982
159	0xbde4978f	-0.1116172
160	0xbc48340f	-0.012219443
161	0x3dd45621	0.1036799
162	0x3c6363ca	0.013878772
163	0x3cc283a2	0.023744408
164	0xbc9c3dd7	-0.019072456
165	0x3d1e6809	0.038673434
166	0xbd6b6738	-0.057471484
167	0x3e490b4f	0.1963322
168	0xbe1b8aee	-0.15189716
169	0xbcba0096	-0.022705358
170	0xbe8357b3	-0.25652847
171	0xbced217e	-0.028946634
172	0x3d7afd88	0.061276942
173	0xbe101bd7	-0.1407312
174	0xbd0b7bb7	-0.03405353
175	0xbdce11a7	-0.10061961
176	0xbdac3668	-0.08408815
177	0xbcdf03cb	-0.027223488
178	0x3d42dd8d	0.04757457
179	0x3dde18b9	0.10844559
180	0xbdb4451a	-0.088022426
181	0x3e0be492	0.13661411
182	0x3dd4c1ad	0.10388503
183	0xbe0e10ca	-0.13873592
184	0xbd96496c	-0.07338223
185	0x3d492f5a	0.049117424
186	0xbd2950b8	-0.041336745
187	0x3dc625b8	0.09675163
188	0x3da6ae7f	0.08138751
189	0xbde82a8f	-0.113362424
190	0x3c504517	0.012711785
191	0xbda64cef	-0.08120143
192	0xbe3c690a	-0.18399444
193	0xbd7d2d15	-0.06181057
194	0x3cf3278e	0.029681947
195	0xbeaeeee9	-0.3416665
196	0x3ebb9e1b	0.36644062
197	0x3e06298b	0.13101785
198	0x3d513f07	0.0510855
199	0x3da2d56f	0.079508655
200	0xbe1eb4b6	-0.15498623
201	0x3cb3114e	0.021858837
202	0x3d9219a8	0.071338
203	0x3e57d3f3	0.21076946
204	0x3d130211	0.035890643
205	0xbe151239	-0.14557733
206	0x3d9a9edc	0.07549831
207	0xbdaa38f2	-0.08311643
208	0xbd8d2e77	-0.06893628
209	0xbd5ee734	-0.05441971
210	0x3e2b16f8	0.1670798
211	0x3b033ae2	0.002002411
212	0x3d11b6b0	0.035574615
213	0x3d124558	0.035710663
214	0xbd2f2da0	-0.04276812
215	0xbd1ecd3c	-0.038769946
216	0x3d892942	0.066973224
217	0x3dccd342	0.10001232
218	0xbba8f4c3	-0.005156131
219	0x3d93b62f	0.07212483
220	0xbd6f9e4f	-0.058500584
221	0xbda21278	-0.07913679
222	0x3e5264af	0.2054622
223	0x3d87c791	0.06629861
224	0xbc375bb1	-0.0111912945
225	0x3d5f25cb	0.0544794
226	0xbd92af60	-0.071623564
227	0x3d45ffcc	0.04833965
228	0x3ca16233	0.019700145
229	0x3dc64994	0.09682003
230	0xbd09cb3b	-0.03364108
231	0xbd094e87	-0.033522155
232	0xbd135eec	-0.035979196
233	0x3d983b8a	0.07433231
234	0xbda991be	-0.08279751
235	0x3d66a70b	0.05631165
236	0xbc5feb05	-0.013666873
237	0x3d226795	0.039649565
238	0x3db59f83	0.08868315
239	0xbdf59de9	-0.119930096
240	0xbce19f8b	-0.027541896
241	0xbdaf2d90	-0.08553612
242	0xbe1eeaa1	-0.15519191
243	0x3d2f02e1	0.042727355
244	0x3ddbb047	0.107269816
245	0x3d615dec	0.05502121
246	0xbe1724ac	-0.14760083
247	0xbd9e1efe	-0.07720755
248	0xbe19c491	-0.1501639
249	0xbdc26087	-0.094910674
250	0xbd04d9ee	-0.032434396
251	0xbe260a23	-0.16214804
252	0xbcab3b0c	-0.02090218
253	0x3d960418	0.073249996
254	0xbc8e511a	-0.017372657
255	0xbe8119be	-0.25214952

fc2.bias f4 [7]
0	0xbdf1cda2	-0.118067995
1	0xbdb2fd8b	-0.08739766
2	0xbe1e813d	-0.15478988
3	0x3dc80b5d	0.097677924
4	0x3dbed063	0.0931709
5	0xbd149b8c	-0.036281154
6	0xbd363038	-0.04447958

localization.0.weight f4 [8, 1, 7, 7]
0	0x3e00cb97	0.12577663
1	0xbde9b91b	-0.11412259
2	0x3d6e6040	0.05819726
3	0xbdcfc73e	-0.10145424
4	0x3d531d89	0.05154184
5	0xbda95db3	-0.08269825
6	0xbd36f68c	-0.04466872
7	0xbd431044	-0.047622934
8	0x3c8e55e0	0.017374933
9	0x3df25c78	0.11834043
10	0xbd092e59	-0.033491466
11	0x3d840322	0.0644591
12	0xbd6897f7	-0.05678555
13	0xbdcecf24	-0.10098103
14	0xbc2ae2f5	-0.010430087
15	0x3e07cc24	0.13261467
16	0xbc884b1e	-0.016637381
17	0xbdb8b14e	-0.09018193
18	0x3d99110d	0.07473955
19	0xbd4326aa	-0.047644295
20	0xbbc841bd	-0.0061113522
21	0xbdd41e25	-0.10357312
22	0x3d45f7ec	0.04833214
23	0x3d906138	0.07049793
24	0x3c774cea	0.015094021
25	0xbdaeaa38	-0.085285604
26	0x3d91295f	0.07087969
27	0xbcf2f4a7	-0.029657675
28	0x3ccb5821	0.024822297
29	0xbda9649e	-0.08271144
30	0x3dde87ab	0.1086572
31	0xbcc4eeeb	-0.024039706
32	0xbe045f76	-0.1292704
33	0xbdc3fa2c	-0.09569201
34	0xbc9d61b7	-0.019211633
35	0xbd15fedd	-0.03662001
36	0x3da8530a	0.082189634
37	0x3d3206b9	0.043463442
38	0x3dd03fde	0.10168432
39	0x3d41c1d7	0.047304
40	0x3d8dc040	0.069214344
41	0xbdb8b311	-0.09018529
42	0xbd93f078	-0.072236
43	0xbc5a2a27	-0.013315714
44	0xbda27070	-0.07931602
45	0x3cf23d33	0.029570198
46	0xbbafd2ee	-0.005365721
47	0x3d9caefc	0.07650563
48	0xbe1e2eb4	-0.15447503
49	0xbdbaf279	-0.09128279
50	0xbd2c95c9	-0.042135034
51	0x3e00841c	0.12550396
52	0xbdeac3ab	-0.11463102
53	0x3d073f37	0.03301927
54	0xbd8462f0	-0.06464183
55	0x3c269e31	0.010169552
56	0x3da57fed	0.080810405
57	0xbd2a11c6	-0.041520856
58	0xbd8f3d47	-0.069941096
59	0x3dc44b2f	0.09584653
60	0x3dec1272	0.11526956
61	0x3da5c130	0.08093488
62	0x3be4505a	0.0069675865
63	0xbe21d51f	-0.15803955
64	0xbdad5edd	-0.08465359
65	0x3b2fcf10	0.00268263
66	0x3db92b5e	0.09041475
67	0xbdb43176	-0.087984964
68	0xbe00ebce	-0.12589952
69	0xbe166e67	-0.14690553
70	0xbbc33f86	-0.0059585003
71	0x3d908a7f	0.07057666
72	0x3d110a4d	0.035410214
73	0x3d66f53f	0.05638623
74	0x3d2a7ec2	0.041624792
75	0x3bcb8b47	0.0062116715
76	0xbd69dbb8	-0.057094306
77	0xbbe201f8	-0.0068972073
78	0x3d107a38	0.035272807
79	0x3daccd92	0.08437647
80	0xbde2b612	-0.110698834
81	0xbdb68c67	-0.08913498
82	0x3d9f3e6a	0.077755764
83	0x3d5701ed	0.05249207
84	0x3c317c14	0.010832805
85	0xbd3c6b94	-0.046001032
86	0xbdd7a673	-0.105297945
87	0xbda7aa16	-0.08186738
88	0x3e04d848	0.1297313
89	0x3d87dff4	0.066345125
90	0xbcbf4de2	-0.023352567
91	0x3dc5f66d	0.096661426
92	0x3dab87e6	0.0837553
93	0x3d8803ec	0.06641373
94	0x3d75be4d	0.059995938
95	0x3b76854c	0.0037616072
96	0x3c6f5ab5	0.014609029
97	0xbdb7caad	-0.08974204
98	0xbd22f2a8	-0.039782196
99	0xbe234f78	-0.15948284
100	0xbdc24687	-0.09486108
101	0xbb17fcf5	-0.0023191546
102	0x3c938d7d	0.018011803
103	0x3c83cb78	0.016088232
104	0xbe1d8c29	-0.15385498
105	0x3c9cf0a6	0.019157719
106	0x3d3a52e5	0.04548921
107	0xbda7c78d	-0.08192358
108	0x3d9abee4	0.07555941
109	0x3deea952	0.11653389
110	0x3d8cf6b7	0.068829946
111	0x3dcc9ce6	0.099908635
112	0xbcf2cd6d	-0.02963897
113	0xbdcdd9d3	-0.10051312
114	0xbd9ca16f	-0.076479785
115	0x3d756f0f	0.059920367
116	0xbe1d059b	-0.1533417
117	0x3d9fe147	0.0780664
118	0x3cfdc892	0.030979428
119	0xbd85b684	-0.06528953
120	0xbdade0aa	-0.08490117
121	0xbe081968	-0.13290942
122	0x3d861759	0.06547422
123	0xbd2761d5	-0.040864784
124	0x3de24b6b	0.11049541
125	0x3cea4315	0.02859644
126	0x3c974d66	0.018469524
127	0xbccd5b2b	-0.025067886
128	0x3d35c361	0.04437578
129	0xbdf72b1d	-0.1206877
130	0xbd06d183	-0.03291465
131	0x3ce453c5	0.027871976
132	0xbacbe5f7	-0.0015556206
133	0x3dec1516	0.11527459
134	0xbdfc01de	-0.12305044
135	0x3c661026	0.014041936
136	0xbbe32480	-0.0069318414
137	0xbd9bb769	-0.07603342
138	0x3dcc9155	0.099886574
139	0xbdaf0733	-0.08546295
140	0xbe09d78b	-0.1346113
141	0xbda1fdf9	-0.079097696
142	0x3dda452b	0.10657724
143	0xbd55bc03	-0.052181255
144	0x3dad45f1	0.08460606
145	0x3c7752ea	0.015095452
146	0xbd1cdfa8	-0.038299233
147	0x3db95b25	0.090505876
148	0xbdd836fc	-0.105573624
149	0xbddff78c	-0.10935888
150	0xbd8b251f	-0.0679419
151	0xbd8bd758	-0.06828183
152	0x3d0e1bd3	0.034694504
153	0x3e034bb5	0.12821849
154	0x3cc8f11f	0.024529038
155	0xbd733049	-0.05937222
156	0x3dd1d5e6	0.10245876
157	0xbdd1d6b5	-0.1024603
158	0xbd5e987a	-0.05434463
159	0xbbba6de8	-0.0056893714
160	0x3d2eba2f	0.042658027
161	0xbd8ad4bb	-0.06778856
162	0xbd8ff481	-0.07029057
163	0x3dcea538	0.10090107
164	0x3e149546	0.14510068
165	0x3dda61b9	0.1066317
166	0x3e10fbd9	0.14158572
167	0xbdf90c12	-0.12160505
168	0xbe01bdaa	-0.12670007
169	0x3d8ab176	0.06772129
170	0x3db974b8	0.090554655
171	0x3d01089b	0.031502347
172	0xbe079114	-0.13238937
173	0x3d9422ac	0.07233176
174	0x3dc7564b	0.09733256
175	0xbda39594	-0.07987514
176	0xbbe0e8d5	-0.0068636932
177	0xbd909f88	-0.07061678
178	0xbdc90b68	-0.09816629
179	0x3dd0953e	0.10184716
180	0xbdde3d81	-0.10851575
181	0xbdf90904	-0.12159923
182	0x3dc83a84	0.09776786
183	0xbd997568	-0.074930966
184	0xbe11247c	-0.14174074
185	0xbd7d6868	-0.061867148
186	0xbdda8c3b	-0.10671278
187	0x3d8eaf70	0.06967056
188	0xbd3f7844	-0.046745554
189	0xbdf8c090	-0.121461034
190	0xbdd06000	-0.101745605
191	0xbc229a58	-0.009924494
192	0x3c1d55a4	0.009602938
193	0x3b7daf49	0.0038709214
194	0xbc8c3a77	-0.017117722
195	0xbd8e93e2	-0.069618
196	0xbd94e6de	-0.07270597
197	0xbd2ae0a9	-0.04171816
198	0x3dd7fa15	0.10545746
199	0xbd9c6b30	-0.07637632
200	0xbdf180b5	-0.11792127
201	0x3dd4eb10	0.10396397
202	0xbdd4589e	-0.10368465
203	0xbe0493ee	-0.12947056
204	0xbccc6a49	-0.024953024
205	0x3dbf363a	0.09336515
206	0xbe12d653	-0.1433957
207	0xbe1738f8	-0.14767826
208	0xbbd59ef6	-0.0065191938
209	0x3da4ee59	0.08053274
210	0x37b4add7	2.1538623e-05
211	0x3c305f1e	0.010764865
212	0xbe2d316a	-0.16913381
213	0xbd2c70b6	-0.042099677
214	0xbc6a1e2e	-0.014289422
215	0xbce651e9	-0.02811523
216	0xbdb7d827	-0.08976775
217	0x3d6c7b38	0.057734698
218	0x3dafb5b2	0.085795775
219	0x3d5605db	0.052251678
220	0xbdb87aff	-0.09007835
221	0x3c1b7ec2	0.009490671
222	0xbcfa10bf	-0.030525563
223	0xbe3760dd	-0.17908044
224	0x3cb07694	0.021540917
225	0xbda9499e	-0.082659945
226	0x3d949154	0.07254282
227	0xbd63fe5e	-0.055662505
228	0xbdb524cb	-0.08844908
229	0x3d8ab1a5	0.06772164
230	0x3db1fa49	0.08690316
231	0xbcf40f35	-0.029792408
232	0x3db7d9e5	0.08977107
233	0xbe367abd	-0.17820258
234	0x3d49b518	0.04924497
235	0x3dac628a	0.08417232
236	0x3dbf08ef	0.09327876
237	0x3d9c33b2	0.076270476
238	0xbdc33de5	-0.0953329
239	0x3d3c2333	0.045932006
240	0xbcedd36b	-0.029031476
241	0x3da188ed	0.07887445
242	0x3c7b929e	0.0153547805
243	0xbcd0a307	-0.025468362
244	0x3d73e565	0.05954494
245	0xbd4d8890	-0.050179064
246	0xbc19abd3	-0.009379345
247	0x3cd41b33	0.025891876
248	0xbd39c82c	-0.045356914
249	0x3dd63aa8	0.104604065
250	0x3c966556	0.018358868
251	0xbe0dbd2d	-0.13841696
252	0x3d11b84c	0.03557615
253	0xbd3c9288	-0.04603818
254	0x3ce67937	0.028133972
255	0xbdf19918	-0.117967784

localization.0.bias f4 [8]
0	0x3d927366	0.07150917
1	0xbe031919	-0.12802543
2	0xbd53d026	-0.051712178
3	0xbc89494a	-0.01675858
4	0xbdfdd7e1	-0.12394691
5	0xbe05d4de	-0.13069484
6	0xbc52135d	-0.012821999
7	0xbdd7f273	-0.105442904
