deep_emotion-ckplus-50-4-0.001.pt (torch, 274522 bytes, 24 tensors)

conv1.weight f4 [10, 1, 3, 3]
00000000: a75d 9c3e cd18 43be f48d b2bd ea59 95be
00000010: c3c0 893e 16d5 8e3e a44f 4b3e e8e7 9abd
00000020: fbb5 c7be 2f7a 6f3c e81e 4bbe ecd4 b83e
00000030: 852d 7d3e 8738 96be 7d1f 04bd 6242 3fbe
00000040: 3db9 343d 676b 8fbe 072b 8d3d 3d97 7b3e
00000050: d00b 86be 9aa7 abb9 842d c23d 600f 873e
00000060: 7918 0a3e d394 be3d b49b 9fbe c7dd 993d
00000070: 7664 41be 3ad6 95be 4df7 e33d e701 e23c
00000080: 3a2b acbe 098a 893d bd96 753e 0ff8 d63d
00000090: aa82 b63d 0295 0bbe 072e a2be 8a42 b73c
000000a0: 7ae1 253e 0bcb 583e 9149 1dbe 4b8a 4abc
000000b0: a7fd 633e 5558 09be 12d7 613e ae10 a7be
000000c0: 6b62 35be fce6 223e fff8 4c3e b422 bcbc
000000d0: 1084 953e b46b a4be f12e 433e 0547 a3be
000000e0: 68d9 65be 4556 94be 3c18 e63c efbc 07be
000000f0: d085 993e 35e4 813d 9fa0 a43e e859 bdbd
00000100: a334 a93e cac7 ebbd b273 2abd e539 a6be
00000110: f3b2 37be 10eb b03c cbfe c93e c93a 6bbd
00000120: 655f ed3d 62b6 d03d c0c5 413e 57f1 db3d
00000130: 4c5a 3ebd 3f52 153e 3bee 3a3e a5ab 56be
00000140: 9dd0 09be bb23 c33e b422 04be f021 93bd
00000150: da10 993e b5cc 8d3e ede2 88be c7ea e6bd
00000160: 27b3 8bbe d7bc c9bd
0.305402 -0.1905243 -0.08718482 -0.2917016 0.26904878 0.27896947 0.19854599 -0.07563764
-0.39006028 0.014616533 -0.19836009 0.36099946 0.24724396 -0.29340002 -0.032256592 -0.18677667
0.04412197 -0.2801163 0.068929724 0.24569412 -0.26180887 -0.00032740535 0.09481338 0.26378918
0.13485898 0.0930573 -0.3117348 0.07513004 -0.18885979 -0.29265004 0.11131153 0.027588798
-0.3362673 0.06715781 0.23983283 0.10496532 0.08911641 -0.1363106 -0.3167574 0.022370595
0.16199294 0.21171205 -0.15360095 -0.012362073 0.2226473 -0.13412602 0.22054699 -0.32629913
-0.17713325 0.15908426 0.2001686 -0.022965766 0.29202318 -0.3211342 0.19060875 -0.3189012
-0.22446215 -0.28972068 0.028087728 -0.13255666 0.29984903 0.06342355 0.32153794 -0.09245664
0.3304797 -0.11512716 -0.041614242 -0.32466045 -0.17939357 0.021596462 0.39452204 -0.05742911
0.11590461 0.10191037 0.18923092 0.10739391 -0.046472833 0.14582156 0.1825494 -0.20963915
-0.13458486 0.38113198 -0.12903863 -0.071842074 0.2989567 0.27695242 -0.2673563 -0.11275249
-0.2728512 -0.098504715

conv1.bias f4 [10]
00000000: 80c8 a2bc b179 273e 8c66 86be dce6 bcbd
00000010: 4898 b63d 19d8 86bc 912d 6d3e 6557 5c3e
00000020: b9d7 d2bd aaf2 d93d
-0.019870996 0.16355015 -0.26250112 -0.092237204 0.08915764 -0.016460465 0.23161913 0.21517713
-0.10295052 0.106419876

conv2.weight f4 [10, 10, 3, 3]
00000000: 047d 5b3c 81cd 1cbe f963 4abb 705b 073d
00000010: 007d a7bc a9b0 4abd fb26 8cbb 51cf d5bd
00000020: 1ccc f2bc a35a b23c 44a7 06bc 1b9e b7bc
00000030: cf86 243c 1c81 77bd 2504 be3d 2d76 3a3d
00000040: f45f 0f3e c6df 013b dc3b 0c3d 9e36 75bd
00000050: 7445 af3b adb9 133d 090a acbd c1c5 233d
00000060: 1734 f9bd 3ffc 6d3d daa9 0b3e 2ab7 28bc
00000070: b520 233c 35d4 923d b358 0dbe 2d7b 30bd
00000080: e1a0 913d 7819 303d 9901 29be 77cf d6bc
00000090: 3ea8 073d 22a6 143d 57ca adbc b33d a83d
000000a0: 5ae5 113e f8b5 ce3d c6c5 ef3c 8db2 c4bc
000000b0: c5a2 88bd d54f a9bc 7b22 84be e5ec 09bd
000000c0: 6515 6d3d c038 5cbc 821b 533d c158 b53d
000000d0: 4808 4f3d cee7 223e dbee b9bd d079 cf3d
000000e0: 3c7f c6bc 1430 683d ece3 81bc 0087 863d
000000f0: 40b0 e13d c112 ccbd 7361 963d 8674 1cbe
00000100: 7eeb b9bd cbb3 043e 5a7d ba3d afb5 f8bb
00000110: 5c7d 043d fa09 d0bc 39ca 843d abab 96bd
00000120: 2c4f 0b3d 2831 ce3d d785 6abd 8da8 743d
00000130: bcbc 57bb 2c43 54bd 44c5 09bb e281 a8bd
00000140: d2d9 d63c 7421 103e 6967 b53d fee0 92bd
00000150: 36bc cbbd 1835 073e 76f2 b13d 309a 19bd
00000160: 7985 21bc f969 3b3d 3ec6 033e 21c3 9abd
00000170: 92f2 803d 65b3 fab9 561b 10bc 6771 013c
00000180: 29b0 8dbd 6e7e dcbd b969 33be c490 f43d
00000190: b7f6 32bd 5738 5dbd 5914 60bd 138f bb3d
000001a0: fbf3 d93d 773c d5bd 9460 14bd d47d e63d
000001b0: fd59 8e3d 8e7b bd3c dd2b a03d 50b4 21be
000001c0: 6f97 abbd a6d1 6abd fd13 273d fbb6 5cbd
000001d0: 5bc7 1bbe 9ffa b8bd 2754 0fbe 4679 73bd
000001e0: bf2b 5c3d d0ef f13d 89ca 96bc 8a50 bd3c
000001f0: ee60 123e 7e3d f73d 60c1 68be d427 2abe
00000200: 2732 cb3d 1efb 2a3d cef5 16be acd2 92bd
00000210: f61a d23d ed7c 7d3d 324e abbd a3e7 c1bd
00000220: 073b 75bd cfb0 c03d 7ace a8bd 7041 883c
00000230: 78b5 8cbd 09ac c83d eae0 02bd 9981 e0bd
00000240: 0cb8 35be 6a85 24be 15cc 0cbe e6fe 2f3e
00000250: 507c de3d ed00 4fbd 7a88 9cbc ac00 6e3c
00000260: 5708 c5bd d0db cd3d 1d5b 313d 5856 14bd
00000270: 2864 763c 1b66 fc3d 6467 ddbd 83b9 a93c
00000280: 6eac 82bd 5db6 a23c 2ed8 a53d 03fe ff3c
00000290: 2e68 033c 4bc8 06bd d91d b83d 09a5 de3b
000002a0: 2be1 a3bd 056d fc3b 5e76 8eb8 95cc 00be
000002b0: 0381 31bd 056f a93d 95dc c43c d8cc e5bd
000002c0: 23d6 5fbd 1a50 f2bb 1b10 043e 0de3 a6bd
000002d0: 90bb 8cbc 319f 213d c6d8 5bbd 72d9 443e
000002e0: f0db 6fbc bcde aabd 3729 0abe 4ea6 0e3e
000002f0: 1693 183e 6e89 1c3e b319 fe3c 431d 013d
00000300: 781e 3fbe d561 79bd 128c 91bd 22a7 32be
00000310: 8042 a5bb a079 f7bd c0ba 01be b4f8 8a3d
00000320: 94bc e23d 5dd1 e13d cef4 d93c 8911 a23d
00000330: dd55 5ebd d21b 173b fcc7 f53d 80d6 853d
00000340: 603a 9bbd 3508 863c 192f 5ebd 3770 dbbd
00000350: 1fda a4bd 218c ad3d 92ff dd3c 39ef 203d
00000360: cbd3 b9bc 5f6f 92bd 14d8 ee3d 82a0 7cbd
00000370: a0ba de3d 0e0b 72bd fcdf 52bc 780b febd
00000380: 257e e43d 1905 833d 892c 543c 5eb1 843d
00000390: b121 253d aa0b d0bc 5cf2 ed38 a267 5c3d
000003a0: 5361 4abd 7fe3 393d 3fe7 a13d 8cb2 4c3d
000003b0: 8510 6ebd 3840 8abb 6fd2 f1bd ecc9 4ebd
000003c0: 3205 b83c 84f3 fdbc def5 1cbd d819 be3d
000003d0: 7484 bcbc e9af 42bd 3a7a 93bd 54aa bfbd
000003e0: 6cf5 9bbd a860 433e 5f79 b33d 7f5d 07bc
000003f0: b0a8 d7bc 7242 403d 838b d53c 17fa 8e3d
0.013396505 -0.15312769 -0.0030882342 0.033046186 -0.020445347 -0.049484883 -0.004277108 -0.10439933
-0.029638343 0.021771735 -0.00821859 -0.022414258 0.0100419065 -0.060425863 0.09278134 0.045522857
0.14001447 0.0019817217 0.034236774 -0.05986654 0.0053488556 0.036065746 -0.084003516 0.039983515
-0.121681385 0.05810189 0.13639012 -0.010297576 0.009956528 0.071693815 -0.13803367 -0.04308622
0.07110763 0.04299304 -0.16504516 -0.026221974 0.033119433 0.03629125 -0.021214647 0.08214893
0.14247647 0.100933015 0.02926911 -0.02401092 -0.06671671 -0.02066795 -0.25807557 -0.033673186
0.05788173 -0.013441265 0.051539905 0.08854819 0.050545007 0.15908739 -0.09078761 0.10130656
-0.024230592 0.056686476 -0.015855752 0.06568718 0.11019945 -0.099645145 0.07342806 -0.15278825
-0.0907812 0.1295921 0.0910594 -0.0075900177 0.032346115 -0.025395382 0.064838834 -0.07356962
0.03401105 0.100679696 -0.057256546 0.059731055 -0.003291889 -0.051821873 -0.002102212 -0.08227898
0.026226912 0.14075261 0.088576145 -0.0717182 -0.09948008 0.13203847 0.08688824 -0.03750056
-0.0098584825 0.04575536 0.12868592 -0.07556749 0.062962666 -0.00047817375 -0.00879558 0.007900572
-0.069183655 -0.10766302 -0.17520799 0.11941674 -0.043692317 -0.054008808 -0.054706905 0.091581486
0.10642239 -0.104119234 -0.036224917 0.112544686 0.06950758 0.023130205 0.07820866 -0.1579144
-0.08378493 -0.057328843 0.040790547 -0.05388544 -0.15212767 -0.09032177 -0.13996945 -0.059441827
0.053752657 0.11813319 -0.018407123 0.023109693 0.14294788 0.120722756 -0.22730017 -0.16616756
0.09921675 0.04174339 -0.14742205 -0.07169089 0.10259049 0.061886717 -0.08364524 -0.09468009
-0.059870746 0.094087236 -0.08242507 0.016632766 -0.0687055 0.09798438 -0.031952776 -0.10962219
-0.1774599 -0.16066518 -0.13749726 0.1718708 0.108635545 -0.050537992 -0.019108046 0.014526527
-0.09620731 0.100516915 0.043299783 -0.036215156 0.015038528 0.123241626 -0.10810736 0.020718342
-0.063805446 0.019862348 0.08097874 0.031249052 0.008020444 -0.032905858 0.08990068 0.006794576
-0.08001932 0.007703426 -6.793135e-05 -0.12578042 -0.043335926 0.082731284 0.024030963 -0.112207115
-0.054647576 -0.0073948028 0.12896769 -0.08148775 -0.01717928 0.039458457 -0.053673528 0.19223574
-0.0146398395 -0.083432645 -0.13492285 0.13930628 0.14899859 0.152868 0.031018114 0.031522047
-0.18663967 -0.060884316 -0.071067944 -0.17446569 -0.005043328 -0.12083745 -0.12668896 0.067857176
0.11071125 0.11026261 0.02660599 0.07913501 -0.054281104 0.0023057354 0.120010346 0.06535053
-0.075794935 0.016361335 -0.054244135 -0.10714763 -0.08049416 0.08473993 0.027099404 0.03929064
-0.022683999 -0.071501486 0.116623074 -0.06167651 0.1087544 -0.059092574 -0.012870785 -0.12404531
0.11156873 0.06397457 0.012950071 0.064791426 0.040315334 -0.025396187 0.000113461836 0.05380977
-0.04940922 0.045382973 0.07905435 0.049974963 -0.058121223 -0.0042190813 -0.11807715 -0.050485536
0.022463415 -0.030999906 -0.038320415 0.09282273 -0.023012377 -0.047531042 -0.07201047 -0.093586594
-0.0761517 0.1907984 0.08763384 -0.008262037 -0.026325554 0.046938367 0.026067501 0.069812946

conv2.bias f4 [10]
00000000: f005 91bd 07a6 763d 9f8a a6bd 110b e4bc
00000010: dad0 0abe 9d41 a43d a135 c1bc c039 783d
00000020: 3717 a23d 0daa 5fbd
-0.070812106 0.06021693 -0.081319086 -0.027837308 -0.13556233 0.08020327 -0.023585143 0.06060195
0.07914584 -0.054605532

conv3.weight f4 [10, 10, 3, 3]
00000000: 9ef5 d13d e5a4 91bd 0a86 afbd f41b b0bd
00000010: f61e eabb f470 27bd c521 b93c 79aa 84bd
00000020: 5e1b 3b3a 41be 26bd 8d2f c1bd b7a7 303d
00000030: 4337 8b3d 65c0 5e3d d541 b9bc f1ee 9bbd
00000040: d672 713d 1542 1bbd a369 1b3d 9439 a6bd
00000050: 5f75 a5bd c7df 293d 1c15 8cbd 408d 92bd
00000060: 20c6 b2bc d504 7bbd c4ad c6bd 334d 8b3c
00000070: a1d2 ddbd 3ffd ccbb 7661 9ebd 23be b3bd
00000080: 32e3 ccbc a4ba 41bd fdb3 5dbb c34e 9cbd
00000090: 4152 f93d d4d1 a8bb 6365 80bd 32f1 4b3d
000000a0: ac7b c93d 8646 903d 4449 1a3d 149a 2a3c
000000b0: 9d90 99bd 2af4 c83d 7884 a63d 8fd4 87b7
000000c0: d363 b23c 4b96 7f3d 7852 eebd af04 883d
000000d0: 1f8b 4fbd d288 d1bc f8b3 45bc d659 643d
000000e0: 40b2 32bd 8231 e0bc ed19 b73c 2ff0 cfbd
000000f0: a04f 64bd a789 be3d e862 8bbd 1132 c5bc
00000100: 8744 823d abe2 19bd 74b2 a7bd a989 da3d
00000110: fb69 023b 7931 a1bc 3339 953d 1446 55bd
00000120: 5866 13bd dd3f b6bd 23e5 e6bd 7960 ff3c
00000130: 066e c5bd 485e 4fbd 5f5a 9cbd 124e f0bc
00000140: ddd8 e1bd 8f30 623d d96f c4bc fc13 67bd
00000150: a13f b7bc 2202 cebd f0d2 903c e42f 6f3d
00000160: d9fa 8cbd 0ef4 513c 813b 843c ec49 7fbd
00000170: bb7f abbd 8fb7 cbbd b056 653d 376d 24bc
00000180: 25bc 503d 58f0 4e3d b64e 0b3d ac4d b8bd
00000190: f3f0 0cbd 8d24 44bd ce87 653d dcac e1bd
000001a0: 1331 643d 8eb0 39bd d5b5 38bd 2d32 a5bd
000001b0: 0483 8abd 1fd7 a63d 563e 20bb 3d57 50bc
000001c0: f5eb 743d a246 b2bd 3977 28bd 6af5 d3bd
000001d0: 6292 afbd 26d0 c6bd ffc5 fabc 7f01 cabd
000001e0: a0fc afbd 4735 e9bd cae7 c13c 9592 1ebd
000001f0: 6153 0c3c 67c4 6f3d f89b 0c3d 7684 a2bc
00000200: 767a ea3c 67cb 75ba 08db e43c 3d9c c73d
00000210: cabf 12bd 9418 83bc c77e e5bd 0d5b d33c
00000220: 86d5 92bd b4f4 b1bd 0708 b9bd c2c7 b7bd
00000230: ce25 f339 2826 49bd 84d6 993d f189 b73c
00000240: a041 9bbd 95fa 94bd e2ba f6bc 3356 9cbd
00000250: d19a c4bd 45f8 74bd c7a9 9c3d c72a b93c
00000260: 0191 853d 6e76 e7bd 9306 91bd ae48 703d
00000270: 41b4 02bc d97f 1bbc 078c 9a3a 75cb 93bd
00000280: a9e3 ec3b 142d ccbd 767d 623d 741c 56bd
00000290: 4a6b afbd a530 923d 3351 8e3c ca45 e2bc
000002a0: 8d1e 45bd 04c2 063d 34cc 1ebd bef3 713d
000002b0: 4b33 e03d 0fae 2abd b693 7bbd 52f9 213d
000002c0: 578f babd a016 70bb 30e1 37bc 8285 44ba
000002d0: 82de 483d de65 603d 7145 733d b0fb 99bc
000002e0: d3b9 90bd 3059 82bd 3e23 803d 6ebf c1bd
000002f0: 5815 c2bb 1b93 a5bd b040 41bd 2e5a 20bd
00000300: 0837 b23d 9434 ccbd 09a2 aa3d 9014 cabd
00000310: 7b38 2dbd 3269 d5bd 4bfa 553d a02a 36bc
00000320: df26 af3d 3f49 bf3c b180 d5bd 3de9 9fbd
00000330: 3c60 8d3d 58c6 f5bc 6c2f 83bd b652 b7bd
00000340: 0cc7 acbd 9d35 a6bd 9fd6 103d 132c a0bd
00000350: d080 b53d 6649 6cbd 8451 393d 0d80 80bd
00000360: 0035 a13c ca41 9fbd 728f 74bd 5133 3cbd
00000370: 49ff 9ebd 10b6 c0bd d263 2f3d ac3c d93c
00000380: e8fa d6bd 6ad4 d5bd 3b3c 813d f2de d7bd
00000390: 6d30 7a3d 5045 613d 9f51 3b3d 149a 293d
000003a0: d9a1 1dbc df20 93bd 90b9 bbbc 9a1f 933d
000003b0: a02f 63bc 5c94 9dbd 2afb 9f3d 80ed efba
000003c0: ddd2 423d 5429 adbb eadc 47bd a492 963d
000003d0: 732e 8d3d b0f8 c4bd 53f2 3d3d fdb8 09bc
000003e0: 43ba d2bc 09c2 a33d 7ebf d9bd 93d4 00be
000003f0: d66f 9cbd 7b10 32bd 8c5c 113d 7912 3cbd
0.10251926 -0.07111529 -0.08570488 -0.08599082 -0.007144804 -0.040879205 0.02259911 -0.064778276
0.0007137562 -0.040708784 -0.09432898 0.043128695 0.0679765 0.0543827 -0.022614399 -0.07613934
0.058947407 -0.037904818 0.03794254 -0.08116451 -0.080790274 0.041473176 -0.06839964 -0.071558475
-0.021822989 -0.061283905 -0.09701112 0.017004585 -0.1083119 -0.006255775 -0.07733433 -0.087765
-0.025010679 -0.047297135 -0.0033829205 -0.0763221 0.12173892 -0.0051519666 -0.06269338 0.04979057
0.09838042 0.07044701 0.037667528 0.010412712 -0.07498286 0.098121956 0.08130735 -1.6192234e-05
0.021776116 0.06239919 -0.116368234 0.06641518 -0.050669786 -0.025577936 -0.012066834 0.055749737
-0.043627024 -0.027367357 0.02235123 -0.10153233 -0.05574 0.09303599 -0.06805974 -0.024071725
0.06360727 -0.037569683 -0.08188334 0.10670788 0.0019899595 -0.01967691 0.072863005 -0.052068785
-0.035986274 -0.088989 -0.11274173 0.031173931 -0.09640126 -0.050627023 -0.076344244 -0.029334102
-0.110276915 0.05522209 -0.023979114 -0.056415543 -0.022369208 -0.100590006 0.017678708 0.05839528
-0.06883783 0.012814535 0.016141655 -0.062326357 -0.08373972 -0.099471204 0.055990875 -0.0100358045
0.05096068 0.05052218 0.03401061 -0.0899919 -0.034409475 -0.04788642 0.056037717 -0.110192984
0.055710863 -0.04533439 -0.045095284 -0.08066211 -0.067632705 0.081465 -0.0024451218 -0.012716112
0.05979534 -0.087048784 -0.041129325 -0.103495434 -0.08572842 -0.0970767 -0.03061199 -0.098635666
-0.08593106 -0.11387115 0.023670096 -0.03871401 0.008564801 0.058536913 0.03432843 -0.019838553
0.028622847 -0.00093763176 0.027936473 0.09746597 -0.035827436 -0.01600293 -0.112058215 0.025800252
-0.071696326 -0.086892515 -0.09034734 -0.08973648 0.00046376738 -0.049108654 0.07511619 0.022404643
-0.07580876 -0.07274357 -0.03011841 -0.07633629 -0.095998414 -0.05980708 0.0764957 0.022603406
0.06521798 -0.113018855 -0.07081332 0.058663063 -0.007977546 -0.0094909305 0.0011790999 -0.07216541
0.0072292876 -0.099695355 0.05529543 -0.05227323 -0.08565386 0.071381845 0.017372703 -0.027621169
-0.04812484 0.03289987 -0.038768962 0.05907034 0.10947283 -0.0416699 -0.061420165 0.03954441
-0.09109371 -0.003663458 -0.0112231225 -0.0007496701 0.049040325 0.054784648 0.059392396 -0.018796772
-0.07066693 -0.063646674 0.06256722 -0.094603404 -0.0059229545 -0.08084699 -0.04718083 -0.039148502
0.08701903 -0.09970966 0.08331687 -0.09867203 -0.042290192 -0.10420455 0.05224065 -0.011118561
0.08552336 0.023350356 -0.104249366 -0.078081585 0.06903121 -0.030001804 -0.064055294 -0.08951323
-0.08436403 -0.08115695 0.03536093 -0.078209065 0.0886246 -0.057687186 0.045243755 -0.06274424
0.019678593 -0.0777622 -0.059707113 -0.045947377 -0.077635355 -0.09409726 0.042819805 0.026518188
-0.10497075 -0.104409054 0.06310316 -0.1054057 0.06108134 0.054997742 0.045732137 0.041406706
-0.009621107 -0.07184004 -0.022915632 0.07183762 -0.013866335 -0.07694313 0.078115776 -0.0018305033
0.047564376 -0.0052844677 -0.048794664 0.07352188 0.06893625 -0.09617746 0.046373677 -0.008405921
-0.025723582 0.07995994 -0.10632227 -0.1258109 -0.076385185 -0.04347275 0.03548865 -0.045916054

conv3.bias f4 [10]
00000000: 38ab 8c3d a24a 49bd ac73 11ba 1138 013d
00000010: 8edb 2a3e 36b9 2b3b fbd8 a0bc 8519 873d
00000020: 14c0 9cbc f270 8b3b
0.06868595 -0.04914344 -0.00055485475 0.03154761 0.16685316 0.0026202924 -0.019634714 0.06596664
-0.019134559 0.0042554075

conv4.weight f4 [10, 10, 3, 3]
00000000: fddf a93d 9a3b fa3b 0080 9abd 676a 763b
00000010: 6332 e9bd 9bdb 523d a76c bf3d aa3e 883d
00000020: 8e7e e4bc 696a 863d bb3b 353d 623d 6e3d
00000030: 184f a9bd 8067 b13c 2065 a93d 8f4b acbd
00000040: 4327 4dbc 4619 323d 6426 8cbc 363d 103d
00000050: 08fc 833d 2661 cdbd 850d a23d 2fa1 803c
00000060: fcf5 66bd 2caa 573d cd08 a9bd 63c1 85bd
00000070: c0a1 98bd 2f25 83bd 7f88 913d baf3 143c
00000080: 3e05 9bbb 1ffd 6abd 6dc0 e83d c002 a8bd
00000090: 07a7 f33d 922a 15bd af78 e4bb 48dd 03be
000000a0: 3714 abbc 8d20 133e 561e 41be 25c9 67bc
000000b0: ec69 9bbd a8ce 30bd 736d 973d 9d90 773c
000000c0: 61ed 103c 9969 7cbd dc94 d93c a2f6 123d
000000d0: 7eac 793b d0cc 1fbd cd4f a9bb 19fe d73d
000000e0: 422b 9c3d a34e 7c3d a383 103d 4df6 17be
000000f0: 1235 17bd 1303 983c d493 44bd 4133 c1bb
00000100: 3560 96bd 597d 2fbc 77d7 163e bee2 0fbd
00000110: 9adb 62bd 84c2 2e3d aea7 fe3c 34a3 b3bd
00000120: 3678 a53d 59f4 0c3c 8e0f 7dbd 7ddc 0cbd
00000130: da68 8dbd 7f1f da3d a5ae 913c 3a11 e63c
00000140: 3d7b 3cbc 5d39 d53d fb75 55bd 47a6 c3bd
00000150: 9081 9fbb 4761 1a3e 0742 03bd bdb6 b6bd
00000160: abd7 233d 6d50 a83d afa1 023d 8580 aabd
00000170: dbf3 6a3d 4f71 e03c 249f 8e3d 983c 5abd
00000180: 780f 81bd 57c7 af3d 73f1 c23b 60b5 9d3c
00000190: ea27 3ebd 252e c33c ff41 253d 97e6 1a3d
000001a0: 0d12 1ebc e64c b2bd 1ea1 16bd 7063 ba3d
000001b0: a951 99bd df07 a23d 7a5e 3e3d e441 093d
000001c0: 9b1d 8ebd 64bd 43bd 97eb cbbc 902e 1cbd
000001d0: dca4 6c3d c8ce 32bd c742 c5bd 043c 87bd
000001e0: d1eb afbc bc68 e5bc 533d 89bb 496f d8bb
000001f0: 4dff 2bbb 36f2 ce3d 516e 8fbd ca1a dbbd
00000200: c716 a4bd 4d5a 063e 0cf8 e7bb eb9f 27bc
00000210: d001 bf3d 1a50 103e cf60 4ebd 98bd 94bd
00000220: 2ab9 2cbc 4081 a63d 0dd0 d23c f5e0 833c
00000230: 2279 b23c 279e 2abd 0a17 e03d 1d98 03bd
00000240: 9818 9a3d 7969 fdbc ce88 09bc af68 17bd
00000250: 2ee8 82bd 38d5 f03d 8ff2 17bb b686 ffbd
00000260: 81d2 52bd dde1 0f3e cbea f13b 704c 683d
00000270: f9a0 de3d b106 39bd 26c7 18be dc3f e5bc
00000280: 66c6 0cbe 1ebf 863d d295 18bd 3728 a9bc
00000290: 5031 6fbd e180 613c ca40 f33c 71e9 1d3d
000002a0: 52ed febc 53bc ae3d a055 283d 794b 31bd
000002b0: 9b09 06be 9377 893d 4684 a53d 00c7 bd3d
000002c0: 1967 9fb9 74ad c5bc 4a7e 0f3e 0ce1 d53c
000002d0: dfd9 a8bd ac04 563d 6f5b 58bd 9274 00bc
000002e0: d44f cd3d 6598 963d 28e9 91bd 9cc2 b6bb
000002f0: 1956 423d b5d8 5fbd ecbc 80bc 2e3e 71bd
00000300: eab7 3dbc 79c2 893d 5291 bdbd 59f9 823d
00000310: 1e65 a23d 0bb8 773d 7f64 5a3d 6144 97bd
00000320: b322 b03d a58e cf3c 7a86 63bd 5bee 8fbd
00000330: 1d6f 81bc f7e2 c03d 3825 c7bd f081 81bc
00000340: d338 97bd faa2 a3bd 33fe 983d 27ec 9b3d
00000350: 8f92 9e3d b822 7bbd 994c 1f3c 6cd4 e4bd
00000360: 95bb c43d 7a19 a73c e450 01be bb27 493e
00000370: 8a12 e03c 154c d63d e53b ccbd 9f99 2d3d
00000380: 9166 a23d 3b9d 703c 1611 a83a 4c40 993c
00000390: 67ec a1bd 1ace ddbb 55c6 bc3c 80a3 783d
000003a0: a983 dcbd bd2f 92bd c5d4 943b 7fb9 cbbd
000003b0: 28ce 9fbd dc73 18bc 5c57 65bd d48d f93c
000003c0: af35 3ebd 0349 df3c 0cfa 5dbd 2b2a 033d
000003d0: a96e db3c 2608 893d 8017 43be e8e2 d1bc
000003e0: ac06 6b3c 8800 79bd 4db1 0ebd a2e3 b73c
000003f0: 8095 833d 66d8 94bd aa81 94bc 8287 81bb
0.082946755 0.0076364996 -0.07543945 0.0037600042 -0.11386564 0.051478963 0.09346896 0.06652577
-0.027892377 0.06563265 0.044246417 0.058164008 -0.08267039 0.021655798 0.08271241 -0.08412849
-0.012521568 0.043481134 -0.01710815 0.035214625 0.064445555 -0.10028295 0.07912735 0.015701858
-0.056386933 0.052652523 -0.08253632 -0.06531026 -0.07452726 -0.064035766 0.07106113 0.009091312
-0.0047308495 -0.0573703 0.11364827 -0.082036495 0.11897092 -0.03641755 -0.0069723944 -0.12877381
-0.020883663 0.14367886 -0.18859228 -0.014147078 -0.07588562 -0.043165833 0.07393923 0.015110162
0.008845658 -0.061624143 0.02656024 0.03587974 0.0038097198 -0.039013684 -0.0051669837 0.10546512
0.07625438 0.06159843 0.03528179 -0.1484005 -0.036915846 0.018556153 -0.047992542 -0.0058960025
-0.07342569 -0.010711038 0.14730631 -0.035128348 -0.05538521 0.042665973 0.031085815 -0.08771363
0.08079569 0.008603179 -0.061782412 -0.03438996 -0.069047645 0.10650539 0.017783472 0.028084386
-0.011503992 0.10411332 -0.052114468 -0.09553199 -0.00486774 0.15076171 -0.03204539 -0.08921573
0.0400006 0.08218465 0.031892475 -0.083252944 0.057361465 0.02739778 0.069639474 -0.053280443
-0.063017786 0.08582943 0.005949193 0.019251525 -0.046424784 0.023825714 0.040346142 0.037817564
-0.009647858 -0.087060735 -0.036774747 0.091009974 -0.074862786 0.079116575 0.04647682 0.033510104
-0.069392405 -0.04778804 -0.024892611 -0.038130343 0.05777441 -0.043654233 -0.096318774 -0.06603244
-0.02147475 -0.028004043 -0.0041882186 -0.006605063 -0.00262447 0.10104792 -0.07003463 -0.10698469
-0.08012157 0.13120385 -0.00707913 -0.0102309985 0.093265176 0.14093056 -0.050385293 -0.07262725
-0.010542193 0.08130121 0.025733972 0.016098479 0.021786276 -0.041654732 0.10941894 -0.03212749
0.07524222 -0.030934082 -0.008394433 -0.03696507 -0.06391941 0.11759418 -0.0023185348 -0.12476866
-0.051470283 0.14051004 0.007382726 0.05671352 0.10870547 -0.045172397 -0.14919719 -0.027984552
-0.13747558 0.065794215 -0.037252255 -0.020649059 -0.058396637 0.013763637 0.02969398 0.038552705
-0.031119023 0.08532014 0.041097283 -0.043284867 -0.13089602 0.0671226 0.0808187 0.09266472
-0.00030403657 -0.02413056 0.14013019 0.026108287 -0.082446806 0.05225055 -0.052821573 -0.0078402925
0.10024992 0.07353286 -0.07124549 -0.0055773985 0.04744539 -0.054650027 -0.015715085 -0.05889719
-0.011579493 0.06726546 -0.09256233 0.063952155 0.07929443 0.06047825 0.053318497 -0.07386089
0.08600368 0.025336573 -0.05554817 -0.070278846 -0.015800053 0.0941829 -0.09723896 -0.01580903
-0.07383885 -0.0799007 0.0747036 0.07613402 0.077427976 -0.061312407 0.009722852 -0.11173329
0.09606091 0.02039789 -0.12628514 0.19644062 0.02735259 0.1046373 -0.099723615 0.042382833
0.07929719 0.014685924 0.0012822475 0.018707417 -0.07906418 -0.006768954 0.02304379 0.0607028
-0.107673 -0.071380116 0.0045419657 -0.0994749 -0.07802993 -0.009304967 -0.055991516 0.030463137
-0.046437915 0.027256494 -0.05419354 0.032022636 0.026786165 0.06691007 -0.19051933 -0.025620893
0.014344852 -0.060791522 -0.034837056 0.022447411 0.06424999 -0.07267837 -0.018128235 -0.0039529214

conv4.bias f4 [10]
00000000: 2fc7 ba3d 9c82 f9bc 8adb 91bd ce31 1bbd
00000010: 778e d1bd 7147 f1bd 6695 0b3d abf6 8b3c
00000020: 0794 21bd 4439 733d
0.091200225 -0.030457787 -0.07121952 -0.037889294 -0.10232251 -0.117812045 0.034078024 0.017085394
-0.03944781 0.059380785

norm.weight f4 [10]
00000000: dd32 9d3f a58c 9c3f 0a89 9e3f 2883 933f
00000010: 6e88 8c3f aab5 943f 7845 903f a195 9a3f
00000020: e12b 953f a500 913f
1.2281147 1.2230421 1.2385571 1.1524401 1.0979135 1.161794 1.12712 1.2076913
1.1654016 1.1328322

norm.bias f4 [10]
00000000: 2238 3abe 06f9 0bbe 036b 1abe a15d 91be
00000010: 12ea 61be bb81 44be efc7 0bbe b5d4 5abe
00000020: 0fc4 5dbe 6f90 20be
-0.18185475 -0.13669214 -0.15079884 -0.28391746 -0.22061947 -0.19190113 -0.13650487 -0.21370204
-0.21656822 -0.15680097

norm.running_mean f4 [10]
00000000: e21a 803d e4ab 303c 677f 24bd 8103 01bd
00000010: aee1 82bd bec7 12be d72c 6fbd 8c20 c03c
00000020: 985a 39bc b46c 1c3d
0.062551275 0.010783169 -0.040160563 -0.031497482 -0.06390701 -0.14334008 -0.058392372 0.02345302
-0.011313103 0.038189605

norm.running_var f4 [10]
00000000: 6c48 c03a 9152 e03a b0c8 bb3a d9ed 8b3a
00000010: 3bbb 8b3a dfd1 d93a 1ab7 0f3b 75eb 7d3a
00000020: 93f0 6b3a cf85 133b
0.0014670021 0.001711445 0.0014326777 0.0010675743 0.0010660657 0.0016618333 0.0021929205 0.000968627
0.0009000387 0.0022510176

fc1.weight f4 [50, 810]
00000000: ff45 7ebd c200 993d cf7c de3c 04f4 d63c
00000010: 2733 1abd 977d 5e3d a266 b03d 00a4 533c
00000020: 7ff1 163d 784a c4bc 6706 ee3c c242 cbbc
00000030: 850d 2bbc 94e4 233e 6bf9 4c3e 2661 dfbd
00000040: c811 53bd d985 32bc 465c 2dbd fe62 20bd
00000050: 6cb6 bebc 4a59 16bd 5a3d f5bc be8b 1ebd
00000060: 5015 3a3d 9407 58bd 3414 cabc f5a8 613c
00000070: 5308 4abd 995a 2e3d e2d4 91bc 540d a33d
00000080: 6a72 c6ba 7463 083d 1850 483c 2397 283d
00000090: f2ac 3fbc 854d adbc 7951 db3b d526 4ebd
000000a0: 6866 0a3e 09af 973d 3d23 843d 88ce 91bd
000000b0: 5cdd 073d d2ff 573d c113 f9bd 84a1 13bc
000000c0: b9cb 9a3c 252b 38bd 3149 0a3d f109 a33c
000000d0: 076d 42bd d287 94bd e33a 6a3d 2a3c 2ebe
000000e0: 04e6 7bbc 51c3 3abd 1c0a 18bd aa2b 80bb
000000f0: 6b4e c83b c185 d0bd 7422 8ebd f142 3bbc
00000100: 2330 82bc 6f16 17be 7fbf 963c 8835 a23d
00000110: cbbb ce3c 349d afbd 7fd1 0bbe 3d0d bf3c
00000120: 709e 3d3d 4107 a8bc 1b40 3ebc 949f 14bd
00000130: 08f9 5dbd bc58 23bd 7293 adbd 23ce 033d
00000140: 5aaf be3c d2fa 163d c8b8 8ebc 4f6a f7bc
00000150: 6412 393d 2b68 cc3c d325 b93c 631a 7bbb
00000160: 9560 363d 1e6c c23c 4779 453d 727b b9bc
00000170: badf 1d3d 894b 643c 4631 383d 2dd9 36bd
00000180: 97f2 1f3d 2fa1 a1bc c783 103d 6d21 b03c
00000190: 5dc1 babc 6d8c 923c 3ebc a73d 6ea1 e53d
000001a0: 0544 8d3d 4810 84bc 8eaf 7e3d a6c2 783c
000001b0: cf92 a33a f05b 963d 056c ea3a a1d1 68ba
000001c0: 6c0a 7f3c 03a9 8e3c 4678 303c 3c05 c63c
000001d0: 9d8b 18bc 3816 79bd 4efa 73bc a4b9 de3c
000001e0: 5865 053d 507b 553d bb93 dcbb b944 f83c
000001f0: e8ad 223d 1d9b 5fbd 8cdf da3d f340 eebc
00000200: 9072 98bd d74a 50bd b474 b53d 82bb 85bd
00000210: 149e 82bc 0781 94bc 4b14 3bbd a87c e13c
00000220: ba2c 4dbe 6537 053d ebce c63c efca 79bc
00000230: 3826 4f3d 563c 25bc 484b 46bd 78b8 b3bc
00000240: f1f0 8fbd fc7d f13b 45fe 393e 00fb 5dbd
00000250: c436 123d fee3 2dbd c7be c83d f3b5 bb3d
00000260: e880 983d ab31 9a3c 796c 3e3d fe28 28bb
00000270: f5b2 d0bc 66ef 4e3d 8731 9cbd ce01 2bbc
00000280: c1b0 f63c 219c cf3c b761 9fbd adea 21bc
00000290: 69ed fa3b 830c 70bd cd9f 533d 9585 883d
000002a0: 1b21 09bd 266b df3d 0625 813d bc53 383d
000002b0: 3a32 b3bc 2bd2 2fbc e0b0 5c3c f6c0 39bd
000002c0: a25c 983c 5019 71bd dba1 acbd b902 f4bc
000002d0: a9a3 24bd 2832 a9bc 78b7 0d3c c011 e53c
000002e0: a87e 1a3d f900 d33c e787 a03c ebe7 423b
000002f0: 7b2e 46bd ebb8 183d b3ec d73c 1fe2 b5bc
00000300: 6dca 0ebe be8d 28be 65d0 883c 9102 463d
00000310: 21b7 b03d a9d3 8f3d 832e 1dbd 90ee 373c
00000320: 7a2f 913d df9b f23c 37aa aebd c5dc c43d
00000330: 0954 253d 1315 f83b 668c 22bd 1129 9e3c
00000340: d4a3 b3bd 2bf0 c9bd a4e4 973c a4ae 1e3c
00000350: f41a dbbd 0c0f 88bc 5b19 333d e180 97bd
00000360: a1a6 82bc be08 6d3c 5647 b8bd 63b6 f43b
00000370: dd25 a03c 7aa6 153c 9835 9abd b4b9 29bd
00000380: a690 e8bd 1685 393c fd08 06bd 3b38 19bd
00000390: 1ece 75bd 3573 cc3b ed6a cf3d 4252 b53d
000003a0: 1eaa 2a3d f65b 8c3c 7559 803d 58a3 103d
000003b0: 9a04 d9bc 4393 003d 70ee 04bd 85d7 cdbd
000003c0: 805c 0a3c e0fc 093e 9fbd 66bd 9437 81bc
000003d0: 38d5 ea3d 41b5 86bd 2cf3 3ebc 49fa b83d
000003e0: 55ad 763d 54d7 dfba d219 5abd a2f0 0abc
000003f0: 150c 3fbb a00a 55bd 30ee ecbd b752 693d
-0.062078472 0.07470848 0.027159123 0.026239403 -0.03764644 0.05431899 0.08613326 0.012917519
0.036851402 -0.02396129 0.029055787 -0.024812106 -0.010440235 0.16005164 0.2001702 -0.109072015
-0.05153063 -0.01089617 -0.042324327 -0.039156906 -0.023280345 -0.036706246 -0.029936481 -0.038707487
0.04543048 -0.052741602 -0.024667837 0.013773193 -0.049324345 0.04256687 -0.017801706 0.079615265
-0.0015140299 0.03329797 0.012226127 0.04115976 -0.011698948 -0.021155128 0.006693062 -0.05033
0.13515627 0.07406432 0.06452034 -0.07119471 0.03317009 0.052734204 -0.12161971 -0.009010676
0.01889597 -0.04496302 0.033761207 0.019902201 -0.047467258 -0.07252468 0.057185065 -0.17015138
-0.015374664 -0.045596424 -0.037119016 -0.003911455 0.006112864 -0.101817615 -0.06940165 -0.011429534
-0.015892094 -0.14754651 0.01840186 0.079203665 0.025236031 -0.08574906 -0.13654135 0.023321742
0.046293676 -0.020511271 -0.011611964 -0.036284998 -0.054192573 -0.039879546 -0.084753886 0.03217901
0.023276974 0.036860295 -0.017422095 -0.03020206 0.045183554 0.024952015 0.022601044 -0.0038315288
0.0445257 0.023733195 0.048211362 -0.022641871 0.03854344 0.013934025 0.044968866 -0.04464071
0.03904971 -0.019730179 0.035281923 0.021500314 -0.02279728 0.017889226 0.08190201 0.11212431
0.06897739 -0.016121045 0.06217914 0.015183127 0.0012479665 0.073417544 0.0017884976 -0.0008881335
0.01556645 0.017414575 0.010770863 0.024172418 -0.00931063 -0.060812205 -0.01489122 0.02718813
0.032567352 0.052119553 -0.006731478 0.030306207 0.03971663 -0.054591287 0.106871694 -0.029083705
-0.07443726 -0.050852623 0.0886015 -0.06529905 -0.015944518 -0.018127931 -0.04567365 0.027525261
-0.20036593 0.03252353 0.024268588 -0.015246137 0.050573558 -0.010085186 -0.048411638 -0.021938547
-0.07028378 0.007369755 0.18163402 -0.05419445 0.03569676 -0.04245376 0.09802013 0.091655634
0.07446462 0.018822512 0.046490166 -0.00256592 -0.025475958 0.050521277 -0.07626634 -0.010437442
0.03011358 0.025343003 -0.077823095 -0.009882611 0.007657696 -0.058605682 0.05166607 0.06666104
-0.033478837 0.10909109 0.0630589 0.04500173 -0.021874536 -0.01073126 0.013469905 -0.045350038
0.018598858 -0.05886203 -0.08429309 -0.029786455 -0.04019514 -0.0206538 0.008649699 0.027962565
0.037718445 0.0257573 0.019596053 0.0029740285 -0.04838417 0.037285727 0.026357984 -0.02220255
-0.13944407 -0.1646032 0.016700933 0.04834229 0.08628679 0.07022793 -0.038374435 0.011226311
0.070891336 0.02961534 -0.0852856 0.09612421 0.040363345 0.0075708716 -0.039684676 0.019306691
-0.08771482 -0.098602615 0.018541642 0.009685192 -0.106985 -0.016608737 0.043725353 -0.073976286
-0.015948595 0.014467416 -0.08997981 0.0074680313 0.019549305 0.009133929 -0.075297534 -0.041436866
-0.113557145 0.011323234 -0.032723416 -0.03740714 -0.06001102 0.0062393197 0.10127816 0.0885358
0.041666143 0.017133694 0.062670626 0.035312027 -0.026491452 0.03139044 -0.032453954 -0.10050873
0.008444905 0.1347537 -0.05633318 -0.015773572 0.114664495 -0.0657754 -0.011654656 0.09032113
0.060223896 -0.0017077723 -0.05324728 -0.008480223 -0.0029151489 -0.052012086 -0.11568868 0.05696365

fc1.bias f4 [50]
00000000: 8e0b 0dbd 5202 02bd 33e4 003d 039e 503b
00000010: 4538 bebc f758 b7bc 836e d1bc 1a11 a6bc
00000020: 5415 b8bc 2ff7 8d3c 060a bebb 24f7 15bd
00000030: d7bc 443c d598 b43c 41ba d93a d2d8 af3d
00000040: 5395 da3c f54d 59bd d481 393c aebd 8b3d
00000050: 3636 f9bc 015d 31bd aa91 1cbd c107 0d3d
00000060: 94f6 aa3d 3d9a d43c 7719 c13d 92c8 cf3c
00000070: 9cd2 423b a351 d63d 6975 fc3c 5782 85bd
00000080: 5d56 d0bc ee4c 93bc eb11 27bc fdd5 0cbd
00000090: 4844 2ebd 9e34 c5bd b134 cfbc 9a3b 113d
000000a0: cd40 70bd ade0 d53c 7887 d13c 0e1f 283b
000000b0: c304 c63c 5af8 53bb 81f5 f83b 14e5 6dbc
000000c0: 60e9 56bc 5e4a 28bd
-0.034434848 -0.031740494 0.031467628 0.0031832464 -0.02322019 -0.022381289 -0.025565391 -0.020271827
-0.022471108 0.01732978 -0.0057995347 -0.036612645 0.012007914 0.022045532 0.0016611294 0.08586277
0.026682531 -0.05305286 0.011322457 0.06823288 -0.030421358 -0.043301586 -0.038224854 0.034431223
0.08347812 0.025952453 0.09428685 0.025364194 0.0029727584 0.1046479 0.030817704 -0.06519001
-0.025431806 -0.017981019 -0.010197143 -0.034383763 -0.042545587 -0.096291766 -0.02529368 0.03545723
-0.05865555 0.02610811 0.025577292 0.0025653276 0.024172192 -0.0032344074 0.0075976257 -0.0145199485
-0.013117164 -0.041086547

fc2.weight f4 [7, 50]
00000000: eadb bbbd 7c8b 62bd 7bcf 1a3e d394 b43d
00000010: 6bff 4d3d f97f 9fbd 6316 1ebe 0da1 1bbe
00000020: af41 d43d 15c7 683d df0a 3ebd 60e0 a13d
00000030: 0a9e 00be e3d9 9f3c 7f58 d03c 389a 68bd
00000040: 506b 243e 24d6 233a 6785 9a3d 6a69 d23c
00000050: 9a7e 4dbd ed78 08be 45ec df3d c6ca cf3c
00000060: 469d 093e 06c2 63bd c7ea 05bd 5c10 f93a
00000070: 7433 8cbc 4f92 e93b ab70 bc3d 00f1 863d
00000080: d30c 35be d1d7 d1bd 1ae6 1abc e7fa fabd
00000090: 3a30 cfbd 7fd4 7dbb 0a99 0d3e 3f08 183e
000000a0: 64f2 9ebc 95b4 033e 7778 863b e961 76bd
000000b0: a4ea a0bd c9b8 d83c 935f 043d e1d3 863d
000000c0: b63c 213e 25ce bfbd 146a 14be d8e9 6c3d
000000d0: 57fe 8dbe 51a9 14be 5b14 883d 0324 c53d
000000e0: 2db4 55be 4f98 da3d d078 bbbd e413 d13b
000000f0: ea80 143c 6d7e 9fbd 3c2b 303d 5c38 d2bd
00000100: 61e1 7dbc 0064 2e3e f078 69bc bfa6 41be
00000110: ba3a 6abe 9b8e 243e 70cf 85bd ea93 18be
00000120: ea68 dcbd 0faa a9bc c868 2b3e 2cc9 58bc
00000130: 3a80 763e 2064 e4bc fe67 e83d ee23 db3d
00000140: 8060 8dbd e2b2 44be 3fc5 b33c 5230 41be
00000150: a274 10be 2641 ba3d fd7e 0abe c6d4 9dbe
00000160: 7dec 50bd abcf 1abe 56cd 2bbe 545d fb3d
00000170: 646f ea3d d81c b43d d3f8 333d a5bf c23d
00000180: 11dd 073e 10ef 6d3c 003f 34bd 156a 66bd
00000190: 3bcc a83d 355f 9bbd 6c22 3d3e dae2 89bd
000001a0: bc9a 5ebc 11d2 213e 5de8 373e 9b28 f33d
000001b0: 3d65 493d d02c f4bd b4d0 0fbd 5390 bfbd
000001c0: 6abb 1dbe 9a9d 993d be88 cc3b 224f d13d
000001d0: b224 2abd ea38 b1bd 3be1 de3d 0e0e 1b3d
000001e0: ceef c93d bd4f 363d 2aec 693d 8263 33be
000001f0: d38a 81bd d909 893d 3db8 49bd 8f07 e73d
00000200: 2ed6 753b f0c2 213c 9bdb 1b3e 9d26 c7bc
00000210: 4076 0a3e dbc1 213e c157 c3bd 5b84 ef3d
00000220: 7286 913c 70fa 343e 6fea dfbc f8e0 15be
00000230: afe7 4ebe 541a 02bd 7704 e6bd e6d1 46bd
00000240: aba3 c3bd d798 793a dddb 2bbd c24a 08be
00000250: 15ba 363e e70e 58be 0c8b d73d c9a4 993c
00000260: 425b 0fbe 8568 3fbd 78e8 bf3c c424 c7bd
00000270: 76b1 e0bd 01f7 69be 3555 643d f224 06be
00000280: eff8 bb3d ee58 053e cf97 013e 62b3 dc3d
00000290: 2307 a83c a7ca 0439 ec64 11be 0764 d33d
000002a0: 5f1a 86bd 4283 3cbe 5209 ba3d 2a47 32bd
000002b0: 59c0 9fbc 7d3c 0dbe 5f8a 29be 417d 3bbc
000002c0: 4d20 abbc 2895 893b 9a35 12bd 80a7 88be
000002d0: af6f 02be 0263 04be ac37 1a3e e3a8 14be
000002e0: d253 6dbd fd8b 2e3d e8c4 9f3d 9917 933d
000002f0: 3361 193e bc93 74be cd8c 103e b024 083c
00000300: 6fae ea3d e96e 6dbc e6f4 3cbb 4db4 8d3d
00000310: f201 fe3b a9c6 b7bb 3720 1f3c b5a8 973d
00000320: 0eb6 2bbe e7c0 2abd ec1f e3bd 07ac bdbc
00000330: cca8 3d3d 48fa 4d3e 18c8 89bd c7b0 3ebe
00000340: 39ab 39be 7009 033e 68fd b9bd 5dde 90bd
00000350: d730 2abe 74d1 e9bd fc2f cabd f58a 1c3e
00000360: ba9f 7a3d eb9f 5dbe 36d3 27be 05c5 e8bd
00000370: 6635 90bd d146 393e f24c a4bd b676 d93d
00000380: 1896 8abd b0d7 27be ecdc 6abd c85d 00be
00000390: d36d 09be 1b3b 42be c1df 3b3e a721 143e
000003a0: a177 223e 3419 9a3d b9e7 873d 103e 6e3d
000003b0: e80e 873d 06b3 3d3e 4a6c 57be 7501 75be
000003c0: ed5b f23c 2bef 91bd 8a21 9dbd d0fb 7cbd
000003d0: 1cbd f4bd 4e63 eb3c 1fa7 313c a809 d5bd
000003e0: 3244 3fbe 951f 183e e40d dd3d 7959 073e
000003f0: 0649 51be 82ff 17bd 5d4a 03bc df61 4d3d
-0.09172805 -0.055308804 0.1511821 0.088174485 0.050292414 -0.07788081 -0.15438227 -0.15198155
0.10364091 0.056830484 -0.046397086 0.07904124 -0.12560287 0.019513076 0.025432823 -0.0567877
0.16056561 0.0006249866 0.07544976 0.025685031 -0.050169565 -0.1332738 0.10933737 0.025365245
0.13438901 -0.055604957 -0.032694604 0.0019002068 -0.017114379 0.007128037 0.09201177 0.06588936
-0.17680673 -0.10246242 -0.009454275 -0.12254887 -0.1011662 -0.0038731394 0.13827911 0.14846896
-0.01940269 0.12861855 0.004103716 -0.06015197 -0.07857254 0.0264553 0.03231771 0.065833814
0.15745816 -0.09365491 -0.1449359 0.0578402 -0.27733108 -0.14517714 0.066445075 0.09626009
-0.20869513 0.10673582 -0.091539025 0.006380545 0.009063939 -0.07787786 0.04300998 -0.10264656
-0.015495629 0.17030334 -0.014250025 -0.18911265 -0.22873965 0.16070025 -0.06533706 -0.14900175
-0.10762198 -0.020710973 0.1673919 -0.013231557 0.24072352 -0.027879775 0.1134796 0.107002124
-0.069031715 -0.19208863 0.02194464 -0.18866089 -0.14106992 0.09094457 -0.13525005 -0.30826396
-0.051006783 -0.15118282 -0.16777548 0.1227366 0.11447027 0.08794564 0.04393847 0.095092095
0.13267924 0.014522329 -0.044005394 -0.05625351 0.08242079 -0.07586519 0.18470162 -0.067327216
-0.013586696 0.1580279 0.17959733 0.11872979 0.049168814 -0.1192261 -0.035111144 -0.093536995
-0.15403524 0.07500763 0.006241887 0.102201715 -0.0415389 -0.086534336 0.10882803 0.0378552
0.09860192 0.044509638 0.05710999 -0.17518428 -0.06325307 0.066913314 -0.04924797 0.112807386
0.0037511694 0.009873137 0.15220492 -0.024310404 0.13521671 0.15796606 -0.09538222 0.11695167
0.017764304 0.1767366 -0.027333466 -0.146366 -0.20205568 -0.03176339 -0.1123132 -0.04854002
-0.095527016 0.0009521371 -0.041957725 -0.13309768 0.17844422 -0.21099435 0.10524568 0.018755333
-0.13999656 -0.046730537 0.02342628 -0.09723809 -0.10971348 -0.22848131 0.055745322 -0.13100031
0.0917834 0.13022205 0.12655567 0.10776402 0.020511216 0.00012663995 -0.14198655 0.10321813
-0.06547999 -0.18409446 0.09083809 -0.0435249 -0.019500898 -0.13792606 -0.1655669 -0.011443437
-0.020889426 0.004198689 -0.03569565 -0.26690292 -0.12737916 -0.12928393 0.150603 -0.1451755
-0.057941265 0.042613972 0.07801229 0.07182235 0.14978485 -0.23884481 0.14116211 0.008309528
0.11459052 -0.014491775 -0.0028832494 0.06919155 0.0077516967 -0.005608399 0.00971227 0.07405225
-0.16768667 -0.041687872 -0.11090073 -0.023153318 0.046303555 0.20115006 -0.06727618 -0.18622123
-0.18131723 0.12796569 -0.090815365 -0.070736624 -0.16620193 -0.11416903 -0.098724335 0.15287383
0.061187483 -0.21643035 -0.16389164 -0.113657035 -0.07041435 0.1809342 -0.08022489 0.106183454
-0.06766909 -0.16390872 -0.057339594 -0.12535775 -0.13420801 -0.1896786 0.18347074 0.14465962
0.15865947 0.07524338 0.066359945 0.058164656 0.0659464 0.18525323 -0.21037403 -0.23926337
0.02958485 -0.07125696 -0.07672413 -0.061763585 -0.11950132 0.028733876 0.010843067 -0.104022324
-0.18678358 0.14855798 0.10793665 0.13217725 -0.20438012 -0.037108906 -0.008013335 0.050142165

fc2.bias f4 [7]
00000000: 8562 513a a330 623c 0524 1fbe eb40 023d
00000010: 5b73 2fbb 7f1d cf3d 8493 42bd
0.0007987398 0.013805541 -0.15541084 0.03180019 -0.0026771638 0.10113048 -0.047503963

localization.0.weight f4 [8, 1, 7, 7]
00000000: 3c9f bb3d 4a8d 92bd 8605 7fbd 34ff 0c3d
00000010: 7baa 043e 20e7 b63b 0072 0ebd f6d6 ef3d
00000020: 66d6 cc3d d00b c2bd 4ae9 80bd 20ba b2bb
00000030: bbbc 013e 687e 833c 9217 f13d 7bd8 0bbe
00000040: 5c53 dbbc 168b a63d 32f7 60bd 307e dfbc
00000050: a0d4 6bbd 2eab bc3d 2c7e bcbd b07c fc3c
00000060: 6480 ffbc 32b6 853d e89d 413d 00e9 e3bd
00000070: 202e 52bd 0619 f63d 929d a03d 5651 f43d
00000080: e0cd 99bd 583e 2dbd fa52 a73d b2ec 12bd
00000090: d8ed 10bd f61b c33d aecb d13d d2ba 0ebe
000000a0: e0f0 613c 28dd 8e3c 3204 de3d b81f dd3c
000000b0: 1c6b 13bd 6c61 953d 9a85 ff3d 7aff fd3d
000000c0: 5c8d 13bd b100 f8bd a859 ae3d 1b72 033e
000000d0: 0a42 01bd 9ccc c7bc cc7f a63d 9316 c4bd
000000e0: 6049 18bd 9c13 c5bd e283 ff3d 7484 3e3d
000000f0: ce04 da3d 94d6 04be d84b 703d 4b4c 09be
00000100: 1532 fcbd c18a 0f3e e4e7 463d e0b0 bdbb
00000110: 72b9 8d3d cad1 debd fc9c f2bd 88fa 4f3d
00000120: 487a df3c c0a8 fabb d710 053e 1076 133c
00000130: 9e07 fb3d 1c25 803d aca1 a3bd d06b 8dbc
00000140: 101e a4bd 625f da3d 58c2 3cbd 4093 ccbc
00000150: 6271 03be 13fa eebd 78bf 94bc 7b3f 023e
00000160: eaed ccbd 1c7b 8f3d 37fe 023e 1e78 90bd
00000170: 5030 6c3d 80aa a33d e0b8 383c b1b2 fdbd
00000180: b5ab dcbd 5c71 00be 5e8f ca3d 1823 06bd
00000190: 9008 b1bd 54b7 dbbc 7cc0 483d ccda 00be
000001a0: 8811 e03c 9849 8dbc d467 03be 3ebe 9c3d
000001b0: 6ee8 d63d e2a8 e43d 5222 e73d 1f8f 053e
000001c0: 70b7 293d 2037 993b a638 17bd c223 ec3d
000001d0: 08f3 d83d 9b51 043e d513 92bd 2ca3 943d
000001e0: 4012 063d 3a61 a73d 20c0 ff3c d4a4 6c3d
000001f0: 80c1 623b aaa0 92bd 6ead a33d 8399 11be
00000200: 50bc 393c 284d fd3c 3066 adbd 6485 873d
00000210: e58a 99bd 60ef 253d 1e55 a13d 066b 9a3d
00000220: 7ab7 e0bd e7fe 0e3e ca3e 32bd 0619 d33d
00000230: 2a72 a53d 750c b2bd 6094 113c dca6 13bd
00000240: 7770 83bd 5078 723c 040c 7e3d 2017 db3c
00000250: ba16 b23d 02be 823d 16b7 e73d 6cdd 9f3d
00000260: 9a27 b2bd 7617 c13d e736 85bd f054 f33c
00000270: 81c8 053e 7ec5 babd 4a78 2dbd 1c4e 77bd
00000280: 309b 8dbc 077a 87bd 7396 a4bd c0b6 203b
00000290: 52ec 0fbe c026 83bd b8de 903d f08e 8fbd
000002a0: 460e ef3d 0099 bc3c 6efe 81bd bcc8 3bbd
000002b0: 9eb9 bbbd f841 2abd edc7 093e d389 0abe
000002c0: 58d3 abbd e8ca 84bc dc76 28bd 7393 abbd
000002d0: 78dc 843c 680c c03d d0d3 2a3c 80ed d23a
000002e0: cbf5 04be 9a87 da3d 30bc 933c 6614 e63d
000002f0: c670 f73d 6a98 90bd 9e94 11be ec35 b23d
00000300: 4020 e3bc 30f3 723c e0b4 99bd d162 eabd
00000310: 026c 04be 9609 e73d 00ba 63bd c007 bb3d
00000320: 4c6a 9a3d 583b 8b3d 1ee9 e33d 282f 473d
00000330: 9e9e 0cbe b152 0c3e 7231 ec3d 5aec da3d
00000340: 6061 95bd c82d 973c 30b3 dfbc 2e1d 55bd
00000350: b290 36bd 9e7a dc3d 206c 52bc a82d e8bd
00000360: 40f3 1d3b 80cb d6bd f895 9bbc 9479 2f3d
00000370: e3aa 8cbd 105c 4abc 5092 213d f8bf 10be
00000380: d395 d2bd a86f 823d 26c7 3ebd 955f bebd
00000390: a011 d13b 8c05 fcbd d408 8f3d 8024 28bd
000003a0: 8da2 09be 4cf0 cb3d a0c4 263c 9046 b23d
000003b0: 4867 6a3d 889f 2f3d 0e9c 47bd ae7c 82bd
000003c0: b066 cc3d 8c11 d13d 40da e7bb 5085 56bc
000003d0: f8cf 84bc 1428 043d 389b d83d bc0d be3d
000003e0: 8890 babc eb14 0ebe 0469 193d 80b0 163c
000003f0: f032 e0bc 2e95 7dbd e002 0c3c 4ede fd3d
0.09161231 -0.07155855 -0.062261127 0.03442307 0.12955658 0.0055817515 -0.034776688 0.117109224
0.10001831 -0.09474909 -0.06294496 -0.0054543167 0.12669651 0.016051486 0.11772074 -0.136568
-0.026773147 0.08131997 -0.054923244 -0.02728185 -0.057575822 0.092123374 -0.09203753 0.030821174
-0.031189151 0.065288916 0.04726973 -0.111284256 -0.05131352 0.120164916 0.07842554 0.11929576
-0.07509971 -0.042295784 0.081701234 -0.03587026 -0.035383075 0.095268175 0.10243927 -0.13938454
0.013790339 0.01743944 0.10840644 0.026992664 -0.03599082 0.072939724 0.12476654 0.12402244
-0.036023483 -0.12109507 0.08513194 0.12836497 -0.03155712 -0.024389558 0.08129844 -0.09574618
-0.03717935 -0.09622881 0.124763265 0.046513036 0.10645448 -0.1297248 0.05866608 -0.1340801
-0.1231424 0.14017774 0.048560992 -0.0057889074 0.069201365 -0.10879858 -0.11846349 0.050776035
0.027279988 -0.007649511 0.12994705 0.009000316 0.12257312 0.06257078 -0.07989821 -0.017263323
-0.080135465 0.10662724 -0.04608378 -0.024972558 -0.12836221 -0.116687916 -0.018157706 0.12719528
-0.10006316 0.07005903 0.12792288 -0.070541605 0.057663262 0.07991505 0.011274546 -0.12387598
-0.10774938 -0.12543243 0.09890626 -0.03274831 -0.08644211 -0.026820816 0.049011692 -0.12583464
0.02735211 -0.017247006 -0.12832576 0.07653473 0.10493551 0.11165024 0.11285843 0.13042878
0.041434705 0.004675761 -0.03691926 0.11530258 0.105932295 0.12921755 -0.07132689 0.07257685
0.03273225 0.08172841 0.031219542 0.05777438 0.0034600198 -0.071595505 0.079920635 -0.14218716
0.011336401 0.03092058 -0.08466756 0.06617239 -0.07497195 0.04051149 0.07877563 0.07539944
-0.109724954 0.13964425 -0.04351691 0.10307507 0.08078416 -0.08693782 0.008885473 -0.0360478
-0.06417935 0.014799193 0.062023178 0.026744425 0.08695741 0.06383897 0.11314218 0.07805905
-0.0869896 0.09428303 -0.065046124 0.029703587 0.13064767 -0.091197 -0.042351045 -0.060377225
-0.017285913 -0.06615072 -0.080365084 0.002452299 -0.14054993 -0.06403875 0.0707373 -0.07009685
0.11672644 0.023022175 -0.06347357 -0.045845732 -0.09166263 -0.04156682 0.13455172 -0.13529138
-0.0838992 -0.016210034 -0.041128978 -0.08377733 0.016218409 0.09377366 0.010426477 0.0016092509
-0.12984388 0.10670395 0.01803407 0.112343594 0.12082057 -0.07060321 -0.14216849 0.08701691
-0.027725339 0.014828488 -0.07505202 -0.11444629 -0.12931827 0.11281125 -0.055597305 0.091323376
0.07539806 0.06798428 0.11128448 0.048628956 -0.13732383 0.1370342 0.115328684 0.10689612
-0.072939634 0.018454447 -0.027307123 -0.05202978 -0.044571586 0.10765575 -0.012843162 -0.11336833
0.0024101287 -0.10488033 -0.01899241 0.042840555 -0.068685316 -0.012351051 0.039446175 -0.1413573
-0.10282483 0.06368953 -0.04657664 -0.092955746 0.006380275 -0.123057455 0.06984106 -0.041050434
-0.13440914 0.09957942 0.010178715 0.08704865 0.057227403 0.04287675 -0.04873281 -0.06371437
0.099805236 0.10208425 -0.007075578 -0.013093308 -0.016212448 0.032264784 0.105764806 0.092799634
-0.022773996 -0.13875167 0.037453666 0.009197354 -0.027368039 -0.061909847 0.008545607 0.12395917

localization.0.bias f4 [8]
00000000: 5e4f febd 2ef9 d53d a8fc bd3d 2e23 9cbd
00000010: 329d 3abd 0393 a9bd e93f 0c3e 0085 5e3d
-0.12417482 0.10447918 0.09276706 -0.076238975 -0.04556007 -0.082799934 0.13696255 0.054326057

localization.3.weight f4 [10, 8, 5, 5]
00000000: 1b06 833d 401c b3bc 5073 21bd 32dc 0d3d
00000010: e8a2 ce3c a088 52bd 7759 1abd f60e 423d
00000020: baec cbbc 6e05 7b3d ccb6 4abd fef8 543d
00000030: a47a 23bc 0020 01bc e032 253d 908b ca3c
00000040: c2ea 173d e6f7 e8bc 3225 7abd f1d9 85bd
00000050: 9aac 70bd 18d7 82bd f864 343d f49f efbc
00000060: 3c15 9bbc 0c23 5ebc 38c3 6cbc 902d 6dbc
00000070: e20b 6d3d aa0c 48bd a447 183d c43d b5bc
00000080: 281e debc 1cbf 933c 3082 023d 3494 953c
00000090: d627 8abd 520b b8bc ee47 2d3d faf6 89bd
000000a0: 927c 733d 2662 3f3d 8206 92bc a03e f8bc
000000b0: c4cc 52bc 2814 c33c 4475 d23c cd0d 7ebd
000000c0: 88eb c8bc 344a 3fbd efdc 72bd 4cc6 593d
000000d0: e0c2 e7bc 2a2e 67bd 5af1 8fbd 8ebd 703d
000000e0: 0c73 4fbc 70a8 3c3d 14b3 3ebd 845c 233d
000000f0: a8b2 3a3d ee12 053d ba8f 04bd 80c0 ae3a
00000100: 9131 39bd ed58 7cbd a010 4d3d 7353 75bd
00000110: 62f8 263d 7272 18bd dbeb 39bd 2cf6 2b3d
00000120: be68 4d3d 70d9 4d3d d2fc 6f3d 86e0 693d
00000130: edd0 863d 0ca4 f0bc e05e 7ebc be7d 183d
00000140: 1e41 b6bc 58c6 9d3c fc81 803c 56ae ecbc
00000150: 5592 47bd a003 92bc 482d 06bc 14c1 8fbd
00000160: 06a5 b7bc 1e0e 5e3d c06a 473d 29cc 36bd
00000170: 360b 083d 8067 bf3a 040c 38bc 9fc4 77bd
00000180: 2ab5 49bd 575f 8b3d 2213 5bbd 2c9f a23c
00000190: e481 bdbc 10c2 39bc 96a5 273d 5a88 513d
000001a0: 458d 70bd 5094 77bc 825c 6a3d 2064 393c
000001b0: 26b1 0ebd bc88 39bd 1c33 923c 6405 17bc
000001c0: 1447 153d d8cd 34bd 2082 863c 9410 3f3d
000001d0: ceb3 51bd b8b3 64bd d6f8 dbbc d431 c6bc
000001e0: 24a8 ebbc c21c 553d 1c09 54bd 44bb 4abc
000001f0: 4f3e 873d 002f 1cbc a8b6 6b3c fa29 d5bc
00000200: d475 f63c 75a7 07bd df40 8dbd 93d0 863d
00000210: c005 a13a 002d 203d a81c 9a3c f8bd e83c
00000220: bc89 7cbd b821 bd3c 1a7d 84bc 3e41 063d
00000230: dc0b 243d 0751 0cbd 8835 813c 4ea1 703d
00000240: d02b 523d e0da 93bb 805c 29ba 72ea 783d
00000250: 2f70 90bd 0070 6139 601b d93c 201b 2f3b
00000260: d066 fabb aa7f 3f3d b814 85bd 3294 4cbd
00000270: 76f7 6bbd 88d3 0a3d e4f5 f43c 1867 543c
00000280: 803b 983b 2021 2b3c c0a1 b2ba 88c4 933c
00000290: f3bd 8c3d 58e2 193d 708a 18bc 0401 853c
000002a0: 1aab 8dbd 7ce3 d23c 66fa 8fbd 001b 5fbb
000002b0: 3050 33bd f32e 893d be9a 00bd 10b8 e43c
000002c0: 2811 973c b0f2 babb 7ab9 373d f025 013d
000002d0: 001b c9b9 c060 62bb 2952 2abd 3036 943c
000002e0: e467 393d 088a 16bc 4438 d23c a679 143d
000002f0: 5c56 15bc 2cc9 193d 24d7 2abd f4b7 cd3c
00000300: 47ed 5bbd 0576 8c3d 407b ecbc 302a 3e3c
00000310: 06fe 68bd 71ef 8e3d 6818 dd3c d050 083c
00000320: 40e2 b23c 0847 4b3d c8c9 97bc 6ca6 babc
00000330: 68fa 8e3c 32e5 e8bc a0e8 6c3c 3c42 5abc
00000340: b283 703d fc8e d2bc 3a51 79bd 7221 0d3d
00000350: 6878 87bc b3a1 833d 6cd9 1dbd 00d3 043c
00000360: 1833 ed3c f21d 8ebd cf02 1cbd aff2 49bd
00000370: 2e81 7f3d c2e1 5dbd c659 53bd 60fd 04bc
00000380: 4055 363d b614 573d 267c 7f3d ba34 a7bc
00000390: 5699 1b3d 946c 853c 673e 8b3d 786b b13c
000003a0: ee0c cebc a069 6c3c 1089 853b 6781 0abd
000003b0: 40db 253c 6e70 2ebd cc13 433d 2878 6cbc
000003c0: 82a5 ffbc a6dd 3fbd 1b94 00bd e5d8 67bd
000003d0: 5806 5dbd 04c2 9fbc f033 9bbb 8c07 32bd
000003e0: 97ce 8f3d 3027 fa3c 11e9 34bd 9cdd e1bc
000003f0: 108d eb3b fce7 093d 4661 0d3d ac7d b0bc
0.06397649 -0.021864057 -0.03941661 0.034633823 0.025224164 -0.051399827 -0.037682977 0.04737755
-0.024893153 0.061284475 -0.049490735 0.05199527 -0.00997797 -0.007881165 0.04033172 0.024724752
0.037089117 -0.02843852 -0.06107063 -0.0653571 -0.058758356 -0.06388682 0.044041604 -0.029251076
-0.018931024 -0.0135581605 -0.014450841 -0.014476195 0.05787266 -0.048840202 0.037177697 -0.022124179
-0.027113989 0.018035464 0.031862438 0.018259145 -0.06745879 -0.022466335 0.042304926 -0.0673656
0.05944497 0.04672446 -0.017825369 -0.0303033 -0.012866203 0.023813322 0.025690682 -0.06202488
-0.024526373 -0.046701625 -0.05929273 0.053167626 -0.028291166 -0.05644051 -0.07028456 0.058774523
-0.012661707 0.046059072 -0.0465575 0.03988315 0.045580536 0.032488756 -0.03236363 0.0013332516
-0.045213286 -0.061608244 0.050064683 -0.059894037 0.04076422 -0.03721852 -0.045390945 0.041982815
0.050148718 0.050256193 0.058590718 0.057098888 0.06582818 -0.029375099 -0.01552555 0.037229292
-0.022247847 0.019259617 0.015686981 -0.028891724 -0.048723537 -0.017823994 -0.008189507 -0.070192486
-0.022417556 0.054212682 0.04868579 -0.044628296 0.033213817 0.0014602989 -0.0112333335 -0.060490247
-0.049245037 0.06805294 -0.053485043 0.01985129 -0.023133226 -0.011337772 0.0409294 0.051155426
-0.058728475 -0.015111044 0.05721713 0.011315376 -0.03483691 -0.045296416 0.017846636 -0.009217594
0.03644474 -0.04414162 0.01641947 0.04664667 -0.051196866 -0.055835456 -0.026852053 -0.024193682
-0.0287667 0.05202938 -0.0517665 -0.012373749 0.06603681 -0.00953269 0.01438681 -0.026020993
0.030085482 -0.033118684 -0.06897139 0.06582751 0.0012285039 0.039105415 0.018812492 0.028410897
-0.06165479 0.023087367 -0.016172934 0.032777064 0.040050372 -0.03425696 0.015772596 0.058747582
0.051311314 -0.004512176 -0.0006460622 0.06077046 -0.07052647 0.00021499395 0.026502311 0.0026719049
-0.0076416507 0.04675261 -0.064980924 -0.049946018 -0.057609044 0.03389314 0.029902406 0.012964033
0.004645765 0.010444909 -0.0013628528 0.01803805 0.068721674 0.037569374 -0.00931035 0.016235836
-0.06917401 0.025743239 -0.070301816 -0.0034043193 -0.043777645 0.06698408 -0.031397574 0.0279198
0.018440798 -0.0057052 0.04485462 0.03153032 -0.00038357824 -0.003454253 -0.04158226 0.018092245
0.045265093 -0.009188183 0.025661595 0.036248825 -0.009114828 0.037545368 -0.04170908 0.02511213
-0.053693082 0.06858448 -0.028867364 0.011606738 -0.05688288 0.069792636 0.026989177 0.008320048
0.0218364 0.049628288 -0.018528834 -0.022784434 0.017453387 -0.028429601 0.014459759 -0.013321456
0.058719344 -0.025702946 -0.06086848 0.034455724 -0.016536906 0.06427326 -0.038537428 0.008106947
0.028955027 -0.06939305 -0.038088616 -0.049303707 0.062379055 -0.054170378 -0.051599286 -0.00811705
0.044514894 0.052509986 0.062374257 -0.020410884 0.03798803 0.016287126 0.06799012 0.02165769
-0.02515265 0.01442948 0.004075177 -0.033814814 0.010123074 -0.04258769 0.0476263 -0.014432944
-0.03120685 -0.04684224 -0.031391244 -0.05660333 -0.053961128 -0.019501694 -0.004736416 -0.04346423
0.07021826 0.030536264 -0.044167582 -0.027571492 0.007188447 0.033668503 0.034516595 -0.0215443

localization.3.bias f4 [10]
00000000: 704f 58bc f09b 8cbb 5040 b93c b281 643d
00000010: b8de e73c d888 c53c 068f 693d 645f 933c
00000020: 8009 58bb d6b7 f3bc
-0.013202533 -0.00429105 0.022613674 0.05578775 0.028304443 0.024113104 0.057021163 0.017989822
-0.0032964647 -0.029750746
