deep_emotion-55-128-0.005.pt (torch, 274522 bytes, 24 tensors)

conv1.weight f4 [10, 1, 3, 3]
-0.16076417 -0.2586681 0.09624889 0.33928424 -0.16144682 0.24456584 0.063503064 0.22055481
-0.019414376 -0.0239243 -0.21484874 0.16706483 0.17258623 0.17492913 0.22570375 -0.121317595
-0.30221176 -0.05382585 0.012029747 0.2744773 0.2064148 0.32442543 0.06911717 0.19369079
0.06717391 0.064368494 -0.33333662 0.2897229 -0.2521982 -0.15592182 -0.19690913 0.30469605
-0.30813327 0.31226376 -0.0040354985 0.060309075 -0.22396028 -0.3449668 -0.117553264 0.060287796
0.1787411 -0.09649073 0.01664837 0.24135567 0.08974218 -0.15768985 -0.27591798 0.3589732
-0.17965364 -0.024707291 -0.24651852 -0.32377732 -0.14371553 -0.18229502 0.17134039 0.24385577
-0.016277786 0.016969379 0.15043098 0.1953957 -0.370591 0.21134861 -0.16207062 -0.35507742
0.30977765 0.05607999 0.14665301 -0.240926 -0.23544247 0.3457522 -0.3376446 -0.00073590444
-0.20635344 -0.3896643 0.29867166 -0.016290847 -0.3156514 0.033880785 0.40913907 -0.31130695
0.080052085 -0.17214355 0.17502035 -0.30206233 0.35494682 -0.02913006 -0.07821536 -0.010007666
0.07401557 0.19414987
00000000: 5d9f 24be 2570 84be 231e c53d aab6 ad3e
00000010: 5152 25be 786f 7a3e e50d 823d 1fd9 613e
00000020: e60a 9fbc e5fc c3bc 4f01 5cbe 0b13 2b3e
00000030: 72ba 303e 9f20 333e e21e 673e 5c75 f8bd
00000040: 80bb 9abe 7f78 5cbd 6a18 453c 4a88 8c3e
00000050: 675e 533e 171b a63e 4e8d 8d3d e156 463e
00000060: 7a92 893d a1d3 833d 19ab aabe 8f56 943e
00000070: 1f20 81be f8a9 1fbe 8ca2 49be 1f01 9c3e
00000080: a5c3 9dbe 09e1 9f3e 373c 84bb a606 773d
00000090: d855 65be 7d9f b0be c4bf f0bd 56f0 763d
000000a0: e807 373e ef9c c5bd 2a62 883c f125 773e
000000b0: c0ca b73d 7379 21be 1f45 8dbe 56cb b73e
000000c0: 20f7 37be f266 cabc 5a6f 7cbe 24c6 a5be
000000d0: 2a2a 13be 8cab 3abe db73 2f3e 54b5 793e
000000e0: fe58 85bc 5e03 8b3c 940a 1a3e cf15 483e
000000f0: 1bbe bdbe c56b 583e d7f5 25be b5cc b5be
00000100: 2d9b 9e3e 22b4 653d 352c 163e 4eb5 76be
00000110: d517 71be 6f06 b13e c1df acbe b6e9 40ba
00000120: 514e 53be 1482 c7be 7eeb 983e 6274 85bc
00000130: 0f9d a1be 94c6 0a3d ad7a d13e a063 9fbe
00000140: 59f2 a33d 6646 30be 8938 333e eaa7 9abe
00000150: 97bb b53e 2aa2 eebc 602f a0bd 32f7 23bc
00000160: 7a95 973d 39cf 463e

conv1.bias f4 [10]
0.01514627 0.058644097 0.13348815 -0.21281488 -0.1855427 -0.050230477 -0.15348937 0.03134359
0.054275077 -0.3191636
00000000: 1028 783c cb34 703d 1eb1 083e 25ec 59be
00000010: e8fe 3dbe 79be 4dbd 512c 1dbe 2362 003d
00000020: 8b4f 5e3d 6969 a3be

conv2.weight f4 [10, 10, 3, 3]
-0.013629455 -0.17819032 -0.06391215 -0.08322931 -0.06628137 0.046945173 0.0434421 -0.09085878
-0.099451005 -0.006251457 0.0026850034 -0.020305768 -0.07695909 0.0031075364 -0.054997858 0.024058197
0.10063551 0.016270509 0.0951705 -0.016419055 0.026452556 -0.048975583 -0.07078626 0.025789917
-0.090089224 -0.011945518 -0.073695146 -0.11774973 -0.14820871 0.03439258 0.22452967 -0.10610988
-0.0014595189 -0.14697245 0.008998993 -0.02698849 -0.08047581 -0.017563451 0.11257144 -0.01349508
-0.011682011 0.027327603 -0.07580396 -0.03650644 -0.10454576 0.08395827 0.08198369 -0.061846722
0.061530575 -0.071909435 -0.10128916 0.04931751 -0.20222072 -0.180878 0.16057003 0.08018665
0.1627424 0.026481437 0.11513862 0.17366453 -0.13221921 -0.11036774 0.043173384 -0.03509551
0.027395438 0.06592186 -0.1586931 -0.15016738 -0.14863066 0.027833302 0.08281759 -0.043389406
0.08803524 0.08741719 -0.0033036035 0.028673835 -0.086088896 0.020267429 0.06827826 0.025275229
-0.11628746 0.058280915 -0.027355168 -0.0831607 -0.104147166 0.0881517 -0.08745458 -0.14882982
0.21009614 0.0024874825 0.019663267 -0.18310969 0.040207144 0.05857486 -0.0171436 -0.101789854
0.03778421 -0.03582556 0.15155075 -0.018785127 -0.016521886 0.05270215 -0.008214831 -0.019540964
-0.086430535 0.025718318 0.031786952 0.0639332 0.055989087 0.04890685 0.07131651 -0.025582721
-0.0760813 0.075223126 -0.10292599 -0.13708484 0.09555889 -0.008195801 -0.016969377 -0.084511615
0.16794844 0.014293302 -0.058915563 0.088998094 0.13622126 -0.0015057428 -0.0020717722 0.02290526
-0.13064088 -0.043481473 -0.02692129 0.041865762 0.12212041 0.16604179 0.04231347 -0.0038886056
0.07999973 -0.08823341 -0.032199528 -0.09498958 -0.046666328 -0.04475137 -0.20638272 -0.12647517
0.016405249 -0.07261606 0.022960687 -0.06591852 -0.1125847 -0.008281985 -0.12719236 0.028046204
0.047015563 0.085512325 -0.051266674 -0.03184328 -0.043570466 0.08782881 -0.13239986 0.023689566
-0.0029614237 0.06515203 0.13181908 -0.08636175 -0.10443574 -0.019495243 0.0038893654 -0.03936088
-0.0036391923 0.15045108 0.045281142 -0.11249594 -0.09676226 -0.123746224 0.018444836 -0.14115277
-0.05610375 0.04072853 -0.09659764 -0.14884482 -0.056017034 0.03563324 0.08219416 0.019428398
0.016721658 -0.09439226 0.080164485 0.06450833 0.03336505 0.070198394 -0.10541162 -0.06660287
-0.021443386 0.11239606 0.057185665 0.00025098026 -0.0047178445 0.027855225 0.037734874 -0.084476046
0.112072416 -0.018155603 -0.13358326 0.05043734 -0.07178126 0.09471249 0.074278764 -0.026188806
0.1331838 0.18626277 0.052356966 0.12882352 0.1572203 0.22153755 0.11876273 0.061942607
-0.1342753 0.00884448 -0.108424015 -0.09451259 -0.15155286 -0.042715814 -0.091977715 -0.091009095
-0.0059045376 0.07370066 0.09614881 0.02525279 0.04172861 0.08133205 -0.09276219 0.06734253
0.10341225 0.089472674 -0.03632409 -0.0947615 0.07176509 -0.042009838 -0.13075525 -0.043250266
0.07173335 -0.061613347 0.14424604 0.13462636 0.013920077 0.12517683 0.07126097 -0.012443594
-0.10594788 0.073467046 -0.08235268 -0.07835496 0.17390406 -0.07753639 -0.09792402 0.13545978
00000000: 144e 5fbc 8677 36be 60e4 82bd 2174 aabd
00000010: 87be 87bd 9549 403d 58f0 313d 2b14 babd
00000020: f8ac cbbd 06d9 ccbb e2f6 2f3b 4858 a6bc
00000030: ba9c 9dbd cfa7 4b3b 6f45 61bd b215 c53c
00000040: fe19 ce3d bb49 853c c0e8 c23d 4181 86bc
00000050: 08b3 d83c 9f9a 48bd 63f8 90bd 6045 d33c
00000060: b380 b8bd 22b7 43bc 7bed 96bd c526 f1bd
00000070: 06c4 17be 3cdf 0c3d 1beb 653e 2350 d9bd
00000080: 544d bfba f27f 16be 8370 133c f716 ddbc
00000090: 80d0 a4bd 3ae1 8fbc db8b e63d 781a 5dbc
000000a0: e865 3fbc 23de df3c 1b3f 9bbd c787 15bd
000000b0: 161c d6bd 50f2 ab3d 11e7 a73d fd52 7dbd
000000c0: 7c07 7c3d 4145 93bd b170 cfbd 2801 4a3d
000000d0: f312 4fbe 1538 39be 786c 243e e638 a43d
000000e0: f2a5 263e 99ef d83c cccd eb3d 1dd5 313e
000000f0: 7964 07be 7b08 e2bd 93d6 303d 4fc0 0fbd
00000100: 666c e03c 0a02 873d 7280 22be 7ac5 19be
00000110: a332 18be aa02 e43c 459c a93d 17b9 31bd
00000120: d24b b43d c907 b33d 4581 58bb 64e5 ea3c
00000130: 604f b0bd e107 a63c 79d5 8b3d ff0d cf3c
00000140: 1f28 eebd f8b7 6e3d f217 e0bc 2850 aabd
00000150: 1c4b d5bd e188 b43d 631b b3bd d866 18be
00000160: 7123 573e 0805 233b dc14 a13c 1b81 3bbe
00000170: 3fb0 243d 31ec 6f3d bc70 8cbc 3377 d0bd
00000180: 9ec3 1a3d d3bd 12bd 1f30 1b3e 44e3 99bc
00000190: e858 87bc 36de 573d 8097 06bc 5f14 a0bc
000001a0: 7e02 b1bd 39af d23c 0933 023d 69ef 823d
000001b0: d054 653d 8d52 483d 640e 923d db92 d1bc
000001c0: 83d0 9bbd 950e 9a3d ddca d2bd f85f 0cbe
000001d0: 61b4 c33d ae47 06bc 5d03 8bbc 6d14 adbd
000001e0: adfa 2b3e 742e 6a3c 7251 71bd a244 b63d
000001f0: 967d 0b3e 585c c5ba 92c6 07bb d0a3 bb3c
00000200: b9c6 05be a119 32bd 0a8a dcbc 6f7b 2b3d
00000210: 441a fa3d dc06 2a3e e450 2d3d fad7 7ebb
00000220: e6d6 a33d b8b3 b4bd a7e3 03bd e689 c2bd
00000230: 3125 3fbd 364d 37bd fe55 53be b582 01be
00000240: 4d64 863c bbb7 94bd 0d18 bc3c 4a00 87bd
00000250: cf92 e6bd 2ab1 07bc b73e 02be 27c1 e53c
00000260: 6493 403d 1621 af3d 01fd 51bd 196e 02bd
00000270: f276 32bd 97df b33d d493 07be 9f10 c23c
00000280: 7214 42bb 6d6e 853d 95fb 063e 6ede b0bd
00000290: 68e2 d5bd 7db4 9fbc b9e4 7e3b e038 21bd
000002a0: 847f 6ebb d90f 1a3e b878 393d 4564 e6bd
000002b0: 4b2b c6bd a96e fdbd a019 973c 5a8a 10be
000002c0: 0ccd 65bd f6d2 263d fcd4 c5bd c76a 18be
000002d0: 1e72 65bd 29f4 113d 6955 a83d 4e28 9f3c
000002e0: dcfb 883c bb50 c1bd 472d a43d f11c 843d
000002f0: caa9 083d 2dc4 8f3d 0ce2 d7bd 1667 88bd
00000300: 0aaa afbc e82f e63d 843b 6a3d 0096 8339
00000310: 2698 9abb a430 e43c e28f 1a3d c701 adbd
00000320: 3986 e53d 0fbb 94bc 0dca 08be 6297 4e3d
00000330: 0e02 93bd 9ff8 c13d 771f 983d e889 d6bc
00000340: 5661 083e abbb 3e3e 4274 563d 50ea 033e
00000350: 5cfe 203e bdda 623e e039 f33d 88b7 7d3d
00000360: 777f 09be 70e8 103c 690d debd d18f c1bd
00000370: ac30 1bbe c7f6 2ebd d05e bcbd fa62 babd
00000380: da7a c1bb 5ff0 963d abe9 c43d f0de ce3c
00000390: 9eeb 2a3d 6b91 a63d 1afa bdbd e1ea 893d
000003a0: cdc9 d33d 733d b73d 92c8 14bd 5112 c2bd
000003b0: 93f9 923d 8212 2cbd b4e4 05be 3127 31bd
000003c0: efe8 923d 475e 7cbd 3cb5 133e 7edb 093e
000003d0: 0911 643c 5b2e 003e 45f1 913d 37e0 4bbc
000003e0: 34fb d8bd e475 963d 86a8 a8bd 9178 a0bd
000003f0: e813 323e 66cb 9ebd 638c c8bd f8b5 0a3e

conv2.bias f4 [10]
0.084439814 0.064417586 -0.060570493 -0.022120873 -0.10475905 -0.08664819 0.0064675054 -0.095909685
-0.023534589 0.0025553564
00000000: c8ee ac3d 5eed 833d c418 78bd d536 b5bc
00000010: ea8b d6bd 9b74 b1bd 5eed d33b 4c6c c4bd
00000020: 9ccb c0bc c477 273b

conv3.weight f4 [10, 10, 3, 3]
0.09553865 0.14863633 0.10561746 -0.033182867 -0.06636447 0.026607031 -0.09001149 0.059845712
-0.09632672 0.08823346 0.106455944 -0.016177045 -0.119115576 0.09607324 -0.027368415 -0.029055277
0.023567064 -0.0029739104 -0.07479923 0.081562646 0.06787074 0.13350809 0.023147555 -0.06831482
0.013800107 0.03812472 -0.04351144 -0.09438003 -0.04635125 0.009493982 -0.1641128 -0.11411959
0.14118032 0.12459003 0.054952625 0.03374943 0.09985605 -0.093111604 0.014347136 -0.03669268
0.10784341 0.066105776 -0.07831195 -0.14240989 0.10176166 -0.103528835 0.06480872 0.14163183
-0.09722264 -0.09592506 0.048353318 -0.065163106 -0.016092148 -0.041143995 0.040902194 -0.09158701
-0.04073742 -0.03684687 -0.06613177 0.11944132 -0.048660576 -0.0298748 0.0910911 -0.04296662
-0.028440999 -0.03348703 0.010743562 -0.03989207 0.054102857 -0.07017175 -0.008473766 0.003345446
0.11762786 -0.047803394 0.013107888 0.044425562 0.05876438 -0.0007612445 0.051071078 -0.03989524
-0.12100549 -0.046983644 -0.055316284 -0.13571925 -0.09830446 0.09338657 0.03760389 0.030264588
0.07532284 -0.030106537 -0.10700186 -0.14356528 0.09051881 0.13953933 -0.020624511 0.06494677
0.042394955 -0.014045566 -0.11727927 -0.066281505 0.12855555 0.110007495 0.05067632 0.019475298
-0.031378414 -0.03491629 -0.02663825 0.009880677 0.073419936 0.13353132 0.032781743 -0.09101751
-0.09336776 -0.124572024 -0.1236579 -0.16301985 -0.12561606 0.07042887 -0.0014488357 0.06034839
0.087004855 -0.0957802 0.0073854434 -0.026251674 -0.17712884 0.025034504 -0.10137741 0.047855526
-0.09123767 -0.0640674 -0.01168684 -0.05507986 0.087536804 0.074135944 0.15515947 -0.14127062
-0.09368733 -0.04808815 -0.04048853 0.045814503 0.062011246 0.10399655 -0.09376906 -0.1580566
-0.036964174 0.007878747 0.13128628 -0.027189666 0.071075335 0.046439644 0.111372866 -0.06450734
0.044866066 -0.014800864 -0.004194315 -0.12830697 -0.020158965 -0.03193421 -0.067912705 -0.030126048
0.05399756 0.045851298 -0.04559124 0.052576553 0.091492854 -0.024309985 0.014246645 0.023519175
0.10381613 0.063266665 -0.05604362 0.048690934 -0.014112772 0.13308512 0.06719476 0.07261029
0.015063144 0.042435292 -0.062809266 0.059095316 -0.117791995 -0.039254412 -0.1088403 0.029012188
0.0042165606 -0.12523383 -0.0473919 -0.08580356 -9.347828e-05 -0.011746634 -0.12890147 0.1325082
-0.09928239 -0.13023295 -0.03038109 0.030586476 -0.006153454 0.009386624 -0.059098624 -0.08434156
-0.025367051 -0.06971673 -0.097709045 -0.0034411394 0.013562591 0.022252398 0.062118392 -0.062725775
-0.020003803 0.03923729 0.012173259 0.050763868 -0.025814338 -0.07262389 -0.1312799 -0.032064807
-0.075223476 0.061868988 -0.012526966 0.040326294 0.007067515 -0.13026747 -0.051093645 -0.052920505
-0.07038663 -0.0050616562 0.043420322 -0.094358936 0.081921704 0.094037764 0.04543174 0.09599533
0.047473542 0.050553195 -0.13016632 -0.04916143 -0.06352417 -0.07284932 -0.05755762 0.059853878
0.06072496 0.044187613 -0.086753465 -0.09445749 -0.11442231 0.1299302 -0.020411514 -0.042953525
0.045180656 -0.079123884 0.07369467 0.050674625 0.059517287 -0.12652035 0.013418886 0.046613816
00000000: c5a9 c33d 1f34 183e f84d d83d c2ea 07bd
00000010: 18ea 87bd fdf6 d93c f257 b8bd c720 753d
00000020: f246 c5bd bfb3 b43d 9305 da3d b985 84bc
00000030: def2 f3bd 0cc2 c43d ba33 e0bc 5505 eebc
00000040: b70f c13c f0e5 42bb 5730 99bd 510a a73d
00000050: d1ff 8a3d 58b6 083e f19f bd3c a4e8 8bbd
00000060: d819 623c ab28 1c3d 0d39 32bd 514a c1bd
00000070: cfda 3dbd a68c 1b3c 300d 28be 88b7 e9bd
00000080: 9391 103e 0f29 ff3d 0116 613d d83c 0a3d
00000090: 5481 cc3d 4cb1 bebd 4010 6b3c 104b 16bd
000000a0: 01dd dc3d 7762 873d 0462 a0bd e6d3 11be
000000b0: 6b68 d03d ed06 d4bd 6fba 843d ef07 113e
000000c0: aa1c c7bd 5c74 c4bd 210e 463d 3c74 85bd
000000d0: aed3 83bc 9b86 28bd 0f89 273d f891 bbbd
000000e0: 48dc 26bd beec 16bd 1870 87bd a79d f43d
000000f0: 5050 47bd ffbb f4bc f88d ba3d c4fd 2fbd
00000100: 19fd e8bc b229 09bd c405 303c de65 23bd
00000110: f59a 5d3d 35b6 8fbd 8dd5 0abc 453f 5b3b
00000120: e0e6 f03d 7ecd 43bd 78c2 563c 94f7 353d
00000130: ebb2 703d 418e 47ba e82f 513d 3169 23bd
00000140: bad1 f7bd ec71 40bd 5493 62bd fdf9 0abe
00000150: d953 c9bd 7541 bf3d 8906 1a3d 71ed f73c
00000160: dc42 9a3d fca1 f6bc cb23 dbbd c702 13be
00000170: ed61 b93d 66e3 0e3e bcf4 a8bc d002 853d
00000180: 55a6 2d3d 601f 66bc 1d30 f0bd 99be 87bd
00000190: 11a4 033e 9c4b e13d f991 4f3d a98a 9f3c
000001a0: a786 00bd 6204 0fbd 7638 dabc 90e2 213c
000001b0: 315d 963d 6fbc 083e 2646 063d 6367 babd
000001c0: 9937 bfbd 9e1f ffbd 5a40 fdbd adee 26be
000001d0: 7fa1 00be 033d 903d dce6 bdba e02f 773d
000001e0: 9a2f b23d 6928 c4bd 9701 f23b c00d d7bc
000001f0: 4361 35be 2915 cd3c f69e cfbd 2804 443d
00000200: d1da babd c535 83bd 297a 3fbc 6b9b 61bd
00000210: 7f46 b33d 96d4 973d 20e2 1e3e 3fa9 10be
00000220: 25df bfbd 14f8 44bd 4dd7 25bd fda7 3b3d
00000230: 81ff 7d3d 25fc d43d fe09 c0bd 97d9 21be
00000240: bf67 17bd dc15 013c e96f 063e ddbc debc
00000250: f28f 913d 7f37 3e3d 7517 e43d 6d1c 84bd
00000260: 7bc5 373d 537f 72bc 7770 89bb e762 03be
00000270: 6a24 a5bc 72cd 02bd d115 8bbd e7ca f6bc
00000280: 8c2c 5d3d 92ce 3b3d e1bd 3abd 835a 573d
00000290: 9b60 bb3d bc25 c7bc c36a 693c 49ab c03c
000002a0: 8d9d d43d f491 813d ff8d 65bd 2570 473d
000002b0: 4239 67bc 7747 083e 689d 893d b4b4 943d
000002c0: 68cb 763c a1d0 2d3d 25a2 80bd ee0d 723d
000002d0: ee3c f1bd 3cc9 20bd aae7 debd f8aa ed3c
000002e0: 132b 8a3b 4c3d 00be 021e 42bd c7b9 afbd
000002f0: c509 c4b8 f474 40bc bffe 03be 3bb0 073e
00000300: 9154 cbbd c95b 05be c3e1 f8bc 7d90 fa3c
00000310: eaa2 c9bb 5bca 193c 6611 72bd 45bb acbd
00000320: 90ce cfbc a5c7 8ebd ae1b c8bd bd84 61bb
00000330: a135 5e3c a94a b63c db6f 7e3d 5f76 80bd
00000340: 04df a3bc 48b7 203d 5972 473c c6ed 4f3d
00000350: 9778 d3bc d6bb 94bd 3d6e 06be 6356 03bd
00000360: c40e 9abd 566a 7d3d e73d 4dbc 2f2d 253d
00000370: 9d96 e73b d664 05be 9247 51bd 2cc3 58bd
00000380: de26 90bd 40dc a5bb 82d9 313d 423f c1bd
00000390: 91c6 a73d df96 c03d a216 3a3d 3399 c43d
000003a0: 9e73 423d de10 4f3d 524a 05be 7f5d 49bd
000003b0: f618 82bd 0632 95bd 8ac1 6bbd 5729 753d
000003c0: bcba 783d 12fe 343d cdab b1bd ee72 c1bd
000003d0: 3e56 eabd 6c0c 053e 0c36 a7bc 09f0 2fbd
000003e0: 5a0f 393d b40b a2bd 3bed 963d 3290 4f3d
000003f0: 66c8 733d 8d8e 01be e3da 5b3c 21ee 3e3d

conv3.bias f4 [10]
0.11606569 0.10779023 -0.13854133 -0.10848147 -0.091831945 -0.021164216 0.18104668 -0.03432481
-0.069096096 -0.044844195
00000000: d9b3 ed3d 20c1 dc3d c7dd 0dbe 882b debd
00000010: 6312 bcbd 9460 adbc 4d64 393e 2c98 0cbd
00000020: 4182 8dbd 8cae 37bd

conv4.weight f4 [10, 10, 3, 3]
0.08163853 -0.0041400804 0.060750958 -0.11377111 -0.09937674 0.06625227 0.021482404 0.029066283
-0.016505085 0.035104375 0.018651064 0.1069227 0.026228392 0.07772741 0.068483755 0.060993586
-0.013771294 -0.10689417 0.0631854 0.063391194 0.06279251 -0.13367198 -0.0742039 0.11713677
0.02691618 0.022812475 0.025721515 -0.00061056437 0.053125225 -0.13694905 0.0758162 -0.011569074
0.10808092 -0.058596753 0.12095029 0.03110175 0.003351158 -0.053790055 -0.026076332 0.11361415
-0.05172826 0.07507426 -0.05096433 0.022402778 0.057607733 -0.08416037 0.06266561 -0.024166916
0.06960019 0.18198486 0.107944526 0.023980385 -0.08346825 -0.09327748 0.035078205 0.032283463
0.042993914 0.007016346 -0.12188265 -0.10002357 -0.12077174 -0.015835827 0.061572798 0.044790495
-0.008126973 0.060826376 -0.076169424 -0.105718754 -0.10275821 0.015720693 -0.0032977262 -0.09740893
-0.028026553 -0.050149985 0.002862427 -0.030531846 -0.040929828 0.06584361 0.042694934 -0.07781226
-0.07595773 0.056444306 -0.006204434 -0.05941721 -0.0065956796 -0.03250757 -0.09316372 0.030081274
-0.06519327 0.024987048 -0.026342733 0.042288367 0.14312574 0.028752279 0.031145189 0.03227717
-0.044904437 -0.13429731 -0.14852251 -0.07692451 -0.015229068 -0.0690033 0.077941716 -0.08688523
-0.056134608 0.051337037 0.10796082 0.03510776 -0.07283029 0.05817339 0.008328902 0.024281498
-0.06232805 -0.03189287 0.0910361 -0.03210645 0.12397688 0.077859044 -0.060067054 -0.12283079
0.013039761 -0.021264477 0.032442946 0.03088928 0.021829523 0.065911114 0.018272582 -0.032674786
0.025729543 -0.014162238 -0.08954132 -0.046650507 0.0703293 0.0351469 -0.039395582 -0.043691665
-0.053297944 0.08291452 0.15008776 0.0010121563 -0.015874557 0.1926947 0.098945975 0.12249623
-0.023376014 -0.018156081 -0.10593625 0.14911945 0.15040219 -0.04852408 0.034427166 -0.15698916
-0.07978624 -0.09160751 -0.012762459 -0.07851974 -0.114781216 -0.03767231 -0.048289705 0.10417229
0.036214564 -0.010173902 -0.07358426 0.06795675 0.05496779 -0.052005515 0.1180774 0.05538045
-0.038847752 -0.028609306 -0.0496659 -0.022198163 -0.13569228 -0.061366275 -0.03224251 0.08221836
-0.035391495 0.09228021 0.052243255 0.06643144 -0.040526316 0.118386626 0.035469588 0.0423784
0.0734731 0.1184539 0.12879907 -0.1785415 -0.12711397 -0.077819645 0.08567207 -0.06889379
0.041457396 0.055851106 -0.025384506 -0.011578399 -0.02785038 0.13509656 -0.0023585428 0.045297015
-0.039573733 0.006380693 -0.01514647 0.04568615 -0.13141407 0.09408587 0.09531785 -0.015044391
-0.008615545 0.065256864 0.0032344589 -0.079373375 -0.039184775 0.018880824 0.08508803 -0.01759724
0.061786715 -0.0172574 -0.053035486 -0.10170044 -0.04766449 -0.07609988 -0.055427264 0.07921319
0.13083248 0.027677944 0.0583586 -0.11557499 0.0555648 -0.103371814 -0.12163891 0.14205839
0.06082636 -0.14598423 -0.0024930341 0.021266649 -0.04510757 -0.02499265 0.04331269 -0.038266715
-0.068359494 0.06917979 -0.115187235 -0.08788647 -0.08886706 0.065013684 0.018255116 -0.13704409
-0.13699651 -0.02365239 -0.08213267 -0.045091964 0.12127956 0.047613584 0.15643907 -0.019986635
00000000: 1a32 a73d 83a9 87bb ffd5 783d d400 e9bd
00000010: 0886 cbbd 45af 873d defb af3c 6a1c ee3c
00000020: ac35 87bc 9bc9 0f3d 1eca 983c 4afa da3d
00000030: eddc d63c 8c2f 9f3d 3641 8c3d 69d4 793d
00000040: fea0 61bc 55eb dabd 5967 813d 3ed3 813d
00000050: 5c99 803d 4fe1 08be 37f8 97bd 67e5 ef3d
00000060: 527f dc3c 3ae1 ba3c edb5 d23c 480e 20ba
00000070: d699 593d 5f3c 0cbe 8645 9b3d 378c 3dbc
00000080: 8859 dd3d 2603 70bd c9b4 f73d 19c9 fe3c
00000090: 1a9f 5b3b f652 5cbd 089e d5bc 89ae e83d
000000a0: 03e1 53bd 89c0 993d f9bf 50bd 0886 b73c
000000b0: 16f6 6b3d 465c acbd d456 803d b2f9 c5bc
000000c0: 8b8a 8e3d 3d5a 3a3e 0512 dd3d 8372 c43c
000000d0: 67f1 aabd 4308 bfbd 2aae 0f3d aa3b 043d
000000e0: 631a 303d 60e9 e53b 9c9d f9bd 28d9 ccbd
000000f0: 2d57 f7bd 23ba 81bc c233 7c3d 3d76 373d
00000100: ff26 05bc 1425 793d b7fe 9bbd 1383 d8bd
00000110: e572 d2bd afc8 803c aa1e 58bb 557e c7bd
00000120: f197 e5bc 126a 4dbd 8e97 3b3b ec1d fabc
00000130: 09a6 27bd 04d9 863d e2e0 2e3d 095c 9fbd
00000140: ba8f 9bbd 2532 673d 914e cbbb 765f 73bd
00000150: 9220 d8bb a826 05bd 9fcc bebd 016d f63c
00000160: 0d84 85bd a3b1 cc3c b7cc d7bc 9136 2d3d
00000170: 8e8f 123e e689 eb3c 3224 ff3c 1135 043d
00000180: b7ed 37bd 3c85 09be 4916 18be 998a 9dbd
00000190: 5783 79bc 9a51 8dbd e89f 9f3d e2f0 b1bd
000001a0: 67ed 65bd c946 523d 901a dd3d 28cd 0f3d
000001b0: 0c28 95bd 3847 6e3d f275 083c fee9 c63c
000001c0: b34b 7fbd 19a2 02bd 2371 ba3d 0e82 03bd
000001d0: 97e7 fd3d 9074 9f3d df08 76bd b68e fbbd
000001e0: b9a4 553c d732 aebc e5e2 043d 840b fd3c
000001f0: d4d3 b23c 68fc 863d 62b0 953c ffd5 05bd
00000200: c3c6 d23c bb08 68bc 7161 b7bd 9a14 3fbd
00000210: cf08 903d 32f6 0f3d 435d 21bd 08f6 32bd
00000220: f24e 5abd 16cf a93d 9bb0 193e 54aa 843a
00000230: 5c0b 82bc c251 453e 30a4 ca3d 4edf fa3d
00000240: 0e7f bfbc 10bc 94bc 1bf5 d8bd c5b2 183e
00000250: 0803 1a3e 30c1 46bd 8003 0d3d c4c1 20be
00000260: f866 a3bd b89c bbbd a219 51bc f5ce a0bd
00000270: 6a12 ebbd 484e 1abd 6dcb 45bd 4858 d53d
00000280: b955 143d 70b0 26bc 58b3 96bd e92c 8b3d
00000290: e825 613d bc03 55bd 90d2 f13d 9cd6 623d
000002a0: d21e 1fbd 105e eabc 796e 4bbd ecd8 b5bc
000002b0: ebf2 0abe 345b 7bbd b910 04bd 1962 a83d
000002c0: acf6 10bd 68fd bc3d 06fd 553d 350d 883d
000002d0: ecfe 25bd b074 f23d 8f48 113d f994 2d3d
000002e0: 1179 963d f597 f23d e7e3 033e 95d3 36be
000002f0: 2a2a 02be e85f 9fbd d774 af3d 3018 8dbd
00000300: 3bcf 293d 21c4 643d 2bf3 cfbc 53b3 3dbc
00000310: 7b26 e4bc c156 0a3e c891 1abb 5d89 393d
00000320: 1118 22bd 2215 d13b e628 78bc 6721 3b3d
00000330: 6991 06be 18b0 c03d 0136 c33d c07c 76bc
00000340: 3728 0dbc 64a5 853d 37f9 533b 828e a2bd
00000350: 3780 20bd f5ab 9a3c a242 ae3d 1628 90bc
00000360: 1114 7d3d 645f 8dbc bd3b 59bd 5248 d0bd
00000370: d73b 43bd 41da 9bbd b307 63bd 863a a23d
00000380: f3f8 053e dbbc e23c 6d09 6f3d 95b2 ecbd
00000390: ea97 633d 9ab4 d3bd d21d f9bd c177 113e
000003a0: 1025 793d e47c 15be 2c62 23bb 6537 ae3c
000003b0: b7c2 38bd 63bd ccbc a668 313d 8fbd 1cbd
000003c0: 1000 8cbd 22ae 8d3d 49e7 ebbd d2fd b3bd
000003d0: efff b5bd e525 853d c18b 953c 4955 0cbe
000003e0: d048 0cbe a8c2 c1bc 2c35 a8bd 5ab2 38bd
000003f0: 6b61 f83d 7606 433d 9031 203e 03bb a3bc

conv4.bias f4 [10]
-0.04310877 -0.031555153 0.11056283 0.10948348 -0.15154397 0.061572768 0.049543362 0.09707271
0.03357492 -0.096055456
00000000: d292 30bd fa3f 01bd c46e e23d e038 e03d
00000010: 582e 1bbe ba33 7c3d fbed 4a3d 0fce c63d
00000020: db85 093d b9b8 c4bd

norm.weight f4 [10]
1.1168969 1.0696701 0.9649391 1.0736705 1.0980299 1.0950127 1.0922738 1.0871797
1.1007798 1.0577024
00000000: 7af6 8e3f f3ea 883f 4006 773f 096e 893f
00000010: 3e8c 8c3f 6029 8c3f a1cf 8b3f b428 8b3f
00000020: 5ae6 8c3f cb62 873f

norm.bias f4 [10]
-0.11346802 -0.118820235 -0.12250807 -0.11359567 -0.098302506 -0.0496635 -0.16162801 -0.19323127
-0.0822304 -0.07582445
00000000: ec61 e8bd 0658 f3bd 83e5 fabd d9a4 e8bd
00000010: d352 c9bd f46b 4bbd d081 25be 6bde 45be
00000020: 6968 a8bd d949 9bbd

norm.running_mean f4 [10]
-0.07470775 -0.08301468 0.07193941 -0.033592656 -0.072386645 0.017419323 -0.008198845 0.09181888
-0.13791353 0.07299602
00000000: 6000 99bd 9a03 aabd f854 933d 7498 09bd
00000010: 733f 94bd f8b2 8e3c 7354 06bc 890b bc3d
00000020: 3439 0dbe f07e 953d

norm.running_var f4 [10]
0.0017592517 0.0020697825 0.0011407806 0.0017187605 0.0021122436 0.0015295644 0.001676232 0.0019862019
0.0030892268 0.0031268862
00000000: b196 e63a 30a5 073b 3f86 953a 0848 e13a
00000010: 916d 0a3b aa7b c83a 03b5 db3a f02a 023b
00000020: a074 4a3b 72ec 4c3b

fc1.weight f4 [50, 810]
-0.051919628 0.012061757 -0.0036125712 -0.028109983 -0.03286475 -0.00046685073 -0.06761343 -0.03142969
0.0018624578 -0.061517995 -0.0018006428 -0.01614296 -0.021945415 0.009167339 0.0070644193 -0.04697176
-0.04005961 0.02060243 0.028960792 -0.075341836 -0.028467793 -0.0033696233 -0.041216467 0.0417918
-0.026358763 -0.038752478 -0.029396974 -0.035528466 0.057805687 -0.0024515814 -0.03678913 -0.018702893
0.016175946 -0.06126558 0.019344985 -0.01783073 0.056145813 0.016406108 0.007630211 -0.054711044
-0.019255012 -0.0045135403 0.044700067 -0.020145115 0.013213909 0.066658616 -0.014799762 -0.0045149657
0.011981531 -0.055827238 0.04219494 0.013510585 -0.019525409 -0.054292824 -0.018673977 -0.0018657515
-0.015108894 -0.015780302 0.034608334 -0.00011819263 -0.0262452 0.027313488 -0.046094093 -0.00019973531
-0.052465577 -0.04349789 -0.049984023 -0.04620396 -0.03540312 -0.00860649 -0.016828006 -0.039358165
-0.014318052 -0.05803482 -0.0076356092 -0.038766462 -0.0051914244 -0.0474454 -0.009353267 -0.008750178
-0.03014746 0.0015128258 -0.035053242 0.00857453 -0.019628443 0.0070776367 0.03700413 -0.011320751
-0.03663068 -0.01913398 -0.046736974 -0.03813739 -0.05090681 -0.001524369 0.03350735 -0.022807602
-0.03524989 -0.044493333 -0.022786817 -0.040083252 -0.047371194 -0.023264892 -0.016548656 0.049346827
-0.029867023 0.01983079 -0.018057179 -0.016457135 0.0039473455 -0.005938258 -0.044227637 -0.029900683
0.05892975 0.07312736 -0.03408978 0.02179033 -0.043798484 -0.0043583624 0.0075475043 0.048098724
0.06970891 0.06835532 -0.020698732 0.053981364 -0.0031396928 -0.029481508 0.0025523335 0.03553883
0.06105004 -0.028636266 0.030115474 0.0077579613 0.017871518 -0.008308294 -0.04007668 -0.042145047
0.00044078325 -0.0065068244 -0.042507023 0.05614908 0.047154095 0.031595454 -0.028887775 0.04801226
0.0013645649 -0.046487655 0.02510831 -0.035705335 -0.0045042858 0.055495292 -0.0104633095 -0.05275401
-0.002761462 0.019873515 -0.0026161287 -0.04497361 -0.0028741476 -0.015117893 0.0010539113 -0.04858952
0.00092971575 -0.013811511 0.0033155226 0.008249131 -0.07368699 -0.013815667 0.00092992483 -0.0200355
-0.0187268 -0.042679004 -0.058115885 0.023307938 -0.0029206204 0.009434595 -0.056387816 -0.0024084211
0.01577904 -0.04024963 -0.021379096 -0.004080033 0.029157164 -0.0039002926 0.07330355 0.002583473
-0.037910137 -0.03748394 -0.046849664 -0.00096839486 -0.029964449 -0.03267544 -0.017536731 -0.024260726
-0.0138509935 -0.03144371 -0.046460886 -0.05956736 0.013643363 0.007066071 -0.045162927 0.011783031
-0.024626762 -0.004067033 0.007318319 0.06290172 -0.027435673 -0.024853785 -0.05311572 -0.015038207
0.030248962 -0.022575665 -0.015179617 -0.042479474 -0.04532821 -0.0072631496 -0.004167174 -0.066208914
0.026702946 -0.02201717 -0.04309134 0.075986505 0.011974559 -0.004353016 -0.00175282 -0.009740672
-0.023045337 0.024121916 -0.051265016 0.008013456 -0.02582198 -0.0011463104 -0.0029403493 -0.02147904
0.035098534 -0.041729618 -0.039982226 0.064802065 -0.04351376 -0.027348513 -0.009037886 -0.0119177895
0.0186389 0.0046265195 -0.03741258 -0.05953903 -0.03505861 -0.012414584 -0.025596377 0.0011763056
0.0046199374 -0.059962396 0.022825986 -0.057848603 -0.0016508676 -0.006915116 -0.044981707 -0.00044485118
00000000: ada9 54bd ad9e 453c e3c0 6cbb e846 e6bc
00000010: 309d 06bd a5c3 f4b9 e978 8abd 6bbc 00bd
00000020: b71d f43a 4bfa 7bbd 8c03 ecba 3e3e 84bc
00000030: dfc6 b3bc 9b32 163c a57c e73b 7665 40bd
00000040: 8c15 24bd 6dc6 a83c 2f3f ed3c d24c 9abd
00000050: 4a35 e9bc e6d4 5cbb 99d2 28bd e12d 2b3d
00000060: 55ee d7bc ebba 1ebd ecd1 f0bc 4c86 11bd
00000070: a8c5 6c3d b6aa 20bb 33b0 16bd cf36 99bc
00000080: 6b83 843c 9ef1 7abd 6079 9e3c c011 92bc
00000090: 27f9 653d 1a66 863c d906 fa3b b018 60bd
000000a0: b0bc 9dbc 52e6 93bb 6b17 373d 5e07 a5bc
000000b0: 277f 583c 5084 883d b37a 72bc 47f2 93bb
000000c0: 2f4e 443c 1aab 64bd 9ad4 2c3d 805b 5d3c
000000d0: c0f3 9fbc 2762 5ebd 2bfa 98bc 3b8c f4ba
000000e0: 4b8b 77bc b145 81bc 78c1 0d3d 2fde f7b8
000000f0: 2c00 d7bc 89c0 df3c 29cd 3cbd 0a70 51b9
00000100: 25e6 56bd d82a 32bd 0cbc 4cbd 5d40 3dbd
00000110: dd02 11bd 3c02 0dbc e3da 89bc 0736 21bd
00000120: 4396 6abc ebb5 6dbd 2234 fabb 95c9 1ebd
00000130: d31c aabb 1c56 42bd 723e 19bc e85c 0fbc
00000140: cef7 f6bc 034a c63a fd93 0fbd 2f7c 0c3c
00000150: d4cb a0bc 85eb e73b a591 173d ac7a 39bc
00000160: 0d0a 16bd ddbe 9cbc 456f 3fbd f435 1cbd
00000170: a983 50bd 56cd c7ba 013f 093d 02d7 babc
00000180: 3062 10bd a43e 36bd 6bab babc 562e 24bd
00000190: 4c08 42bd 0496 bebc 0c91 87bc e61f 4a3d
000001a0: b0ab f4bc 2e74 a23c a6ec 93bc 1dd1 86bc
000001b0: bc58 813b b895 c2bb 0a28 35bd 47f2 f4bc
000001c0: 5260 713d ccc3 953d baa1 0bbd a281 b23c
000001d0: 0a66 33bd 98d0 8ebb 0e51 f73b 2b03 453d
000001e0: 8cc3 8e3d e0fd 8b3d 6390 a9bc 901b 5d3d
000001f0: 4ec3 4dbb 3483 f1bc 0d45 273b 2a91 113d
00000200: 9b0f 7a3d 9a96 eabc bab4 f63c 7f36 fe3b
00000210: 4a67 923c 831f 08bc 7227 24bd 49a0 2cbd
00000220: ed18 e739 3337 d5bb d81b 2ebd 94fc 653d
00000230: a724 413d 3c6a 013d 0ea6 ecbc 81a8 443d
00000240: 33db b23a d769 3ebd f1af cd3c c23f 12bd
00000250: b098 93bb 084f 633d 4d6e 2bbc 9714 58bd
00000260: a5f9 34bb c8cd a23c 5b73 2bbb 4036 38bd
00000270: 325c 3cbb 0ab1 77bc 6523 8a3a ce05 47bd
00000280: 2bb8 733a ad49 62bc 3d49 593b 5d27 073c
00000290: 34e9 96bd 1b5b 62bc 33c6 733a 7d21 a4bc
000002a0: f268 99bc 2ed0 2ebd ec0a 6ebd 4af0 be3c
000002b0: e167 3fbb 8f93 1a3c e9f6 66bd 9ad6 1dbb
000002c0: 0c43 813c ccdc 24bd 3723 afbc ccb1 85bb
000002d0: 01db ee3c 0d9c 7fbb 2c20 963d 7c4f 293b
000002e0: a947 1bbd c388 19bd 6fe5 3fbd e1db 7dba
000002f0: 0178 f5bc afd6 05bd 31a9 8fbc 6ebe c6bc
00000300: 47ef 62bc 1fcb 00bd c54d 3ebd e7fc 73bd
00000310: 6988 5f3c 808a e73b c3fc 38bd 9d0d 413c
00000320: 10be c9bc bf44 85bb 82ce ef3b 9ed2 803d
00000330: c7c0 e0bc 2a9a cbbc df8f 59bd d062 76bc
00000340: accc f73c 9af0 b8bc eeb3 78bc f5fe 2dbd
00000350: 13aa 39bd b7ff edbb ca8c 88bb 8a98 87bd
00000360: 23c0 da3c 5a5d b4bc 8c80 30bd d09e 9b3d
00000370: f130 443c bfa3 8ebb e1be e5ba 5797 1fbc
00000380: 93c9 bcbc 539b c53c 44fb 51bd df4a 033c
00000390: 9e88 d3bc cb3f 96ba e0b2 40bb d0f4 afbc
000003a0: 7bc3 0f3d adec 2abd 67c4 23bd f2b6 843d
000003b0: 7c3b 32bd fd09 e0bc a413 14bc d542 43bc
000003c0: 9bb0 983c 0f9a 973b ef3d 19bd 33df 73bd
000003d0: 9e99 0fbd 8a66 4bbc 7eaf d1bc 442e 9a3a
000003e0: d862 973b 219b 75bd 90fd ba3c a8f2 6cbd
000003f0: ed61 d8ba 3398 e2bb bd3e 38bd ea3a e9b9

fc1.bias f4 [50]
-0.0301051 -0.04418381 -0.004716545 -0.0062160636 -0.012109677 -0.011074685 0.050447084 0.007785903
-0.016007923 -0.021520637 0.0020979294 -0.01975276 -0.022977553 0.036378194 -0.010633542 0.0026519008
-0.059305612 -0.012585021 -0.03339012 -0.01827891 -0.006790543 -0.009575649 -0.0077629047 -0.003556585
-0.017045958 -0.027028188 0.0015836689 -0.018970147 -0.056238364 -0.032719158 0.023631824 -0.015470001
-0.0106662 -0.015683854 -0.0031022613 -0.0010649102 -0.008701639 0.027994491 0.062762074 -0.063990474
-0.05562338 0.03601944 -0.04704058 -0.011195522 0.009045858 -0.024109552 -0.061780345 -0.054512937
-0.008517205 0.03325527
00000000: f89e f6bc 15fa 34bd 3f8d 9abb 1fb0 cbbb
00000010: ab67 46bc 9872 35bc 9aa1 4e3d e320 ff3b
00000020: 0c23 83bc 0c4c b0bc 6a7d 093b 8ad0 a1bc
00000030: 6c3b bcbc 4d01 153d 4f38 2ebc 83cb 2d3b
00000040: 71ea 72bd 6731 4ebc 14c4 08bd a7bd 95bc
00000050: 3483 debb 2fe3 1cbc f75f febb 9815 69bb
00000060: f7a3 8bbc 386a ddbc 1c93 cf3a 4867 9bbc
00000070: 335a 66bd 8604 06bd 8797 c13c e375 7dbc
00000080: 49c1 2ebc 6d7b 80bc 4f4f 4bbb 7594 8bba
00000090: 5291 0ebc b454 e53c 6789 803d 700d 83bd
000000a0: 57d5 63bd 1f89 133d a0ad 40bd 6c6d 37bc
000000b0: 1435 143c 6581 c5bc 630d 7dbd f548 5fbd
000000c0: bf8b 0bbc ae36 083d

fc2.weight f4 [7, 50]
0.09529138 0.034813907 0.04748223 -0.14313519 -0.048149843 -0.109342806 -0.008031437 -0.07122384
0.08547975 0.10246929 0.046027683 0.03526167 -0.1632273 0.09958465 -0.0571378 0.05585513
-0.043688882 0.026837805 0.14311616 -0.04528338 -0.012703253 -0.104401395 -0.06214062 -0.03640402
-0.021081895 0.057967585 0.04014483 -0.045579683 -0.09268104 -0.011303352 -0.21231468 0.053400863
-0.20363823 -0.12884612 0.008373228 -0.020794943 0.0048951018 0.12633525 0.13507101 -0.024423087
-0.13317822 -0.078213274 0.06467387 -0.033614557 0.16707818 0.06722575 -0.023935057 -0.05319142
0.0047524488 0.053738337 -0.057661816 -0.06739975 0.23586117 0.016298667 -0.09142395 0.040265143
-0.10008371 -0.07738772 -0.041512735 0.11288246 -0.06492323 -0.0098489635 0.0051083416 0.043155044
0.08692252 -0.03406129 -0.04815587 0.08211109 -0.10677826 0.031270802 -0.05354993 0.05874869
-0.07217307 -0.120192654 -0.2166466 -0.02081333 0.058302913 0.096564256 -0.0032915578 -0.026739035
0.058481093 0.091327675 -0.0045626624 -0.03210191 0.08889418 -0.056696665 0.07652801 -0.19184701
0.108445756 -0.15640175 -0.007998555 -0.21355268 0.062108826 0.06383817 0.11693846 -0.0039579123
-0.01087857 0.09606286 -0.08376721 -0.05627506 0.018282373 0.058971874 0.008795569 -0.094970636
-0.02154419 -0.09557862 0.110465445 0.042133138 0.011489532 0.08507313 0.044414077 -0.2063534
0.208489 0.0035564688 -0.0715833 0.11294395 -0.03346297 0.035428762 -0.04667115 -0.019969046
0.014358042 0.015748378 0.011441604 0.09508911 -0.067688905 0.118498 0.1124319 -0.06723181
-0.0892861 0.044987652 0.14324579 -0.07259497 0.0990649 0.06406937 0.0012067286 -0.11165169
-0.023299655 -0.12811916 -0.1419827 -0.025610827 -0.06010584 0.016070966 -0.07235089 -0.06497947
0.06608055 -0.023712963 -0.024743931 0.054589607 -0.0018499076 0.07233443 0.06053426 -0.101754986
-0.05577524 -0.07384333 -0.08453145 0.020819066 -0.19801791 0.20783222 0.035668176 0.09961834
0.030355142 0.12785433 -0.015950816 -0.09859334 -0.04351541 -0.020395674 -0.09028143 0.08541323
0.09027254 0.0049444446 0.064565115 -0.08495748 -0.048963495 0.09744487 0.10657001 0.082347766
-0.22099392 -0.10301331 0.049797338 -0.101163566 -0.028462594 0.19978736 0.063629024 0.058346797
0.15521716 -0.06279366 -0.08044079 -0.06991829 -0.10635835 -0.038562 0.15438294 0.067684546
-0.03407028 -0.11247418 0.032688655 0.0150632495 0.05143444 -0.0018903437 0.080699615 -0.022516016
0.054341923 -0.121744886 0.124342695 0.0016975115 -0.024754407 0.019526236 0.12660836 0.056080867
0.042535737 0.11237612 0.1045901 0.09709812 -0.0458767 0.032544233 0.019543782 -0.01747178
-0.07960592 0.07478286 -0.046431933 0.047631223 -0.05044757 -0.0851688 0.030565323 0.09822865
-0.12721612 0.120463766 0.033869874 0.028872745 0.084415786 -0.031385332 0.05807698 0.04722536
0.027757177 -0.14314407 0.003270628 0.12127497 -0.074243955 -0.09825374 0.048552714 0.14193955
0.05799416 -0.05737662 -0.015809068 0.05562116 -0.15173352 -0.06692318 0.007588056 0.09471641
-0.08611765 0.1955561 -0.055661898 0.02270652 -0.13684201 0.0014911161 -0.05348512 -0.14532936
00000000: 2128 c33d 0799 0e3d ba7c 423d 0892 12be
00000010: c538 45bd 1fef dfbd 4a96 03bc cedd 91bd
00000020: 0210 af3d 6bdb d13d 8687 3c3d 8a6e 103d
00000030: 0f25 27be 09f3 cb3d 5309 6abd 59c8 643d
00000040: 1df3 32bd f5da db3c 0b8d 123e 117b 39bd
00000050: 4e21 50bc 66d0 d5bd 2a87 7ebd 621c 15bd
00000060: f0b3 acbc 6b6f 6d3d e86e 243d c3b1 3abd
00000070: 8fcf bdbd b231 39bc 0569 59be ddba 5a3d
00000080: 8a86 50be 3df0 03be dd2f 093c 285a aabc
00000090: 1767 a03b 075e 013e 0e50 0a3e ed12 c8bc
000000a0: df5f 08be 482e a0bd bc73 843d 6baf 09bd
000000b0: 8b16 2b3e a7ad 893d 7413 c4bc 3fdf 59bd
000000c0: 6eba 9b3b bb1c 5c3d cc2e 6cbd e108 8abd
000000d0: 9785 713e c884 853c 7b3c bbbd 10ed 243d
000000e0: b0f8 ccbd 747d 9ebd 4209 2abd eb2e e73d
000000f0: 78f6 84bd 8c5d 21bc e063 a73b 58c3 303d
00000100: 6f04 b23d da83 0bbd 173f 45bd dc29 a83d
00000110: 8fae dabd d015 003d 2c57 5bbd 77a2 703d
00000120: 79cf 93bd 9127 f6bd 9bd8 5dbe b780 aabc
00000130: 09cf 6e3d 7bc3 c53d 2db7 57bb d20b dbbc
00000140: df89 6f3d 010a bb3d 6382 95bb 4b7d 03bd
00000150: 270e b63d c33a 68bd b8ba 9c3d 8b73 44be
00000160: cf18 de3d c827 20be 5f0c 03bc 8ead 5abe
00000170: d365 7e3d 96bd 823d 6e7d ef3d 60b1 81bb
00000180: 083c 32bc 9bbc c43d 258e abbd ad80 66bd
00000190: eac4 953c 7e8c 713d 4a1b 103c f77f c2bd
000001a0: 717d b0bc b9be c3bd b53b e23d cc93 2c3d
000001b0: 973e 3c3c d23a ae3d 89eb 353d 4e4e 53be
000001c0: 247e 553e a513 693b 449a 92bd 284f e73d
000001d0: 7810 09bd c01d 113d 3f2a 3fbd 2096 a3bc
000001e0: fe3d 6b3c be02 813c 9175 3b3c 14be c23d
000001f0: 7ba0 8abd 14af f23d b242 e63d d5b0 89bd
00000200: a1db b6bd f944 383d 06af 123e acac 94bd
00000210: 8ae2 ca3d cd36 833d 182b 9e3a a4a9 e4bd
00000220: ebde bebc ab31 03be ea63 11be cccd d1bc
00000230: 8b31 76bd 42a7 833c b42c 94bd f513 85bd
00000240: 3d55 873d b041 c2bc c9b3 cabc 5a99 5f3d
00000250: 9978 f2ba 1324 943d c6f2 773d eb64 d0bd
00000260: 9474 64bd 2c3b 97bd d31e adbd bf8c aa3c
00000270: 35c5 4abe f8d1 543e cb18 123d b304 cc3d
00000280: 59ab f83c 3fec 023e 49ab 82bc 4eeb c9bd
00000290: 373d 32bd d414 a7bc 78e5 b8bd 22ed ae3d
000002a0: cfe0 b83d 0205 a23b b73a 843d 30fe adbd
000002b0: f28d 48bd 2d91 c73d 6141 da3d f2a5 a83d
000002c0: 3b4c 62be a4f8 d2bd 4bf8 4b3d d82e cfbd
000002d0: 632a e9bc 0f95 4c3e ef4f 823d 0dfd 6e3d
000002e0: 3ff1 1e3e f699 80bd 24be a4bd 5231 8fbd
000002f0: 68d2 d9bd 30f3 1dbd 9016 1e3e 329e 8a3d
00000300: 478d 0bbd dd58 e6bd 8ae4 053d d9cb 763c
00000310: ebac 523d 69c5 f7ba d745 a53d 8273 b8bc
00000320: a395 5e3d 6255 f9bd 62a7 fe3d 097f de3a
00000330: c1c9 cabc 7cf5 9f3c 9fa5 013e 0db5 653d
00000340: f439 2e3d 7425 e63d 5633 d63d 61db c63d
00000350: 35e9 3bbd 1a4d 053d 481a a03c fa20 8fbc
00000360: 6e08 a3bd c227 993d 692f 3ebd f518 433d
00000370: 1ca2 4ebd fb6c aebd 2164 fa3c 1a2c c93d
00000380: f144 02be b5b5 f63d 23bb 0a3d 8986 ec3c
00000390: 2fe2 ac3d e88d 00bd 21e2 6d3d 616f 413d
000003a0: 0563 e33c 5c94 12be 0858 563b 035f f83d
000003b0: 370d 98bd 4239 c9bd 36df 463d 9a58 113e
000003c0: 498b 6d3d bf03 6bbd 0582 81bc 03d3 633d
000003d0: 0860 1bbe 050f 89bd 3aa5 f83b adfa c13d
000003e0: 735e b0bd dc3f 483e bbfd 63bd 0603 ba3c
000003f0: 5020 0cbe 8e71 c33a 3713 5bbd 38d1 14be

fc2.bias f4 [7]
-0.014689589 0.09631429 0.030504657 0.033541292 -0.11151373 0.11663602 -0.041303642
00000000: 9aac 70bc 6d40 c53d e7e4 f93c 9862 093d
00000010: 4f61 e4bd dede ee3d 022e 29bd

localization.0.weight f4 [8, 1, 7, 7]
0.022044923 -0.15073024 -0.077256724 0.11738033 -0.110614546 0.081850894 0.016409935 0.03454746
-0.15449527 0.036653683 -0.09918007 0.016442547 -0.014226098 0.043067265 0.0071229823 -0.16280809
0.029504491 -0.08623487 0.09612067 -0.046601 0.10550615 0.014508569 0.08240303 -0.14949712
-0.1166846 -0.0025549463 -0.023881081 -0.09163088 -0.022259181 0.024826732 -0.1262035 0.03505303
0.012603181 -0.12527081 -0.12835903 0.05779887 0.060919385 0.09713493 0.016806977 -0.04571353
0.10761364 0.022819882 0.047394317 0.048362 0.014427759 -0.12997268 -0.097968526 0.09347186
-0.1288334 -0.13118877 0.09384173 0.056097593 -0.030038856 -0.0014394546 -0.13282917 -0.15825933
-0.02255632 0.05193925 0.06742145 0.063905746 -0.03292404 0.026886048 -0.1307139 0.02727667
-0.028186787 -0.114896744 -0.00055859954 0.026062932 -0.1319562 -0.030446019 -0.035503056 -0.0769891
0.10617922 -0.05398673 0.08511282 0.03151802 -0.054249834 -0.07796198 -0.089058906 -0.16930906
0.07456422 0.06126785 -0.0683049 -0.11555808 -0.026089665 0.03846547 0.02151642 0.102790765
-0.16623555 0.045501377 0.086210035 0.0014475808 0.017209148 -0.059035435 -0.13371344 -0.10630122
-0.019108001 0.0071860123 0.15520966 0.13342977 -0.071207486 -0.12777661 0.07786583 -0.06299521
0.08070041 0.00031197196 0.11739314 -0.07269295 0.08095719 -0.10283089 -0.07508062 -0.09590095
-0.0076073124 -0.07817975 -0.027540024 0.009283101 -0.1086617 0.112067774 0.028512985 0.026281355
-0.1162497 -0.077779464 0.11731529 0.043341734 -0.008465558 -0.0933517 0.08152261 0.122531585
-0.03718858 0.080025 -0.11361575 0.06277801 0.07953238 -0.14166033 0.07624419 0.122352585
-0.11250767 -0.08945712 0.08053579 -0.075606935 -0.0140427835 0.12542026 0.06856144 -0.06787067
4.622375e-05 -0.09248818 0.05906178 -0.022079006 0.0057499516 -0.01362312 -0.020152805 0.03187773
0.08991268 0.045965176 -0.008553471 -0.04607761 0.037431166 -0.11069415 -0.015934803 -0.018284585
-0.105226494 0.021518765 -0.114562474 0.07818214 -0.08249287 -0.04873904 -0.04762229 0.016148377
0.121897794 0.026139555 -0.00086853624 -0.029873725 -0.019492399 -0.06460569 0.0045889053 -0.10882385
0.044896692 0.14679772 0.051698867 -0.108483955 -0.10323445 -0.030504597 0.11789853 0.14890929
-0.08547976 -0.073037826 -0.064349756 0.03635631 -0.11729513 0.14132266 0.121941656 0.012753485
0.009617493 0.033885386 0.08408285 0.03489027 -0.07728692 0.1684466 -0.015015396 0.11895878
-0.038557246 0.056052513 -0.14168501 -0.033541486 -0.04572355 0.046185847 0.13086848 -0.06606319
0.08719642 0.048632253 -0.09878614 -0.054661863 0.0066838437 0.06289205 -0.015109294 0.0032515768
0.021386754 -0.06589578 0.0069929855 -0.122884616 -0.059112504 -0.02659959 0.09419058 -0.120086275
0.13914043 -0.05280411 0.045395017 0.07052794 0.14108014 0.080710664 -0.12240845 0.12566045
0.0214935 0.033317287 -0.06394853 -0.010989257 -0.03960308 0.008544451 -0.0448759 -0.09588344
-0.02618717 0.046936654 0.076413706 -0.032206204 -0.07468755 -0.15715614 -0.0715483 0.033992447
0.025041454 0.06885026 -0.11402536 0.076168515 -0.10348469 -0.008336736 -0.043822274 -0.04596684
00000000: 8e97 b43c 0759 1abe c638 9ebd 1965 f03d
00000010: e189 e2bd 71a1 a73d 216e 863c a381 0d3d
00000020: 0234 1ebe 2c22 163d ec1e cbbd 85b2 863c
00000030: 9414 69bc 4d67 303d e867 e93b 2ab7 26be
00000040: 67b3 f13c e89b b0bd eada c43d b1e0 3ebd
00000050: 9c13 d83d 59b5 6d3c ebc2 a83d c615 19be
00000060: 56f8 eebd e370 27bb 42a2 c3bc f9a8 bbbd
00000070: e358 b6bc 6e61 cb3c 7e3b 01be c493 0f3d
00000080: 937d 4e3c fe46 00be 8d70 03be 82be 6c3d
00000090: 9b86 793d aeee c63d c9ae 893c 1c3e 3bbd
000000a0: 8a64 dc3d c3f0 ba3c 8b20 423d 3c17 463d
000000b0: 6862 6c3c 8f17 05be b9a3 c8bd 2d6e bf3d
000000c0: e7ec 03be 5956 06be 1830 c03d 97c6 653d
000000d0: 0c14 f6bc 15ac bcba 5f04 08be bc0e 22be
000000e0: 08c8 b8bc 40be 543d 4214 8a3d 04e1 823d
000000f0: 5cdb 06bd 2140 dc3c ddd9 05be 5373 df3c
00000100: fae7 e6bc fc4e ebbd fb6e 12ba ee81 d53c
00000110: 871f 07be ee69 f9bc a76b 11bd 76ac 9dbd
00000120: 7e74 d93d 3021 5dbd a14f ae3d 0a19 013d
00000130: 1335 5ebd 88aa 9fbd 8464 b6bd 5b5f 2dbe
00000140: 20b5 983d fff3 7a3d 70e3 8bbd b7a9 ecbd
00000150: feb9 d5bc f88d 1d3d 3443 b03c f783 d23d
00000160: a739 2abe a75f 3a3d e38e b03d c0bc bd3a
00000170: 33fa 8c3c 24cf 71bd 2dec 08be 74b4 d9bd
00000180: 6288 9cbc a478 eb3b 48ef 1e3e d0a1 083e
00000190: 3bd5 91bd dfd7 02be 1f78 9f3d a203 81bd
000001a0: 4246 a53d 2b90 a339 d16b f03d 0be0 94bd
000001b0: e2cc a53d 0099 d2bd dec3 99bd b867 c4bd
000001c0: c346 f9bb b41c a0bd 9e9b e1bc 2618 183c
000001d0: 068a debd ca83 e53d 1094 e93c ff4b d73c
000001e0: 5314 eebd d74a 9fbd 0043 f03d 1a87 313d
000001f0: 20b3 0abc 2d2f bfbd 53f5 a63d d7f1 fa3d
00000200: 0d53 18bd 26e4 a33d 60af e8bd c291 803d
00000210: dfe1 a23d 680f 11be ea25 9c3d fe93 fa3d
00000220: 6c6a e6bd 4b35 b7bd f3ef a43d cfd7 9abd
00000230: b413 66bc 2b6e 003e f169 8c3d c7ff 8abd
00000240: 60e0 4138 716a bdbd c4ea 713d 08df b4bc
00000250: 176a bc3b 8233 5fbc 7f17 a5bc 3992 023d
00000260: 2424 b83d fb45 3c3d dc23 0cbc e0bb 3cbd
00000270: 6c51 193d 9db3 e2bd b489 82bc 8ec9 95bc
00000280: fd80 d7bd 1f48 b03c bb9f eabd f51d a03d
00000290: 06f2 a8bd 96a2 47bd 970f 43bd 9a49 843c
000002a0: 8da5 f93d 9f22 d63c 7bae 63ba beb9 f4bc
000002b0: 86ae 9fbc fd4f 84bd 875e 963b 0adf debd
000002c0: 98e5 373d 2452 163e 31c2 533d d62c debd
000002d0: 956c d3bd c7e4 f9bc c974 f13d ad7b 183e
000002e0: 0310 afbd db94 95bd cec9 83bd 5bea 143d
000002f0: 6e38 f0bd e3b6 103e 8cbc f93d fef3 503c
00000300: b092 1d3c 67cb 0a3d a133 ac3d 1ae9 0e3d
00000310: 9b48 9ebd 447d 2c3e 2303 76bc a9a0 f33d
00000320: 34ee 1dbd 5297 653d e015 11be cc62 09bd
00000330: 9e48 3bbd 5f2d 3d3d 6302 063e 234c 87bd
00000340: 0994 b23d 9d32 473d 6350 cabd 1ee5 5fbd
00000350: 2504 db3b 8ccd 803d f98c 77bc 6818 553b
00000360: 4633 af3c 5ef4 86bd 6a25 e53b eeaa fbbd
00000370: f41f 72bd 62e7 d9bc fee6 c03d cbef f5bd
00000380: d47a 0e3e 1f49 58bd 20f0 393d f470 903d
00000390: 5077 103e a24b a53d 48b1 fabd 22ad 003e
000003a0: 2313 b03c b577 083d 72f7 82bd 490c 34bc
000003b0: d736 22bd 06fe 0b3c cbcf 37bd 895e c4bd
000003c0: 7a86 d6bc a640 403d ca7e 9c3d a7ea 03bd
000003d0: c9f5 98bd 8aed 20be ea87 92bd aa3b 0b3d
000003e0: bc23 cd3c 5d01 8d3d 2186 e9bd 3dfe 9b3d
000003f0: c8ef d3bd ce96 08bc fc7e 33bd ba47 3cbd

localization.0.bias f4 [8]
-0.08071056 0.11348848 0.025814397 0.049814403 0.11858515 -0.051256347 0.10553043 0.11260926
00000000: 944b a5bd a66c e83d b778 d33c 300a 4c3d
00000010: c5dc f23d 2df2 51bd 5720 d83d af9f e63d

localization.3.weight f4 [10, 8, 5, 5]
-0.07342778 -0.020193093 0.038078327 -0.086559385 0.021801202 -0.045714553 -0.04424857 0.022343492
0.0360444 -0.097234175 -0.096309654 0.03988707 -0.064351566 -0.063431524 -0.013319877 -0.009123099
-0.074692845 -0.0033399297 -0.030087262 0.012543956 0.026542036 -0.07215595 0.0074275336 -0.060826976
-0.010533853 -0.002025365 0.025060844 -0.076542586 -0.0077254544 -0.08205087 0.011598544 0.0243047
-0.010498854 0.037370786 0.035068557 0.0416829 -0.051314723 -0.065645695 -0.019645723 -0.0148677705
0.0016923032 0.028618759 0.037844747 0.011301112 -0.04287243 -0.041459844 -0.07033581 -0.018010331
-0.07682526 -0.09583398 0.007278287 0.012898553 -0.049833346 -0.0644346 -0.07193829 0.019083157
-0.08422923 0.031070024 -0.050465267 -0.06543655 -0.032722123 0.0325107 0.023246024 -0.09302385
0.019251823 0.015743881 -0.055975627 -0.08179951 -0.09407268 -0.077343345 -0.022010833 0.037194166
-0.064519785 -0.006702098 -0.031663205 -0.07641202 0.012757972 0.039119888 0.043447368 -0.03460415
-0.086467765 -0.036678318 0.027948732 0.023820302 -0.07988495 0.0022868197 -0.018984256 -0.06520233
-0.06170383 -0.08816253 -0.043048352 -0.025135612 -0.0650984 -0.05598532 0.031188494 -0.048924066
-0.08911664 -0.010900474 0.0007805387 -0.03294077 0.013014765 -0.092470825 -0.051338047 0.03104845
-0.038082406 -0.085870996 -0.049835395 -0.04785231 0.03928914 -0.0032141157 -0.08460622 -0.07278947
-0.08601716 0.00708032 -0.0043902355 0.0024907542 -0.03864299 -0.023739146 -0.050448637 -0.0888371
0.02922996 -0.034868464 -0.03457418 -0.091213696 0.019554924 -0.009554178 -0.061990164 0.006467397
-0.07700909 0.027094584 -0.00496002 0.022902122 0.024262575 -0.029653072 -0.06016701 0.019750142
-0.098092645 -0.008900395 -0.09335686 -0.023265423 -0.005149623 -0.018764148 -0.076196276 -0.003930409
0.0058991057 0.026193263 0.020202296 -0.001765139 -0.027981132 -0.058600366 -0.018681236 -0.060309067
-0.005416364 0.020497546 -0.05877365 0.015342973 0.036313873 0.032391988 -0.04582392 -0.06107135
-0.047119193 -0.0037832551 0.0040174727 -0.016405236 0.024635524 -0.05617891 0.036711965 -0.08232771
0.032177452 -0.07277561 -0.038801137 0.00875626 -0.025513683 0.0032479258 -0.06340169 -0.039879773
-0.055162802 -0.07523136 -0.029885607 -0.059400003 -0.014154309 0.008561544 -0.049246762 0.017656932
-0.05569216 -0.03228421 0.022395095 -0.06472744 -0.006449712 -0.08579542 -0.012586979 -0.055197813
0.015203998 0.017703777 0.007021958 -0.04316734 0.009962413 -0.03433363 -0.064025044 0.023092357
-0.09141756 -0.04484526 -0.008735427 -0.10216209 0.016546693 -0.04839619 0.004954745 0.01030415
0.02947582 0.0004901361 0.009103746 0.0642225 -0.037078362 -0.051869825 0.01624856 -0.03098709
-0.05098864 0.054131284 0.00095244724 0.00083478465 -0.010768256 0.06267427 0.08366708 -0.091878444
-0.061168153 0.0142451115 -0.029471429 -0.0323033 0.05149703 0.039343663 0.026694315 0.011076781
0.0040323343 -0.04920281 -0.0016902831 -0.014468904 -0.09053909 0.015918588 -0.05023548 -0.0011796587
-0.10365338 0.013578824 0.008044355 -0.038982138 -0.0053763557 -0.012141771 -0.030630453 -0.06667473
0.023418227 0.025923608 -0.060424402 -0.061255407 0.032482516 0.034915924 0.059577078 0.015592364
00000000: 4e61 96bd fc6b a5bc 05f8 1b3d 0c46 b1bd
00000010: 6f98 b23c 2f3f 3bbd fd3d 35bd b309 b73c
00000020: 4ba3 133d b622 c7bd ff3d c5bd a060 233d
00000030: c1ca 83bd 63e8 81bd 9d3b 5abc 0d79 15bc
00000040: 90f8 98bd b9e2 5abb 9079 f6bc 2a85 4d3c
00000050: af6e d93c 80c6 93bd ab62 f33b b525 79bd
00000060: 2f96 2cbc fcbb 04bb 664c cd3c 5cc2 9cbd
00000070: cf25 fdbb 490a a8bd d207 3e3c a61a c73c
00000080: 6303 2cbc 1c12 193d 0ca4 0f3d b0bb 2a3d
00000090: 632f 52bd 4071 86bd 11f0 a0bc f397 73bc
000000a0: 46d0 dd3a e371 ea3c 1803 1b3d 4d28 393c
000000b0: 009b 2fbd ccd1 29bd 390c 90bd 678a 93bc
000000c0: 9056 9dbd 9b44 c4bd b27e ee3b 7454 533c
000000d0: 0d1e 4cbd 4af6 83bd 6254 93bd 4854 9c3c
000000e0: 6080 acbd 9086 fe3c abb4 4ebd 9903 86bd
000000f0: a207 06bd f129 053d 726e be3c 4a83 bebd
00000100: 00b6 9d3c 50f9 803c b346 65bd 8086 a7bd
00000110: 2da9 c0bd 3066 9ebd 1050 b4bc e958 183d
00000120: f322 84bd 469d dbbb 47b1 01bd e87d 9cbd
00000130: d006 513c 2d3c 203d def5 313d 15bd 0dbd
00000140: 0316 b1bd 013c 16bd bdf4 e43c cb22 c33c
00000150: b89a a3bd 78de 153b df84 9bbc cd88 85bd
00000160: 28bd 7cbd 8e8e b4bd 7853 30bd 33e9 cdbc
00000170: 4f52 85bd dd50 65bd 037f ff3c 9a64 48bd
00000180: c982 b6bd e797 32bc 119d 4c3a e7ec 06bd
00000190: e23b 553c 5861 bdbd d847 52bd 5259 fe3c
000001a0: 4cfc 1bbd 22dd afbd 3320 4cbd c900 44bd
000001b0: a6ed 203d eaa3 52bb 0746 adbd a512 95bd
000001c0: c429 b0bd 0702 e83b f7db 8fbb ec3b 233b
000001d0: 1d48 1ebd 9978 c2bc 3ba3 4ebd 3af0 b5bd
000001e0: ab73 ef3c 3cd2 0ebd a89d 0dbd 3fce babd
000001f0: a631 a03c 2189 1cbc 66e9 7dbd 75ec d33b
00000200: f1b6 9dbd 76f5 dd3c aa87 a2bb 3b9d bb3c
00000210: 4fc2 c63c 00eb f2bc af71 76bd 0dcb a13c
00000220: cce4 c8bd f6d2 11bc e231 bfbd 2197 bebc
00000230: 2bbe a8bb 45b7 99bc cb0c 9cbd a9ca 80bb
00000240: 494d c13b 4193 d63c 497f a53c 3d5c e7ba
00000250: b038 e5bc f006 70bd 6409 99bc a406 77bd
00000260: c17b b1bb 78ea a73c a4bc 70bd 1861 7b3c
00000270: dbbd 143d 76ad 043d ddb1 3bbd f425 7abd
00000280: 0e00 41bd 7df0 77bb 01a5 833b 4664 86bc
00000290: 70d0 c93c db1b 66bd 495f 163d 6e9b a8bd
000002a0: 81cc 033d 610b 95bd f1ed 1ebd 6b76 0f3c
000002b0: 1202 d1bc 27db 543b bfd8 81bd f958 23bd
000002c0: 64f2 61bd e612 9abd a9d2 f4bc 6b4d 73bd
000002d0: 7ae7 67bc b845 0c3c f9b6 49bd 45a5 903c
000002e0: 761d 64bd 733c 04bd eb75 b73c d28f 84bd
000002f0: 1b58 d3bb 82b5 afbd 9e39 4ebc 1a17 62bd
00000300: 311a 793c 8307 913c 7418 e63b 3dd0 30bd
00000310: 6439 233c 6ca1 0cbd 901f 83bd 2f2c bd3c
00000320: 2139 bbbd aaaf 37bd 091f 0fbc 5c3a d1bd
00000330: ee8c 873c 153b 46bd 6a5b a23b bdd2 283c
00000340: 4677 f13c 7a7c 003a e127 153c 1687 833d
00000350: 7bdf 17bd 7475 54bd b31b 853c a3d8 fdbc
00000360: 77d9 50bd c4b8 5d3d a7ad 793a 73d5 5a3a
00000370: 576d 30bc 5e5b 803d a559 ab3d c42a bcbd
00000380: 758b 7abd 5464 693c 116e f1bc 7750 04bd
00000390: 8dee 523d d226 213d 09ae da3c 637b 353c
000003a0: ac21 843b e388 49bd 7d8c ddba fb0e 6dbc
000003b0: 8f6c b9bd b367 823c b8c3 4dbd c79e 9aba
000003c0: 3948 d4bd b779 5e3c 78cc 033c bcab 1fbd
000003d0: 242c b0bb 47ee 46bc b7ec fabc c38c 88bd
000003e0: 95d7 bf3c bf5d d43c 947f 77bd f3e6 7abd
000003f0: 630c 053d 0004 0f3d 1807 743d 1d77 7f3c
