deep_emotion-ckplus-20-8-0.001.pt (torch, 274522 bytes, 24 tensors)

conv1.weight f4 [10, 1, 3, 3]
00000000: b859 4dbe e70d a73e a328 31be 3d88 ed3d
00000010: cbb1 2ebe 4581 573e 37e9 67be 7aaf 9c3e
00000020: d921 5bbe e2e9 7a3e e168 13be c9ee c73d
00000030: 0f58 8dbe 4b76 ae3d 64a8 bcbd f36d 9a3e
00000040: 9e1c aebd c8f6 b93d dca7 1a3d ab6c 8a3d
00000050: ec79 a63d 85a5 053d 1dc2 a73d 6589 10bd
00000060: c9b9 93be 38cf dbbd a3e3 afbe 2557 0c3e
00000070: 3e27 93bd cda2 4f3c 012b 95be a009 55be
00000080: 37a8 2abe 8eaa 2bbe 7116 3fbe 7ba8 943e
00000090: aebd 27be 0e6a a83d d601 7dbe 475a 283e
000000a0: b580 973d 1588 823e 1d0f 963e ca5b 0cbe
000000b0: 3f13 a73e f964 713e 7ac4 53bd 90a9 b3bd
000000c0: 0b40 ac3e ba55 463e 1c2c 10be 364b 4bbe
000000d0: 699b 5fbe 6ff1 3ebe 1036 673d 77b9 46be
000000e0: 172c 58be 391b 11bd 132b 54be bd43 133e
000000f0: 5dd4 88be bd0b 04bc d023 813e e78b a5bb
00000100: f077 44be 9e8f 82be c5e5 74bd ec31 59be
00000110: baa4 7dbe bece 243e e2f4 b43e 93d1 a13e
00000120: aa2c 9d3e d6e9 2c3e 0843 98be 3f28 9c3e
00000130: 438d 613e 8d81 42bc 5bcb 07be 515c 953e
00000140: 0a4c 96bd 7379 97bd eef3 babd f6d7 5ebe
00000150: 173f 533e 3830 983e f5d3 a63b fa40 6b3e
00000160: f479 aa3e 9c32 67be
-0.20053756 0.32627794 -0.17300658 0.11598251 -0.1706001 0.21045406 -0.22647558 0.30602628
-0.2139963 0.24503282 -0.14395477 0.097623415 -0.27606246 0.08518656 -0.092118055 0.3016201
-0.08501552 0.09080273 0.03775774 0.06759008 0.081287235 0.032628555 0.08191321 -0.03528728
-0.2885268 -0.10732883 -0.3435336 0.13705118 -0.07185219 0.012673092 -0.29134372 -0.20804453
-0.16665731 -0.1676428 -0.18660904 0.2903479 -0.16380951 0.08223353 -0.24707732 0.16440688
0.07397596 0.25494447 0.29308406 -0.1370689 0.3263187 0.23573674 -0.051701047 -0.08772576
0.3364261 0.1936864 -0.14079326 -0.1985291 -0.21836628 -0.18646787 0.056448042 -0.19406687
-0.21110569 -0.035426352 -0.20719557 0.14381309 -0.2672452 -0.008059439 0.25222635 -0.005052078
-0.19186378 -0.25500196 -0.059789438 -0.2121045 -0.2476987 0.16094491 0.3534308 0.31605205
0.30698138 0.16886076 -0.2973864 0.30499455 0.22026543 -0.011871708 -0.13261168 0.29171994
-0.07338722 -0.073962115 -0.09128557 -0.2176207 0.20629536 0.29724288 0.005091185 0.22974005
0.33296168 -0.225779

conv1.bias f4 [10]
00000000: 436d 443e b705 013e 8ecb 85be e648 9f3e
00000010: 1b90 d0bd 8239 3dbe 5b13 86bd b247 9a3e
00000020: d510 813e 5bad 01be
0.19182305 0.12599836 -0.26131862 0.31110305 -0.10183736 -0.18478969 -0.065466605 0.30132824
0.25208154 -0.12663786

conv2.weight f4 [10, 10, 3, 3]
00000000: ed26 8fbd fbde f73b 0aa1 47bd 1f96 adbd
00000010: 0f3b df3d 5fa2 6a3d 7be9 f53b 1223 4fbd
00000020: 0bb0 06be dafc 1bbd 3a14 c9bc 2c31 ccbc
00000030: 9878 04be 39fe 3bbd 7432 2f3c 23ec 78bc
00000040: eb91 883d cc68 9c3d 87e8 803c 1aa7 babc
00000050: f52a abbd fbb4 f03d 705b 943d 6524 a23d
00000060: 9f98 9e3c 1e68 edbd b64d f3bd 4f95 8fbd
00000070: eac8 a5bd be27 833d 6337 883d ac79 0cbc
00000080: d871 113d 3cb7 e1bc 1aad 01bd 8195 6c3d
00000090: 443f dcbc d014 30bd 9122 f0bc 1fcf e0bd
000000a0: 656d 2e3d 2cfd cfbd efc8 86bd 8595 93bc
000000b0: b8fa f73d edd5 95bd 3e57 423d 2572 bfbd
000000c0: 101b 4cbc 7c5d dcbc 2c4d e7bd 3390 3ebb
000000d0: fc9e 4b3d e69f 2abd 33fe 52bd 669c 79bd
000000e0: 2f1d b63b 3350 c4bd 3163 0ebe 2958 19bd
000000f0: 0d08 303d c76a 1e3b 9c4c 86bd 6e54 cbbd
00000100: 9a2b bebd 1f46 733d 84e2 afbd f431 11be
00000110: df36 0abe a8f4 dc3d 6cba f73c 02e3 c23d
00000120: 501b 673d 39fb adbd 2126 44bc c94c 2fbc
00000130: 87f0 b1bd 7e1e a8bd 8c66 cdbc c8de 0c3d
00000140: cc64 753d 5815 b73d a22d 9a3d 3e04 85bd
00000150: 2b60 5e3c 21b9 9fbc 1b96 a23d 1817 4b3d
00000160: cb7f f7bc 7e62 b53d dd40 3abc e39f a23d
00000170: ab1a 9d3d 350c ccbd 8936 863d 9711 d0bd
00000180: 3080 16bc 940f 94bd c848 a03d c25d 963c
00000190: efaf 773d 021f babd f216 15bd 4dda 5c3d
000001a0: f8df 62bd ab5e 65bd 3e7f 423d 391d b9bd
000001b0: 07bb fa3d 5335 ffbc 83a8 02bb 2315 a53c
000001c0: 2aaf 1e3c 52da acbd cf38 6a3d 0496 28bd
000001d0: 591f 9ebd a7cd 403c caee ac3d 926b b33c
000001e0: 370b 7fbd f0f9 c03c 95da 943c 6463 b83c
000001f0: a55e 80bd 1d7b 84bc 113c 953d ad21 8e3c
00000200: 96d0 7fbd ff1f 3cbd 0f1c 47bd 39aa b2bd
00000210: d918 bebc faeb 833c 0af9 80bd 5629 85bd
00000220: c960 3b3d b8ab 613d 2898 84bd f91a c9bb
00000230: cd6e 033d 2498 ee3c e664 8e39 e00d b03c
00000240: 730a 76bd 848d a23d 6078 ad3d 0e7b 83bd
00000250: d07b 49bd 9af0 8fbd a4f8 a9bd d292 bc3d
00000260: db02 a83d 5f59 c6bd b131 04bd 97c4 cebd
00000270: 77f2 48bc e187 bfbc add0 9f3c 6f79 c8bc
00000280: c41e 67bd 05c0 bfbd 4520 83bc 5d6c 1fbd
00000290: d2bd a2bd 56d8 093d 3357 a4ba 61d1 c2bd
000002a0: b3dc d3bd a68c a43d 638c bdbd f0ef 6c3d
000002b0: b470 5b3d 6576 ecba f553 76ba ad53 313c
000002c0: 9cb7 7fbd ff2d 6a3d 13ea de3c cf45 a13c
000002d0: e4f1 a1bd b178 59bd 6e11 583d 1b72 603d
000002e0: 6d1e 3b39 e5ec 933d 1dc8 883c ad9e 503d
000002f0: 21f4 7f3d 1c68 863d 19e5 a1bc 1d8f 1e3d
00000300: 2b5a d03c 0803 4abd 0d85 d83d 064d 73bd
00000310: d735 373d 11f5 95bd 9060 6abc 0c17 083e
00000320: 7e4d 6d3d a1a4 463c 78da dc3d a1b0 05bd
00000330: 7821 213d 77e9 d33d 02e1 c23d d64b b23d
00000340: 5b49 77bb 6c5e b4bd 809e 353d 904f 9ebc
00000350: d2d3 843c 66bc 0b3d af72 123b 9471 11bd
00000360: 2cb4 403d 8698 2d3d 87a4 683d 6794 80bd
00000370: 0dd0 af3d 899c c0bd 25dc 583b f24c 22bd
00000380: 35ae e6bd b2cd bb3d 0bb1 ae3c 1c2a f7bc
00000390: b6a8 bebd 77aa 02be b12d 0bbe 9ca3 0d3e
000003a0: fa23 153d c848 443c fe3b 583d 7cf9 b43b
000003b0: 0d88 643d 70e6 373d d580 933d e0ea 223d
000003c0: 47b7 8d3d 8ad7 e43b 47cb 943d db56 163c
000003d0: 5b68 ddbc e791 233d 23f7 ffbd a5a8 123d
000003e0: f70d debd e4a7 08be 91b3 b7bd a7c6 88bc
000003f0: bc17 563c 2189 be3d a91a b8bc 9197 c1bd
-0.069898464 0.007564423 -0.048737563 -0.08475899 0.108999364 0.057283755 0.0075046397 -0.050570555
-0.13153093 -0.038082935 -0.024545778 -0.02492579 -0.12936628 -0.045896742 0.010693181 -0.015193018
0.06668457 0.07637176 0.015735878 -0.022784758 -0.08357803 0.11753269 0.07244003 0.07917098
0.019359885 -0.115921244 -0.118800566 -0.070109 -0.08094962 0.064040646 0.06651189 -0.008573931
0.03550896 -0.027553193 -0.031659223 0.057759766 -0.026885636 -0.0429886 -0.029313358 -0.10977005
0.042584796 -0.101557106 -0.06581294 -0.018015632 0.12108368 -0.07316194 0.047446482 -0.09347943
-0.012457624 -0.026900046 -0.11294016 -0.0029077649 0.049712166 -0.041656397 -0.051511955 -0.06094017
0.005557678 -0.09585609 -0.13905026 -0.03743759 0.042976428 0.002417253 -0.06557581 -0.09928213
-0.0928566 0.059393045 -0.08588126 -0.14179212 -0.13497494 0.10788852 0.03024026 0.095159546
0.05642253 -0.084951825 -0.011971981 -0.010699459 -0.08688455 -0.08208941 -0.025073312 0.03439215
0.05991058 0.08939618 0.07528235 -0.0649495 0.013572733 -0.019497456 0.079387866 0.04958257
-0.030212304 0.088566765 -0.011368004 0.07940652 0.07671102 -0.09963266 0.065533705 -0.10159605
-0.009185836 -0.07229534 0.07826382 0.018355254 0.060470518 -0.090879455 -0.036398835 0.053919125
-0.055389374 -0.055998486 0.04748463 -0.09038777 0.12242704 -0.031153357 -0.0019936867 0.02015168
0.009685317 -0.08440079 0.057183083 -0.04115869 -0.07720823 0.011767781 0.08443983 0.02190188
-0.062266555 0.02355668 0.018170634 0.02250833 -0.06268052 -0.016171986 0.072868474 0.017350042
-0.062454782 -0.04592895 -0.048610743 -0.08723874 -0.023205208 0.016103733 -0.062975004 -0.06502025
0.0457466 0.055095404 -0.06474334 -0.0061372486 0.03208809 0.02912528 0.00027159526 0.021490991
-0.06006856 0.07937148 0.08470225 -0.06419955 -0.049190342 -0.07028313 -0.082993776 0.09207691
0.0820367 -0.09685015 -0.032273952 -0.1009609 -0.012264839 -0.023380222 0.019508684 -0.024471967
-0.056425825 -0.09362797 -0.016006598 -0.038921703 -0.079463616 0.03365358 -0.0012538194 -0.09512592
-0.103448294 0.08034639 -0.09255292 0.05784601 0.05357428 -0.0018040655 -0.0009396666 0.0108231725
-0.062430963 0.05717277 0.027211225 0.019686608 -0.07907465 -0.053093616 0.052750997 0.05479632
0.00017845044 0.072229184 0.016696984 0.050932575 0.06248868 0.06562826 -0.019762563 0.038710702
0.02543362 -0.049319297 0.105722524 -0.059399627 0.04472908 -0.07322133 -0.014305249 0.13290042
0.05793523 0.0121242115 0.10783857 -0.03263915 0.03933856 0.10347264 0.09515573 0.08705871
-0.0037732932 -0.08807072 0.04434061 -0.019325048 0.016214285 0.034115218 0.0022346189 -0.035508707
0.047046825 0.042381786 0.05679753 -0.062783055 0.085846044 -0.09404857 0.00330902 -0.039624162
-0.11263696 0.09170093 0.021324655 -0.030171447 -0.09309523 -0.1276034 -0.13591649 0.13831943
0.036411263 0.011980243 0.052791588 0.005522905 0.05579381 0.044897497 0.07202307 0.039774776
0.06919723 0.006983702 0.072653346 0.009175981 -0.0270273 0.039934065 -0.124983095 0.035805363
-0.10842507 -0.13345295 -0.089697964 -0.016696287 0.013067182 0.09303499 -0.02247365 -0.09452737

conv2.bias f4 [10]
00000000: e121 23bd 1c59 d8bc 22b1 c1bb a191 5e3c
00000010: 126d d2bd a588 d1bd 3702 7e3d 9bee 763b
00000020: 3b04 8cbd 38ba b63d
-0.03982723 -0.026409678 -0.0059110085 0.013584525 -0.1027471 -0.10231141 0.06201383 0.003767884
-0.068367444 0.08922237

conv3.weight f4 [10, 10, 3, 3]
00000000: b85d 1f3c c799 d0ba edbd 723d 81d8 4d3d
00000010: 35db 6b3d d9ee 933d a598 47bd c29b 3b3c
00000020: 1297 523d c6d5 bbbd 3339 773d be6a 49bd
00000030: 1b4f d33c 6713 cabc 8490 f43c 5199 d4bc
00000040: f2fb 1c3d 1a24 c73d d3c7 c03d 8590 8d3d
00000050: b972 56bc bc9b 973d f10d 44bc fde6 83bd
00000060: e04a 92bd 648d a43d eec8 20bd cf30 fabc
00000070: 84f1 943a 9179 833d dd53 6d3c ec5d a8bd
00000080: b9aa 6a3d d2e2 de3c 1a90 ac3d c5b7 9fbd
00000090: f636 e3bd 3309 92bd 6e97 93bd 6e86 d53c
000000a0: 156e fb3c 1a6b 9b3d 71ee 663b f6ac 383c
000000b0: 3213 bfbd 7f69 05bd 0942 863d 6967 a93c
000000c0: 212d 74bd 6504 acbb f210 2bbc 390e dabd
000000d0: fc71 043d ad70 913d 8d67 a83d 1432 de3d
000000e0: 8eb6 8cbd a01b 553c c6a4 46bd a750 7fbd
000000f0: 9f82 a93d 2b9b 63bd ce86 f2bd ade0 b13c
00000100: 0c0a 4e3a ec55 b0bd 0f30 6ebc d986 cf3d
00000110: 483a 88bd 08a3 acbc cedf 8e3d 251b cdbd
00000120: 9589 82bd 9df4 d83d cc80 d5bb 5ad9 79bd
00000130: 60e1 81bc 66aa 293c 58d3 0e3c 42b4 d6bc
00000140: 635f 0fbe fa93 703d 4140 4e3d f0ac dcbd
00000150: 3af6 ac3d 2925 a9bc 34e7 853d 658e e03d
00000160: 811f d63d 19c9 a0bd 0cac b2bc 4618 58bd
00000170: b042 e93b 54b1 d9bd 2574 50bd 99f1 9bbd
00000180: 8bfe da3c a56e 39bd 32b6 1ebb 6e16 a73d
00000190: 77e6 d6bd c455 d2bd 7872 8f3d 6816 0d3d
000001a0: 6cbc ad3d 8dbd 7c3d 606f 263d 257a 043d
000001b0: 0a54 3cbb 284d bc3c 8316 45bd 5240 44bd
000001c0: 1c91 5e3d 7bbe 2d3d 143d 873d 92f1 22bc
000001d0: 35a7 363d 520e 32bd 09f6 1fbd 11ac 0ebd
000001e0: 0d03 643a 28ec 90bd 697a 373d b6b7 81bd
000001f0: 2fd2 dabd 6780 3a3b 6419 7cbd af92 77bd
00000200: 2193 503d 025d 0c3d 88a9 5abd 73a8 983c
00000210: b8ff a8bd e990 173d ccbe 183d 8e91 3abd
00000220: 2500 983a b8a2 6bbd 7509 32bd e269 e83c
00000230: 3437 033d 0bd6 9f3d e202 f13d dd6a d53d
00000240: 960c 07be ddba aa3d 0c5d f1b9 1bd8 433d
00000250: 6367 6f3b bbbf 74bd 5f12 98bd 4393 fbbd
00000260: b625 04bd 7333 9abd e0ff 20bd 1e82 fa3c
00000270: ec90 e1bd b32e 43ba 4f19 a7bd bfa0 483d
00000280: c115 963d e4d3 f2bd 7dfe 333d 9a58 3c3d
00000290: 13c0 aa3d 7e62 863d babb ebbd 1f33 473d
000002a0: c61e 00bd 4f04 573c cbdc 983c 642b dbbd
000002b0: 54c7 3d3d 4c0a 4cbd 5c0d a4bd 322b e1bd
000002c0: 5e9a 74bd e8e7 c9bc 8186 913d 8d99 a4bd
000002d0: 9c63 abbd 7998 14bd 9deb 903c ceb6 d43c
000002e0: ee7f 4dbd 4ecf beba e6ac d8bd 1f0e 2dbd
000002f0: 9e12 153d 6931 97bd 9c39 92bd 754a a4bd
00000300: f304 ddbb 1a19 67bd 9649 94bd 6863 e83b
00000310: 3fa5 43bc 1098 b93d fa1d 92bd 09d0 cf3d
00000320: 1315 d33d ffb3 6a3d f36b f23b e339 8cbc
00000330: a26f d13d acf1 5fbc 72f8 debc f449 1bbd
00000340: 8447 b83d 1548 30bd ac60 623d 50ab a6bd
00000350: 4e8f 6b3d a54e d03d 1084 893c 8838 253d
00000360: 2598 6b3d 0eb6 a43d 2b10 a0bd 6ed0 67bd
00000370: 17e8 cd3c 2b76 b4bd 9e79 9bbb 0b36 b23d
00000380: 89cd b93d 8885 9f3c 6755 fbba 910f dfbc
00000390: 3e6e 04bd 5d32 2f3c 440f a1bc daec b33d
000003a0: e4f8 423b c45e 373d 48bb 4b3c 2ce5 803d
000003b0: ce19 bfbc 701c ffbd 2929 bdbd 68cc b1bd
000003c0: 8090 433d f441 86bd c0f3 bd3d 01aa 98bd
000003d0: 11d7 01bd f66c 7c3d 9dcb 32bd e74d 173d
000003e0: 2fca 68bc d3f3 033d 6476 2c3d 716d c33c
000003f0: 31e9 803d e9e4 8cbc f55d 0f3e bdbc 963d
0.009726934 -0.001591497 0.05926316 0.050255302 0.0575821 0.07223291 -0.048729558 0.01145071
0.051413603 -0.091716334 0.060357284 -0.049174063 0.025794556 -0.024667455 0.029854067 -0.025952013
0.03832621 0.09723683 0.094131134 0.069123305 -0.013088875 0.07402751 -0.0119662145 -0.06440542
-0.071431875 0.080347806 -0.03925412 -0.030540852 0.0011363481 0.06419671 0.014485327 -0.08221039
0.05729172 0.027207766 0.08425923 -0.07798723 -0.11094467 -0.07130661 -0.07206617 0.026065078
0.03069214 0.075887874 0.0035237337 0.011271706 -0.09329833 -0.032571312 0.06555564 0.020679193
-0.05961335 -0.0052495473 -0.010441052 -0.10647244 0.032335266 0.07101569 0.08222876 0.108493954
-0.06870757 0.013007075 -0.048496984 -0.062332775 0.08276867 -0.0555679 -0.11842118 0.02171358
0.00078597735 -0.08610138 -0.014537825 0.10133142 -0.06651741 -0.021073833 0.06976281 -0.10014943
-0.06373898 0.10593531 -0.006515598 -0.0609983 -0.015854537 0.010355568 0.00871738 -0.026209
-0.14001231 0.05873487 0.050354246 -0.10775173 0.084454015 -0.020647602 0.06538239 0.109646596
0.10455228 -0.07850856 -0.021810554 -0.052757524 0.0071185455 -0.10629526 -0.050892014 -0.076144405
0.026732704 -0.045271534 -0.0024217484 0.08158575 -0.104931764 -0.10270265 0.07004255 0.034445196
0.08483204 0.061704207 0.04063356 0.03234305 -0.0028736615 0.02298601 -0.048117172 -0.047912903
0.054337606 0.042417984 0.066034466 -0.00994529 0.044593055 -0.04347069 -0.039052997 -0.034832064
0.00086979644 -0.07076293 0.044794474 -0.06333868 -0.106846206 0.0028457881 -0.061547652 -0.060442623
0.050921563 0.034268387 -0.053384334 0.01863501 -0.082518995 0.03700343 0.037291333 -0.045548968
0.0011596723 -0.057528228 -0.04346605 0.028370801 0.032035068 0.07804497 0.11768128 0.10420773
-0.13188395 0.083364226 -0.00046036427 0.047813516 0.003653013 -0.05975316 -0.07425379 -0.12283947
-0.032262526 -0.075293444 -0.03930652 0.030579623 -0.1101397 -0.00074456184 -0.08159124 0.048981424
0.07328368 -0.11856821 0.04394387 0.045982935 0.083374165 0.06561755 -0.115104154 0.048632737
-0.031279348 0.013123586 0.01865997 -0.107016355 0.046332672 -0.049814507 -0.080103606 -0.10994567
-0.05971753 -0.024646714 0.07105733 -0.080371 -0.08368608 -0.03627822 0.017690474 0.025966074
-0.05017083 -0.0014557631 -0.10579853 -0.042249795 0.036394708 -0.07382471 -0.07139894 -0.08022014
-0.0067449748 -0.056420423 -0.07240598 0.0070919283 -0.011941253 0.09062207 -0.07134624 0.101471014
0.10306754 0.057300564 0.0073981225 -0.017117446 0.102263704 -0.013668459 -0.027218077 -0.037912324
0.089980155 -0.043037493 0.055267975 -0.08138144 0.057509713 0.1017125 0.016786605 0.040337116
0.057518143 0.08042537 -0.07815584 -0.05659526 0.025135083 -0.08811601 -0.0047447225 0.08701714
0.09072406 0.019472852 -0.0019175232 -0.027229102 -0.032331698 0.01069316 -0.0196606 0.0878541
0.00297504 0.04476811 0.012434788 0.06293711 -0.023327734 -0.12456596 -0.09236366 -0.086815655
0.047745228 -0.06555548 0.09275007 -0.07454301 -0.031699244 0.06162735 -0.043651212 0.036939528
-0.014208361 0.03221495 0.042105094 0.023855897 0.06294478 -0.017198997 0.14000686 0.07360218

conv3.bias f4 [10]
00000000: 0c99 5d3d 4dd8 e1bc 8be7 a83d 9caf b13d
00000010: b158 eabc 65d8 a53a 11fb 313d 9f7c 073e
00000020: 3cd0 853c 7688 6dbd
0.054101035 -0.02756896 0.08247288 0.08676073 -0.028606744 0.0012652992 0.043452326 0.13231133
0.016334645 -0.057991467

conv4.weight f4 [10, 10, 3, 3]
00000000: 765d bbbd 304b d73c 18c4 933d fb56 7f3d
00000010: e753 843c f701 c7bd 8601 723d f267 12bc
00000020: 781d 79bb bb88 ff3d 7607 913d e501 f03c
00000030: 872d cbbd 757a 9bbc baa5 593d c47b 863d
00000040: 9112 56bd e0e0 803d 777a a03d e47f 713d
00000050: 3aed 20bd 9de9 2cbd f685 9f3c 1d21 9f3b
00000060: eb7a c5bb 9de9 2a3d 2483 503b aef1 053d
00000070: 6f13 8ebd 711e b2bd 237c 253d de5b 5e3d
00000080: 837c 43bd cbf9 48bd 5cb7 a5bb a298 a1bc
00000090: c821 82bd 3909 933d 3a8a e93b f27b 993d
000000a0: 39ed e43c 8c0a b73c fe6d 763d c629 193d
000000b0: db7c 973c 448f b6bd 59d6 b93d 8828 2bbd
000000c0: 8af7 e23d da2c 06be 2bf4 8cbd 6710 77bd
000000d0: c49f 6f3d 3014 5c3d e592 163d f4ef cdbb
000000e0: fad9 c63b d46d d4bd 1a06 07bd 9b16 85bd
000000f0: bb65 6d3c 70b5 453d 486c 623d b454 94bc
00000100: e951 0b3d 62bb 903d 9245 c83d d0bd 8f3d
00000110: 63f1 a93d e99c c8bd 0dc8 633d 58c8 043e
00000120: 8d33 0a3e 31ca 4a3e 14ca ccbc b234 133b
00000130: 64ce 85bd 4adc 063c 5337 6a3d f4db dbbd
00000140: 1baa 33bd bcf6 bd3a 66f8 f1ba 9b75 cbbc
00000150: a1fc 8f3c 317e 4abd 32d1 9f3c ed80 813d
00000160: 6eb9 243d 48d7 a2bd da8d 8ebd 2c30 f83b
00000170: 4f97 873d 5269 d03c c2ee a3bc 9a36 bfbb
00000180: 8464 873d 995d 9abc 75fd 61bd a37e b8bc
00000190: f6ef 37bd 2077 febc 6787 693d 3718 d8bd
000001a0: c563 aa3d b320 8a3d 9687 5bbd 4201 babd
000001b0: 80bb 943d 2220 a0bc b653 373d aed4 d23d
000001c0: 8c1c 723d 8a36 8b3d 9b20 d83c 62a1 e03d
000001d0: b3cc 19bc d1ff ccbd e0fd 883d 447d fc3c
000001e0: b011 a7bd f955 953d e8ec ba3c a616 90bd
000001f0: 9d67 51b9 1ec2 a53d 4d4c 873d b02c 5d3d
00000200: 65b9 98bd d3cd c23d ba3e f83d bc5b 933d
00000210: 3127 a03d 46d7 0e3d 284c e9bb 2ef7 b33d
00000220: 8317 d83d f23e 87bc aea5 db3c 462e 53bc
00000230: 889f 993c 2a32 dbbc bc38 883c 8669 423d
00000240: 4e3f 63bc d493 fc3c a6cb 583d 4315 5d3d
00000250: 891c 98bd 87f3 ac3d a154 5e3d b4dd bc3d
00000260: 4203 18bd 91b8 e23d 3714 74bd 0279 1d3d
00000270: 0ff6 1cbd 8f45 77bd 69da 06be c41e 233d
00000280: 2139 c63c f755 cfbb 8d92 16bd 6b39 903d
00000290: b636 2ebd 5e88 073e e1cd c13d 97a4 fcbc
000002a0: 52ec 5ebd 4484 cd3d eeeb 95bd 47c3 64bd
000002b0: ccf7 a13d 0cd2 e6bc 5fdc b7bc e835 15bc
000002c0: 14be 12bd 59e6 afbc 6736 2fbd ce1d 49bd
000002d0: eaa8 c0bd 545e b73c 17f7 6cbc 60a1 71bd
000002e0: 47ef a43d e159 12bd 256d c23d 7e30 aebd
000002f0: efd1 07be b62d 023d 7c4d aa3d 041f 1bbd
00000300: b4d8 08bd d175 ba3d 5282 05bd b868 64bd
00000310: 0f43 b4bd 73e8 5e3b 4b5c a5bd 612b 8abc
00000320: c971 8fbd 064c f93d b102 e13d ad5d 46bd
00000330: 31b1 b2bd 877f e43b cd7b 44bc 49cf 9cbd
00000340: 199b 883d 13a0 4bbd 5a21 9fba e75b df3d
00000350: 9246 253e 055e acbc 9aaf c93c 2a9e a23d
00000360: 0326 4a3d c154 223c ad79 1d3c 32e8 da3d
00000370: de5c 513d dd51 79bd 5116 883d 5087 f93d
00000380: 3966 613c a28a 503e 3651 cf3a 0770 853d
00000390: 71f7 c5bc 5672 8cbb a652 52bd a0bf 173e
000003a0: e51f a43d 9cd8 5ebd d72c 8abd 8ac9 c8bd
000003b0: 70d8 a23c 7712 9f3d b0b8 b03d 1855 5d3d
000003c0: 93a1 6f3d ac8c b9bc 0422 d6bd 5e50 9e3d
000003d0: 5449 27bd 7710 683d 24fa be3d 8850 98bd
000003e0: f856 83bd 4639 a1bd fffe 1fbe caec 3fbd
000003f0: 2820 96bb 7c87 903d 680b 2abd c3fa f83c
-0.09148686 0.02628097 0.07215136 0.06233881 0.016153289 -0.09717172 0.059083484 -0.008935915
-0.003801195 0.12477251 0.07081501 0.029297778 -0.09920793 -0.01897929 0.053136565 0.06566575
-0.0522638 0.062928915 0.07835858 0.058959857 -0.039288737 -0.04221498 0.019473057 0.0048562423
-0.006026616 0.041726697 0.0031816447 0.032701187 -0.069373004 -0.086972125 0.04040159 0.05428683
-0.047726166 -0.049066346 -0.0050572585 -0.019726101 -0.063540995 0.071794935 0.0071270736 0.07494344
0.027945148 0.022343896 0.06016349 0.037393354 0.018492153 -0.089140445 0.09074087 -0.0417867
0.110823706 -0.13103047 -0.06882509 -0.060318377 0.058501974 0.05373019 0.036761183 -0.006284708
0.0060684653 -0.103725106 -0.032964803 -0.06498452 0.014489586 0.048268735 0.055279046 -0.018106796
0.034013662 0.070669904 0.097788945 0.07018626 0.08297994 -0.09795553 0.055610705 0.1296705
0.13496228 0.19803692 -0.024998702 0.0022461829 -0.065335065 0.008231232 0.057181668 -0.10735312
-0.043863397 0.0014493088 -0.0018460869 -0.024836352 0.017576518 -0.04943675 0.019508932 0.06323419
0.040215902 -0.07951218 -0.0696065 0.007574102 0.06620657 0.025440846 -0.02001131 -0.0058353664
0.06610969 -0.018843459 -0.055173356 -0.022521323 -0.04490658 -0.031062663 0.057013895 -0.105514936
0.08319811 0.06744518 -0.0535961 -0.09082271 0.07262325 -0.019546572 0.044757567 0.10294472
0.059109256 0.06797512 0.026382735 0.10968281 -0.009387183 -0.100097306 0.06689048 0.03082145
-0.081576705 0.072917886 0.022818044 -0.0703557 -0.00019970392 0.080936655 0.0660635 0.053997695
-0.07457236 0.09511914 0.12121339 0.07195231 0.07819975 0.03487327 -0.0071196742 0.0878738
0.105513595 -0.016509507 0.0268124 -0.01288945 0.018752828 -0.026757319 0.016628616 0.047463916
-0.0138700735 0.030832209 0.05292859 0.053975355 -0.07427318 0.08444887 0.054279927 0.09221974
-0.037112482 0.110703595 -0.05958959 0.03844548 -0.038320597 -0.06036907 -0.13169254 0.039824262
0.024197163 -0.0063273865 -0.036760855 0.070422016 -0.042532645 0.13235614 0.094630964 -0.030840201
-0.05442459 0.10034993 -0.07320391 -0.055850293 0.07908592 -0.02817633 -0.022443948 -0.0091070905
-0.035825804 -0.021472143 -0.04277649 -0.04910069 -0.09407218 0.022383846 -0.014463208 -0.05899179
0.08053451 -0.035730246 0.09493474 -0.08505343 -0.13263677 0.031781875 0.0831556 -0.037871376
-0.03340979 0.09104503 -0.032594986 -0.05576393 -0.08801853 0.0034013062 -0.08074244 -0.016866388
-0.07004125 0.121727034 0.109868415 -0.04842918 -0.08725203 0.0069732103 -0.011992407 -0.07656724
0.066702075 -0.049713206 -0.0012140677 0.10906201 0.16140202 -0.021040926 0.024619866 0.07940324
0.049352657 0.009907902 0.009611529 0.10688819 0.051113956 -0.060869087 0.066448815 0.12184012
0.013757282 0.20365384 0.001581705 0.06515508 -0.02416584 -0.004286091 -0.05134835 0.14819193
0.08013896 -0.054405794 -0.06746834 -0.098040655 0.019878596 0.07767194 0.08628976 0.05403623
0.0585037 -0.022650085 -0.10455707 0.077301726 -0.040841416 0.056656327 0.09325054 -0.07437235
-0.06413072 -0.07872252 -0.15624617 -0.04685668 -0.00458147 0.070570916 -0.041514784 0.03039301

conv4.bias f4 [10]
00000000: 61d6 d6bb 00bd 7ebd c142 4fbd 9823 4c3c
00000010: d0be 903d 83ee 9b3d 2b3b 5f3c 32bc 803d
00000020: 0764 1ebe f2c2 c3bd
-0.0065563177 -0.062191963 -0.05060077 0.012459658 0.070676446 0.07613852 0.013624947 0.062858954
-0.15467845 -0.09558667

norm.weight f4 [10]
00000000: ce83 8a3f 06c6 8d3f 0944 983f a895 913f
00000010: 38cc 963f 0b67 9a3f b5e8 933f d238 8d3f
00000020: ffe6 8d3f 7d08 8b3f
1.0821474 1.1076057 1.1895763 1.1373796 1.1781073 1.2062696 1.1555392 1.1032965
1.108612 1.0861965

norm.bias f4 [10]
00000000: 771b 9bbc 8159 1ebd 302c eebc 8745 16bd
00000010: 5c3c 03bd 66dd 1dbc 4409 9c3c 630c 57bc
00000020: 0b4c 73bd 3b7e 46bc
-0.018933995 -0.038659576 -0.029073805 -0.0366874 -0.032039985 -0.009635305 0.019047387 -0.013125512
-0.059398692 -0.012115057

norm.running_mean f4 [10]
00000000: f911 4e3d e191 65bb fab3 92bd 1322 a93c
00000010: 36a5 b03d 57cb 713d 6b0e cb3d 18cc 00bc
00000020: e13a fdbd 4bbd 14be
0.05031011 -0.0035029578 -0.07163234 0.02064613 0.086252615 0.05903181 0.099148594 -0.00786116
-0.12364746 -0.14525335

norm.running_var f4 [10]
00000000: 42da 6a39 a9fd a039 9d53 a039 4115 4939
00000010: 3c78 cf39 e066 9939 3097 d739 698d 8a39
00000020: f50f 1539 fd44 c839
0.00022397286 0.0003070657 0.00030579875 0.00019176771 0.00039571698 0.00029259082 0.0004112064 0.0002642677
0.00014215692 0.00038198373

fc1.weight f4 [50, 810]
00000000: c432 bf3c ded2 473d b6c6 2ebc eb96 06bd
00000010: 2d5a 43bc e5c9 e33c 5230 55bc 91a6 223c
00000020: ebd1 763b ceff d8bc b880 0ebc 52f0 f13b
00000030: 39db 10bd 6023 61bc 2ea9 b63c 042d ccbb
00000040: 1d9b 273d e321 20bd 921e 583c 9b91 3abd
00000050: c110 97bb 0c94 d2bb 57e2 13bc 4643 ce3b
00000060: 888c acbc ceca bc3c a9e7 d53b 64c2 43bd
00000070: 89b6 54bd fba9 dbbc e006 efbb 2b3a 423d
00000080: 2f65 953c f880 16bc b7a5 863c 01c1 ecbc
00000090: 1e59 46bd 1fd2 16bd 00e3 c8bc e723 86bc
000000a0: 14f1 813c 0af6 ff3b 74b2 113c 4797 50bd
000000b0: 4649 8cbd a98a 02bd 5aea 0d3b 0a85 4c3d
000000c0: 5093 14bd 54f5 81b8 0e50 033d 1b15 323d
000000d0: c3e2 0e3d 06fe cd3c 611e 15bc f3f4 5fbc
000000e0: ce83 633c 8885 643c 3612 a33d 4ad6 853d
000000f0: 3d20 bf3b 884e a13c f112 163d cab5 1cbd
00000100: 5ca4 9bbd 2445 4bbd e282 e4bb cbc4 11bd
00000110: 837a d6bc 0314 d9bc 5468 cc3c b3a1 0bbd
00000120: 4069 c7bc 5aa7 8d3d cf37 1b3c 35e1 813b
00000130: 6ea7 15b9 18df a8bc bac7 b7bc 757c 63bb
00000140: 8bb0 a5bc d057 1fbd b5dd c7bc 2c2b 60bc
00000150: 4266 eebc e0cb ccbc d499 133d 8365 cabb
00000160: edfc 523d 2e56 1f3c b298 de3b 3856 023b
00000170: 73aa 173d 3a7b 6dbc 6a20 e3bc 5d8e eebc
00000180: cd2c 6b3c 0bb1 cfbc 0902 83bc 09db 08bd
00000190: 80f3 4fbc d0f7 c6bc f03e ff3b 0f13 a7bb
000001a0: 74fd 2f3c 733b 52bc d139 27bd 2b19 883b
000001b0: 4dc7 2bbd b7c1 4dbc 6b61 d53c ca2f 85bd
000001c0: 274e 36bd 1198 69bb b632 09bd 4f5d e93c
000001d0: 55df 5d3c 9e0f ef3c 5170 913c 01f3 25bc
000001e0: 2039 25b8 c9ea 983d 3323 cbbc daa1 b8bc
000001f0: ea17 f6bc c3d2 373d b8c4 62bd 2549 91bd
00000200: ca5e 67bd 2324 d8bc 53b7 793c 491e ae3c
00000210: d255 15ba 7ec7 3fbd f4e7 9fbc 6ad0 28bc
00000220: 9ea4 1d3d 72a5 87bc ab80 fe3b c02f 3636
00000230: 0038 a83c eb8e 9b3c 6103 2d3d 8d79 b4bc
00000240: 0666 283c 9b23 8f3c f812 853c c79a 1dbd
00000250: 9781 303d a3a4 403d 5b10 803c 9723 723c
00000260: 6b99 1dbd cad2 d73c ac39 93bd 9149 793d
00000270: 7f03 383c 0965 223d 802a f7bb dbcf 9d3c
00000280: 0a06 d2bc 3156 0abc 71ef 6a3c 1ecc 333c
00000290: 36a0 73bc e900 85bd ad6e 6ebc f4cb 2d3c
000002a0: 88d3 77bc 767c 033c ccfd e23c 48f3 a93c
000002b0: 3341 d6bc 3b27 1e3d 73ea 9e3c ffa0 25bc
000002c0: 86d0 e6bc fe56 aebc 964f c23c 6d0d 033c
000002d0: 4294 dbbc 2ff7 55bc fd99 b93c 4500 45bd
000002e0: a5c6 de3b b6fd 043d ccdf 9b3c 7467 7f3c
000002f0: ae65 be3c 3c69 eb3a f9c4 78bd 8263 283d
00000300: 1d1a c13c 5155 c63c 4cae 12bb e160 dd3c
00000310: 21b9 263d f196 d0bb 94e5 753d 2f40 153d
00000320: 5c1f 3abc 487f 01bd 18b3 e2bc bdb1 21ba
00000330: 0909 cbbc bbb1 95bb 958c 5f3c 3c9a 0bbc
00000340: 33b5 70bd d9ed 6bbd 5351 213d 5a00 debb
00000350: 8f09 cc3c 5c77 233c 1418 ccbd 7c85 08bb
00000360: 3022 2e3a 5e2e 54bd 5b21 b4ba 7fcf 48bb
00000370: d588 00bc 0e43 9cbd 85f5 dabc 394d 44bd
00000380: 3d51 f4bc 02e5 513c 7e5b 48bd edde 9b3c
00000390: 2b07 063c 187f 8bbb 3a56 6a3d 4cf9 013d
000003a0: fc33 a23d 4d0c 0b3c b3ba c43a cb9e 2c3d
000003b0: 499e 3abd 46fa 5b3d 2aad 21bd 91a3 f4ba
000003c0: 1b10 2ebc 9e09 dabc 5cf3 98bc e210 433c
000003d0: b5b9 143d b8cd 8e3a 0970 79bc ae98 1d3c
000003e0: f755 a4bc e366 1b3c 9c2f cd3b 41fd 4e3c
000003f0: 0e07 43bd 4f6c a53c 305b 8a3c 8a39 3cbd
0.023339637 0.048785083 -0.010667494 -0.03285877 -0.011923355 0.027806232 -0.013012009 0.009927408
0.0037661742 -0.026489165 -0.008697681 0.0073833847 -0.035365317 -0.013741344 0.022297468 -0.006230952
0.040919412 -0.039094817 0.013190882 -0.045549016 -0.0046101515 -0.00642634 -0.009026132 0.0062946407
-0.021063104 0.023045924 0.00652786 -0.047792807 -0.05193189 -0.026814451 -0.0072945207 0.047418755
0.018236725 -0.009186022 0.01643644 -0.028900625 -0.048424833 -0.03682148 -0.024522305 -0.016374541
0.015862025 0.0078113126 0.008892644 -0.05092552 -0.06849913 -0.031870518 0.0021654577 0.049931563
-0.0362733 -6.196895e-05 0.032058768 0.04347716 0.034884226 0.025145542 -0.009101481 -0.01366924
0.013886405 0.013947852 0.07962458 0.06535013 0.0058327005 0.019690767 0.036639158 -0.038259305
-0.075997084 -0.049626485 -0.0069736103 -0.035588067 -0.026181465 -0.0264988 0.024952091 -0.034089755
-0.02434218 0.069166854 0.009473755 0.0039636143 -0.0001427212 -0.020614192 -0.022434104 -0.0034711633
-0.020225784 -0.038902104 -0.02439771 -0.013682168 -0.029101495 -0.024999559 0.036035374 -0.006176652
0.05151074 0.009725137 0.006793105 0.0019887816 0.037027787 -0.0144947115 -0.027725417 -0.029120618
0.014353943 -0.025352975 -0.015992181 -0.033412013 -0.012692332 -0.024288088 0.007789485 -0.0050987075
0.01074158 -0.012831557 -0.040826622 0.004153391 -0.041938115 -0.012558392 0.02604743 -0.06503256
-0.044508126 -0.0035643617 -0.033495627 0.028486876 0.013542016 0.029182252 0.017753752 -0.010128737
-3.9392267e-05 0.07466657 -0.024797058 -0.022538114 -0.0300407 0.044878732 -0.055363387 -0.07094029
-0.056486882 -0.026384419 0.015241462 0.021254675 -0.0005696687 -0.04682111 -0.019519784 -0.010303596
0.03848707 -0.016558383 0.0077668033 2.7147908e-06 0.020534515 0.018989047 0.04223955 -0.022030616
0.0102782305 0.017473033 0.016244397 -0.038477685 0.043092337 0.04703201 0.015632799 0.014778993
-0.03847639 0.02634563 -0.071887344 0.060861174 0.011231302 0.039647136 -0.007542908 0.019264152
-0.025637645 -0.008443401 0.014339314 0.010973958 -0.01486974 -0.06494314 -0.014552754 0.010607708
-0.015126117 0.008025279 0.02770891 0.020745888 -0.026154136 0.03861163 0.019398903 -0.010109185
-0.028175604 -0.021281715 0.02371959 0.007998806 -0.026804093 -0.013059421 0.022656435 -0.04809596
0.0067985826 0.03246852 0.019027613 0.01558863 0.023241844 0.001796044 -0.060734723 0.041110523
0.023572022 0.024210604 -0.002238172 0.027023735 0.040703896 -0.00636565 0.060033396 0.036438163
-0.011360016 -0.031615525 -0.02767329 -0.00061681477 -0.024784582 -0.0045683063 0.013644357 -0.008520659
-0.058766555 -0.057599876 0.039384197 -0.0067749443 0.024906902 0.009977188 -0.0996553 -0.0020831516
0.00066426676 -0.05180203 -0.0013742851 -0.0030641255 -0.007845123 -0.07629977 -0.026728401 -0.047925208
-0.029823894 0.012810947 -0.04891538 0.019027198 0.00818042 -0.004257094 0.05721114 0.03173189
0.079200715 0.008486819 0.0015009254 0.042143624 -0.04556111 0.053705476 -0.039471783 -0.0018664469
-0.010623957 -0.026615914 -0.01867073 0.011905881 0.036309917 0.0010895049 -0.015224465 0.009618921
-0.020060522 0.009484979 0.006261779 0.012633623 -0.04761415 0.020193247 0.016889185 -0.04595331

fc1.bias f4 [50]
00000000: 2ee3 453c 68d7 73bc 8349 2dbd f17a bb3c
00000010: c2b9 33ba 6b94 63bc c16e 343d 558d fe3c
00000020: 9f55 9dbc 6671 073d 0be7 1bbd 890b bdbc
00000030: 8295 133c 29cc f83c 721b 093c 8a06 b93c
00000040: 4143 00bc fc31 cdbc 6c0a a2bc f7b8 1ebd
00000050: 13bf b83c b898 9bbc ae9e 20bd 4a05 15ba
00000060: 2f77 5b3c f3b3 e63c 557c dcbc 076a 2bbd
00000070: 7268 bf3c 869a 0ebd 7338 af3c fb58 9dbc
00000080: 0f4e 8b39 fbb5 7d3c c3a4 843c 1605 1bbd
00000090: 5bf8 2f3c cb88 b2bc 7bf9 e7bb 8635 0b3b
000000a0: 799a 5e3c 8b68 6738 59b9 473d cc61 ff3c
000000b0: 1965 0abd 45d1 9d3c eb7e 8d3a 0525 00bd
000000c0: 97ff 3f3d ea4f 4f3c
0.01207809 -0.0148829 -0.042306434 0.022885771 -0.0006855988 -0.013890366 0.044050936 0.031073252
-0.019205866 0.03306713 -0.038062137 -0.02307679 0.009007813 0.030370789 0.00836836 0.022586126
-0.007828535 -0.025048248 -0.01978036 -0.038750615 0.022552049 -0.01899372 -0.03921383 -0.0005684687
0.013395115 0.028161978 -0.026914755 -0.041849162 0.023365233 -0.034815334 0.021389222 -0.019207468
0.00026570304 0.015485282 0.016191846 -0.037846647 0.010740365 -0.021793744 -0.007079301 0.002124162
0.013586634 5.5172055e-05 0.048760746 0.031174563 -0.03378782 0.019264827 0.0010795271 -0.031285305
0.04687461 0.01265333

fc2.weight f4 [7, 50]
00000000: 6e3c c53a 1201 3dbe 0550 083e 6893 bdbd
00000010: 211b ec3d 31e9 fa3c 5f60 3d3e 4422 f03d
00000020: 99dc fe3d 557a d9bc 63fb e53d e1ba c93d
00000030: ee7a 23bd b85d a5bd 9b02 b8bd dbc3 af3d
00000040: e009 763c 9472 023d cae7 c6bd 31ce 553c
00000050: b452 d7bc 1ce0 bbbd c9df 523d ddbe 04be
00000060: 56de e33d 97f6 b6bc a64b 22be 4677 773d
00000070: e5c8 28bd 9212 02be fbc7 cdbd 30e4 dcbd
00000080: 7249 ffbd 6222 36bd 2200 993c 3fdb f43d
00000090: ee2e 9b3d 4e99 0fbd f7b3 333e fd14 25be
000000a0: a814 123e 5660 2dbd 607f b63d a585 3d3d
000000b0: 5e4f c33c 2516 26bd c789 2dbe 6258 8b3d
000000c0: 9054 93bc 6386 8e3d 234c 5c3d 301d a93d
000000d0: b5bc 38be 2c49 bdbd dead 893c c594 a8bd
000000e0: ead9 903d 4ac1 1e3e 5e35 24be 7960 573d
000000f0: 5107 fabd 675d f13c 81ed 3b3e eb3f 8f3d
00000100: ff9c f73c 8e73 fbbd 3941 0e3d 5765 da3d
00000110: 8de3 ea3d 4e93 df3d f87f 293e 8047 cf3d
00000120: f99f a73c ea87 043e 4622 97bc 8a88 263d
00000130: 0e77 9dbd 133c adbd 1554 8a3d fe04 453b
00000140: 5219 5dbe f580 e1bd 77f0 5f3d 14e7 c4bd
00000150: 1c92 edbd 10e9 43be 5060 46bd 0ee0 10be
00000160: 7504 703d 6b9a 35be 3a3a fa3d 99ce e1bc
00000170: 1f58 72bd 3d70 423d 76e9 d5bd da6a e7bd
00000180: 7534 0f3d 4cee a33c e142 2d3e 788e dc3d
00000190: 528c b1bd 1d28 993d ea14 0c3e e3d0 dcbd
000001a0: a491 15be 2200 34bd 6163 00be 79f9 b43d
000001b0: 6eed 51bd 57ef 1b3d 5512 0ebe bd9a 07be
000001c0: 02de 87bd dca1 ff3d 5e04 0f3e 96c8 12be
000001d0: d424 c1bd b16a e73d 5ef1 99bc c336 eabc
000001e0: c14e f43d 7408 41bc fc79 ce3d 3b1c 0cbe
000001f0: fa65 35be 97e5 e4bd 662f 7d3b 221a d6bd
00000200: 523c d1bd 7799 16bd 32db 283e ff20 0d3e
00000210: 0abc b1bd 15a9 0fbc bfbe 033e 45dc 113d
00000220: ff15 1f3e 026d bb3d 45cd 103e 5544 e33c
00000230: b521 da3d 3a1c a3bd 11f1 8abd e51f 133e
00000240: b9b4 e1bd 6372 b53d 244a 15be 959d b53d
00000250: 107a 973d 7dcc 00be f84d 113e 8f0d ab3d
00000260: 8451 b03d 63d3 4cbd 7144 b0bb f0bf 1abe
00000270: 7b3f 35bd e2ea a9bd 0955 13be e497 32be
00000280: 6d3f b2bd ca93 833c 0c67 bc3c 9200 aa3d
00000290: cbc8 0bbd 1c0c 133d 1ccf bdbd 8b59 073e
000002a0: 6866 073e 10f5 b13b 1553 2fbe 90fb 10be
000002b0: b196 df3d 933e 00be 6188 b3bd ad19 db3d
000002c0: 1476 cebd 718e 2a3e b7b2 73bb 51e6 4fbc
000002d0: db47 8ebd ee4a 0abe 3eb8 893b cfac 9c3d
000002e0: 9bcb cabd deef 123e 6150 12be 58b4 303d
000002f0: a86a 033e 58c0 273e c768 6f3d 17c7 db3d
00000300: 4183 00be 6377 c13c c77c b8bc a70c eebd
00000310: 5d72 1f3e 1b1d 3abd 77eb dbbd bdc8 0cbe
00000320: 2d3e 2bbe 9f84 a93c 37ef 50bd ee2b 723d
00000330: 453b c7b9 f988 193d 518d 4abe f799 d8bb
00000340: 00c3 243e e910 b83d 7ab3 b03c 1605 c73d
00000350: 2148 3bbe daa7 ad3c 39bf 52be 9ed0 5fbe
00000360: 292d df3c cc0e 1d3d b891 9e3d b357 883d
00000370: 9242 b03d 703e 943d 9f8a 103d aeaf 533e
00000380: c38b 63bd a9b8 a13d 1a93 3f3e a81e 453e
00000390: 5323 68bc 2fe0 ef3d a9a2 b6bd 6168 a93d
000003a0: 2e9b b23c e0ed 4c3e 3b6e 7dbb 813b 8d3d
000003b0: 89c8 f63d 8391 2dbe d24f 323d 221a d5bd
000003c0: 60c1 38bd ae1b 8abd 6424 27be f307 2abe
000003d0: 7f99 9dbd 33ee e6bd e0b3 733d 4695 493d
000003e0: 9db3 bb3c bc47 e23d 4b39 0abe 94b7 b9bd
000003f0: b703 0ebe 7131 623d 1e15 5f3d a7dd fb3b
0.0015047917 -0.1845744 0.13311775 -0.09256631 0.11528612 0.030628772 0.18493794 0.11725286
0.124444194 -0.02654759 0.11229589 0.098500974 -0.039912157 -0.08074516 -0.08984872 0.08582278
0.015017003 0.03184755 -0.09712179 0.013049648 -0.026284553 -0.09173605 0.05148295 -0.12963434
0.111263916 -0.02233438 -0.1584917 0.060416482 -0.041207213 -0.12702397 -0.10047909 -0.10785711
-0.124651805 -0.044466384 0.018676821 0.119558804 0.075773105 -0.035058312 0.1754912 -0.16121288
0.14265692 -0.0423282 0.089110136 0.04627003 0.023841556 -0.040548462 -0.16947089 0.06803967
-0.017984658 0.06959226 0.053783547 0.0825752 -0.18040736 -0.09242472 0.01680654 -0.082315005
0.07072814 0.15503421 -0.16035983 0.052582238 -0.12208427 0.029463483 0.1835232 0.06994613
0.030226229 -0.122779 0.03473017 0.1066386 0.11469183 0.10916768 0.16552722 0.101210594
0.020462023 0.12942472 -0.01844896 0.040657558 -0.076887235 -0.08458724 0.067543186 0.003006279
-0.2159169 -0.11010925 0.054672685 -0.09614387 -0.11600134 -0.19131875 -0.048431695 -0.1414797
0.058598 -0.17734687 0.12218137 -0.027564334 -0.05916607 0.04747032 -0.1044492 -0.11299677
0.034962136 0.02001109 0.16920044 0.10769361 -0.08669342 0.07478354 0.13679853 -0.107820295
-0.14606339 -0.04394544 -0.1253791 0.08836646 -0.05125182 0.03807005 -0.1387418 -0.13242622
-0.066341415 0.12482044 0.1396651 -0.1433433 -0.094308525 0.11299647 -0.01879185 -0.028590566
0.119290836 -0.011781801 0.100818604 -0.13682644 -0.17714682 -0.11176603 0.0038632988 -0.10454203
-0.10216583 -0.03676745 0.16489866 0.13782118 -0.08678444 -0.00876834 0.12865733 0.035610456
0.15535735 0.09151651 0.14140804 0.027742544 0.1065096 -0.07964368 -0.06784261 0.14367636
-0.11020798 0.08859708 -0.14579064 0.08867947 0.073963284 -0.12578006 0.14189899 0.083521955
0.08609298 -0.05000628 -0.0053792526 -0.15112281 -0.044249993 -0.082967535 -0.14387907 -0.17440754
-0.08703504 0.016061682 0.022998355 0.0830089 -0.034127038 0.03590022 -0.092680186 0.13217752
0.13222659 0.005430825 -0.17121537 -0.14158463 0.10917414 -0.1252387 -0.087662466 0.10698257
-0.10081115 0.166559 -0.003718538 -0.012689189 -0.06947299 -0.13505146 0.0042028716 0.07650148
-0.09902116 0.14349315 -0.14288475 0.04314074 0.12833655 0.16381967 0.058449533 0.10731333
-0.1255007 0.023616498 -0.022520436 -0.11623507 0.1557097 -0.045437913 -0.10738271 -0.1374845
-0.16722937 0.020693121 -0.051009383 0.059123926 -0.00038000397 0.037484143 -0.1978047 -0.006610151
0.16090012 0.089876 0.021569956 0.09717767 -0.18289234 0.021198202 -0.20580758 -0.21856925
0.027243214 0.03834419 0.077426374 0.06657352 0.08606447 0.072384715 0.03528845 0.20672485
-0.05555321 0.07896549 0.18708459 0.19249976 -0.014168578 0.117126815 -0.08917744 0.08271862
0.021802511 0.20012617 -0.0038670439 0.06896115 0.12049968 -0.1695004 0.043533154 -0.10405375
-0.04510629 -0.06743561 -0.16322476 -0.16604595 -0.07695293 -0.11275902 0.059497714 0.049214624
0.022912795 0.110488385 -0.13498418 -0.09068218 -0.13868605 0.055222932 0.0544635 0.007686335

fc2.bias f4 [7]
00000000: 699c 8bbd 3be7 833d 7c6e 6abd 337a 103d
00000010: 4a20 563d bafa 5d3c bf82 6cbc
-0.06816942 0.06440588 -0.057234272 0.03527279 0.052276887 0.013548547 -0.014435469

localization.0.weight f4 [8, 1, 7, 7]
00000000: 4ce9 343d a0ca 073c f609 8abd 1958 0e3d
00000010: c492 283d aeb5 a5bd 948a 7d3d 8614 77bd
00000020: 2d34 163c ccc7 8dbd 2a0a 9a3d f592 5abb
00000030: 3425 40bd 05ff cb3c dbcc a1bc 7ae0 603b
00000040: 9844 f23d d8d8 b33d 0126 34bd c11b c5bd
00000050: 20c4 c43d 9075 93bd 17b0 113e 976a ac3c
00000060: 1c98 6bbc 2570 523c 3fa4 7ebd 5b70 863d
00000070: 0866 65bd 6a6d 0b3b a873 afbd 6d3d c53c
00000080: 3ffd 113d 7015 38bd 2369 fabd 7ee3 733d
00000090: 4cab 893b fda7 1bbd 9b99 203d e294 c53d
000000a0: 3d94 8b3d 2c2a 523d 5463 6b3c e2bb e03d
000000b0: 5a7c 25bd 7201 e8bd b23b f3bd 7bc5 eb3d
000000c0: cda8 71bd c07c 70bc 344c 923a 77f1 bdbd
000000d0: caec 39bd 35b2 803d fd89 da3d 3a39 cabd
000000e0: 044d 053e 27b4 ca3d c434 67bd c82d 67bd
000000f0: 8d38 b53c fe6b 183c 88cc 353d fba0 5a3d
00000100: 6e14 003e 1c50 fc3c 72a9 b7bd 8977 0fbd
00000110: 2d74 68bd d856 8d3d 2668 9d3d ea8c 043e
00000120: 302b 82bd e29d e6bd b010 8e3d 71f8 06be
00000130: 836d ed3b e8eb a7bd db64 c8bd a745 5d39
00000140: e380 e5bd 16ea 6a3d 87da 103d b486 4bbd
00000150: 67cf 853c 8d90 d53d c112 6d3d 82fd b83d
00000160: 4ce5 d9bd d03f e73d f8a6 abbd e8b2 e0bd
00000170: 898a e9bd b972 be3d 5f53 eb3c 6683 053e
00000180: 5f82 4dbd c0fb 113d 3255 89bd 451a 273d
00000190: b5e7 ea3d 1bff 20be 9997 66bd eae0 c73d
000001a0: 8bc6 e2bd 66d9 583d e9a9 f1bc 1f0a f0bd
000001b0: 42c6 953b 5fa3 633c dd57 c13d 0914 ab3c
000001c0: 2db0 d0bb c98f f43b e903 6e3d 6277 f8bc
000001d0: 6a5f 023d 893a e03d 7ab1 29bd 8e59 cf3d
000001e0: e00e fa3d 2cfc 28bd 07e4 843c de84 9ebd
000001f0: 3e48 8c3d 61d2 673d 75a6 babd 0ccc f93d
00000200: 08dc 55bb 8cfe 19bd 2d34 38bd a12a fabb
00000210: 31af c0bd 1c10 06be 3de3 293c 6370 053e
00000220: d789 ca3d 40a3 fabd 77f4 03be 7dc0 c5bc
00000230: da49 10be e5d3 9a3d 0277 0cbe 1669 0b3d
00000240: 7208 143c e0c3 babd 3e17 11be 3251 99bd
00000250: 4505 31bd 7438 bd3c 753a cbbd 9055 123e
00000260: e7db bc3d 4ea0 df3d 510e 133d aaa6 12bd
00000270: 0273 1a3d 2788 82bd c4e6 0d3d 3d2e a9bc
00000280: 6cbb e23c 46e6 20bd 6b09 d33d f8d5 8cbd
00000290: 3115 113e 4e6e 303b 3409 a43c 9824 d63b
000002a0: 4bd8 383d 0726 8fbd dcf6 74bd 6031 ef3d
000002b0: c0f5 883c d1b0 c23d a292 a43c e7c4 f73d
000002c0: b235 b6bc d48e ec3c 879e 2b3c 0637 ca3c
000002d0: 265b e33d f6e1 ef3d ed5a 0abd 3f72 c53d
000002e0: dca2 eebd 8d37 f23c 4f5c b5bc 836b 9b3c
000002f0: d3d2 aebd a545 dabd 835a d13d 43ca a43d
00000300: e804 d83d c792 923d b7e9 fa3d d0e0 e03d
00000310: a9c3 1ebd 93fc 80bd 397f c13d 3d40 d73d
00000320: c324 873d b584 d43c eab6 72bc c064 3b3d
00000330: c8b9 843d 5443 3cbc b04e 7fbd a8e6 fe3c
00000340: 3d17 4abb 42a2 95bd 5388 74bb 405b dcbc
00000350: 3255 8f3d 0930 38bd aa0b 04bc db56 50bd
00000360: e2c8 5bb9 3ac3 4ebc c073 b6bc a2bc e7bd
00000370: 6770 b73d a104 003d d0ec 0fbe 80a7 453d
00000380: 2934 4d3d f5f3 8d3d 2a3f 18ba 4374 2c3d
00000390: 49a2 c93c 78e9 fdbc 3fe7 9cbc f467 25be
000003a0: f3d8 abbd ded6 0abe 96fa b93d 6cd2 e9bd
000003b0: 08bf 31bd 9f13 26be 3137 71bd d284 8bbd
000003c0: 7c10 9e3d d676 e33d 691b 4bbd 5d8d b83d
000003d0: 2848 abbd d498 a53d eb11 f3bd 955d e33c
000003e0: a59e 1e3e fc66 433c cfa3 a33d 4412 823d
000003f0: a0c4 b3bd c1a6 b2bd 69fb 8cbd 54ca 353e
0.0441678 0.008288056 -0.06740181 0.034751985 0.04115559 -0.08091293 0.061899737 -0.060322307
0.009167713 -0.06922874 0.0752147 -0.0033351753 -0.04691048 0.024901876 -0.019751003 0.0034313486
0.118294895 0.08781594 -0.043981556 -0.09624434 0.096077204 -0.07200158 0.14227329 0.02104692
-0.014379527 0.01284412 -0.062168356 0.06564399 -0.056005508 0.0021274933 -0.085669816 0.024077142
0.035641905 -0.04494232 -0.122270845 0.059543125 0.0042013284 -0.038002003 0.03920899 0.09647538
0.068153836 0.05130975 0.014366943 0.10973336 -0.040401794 -0.11328401 -0.1187662 0.11512276
-0.05899887 -0.01467818 0.0011161626 -0.092745714 -0.045391835 0.0628399 0.106708504 -0.09874196
0.1301766 0.098976426 -0.056446806 -0.056440145 0.022121692 0.009303091 0.04438451 0.05337618
0.12507793 0.030799918 -0.08967866 -0.035026107 -0.05675142 0.0690133 0.0768588 0.1294438
-0.063558936 -0.112605825 0.06936777 -0.1318071 0.007245721 -0.081992924 -0.09784862 0.0002110215
-0.11206224 0.057352148 0.035364654 -0.04968901 0.016334249 0.104279615 0.057879213 0.09032728
-0.10639438 0.11291468 -0.08381456 -0.10971624 -0.114033766 0.09299225 0.028726278 0.13038406
-0.05017316 0.035640478 -0.06705703 0.040796537 0.11469976 -0.15722315 -0.05629692 0.09759696
-0.11073025 0.052941702 -0.029499965 -0.117206804 0.0045707533 0.013893931 0.09440587 0.020883577
-0.006368658 0.0074634296 0.058109198 -0.030330364 0.031829275 0.10948665 -0.04142902 0.10124503
0.122098684 -0.041256115 0.016222013 -0.07740186 0.068497166 0.056597117 -0.091137804 0.12197122
-0.003263237 -0.03759627 -0.044971634 -0.0076344763 -0.09408415 -0.13092083 0.010369119 0.13031153
0.09889572 -0.12238169 -0.12886225 -0.024139637 -0.14090672 0.07559947 -0.13717273 0.034035765
0.009035217 -0.091193914 -0.14169022 -0.0748619 -0.043217916 0.023098208 -0.09923259 0.14290452
0.092216305 0.109192476 0.035902325 -0.035803474 0.037707336 -0.06373625 0.034643903 -0.020651931
0.02767726 -0.039282106 0.10304531 -0.06876749 0.1416824 0.0026921215 0.02002392 0.006535124
0.045128148 -0.06989675 -0.059805736 0.116793394 0.016718745 0.09506381 0.020089451 0.12098103
-0.0222424 0.0288767 0.010474808 0.02468444 0.111013696 0.117130205 -0.03377812 0.09640931
-0.11652157 0.029567504 -0.022138743 0.018972164 -0.08536305 -0.10657815 0.10222342 0.08046391
0.10547811 0.07156902 0.12251609 0.109803796 -0.038760815 -0.06298175 0.09448094 0.10510299
0.065988086 0.025942186 -0.014814118 0.04575038 0.064807475 -0.011490662 -0.0623309 0.031115845
-0.0030836605 -0.07306339 -0.00373127 -0.02689898 0.069986716 -0.044967685 -0.008059422 -0.05086408
-0.00020960302 -0.012619788 -0.02227199 -0.11315276 0.08956986 0.031254414 -0.1405518 0.048255444
0.050098572 0.06931297 -0.0005807752 0.042103063 0.024613516 -0.030995116 -0.019153235 -0.16152936
-0.08390989 -0.13558528 0.090809986 -0.11417088 -0.043395072 -0.16218422 -0.058890525 -0.06812443
0.07717988 0.111066505 -0.049586687 0.09011338 -0.08363372 0.0808579 -0.11868652 0.027754584
0.15490206 0.011926409 0.079902284 0.0635114 -0.087777376 -0.08723212 -0.0688389 0.17752963

localization.0.bias f4 [8]
00000000: 9e76 1abe 90c0 c6bd 56e2 563d 83c4 63bd
00000010: c812 a63d bddd 38bc 24a1 0f3d 4fa0 b43c
-0.15084311 -0.09704697 0.052461945 -0.05560733 0.08109051 -0.011283335 0.035065785 0.022049097

localization.3.weight f4 [10, 8, 5, 5]
00000000: 1bb5 34bd c360 ae3b f47a 08bd a508 bcbc
00000010: 0c92 b9bb 2bb0 1fbd 2b63 93bc 6966 983d
00000020: baff 8dbd 1961 803c ebd2 8f3c 3b10 f1bc
00000030: 740e 16bd 2db0 88bd bbad 093d 4190 833d
00000040: 6b97 ddbc 3dbc 863d 6d05 d6bc 39c9 523c
00000050: 9f12 9d3c d84d 1abd 246b a43d 55db 0dbc
00000060: 6793 033c d363 3b3d 389b f2bb 9c55 7cbd
00000070: 9001 043d df51 413c c181 37bd d312 adbc
00000080: e771 923d 724e 34bd dc4d cb3c bda7 c0bd
00000090: 9b44 62bc 6030 7f3d 61c5 77bd c455 94bd
000000a0: f381 543d 5835 5fbd a14a 8dbd f6d1 183d
000000b0: bff1 b43d c39d 943d 3d67 7f3d 22ea 15bd
000000c0: e4e5 2cbc 2dd5 7a3d 6ba8 723d 7685 163a
000000d0: 5ecb 91bd e249 8abd 023e 0ebd 9016 113d
000000e0: 1d7f 59bc 2e2d 033c 26ec 983c 3d63 503d
000000f0: 2859 dc3b 08c7 db3c e62b 093c c523 0a3d
00000100: 60d7 a53d 4fe1 8abd 6f94 7dbd adb2 a1bd
00000110: 9eec 55bd 134c c73c 7ed6 b03c fd7f 0bbd
00000120: 1bf9 20bc 469b 7fbd a575 4d3d c4bc 84bc
00000130: 6517 79bd 5dfc 99bc 7915 b7bd dff8 a63c
00000140: 3247 adbd 68e2 51bd 98ab a3bd bc03 babd
00000150: 49f5 79bd cdf7 35bd 7223 1b3d 0962 a1bc
00000160: df4e 4abd b252 87bd dbf7 6cbd ee69 7d3c
00000170: 195f 94bd c244 7f3c 5f1d 273c c557 07bd
00000180: a109 babc f5b3 8fbd 175d c1bd 3db6 9cbc
00000190: a961 f2b9 b8d5 573c 78c1 353d caae 303b
000001a0: dde0 1ebd c5d7 223d a0ca c6bc 4591 38bc
000001b0: a608 f4bc b007 87bd 46d1 18bd c050 8cbd
000001c0: f980 0c3d a25e bebd 2dc8 9fbc 3919 92bd
000001d0: be24 903c 5d0a bebc 953f 76bb b188 9dbd
000001e0: 9341 a6bd 056b babd 3ece e1bc 3266 a0bd
000001f0: e708 353b d758 4c3d 6f48 62bc e649 42bd
00000200: 4db7 5c3d 3c7f 4c3d 798e 4ebd f291 e6bb
00000210: 3874 b9bd ef64 363c 6cc1 ceba 0e6c 4e3d
00000220: 9d3b 93bd 97e1 4cbd 629a 013d edee 4a3d
00000230: 4f5d a4bd cde9 ad3c 867f bdbc 71ee ab3c
00000240: 6af7 d9bc c0bf fa3c c514 6abd a54d 81b9
00000250: e117 9b3d 8e4b 1a3d 9165 26bd 23df f6bc
00000260: f351 963d e7f9 203d 1691 6ebc 0eae 55bd
00000270: 8eb7 b6bb a546 8bbc 331c 4b3d d8b3 743d
00000280: 9461 8abc 61e7 043d 8c6a 9cbc 8a33 b3bb
00000290: f90f de3c d6db 50bc 238b ef3b 4d82 5bbd
000002a0: 31e7 46bc bfe7 993d 6d7c 56bd 7b7b 4abc
000002b0: e0fa 58bc 3509 7f3c c058 f9bc 4f45 d8bc
000002c0: ed4b 083d ea69 143d 570c 96bd 16ba 843c
000002d0: 4f56 88ba a72f d4bc 63b2 aebd f4c1 0e3d
000002e0: eb09 6dbd bf03 93bd 4542 b13c 8434 d6bd
000002f0: e46a ea3c 1297 0bbd bae4 72bd 15ba 28bd
00000300: 45ef cdbd 4e21 e5bb a719 733c f1a7 443d
00000310: 0db2 453d e085 793c 0cb2 bbbc 364c 24bc
00000320: 2ae3 743d 304b 693d c5ed 9abd 1666 cabc
00000330: 5f09 8d3a de19 15bb 6ff0 423d 81fd 8a3b
00000340: 33cc b4bc 7a86 28bd 8e3b 833d 1dfd 693c
00000350: ddb6 903d 5eaf 573d ac3e 1dbd 1e52 1b3d
00000360: 75f2 80bd 8d0e 43bd 0f3d 87bd fbfc af3c
00000370: 0089 2e3d 2d6b 9e3c db73 af3c 9ede a73a
00000380: 3481 d73c c26e 493d b051 89bd 1cf1 60bc
00000390: 23de e0bc c050 59bd 18a2 3f3c dc30 9dbd
000003a0: a16b 0a3d 9a09 b9ba d0b0 543c ad93 f8bc
000003b0: 78fb e43c c623 323d 8f03 2abd 0c45 eabb
000003c0: 5e03 afba ab57 593d 74ed 133b 0abb 4a3d
000003d0: 56db 0dbb f1de 033d 468c 8abd 6440 fabb
000003e0: 0b01 cb3c 1c68 d23c d36c 99bd 1ed3 0abd
000003f0: d23c fcbc 138d 08bd 5102 8ebd cce6 ea3c
-0.044118028 0.0053215935 -0.033320382 -0.02295334 -0.005663162 -0.038986366 -0.017991623 0.07441408
-0.069335416 0.0156713 0.017556628 -0.029426685 -0.036634877 -0.06674228 0.033612948 0.064239986
-0.02704974 0.06578872 -0.026125634 0.012865358 0.019173918 -0.037671894 0.08028248 -0.00865825
0.008030749 0.045749497 -0.0074037574 -0.06160508 0.032228053 0.011799305 -0.044801477 -0.02112714
0.071506314 -0.044020124 0.0248174 -0.094069935 -0.013810302 0.062301993 -0.06049097 -0.07242921
0.05188174 -0.054494232 -0.06899 0.03730961 0.08835172 0.07256653 0.062354315 -0.03660024
-0.010552857 0.061238457 0.059242647 0.0005741933 -0.07118867 -0.06752373 -0.034727104 0.035421908
-0.013274935 0.008006377 0.018667292 0.05087589 0.0067244954 0.026828304 0.008372283 0.03372552
0.0809772 -0.067812555 -0.061909135 -0.07895408 -0.05222761 0.024328267 0.021586653 -0.034057606
-0.009825016 -0.06240394 0.050161023 -0.016203292 -0.060813326 -0.018797094 -0.089396425 0.020382343
-0.08460845 -0.05124131 -0.07991713 -0.090827435 -0.061024938 -0.044425774 0.0378756 -0.019700067
-0.049391624 -0.0660757 -0.05785356 0.01546715 -0.07244701 0.015580358 0.010199874 -0.033042688
-0.02270967 -0.07016746 -0.094415836 -0.019129867 -0.000462306 0.013173513 0.04437396 0.002695965
-0.038788665 0.039756555 -0.024266541 -0.011265104 -0.02978928 -0.06593263 -0.037308954 -0.06851339
0.034302685 -0.092953935 -0.019504631 -0.07133717 0.017595645 -0.023198301 -0.003757452 -0.076920874
-0.08117976 -0.091024436 -0.027564164 -0.07831992 0.0027623714 0.04988941 -0.013811215 -0.047433756
0.053885747 0.049926028 -0.05042884 -0.007036441 -0.0905537 0.011132463 -0.0015774197 0.050396018
-0.07189105 -0.050019827 0.03164137 0.049544264 -0.0802561 0.021229649 -0.023132097 0.020987721
-0.026607234 0.030609012 -0.057148714 -0.00024662647 0.07572914 0.03766971 -0.040624205 -0.030135697
0.07339849 0.039300825 -0.014560958 -0.052167945 -0.0055760806 -0.01700146 0.04958744 0.059741825
-0.016892232 0.032447223 -0.019093774 -0.0054687904 0.027107226 -0.0127477255 0.0073102876 -0.05359106
-0.012140081 0.07514905 -0.052364755 -0.012358542 -0.013243407 0.01556616 -0.030437827 -0.026400236
0.033275533 0.03623382 -0.073265724 0.016202014 -0.0010401699 -0.025901629 -0.08530118 0.034852937
-0.057870787 -0.07178449 0.021638045 -0.10459235 0.028615423 -0.03407962 -0.059300162 -0.041193087
-0.10055403 -0.0069924956 0.014837659 0.048011724 0.048265506 0.015229672 -0.022912048 -0.010027936
0.059786953 0.05695647 -0.07564882 -0.024706881 0.0010760239 -0.0022751014 0.047592577 0.004241646
-0.022070026 -0.04114387 0.064078435 0.014281538 0.070661284 0.052657478 -0.038389847 0.03792011
-0.06296245 -0.0476213 -0.06603443 0.021482935 0.042611122 0.019338215 0.021417549 0.0012807434
0.026306726 0.049177893 -0.06705034 -0.01372936 -0.027449673 -0.053055525 0.011696361 -0.07675335
0.03379405 -0.0014117241 0.0129816085 -0.030343855 0.02795194 0.043491147 -0.0415073 -0.0071493443
-0.0013352444 0.053062122 0.0022571953 0.04949478 -0.0021645627 0.032195035 -0.06765036 -0.0076370705
0.02478077 0.025684409 -0.0749146 -0.033892743 -0.03079072 -0.033337664 -0.069340356 0.028674506
