deep_emotion-50-128-0.005.pt (torch, 274522 bytes, 24 tensors)

conv1.weight f4 [10, 1, 3, 3]
-0.10212572 0.014136908 -0.17547803 0.15604433 0.04036171 -0.10412596 -0.2068964 -0.01800544
0.023358494 -0.38830948 -0.36784807 -0.26629737 0.07808473 -0.110480286 -0.054932047 0.2756339
-0.07763077 -0.20897554 0.343161 0.28247145 0.22791451 -0.17336561 0.21369928 -0.034363817
0.18830453 0.4173028 0.18932866 -0.16803657 0.027782315 -0.07273059 -0.26119053 -0.009019396
-0.31818512 0.43762225 -0.21083732 0.38472942 0.09038362 -0.17810367 -0.17861213 -0.13767068
-0.23811844 -0.103384346 -0.03885325 0.019167611 -0.10450753 -0.03173172 0.24912716 0.3619778
0.06588802 -0.19965796 0.2171648 -0.22105366 -0.14881468 -0.3340351 0.17821501 -0.35271716
0.17520882 0.05992376 -0.017374886 0.054921012 -0.007379115 0.10308728 -0.1848942 -0.16898912
0.14675164 -0.040151972 -0.022855647 -0.22278875 -0.021136811 0.30358452 0.073111035 0.17754959
0.16733472 0.20532353 0.14661594 -0.0847326 0.11885747 0.01366288 0.27792266 0.28999516
-0.09748233 0.23420437 -0.19307669 -0.3556231 0.061000854 0.14603882 -0.085573524 -0.09813464
0.21490999 0.07599698
00000000: 4a27 d1bd 7d9e 673c 83b0 33be 16ca 1f3e
00000010: 5252 253d fe3f d5bd a6dc 53be 2580 93bc
00000020: 505a bf3c 80d0 c6be 9556 bcbe 2158 88be
00000030: e3ea 9f3d 7d43 e2bd 6d00 61bd e31f 8d3e
00000040: e2fc 9ebd affd 55be ccb2 af3e 19a0 903e
00000050: 6c62 693e c186 31be fcd3 5a3e 13c1 0cbd
00000060: e7d2 403e b6a8 d53e 5fdf 413e c711 2cbe
00000070: bd97 e33c c7f3 94bd c4ba 85be 17c6 13bc
00000080: 29e9 a2be 0610 e03e bde5 57be 41fb c43e
00000090: 0c1b b93d cf60 36be 19e6 36be 8bf9 0cbe
000000a0: 52d5 73be 2cbb d3bd 9624 1fbd 6505 9d3c
000000b0: 0b08 d6bd 1ff9 01bd 311b 7f3e 2755 b93e
000000c0: 4cf0 863d 2373 4cbe 7360 5e3e e45b 62be
000000d0: e062 18be a606 abbe ff7d 363e 5897 b4be
000000e0: f169 333e 9e72 753d c755 8ebc dbf4 603d
000000f0: 81cc f1bb 6d1f d33d e854 3dbe 7c0b 2dbe
00000100: 1046 163e 6576 24bd c43b bbbc bc22 64be
00000110: 1b27 adbc 6e6f 9b3e 3dbb 953d 8fcf 353e
00000120: cb59 2b3e 5540 523e 7d22 163e 4988 adbd
00000130: 8c6b f33d 46da 5f3c e14b 8e3e 3f7a 943e
00000140: d1a4 c7bd 45d3 6f3e e5b5 45be 3b14 b6be
00000150: 08dc 793d 338b 153e 2c41 afbd d0fa c8bd
00000160: 5d11 5c3e 4ea4 9b3d

conv1.bias f4 [10]
0.33893725 -0.2872691 -0.20581873 -0.20937948 -0.051653594 0.0071700634 -0.3193767 0.23409164
-0.28018257 -0.07241579
00000000: 2f89 ad3e ef14 93be 25c2 52be 9367 56be
00000010: b892 53bd daf2 ea3b 5885 a3be b8b5 6f3e
00000020: 1774 8fbe bb4e 94bd

conv2.weight f4 [10, 10, 3, 3]
0.1278303 0.037008207 -0.08448415 -0.07337281 0.095069975 -0.034573354 0.013828696 -0.0713287
-0.0866427 0.15405616 0.15682778 0.087066464 0.047518678 0.102866106 0.07684926 -0.055151045
0.1597557 0.13145557 -0.08653721 -0.008295991 0.0058090994 0.007601558 -0.026729831 0.14266732
0.11429408 -0.010615183 0.19302909 0.09496618 0.066718586 0.06608351 -0.15695974 -0.18203412
0.098115444 0.07538177 0.076291256 0.1560663 0.034752205 0.11979436 -0.05891367 0.058954637
0.031728994 0.11766008 -0.037832383 -0.008260665 0.055756275 -0.04775002 0.10653779 0.05917439
-0.109624 0.090308785 0.03968855 -0.25048307 -0.086182185 -0.06592766 -0.0010641521 -0.00019098111
0.076795354 -0.030043626 0.042250652 0.140304 -0.004277553 0.09284586 -0.0420225 -0.03527682
-0.008869137 0.021866074 0.028669568 0.15589927 0.1300698 0.07337833 0.17119524 0.14158762
-0.08101435 0.0105705885 0.037387572 -0.046896473 -0.026976788 0.10173097 0.0392767 0.027453853
-0.04412957 -0.1537374 -0.074838676 0.06648884 0.06067544 0.0033763023 0.030846786 0.10170945
0.15245847 0.035401877 0.019383954 0.07038814 0.03831776 -0.0429245 0.04730363 -0.07848446
0.074216634 0.028323535 0.0868246 0.09579033 0.15029031 0.121284194 0.094842315 0.07789828
0.07289643 0.059305638 -0.061557744 -0.10399666 0.05136348 0.018866463 0.051483266 0.1262114
0.10092423 0.017519465 0.13336511 0.09321855 0.20875162 0.082003154 0.099305876 0.12755872
0.022222577 -0.04858387 -0.063739955 0.010935062 0.14679542 0.13844632 0.108152226 0.12046925
-0.07276325 0.1278888 0.13877405 0.06344556 0.12539892 0.16474411 0.03784434 -0.022490287
0.109647386 0.14680883 -0.08069011 -0.09734438 -0.070296474 -0.07079188 0.003320817 -0.12413497
0.101935275 -0.09613017 -0.08911609 0.027299685 -0.077448264 0.16096589 0.10423463 -0.06383624
-0.06770707 -0.10043261 0.090367496 0.020444173 0.026792442 -0.09342784 0.017862983 0.07335289
0.018384522 0.040775657 -0.086593114 -0.12197418 -0.022510245 -0.024738153 0.03155611 0.062026568
0.13837828 0.13060012 0.12599 0.14782037 -0.009370776 -0.03561125 0.0067691067 0.0001427384
-0.019743629 -0.101896755 -0.0044779605 0.053627767 -0.008131427 0.10054028 0.048642248 0.087869406
0.027299818 -0.027336674 0.03892247 0.08976677 0.11573481 0.02398567 -0.12905052 0.026263397
0.015251237 0.045632325 -0.0063458337 0.049408015 0.0142318085 0.032679733 -0.17847006 -0.12533858
-0.08895891 -0.109201536 0.0056744465 0.061245143 -0.051613405 0.020057924 -0.1390934 0.0064252065
0.08455686 -0.119617835 0.0662264 0.0047316225 0.14317082 -0.03928434 -0.2597356 -0.26626784
-0.00062639755 0.004075662 0.016429203 -0.07497771 -0.068020746 -0.05055831 0.07968063 0.07402905
-0.04307196 -0.0023869302 0.12814231 0.12812479 -0.10502089 -0.12051311 -0.044557773 -0.051079538
-0.087436154 -0.050451476 -0.04267426 -0.0432283 0.018523771 0.04932992 0.051759876 -0.022671914
-0.13897595 -0.049604062 0.06541947 -0.11623048 -0.080120064 -0.123680845 0.20231608 0.1433699
0.07076536 -0.05725694 -0.0010246832 0.03706857 -0.079413034 -0.10494587 0.00018290104 0.06584078
00000000: f2e5 023e eb95 173d 0706 adbd 7c44 96bd
00000010: 0cb4 c23d ca9c 0dbd c191 623c c814 92bd
00000020: ba71 b1bd e6c0 1d3e 7697 203e e74f b23d
00000030: f2a2 423d 77ab d23d 2563 9d3d 10e6 61bd
00000040: 0097 233e 4a9c 063e 6c3a b1bd e9eb 07bc
00000050: 425a be3b 7e16 f93b 85f8 dabc 6217 123e
00000060: 0413 ea3d 4eeb 2dbc 6ba9 453e a17d c23d
00000070: c1a3 883d cb56 873d 0eba 20be 2767 3abe
00000080: c0f0 c83d c261 9a3d 973e 9c3d d8cf 1f3e
00000090: 5458 0e3d bf56 f53d 764f 71bd 6b7a 713d
000000a0: 43f6 013d c5f7 f03d 21f6 1abd be57 07bc
000000b0: b160 643d 8695 43bd 7c30 da3d d860 723d
000000c0: 8c82 e0bd d0f3 b83d 7690 223d 513f 80be
000000d0: 4980 b0bd 1505 87bd 057b 8bba 1a42 48b9
000000e0: e246 9d3d 0d1e f6bc 050f 2d3d daab 0f3e
000000f0: b72a 8cbb f825 be3d c91f 2cbd 6d7e 10bd
00000100: db4f 11bc 7b20 b33c 71dc ea3c 0fa4 1f3e
00000110: 0531 053e 6147 963d ce4d 2f3e 58fc 103e
00000120: daea a5bd 4330 2d3c b623 193d 8416 40bd
00000130: 6dfe dcbc 5458 d03d 9be0 203d e7e6 e03c
00000140: 35c1 34bd 566d 1dbe 0545 99bd 4d2b 883d
00000150: cf86 783d f444 5d3b 66b2 fc3c 0b4d d03d
00000160: 131e 1c3e 8f01 113d 19cb 9e3c a827 903d
00000170: 15f3 1c3d 9ad1 2fbd 73c1 413d 76bc a0bd
00000180: e4fe 973d c206 e83c 19d1 b13d b82d c43d
00000190: b4e5 193e d963 f83d b03c c23d 2289 9f3d
000001a0: b94a 953d 78ea 723d f923 7cbd 33fc d4bd
000001b0: 8362 523d d78d 9a3c 1ee0 523d 903d 013e
000001c0: 5db1 ce3d fb84 8f3c dd90 083e 5ee9 be3d
000001d0: fcc2 553e 45f1 a73d e160 cb3d c19e 023e
000001e0: 1f0c b63c e1ff 46bd 188a 82bd f928 333c
000001f0: 8a51 163e dfc4 0d3e ea7e dd3d 95b8 f63d
00000200: e604 95bd 48f5 023e c91a 0e3e bfef 813d
00000210: 9368 003e aeb2 283e ab02 1b3d 8d3d b8bc
00000220: cf8e e03d 0e55 163e db40 a5bd 7e5c c7bd
00000230: 99f7 8fbd 55fb 90bd 10a2 593b 7a3a febd
00000240: 71c3 d03d e5df c4bd 7f82 b6bd 97a3 df3c
00000250: 329d 9ebd 3ed4 243e f778 d53d 93bc 82bd
00000260: 01aa 8abd 9daf cdbd 9812 b93d 8a7a a73c
00000270: d37b db3c 1857 bfbd 6455 923c 0a3a 963d
00000280: 239b 963c 6004 273d bb57 b1bd 99cd f9bd
00000290: 6867 b8bc aba7 cabc fb40 013d 920f 7e3d
000002a0: 09b3 0d3e 0abc 053e 8603 013e 395e 173e
000002b0: e287 19bc 1add 11bd 62cf dd3b 0cac 1539
000002c0: 64bd a1bc 3faf d0bd dbbb 92bb caa8 5b3d
000002d0: ad39 05bc 10e8 cd3d 183d 473d e0f4 b33d
000002e0: dea3 df3c 29f1 dfbc 2b6d 1f3d a4d7 b73d
000002f0: 5f06 ed3d 997d c43c d225 04be 5626 d73c
00000300: 53e0 793c f6e8 3a3d b6f0 cfbb 0f60 4a3d
00000310: 882c 693c 2fdb 053d dbc0 36be c258 00be
00000320: 1730 b6bd 0ea5 dfbd b5f0 b93b 30dc 7a3d
00000330: 9468 53bd 8450 a43c 806e 0ebe 8a8a d23b
00000340: 262c ad3d 32fa f4bd b5a1 873d ba0b 9b3b
00000350: 5f9b 123e 9ee8 20bd 11fc 84be 4254 88be
00000360: d434 24ba 218d 853b 8996 863c ea8d 99bd
00000370: 764e 8bbd 3b16 4fbd 992f a33d 8b9c 973d
00000380: 396c 30bd 0b6e 1cbb bd37 033e 2533 033e
00000390: 3115 d7bd 94cf f6bd 3682 36bd c738 51bd
000003a0: ba11 b3bd 35a6 4ebd 34cb 2ebd 2810 31bd
000003b0: 2abf 973c 2c0e 4a3d 2a02 543d 73ba b9bc
000003c0: b64f 0ebe a12d 4bbd a5fa 853d 3f0a eebd
000003d0: fd15 a4bd 624c fdbd f22b 4f3e 8fcf 123e
000003e0: 6eed 903d 4186 6abd aa4e 86ba 36d5 173d
000003f0: 4da3 a2bd dced d6bd 20c9 3f39 88d7 863d

conv2.bias f4 [10]
0.03615602 -0.07024114 0.09675564 -0.053339034 -0.108242564 -0.06447963 0.012526201 0.040925562
0.018189939 -0.0900866
00000000: 5618 143d 96da 8fbd d227 c63d 087a 5abd
00000010: 47ae ddbd e50d 84bd b23a 4d3c 90a1 273d
00000020: 1103 953c 537f b8bd

conv3.weight f4 [10, 10, 3, 3]
0.15879449 0.10037397 0.035208654 0.084415235 0.120598115 -0.05437413 -0.05501912 -0.058471926
-0.08787566 0.11034602 -0.07905769 0.042368963 0.0511014 0.030810533 0.022339467 -0.098391496
-0.081472635 -0.037108596 0.09005698 0.009285943 0.14804703 -0.1468453 -0.019549882 0.0784077
-0.05179325 0.006504332 0.054398168 0.02736742 -0.008325769 -0.095505565 0.04788651 0.052473314
-0.011327959 -0.06178166 -0.09283344 -0.10079571 0.027928555 -0.019034497 -0.002075615 0.05872081
0.023659125 -0.060422245 -0.12582059 -0.05114436 -0.040891513 0.04142056 0.066208765 0.0023293844
0.108455725 0.016350083 -0.06759449 -0.021601649 0.04024136 0.02834735 0.02293802 -0.004222625
0.107453704 -0.030180441 0.010447105 -0.04130855 -0.032156367 0.016015558 0.08837762 0.10877822
-0.016256537 -0.03556953 0.075481534 -0.030167641 0.034445103 -0.055441007 -0.07682167 0.038542073
-0.017665055 0.092837855 0.04665939 0.090336554 0.060183767 -0.13335456 -0.021981446 -0.04147493
0.015938299 -0.032507658 0.077650174 -0.09474965 0.018606734 0.08990314 -0.10040631 0.053889915
-0.025955973 0.017770847 0.07574493 -0.0074653043 -0.007580803 0.092269294 -0.0027437115 0.05745058
-0.102225326 0.06384022 0.05185551 -0.053113814 -0.0875569 -0.11621567 -0.0003061296 0.081909835
0.083959445 -0.096611984 -0.024885645 0.054027468 0.1536143 -0.08553228 0.07718356 0.014386033
0.010313756 -0.0076332865 0.12772675 -0.055630725 0.04614617 -0.013575122 0.07242453 0.0487516
0.05365342 0.09855597 -0.04035372 0.03470789 0.0836193 -0.10695661 0.028940914 -0.019526336
-0.035366412 -0.054635365 -0.024807744 0.013470498 -0.11887386 0.035243377 -0.05352205 0.06793357
0.08186434 -0.0536421 -0.02964909 0.055083897 -0.08654999 -0.021151729 0.13644876 -0.021378187
-0.023592096 -0.042366534 0.03904877 -0.120837 -0.07391799 -0.09909806 0.038402293 -0.028777331
-0.00927116 -0.0033035027 0.026426788 0.18660906 0.093835674 -0.032267954 -0.07605272 0.0704116
0.08119709 -0.009718782 -0.054448355 -0.080328844 -0.07479093 0.08506967 0.09095196 -0.06666884
-0.015776426 0.018403513 0.0202412 -0.084483616 0.05183134 0.08637221 0.031164665 0.105564155
0.039600596 0.12245948 0.03403557 -0.05155826 -0.03254338 0.02751078 -0.06724569 0.080020644
-0.023980953 -0.018281788 -0.19972293 -0.16084877 -0.20155197 0.1306974 0.11911498 0.07522712
0.0066273636 -0.054235637 -0.045387816 -0.15144706 -0.18829566 -0.11867282 0.0058933347 -0.052271344
-0.020677283 0.14547087 0.09643263 -0.06074573 0.06823078 0.035859816 -0.11064728 0.050342254
0.094573 0.17847247 -0.043313827 -0.057317752 0.041785534 -0.05477664 -0.0729943 -0.12362177
0.06963528 0.05389494 -0.02426439 0.103359096 -0.03206449 -0.09991175 -0.014638679 0.057746537
-0.08775016 -0.019667745 0.02908325 0.123062514 0.13774936 0.17875631 0.034921814 0.06159824
0.000547198 0.09012975 0.084258035 0.16104199 -0.044438317 0.020618595 0.044705633 -0.03783543
0.07600002 -0.025599867 -0.025817774 -0.04198492 0.097273186 0.057974517 0.14854099 0.09907804
-0.034550477 -0.10578742 0.056655686 -0.12409154 0.09410356 -0.012562047 -0.12620175 0.032891236
00000000: 069b 223e de90 cd3d f336 103d e5e1 ac3d
00000010: 25fc f63d 68b7 5ebd bb5b 61bd 4280 6fbd
00000020: 27f8 b3bd 18fd e13d 00e9 a1bd 148b 2d3d
00000030: b44f 513d 5f66 fc3c 4201 b73c 7b81 c9bd
00000040: 20db a6bd 2fff 17bd cb6f b83d 1124 183c
00000050: a499 173e 9d5e 16be 1327 a0bc 3794 a03d
00000060: 2925 54bd 4b22 d53b 9dd0 5e3d a431 e03c
00000070: ce68 08bc 6c98 c3bd a524 443d 42ee 563d
00000080: e798 39bc c40e 7dbd 751f bebd fb6d cebd
00000090: 6dca e43c 3cee 9bbc 0b07 08bb 3b85 703d
000000a0: c8d0 c13c 517d 77bd 1dd7 00be c07c 51bd
000000b0: dc7d 27bd 9ba8 293d 7698 873d 96a8 183b
000000c0: 091e de3d 9cf0 853c fb6e 8abd f1f5 b0bc
000000d0: 20d4 243d b438 e83c 84e8 bb3c f25d 8abb
000000e0: b010 dc3d f93c f7bc 562a 2b3c 2733 29bd
000000f0: 65b6 03bd 0f33 833c 53ff b43d 1ec7 de3d
00000100: 6e2c 85bc 5bb1 11bd 1096 9a3d 2122 f7bc
00000110: 4f16 0d3d 1c16 63bd ae54 9dbd 4bde 1d3d
00000120: 4eb6 90bc c621 be3d eb1d 3f3d 5f02 b93d
00000130: 4183 763d 198e 08be 6f12 b4bc 9ee1 29bd
00000140: 0991 823c c026 05bd 0e07 9f3d 1b0c c2bd
00000150: 266d 983c 231f b83d d3a1 cdbd acbb 5c3d
00000160: 9fa1 d4bc 2b94 913c 2820 9b3d 839f f4bb
00000170: 6268 f8bb aff7 bc3d d7cf 33bb 4d51 6b3d
00000180: 835b d1bd a9be 823d 7166 543d df8d 59bd
00000190: 0851 b3bd 7b02 eebd 0580 a0b9 58c0 a73d
000001a0: eef2 ab3d 81dc c5bd fbdc cbbc e84b 5d3d
000001b0: 114d 1d3e 8c2b afbd 6a12 9e3d 65b3 6b3c
000001c0: 07fb 283c a620 fabb cdca 023e 0bdd 63bd
000001d0: c403 3d3d 306a 5ebc 5053 943d c2af 473d
000001e0: b0c3 5b3d b6d7 c93d f149 25bd dc29 0e3d
000001f0: 9840 ab3d 110c dbbd 7f15 ed3c b2f5 9fbc
00000200: 5fdc 10bd 55c9 5fbd 9c39 cbbc 5db3 5c3c
00000210: 2374 f3bd 5c5b 103d f039 5bbd c120 8b3d
00000220: 7ea8 a73d d2b7 5bbd a6e2 f2bc a79f 613d
00000230: 1f41 b1bd 6446 adbc 39b9 0b3e 4f21 afbc
00000240: 3644 c1bc 8888 2dbd 9af1 1f3d 6479 f7bd
00000250: 5162 97bd ecf3 cabd b94b 1d3d 70be ebbc
00000260: 10e6 17bc 947f 58bb fe7c d83c 7216 3f3e
00000270: eb2c c03d 672b 04bd 87c1 9bbd f533 903d
00000280: a94a a63d 873b 1fbc 3d05 5fbd 7383 a4bd
00000290: fd2b 99bd 0239 ae3d 0545 ba3d ac89 88bd
000002a0: 903d 81bc f7c2 963c e0d0 a53c bf05 adbd
000002b0: 194d 543d eae3 b03d 0a4d ff3c 0532 d83d
000002c0: 3c34 223d 09cc fa3d e268 0b3d c12e 53bd
000002d0: 354c 05bd 4a5e e13c 1cb8 89bd dde1 a33d
000002e0: b473 c4bc b0c3 95bc 2b84 4cbe 8ab5 24be
000002f0: a463 4ebe 8ad5 053e 8ef2 f33d ad10 9a3d
00000300: 5b2a d93b 3026 5ebd 93e8 39bd f014 1bbe
00000310: 94d0 40be bc0a f3bd e01c c13b 7a1a 56bd
00000320: 6863 a9bc 51f6 143e 797e c53d 84d0 78bd
00000330: 94bc 8b3d bee1 123d 0b9b e2bd ae33 4e3d
00000340: 7daf c13d 7dc1 363e d769 31bd 05c6 6abd
00000350: 4f27 2b3d 785d 60bd 097e 95bd 692d fdbd
00000360: f19c 8e3d f1c0 5c3d 1dc6 c6bc efad d33d
00000370: 0e56 03bd 889e ccbd 12d7 6fbc a287 6c3d
00000380: 5bb6 b3bd 401e a1bc ff3f ee3c 3308 fc3d
00000390: 2b0e 0d3e e50b 373e 2d0a 0f3d 704e 7c3d
000003a0: d671 0f3a f295 b83d 7a8f ac3d 31e8 243e
000003b0: f404 36bd 54e8 a83c 411d 373d 53f9 1abd
000003c0: e6a5 9b3d d0b6 d1bc cc7f d3bc 61f8 2bbd
000003d0: 2a37 c73d b076 6d3d 211b 183e 6de9 ca3d
000003e0: cd84 0dbd 13a7 d8bd cb0f 683d b523 febd
000003f0: 5eb9 c03d 0bd1 4dbc 083b 01be f6b8 063d

conv3.bias f4 [10]
0.08097753 0.0036275443 0.13740656 -0.0040978193 -0.046579443 0.03209202 0.029712304 -0.080611676
-0.033370648 0.092828654
00000000: 8cd7 a53d 18bc 6d3b 4eb4 0c3e 0047 86bb
00000010: 16ca 3ebd ec72 033d 3867 f33c bc17 a5bd
00000020: a9af 08bd f31c be3d

conv4.weight f4 [10, 10, 3, 3]
-0.0060468507 0.02955929 -0.00022508873 0.03033085 0.05842179 0.048099466 0.028977925 0.08114497
-0.036054462 0.0514411 0.15727985 0.10326063 -0.028911058 0.09750616 -0.08484156 -0.08198748
-0.1141921 0.006563834 0.11808645 0.09108769 0.06493405 0.13748206 0.067475066 0.27852497
0.041831188 0.043689944 0.19467625 -0.026973704 0.01878896 -0.01906875 0.026520249 -0.06533322
-0.08795909 0.072957635 -0.06835447 0.089529626 -0.027520854 0.09534965 0.1618916 0.09614296
0.013003945 0.02221481 0.017796576 -0.07264185 -0.17923117 -0.011429971 0.012542432 0.06423866
0.04352773 -0.055542424 0.060457353 -0.0345459 0.08402757 0.117897935 -0.014290585 -0.026379034
0.17492871 0.0787412 0.056683276 0.072662205 0.08132714 0.13415954 0.0695123 0.0039254427
0.042038165 0.028626971 -0.096264735 -0.08033434 0.053891532 0.071507685 -0.10298571 -0.06497669
0.065537535 0.07589139 0.016458254 -0.016250024 0.08197902 -0.10365471 -0.060272273 -0.081106715
-0.121128105 0.034643807 -0.019685308 0.004669415 -0.0063002775 -0.0077174925 0.0018457636 0.081203826
0.17106128 0.038427707 -0.041526604 -0.10206253 0.16464247 -0.030047854 -0.042084754 -0.008006088
-0.043567352 -0.05952694 0.054769814 -0.12598437 0.073991835 -0.013357953 -0.14690281 -0.079009324
0.13703594 -0.040447753 -0.011948946 0.05921348 -0.09073778 0.11724074 -0.09632795 -0.11357007
0.031575743 -0.039059334 -0.023481421 0.09203822 0.084788196 0.09192649 -0.079388164 -0.008302895
-0.014548796 -0.08796828 -0.03508139 -0.031241246 0.07875251 0.04382331 0.04476648 -0.06686432
0.005344647 0.0009327177 0.009784475 0.1156662 -0.0605458 0.006772249 -0.018659739 0.014746505
0.120013684 -0.014086012 0.10515098 0.09055921 0.041478723 -0.034793735 -0.039177757 0.07691214
0.09698806 -0.14638789 -0.1082771 -0.08248009 0.1348249 0.020882927 -0.111969315 -0.11674566
0.115763634 0.07395703 -0.009859011 0.0521409 0.10190884 -0.09710353 0.022353165 0.015061609
0.09873282 0.060853846 -0.11508047 -0.06950109 -0.044847026 0.12318284 -0.13155214 0.031285085
0.15590881 0.02098632 -0.03676257 -0.044989396 -0.03691623 -0.09729282 0.0473672 -0.079742156
0.061074987 0.17562495 0.03852452 0.110337116 0.09328238 -0.04599227 -0.0558761 -0.13393109
-0.053403456 0.039153695 0.004535208 0.0054958193 -0.019413501 -0.014799549 -0.03917473 0.08412805
0.020609027 -0.05709714 0.0064401696 -0.05449361 0.10674074 0.13844669 0.005375623 0.16413906
0.16215928 0.073987976 -0.018025666 -0.055926807 -0.074655175 -0.010092301 -0.012691398 0.052100018
-0.053177014 -0.07054707 0.010643702 -0.15506473 0.005223237 0.10375123 -0.0726035 0.057044566
-0.007098729 -0.0085169645 0.103802614 -0.01659506 0.10275248 -0.00027099712 0.102943406 0.085757576
0.05951985 0.107255965 -0.0011952712 -0.029787207 0.08621239 0.03831378 0.1178649 -0.07164289
-0.001246305 -0.081720784 -0.024995476 -0.098266765 0.004815062 0.0038134067 0.05128752 -0.04138222
-0.18548189 -0.010390426 0.020350814 0.018063888 0.041400887 -0.08938271 0.057147704 0.0730015
0.09046561 -0.0511013 -0.04126679 0.0965889 0.076980926 -0.09598362 -0.07232014 0.04876084
00000000: a924 c6bb 5326 f23c cc05 6cb9 6778 f83c
00000010: b04b 6f3d f203 453d 1d63 ed3c 562f a63d
00000020: d8ad 13bd e7b3 523d f80d 213e 4f7a d33d
00000030: e2d6 ecbc 4fb1 c73d 69c1 adbd 0de9 a7bd
00000040: 8cdd e9bd 6e15 d73b 4fd7 f13d 2f8c ba3d
00000050: 25fc 843d 19c8 0c3e 5e30 8a3d d39a 8e3e
00000060: 2e57 2b3d 3af4 323d 3659 473e f5f7 dcbc
00000070: 4eeb 993c 1136 9cbc fe40 d93c 6ccd 85bd
00000080: e523 b4bd d06a 953d 6efd 8bbd 4f5b b73d
00000090: 6a73 e1bc ad46 c33d e9c6 253e 9ae6 c43d
000000a0: 800e 553c d5fb b53c 20ca 913c 40c5 94bd
000000b0: 6088 37be c644 3bbc c67e 4d3c 8f8f 833d
000000c0: 224a 323d 7480 63bd 21a2 773d 0080 0dbd
000000d0: a616 ac3d 7974 f13d 0f23 6abc d818 d8bc
000000e0: 8320 333e 1143 a13d b92c 683d eccf 943d
000000f0: d88e a63d 1e61 093e 775c 8e3d 00a1 803b
00000100: 3630 2c3d 1c83 ea3c 7226 c5bd 5586 a4bd
00000110: 5ebd 5c3d 9f72 923d 2cea d2bd 8012 85bd
00000120: 8b38 863d f26c 9b3d 76d3 863c c51e 85bc
00000130: 9ee4 a73d ec48 d4bd 0fe0 76bd 471b a6bd
00000140: 0312 f8bd aae6 0d3d 1543 a1bc e401 993b
00000150: 8f72 cebb 05e3 fcbb 8ded f13a 314e a63d
00000160: b02a 2f3e 5f66 1d3d cd17 2abd 2906 d1bd
00000170: 0998 283e eb26 f6bc 1061 2cbd f82b 03bc
00000180: ae73 32bd 85d2 73bd 5056 603d 0c02 01be
00000190: 0889 973d 51db 5abc b16d 16be a4cf a1bd
000001a0: 2653 0c3e 8bac 25bd 83c5 43bc d689 723d
000001b0: bbd4 b9bd ea1b f03d 9747 c5bd 6d97 e8bd
000001c0: 9155 013d aefc 1fbd 1c5c c0bc 897e bc3d
000001d0: 6fa5 ad3d f543 bc3d 4396 a2bd de08 08bc
000001e0: 135e 6ebc b728 b4bd 81b1 0fbd a4ed ffbc
000001f0: ff48 a13d 1280 333d 0e5d 373d 29f0 88bd
00000200: 2622 af3b a081 743a 104f 203c 67e2 ec3d
00000210: dffe 77bd bee9 dd3b 4fdc 98bc 539b 713c
00000220: bcc9 f53d 04c9 66bc 6659 d73d 1b77 b93d
00000230: 98e5 293d e083 0ebd db78 20bd 1d84 9d3d
00000240: ada1 c63d b5e6 15be 62c0 ddbd 52eb a8bd
00000250: 8a0f 0a3e ac12 ab3c 2b50 e5bd 5918 efbd
00000260: 7c15 ed3d c976 973d b087 21bc b291 553d
00000270: 95b5 d03d 37de c6bd fc1d b73c f8c4 763c
00000280: 6f34 ca3d e241 793d 4faf ebbd 9656 8ebd
00000290: 84b1 37bd 4947 fc3d 9bb5 06be ca24 003d
000002a0: 8fa6 1f3e 81eb ab3c 5994 16bd cd46 38bd
000002b0: 7935 17bd 7541 c7bd 1c04 423d db4f a3bd
000002c0: c429 7a3d 07d7 333e e3cb 1d3d 6df8 e13d
000002d0: d50a bf3d 6462 3cbd 56de 64bd 3b25 09be
000002e0: 95bd 5abd a05f 203d 159c 943b 4616 b43b
000002f0: 1009 9fbc cf79 72bc af75 20bd 544b ac3d
00000300: 43d4 a83c b1de 69bd 0f08 d33b b134 5fbd
00000310: e49a da3d f8c4 0d3e fe25 b03b 1214 283e
00000320: 150d 263e 0287 973d 90aa 93bc 8213 65bd
00000330: d0e4 98bd 2e5a 25bc 95ef 4fbc d466 553d
00000340: 24d0 59bd fb7a 90bd ec62 2e3c 4ac9 1ebe
00000350: b027 ab3b 867b d43d 25b1 94bd 90a7 693d
00000360: 749c e8bb bd8a 0bbc 7796 d43d 5df2 87bc
00000370: e46f d23d 9e14 8eb9 fed3 d23d aba1 af3d
00000380: 16cb 733d 04a9 db3d a5aa 9cba 4d04 f4bc
00000390: 1f90 b03d e9ee 1c3d 2763 f13d 82b9 92bd
000003a0: 0e5b a3ba 3a5d a7bd 50c3 ccbc 1640 c9bd
000003b0: abc7 9d3b 59ea 793b dd12 523d 6780 29bd
000003c0: f7ee 3dbe 9b3c 2abc c0b6 a63c b8fa 933c
000003d0: fa93 293d 480e b7bd b613 6a3d cf81 953d
000003e0: 0946 b93d 994f 51bd 5e07 29bd 67d0 c53d
000003f0: 2da8 9d3d 0f93 c4bd 951c 94bd 72b9 473d

conv4.bias f4 [10]
-0.075204484 -0.04219138 0.08036394 0.013054606 -0.045105122 0.0450922 0.07514081 0.090654954
-0.07753602 -0.11759631
00000000: cf04 9abd ded0 2cbd d995 a43d fce2 553c
00000010: 26c0 38bd 99b2 383d 6de3 993d 4ea9 b93d
00000020: 34cb 9ebd 56d6 f0bd

norm.weight f4 [10]
1.1529334 1.1711891 1.0567775 1.0127639 1.0815828 1.0055976 1.0147238 1.1251692
1.1587709 1.0340127
00000000: 5293 933f 86e9 953f 7c44 873f 3fa2 813f
00000010: 4e71 8a3f 6cb7 803f 78e2 813f 8b05 903f
00000020: 9b52 943f 875a 843f

norm.bias f4 [10]
-0.045876786 -0.040117875 -0.06732371 -0.037646174 -0.11147002 -0.050627932 -0.0786915 -0.055943906
-0.018753197 -0.060524415
00000000: 4ce9 3bbd a452 24bd 03e1 89bd e032 1abd
00000010: 654a e4bd 3c5f 4fbd 0229 a1bd 7025 65bd
00000020: 4ea0 99bc 73e8 77bd

norm.running_mean f4 [10]
0.15436873 -0.107081175 0.24668822 0.16403519 -0.12087325 -0.17149043 0.33642107 0.046640906
-0.016982438 0.086079985
00000000: d612 1e3e 604d dbbd d69b 7c3e d7f8 273e
00000010: 658c f7bd 309b 2fbe 623f ac3e 890a 3f3d
00000020: c11e 8bbc b44a b03d

norm.running_var f4 [10]
0.035060998 0.011003749 0.012758008 0.036260247 0.025506211 0.01842678 0.021138646 0.039040323
0.021070028 0.035779644
00000000: 1f9c 0f3d 1249 343c f706 513c a085 143d
00000010: 67f2 d03c c2f3 963c f42a ad3c bfe8 1f3d
00000020: 0d9b ac3c ad8d 123d

fc1.weight f4 [50, 810]
0.06406313 0.0018917547 -0.06578384 -0.027072927 -0.05539291 -0.0020184256 -0.003152871 0.00813041
-0.023499243 -0.0042309654 -0.01798527 0.0139189 0.0016864975 0.0075468333 -0.03454885 -0.003023314
-0.006540191 -0.06429827 0.046732098 0.04177299 0.0039599934 -0.0063802544 -0.00400069 0.008930805
-0.06598489 0.010349265 -0.032180864 -0.020890346 0.010851699 -0.03298019 -0.0030719656 -0.05621593
-0.03186207 -0.031266488 -0.076115325 -0.00393943 0.032115772 -0.03412471 -0.02688279 -0.0291002
-0.05644859 -0.022975529 -0.05024462 0.0039847344 -0.012100677 0.03394636 -0.04882593 -0.0016438949
0.0051393886 0.005636103 -0.0039940947 -0.012200666 -0.05112872 -0.02721506 0.008076873 0.017656073
-0.03391168 -0.030031243 -0.013444361 -0.020918727 -0.015415281 -0.03750084 -0.055810675 -0.0011601426
-0.016652133 0.016409552 -0.017694743 -0.05233059 -0.064526126 0.02370042 0.015792666 -0.06115239
0.005214042 -0.06354846 -0.049322773 0.005472418 -0.02091005 -0.032429386 -0.061646603 -0.051977918
-0.0009397239 -0.062277563 0.03189049 -0.048623554 -0.011579095 -0.03697383 -0.012843951 -0.0014745648
0.02771722 -0.03129139 0.034047402 -0.014967748 -0.031007612 -0.05053447 -0.039761636 -0.027371047
0.0072049815 -0.00833895 -0.05740615 -0.0018018156 -0.05115671 0.021914339 -0.043441217 -0.05482811
0.048569 -0.025521243 0.007178684 -0.02545607 -0.040070724 -0.025370264 -0.029971518 -0.035021648
0.00027963697 0.034310736 -0.020797074 -0.062683955 -0.0196115 0.04276147 -0.036628846 -0.039984744
-0.016083391 -0.0513157 -0.041779496 -0.03477304 -0.035869244 -0.005320658 0.04463158 -0.014615427
-0.0075921095 0.0018966516 -0.01426964 -0.0013294218 -0.06311257 -0.043020006 -0.006656145 0.026687337
-0.017899062 -0.010026426 -0.048048634 0.009781107 -0.016029103 -0.022650836 -0.028885322 0.027691325
0.041729808 0.029366145 -0.007035919 0.0073633483 -0.0055273385 -0.02770142 0.004979896 0.03552888
-0.004379611 0.0077166823 -0.030856041 -0.013555746 -0.042810153 -0.051910717 0.035238154 -0.015547882
-0.06593797 0.0048462637 -0.029795082 0.026894974 0.0018903923 -0.074300066 -0.008557797 -0.039697297
0.015530914 0.0047724857 -0.03440143 0.061967183 0.033104658 0.012723191 -0.0065975385 -0.01455238
-0.05711478 -0.052723333 -0.078122884 -0.004382167 0.06401338 -0.01559879 -0.027266627 0.039724506
-0.02363321 0.004814985 -0.044437125 -0.04518134 -0.028571682 0.018784411 -0.023888702 -0.010826148
-0.012991574 -0.01705326 -0.021412635 -0.055343185 -0.0108276745 0.0031561155 0.037823837 -0.027303468
-0.028711408 -0.033374477 -0.0072928364 0.023284253 -0.068224475 -0.07109058 0.027264666 -0.012441408
-0.04707332 -0.020040823 -0.0396258 -0.053504344 -0.038629208 0.017943786 -0.020682586 0.0014814141
0.025162596 0.020023404 -0.06594054 0.00057026313 -0.044065285 -0.05247988 -0.016367897 -0.01918618
0.01808806 -0.041182633 0.012061272 0.00043709474 0.006340181 0.003239127 -0.020199938 -0.010560294
-0.02200123 -0.050708998 -0.013462396 0.020335987 0.0077137165 -0.04065062 -0.035754856 -0.05154724
-0.028554348 -0.023142997 0.0024553314 0.00468038 -0.03251874 -0.025386801 -0.044156533 0.018593524
-0.022759335 0.022161083 0.0039693876 -0.04610528 -0.049424347 -0.020651525 -0.050363407 -0.061656248
00000000: 8833 833d c1f4 f73a aeb9 86bd 0bc8 ddbc
00000010: ade3 62bd 9047 04bb 66a0 4ebb 6935 053c
00000020: 7c81 c0bc e9a3 8abb d855 93bc 190c 643c
00000030: 770d dd3a 6d4b f73b 1883 0dbd cb22 46bb
00000040: 194f d6bb d0ae 83bd 286a 3f3d 281a 2b3d
00000050: d5c2 813b 7411 d1bb 3818 83bb 8352 123c
00000060: 1623 87bd f78f 293c 15d0 03bd 3b22 abbc
00000070: 53cb 313c 3c16 07bd 0853 49bb ad42 66bd
00000080: cd81 02bd 4a11 00bd 5ae2 9bbd 5616 81bb
00000090: d48b 033d 5ac6 0bbd 4c39 dcbc 8b63 eebc
000000a0: a336 67bd 2d37 bcbc 4dcd 4dbd 6092 823b
000000b0: eb41 46bc 570b 0b3d b3fd 47bd f677 d7ba
000000c0: 5168 a83b 0faf b83b e5e0 82bb 4de5 47bc
000000d0: 596c 51bd 1ef2 debc dc54 043c 78a3 903c
000000e0: f9e6 0abd 1504 f6bc bd45 5cbc c05d abbc
000000f0: 6090 7cbc 7b9a 19bd bc99 64bd ed0f 98ba
00000100: 0e6a 88bc 536d 863c 91f4 90bc 9a58 56bd
00000110: 4626 84bd 6227 c23c 9f5f 813c ee7a 7abd
00000120: 8eda aa3b b225 82bd ad06 4abd f851 b33b
00000130: 8e4b abbc add4 04bd 2681 7cbd cce6 54bd
00000140: ce57 76ba c216 7fbd 9a9f 023d 7e29 47bd
00000150: 3fb6 3dbc df71 17bd 6f6f 52bc 2f46 c1ba
00000160: 390f e33c 672b 00bd 4a75 0b3d 493b 75bc
00000170: ad03 febc 3bfd 4ebd 19dd 22bd 3f39 e0bc
00000180: c417 ec3b 17a0 08bc b622 6bbd e62a ecba
00000190: b389 51bd b385 b33c 6bef 31bd 7193 60bd
000001a0: 4af0 463d ed11 d1bc 2b3b eb3b 4089 d0bc
000001b0: 3321 24bd 4dd5 cfbc d486 f5bc dc72 0fbd
000001c0: 3d9c 9239 6a89 0c3d a05e aabc 7260 80bd
000001d0: 4ca8 a0bc a726 2f3d 2108 16bd 0bc7 23bd
000001e0: 51c1 83bc 6930 52bd fa20 2bbd 2d6e 0ebd
000001f0: a1eb 12bd ea58 aebb 9bcf 363d 8b75 6fbc
00000200: 3bc7 f8bb 1199 f83a 35cb 69bc fe3f aeba
00000210: 2a41 81bd bf35 30bd cb1b dabb 679f da3c
00000220: 0ea1 92bc e145 24bc a5ce 44bd f040 203c
00000230: 774f 83bc 3f8e b9bc e9a0 ecbc ebd8 e23c
00000240: e0ec 2a3d 4591 f03c 918d e6bb 3e48 f13b
00000250: ad1e b5bb 17ee e2bc 652e a33b bb86 113d
00000260: d782 8fbb 39dc fc3b cfc5 fcbc eb18 5ebc
00000270: b359 2fbd 55a0 54bd e255 103d 8bbc 7ebc
00000280: 7d0a 87bd 68cd 9e3b d114 f4bc d952 dc3c
00000290: 0ac7 f73a a22a 98bd 0136 0cbc a299 22bd
000002a0: 6075 7e3c 8362 9c3b 84e8 0cbd 4dd1 7d3d
000002b0: c098 073d ee74 503c 2a30 d8bb 1b6d 6ebc
000002c0: 30f1 69bd 6cf4 57bd e4fe 9fbd 4898 8fbb
000002d0: 7219 833d 1192 7fbc 435e dfbc 2ab6 223d
000002e0: 6f9a c1bc 06c7 9d3b b403 36bd 1210 39bd
000002f0: 290f eabc c4e1 993c 3db2 c3bc 2860 31bc
00000300: 9cda 54bc 47b3 8bbc 8d69 afbc 89af 62bd
00000310: 8f66 31bc d5d6 4e3b 2bed 1a3d 86ab dfbc
00000320: 3034 ebbc adb3 08bd bff8 eebb 9ebe be3c
00000330: 46b9 8bbd f097 91bd 265a df3c 0cd7 4bbc
00000340: f4cf 40bd a72c a4bc aa4e 22bd 5f27 5bbd
00000350: a939 1ebd d9fe 923c 876e a9bc 022c c23a
00000360: ca21 ce3c 1f08 a43c d50b 87bd b67d 153a
00000370: cd7d 34bd 25f5 56bd f815 86bc 562c 9dbc
00000380: 692d 943c 1faf 28bd a49c 453c dd29 e539
00000390: 4bc1 cf3b 8947 543b 577a a5bc 1505 2dbc
000003a0: ec3b b4bc 3db4 4fbd 6291 5cbc a897 a63c
000003b0: 58c3 fc3b 4481 26bd af73 12bd 3323 53bd
000003c0: cfea e9bc 6296 bdbc a0e9 203b e05d 993b
000003d0: 5f32 05bd fbf7 cfbc 7bdd 34bd 7251 983c
000003e0: c971 babc 298b b53c a311 823b e4d8 3cbd
000003f0: 2f71 4abd 632d a9bc dc49 4ebd 438b 7cbd

fc1.bias f4 [50]
-0.0012976539 -0.010490894 -0.0050743218 0.032226462 0.002554297 -0.015910733 -0.040097415 -0.022397935
-0.055986192 -0.031468477 -0.043451086 -0.05230007 -0.016076311 0.035597418 0.01705738 -0.037099726
0.011258023 0.026057538 0.00039639653 -0.014050151 0.010741763 0.026781727 -0.04753237 0.0040607704
-0.04567044 -0.0027441438 -0.008653707 -0.0063387724 -0.033479966 -0.07714023 -0.0027048772 -0.0587707
-0.042896513 -0.016331252 -0.044249978 -0.01134757 -0.020879012 -0.05993106 -0.005969512 -0.038545024
0.026394624 0.016899839 -0.0043742154 -0.0070280605 -0.014383951 -0.07339934 -0.017314035 0.018709961
-0.05580276 -0.035043467
00000000: 0a16 aaba 00e2 2bbc 7f46 a6bb e5ff 033d
00000010: fe65 273b 3a57 82bc 303d 24bd e07b b7bc
00000020: c751 65bd 17e5 00bd c4f9 31bd 9938 56bd
00000030: 78b2 83bc 99ce 113d ebbb 8b3c e2f5 17bd
00000040: 9273 383c 9e76 d53c 71d3 cf39 9b32 66bc
00000050: 38fe 2f3c 5a65 db3c 4db1 42bd 3610 853b
00000060: ed10 3bbd 18d7 33bb 47c8 0dbc 7ab5 cfbb
00000070: 4a22 09bd b2fb 9dbd 4f44 31bb 8cb9 70bd
00000080: 41b4 2fbd 1ec9 85bc 773f 35bd 29eb 39bc
00000090: 760a abbc 457a 75bd e59b c3bb 63e1 1dbd
000000a0: 8a39 d83c 8871 8a3c 9455 8fbb a54b e6bb
000000b0: aaaa 6bbc 6552 96bd 2ad6 8dbc a245 993c
000000c0: 6f91 64bd bd89 0fbd

fc2.weight f4 [7, 50]
-0.03594698 0.13735028 -0.0022208353 -0.2813827 0.022456415 -0.15839808 -0.014502025 -0.06592057
-0.054487612 -0.04429328 0.11454099 -0.09991414 0.105791084 0.19147219 -0.15804614 0.05617893
-0.0745577 -0.013613918 0.08921256 0.12099456 -0.07088488 0.13419099 -0.06323887 -0.06249357
0.01490686 0.075742014 -0.29789838 -0.100058235 -0.072449334 0.07284163 -0.09200422 0.021221315
0.02575942 0.11696072 -0.11906771 -0.06501748 -0.10360573 -0.0018209246 -0.10280719 0.026918003
0.042812057 0.090349525 0.16541503 -0.08552736 0.018105252 0.12780033 -0.11308246 0.1400005
-0.10752794 -0.038064945 -0.018515078 0.051891606 0.026440205 -0.07803843 -0.13937335 0.100963436
0.08464062 -0.021322723 0.040069915 0.037326075 0.06610912 -0.09107403 0.08243457 0.0773757
0.010991081 -0.05748159 -0.026052384 -0.07498636 -0.04342213 0.05287962 -0.11581296 0.16622506
0.044674736 0.1222831 0.103530206 -0.08397629 -0.3435557 -0.09490131 0.14378758 0.09061581
0.016980367 -0.14127748 0.034004863 -0.048226018 0.043935638 -0.19517696 0.0070146616 -0.073040515
0.089901626 -0.045785856 0.19473833 -0.12253166 0.04252354 0.07701014 0.009636519 0.15303954
0.07227266 -0.0014155591 -0.10441048 0.10555692 -0.09614685 -0.059530746 -0.09507915 0.017828701
0.013427052 0.11549378 -0.12059809 -0.038918965 -0.05737915 -0.08456162 0.0980336 -0.068431064
0.0050809914 -0.03000316 0.112042986 -0.034368366 -0.136536 0.1412917 -0.027673682 0.14449957
0.1594156 -0.19553705 -0.06313704 -0.16217916 0.06048674 -0.007901114 -0.035007197 0.020094091
0.03031386 -0.05604129 -0.14972843 -0.09610029 -0.10102773 -0.19085445 0.11124239 0.07685676
-0.0828287 -0.06070789 -0.04830304 0.09733869 0.018423185 -0.19944364 0.026080763 0.049838636
0.06451162 -0.09529395 0.14701329 0.10782686 -0.041677225 0.034190204 -0.13521457 0.08533465
-0.12294533 -0.067977354 0.05548803 -0.103242494 0.069564536 -0.115739346 0.14453357 0.07303544
0.030477067 -0.15636204 0.15143931 -0.04670776 -0.15782936 -0.024412729 0.011081051 -0.07810614
-0.020956505 -0.09786273 0.043083772 -0.12617642 -0.048395716 0.023134535 -0.1325257 -0.2067335
0.24303836 -0.037567347 -0.16409345 0.008139384 0.148163 -0.024503076 -0.097764686 -0.1213384
0.04232297 -0.09223318 0.11912025 0.05812771 0.053904228 0.02552094 0.1472304 -0.061027892
-0.10104153 0.08550746 0.06493055 -0.08507479 -0.22560073 0.023907408 0.06295271 -0.13845056
-0.08307582 0.08979411 0.033060618 -0.13089734 0.09020723 0.13642316 -0.04694121 0.09882353
0.01249185 0.06355643 0.076730154 -0.13823976 0.09737484 -0.065622166 -0.029813474 0.14084214
-0.041602716 0.13286777 0.004537602 0.095263965 -0.0039907577 -0.03125168 -0.045536585 0.032644503
0.09683573 0.10101805 -0.13097617 -0.030974487 0.05350513 -0.06733991 0.15801397 0.08584602
-0.06166227 -0.080406405 -0.063090354 -0.028807878 -0.04606223 0.0204174 0.038771927 0.030138807
-0.040780116 0.033807926 -0.014153524 -0.09042492 0.14824183 -0.02125016 -0.06804691 0.028134016
-0.08966776 3.2796088e-05 -0.11182581 0.0050237873 -0.08752189 0.13831425 -0.13625376 0.08259368
00000000: 243d 13bd 8da5 0c3e 6f8b 11bb 6511 90be
00000010: 84f6 b73c 1b33 22be e799 6dbc 5d01 87bd
00000020: 672e 5fbd df6c 35bd 7794 ea3d c99f ccbd
00000030: ffa8 d83d 4911 443e d9d6 21be e11b 663d
00000040: b5b1 98bd e90c 5fbc 13b5 b63d ffcb f73d
00000050: 182c 91bd 5d69 093e 6183 81bd 42f9 7fbd
00000060: e73b 743c a11e 9b3d 2386 98be 55eb ccbd
00000070: 5160 94bd fe2d 953d b56c bcbd 53d8 ad3c
00000080: 6b05 d33c 1a89 ef3d c6d9 f3bd e227 85bd
00000090: 3e2f d4bd 17ac eeba 938c d2bd 2583 dc3c
000000a0: b25b 2f3d 2c09 b93d 8f62 293e f828 afbd
000000b0: 7751 943c 17de 023e c797 e7bd 4b5c 0f3e
000000c0: 9c37 dcbd fde9 1bbd efac 97bc 4b8c 543d
000000d0: 2199 d83c 9dd2 9fbd e3b7 0ebe ebc5 ce3d
000000e0: 1058 ad3d feac aebc 5a20 243d 3ae3 183d
000000f0: 3864 873d 0585 babd 75d3 a83d 2777 9e3d
00000100: ef13 343c d171 6bbd cf6b d5bc 7392 99bd
00000110: 67db 31bd 4d98 583d 582f edbd e736 2a3e
00000120: dbfc 363d 906f fa3d a507 d43d c3fb abbd
00000130: 88e6 afbe 9e5b c2bd 0d3d 133e c894 b93d
00000140: 691a 8b3c 0bab 10be af48 0b3d a588 45bd
00000150: dbf5 333d 78dc 47be 3fdb e53b 4496 95bd
00000160: 581e b83d f389 3bbd 7c69 473e e1f1 fabd
00000170: 2a2d 2e3d 7eb7 9d3d 7de2 1d3c 66b6 1c3e
00000180: b003 943d 488a b9ba 29d5 d5bd 3a2e d83d
00000190: a4e8 c4bd 83d6 73bd dbb8 c2bd 7f0d 923c
000001a0: 23fd 5b3c 0188 ec3d 22fc f6bd 7e69 1fbd
000001b0: 6606 6bbd a52e adbd d7c5 c83d 9625 8cbd
000001c0: 727e a63b 30c9 f5bc cb76 e53d d8c5 0cbd
000001d0: 18d0 0bbe c5ae 103e ebb3 e2bc b2f7 133e
000001e0: d83d 233e dd3a 48be fe4d 81bd 4b12 26be
000001f0: f2c0 773d ad73 01bc b563 0fbd 5d9c a43c
00000200: c654 f83c 8d8b 65bd 6952 19be 3bd0 c4bd
00000210: a0e7 cebd 596f 43be 0dd3 e33d 1467 9d3d
00000220: 18a2 a9bd d6a8 78bd 69d9 45bd 8259 c73d
00000230: 38ec 963c f43a 4cbe 53a7 d53c 9923 4c3d
00000240: ab1e 843d 7929 c3bd a78a 163e 54d4 dc3d
00000250: bdb5 2abd 070b 0c3d b075 0abe efc3 ae3d
00000260: c3ca fbbd b637 8bbd 6b47 633d cd70 d3bd
00000270: da77 8e3d c008 edbd 9c00 143e 9b93 953d
00000280: 0bab f93c 5f1d 20be e812 1b3e a350 3fbd
00000290: 059e 21be 34fd c7bc 4c8d 353c 1df6 9fbd
000002a0: faac abbc 416c c8bd 9c78 303d 6434 01be
000002b0: 963a 46bd a384 bd3c d1b4 07be f2b1 53be
000002c0: 0cdf 783e 38e0 19bd 1d08 28be 0d5b 053c
000002d0: 0bb8 173e adba c8bc da38 c8bd 4480 f8bd
000002e0: da5a 2d3d c0e4 bcbd 51f5 f33d 5217 6e3d
000002f0: aeca 5c3d 4a11 d13c 91c3 163e 62f8 79bd
00000300: ddee cebd 891e af3d 4ffa 843d b13b aebd
00000310: e103 67be 78d9 c33c 5aed 803d fcc5 0dbe
00000320: a823 aabd f9e5 b73d 926a 073d f409 06be
00000330: 91be b83d 83b2 0b3e 6d45 40bd fe63 ca3d
00000340: 9eaa 4c3c e029 823d b324 9d3d b98e 0dbe
00000350: 766c c73d ea64 86bd 633b f4bc ec38 103e
00000360: 9c67 2abd 7d0e 083e 2ab0 943b c119 c33d
00000370: e7c4 82bb c301 00bd 9284 3abd 3eb6 053d
00000380: d051 c63d 8de2 ce3d 9e1e 06be 35be fdbc
00000390: 3228 5b3d 82e9 89bd 6ace 213e 0ad0 af3d
000003a0: 9491 7cbd 1dac a4bd 8435 81bd 80fe ebbc
000003b0: c0ab 3cbd 6442 a73c 50cf 1e3d a9e5 f63c
000003c0: 0d09 27bd 2e7a 0a3d 2fe4 67bc b330 b9bd
000003d0: b5cc 173e d114 aebc 2e5c 8bbd 4f79 e63c
000003e0: bba3 b7bd 888e 0938 ee04 e5bd 959e a43b
000003f0: ad3e b3bd 40a2 0d3e 1b86 0bbe e026 a93d

fc2.bias f4 [7]
-0.11422268 -0.14391789 0.056548234 -0.06460123 0.026433825 -0.1309238 0.06877417
00000000: 95ed e9bd 365f 13be 1f9f 673d a64d 84bd
00000010: c08b d83c e310 06be 79d9 8c3d

localization.0.weight f4 [8, 1, 7, 7]
-0.07860749 0.10914038 0.125165 -0.10348988 -0.008989305 0.12884736 0.09507842 0.0027348574
0.090264305 -0.15276898 0.0002868023 -0.14181525 0.12086478 0.11607903 -0.040965658 -0.088563696
0.056957718 -0.009373638 -0.051741924 0.0800976 0.15151165 0.08932112 0.055179417 -0.14929673
-0.07256538 0.026023341 -0.032372806 -0.09838525 -0.04954367 0.10077586 0.1452127 -0.20333955
-0.13387188 -0.09609985 -0.09654339 -0.1373458 0.026742436 -0.0022722 -0.07673535 -0.13846189
-0.0062389523 0.15590425 -0.019928472 -0.0075100386 -0.03327272 -0.13716726 -0.14373073 -0.08835149
0.04908943 0.12816879 -0.053778637 -0.09416512 -0.040944964 0.06599746 0.021930426 -0.12568873
0.04425513 0.15547541 -0.05698037 -0.12132939 -0.13214742 -0.0920907 0.05065927 -0.13482632
-0.061854865 -0.028408786 0.02232106 0.12258338 -0.10073961 -0.073973574 -0.08288171 -0.008549126
-0.10036938 -0.010241204 0.05702862 -0.04096701 0.075178884 0.16189252 -0.038841344 0.13359554
0.09635993 -0.020474551 0.069670856 0.12323668 0.095302865 0.013307898 0.14479202 -0.052357174
-0.017312555 0.1152833 -0.055104166 0.14127861 0.10126727 -0.08818698 -0.07208095 0.121461004
0.15602316 -0.03181457 -0.17948751 -0.19198853 0.0035193693 -0.026508417 0.07556878 0.048657294
-0.18258433 -0.05427049 0.10979655 -0.006340809 0.105997935 -0.105446495 -0.1635708 -0.18717922
-0.07613787 0.06736892 -0.030725721 -0.004782062 -0.02016435 0.051645145 0.07341114 -0.022086244
0.08342377 -0.12791388 0.018997615 -0.025111616 0.04065239 0.06414739 0.012059243 0.0077544507
0.08333304 -0.15938547 0.014002393 -0.095010675 0.0840452 0.11899683 -0.06599833 -0.024431579
0.08699883 0.06286603 0.042521026 -0.16124566 -0.062540926 -0.10374905 0.03616737 0.089670904
-0.0932134 -0.0082085645 -0.009106331 0.035194226 -0.036632497 0.08227346 0.13440539 0.112985276
-0.05111783 -0.026700871 -0.05590393 -0.09574576 -0.05245263 -0.12695754 0.05180901 -0.2127464
-0.051972385 -0.07333596 0.0101657305 0.07958902 -0.1524066 -0.017377853 -0.22081849 0.05294029
0.05533612 -0.11859105 0.049988423 -0.032233346 0.048060182 -0.13913268 -0.11547386 -0.020570189
0.04050557 0.030991964 -0.057606142 0.008484435 0.10178532 -0.029082045 -0.04887831 0.06701404
-0.030308621 -0.007444476 -0.14809337 -0.09716554 -0.100149795 -0.049128182 -0.10832026 0.100650184
0.04639781 0.109054305 0.10682157 -0.102140605 0.046136055 0.11568198 -0.10447619 -0.14335997
0.020738317 -0.047228772 -0.1913956 -0.16932613 0.013894674 -0.1812972 0.022912117 -0.1157523
-0.200669 -0.07035523 -0.09786967 -0.12683429 -0.16792548 0.023455372 0.048657756 0.112797976
0.162249 -0.09023896 -0.035011765 -0.0643068 -0.033218164 0.08167586 0.01898269 0.18358691
0.012897197 0.103064366 0.14889397 0.044529125 -0.09022905 0.11156552 -0.111817956 0.10199836
0.012786491 0.006489719 -0.083246365 0.06511664 -0.060584854 0.048840377 -0.020891873 -0.024034468
0.13804454 0.071676545 0.06102296 0.088777624 0.100154094 -0.025745112 0.06570316 0.069554195
-0.09723683 0.061257165 -0.12689522 -0.015286884 0.044001598 -0.011529389 -0.033875722 0.16815405
00000000: f7fc a0bd fe84 df3d 412b 003e 81f2 d3bd
00000010: e147 13bc 90f0 033e 7ab8 c23d 4b3b 333b
00000020: 7edc b83d 796f 1cbe f45d 9639 0438 11be
00000030: f487 f73d d8ba ed3d 9bcb 27bd e260 b5bd
00000040: 7f4c 693d e393 19bc 57ef 53bd 360a a43d
00000050: df25 1b3e feed b63d d003 623d 3ee1 18be
00000060: 289d 94bd e72e d53c 5999 04bd 357e c9bd
00000070: 4eee 4abd 9363 ce3d a3b2 143e 3e38 50be
00000080: b615 09be 00d0 c4bd 8ab8 c5bd 61a4 0cbe
00000090: f412 db3c 31e9 14bb 6c27 9dbd f4c8 0dbe
000000a0: 2070 ccbb 5da5 1f3e 0941 a3bc c516 f6bb
000000b0: fa48 08bd 9375 0cbe 262e 13be a0f1 b4bd
000000c0: 0012 493d ae3e 033e fd46 5cbd a4d9 c0bd
000000d0: e8b5 27bd ad29 873d 70a7 b33c 8cb4 00be
000000e0: de44 353d f234 1f3e 4064 69bd 8b7b f8bd
000000f0: a751 07be 0d9a bcbd 1880 4f3d e90f 0abe
00000100: 875b 7dbd 8bb9 e8bc a8da b63c ff0c fb3d
00000110: 9250 cebd 757f 97bd e3bd a9bd a211 0cbc
00000120: 768e cdbd b9ca 27bc d896 693d 06cd 27bd
00000130: 63f7 993d 27c7 253e 1a18 1fbd 45cd 083e
00000140: 5b58 c53d 3fba a7bc 98af 8e3d 8363 fc3d
00000150: 262e c33d 5f09 5a3c 5c44 143e 7a74 56bd
00000160: 0fd3 8dbc a719 ec3d e8b4 61bd 57ab 103e
00000170: 3765 cf3d 609b b4bd 2d9f 93bd 8cc0 f83d
00000180: 89c4 1f3e ff4f 02bd 93cb 37be a498 44be
00000190: 38a5 663b 2e28 d9bc cec3 9a3d df4c 473d
000001a0: 63f7 3abe bc4a 5ebd 03dd e03d 90c6 cfbb
000001b0: 7215 d93d 55f4 d7bd 1b7f 27be e9ab 3fbe
000001c0: 2cee 9bbd b7f8 893d 82b4 fbbc d8b2 9cbb
000001d0: b52f a5bc dc89 533d 9458 963d 36ee b4bc
000001e0: 15da aa3d dbfb 02be e3a0 9b3c e0b6 cdbc
000001f0: 1f83 263d b55f 833d 2294 453c 0c19 fe3b
00000200: 83aa aa3d f235 23be 4b6a 653c f594 c2bd
00000210: e41f ac3d 9cb4 f33d 222a 87bd bc24 c8bc
00000220: 712c b23d e8bf 803d 872a 2e3d 951d 25be
00000230: 7515 80bd 627a d4bd 3c24 143d 61a5 b73d
00000240: abe6 bebd 377d 06bc b832 15bc d227 103d
00000250: f50b 16bd fd7e a83d 91a1 093e d364 e73d
00000260: ee60 51bd c9bb dabc 85fb 64bd 5a16 c4bd
00000270: 92d8 56bd 2801 02be af35 543d 31da 59be
00000280: ffe0 54bd 2a31 96bd 2a8e 263c 91ff a23d
00000290: 7a10 1cbe 005c 8ebc 3e1e 62be ebd7 583d
000002a0: 21a8 623d dddf f2bd a9c0 4c3d 1d07 04bd
000002b0: c1da 443d cc78 0ebe 8f7d ecbd d082 a8bc
000002c0: 2be9 253d dce2 fd3c 6bf4 6bbd 4d02 0b3c
000002d0: d274 d03d 783d eebc 9f34 48bd a83e 893d
000002e0: c949 f8bc caf0 f3bb caa5 17be bafe c6bd
000002f0: 561b cdbd a23a 49bd 03d7 ddbd af21 ce3d
00000300: a10b 3e3d dd57 df3d 44c5 da3d 182f d1bd
00000310: 29f9 3c3d adea ec3d 9df7 d5bd f5cc 12be
00000320: 67e3 a93c f572 41bd 35fd 43be d463 2dbe
00000330: 7da6 633c f9a5 39be 31b2 bb3c 8b0f edbd
00000340: 2d7c 4dbe 6716 90bd e56f c8bd d9e0 01be
00000350: a8f4 2bbe 7b25 c03c 5b4d 473d a002 e73d
00000360: 9a24 263e 34cf b8bd 7f68 0fbd 49b3 83bd
00000370: c50f 08bd ac45 a73d 9681 9b3c 35fe 3b3e
00000380: c44e 533c 6913 d33d a977 183e 2c64 363d
00000390: 02ca b8bd 777c e43d d000 e5bd 84e4 d03d
000003a0: 6e7e 513c b5a7 d43b 127d aabd df5b 853d
000003b0: d327 78bd d90c 483d 6f25 abbc efe3 c4bc
000003c0: 8c5b 0d3e 27cb 923d 36f3 793d 0bd1 b53d
000003d0: 971d cd3d 6ae7 d2bc 618f 863d 6e72 8e3d
000003e0: 1a24 c7bd cbe8 7a3d d2f0 01be d775 7abc
000003f0: 053b 343d c3e5 3cbc 45c1 0abd 9330 2c3e

localization.0.bias f4 [8]
-0.12792304 -0.12467841 -0.039605383 -0.06630185 -0.12411668 -0.13585433 0.019907735 0.063511655
00000000: 42fe 02be 6557 ffbd 4139 22bd 44c9 87bd
00000010: e330 febd 661d 0bbe 8c15 a33c 6612 823d

localization.3.weight f4 [10, 8, 5, 5]
-0.051828526 0.02954616 -0.07402857 0.015159692 0.0006241184 0.05505324 0.017559664 -0.05130613
-0.059357725 0.022333696 -0.015477459 0.013889942 0.006703016 -0.046107307 -0.0008159977 0.03939273
-0.07670139 -0.05700184 0.062808156 -0.057368297 0.02636063 0.02531471 0.010626473 0.001527151
-0.043199677 -0.04280661 0.022365065 -0.07688314 -0.08697719 -0.10131767 -0.024714353 0.032028966
0.016902361 0.021658687 -0.003274188 0.014415116 -0.04379402 0.039557695 0.025412204 -0.083250515
0.0315972 0.004373193 0.020042872 -0.013447526 0.036039393 -0.034847416 -0.04098539 0.022914913
-2.6615377e-05 -0.07599974 -0.051836576 0.02444195 -0.08836716 -0.005963962 0.0139145795 -0.06152231
0.038433693 0.00927793 -0.08806346 -0.021391042 0.09868704 -0.029015753 -0.018261483 -0.07065296
-0.08707916 -0.068351194 -0.09473023 -0.055082556 -0.0028851095 -0.07111575 -0.04488337 -0.11027836
-0.087421164 -0.10193441 -0.08288684 -0.029261116 0.0076101697 -0.08227048 -0.058313474 -0.072925396
-0.008451788 0.008202479 -0.059299823 0.009930602 -0.01624465 0.02293066 0.024628373 0.015463423
-0.035030346 -0.002402018 0.049233634 -0.021400997 -0.008413765 -0.08310341 -0.07336172 -0.05209862
0.0035925347 -0.020003045 -0.027545089 -0.099543825 -0.0011879778 -0.033189036 0.014557033 -0.112021804
0.00532399 0.03465017 -0.07492537 -0.045656834 -0.026760101 -0.05138799 0.098187976 -0.08325722
-0.03709891 0.05194578 -0.06361338 -0.06135563 0.013253534 0.035253197 -0.055617128 -0.02288026
0.060872816 -0.005163132 -0.034710616 -0.019425588 -0.024880763 0.041077457 -0.016517242 -0.09560037
-0.053436056 -0.029655773 0.003967022 -0.06925794 -0.023559723 -0.068942696 0.021126023 -0.013236244
-0.0753891 -0.030807504 -0.07259001 -0.050049674 -0.020247422 -0.029866224 -0.102718055 -0.003230891
-0.09876683 -0.009853991 0.013618635 0.02820095 -0.032675613 -0.010023947 -0.06527506 -0.051943246
0.012134094 -0.048351105 -0.026163904 -0.0271029 -0.0837693 -0.08879579 0.02111918 0.043626692
-0.02411217 -0.0066164657 -0.049286358 0.030660747 -0.093577445 -0.021478528 0.013792059 -0.042214483
-0.045177583 -0.028375357 -0.004200762 -0.07181041 -0.0703305 -0.044067387 -0.014527648 -0.067549944
-0.101574585 -0.032511 -0.031370513 -0.008227607 -0.029580418 -0.06871508 -0.029426511 -0.08864836
0.030155672 -0.039505508 0.016823726 -0.06545378 -0.047766183 -0.0043426123 -0.045601796 -0.02396942
0.021886993 -0.10073445 0.00937801 -0.076955065 0.011841374 0.029200468 -0.041020416 -0.10056774
-0.031826872 -0.0351325 0.0040915725 -0.06708447 -0.086238824 0.0042272196 0.046794683 -0.08918765
-0.03251029 -0.033577252 -0.055478703 0.011858564 -0.05210825 -0.08359965 0.04929111 -0.026824256
-0.03859873 0.022840645 0.020901907 -0.070348985 -0.047421902 0.018065529 -0.056866013 0.026909944
-0.04832925 -0.09583917 -0.0010667266 -0.048117813 -0.049050808 -0.060459927 -0.016038617 0.0059940415
-0.05496503 -0.0069848425 -0.0013800602 -0.040429704 -0.012773884 0.045778435 -0.04368807 -0.017662952
-0.012392858 0.04514727 -0.046844088 -0.08583496 0.04040458 0.045384992 -0.034619436 -0.052103486
-0.02835768 0.0242487 -0.08729299 -0.07145137 0.015803441 -0.057230964 0.041299004 -0.06913555
00000000: 264a 54bd ca0a f23c 4a9c 97bd 5b60 783c
00000010: e09b 233a 827f 613d 49d9 8f3c 6026 52bd
00000020: 1621 73bd 28f5 b63c 2b95 7dbc a492 633c
00000030: f9a4 db3b 04db 3cbd aee8 55ba 455a 213d
00000040: 9e15 9dbd c37a 69bd 90a1 803d 05fb 6abd
00000050: 3ff2 d73c cb60 cf3c a91a 2e3c af2a c83a
00000060: 25f2 30bd fc55 2fbd f136 b73c e874 9dbd
00000070: 1921 b2bd a37f cfbd c175 cabc ce30 033d
00000080: d276 8a3c 8f6d b13c c293 56bb 612d 6c3c
00000090: 5c61 33bd 4007 223d 412d d03c 3f7f aabd
000000a0: 116c 013d 004d 8f3b f330 a43c 0353 5cbc
000000b0: 0b9e 133d 2abc 0ebd 4ce0 27bd 0eb8 bb3c
000000c0: 1644 dfb7 c0a5 9bbd 9752 54bd 7c3a c83c
000000d0: d7f9 b4bd 576d c3bb faf9 633c d1fe 7bbd
000000e0: a66c 1d3d 7502 183c 9e5a b4bd 443c afbc
000000f0: 6e1c ca3d 72b2 edbc 1b99 95bc 80b2 90bd
00000100: 8f56 b2bd b6fb 8bbd ec01 c2bd 3f9e 61bd
00000110: 1b14 3dbb 22a5 91bd a0d7 37bd 9fd9 e1bd
00000120: de09 b3bd fdc2 d0bd 93c0 a9bd 02b5 efbc
00000130: bb5e f93b 6d7d a8bd 1cda 6ebd e959 95bd
00000140: 5e79 0abc b163 063c 5fe4 72bd f7b3 223c
00000150: 8013 85bc 14d9 bb3c 71c1 c93c 4c5a 7d3c
00000160: fb7b 0fbd 2d6b 1dbb 35a9 493d 2551 afbc
00000170: e3d9 09bc 1f32 aabd ab3e 96bd 5d65 55bd
00000180: bb70 6b3b 6ddd a3bc 3da6 e1bc a2dd cbbd
00000190: ecb5 9bba 3af1 07bd 9f80 6e3c b06b e5bd
000001a0: dd74 ae3b 56ed 0d3d 7972 99bd a902 3bbd
000001b0: 0038 dbbc 377c 52bd c716 c93d c382 aabd
000001c0: 07f5 17bd 19c5 543d bb47 82bd 0b50 7bbd
000001d0: 5a25 593c a865 103d c9ce 63bd 626f bbbc
000001e0: c655 793d 7e2f a9bb b82c 0ebd 6922 9fbc
000001f0: bed2 cbbc d640 283d 2b4f 87bc 20ca c3bd
00000200: c4df 5abd aaf0 f2bc cbfd 813b 1bd7 8dbd
00000210: 5200 c1bc d431 8dbd 7b10 ad3c d5dc 58bc
00000220: 9a65 9abd 0560 fcbc 12aa 94bd e300 4dbd
00000230: ecdd a5bc 03aa f4bc d85d d2bd 5bbd 53bb
00000240: 4446 cabd a272 21bc b220 5f3c ae05 e73c
00000250: ddd6 05bd 7b3b 24bc eeae 85bd 71c2 54bd
00000260: 14ce 463c cf0b 46bd af55 d6bc e706 debc
00000270: 3d8f abbd 91da b5bd 2102 ad3c e7b1 323d
00000280: e386 c5bc f0ce d8bb 7ee0 49bd 3f2c fb3c
00000290: 88a5 bfbd bdf3 afbc 17f8 613c 18e9 2cbd
000002a0: 210c 39bd 7073 e8bc 8ca6 89bb 5611 93bd
000002b0: 7009 90bd 0180 34bd 5f05 6ebc a057 8abd
000002c0: 5606 d0bd 412a 05bd 5e7e 00bd 16cd 06bc
000002d0: a252 f2bc 7eba 8cbd de0f f1bc 458d b5bd
000002e0: 0709 f73c 87d0 21bd e9d1 893c a20c 86bd
000002f0: 79a6 43bd 794c 8ebb f3c8 3abd 845b c4bc
00000300: 5a4c b33c dd4d cebd 3aa6 193c 9e9a 9dbd
00000310: 5302 423c d235 ef3c 0605 28bd 76f6 cdbd
00000320: e55c 02bd 19e7 0fbd 9912 863b 9563 89bd
00000330: fb9d b0bd 7d84 8a3b c8ab 3f3d 04a8 b6bd
00000340: 8329 05bd 4d88 09bd a33d 63bd 6c4a 423c
00000350: 766f 55bd 4b36 abbd 7ae5 493d 8bbe dbbc
00000360: b419 1ebd 4e1c bb3c 7a3a ab3c 2113 90bd
00000370: 783d 42bd 29fe 933c 56ec 68bd 3e72 dc3c
00000380: e4f4 45bd 5447 c4bd 68d1 8bba 2f17 45bd
00000390: 80e9 48bd d4a4 77bd 6b63 83bc aa69 c43b
000003a0: 0323 61bd 1be1 e4bb 23e3 b4ba 9e99 25bd
000003b0: 8e49 51bc 2b82 3b3d 43f2 32bd e5b1 90bc
000003c0: 6a0b 4bbc 58ec 383d 96df 3fbd 3dca afbd
000003d0: 467f 253d 9de5 393d 1ccd 0dbd 776a 55bd
000003e0: 5e4e e8bc 36a5 c63c abc6 b2bd 1955 92bd
000003f0: 3876 813c 046b 6abd 2529 293d f096 8dbd
