deep_emotion-ckplus-20-32-0.0005.pt (torch, 274522 bytes, 24 tensors)

conv1.weight f4 [10, 1, 3, 3]
-0.025666552 0.33382764 -0.0113485865 0.30652562 0.051762026 0.018861214 -0.31817308 0.25300884
0.28057206 -0.26808095 0.27330455 0.12848198 -0.034315355 -0.017369706 0.12803231 -0.2128018
-0.22555278 0.13633439 0.2564349 0.22126862 0.17767179 0.08346344 0.105959296 0.28051266
-0.20452632 0.060676236 -0.2208084 0.2340837 0.20063564 -0.03942972 -0.06915712 -0.017016582
-0.08391227 -0.33541894 -0.170338 -0.33572125 -0.24557076 0.22134745 -0.29608253 0.16598746
-0.29906154 -0.32254913 -0.1452385 0.15793312 -0.3019477 -0.17954393 -0.0459768 -0.049779058
0.12577727 0.24035557 0.12832966 -0.0971701 0.05115014 -0.18843009 -0.06150394 0.03705978
0.10277274 0.118285544 -0.03763254 -0.004506859 -0.01359152 -0.24847403 0.23321058 0.046709377
0.23489329 -0.16110979 0.2452504 -0.14201799 0.07905644 0.039397087 0.2667367 -0.04827984
-0.28411695 -0.23616828 -0.20642906 0.08633569 -0.12346701 -0.18236308 -0.23179586 -0.06135621
-0.19473663 0.0061788275 0.15724047 0.06039771 -0.11794142 -0.02368891 0.041366972 0.25120026
-0.028010095 0.28870824
00000000: a942 d2bc 75eb aa3e 6cef 39bc edf0 9c3e
00000010: 6b04 543d d582 9a3c 95e7 a2be 608a 813e
00000020: 24a7 8f3e e841 89be 93ee 8b3e c890 033e
00000030: 428e 0cbd ea4a 8ebc e71a 033e b7e8 59be
00000040: 4ff7 66be 3e9b 0b3e 6f4b 833e 3e94 623e
00000050: 98ef 353e e1ee aa3d 3001 d93d 5b9f 8f3e
00000060: 596f 51be a587 783d 991b 62be a3b3 6f3e
00000070: 6e73 4d3e 0f81 21bd 40a2 8dbd 5c66 8bbc
00000080: 32da abbd 08bc abbe 166d 2ebe a8e3 abbe
00000090: e776 7bbe e8a8 623e 2198 97be 9ef8 293e
000000a0: 981e 99be 2925 a5be 67b9 14be 38b9 213e
000000b0: e498 9abe 5dda 37be 2b52 3cbd 20e5 4bbd
000000c0: c2cb 003e c51f 763e da68 033e 1e01 c7bd
000000d0: cf82 513d d1f3 40be 8eeb 7bbd ffcb 173d
000000e0: 847a d23d b13f f23d 9424 1abd 46ae 93bb
000000f0: f7ae 5ebc fa6f 7ebe c1ce 6e3e 5552 3f3d
00000100: de87 703e f7f9 24be ec22 7b3e 2a6d 11be
00000110: 58e8 a13d d75e 213d b691 883e 15c1 45bd
00000120: c777 91be 19d6 71be 2462 53be c4d0 b03d
00000130: 46dc fcbd 63bd 3abe e55b 6dbe a650 7bbd
00000140: 0a69 47be c377 ca3b a503 213e 9763 773d
00000150: 458b f1bd 3f0f c2bc 6a70 293d 529d 803e
00000160: 6d75 e5bc 91d1 933e

conv1.bias f4 [10]
-0.049112875 0.072962694 0.2966987 -0.20462579 -0.26851216 0.29336122 -0.10057593 -0.28630653
0.09481486 -0.031211777
00000000: 952a 49bd 776d 953d e4e8 973e 6c89 51be
00000010: 6d7a 89be 7133 963e c1fa cdbd c596 92be
00000020: 4b2e c23d d7af ffbc

conv2.weight f4 [10, 10, 3, 3]
-0.08950729 -0.09530772 0.0038825038 -0.057024173 -0.052454196 -0.014075106 -0.058679324 -0.08530125
-0.020556565 0.04628006 0.074508905 -0.064117305 -0.014099038 -0.053405985 -0.029121498 -0.026552571
-0.103767276 0.07615234 0.08463867 0.033945013 -0.034418363 -0.041396733 -0.009220733 0.026567485
0.059387345 -0.0049181385 -0.090351805 0.04356843 0.07780293 0.09765763 -0.05233238 -0.04136391
-0.08147527 0.011285606 -0.04432294 -0.0048829736 -0.039405894 0.10665968 -0.027688121 0.0016923721
-0.031049462 -0.06084205 -0.0972684 -0.0561178 0.0396414 0.10036385 0.073117 -0.041349277
0.038444962 -0.06692441 -0.041549604 0.103238 -0.08784646 -0.07105407 -0.0035025105 -0.08277033
0.10821129 -0.04888492 -0.04541042 0.045136403 0.057370625 -0.09198702 -0.032237053 0.0961035
-0.10045418 0.025004808 0.034972697 -0.0164504 -0.06305217 -0.06461817 0.05529888 -0.066223964
0.101692006 0.106245644 0.0797987 -0.006977978 -0.025012154 0.07371195 -0.07188638 -0.040203504
-0.07647214 0.04233932 -0.094951905 -0.08054489 0.08148163 0.01491311 0.031884063 -0.014065342
-0.00023209653 0.034769867 0.07300412 -0.09054465 0.033737414 -0.0860322 -0.021661475 0.07440678
-0.047199614 0.0026025588 0.09892622 0.010292005 -0.061056517 -0.009541786 0.0063003357 0.027113277
-0.093721144 0.0067828908 -0.037838925 0.00035802057 -0.032538783 0.04515975 -0.07439429 0.03858198
0.05102779 -0.06837256 -0.04235932 -0.00173852 0.074475795 -0.07292119 -0.026321895 0.05628926
0.06465647 0.052581914 -0.04176195 0.105472855 -0.027702112 0.009324989 0.009710953 -0.0018799886
-0.0629799 -0.05508452 -0.0038296555 -0.06950905 -0.09635791 -0.095447116 -0.10977684 0.060346484
0.038971927 0.09080623 -0.042611 0.09064733 0.07276877 -0.08168532 -0.060301002 -0.101107046
-0.048161875 -0.027193144 -0.09012502 -0.10268452 0.030166132 -0.065749735 -0.033901475 0.0602091
0.09799459 -0.100285515 -0.0036912928 0.08357517 0.085328214 0.05244244 -0.046187658 -0.028714117
-0.053825155 -0.09076216 -0.03193844 0.00049167883 -0.009687643 -0.106909715 0.056524277 0.083908685
0.006800668 0.08996193 -0.037700187 0.09660134 0.01366618 0.06481519 0.054342035 0.05815475
0.05158789 0.05897002 0.061233737 -0.08114892 -0.055866625 -0.070137314 -0.04457784 -0.017061992
0.0010870172 0.08454009 -0.098254815 -0.016769763 0.033334676 -0.05806199 -0.014802525 -0.054825757
-0.065560326 0.050568175 0.027061779 -0.08294196 0.012157309 0.06756431 -0.0967119 -0.04734709
-0.07575434 -0.014580488 0.056843992 0.11078128 -0.018354772 0.04069465 0.0027443776 0.032750826
-0.030915618 -0.017836489 -0.029972639 -0.042269446 -0.095547885 0.017530063 -0.008627491 -0.11336841
-0.021074442 0.036663543 0.110530674 -0.09372747 0.09603808 0.029298957 0.07274807 -0.029471077
0.026472645 0.036843877 -0.08841489 -0.080416285 -0.056435306 0.09353307 0.09447715 -0.044912495
0.008959685 -0.049168278 -0.08299336 0.086758904 -0.048248157 -0.053325955 0.024951464 0.07190967
-0.03369586 -0.030062169 0.07100119 0.0138994055 -0.10319801 -0.09208113 0.07408771 -0.022691723
-0.0055012037 0.09115281 0.04502979 0.07180116 -0.017925335 0.074256815 0.020227572 0.06451023
00000000: 994f b7bd b230 c3bd 9b71 7e3b 2e92 69bd
00000010: 36da 56bd 469b 66bc bb59 70bd 6cb2 aebd
00000020: 3e66 a8bc 2990 3d3d 2098 983d ef4f 83bd
00000030: a7ff 66bc 3cc0 5abd 3590 eebc c784 d9bc
00000040: f083 d4bd c2f5 9b3d 0a57 ad3d ed09 0b3d
00000050: 45fa 0cbd 9f8f 29bd 8f12 17bc 0ea4 d93c
00000060: 2540 733d 5628 a1bb 5e0a b9bd cf74 323d
00000070: 2457 9f3d b900 c83d 7a5a 56bd 346d 29bd
00000080: 82dc a6bd 43e7 383c f98b 35bd 5a01 a0bb
00000090: 1368 21bd 6470 da3d 33d2 e2bc 96d2 dd3a
000000a0: 715b febc 8335 79bd a834 c7bd c7db 65bd
000000b0: 055f 223d 908b cd3d 5ebe 953d dc5d 29bd
000000c0: 7778 1d3d aa0f 89bd eb2f 2abd 726e d33d
000000d0: d8e8 b3bd cc84 91bd 608a 65bb 7e83 a9bd
000000e0: e19d dd3d 8e3b 48bd 4700 3abd f3e0 383d
000000f0: 76fd 6a3d b163 bcbd 000b 04bd e9d1 c43d
00000100: ecba cdbd e2d6 cc3c 883f 0f3d fdc2 86bc
00000110: 7f21 81bd 8856 84bd 1481 623d 6ea0 87bd
00000120: e643 d03d 5197 d93d 806d a33d 86a7 e4bb
00000130: 4ae6 ccbc 4af6 963d 2b39 93bd 6eac 24bd
00000140: 6d9d 9cbd ff6b 2d3d 2576 c2bd b8f4 a4bd
00000150: d7df a63d 1e56 743c dd98 023d 5272 66bc
00000160: f05e 73b9 d96a 0e3d 2f83 953d 796f b9bd
00000170: 3e30 0a3d a631 b0bd 6873 b1bc 9562 983d
00000180: 6254 41bd b18f 2a3b d499 ca3d cc9f 283c
00000190: 6616 7abd 2755 1cbc 0c73 ce3b aa1c de3c
000001a0: dff0 bfbd 0343 de3b fdfc 1abd b5b4 bb39
000001b0: 6347 05bd 6ef9 383d 095c 98bd 2308 1e3d
000001c0: 8402 513d ea06 8cbd f780 2dbd 0ddf e3ba
000001d0: c486 983d b457 95bd 04a1 d7bc 918f 663d
000001e0: 9d6a 843d 2260 573d 940e 2bbd 2702 d83d
000001f0: 8aef e2bc d7c7 183c b01a 1f3c f369 f6ba
00000200: 9bfb 80bd 4ea0 61bd f5fa 7abb c35a 8ebd
00000210: 4c57 c5bd c779 c3bd aed2 e0bd e02d 773d
00000220: 07a1 1f3d 9ef8 b93d df88 2ebd 4fa5 b93d
00000230: cb07 953d a24a a7bd 2ffe 76bd 3611 cfbd
00000240: 6345 45bd 28c4 debc 7793 b8bd 434c d2bd
00000250: f71e f73c cca7 86bd 46dc 0abd d19d 763d
00000260: 63b1 c83d 7e62 cdbd 9ee9 71bb 7529 ab3d
00000270: 8fc0 ae3d e2cd 563d 452f 3dbd de39 ebbc
00000280: c477 5cbd 83e1 b9bd e2d1 02bd 02e4 003a
00000290: ebb8 1ebc 7bf3 dabd 0086 673d 51d8 ab3d
000002a0: 23d8 de3b f63d b83d 836b 1abd ecd6 c53d
000002b0: 1de8 5f3c d4bd 843d c195 5e3d ad33 6e3d
000002c0: d34d 533d 8c8a 713d 3ad0 7a3d 6831 a6bd
000002d0: 67d4 64bd 27a4 8fbd 4197 36bd 97c5 8bbc
000002e0: 3f7a 8e3a 5b23 ad3d d239 c9bd be60 89bc
000002f0: f189 083d 69d2 6dbd 4a86 72bc f990 60bd
00000300: 7e44 86bd 9320 4f3d aab0 dd3c 79dd a9bd
00000310: 732f 473c 285f 8a3d e310 c6bd 06ef 41bd
00000320: 1725 9bbd 00e3 6ebc 3fd5 683d 4ce1 e23d
00000330: bf5c 96bc 6faf 263d 04db 333b bb25 063d
00000340: c042 fdbc d41d 92bc 2e89 f5bc ba22 2dbd
00000350: 9cae c3bd 359b 8f3c 525a 0dbc b22d e8bd
00000360: 4fa4 acbc 832c 163d e85d e23d 30f4 bfbd
00000370: 9daf c43d 5e04 f03c f1fc 943d 546d f1bc
00000380: 29dd d83c 9be9 163d de12 b5bd 4bb1 a4bd
00000390: b528 67bd 448e bf3d 3c7d c13d 2af6 37bd
000003a0: a5cb 123c ad64 49bd 6cf8 a9bd a7ae b13d
000003b0: dc9f 45bd 516c 5abd 0367 cc3c 6145 933d
000003c0: ac04 0abd f044 f6bc 1269 913d 55ba 633c
000003d0: 7a59 d3bd 0895 bcbd 4cbb 973d fee3 b9bc
000003e0: 7143 b4bb 53ae ba3d 2871 383d 7d0c 933d
000003f0: 27d8 92bc f513 983d 4bb4 a53c f11d 843d

conv2.bias f4 [10]
-0.070604146 -0.034801498 0.06892962 0.090149015 -0.0018415705 0.035805717 0.055877905 -0.060846318
0.09117099 0.08110131
00000000: e898 90bd 048c 0ebd f92a 8d3d 0ca0 b83d
00000010: da60 f1ba 04a9 123d 3be0 643d fd39 79bd
00000020: dbb7 ba3d 7218 a63d

conv3.weight f4 [10, 10, 3, 3]
0.05105925 0.08136751 -0.09201502 0.007901524 -0.034691352 -0.004089012 0.08115747 0.10307842
0.09806603 -0.03654275 0.098990455 0.06207168 0.07923695 -0.10877356 -0.06629976 0.0025222697
0.086352974 0.0563222 -0.06673269 -0.011616755 -0.0044652023 0.0374153 0.0598214 -0.065491386
-0.06688659 -0.0040102447 0.03790134 0.07667746 -0.005951656 0.069282316 0.028489558 -0.020875322
-0.09080249 0.053338125 -0.054940745 -0.02682149 -0.091446765 -0.011832263 0.042281542 -0.071148284
-0.010069576 -0.055113994 -0.072396085 0.019952852 -0.11488685 -0.08579317 0.050663885 0.058751255
0.036382858 0.026278969 0.052552544 -0.0866655 -0.041912004 0.028060365 0.019780181 0.022407647
0.03133171 0.028739527 -0.066643335 -0.09963505 0.013198932 -0.058197826 -0.028575797 -0.08079931
-0.05273808 -0.0685919 -0.05011377 0.033366803 0.015195129 0.026850628 0.078920074 -0.054387227
-0.08380576 -0.043843415 0.07961536 -0.045977946 -0.050420746 -0.05441403 0.05241194 0.072372004
-0.0036599163 -0.031995535 -0.035236176 0.07954958 -0.047775388 -0.010269098 -0.07889127 0.06886562
0.058260106 -0.016739767 0.069555044 0.09116605 -0.05140472 0.075778365 0.03157776 -0.06615923
0.0597972 -0.014461514 0.064965546 0.056024387 -0.089505166 -0.051309876 0.082177095 -0.083307326
-0.11284918 -0.047957774 -0.076142125 -0.007131567 -0.103447415 0.06112897 0.034702346 0.031348202
-0.046019416 -0.005942602 -0.06801637 -0.086056635 -0.04645305 -0.08282147 -0.11626094 -0.058299787
-0.039476514 -0.12319952 0.06051558 -0.01768212 -0.047324374 -0.11651059 0.04491055 0.008374503
-0.0779571 -0.057575468 -0.09770059 0.09576952 0.019637123 0.059318792 -0.06310198 0.04811134
0.055699505 0.06413045 -0.045864496 -0.045794744 0.09707366 -0.07797212 0.06713921 -0.0031172843
-0.032791905 -0.05488721 -0.006230361 0.031181997 0.10429899 0.050611287 0.1007541 0.07730331
-0.01869824 0.10090213 -0.09744493 -0.013744766 0.049522813 0.092978865 -0.009592809 0.058209714
-0.03075295 0.0029856425 0.009722302 -0.025790479 -0.03741943 -0.057726886 -0.10422384 0.06479538
-0.050755836 -0.031144865 -0.059472583 0.013978836 0.08175061 -0.05377726 0.09556264 0.031371865
-0.015388562 0.037696477 -0.009831097 0.080817446 0.05904166 0.052255493 0.032243073 -0.05914875
-0.059334468 0.06934388 0.069971606 -0.030786546 0.010655328 -0.033976063 0.027568944 0.107630946
-0.09301855 0.09514331 0.0124247 -0.10166854 -0.040134985 -0.0037827864 -0.0057189395 0.08244635
0.08846684 0.025277616 0.026772216 -0.04174374 0.103798814 0.03343529 -0.029807398 0.079280235
-0.05634821 -0.018194202 0.0072367885 -0.08863034 -0.092021026 0.08207022 -0.07620463 0.04929861
0.02151662 -0.09417154 0.0010708626 0.102774896 0.03743394 -0.055815812 -0.027430352 0.06156242
-0.032660164 0.07442569 -0.016138833 -0.06383362 0.053507265 0.015824758 0.05692322 -0.06894661
-0.025617907 0.06460467 0.052919593 -0.022869246 0.09606061 0.03882237 -0.058731943 -0.025134657
0.02672976 -0.055667873 -0.06696684 -0.027658116 -0.066716656 -0.031757582 0.023852106 -0.0059450446
0.085526615 0.046683136 0.035211504 -0.069008164 -0.030036675 0.022260034 -0.03606011 -0.063833036
00000000: 8123 513d 02a4 a63d 5f72 bcbd 6575 013c
00000010: 8518 0ebd 1efd 85bb e335 a63d c71a d33d
00000020: d8d6 c83d daad 15bd 82bb ca3d e03e 7e3d
00000030: fb46 a23d acc4 debd 2bc8 87bd aa4c 253b
00000040: d4d9 b03d 1bb2 663d 26ab 88bd 3454 3ebc
00000050: d550 92bb c940 193d 4907 753d 5920 86bd
00000060: d6fb 88bd 5f68 83bb 6f3e 1b3d 1209 9d3d
00000070: 1c06 c3bb e3e3 8d3d ef62 e93c b902 abbc
00000080: a8f6 b9bd 1479 5a3d 8c09 61bd beb8 dbbc
00000090: 7148 bbbd 1cdc 41bc 692f 2d3d 31b6 91bd
000000a0: ddfa 24bc 36bf 61bd 6644 94bd 2a74 a33c
000000b0: cc49 ebbd 54b4 afbd ef84 4f3d 28a5 703d
000000c0: 3106 153d fe46 d73c 5641 573d af7d b1bd
000000d0: ecab 2bbd dade e53c 0c0a a23c 3e90 b73c
000000e0: ae55 003d 286f eb3c 4d7c 88bd 760d ccbd
000000f0: 5540 583c d860 6ebd ca17 eabc 1c7a a5bd
00000100: e303 58bd e979 8cbd 1944 4dbd a1ab 083d
00000110: fef4 783c d9f5 db3c d9a0 a13d 24c5 5ebd
00000120: 5ba2 abbd 2795 33bd 610d a33d 5f53 3cbd
00000130: fc85 4ebd 3fe1 5ebd e7ad 563d c637 943d
00000140: 35db 6fbb c00d 03bd cf53 10bd e4ea a23d
00000150: 20b0 43bd b83f 28bc bf91 a1bd 6b09 8d3d
00000160: 26a2 6e3d d621 89bc e072 8e3d 44b5 ba3d
00000170: c18d 52bd b031 9b3d ae57 013d 7e7e 87bd
00000180: e9ed 743d fcef 6cbc a80c 853d d479 653d
00000190: 7c4e b7bd 4e2a 52bd 774c a83d 089d aabd
000001a0: 791d e7bd 5f6f 44bd 67f0 9bbd ecaf e9bb
000001b0: 3ddc d3bd 5f62 7a3d 0c24 0e3d f966 003d
000001c0: db7e 3cbd 29ba c2bb 2b4c 8bbd 763e b0bd
000001d0: 8e45 3ebd 4e9e a9bd 371a eebd c2cb 6ebd
000001e0: 20b2 21bd 0850 fcbd 2fdf 773d 18da 90bc
000001f0: 34d7 41bd 1b9d eebd 20f4 373d 3635 093c
00000200: f9a7 9fbd 41d4 6bbd 3f17 c8bd cf22 c43d
00000210: 08de a03c 43f8 723d 9c3b 81bd 6510 453d
00000220: 2a25 643d d356 833d 69dc 3bbd 4593 3bbd
00000230: 8ece c63d d9af 9fbd 4880 893d 5a4b 4cbb
00000240: ce50 06bd 69d1 60bd 0e28 ccbb 6371 ff3c
00000250: b59a d53d c84d 4f3d 2a58 ce3d 3351 9e3d
00000260: 0d2d 99bc c7a5 ce3d 3591 c7bd ba31 61bc
00000270: 6fd8 4a3d b46b be3d 282b 1dbc 4f6d 6e3d
00000280: 9ced fbbc c5aa 433b 4a4a 1f3c 8e46 d3bc
00000290: 1e45 19bd 0773 6cbd 4f73 d5bd 71b3 843d
000002a0: 5ae5 4fbd 8423 ffbc 8699 73bd 7d07 653c
000002b0: dd6c a73d 8b45 5cbd 58b6 c33d c97f 003d
000002c0: 4f20 7cbc 9f67 1a3d 9c12 21bc 9e83 a53d
000002d0: abd5 713d db09 563d 5011 043d f645 72bd
000002e0: b308 73bd 2a04 8e3d 464d 8f3d 1134 fcbc
000002f0: af93 2e3c 7c2a 0bbd 44d8 e13c 9d6d dc3d
00000300: 8280 bebd 7fda c23d f890 4b3c 9837 d0bd
00000310: 9564 24bd a0e8 77bb f165 bbbb a2d9 a83d
00000320: 1a2e b53d 0113 cf3c 6851 db3c 7cfb 2abd
00000330: 7994 d43d 71f3 083d a52e f4bc ad5d a23d
00000340: 61cd 66bd 020c 95bc 9522 ed3b d383 b5bd
00000350: 8575 bcbd 6e14 a83d 2c11 9cbd 57ed 493d
00000360: 9f43 b03c 02dd c0bd 305c 8c3a a57b d23d
00000370: 5554 193d 1f9f 64bd 9eb5 e0bc e028 7c3d
00000380: aac6 05bd 7f6c 983d 9635 84bc 33bb 82bd
00000390: 6f2a 5b3d eca2 813c 5328 693d e133 8dbd
000003a0: a5dc d1bc 744f 843d 37c2 583d 4958 bbbc
000003b0: 6dbb c43d 3504 1f3d e890 70bd 32e7 cdbc
000003c0: 5ff8 da3c ff03 64bd e925 89bd 4693 e2bc
000003d0: bea2 88bd 3d14 02bd 7e65 c33c a6ce c2bb
000003e0: 9428 af3d d136 3f3d f039 103d 2754 8dbd
000003f0: 790f f6bc ad5a b63c c4b3 13bd e5ba 82bd

conv3.bias f4 [10]
-0.0394122 0.08702541 0.07117884 0.060348812 -0.056031898 -0.003911092 0.046090372 0.06762651
-0.07923289 -0.012413569
00000000: b06e 21bd 613a b23d 36c6 913d 5130 773d
00000010: b481 65bd 9e28 80bb 42c9 3c3d c57f 8a3d
00000020: da44 a2bd 4862 4bbc

conv4.weight f4 [10, 10, 3, 3]
0.032354776 0.09510653 0.059421476 -0.10045688 -0.09994473 0.0009864004 -0.05010224 0.058078818
0.057986084 -0.014473175 0.06941167 0.074168414 -0.08119829 0.035134774 0.121468134 0.062945746
-0.06403969 0.014156026 0.103320606 0.016056547 -0.009171156 0.07685638 0.014122816 0.032512363
0.0723667 0.04554197 -0.009319138 0.0067728455 0.04915649 -0.051579874 -0.0027509092 0.036220323
-0.10689848 0.0018367541 0.013567273 -0.0077596637 0.06813748 0.016914112 0.051571745 -0.016656686
0.07012147 -0.05445916 0.0194249 0.117739685 0.04677469 0.02342718 0.008532094 0.06889917
-0.012677873 -0.08862344 -0.02271206 0.08175988 -0.070894524 -0.037745353 -0.015575517 0.09628124
0.024265643 -0.09066567 0.055143178 0.06267908 -0.012087183 0.07859286 0.022752374 0.08660591
-0.0036005643 -0.05765908 0.07966784 -0.04617642 -0.030994162 -0.051060766 -0.09778991 0.074676186
-0.060631983 0.066795215 -0.068624176 -0.05843022 -0.067797735 -0.014202252 0.020392286 0.023468038
-0.07390665 -0.055137876 0.08120174 -0.032640703 -0.08345981 -0.010282114 0.02103164 -0.030650184
-0.1050824 0.013589308 0.09856461 -0.029017933 -0.04512622 0.008240226 0.044559453 0.0021627427
0.034727328 -0.013632053 -0.08790815 -0.029206255 -0.0938466 0.0038655286 0.06681932 -0.07238001
-0.01621253 -0.085373506 -0.0017619836 0.10819383 -0.07440923 0.0820818 0.026637647 -0.018152246
0.090848975 0.024698853 -0.029001622 -0.04772381 -0.0053150365 0.022261003 -0.03802501 0.0051921406
0.084332414 0.058391612 -0.072879806 0.076123446 0.024022605 0.0035335813 0.018865809 -0.03293389
0.071120754 -0.06614455 0.073840186 0.018415472 -0.02745814 -0.026407594 -0.08100174 0.03264649
-0.09501561 -0.10680497 0.006523318 0.05852458 -0.011983379 0.019446423 -0.027755562 0.014779901
0.011235848 0.04242566 0.03705952 -0.08240993 -0.076304905 -0.025597895 0.08999558 -0.031579785
-0.038488552 0.028770028 -0.08024731 0.0654155 0.005388697 0.04233248 -0.077331305 0.07158487
-0.07899247 0.11736755 -0.04321499 -0.09408933 0.08633379 0.04483807 -0.081466734 -0.022626469
0.019300064 -0.0953217 0.048610993 -0.0924509 0.092964806 -0.040520586 0.033118136 -0.04694329
-0.08532708 -0.007333778 -0.00032123178 -0.062470727 -0.027928907 0.05209465 0.022106627 -0.08080914
-0.089140624 0.022413373 0.03390284 0.079078734 -0.05912002 0.08149907 0.08314007 0.040524393
0.08240348 0.06383137 -0.024564827 -0.040152106 0.022075877 -0.01023332 -0.002995333 0.06691076
-0.041725624 -0.03791585 0.05889014 0.029340615 0.045332845 0.042351257 -0.032625083 -0.011824888
-0.10640857 0.08632818 -0.081871785 -0.02573133 0.08421156 0.07897314 -0.010747947 0.08203786
-0.03820766 -0.091231644 0.007132465 0.07116607 0.056152932 -0.078553736 0.02372224 0.108676925
0.08024871 0.03355415 0.08699248 0.0696519 -0.02382676 -0.07952809 0.07615388 -0.041786
-0.10532794 0.07127234 -0.08011405 0.110885374 -0.09164338 0.05198127 -0.07479759 -0.072202176
-0.018053573 0.04703124 0.08276008 0.020564636 -0.07896769 -0.0012352174 -0.022481415 -0.09814959
0.056742992 -0.06792626 0.058274705 0.035451055 -0.029464109 0.036694054 -0.10402341 0.05223694
00000000: 7186 043d 36c7 c23d ef63 733d 56bc cdbd
00000010: d3af ccbd 1b4a 813a 0238 4dbd 0ee4 6d3d
00000020: d182 6d3d e520 6dbc b527 8e3d 9ce5 973d
00000030: 4a4b a6bd 7be9 0f3d 49c4 f83d b3e9 803d
00000040: 3e27 83bd adee 673c c199 d33d 0589 833c
00000050: 9e42 16bc e166 9d3d 6263 673c af2b 053d
00000060: fe34 943d 378a 3a3d 4caf 18bc bfee dd3b
00000070: 5158 493d 6b45 53bd 9948 34bb c35b 143d
00000080: 97ed dabd 3ebf f03a 4449 5e3c c744 febb
00000090: aa8b 8b3d 778f 8a3c e53c 533d 9a73 88bc
000000a0: d89b 8f3d 9110 5fbd f820 9f3c 8121 f13d
000000b0: d196 3f3d 5bea bf3c 32ca 0b3c 021b 8d3d
000000c0: dab6 4fbc 3580 b5bd a40e babc b971 a73d
000000d0: 2631 91bd df9a 1abd 7430 7fbc 192f c53d
000000e0: bec8 c63c ecae b9bd d0dd 613d e45d 803d
000000f0: 5209 46bc 4bf5 a03d 3063 ba3c 705e b13d
00000100: 72f7 6bbb ed2b 6cbd e428 a33d 7c23 3dbd
00000110: 78e7 fdbc 1825 51bd 1446 c8bd d4ef 983d
00000120: 3e59 78bd eecb 883d d58a 8cbd 8754 6fbd
00000130: 8ad9 8abd 90b0 68bc b90d a73c 0b40 c03c
00000140: 5f5c 97bd 41d8 61bd 194d a63d 42b2 05bd
00000150: faec aabd 5076 28bc 8c4a ac3c 1816 fbbc
00000160: 7135 d7bd b0a5 5e3c 3edc c93d 04b7 edbc
00000170: 45d6 38bd 0302 073c f983 363d cdbc 0d3b
00000180: 3e3e 0e3d f958 5fbc 3009 b4bd f541 efbc
00000190: a532 c0bd cf54 7d3b 91d8 883d f83b 94bd
000001a0: 24d0 84bc 4ed8 aebd 5cf2 e6ba ba94 dd3d
000001b0: de63 98bd 811a a83d 3237 da3c 05b4 94bc
000001c0: 070f ba3d 4055 ca3c cf94 edbc 0b7a 43bd
000001d0: c229 aebb b55c b63c 1dc0 1bbd d522 aa3b
000001e0: 79b6 ac3d 0b2c 6f3d 0242 95bd 9ce6 9b3d
000001f0: 0ecb c43c a893 673b 788c 9a3c b0e5 06bd
00000200: c2a7 913d cb76 87bd 8639 973d 0bdc 963c
00000210: e5ef e0bc bd54 d8bc 3ee4 a5bd 53b8 053d
00000220: 8b97 c2bd 90bc dabd 8fc1 d53b 78b7 6f3d
00000230: ef55 44bc 1b4e 9f3c a25f e3bc 6627 723c
00000240: 9016 383c 87c6 2d3d b9cb 173d 8ac6 a8bd
00000250: bf45 9cbd adb2 d1bc 9a4f b83d ce59 01bd
00000260: 2ca6 1dbd 1faf eb3c b458 a4bd 90f8 853d
00000270: ab93 b03b d364 2d3d e05f 9ebd 179b 923d
00000280: cec6 a1bd 665e f03d 3402 31bd e8b1 c0bd
00000290: c5cf b03d 20a8 373d 08d8 a6bd 255b b9bc
000002a0: 2b1b 9e3c 0638 c3bd 521c 473d e656 bdbd
000002b0: 5564 be3d eaf8 25bd e2a6 073d 9b47 40bd
000002c0: f7bf aebd 3050 f0bb 006b a8b9 4ee1 7fbd
000002d0: 2acb e4bc 3361 553d f518 b53c 437f a5bd
000002e0: 5c8f b6bd 409c b73c b4dd 0a3d 08f4 a13d
000002f0: d627 72bd fce8 a63d 5745 aa3d e8fc 253d
00000300: 28c3 a83d 05ba 823d 2d3c c9bc 8976 24bd
00000310: 78d8 b43c a8a9 27bc 594d 44bb 8208 893d
00000320: 7de8 2abd a64d 1bbd ca36 713d bb5b f03c
00000330: efae 393d 8378 2d3d e1a1 05bd 2dbd 41bc
00000340: bdec d9bd d4cc b03d 65ac a7bd 83ca d2bc
00000350: 1c77 ac3d abbc a13d 2818 30bc 7703 a83d
00000360: a37f 1cbd a8d7 babd 74b7 e93b 84bf 913d
00000370: 9e00 663d c8e0 a0bd 2555 c23c 0292 de3d
00000380: 7059 a43d 1470 093d 1d29 b23d a8a5 8e3d
00000390: 5630 c3bc a0df a2bd 91f6 9b3d cc27 2bbd
000003a0: 2db6 d7bd 3cf7 913d d612 a4bd df17 e33d
000003b0: 86af bbbd 50ea 543d 7b2f 99bd bcde 93bd
000003c0: 16e5 93bc d4a3 403d 1e7e a93d 2b77 a83c
000003d0: d0b9 a1bd 05e7 a1ba f22a b8bc a702 c9bd
000003e0: 576b 683d ec1c 8bbd 75b1 6e3d 2035 113d
000003f0: b75e f1bc 814c 163d 3a0a d5bd 67f6 553d

conv4.bias f4 [10]
0.08933518 0.093733 0.062262885 0.04328472 0.027037576 0.01530176 -0.087313615 -0.052162297
0.01665584 -0.03726863
00000000: 5df5 b63d 16f7 bf3d 5e07 7f3d 524b 313d
00000010: e87d dd3c 3cb4 7a3c 7bd1 b2bd 22a8 55bd
00000020: d471 883c fea6 18bd

norm.weight f4 [10]
1.0600177 1.047325 1.0628775 1.0625644 1.0532078 1.0558505 1.0725958 1.0602702
1.0567325 1.0594904
00000000: a9ae 873f bf0e 863f 5f0c 883f 1c02 883f
00000010: 83cf 863f 1c26 873f d24a 893f efb6 873f
00000020: 0343 873f 629d 873f

norm.bias f4 [10]
0.03781011 0.013922462 0.039474055 0.026826734 0.015076383 0.03176632 0.03617584 0.02533533
0.020310499 0.03683249
00000000: c6de 1a3d 0a1b 643c 8caf 213d bdc3 db3c
00000010: ef02 773c 671d 023d 1e2d 143d 0a8c cf3c
00000020: 3462 a63c aadd 163d

norm.running_mean f4 [10]
0.14905293 0.08098478 0.1189899 0.05894761 0.02612507 0.08433283 -0.0933887 -0.023888193
-0.009571235 0.019248132
00000000: 55a1 183e 59db a53d fab0 f33d 0d73 713d
00000010: 3e04 d63c b1b6 ac3d 9342 bfbd 2cb1 c3bc
00000020: abd0 1cbc 42ae 9d3c

norm.running_var f4 [10]
0.00025415127 8.591298e-05 0.00016543349 0.000110459805 0.00016821912 0.0002705456 9.921042e-05 0.0002644558
0.0001769352 0.00020333163
00000000: 9b3f 8539 2e2c b438 3778 2d39 a8a6 e738
00000010: fa63 3039 04d8 8d39 300f d038 a8a6 8a39
00000020: ae87 3939 6b35 5539

fc1.weight f4 [50, 810]
-0.022587482 0.028309941 -0.009604121 0.025403194 0.020275712 0.0028265193 0.016201535 -0.014369997
-0.012443447 0.03560719 0.0136821885 -0.007581932 -0.005166777 -0.003564632 0.035852127 0.019259825
0.025880735 -0.018898632 0.0074509294 0.021747744 -0.023751495 0.02119146 0.032630645 0.06330351
0.0024917948 0.024185047 0.0041079023 0.036852762 -0.02445096 0.025144394 -0.04368509 0.038647648
-0.024438096 -0.02130388 -0.01156786 -0.01078954 -0.018078644 0.008794266 0.030043604 -0.030320827
-0.045425814 0.03399603 -0.014006456 0.014005131 0.015872797 -0.00027141607 -0.0051513608 0.029499283
-0.02215269 -0.028459271 0.025039356 0.01423278 0.0045086485 0.030302323 0.0023603959 0.0022928722
0.029183356 -0.017475065 -0.007106561 0.00074075547 0.00017593615 0.038428947 -0.007451339 0.0037715295
-0.027780866 0.024586147 0.018870708 -0.031850185 -0.0002649217 -0.055304166 0.012896491 -0.002926753
-0.0007778207 0.049582746 0.003081083 -0.046297714 -0.019638468 -0.01581074 -0.012796204 -0.03125292
-0.005946515 0.016601665 -0.0069348835 -0.024018668 -0.038781427 -0.02459049 0.014845657 -0.03819782
0.034652542 0.010347534 -0.01798164 -0.026697908 0.022813385 -0.03496576 -0.006447056 0.018097676
0.027119553 -0.028844578 0.020433888 0.027012352 -0.028726326 -0.0054015615 -0.03710747 0.018186375
0.024304999 -0.013593377 -0.0013731378 -0.022986596 0.0011490189 0.02503289 0.0024740358 -0.02345837
-0.044094805 0.027614107 0.011778119 0.033985816 0.025884751 -0.026425393 0.0019319021 0.027641391
0.020302037 0.00473554 -0.0037008126 0.0064206994 -0.02500042 -0.009517815 0.028134724 -0.021638421
0.005990792 -0.019400522 -0.012951164 0.022527847 -0.014345003 0.04784473 -0.029744525 -0.029667098
0.0076712985 0.031355828 -0.042897128 -0.019640561 -0.005372611 -0.013828429 0.01908742 -0.0034843294
-0.0039444733 -0.024933944 0.0048021944 0.023977716 0.020856593 -0.030980742 0.04534419 -0.0012364005
0.018463477 -0.035915732 0.028128443 0.006267015 -0.020404115 0.008716025 -0.03648673 0.024833962
0.0046949685 0.019006874 0.016876847 0.017608613 0.027258208 0.030577565 -0.014589987 -0.015715571
-0.040124893 0.027601922 0.02257259 0.022796163 0.03879525 0.03814092 -0.024060726 0.012622193
0.044294536 0.026743488 -0.020138303 0.002166428 -0.0051248716 0.019682622 0.03910644 0.0013360531
0.007150772 0.033342056 0.03157219 0.025651524 0.04149413 -0.025952537 -0.021651654 0.03793805
0.012157511 0.016164046 -0.017592413 -0.02500128 0.015912011 0.014797586 0.0002060133 -0.009236443
0.024257518 -0.032301232 -0.030824818 0.018003505 0.020311775 -0.014887427 -0.03034575 0.033935945
-0.015163592 -0.013483723 -0.014094389 -0.015399879 -0.03954641 -0.007472096 0.029943572 0.018045457
-0.016819932 -0.050379574 -0.007017548 -0.009279068 0.01733925 0.008943937 0.025992105 0.05303572
0.025573973 0.04315505 -0.00866137 -0.010692369 0.031962957 0.01789239 -0.026818918 -0.029226314
-0.027535055 0.00884323 0.043328047 -0.002872607 0.005734743 0.00058634975 -0.021406574 -0.013608983
-0.044885837 0.024045547 0.010517226 -0.004999264 -0.01836528 0.039268102 -0.018918755 -0.02290396
-0.014197377 0.00041137898 -0.011009102 -0.03467619 0.050048515 0.009717414 -0.014264264 0.04008381
00000000: 6209 b9bc 40ea e73c 9a5a 1dbc 5c1a d03c
00000010: 4019 a63c 203d 393b 15b9 843c 2370 6bbc
00000020: 99df 4bbc d8d8 113d 422b 603c db71 f8bb
00000030: 114e a9bb 9a9c 69bb aed9 123d c8c6 9d3c
00000040: d603 d43c 4ed1 9abc ed26 f43b 5328 b23c
00000050: 7f92 c2bc b699 ad3c b6a7 053d 45a5 813d
00000060: 614d 233b b81f c63c 959b 863b ecf2 163d
00000070: 614d c8bc 9efb cd3c 23ef 32bd ff4c 1e3d
00000080: 6732 c8bc 7985 aebc 1f87 3dbc 9cc6 30bc
00000090: aa19 94bc d315 103c 011e f63c 6263 f8bc
000000a0: 6b10 3abd 6c3f 0b3d 567b 65bc c775 653c
000000b0: ab07 823c d94c 8eb9 bfcc a8bb 7ba8 f13c
000000c0: 8f79 b5bc 6b23 e9bc 561f cd3c 9b30 693c
000000d0: 49bd 933b 943c f83c dfb0 1a3b 0344 163b
000000e0: ef11 ef3c de27 8fbc 28de e8bb 422f 423a
000000f0: 807b 3839 ac67 1d3d 5d2a f4bb c42b 773b
00000100: b394 e3bc e368 c93c be96 9a3c 5775 02bd
00000110: 30e5 8ab9 9f86 62bd ce4b 533c c4ce 3fbb
00000120: aae6 4bba 4717 4b3d ffeb 493b aca2 3dbd
00000130: dae0 a0bc 8685 81bc 2ba7 51bc 1003 00bd
00000140: fcda c2bb 3700 883c 053e e3bb ccc2 c4bc
00000150: 46d9 1ebd ff71 c9bc 333b 733c 5175 1cbd
00000160: d3ef 0d3d b488 293c 3b4e 93bc 92b5 dabc
00000170: 23e3 ba3c 4238 0fbd d341 d3bb 9441 943c
00000180: d329 de3c 774b ecbc f864 a73c 0249 dd3c
00000190: 7953 ebbc 95ff b0bb 01fe 17bd 98fb 943c
000001a0: 471b c73c c1b6 5ebc dcfa b3ba 634e bcbc
000001b0: ad9a 963a c611 cd3c 6f23 223b c42b c0bc
000001c0: c19c 34bd fb36 e23c 03f9 403c b634 0b3d
000001d0: 420c d43c 117a d8bc e137 fd3a 3370 e23c
000001e0: 7550 a63c 972c 9b3b 5589 72bb bb64 d23b
000001f0: aecd ccbc 9cf0 1bbc cb7a e63c 0f43 b1bc
00000200: 684e c43b d8ed 9ebc 1e31 54bc 528c b83c
00000210: 4e07 6bbc d6f8 433d caaa f3bc 6a08 f3bc
00000220: 845f fb3b f86e 003d e6b4 2fbd 3ee5 a0bc
00000230: ba0c b0bb a390 62bc 395d 9c3c 5959 64bb
00000240: a440 81bb 4542 ccbc ba5b 9d3b ea6c c43c
00000250: 72db aa3c 53cb fdbc d4ba 393d b70e a2ba
00000260: b840 973c 601c 13bd 9f6d e63c 885b cd3b
00000270: 8826 a7bc a9cd 0e3c 1c73 15bd 9870 cb3c
00000280: 40d8 993b 4eb4 9b3c 5041 8a3c f03f 903c
00000290: 9b4c df3c cd7d fa3c d70a 6fbc f1bd 80bc
000002a0: 005a 24bd 6d1d e23c 27ea b83c 05bf ba3c
000002b0: c5e7 1e3d a739 1c3d 001b c5bc 51cd 4e3c
000002c0: 306e 353d 2915 db3c 15f9 a4bc a1fa 0d3b
000002d0: 8aee a7bb 733d a13c 132e 203d 811e af3a
000002e0: 0651 ea3b ae91 083d d751 013d 2523 d23c
000002f0: c0f5 293d 6a9a d4bc cf5e b1bc ee64 1b3d
00000300: 4c30 473c 766a 843c f71d 90bc 7ccf ccbc
00000310: e859 823c 9371 723c 4605 5839 7354 17bc
00000320: b4b7 c63c 4c4e 04bd 5484 fcbc 167c 933c
00000330: e164 a63c 65ea 73bc a697 f8bc 6b00 0b3d
00000340: b770 78bc d5ea 5cbc 27ec 66bc c64f 7cbc
00000350: 6bfb 21bd 7cd8 f4bb 394c f53c 11d4 933c
00000360: f4c9 89bc d05a 4ebd 76f3 e5bb 3b07 18bc
00000370: 0b0b 8e3c 9789 123c 65ed d43c fc3b 593d
00000380: 8280 d13c 5ac3 303d 6be8 0dbc 0c2f 2fbc
00000390: 97eb 023d 1093 923c 59b3 dbbc 066c efbc
000003a0: 3291 e1bc 32e3 103c c078 313d 5942 3cbb
000003b0: 83ea bb3b 44b5 193a d75c afbc 36f8 5ebc
000003c0: 36da 37bd 2bfb c43c 7150 2c3c ded0 a3bb
000003d0: c972 96bc 97d7 203d 81fb 9abc 16a1 bbbc
000003e0: 1d9c 68bc 5aae d739 855f 34bc 9f08 0ebd
000003f0: acff 4c3d ca35 1f3c a9b4 69bc ec2e 243d

fc1.bias f4 [50]
-0.023693195 -0.007543622 0.012526674 0.0017097562 -0.031193703 0.025217103 0.023668729 -0.014928594
-0.011750429 -0.017004026 0.02907446 0.0045863213 0.036914006 -0.00816603 0.02222788 0.019318864
-0.024321524 -0.0043943375 0.035236355 -0.007133803 0.01829506 0.039415512 -0.0136854 0.027435789
-0.026993517 -0.019546447 0.048772942 0.013111733 0.0074576964 0.0030650557 -0.019339938 -0.022136316
-0.023804672 0.02353271 -0.023295784 -0.015401908 0.00079980947 -0.009751706 0.022014277 -0.027864547
0.036219195 0.033188276 -0.024607241 -0.03533489 -0.01549094 -0.009813379 0.02823086 -0.0019124467
0.023489788 -0.0027449285
00000000: 3b18 c2bc 7d30 f7bb ae3c 4d3c e619 e03a
00000010: f089 ffbc 1994 ce3c ece4 c13c 1097 74bc
00000020: df84 40bc 074c 8bbc 902d ee3c da48 963b
00000030: 2433 173d d0ca 05bc 3e17 b63c 9842 9e3c
00000040: ef3d c7bc 60fe 8fbb ff53 103d adc2 e9bb
00000050: 86df 953c 2972 213d ba38 60bc 05c1 e03c
00000060: 8221 ddbc df1f a0bc 23c6 473d 98d2 563c
00000070: b15f f43b 1adf 483b ca6e 9ebc 3857 b5bc
00000080: 0402 c3bc abc7 c03c cdd6 bebc 4958 7cbc
00000090: 4eaa 513a 9fc5 1fbc 4957 b43c 3144 e4bc
000000a0: 945a 143d 6ef0 073d 2095 c9bc 51bb 10bd
000000b0: b6cd 7dbc 4bc8 20bc 6844 e73c 10ab faba
000000c0: a86d c03c 42e4 33bb

fc2.weight f4 [7, 50]
0.03349152 -0.03732471 -0.022831319 -0.121979274 -0.0013595368 0.002002874 0.03447986 -0.09270536
-0.14737698 -0.1247329 0.057608303 -0.07786197 -0.029632803 0.08367928 0.11651424 -0.073438615
0.14012346 0.0016166157 -0.103030756 -0.048886254 0.14448254 -0.004772635 0.047240436 0.037975956
0.12577271 -0.025835402 -0.044683866 -0.10903954 -0.15186043 0.12011501 0.13529837 0.13472271
-0.040992748 -0.065415435 0.020138748 -0.093415275 -0.0074112425 0.03989988 -0.031004384 -0.02497259
0.10678784 -0.012435535 -0.008556857 0.011715538 -0.030796178 -0.054496787 -0.082646035 -0.109809704
0.06938546 -0.03598163 -0.13426642 -0.03872433 -0.09402432 0.13634618 -0.04336572 -0.00372844
-0.057879284 -0.041805487 0.042153265 -0.0684719 0.010736189 0.076551415 -0.14901844 -0.08129103
0.1060088 -0.019116651 -0.050738465 0.13778207 0.07716432 -0.0810385 0.056185115 0.10573884
-0.005207002 -0.02850628 -0.14128438 0.017890885 0.11505095 0.088750444 0.03893569 0.12305715
0.07333244 0.0010374808 -0.12715448 -0.0822887 0.07622876 -0.11195281 -0.056621604 -0.08524831
0.11359832 -0.12511009 0.049027156 -0.058940325 -0.09197958 -0.052265566 -0.077417366 0.09105717
-0.038241252 -0.08884517 -0.06916254 0.03587911 -0.13519652 0.12610215 0.008718439 -0.02471568
-0.06103256 0.12509282 -0.097412795 0.15622912 -0.039173614 0.16423053 -0.043857288 0.062507406
0.1234262 0.009031594 0.0909313 -0.13152571 -0.05389385 -0.10519683 -0.039493162 -0.024721269
0.020664047 0.124763876 0.043611344 0.0059502795 0.053499937 -0.14951923 0.045927368 0.08291509
-0.13171953 0.10827042 0.13061418 0.0046313275 -0.14170186 0.07514947 -0.0043004826 -0.041055355
-0.13625968 -0.14143535 -0.14134203 0.09705826 0.059076168 0.048585676 -0.11546444 -0.10754622
0.067350276 0.02481373 -0.1346493 0.033054106 0.046171654 -0.10885923 0.114823446 -0.07457925
-0.12194451 0.078352235 0.047037225 0.0170574 -0.060522832 0.14266084 0.03026184 -0.06393477
0.014464506 0.14496177 0.06352688 0.050046947 0.029926933 -0.14287509 -0.13395344 0.12418404
0.08437738 0.106636055 -0.12642173 0.022075897 0.11513676 -0.14819016 -0.015352244 0.00868252
-0.088779084 0.040684354 0.1213671 0.017368585 -0.11722302 -0.022329174 0.11318219 -0.0077649783
0.06870131 0.10211764 0.12553112 0.05888344 -0.14245436 0.069451295 0.013067338 -0.15054792
-0.044121042 0.06722619 -0.03877265 -0.11411899 0.05327344 -0.1065869 -0.06973779 0.044213846
0.03925891 0.10777431 -0.019811181 -0.099182986 0.0012427003 -0.12655623 0.11186151 -0.009985249
0.1616591 0.035006918 -0.049462322 0.0718313 -0.15896724 0.03063259 -0.11509938 0.0417256
0.07604149 -0.024117896 -0.02318908 -0.045676135 -0.09929016 0.01621115 -0.16970235 -0.16423686
0.09282292 0.11268284 -0.12612683 0.018504437 0.1262729 0.010972572 0.14467323 -0.0298055
0.06267559 0.16068593 0.08660651 -0.0007863931 0.097111404 -0.14960657 -0.05647796 -0.020941414
-0.045936864 0.048589926 -0.07088076 0.14190805 0.028816653 0.056178633 -0.05100896 0.1099425
-0.14929411 0.16519414 -0.07062123 0.06468531 0.12115506 -0.026346395 0.0804489 -0.038828846
00000000: 672e 093d cce1 18bd bf08 bbbc 45d0 f9bd
00000010: 7c32 b2ba a642 033b c13a 0d3d 4fdc bdbd
00000020: fee9 16be f673 ffbd aff6 6b3d 1976 9fbd
00000030: 7ec0 f2bc 0b60 ab3d 059f ee3d fc66 96bd
00000040: 867c 0f3e 9fe4 d33a ca01 d3bd f43c 48bd
00000050: 3bf3 133e c463 9cbb 307f 413d ad8c 1b3d
00000060: 90ca 003e c4a4 d3bc 6e06 37bd 1f50 dfbd
00000070: 4d81 1bbe dcfe f53d a88b 0a3e c0f4 093e
00000080: 03e8 27bd 87f8 85bd 04fa a43c 8250 bfbd
00000090: 02da f2bb 0e6e 233d e8fc fdbc 5193 ccbc
000000a0: 95b3 da3d 6abe 4bbc 0f32 0cbc 87f2 3f3c
000000b0: 4448 fcbc 0638 5fbd 5342 a9bd e9e3 e0bd
000000c0: f719 8e3d 7961 13bd 237d 09be 679d 1ebd
000000d0: d38f c0bd 559e 0b3e 41a0 31bd d858 74bb
000000e0: d412 6dbd 3b3c 2bbd e7a8 2c3d ff3a 8cbd
000000f0: d7e6 2f3c fdc6 9c3d 4a98 18be e97b a6bd
00000100: 241b d93d 869a 9cbc 23d3 4fbd be16 0d3e
00000110: 5408 9e3d 83f7 a5bd 5d22 663d 9b8d d83d
00000120: 809f aabb 0186 e9bc daac 10be e88f 923c
00000130: d59f eb3d cbc2 b53d 087b 1f3d 6305 fc3d
00000140: 512f 963d 14fc 873a c934 02be fa86 a8bd
00000150: d31d 9c3d 8447 e5bd 0eec 67bd aa96 aebd
00000160: 3ca6 e83d dc1c 00be b3d0 483d 696b 71bd
00000170: ca5f bcbd 6b14 56bd ff8c 9ebd 2e7c ba3d
00000180: dca2 1cbd 75f4 b5bd 17a5 8dbd f9f5 123d
00000190: f570 0abe ec20 013e c9d7 0e3c 8a78 cabc
000001a0: 47fd 79bd 5518 003e 5c80 c7bd 87fa 1f3e
000001b0: 8374 20bd 0c2c 283e b3a3 33bd e203 803d
000001c0: e0c6 fc3d 40f9 133c 303a ba3d adae 06be
000001d0: ccbf 5cbd 7071 d7bd 95c3 21bd 4284 cabc
000001e0: a647 a93c 3484 ff3d cfa1 323d 90fa c23b
000001f0: c022 5b3d 921b 19be 561e 3c3d 63cf a93d
00000200: 7ce1 06be e2bc dd3d b9bf 053e 64c2 973b
00000210: 4b1a 11be f7e7 993d 10eb 8cbb a929 28bd
00000220: a887 0bbe 6ed4 10be f7bb 10be 7bc6 c63d
00000230: daf9 713d c601 473d 9f78 ecbd 3141 dcbd
00000240: f1ee 893d 2a46 cb3c 82e1 09be be63 073d
00000250: 7d1e 3d3d 97f1 debd 8e28 eb3d 01bd 98bd
00000260: 0bbe f9bd 2377 a03d 1baa 403d f6bb 8b3c
00000270: cae6 77bd af15 123e aee7 f73c 3cf0 82bd
00000280: 89fc 6c3c dc70 143e 621a 823d 07fe 4c3d
00000290: 5429 f53c d94d 12be 172b 09be 3454 fe3d
000002a0: 0cce ac3d 0164 da3d b374 01be 83d8 b43c
000002b0: d2cc eb3d 29bf 17be fa87 7bbc 2141 0e3c
000002c0: cfd1 b5bd a3a4 263d 508f f83d 9048 8e3c
000002d0: 9f12 f0bd aceb b6bc 10cc e73d 5c71 febb
000002e0: 46b3 8c3d 0e23 d13d 3b8b 003e c32f 713d
000002f0: 8edf 11be 7b3c 8e3d 6318 563c 3c29 1abe
00000300: 44b8 34bd e2ad 893d 12d0 1ebd 38b7 e9bd
00000310: 4035 5a3d 3c4a dabd b0d2 8ebd 9419 353d
00000320: f3cd 203d c7b8 dc3d 0f4b a2bc 7320 cbbd
00000330: 1ae2 a23a f597 01be a617 e53d 2b99 23bc
00000340: f789 253e 6a63 0f3d 0199 4abd 4a1c 933d
00000350: 4fc8 22be 33f1 fa3c 39b9 ebbd 76e8 2a3d
00000360: a4bb 9b3d e592 c5bc 07f7 bdbc e616 3bbd
00000370: a458 cbbd 3fcd 843c 74c6 2dbe b52d 28be
00000380: f119 be3d 43c6 e63d 6427 01be 9e96 973c
00000390: af4d 013e 4dc6 333c 3825 143e aa2a f4bc
000003a0: 0f5c 803d da8a 243e c15e b13d f325 4eba
000003b0: 58e2 c63d 7732 19be 6f55 67bd 548d abbc
000003c0: 4b28 3cbd 3b06 473d ef29 91bd 5850 113e
000003d0: e710 ec3c 911b 663d c5ee 50bd 8929 e13d
000003e0: 8ee0 18be a728 293e dda1 90bd bb79 843d
000003f0: 2520 f83d 65d4 d7bc 65c2 a43d ff0a 1fbd

fc2.bias f4 [7]
0.13546623 -0.013074565 0.025565315 0.003015346 -0.06650729 -0.05245169 -0.03526362
00000000: a9b7 0a3e b336 56bc 5a6e d13c 1c9d 453b
00000010: f934 88bd 95d7 56bd 9670 10bd

localization.0.weight f4 [8, 1, 7, 7]
0.02963027 -0.040977877 0.08698392 0.021194132 0.058525123 -0.0065198396 0.097658835 -0.0029974075
0.14172803 0.08937007 -0.12553018 0.14982206 0.1022228 -0.051368453 0.0145163005 -0.04502184
0.0814443 0.07396651 -0.050034348 -0.07025781 -0.061229326 -0.09143278 0.10164898 0.017594934
0.06518529 -0.08981931 0.025983734 -0.061464548 -0.09316344 -0.096290074 -0.017053558 -0.13397805
-0.09307565 -0.0349397 -0.10294881 0.109412774 0.05304369 -0.033439953 -0.07909341 -0.033701602
0.14781868 -0.07647053 0.08369611 -0.017594602 -0.025262292 -0.023108 -0.040058542 0.13400766
-0.05278254 0.13927367 0.13989916 0.09373992 0.11189544 0.09868097 0.03255915 -0.10508515
-0.042849135 -0.106183134 -0.00081124145 0.09967701 0.039399404 0.13508765 -0.0030490735 -0.061803117
-0.09657899 -0.04699878 0.035942007 -0.048455123 -0.13942175 -0.08748255 0.04878772 0.05855384
-0.022435289 -0.09463063 0.11923734 0.1003032 0.024254004 -0.085032694 0.10192452 -0.061875425
0.03696988 -0.115196034 0.14360419 -0.1222916 0.10464149 0.07916725 -0.0545524 -0.07223339
-0.036237523 -0.029981446 -0.068411395 -0.006441881 -0.14066578 0.04677338 -0.04704355 0.049991656
-0.09176701 0.117978886 -0.07105277 0.13483046 0.07708098 -0.068746656 0.114946604 -0.074073665
0.12547626 0.12282754 -0.045182254 0.023781858 0.07322963 -0.011835354 -0.089895576 -0.08510619
-0.08933716 0.046323624 0.07264406 0.12711465 -0.016122784 0.068421125 -0.11489646 -0.047592226
0.07529135 0.059941266 -0.017396457 -0.11019232 -0.10318904 -0.052408196 0.06665994 -0.13239236
0.026935887 0.03553685 -0.014479768 0.040974747 -0.118524924 0.13136494 -0.058141124 0.08032082
0.028849391 -0.13184127 0.009049083 -0.13979107 0.016046317 0.1084488 -0.10981805 0.09048713
0.01517268 0.039081495 0.08516959 0.13139178 -0.11905171 0.09954534 0.02238055 0.0122612035
0.004907505 -0.12760921 0.13392612 -0.1424765 0.039322373 -0.018584056 0.03561875 -0.14151143
0.044437945 0.013760622 0.038985778 -0.047275074 0.12223498 0.03526814 -0.045633093 0.04958223
-0.090601236 -0.094512165 0.06062196 0.111632034 -0.11249925 0.03652655 -0.025230633 0.124561474
-0.01583813 0.023266084 -0.022046503 -0.022542825 -0.012887998 -0.040685754 -0.051651422 -0.017937621
-0.057006896 0.09475075 0.09141866 0.04240326 0.0027636269 0.11528986 -0.13017379 -0.053857855
0.11651978 0.09452314 -0.09440708 0.09169746 -0.04985501 -0.0650005 -0.13551353 -0.11338441
-0.06634028 0.09098272 0.05035202 -0.12703894 0.12331303 0.0637882 0.105813436 0.08126335
-0.027186463 -0.1537176 -0.009656722 -0.026522644 -0.040100813 -0.15859398 0.037597194 -0.046832215
0.083180256 -0.073199004 0.0014085437 0.12184557 -0.028472394 0.08654139 -0.0050612083 -0.053394068
-0.009350059 0.08053367 -0.053841267 0.020563712 -0.12942912 0.063280284 0.1108308 -0.019378755
0.09149206 0.10307033 0.052309297 0.018419966 0.121661216 0.068918325 -0.016968885 -0.078525096
0.0076792855 -0.010223805 -0.0413797 -0.12241413 -0.01645496 0.10936389 -0.0637908 -0.039015166
-0.015262102 0.022845564 -0.04258399 0.10097892 -0.13733785 -0.10570965 0.13310525 -0.07111059
00000000: 2ebb f23c 6bd8 27bd a024 b23d 519f ad3c
00000010: 0ab8 6f3d 61a4 d5bb 5b01 c83d 2770 44bb
00000020: 2721 113e a807 b73d fc8a 00be f46a 193e
00000030: 305a d13d ba67 52bd c7d5 6d3c d268 38bd
00000040: 45cc a63d c17b 973d d1f0 4cbd 54e3 8fbd
00000050: 9acb 7abd 1c41 bbbd 572d d03d 4023 903c
00000060: de7f 853d 30f3 b7bd d7db d43c 40c2 7bbd
00000070: 79cc bebd bb33 c5bd e7b3 8bbc 8b31 09be
00000080: 729e bebd ee1c 0fbd d3d6 d2bd ce13 e03d
00000090: 5744 593d 55f8 08bd bafb a1bd b10a 0abd
000000a0: c85d 173e 959c 9cbd de68 ab3d 8e22 90bc
000000b0: def2 cebc fd4c bdbc 6d14 24bd 4e39 093e
000000c0: 8132 58bd c29d 0e3e ba41 0f3e b7fa bf3d
000000d0: 7029 e53d 4019 ca3d be5c 053d e236 d7bd
000000e0: 9382 2fbd 8b76 d9bd 7ea9 54ba 7623 cc3d
000000f0: 4561 213d 6b54 0a3e f7d2 47bb 4425 7dbd
00000100: 35cb c5bd cb81 40bd ed37 133d e178 46bd
00000110: 93c4 0ebe 0d2a b3bd a2d5 473d 27d6 6f3d
00000120: 36ca b7bc b4cd c1bd b532 f43d c46b cd3d
00000130: 55b0 c63c 9f25 aebd cebd d03d 1671 7dbd
00000140: bb6d 173d e6eb ebbd fa0c 133e 0574 fabd
00000150: 474e d63d 7022 a23d 5672 5fbd 19ef 93bd
00000160: cc6d 14bd a69b f5bc 461b 8cbd 6a16 d3bb
00000170: b10a 10be 7295 3f3d bdb0 40bd 0dc4 4c3d
00000180: 58f0 bbbd ea9e f13d 1d84 91bd ff10 0a3e
00000190: a2dc 9d3d 0ccb 8cbd 2069 eb3d efb3 97bd
000001a0: d97c 003e 018d fb3d 0711 39bd 2cd2 c23c
000001b0: 6bf9 953d 13e9 41bc 2c1b b8bd 274c aebd
000001c0: 67f6 b6bd d7bd 3d3d 69c6 943d 582a 023e
000001d0: ee13 84bc 6020 8c3d d64e ebbd 11f0 42bd
000001e0: 5a32 9a3d f984 753d 0483 8ebc 83ac e1bd
000001f0: c754 d3bd faa9 56bd 0285 883d dd91 07be
00000200: a6a8 dc3c 178f 113d 8d3c 6dbc 23d5 273d
00000210: 32bd f2bd 8884 063e 6325 6ebd 3e7f a43d
00000220: 8f55 ec3c 6601 07be 9b42 143c 6425 0fbe
00000230: 9173 833c 681a de3d 49e8 e0bd 5151 b93d
00000240: d596 783c eb13 203d 656d ae3d 918b 063e
00000250: 62d1 f3bd 6dde cb3d 6a57 b73c 37e3 483c
00000260: 23cf a03b fdab 02be ee23 093e 5ce5 11be
00000270: 7f10 213d 973d 98bc f7e4 113d 5fe8 10be
00000280: 9004 363d 3b74 613c 8daf 1f3d 82a3 41bd
00000290: 5556 fa3d 5375 103d c4e9 3abd bd16 4b3d
000002a0: 248d b9bd 988f c1bd bb4e 783d 569f e43d
000002b0: 0266 e6bd dd9c 153d 79b0 cebc 161a ff3d
000002c0: f7be 81bc 8498 be3c de9a b4bc bbab b8bc
000002d0: 2e28 53bc 1ba6 26bd 7190 53bd ebf1 92bc
000002e0: 1080 69bd ae0c c23d b539 bb3d 0aaf 2d3d
000002f0: f71d 353b 171d ec3d 474c 05be 0e9a 5cbd
00000300: eca1 ee3d 5995 c13d 8058 c1bd e1cb bb3d
00000310: c434 4cbd fb1e 85bd 0fc4 0abe 1636 e8bd
00000320: 6add 87bd 2655 ba3d eb3d 4e3d 7f16 02be
00000330: 8b8b fc3d 63a3 823d b7b4 d83d 666d a63d
00000340: 25b6 debc 2668 1dbe 3a37 1ebc 0446 d9bc
00000350: c040 24bd 7666 22be 84ff 193d 23d3 3fbd
00000360: 695a aa3d 5ce9 95bd e29e b83a 2c8a f93d
00000370: f03e e9bc 9d3c b13d 7ed8 a5bb bdb3 5abd
00000380: fd30 19bc d6ee a43d a988 5cbd 3b75 a83c
00000390: 1189 04be 1899 813d 42fb e23d 32c0 9ebc
000003a0: 3060 bb3d 8a16 d33d 4642 563d 78e5 963c
000003b0: 8429 f93d 0d25 8d3d 5502 8bbc c4d1 a0bd
000003c0: 84a2 fb3b bf81 27bc c37d 29bd 42b4 fabd
000003d0: 8dcc 86bc 2dfa df3d c0a4 82bd 5ece 1fbd
000003e0: e50d 7abc 9f26 bb3c 8d6c 2ebd 09ce ce3d
000003f0: 4ba2 0cbe 4d7e d8bd be4c 083e 6ea2 91bd

localization.0.bias f4 [8]
0.016407266 0.05390955 0.0822802 -0.13037544 0.056704447 0.05349183 -0.09254664 0.06483539
00000000: 8868 863c 43d0 5c3d 8682 a83d 2481 05be
00000010: ec42 683d 401a 5b3d 1889 bdbd 6bc8 843d

localization.3.weight f4 [10, 8, 5, 5]
0.031753078 -0.06751659 0.07550339 0.0052483776 -0.004353106 0.048742678 0.043570597 0.010658252
0.04267661 0.02798221 -0.059669454 -0.005409141 0.008984707 -0.03988586 0.024884399 0.004429683
0.047543447 0.07334476 0.0826822 0.031033525 -0.007576675 -0.014201706 -0.07524109 0.0026500453
-0.048159704 -0.030458365 0.05574102 -0.027725972 -0.0349549 -0.03711535 0.06280568 0.06613988
-0.01350852 0.0565959 0.019669725 -0.057513278 -0.01609776 -0.0591517 0.018773533 0.008407707
-0.019335512 0.035966266 -0.017767023 0.01312506 -0.046611875 0.026035283 0.022129206 0.08095202
-0.026908819 -0.03410501 0.06269272 -0.0022844719 0.05318345 0.05001099 0.024141327 -0.03906965
-0.022587093 -0.04117514 -0.021337237 -0.017321626 0.041820306 0.052059986 0.04930038 -0.03982602
-0.010327934 -0.0328056 0.03469632 -0.039876495 0.05284147 0.04148187 -0.014321056 -0.042659815
0.016445141 0.0061739455 -0.026756471 0.019879388 -0.0014702798 0.047472686 0.0065425215 0.019750401
0.02754712 0.010973852 -0.024964597 -0.050008353 0.0640623 0.05156888 0.011018547 -0.014551432
-0.010377893 0.064621545 0.028670246 -0.05930706 -0.062408257 0.0114337215 -0.016667992 -0.033481147
0.0028343098 0.01639684 0.06672139 0.04543029 0.019006455 -0.05829758 -0.041390702 -0.016549803
0.071904734 -0.005156454 -0.0003819549 -0.0050631496 -0.002619961 -0.051465727 -0.034830295 -0.012004601
-0.038685005 0.05565897 0.05320881 0.057348713 0.0417337 -0.012413835 -0.05395964 -0.03798754
0.02046881 -0.029783057 0.058303606 -0.05795225 0.0410998 0.029088456 -0.041978322 0.000110555986
0.007901942 0.002597931 0.06280605 0.05737758 -0.02916771 -0.058993887 -0.009003882 0.05233317
-0.027260927 -0.0077147037 0.0593175 0.07920538 0.004996817 -0.062831186 -0.0688484 0.038876433
-0.06954821 0.03967976 0.0806339 0.01056576 0.022279607 0.04417508 0.04731487 0.068328686
0.024664374 -0.058376588 -0.039023146 0.036460333 0.019832522 0.0077263773 -0.018390944 -0.071422435
-0.01652373 0.04350609 0.003914958 -0.00625105 0.06764674 0.014392771 0.012177188 0.035710964
0.0047134417 -0.05475064 0.029314088 0.019974941 0.020133987 0.0131183835 -0.004620085 -0.06874976
-0.046244506 -0.0033165505 0.049255665 -0.013473918 0.021392731 0.05738725 0.02352988 -0.039740924
-0.035243172 -0.08085064 -0.0010038599 -0.06001728 -0.03878929 -0.08725519 0.03621445 -0.051788274
0.034896605 0.027808107 -0.015556624 -0.074654505 -0.0148166185 -0.055996526 -0.0153717315 -0.010484304
-0.064479195 0.010347619 -0.025697108 0.05233507 0.024229458 0.03113657 0.0038220787 0.026677307
-0.024421081 0.050181612 0.047210544 -0.04213792 -0.00985735 -0.017316028 -0.008244499 0.068309
-0.028006723 0.050236374 0.05967016 -0.02642862 -0.008734298 0.0043189446 0.018457204 0.05488085
0.022681918 -0.016825398 -0.05314265 0.033725694 -0.020726357 -0.0329345 0.021301575 0.05815469
-0.02979546 -0.01901281 -0.060446206 0.057955973 -0.04058771 0.025836086 0.037989907 -0.018510213
-0.023023158 -0.04201558 -0.0036576162 -0.038301196 -0.021587048 -0.01806121 0.049306065 -0.06266346
-0.072119415 0.0152321365 0.029190248 0.012089066 0.030558905 -0.012664017 0.0037180993 -0.025127755
00000000: 840f 023d 2346 8abd 85a1 9a3d 95fa ab3b
00000010: 80a4 8ebb 67a6 473d 1577 323d f39f 2e3c
00000020: abcd 2e3d f33a e53c f567 74bd 2a3f b1bb
00000030: 9834 133c 5b5f 23bd 5eda cb3c e026 913b
00000040: ebbc 423d c735 963d 4955 a93d 053a fe3c
00000050: c245 f8bb 46ae 68bc 0018 9abd 62ac 2d3b
00000060: 1c43 45bd d283 f9bc b250 643d 9421 e3bc
00000070: df2c 0fbd 4406 18bd 44a0 803d 5874 873d
00000080: d752 5dbc 1ad1 673d 6722 a13c 0b93 6bbd
00000090: 73df 83bc 0e49 72bd f4ca 993c 7bc0 093c
000000a0: 8265 9ebc 5d51 133d 268c 91bc 7e0a 573c
000000b0: 18ec 3ebd f247 d53c 4f48 b53c 2cca a53d
000000c0: e26f dcbc b2b1 0bbd 0a65 803d 14b7 15bb
000000d0: e4d6 593d 53d8 4c3d 08c4 c53c 7f07 20bd
000000e0: 9108 b9bc 43a7 28bd 6ecb aebc 15e6 8dbc
000000f0: c54b 2b3d da3c 553d 32ef 493d 9c20 23bd
00000100: 7f36 29bc 2a5f 06bd ba1d 0e3d 8955 23bd
00000110: 4c70 583d e5e8 293d dda2 6abc 0fbc 2ebd
00000120: f6b7 863c cf4e ca3b 6330 dbbc 19da a23c
00000130: 67b6 c0ba b872 423d a662 d63b 98cb a13c
00000140: 7faa e13c accb 333c 8e82 ccbc 8fd5 4cbd
00000150: 1833 833d e439 533d 2387 343c 2169 6ebc
00000160: 0a08 2abc 4d58 843d dddd ea3c f6eb 72bd
00000170: cd9f 7fbd 8154 3b3c 508b 88bc 8723 09bd
00000180: d4bf 393b aa52 863c 39a5 883d 1d15 3a3d
00000190: 6db3 9b3c 71c9 6ebd 4c89 29bd 7493 87bc
000001a0: ca42 933d 79f7 a8bb 1e41 c8b9 c7e8 a5bb
000001b0: a7b3 2bbb bacd 52bd 36aa 0ebd f2ae 44bc
000001c0: 2b74 1ebd a9fa 633d 7bf1 593d 7ce6 6a3d
000001d0: f5f0 2a3d 6663 4bbc c904 5dbd d398 1bbd
000001e0: 35ae a73c 99fb f3bc c3cf 6e3d 575f 6dbd
000001f0: 4458 283d ea4a ee3c 76f1 2bbd 4bda e738
00000200: 2677 013c 0d42 2a3b 75a0 803d c104 6b3d
00000210: 1ff1 eebc 93a3 71bd 0585 13bc 4e5b 563d
00000220: 4f52 dfbc a0cb fcbb e8f6 723d 6e36 a23d
00000230: 57bc a33b a3ad 80bd 6400 8dbd e53c 1f3d
00000240: 4b6f 8ebd 3e87 223d 6323 a53d 021c 2d3c
00000250: b983 b63c eef0 343d 3dcd 413d e9ef 8b3d
00000260: f10c ca3c 4a1c 6fbd bcd6 1fbd 6e57 153d
00000270: d077 a23c 8d2d fd3b 9ba8 96bc ed45 92bd
00000280: c65c 87bc 7133 323d 0c49 803b 9cd5 ccbb
00000290: 608a 8a3d a8cf 6b3c d482 473c a945 123d
000002a0: 3773 9a3b 3542 60bd 1924 f03c 7da2 a33c
000002b0: 08f0 a43c 7dee 563c 1564 97bb adcc 8cbd
000002c0: e16a 3dbd 7c5a 59bb 4fc0 493d b5c1 5cbc
000002d0: cf3f af3c e50e 6b3d bcc1 c03c 61c7 22bd
000002e0: 255b 10bd 0595 a5bd f393 83ba aed4 75bd
000002f0: 85e1 1ebd d9b2 b2bd 9a55 143d f11f 54bd
00000300: beef 0e3d d4cd e33c 36e1 7ebc 76e4 98bd
00000310: 67c1 72bc 9d5c 65bd b7d9 7bbc 5cc6 2bbc
00000320: ab0d 84bd 0f89 293c be82 d2bc 4c5d 563d
00000330: db7c c63c 1f12 ff3c d77b 7a3b 5e8a da3c
00000340: b80e c8bc 3c8b 4d3d d85f 413d d098 2cbd
00000350: b980 21bc 58da 8dbc ef13 07bc 97e5 8b3d
00000360: 5b6e e5bc a8c4 4d3d b368 743d d580 d8bc
00000370: 4d1a 0fbc ef85 8d3b 9033 973c beca 603d
00000380: 6ecf b93c 6bd5 89bc 1bac 59bd f423 0a3d
00000390: 52ca a9bc 54e6 06bd a480 ae3c 9d33 6e3d
000003a0: 9c15 f4bc c1c0 9bbc 7196 77bd 3e63 6d3d
000003b0: 4c3f 26bd 33a6 d33c 4e9b 1b3d bba2 97bc
000003c0: 109b bcbc 8718 2cbd 9eb4 6fbb b7e1 1cbd
000003d0: 52d7 b0bc 1af5 93bc 28f5 493d b355 80bd
000003e0: 58b3 93bd 3690 793c 6320 ef3c 3811 463c
000003f0: ab56 fa3c bd7c 4fbc 5bab 733b b9d8 cdbc
