deep_emotion-45-128-0.005.pt (torch, 274522 bytes, 24 tensors)

conv1.weight f4 [10, 1, 3, 3]
00000000: 57fc 0dbe 2cae dc3d 06d8 4e3e 97a8 1dbe
00000010: 93a9 3fbe 75f0 64be f9f3 1b3d 3ee5 103c
00000020: 7fa5 a33d b81d 413e ed24 5f3e 71aa ccbc
00000030: a5e8 85be 3c2e 66be 0cb8 2ebe 1d74 243e
00000040: 7636 973d 0ff5 bfbe a61f 983e b373 923d
00000050: e3a7 933c 64e7 b7bd 48ee 2a3e 963f afbe
00000060: 9234 86bd 8ad6 683e feb8 97be a8c7 433d
00000070: 2b21 84bc 6e79 b93e 79a2 e6bc 8bf7 90be
00000080: 10fd bbbd 2c1f 7cbe 2944 7dbe 2a35 b33d
00000090: 8aa1 cc3d f140 68be 5af5 e13d 9e4e 8dbe
000000a0: 9ad9 ff3c ceb6 a13e 673d 2cbe df25 28be
000000b0: 471d 0b3e 4e4e 82be da91 f83d 7497 8c3e
000000c0: 1664 2b3e cce3 95be d128 b4bd c023 743e
000000d0: cd0f fa3d 631d 8cbe 88ec 9dbe a085 973e
000000e0: f2f6 0c3e e0e9 bfbd d8d8 21be dc43 eebd
000000f0: b3f3 193e fb3b 993d 3bf2 66be 0fcf 37be
00000100: bff5 803e a641 c5be a917 34be 545f 2fba
00000110: 38cb 783d 1b95 d43d f0fc 863e 841b 63bc
00000120: 9d9f 8dbe a11f f43d 670a 83be 7247 273e
00000130: 1919 8a3e a721 933e dd4d 18be 1298 37be
00000140: 33c1 bfbd dd9d 86be b959 9e3e f95e cabd
00000150: 1fd8 39bd cc12 aebe d5b6 4b3e ae50 8d3e
00000160: df4c 723e 500d 94be
-0.13865791 0.10775408 0.20199594 -0.15396343 -0.18717031 -0.22357352 0.038074467 0.008843718
0.0799055 0.18858993 0.2179143 -0.024983617 -0.26154056 -0.22478575 -0.17062396 0.16059919
0.073834345 -0.37491652 0.29711646 0.07150974 0.01802439 -0.08979681 0.1669246 -0.342282
-0.06552996 0.2273809 -0.29633325 0.04779783 -0.016129097 0.36225456 -0.028153645 -0.2831386
-0.09179127 -0.24621266 -0.24733032 0.087503746 0.09991749 -0.22681023 0.11033125 -0.27599043
0.03123169 0.3158478 -0.16820298 -0.16420697 0.13585387 -0.25450367 0.12137194 0.274593
0.16737399 -0.29275358 -0.087968476 0.23841763 0.12210045 -0.2736617 -0.30844522 0.29594135
0.13766077 -0.0937078 -0.15805376 -0.11634037 0.1503437 0.074821435 -0.22553341 -0.1795008
0.2518749 -0.38526648 -0.1758715 -0.0006689925 0.06074068 0.10380002 0.2636485 -0.013861541
-0.27660838 0.11920095 -0.25593874 0.16335848 0.26972273 0.28736612 -0.14873452 -0.17929104
-0.09363022 -0.26292315 0.30927828 -0.09881396 -0.045372125 -0.33998716 0.19893964 0.27600616
0.23662136 -0.28916407

conv1.bias f4 [10]
00000000: 27e2 e0be d4fd 34be 1e4d 8abe a21a b5be
00000010: 0564 bb3d c4fe 5e3e a0a3 60be bbd2 86be
00000020: d322 3ebe d546 373e
-0.4392254 -0.17674953 -0.2701196 -0.35371882 0.091499366 0.21776873 -0.21937418 -0.2633265
-0.18567972 0.17898114

conv2.weight f4 [10, 10, 3, 3]
00000000: c8f6 f4bd a162 c4bd c5eb edbd 9f77 26bc
00000010: 339d 3ebd 3d69 a3bd 01e5 fb3c 3f18 0bbb
00000020: 81b9 a6ba 7006 d8bd 30b5 a7bd d18c ff3c
00000030: 2d33 05bd d943 683c ed6f 2dbd bd49 fa3b
00000040: f7d8 95bd 7618 863b a8b4 b5bc 2f86 b7bd
00000050: 05e1 d6bd 71c9 dabd 5d97 e4bd 2d60 773d
00000060: aa12 acbd 9484 d83d b9f7 3dbc f527 bbbc
00000070: b9ea 083c 3179 ebbd a15f f2bd 712b 62bc
00000080: 9224 33bd f7ee a3bd be82 0ebe bd90 06bd
00000090: c4d8 0dbc 5bd2 633d ec68 9fbc 4c0d 04be
000000a0: be58 c7bd 177c 71bd 4c01 063e d743 e93b
000000b0: 1b92 e8bd 6e16 423d eb1a 03bd 31a3 a4bd
000000c0: 03fa 213c 42e0 e23d 03f4 f23d ee80 22be
000000d0: 85c0 c6bc ba07 2ebe 6abe 343c 5e19 aabc
000000e0: 87fe 41bb 0729 b93d f8e8 043e d071 223e
000000f0: d03c bc3c 2b37 e3bd 687f 51bc 1131 bf3d
00000100: 1547 89ba b6a7 893b 912f d8bd ba02 583c
00000110: b339 abbd f516 71bc 8b40 4d3d 9231 5b3d
00000120: 603b 913d c18e bc3d cf23 91bc 031e 023d
00000130: cf09 36bd b14a bc3b 32da fc3d 96ef a23d
00000140: 52fb b23d 5c39 663c cd58 89bd 9b58 133d
00000150: 9155 e5bd 1619 053e d7bf de3d 5baa 38be
00000160: e102 dabd 29de 1abe b72e 4f3d ec47 4bbd
00000170: 4cdd a63a 3397 83bd 7814 273d ea2c 0b3e
00000180: d813 e2bd 5cf6 c7bd 10a6 c33d cb48 153c
00000190: 6cd1 323e 66c7 883c 607f eb3d 0602 d9bc
000001a0: 5315 5b3d 6d23 ca3d a742 b1bd 7b5a c0bd
000001b0: 1634 dabd a350 573c a285 c13c b799 c5bd
000001c0: d630 11be c3c4 20be adbe 5cbe ea95 c6bd
000001d0: dd87 cebc e6b5 a53d 97f6 063d f5f5 7dbc
000001e0: 2b38 9c3b 7864 853d 081b 153e b016 7dbd
000001f0: 4d7b 33bd bbcb 1b3c d671 38be 790f 2bbd
00000200: d090 34bd 980b e1bd 809f e83d 10c1 2f3b
00000210: 8ca9 f1bc bd0c 1c3e a3f9 1a3e fc2c 94bd
00000220: bd84 083d a62d 3d3d 04b4 a8bd 9aad 51bd
00000230: 410b b63d 968a 803d 489b 33bd 1fe3 97bd
00000240: 4869 c2bd d53a 413d 09bf eebc 0611 39bb
00000250: 7936 7c3c 9e69 4d3e 02a9 85bc 2141 363c
00000260: 44cf 8ebd e049 7bbd 54a2 f83d e11e 693d
00000270: 4a09 be3d 7b8f 6f3d a9c1 54bd 9078 c73d
00000280: 3e72 72bd a2f8 e2bc c8a0 fc3a fece bd3c
00000290: a1d0 a83c 1abb e7bc e654 9cbd 6074 a5bd
000002a0: e170 1fbe f06f 6ebd 3a94 3f3d 9c10 06be
000002b0: e3da 13bd c018 c93d 0274 a8bd 201e 95bd
000002c0: 4b41 a63c a81c a53d 310e cc3c aefe 63bd
000002d0: 68fd 8b3c c674 cd3c 3298 8d3d 3e23 cdbd
000002e0: d8d3 b2bd aa64 38bd ad8d de3c 8ed2 ae3d
000002f0: b69c 883d cb72 abbd eda5 7c3d c9c5 f3bd
00000300: b71e c13c de3b a7bd 5a73 f53b 3437 aabd
00000310: dbcc bc3c 5ffb dbbc e97f 473d 596f de3b
00000320: cb28 ffbc e115 dabb 3e19 473a d476 763c
00000330: 9f96 5e3d bd6f 8d3b bd90 7c3c e6d4 a63c
00000340: 373c 9b3d 41e0 da3c 7a7a 15bd 699d 4a3d
00000350: 7205 553d b2a4 d43d dc9c ac3d 0deb 8fbc
00000360: c7c1 afbd 478d 813c 4342 0fbd a5d1 9abd
00000370: 5f04 f4bd 2bf5 debd aa17 9fbd f33a 1cbd
00000380: a0b2 11be dc61 33bd 155f bb3d d36e 7f3d
00000390: 92ed 8a3d f835 64bd 96a5 85bd fe5d a2bd
000003a0: 8650 543d 8b3d 9e3d d2eb c4bd 1aa1 02bd
000003b0: 7a6e 5d3d 2e65 80bd fb88 d7bc 58e6 c8bd
000003c0: 9c5c 003d fb5e ca3d ce5f 1abd 5677 b7bd
000003d0: 8020 f6bd 7315 a93d f808 e7bd 95af edbc
000003e0: 8f40 92ba 18d5 55bd 8789 75bb cc01 f1bc
000003f0: d93b 163d 509f ed3c 1a5e 12be d025 3ebd
-0.11961132 -0.095891245 -0.11617235 -0.010160356 -0.046536636 -0.07979057 0.030748846 -0.0021224169
-0.0012720079 -0.10548103 -0.08188856 0.031195076 -0.03251951 0.014176332 -0.04234307 0.007638185
-0.073167734 0.0040922714 -0.02218087 -0.0896114 -0.10492138 -0.10682953 -0.11161683 0.060394455
-0.084019974 0.10572162 -0.011594706 -0.022846201 0.0083567435 -0.11497725 -0.11834646 -0.013804303
-0.043736048 -0.08004563 -0.13917062 -0.032852877 -0.008657638 0.055620532 -0.01945921 -0.12895697
-0.09733723 -0.058956232 0.13086432 0.007118683 -0.113559924 0.047384672 -0.032008093 -0.08038939
0.009886268 0.1107793 0.11862948 -0.15869495 -0.024261722 -0.16995135 0.011031726 -0.02076405
-0.0029601173 0.090410285 0.12979496 0.15863729 0.022978216 -0.11094507 -0.012786724 0.093355305
-0.0010473455 0.004200901 -0.105559476 0.013184244 -0.08360615 -0.014714946 0.05011038 0.05351407
0.07091403 0.09206916 -0.01771727 0.031766903 -0.044442948 0.0057462086 0.12346305 0.07955854
0.08739342 0.0140517615 -0.067063905 0.035973173 -0.11197961 0.12997851 0.10876434 -0.18033735
-0.1064508 -0.1512381 0.05058166 -0.049629137 0.0012730747 -0.06425323 0.040791005 0.13591352
-0.11038941 -0.09763786 0.09553158 0.0091115935 0.174627 0.016696643 0.11498904 -0.026490223
0.053487133 0.09870038 -0.08655291 -0.09392258 -0.10654466 0.013141784 0.023623291 -0.096484594
-0.14178786 -0.15700059 -0.21557112 -0.096965626 -0.025211269 0.08091335 0.03295001 -0.015500535
0.004767438 0.065133035 0.14561093 -0.061789215 -0.04381876 0.009509022 -0.18012175 -0.041762803
-0.044083416 -0.109885395 0.11358547 0.0026817955 -0.029499792 0.15239234 0.15134291 -0.072351426
0.033329714 0.046186112 -0.0823746 -0.05119095 0.08888865 0.06276433 -0.04384926 -0.07416367
-0.09492737 0.047175247 -0.029143827 -0.0028238907 0.015393847 0.20059821 -0.01631594 0.011123926
-0.069731265 -0.06134975 0.12140337 0.056914214 0.092791155 0.058486443 -0.0519425 0.09739792
-0.05919098 -0.027706448 0.0019273991 0.02316999 0.020607295 -0.02828746 -0.076333806 -0.080788374
-0.15570404 -0.05821222 0.04677222 -0.13092273 -0.03609742 0.09819174 -0.08225252 -0.072811365
0.020294806 0.08062106 0.02490911 -0.055662803 0.017088607 0.025080096 0.069137946 -0.100164875
-0.08731812 -0.045017876 0.027167166 0.08536254 0.06670515 -0.083715044 0.061681677 -0.11902959
0.023574216 -0.08165716 0.0074905576 -0.083113104 0.023046901 -0.026853262 0.04870597 0.006788176
-0.031147381 -0.00665544 0.0007595009 0.015042979 0.054342862 0.0043162988 0.015415368 0.02036519
0.075798444 0.02671826 -0.036493756 0.049466524 0.052007146 0.10382976 0.08428356 -0.017568136
-0.08581882 0.015814437 -0.0349753 -0.07559518 -0.11914896 -0.10886606 -0.077681854 -0.038142156
-0.14228296 -0.043794498 0.09148995 0.06236155 0.06783594 -0.05571553 -0.06525724 -0.07928084
0.051834606 0.07726582 -0.09615292 -0.03189192 0.054060437 -0.062692985 -0.026310435 -0.098095596
0.03133832 0.09881397 -0.037689023 -0.089583084 -0.12017918 0.08256044 -0.112810075 -0.029014388
-0.0011158156 -0.052205175 -0.0037466006 -0.029419802 0.03667817 0.02900663 -0.1429371 -0.04642278

conv2.bias f4 [10]
00000000: 04fa 313d 0cec ef3d aaeb d2bd 9f23 933c
00000010: 0b3c 8cbd ea83 d43c 0368 7b3e 3f42 c63c
00000020: 20cf 633e c75e d0bb
0.043451324 0.11714944 -0.102988556 0.017961321 -0.0684739 0.025941808 0.24551396 0.02420151
0.2224698 -0.0063589546

conv3.weight f4 [10, 10, 3, 3]
00000000: 8591 bfbc b4f8 73bd 2a5e d1bd db9b a5bd
00000010: 4a9a 733c c62c 44bd e999 f6bd d86d 08be
00000020: bb12 9a3d 8c9c 72bd 8041 4e3d 4ae3 5cbd
00000030: 5b40 463d 761c b5bd c2c7 2e3d 2493 05be
00000040: 6f6c 8f3c 726f e8bd 155b 033e e6b5 1c3d
00000050: db4b 52bd 9a3c 8ebd 82d9 ef3c 2c2a aebc
00000060: b49a f1bc aaa9 473d b385 973b f41b 15bd
00000070: 20cb 723d f4cb aabd d5bf 613b 669a 03bd
00000080: 84a1 babd 8f94 da3c f511 0abd 533e 003d
00000090: 46ec 353d 572c cc3c 5e9b 523c d171 b9bd
000000a0: 4963 673d 8f6b 933d d798 863d 9902 863d
000000b0: 5b6d 8cbc 5e79 42bd 9f2e ad3c 8b13 07be
000000c0: f402 81bd d651 6bbd 0638 f73c 2963 fcbd
000000d0: 2971 ed3c 53ed cbbd cecc 68bd 71e5 60bd
000000e0: 05f2 d0b9 1cf5 d1bd 96fd fabd 2a6a b8bb
000000f0: cd40 98bc 58a5 bdbd 2822 9dbd 7ebd 2bbc
00000100: d372 08be 0622 cbbd 8f3d c8bc ee6d 1abd
00000110: 03b6 e53c 2ed0 e7bc b18a d7bd 563e cfbd
00000120: 7d57 f5bd 96c7 f4bc dbf0 14bd 1108 1cbd
00000130: 9f6c 173d 2eed f1bc 5ddd 60bc 3393 643d
00000140: f44f 02be a1b4 f4bd 48a3 7c3d a400 94bd
00000150: db61 853c 5a85 a2bc 21f7 3cbd aacb 413c
00000160: 848f 94bc bb3c a83d 136d 453d ed25 10be
00000170: 65ec e9bb 0092 af3a 9fd4 823d 5837 50bd
00000180: b504 a83d 9f5c 10bd 6040 0dbd d1f3 cc3c
00000190: 8aaf 8e3c 2d74 17bd abf8 1c3d 8b21 9bbd
000001a0: 1287 0cbe 5dde 99bd 532e 553c 42e8 bdbd
000001b0: 0c62 acbd bb8a 74bd 63b1 c33d 0046 62ba
000001c0: 0d2c b9bd 4eee 96bd 6095 cabb 95b0 d53d
000001d0: fc3d 803c aa41 dabd 7b5e adbd d0ec 84bd
000001e0: 25aa 5a3c 519d a9bd 710d debd 816d 84bd
000001f0: 4a32 a0bc 5c1b 13bd 2016 ce3d c9ad 1ebc
00000200: 24e8 0e3d db90 b1bb 092d 70bd 07ed 06be
00000210: ea29 ea3c 1a2c a1bd 6bdd 53bc 8f28 76bd
00000220: 096e a1bb c9c3 06bd 645b b43d 2c5d f8bd
00000230: 8f2e 95bd 7225 35bd c416 10be 6af4 6bbd
00000240: f3cb 90bc 9efd 12be bee1 cebc e878 b13b
00000250: 2c23 fbbd b7b8 803d 9f77 0ebe ce03 a7bc
00000260: 5707 acbd 0a43 44bd 7e45 10bc d2b2 e2bd
00000270: b9ee 433d e01e 7bbd 89aa 83bd dc00 85bd
00000280: f15c a0bc e197 8ebd 45d3 053d 87d0 d4bd
00000290: e835 b7bd f6fd b7bc 5770 3dbd e32c 0cbd
000002a0: 8b29 7fbd 1c26 ffbd 69d9 c3bd 723a e2bd
000002b0: 4a76 5fbd 8d19 ecbd 17a0 73bd 1836 623c
000002c0: c3e9 52bd 90f4 85bc 1503 963d 5c52 0dbd
000002d0: f06f b7bc d522 a7bd 316e 39b9 f220 03bd
000002e0: e79c 90ba e08f 80bd 694e 9cbd 463c ffbb
000002f0: 3794 fdbd cad3 98bd 28d6 7b3d fc57 91bd
00000300: 047b ffbd 6418 6f3d 68c8 103d 1eba 0cbd
00000310: 9fd0 95bd 859f 48bd d465 b7bd 8e5f e63d
00000320: 8cd5 913d bcd2 23bd db60 8f3d 2459 d2bb
00000330: 195c f43b d7c5 f13c c36c 29bd 84d8 95bd
00000340: b0f2 d13b 9b61 3fbd 3b62 ca3c 6691 0cbd
00000350: e468 6bbd 2819 bdbd 1034 b9bd 69b6 c4bd
00000360: fd18 7a3d 78d5 633d 1d31 d1bd 0fa9 cc3c
00000370: 0e86 4ebc 50a4 87bd 7443 143d 09c2 63bd
00000380: 3184 77bd 7525 91bd 1dbb ecbb 67be 99bd
00000390: 6295 ddbc 71f9 0e3d 09ae aebc 2bf4 e9bd
000003a0: d770 e2bd 2e23 89bd 37d9 9dbd d19d 63bb
000003b0: 4a09 39bd 9953 03be c2d2 b53c e5f1 ac3c
000003c0: 0c06 2abd 9a44 8fbd 2f33 d8bd 5ac8 33bd
000003d0: 3f54 193d 712b 9cbd 09e7 7dbd c808 97bd
000003e0: 4b26 37bd c6e6 4e3d 091b 463d af2e 47bd
000003f0: 2878 003d d235 e2bb bba7 69bc ac15 933c
-0.023384819 -0.059563354 -0.102230385 -0.08086368 0.014868328 -0.04789426 -0.12041075 -0.13323152
0.07523104 -0.059231326 0.050355434 -0.053927697 0.048401218 -0.08843319 0.042670973 -0.13044411
0.01750776 -0.113493815 0.12827714 0.03825941 -0.051341873 -0.069451526 0.02927852 -0.021260343
-0.029492714 0.04874579 0.0046240925 -0.03640361 0.059275746 -0.08339682 0.0034446616 -0.032129668
-0.09112838 0.026682166 -0.03370853 0.031309437 0.04441478 0.024923487 0.012854425 -0.09054912
0.05649117 0.071982495 0.06572121 0.06543464 -0.017141989 -0.047479026 0.021140395 -0.13191049
-0.062993914 -0.05745109 0.030178081 -0.12323601 0.028984623 -0.099573754 -0.056835942 -0.054906312
-0.0003985317 -0.10251829 -0.12255399 -0.00562789 -0.018585587 -0.092600524 -0.076725304 -0.01048219
-0.13325052 -0.09918599 -0.024443416 -0.037702493 0.028040892 -0.02829751 -0.105245 -0.101193115
-0.11979578 -0.029880326 -0.03636251 -0.03809363 0.036968824 -0.029532041 -0.013724652 0.055804443
-0.12725812 -0.11948515 0.061679155 -0.07226685 0.016282013 -0.019838978 -0.046134118 0.011828342
-0.01813484 0.082147084 0.048199724 -0.14076968 -0.007138776 0.0013394952 0.063882105 -0.05083403
0.08204023 -0.03524458 -0.03448522 0.025018604 0.017417688 -0.03697603 0.038323086 -0.07574757
-0.137234 -0.075131156 0.013011533 -0.09272815 -0.084171385 -0.059702616 0.09555318 -0.00086316466
-0.09041605 -0.07369672 -0.0061823577 0.10434071 0.015654556 -0.10657056 -0.08465286 -0.06490481
0.01334623 -0.08281959 -0.108424075 -0.06466199 -0.01955523 -0.035914764 0.10062814 -0.009684988
0.034889355 -0.0054188794 -0.0586367 -0.13176356 0.02858444 -0.0786974 -0.012931208 -0.060097273
-0.0049264473 -0.03290156 0.08806494 -0.12127146 -0.07284271 -0.044225164 -0.14071184 -0.05760614
-0.017675376 -0.1435456 -0.025254127 0.0054160245 -0.12262568 0.062852316 -0.1391282 -0.020387556
-0.083998375 -0.047915496 -0.008805631 -0.110692635 0.047835086 -0.06130874 -0.064290114 -0.064943045
-0.019575568 -0.06962562 0.032672185 -0.10391336 -0.08945829 -0.022459965 -0.046249714 -0.034222495
-0.062295478 -0.12458441 -0.09562952 -0.11046304 -0.05455617 -0.11528311 -0.059478845 0.013806842
-0.051492464 -0.016351968 0.073248066 -0.034502372 -0.022392243 -0.081609406 -0.00017684024 -0.03201384
-0.0011033089 -0.06277442 -0.07632143 -0.0077891676 -0.12381785 -0.074622706 0.061483532 -0.0709686
-0.12474635 0.05837287 0.035347372 -0.034357183 -0.07315182 -0.048980255 -0.08954969 0.11248694
0.07120809 -0.039995894 0.070008956 -0.006419318 0.007457268 0.029513283 -0.04136349 -0.07316688
0.0064071044 -0.046723943 0.024705043 -0.03431835 -0.05747308 -0.09233314 -0.09043133 -0.096051045
0.061058987 0.0556235 -0.10214446 0.024982957 -0.012605203 -0.06623137 0.03619714 -0.05560497
-0.060428802 -0.070872225 -0.007224454 -0.075070195 -0.02704877 0.034905855 -0.02132322 -0.114235245
-0.11056679 -0.06696163 -0.07707446 -0.0034731517 -0.045174874 -0.12824859 0.022195224 0.021111438
-0.041509673 -0.069955066 -0.105566375 -0.043892242 0.03743386 -0.07625473 -0.06198791 -0.07374722
-0.044714253 0.05051305 0.048365626 -0.048628505 0.03136459 -0.0069033885 -0.0142611815 0.01795467

conv3.bias f4 [10]
00000000: 563b c4bd 935b a1bc d07c 0e3d b4fd c03d
00000010: f1f2 0c3e 55c7 84bd 3d9c c13c 8059 97bb
00000020: 8ecf 79bc 0a40 78bd
-0.0958163 -0.019696986 0.034787 0.0942339 0.1376455 -0.06483332 0.02363407 -0.0046188235
-0.015247239 -0.060607947

conv4.weight f4 [10, 10, 3, 3]
00000000: e6e6 763d 252b f8bd ab91 f3bd a936 1bbd
00000010: 4ef1 4f3d 1570 9b3d 3494 69bd daaf e8bb
00000020: a36e 043e 7ba8 083e 4742 123e 0245 2ebd
00000030: c0c2 ae3c 84b6 4fbd 3628 c73d 32a8 893d
00000040: 8b49 e33d e077 143d 055f d83c 32ab e8bc
00000050: c05f 62bd 42df 01bd efa3 c93b be9c 6c3d
00000060: 4337 38bd 8f25 8a3c 4ff2 acbc 03c9 d2bd
00000070: 8cd3 913d 3d0e d23d 3fbd cfbc 3f59 9a3d
00000080: a3fe ba3d a1f6 4ebc ed27 97bd 3d6c 19be
00000090: 41af 0abd 800d 043d a234 0ebe 245c 7a3d
000000a0: 8d24 913d 3b90 fcbc 3845 813d abf0 df3c
000000b0: dd4a d3bd 413e 02be 462f bcbd 171a 91bc
000000c0: a1aa aabd e601 42bb 8583 273d d3a5 5a3b
000000d0: 95ad 8dbd 3639 bfbd e928 bdbc a5ba a73d
000000e0: 25d9 b1bd 0da0 1f3c d9ce fabd d672 61bd
000000f0: 261c c7bd f84d 89bd 12ef ef3a f0c8 3bbd
00000100: 28f6 85bc 4405 f03c 502b cb3d 4412 9d3d
00000110: ea8c 05be 9c1b c53d d271 c83d 6cc3 debd
00000120: a4f0 e43c 9a14 f23d 029c aa3d c863 f3bc
00000130: 20fb c83d dcdd 343e b384 5cbc 2449 a43d
00000140: a266 183e 76e6 88bd 91e7 cdbc 5791 063c
00000150: 8e47 e1bd 1a09 5d3d e917 acbc fa51 4dbd
00000160: 23b2 f63d b5d8 a63c b49b 923d cf25 94bb
00000170: a0ad 3bbd a418 b3bc 5bf8 803b ed93 743d
00000180: c65d a8bd 877f aebd 5a15 52bd c402 153e
00000190: 265d 493d ac55 413c e844 60bc 884f 3c3d
000001a0: a1c6 03bd 7d8d 9e3d 8066 4f3d d495 a03c
000001b0: 49c9 e13d 8ae8 f1bd 146c 3ebd fddd 523d
000001c0: 439e c9bd 358a 623d f0fd c6bc 2135 fbbd
000001d0: 15f2 8dbd 8267 8e3c 1f50 893c 9ffc d53c
000001e0: cfb8 b33d f4e3 94bd 99dc ed3d e008 08bd
000001f0: 8d21 83bd 99e6 21be 95f5 103e 57f3 0c3d
00000200: 5f51 b7bd 0f69 c33d 948c 103c 475b 58bd
00000210: 5d89 063d 6f43 18be 47fb 24be ac2e 893d
00000220: 6695 8dbd 64e2 08bd cacc f9bc 9259 35bd
00000230: 8284 c83d 9fb6 273d 4173 fdbb 1f25 f73d
00000240: 433f 003c eaa3 9ebc 9eb5 05bc 22c2 1ebe
00000250: 0db0 26bc 5329 013d c080 843d b33b 963d
00000260: 4923 93bd 1208 a63d 9e23 9ebd 7eee 933c
00000270: 3412 c53d c3bd 0abe 3f04 fdbc b4fe c23b
00000280: af0d 0c3a 84ce 89bd 3f3f cb3b 4130 10bb
00000290: a36e b1bd 7786 5b3d f831 ea3d 030f 3dbd
000002a0: 8d14 c43c 64d3 94bd a641 1fbe 2932 04bd
000002b0: c1a3 c53d ccce 1a3d 9a65 a53c 3e50 54bc
000002c0: eced 703d 1035 2fbc ab9d 873d aac3 503d
000002d0: 3cba df3d 0861 d9bd 4d06 17bc b8ee bf3c
000002e0: a2e9 e6bd 63cc 703d db8f 0bbc 3692 9bbc
000002f0: da37 aebc f53d 003e 6330 23bd 9511 0bbd
00000300: f84c 8ebc 00ee 0d3e dc04 f33d 915f 863b
00000310: 6b15 de3d a599 373d d515 883c 0a98 733d
00000320: 947e 993b 872b 9b3d 226d c2bd 24b5 dbbc
00000330: e2d1 3cbd 015a 103d dd81 bbbd 7792 3d3d
00000340: a72c d2bd a4f0 ad3b e8ea 7dbc 01dc 0d3e
00000350: 12ef babc 0a65 efbd 8c0b 0d3e 4069 333e
00000360: d413 fcbc df78 7f3d 58cb 5d3d dce6 9ebd
00000370: 2b55 a2bd 7dc4 eebc c6e2 c6bd 7870 11be
00000380: 45a3 1cbd 811a 593d db72 553c 2504 0b3d
00000390: b43f e6bd 1ffd 1cbc 9026 8cbd 2d49 143d
000003a0: 967f ae3d 00c4 2ebd aaca 8a3a 307e ee3d
000003b0: 81fe 943d a848 3e3d 105a 2fbc 642b 72bd
000003c0: f9b3 01be 6ff9 8cbd ae5a 5d3d 0acd 75bd
000003d0: a2ed ccbc 902b 4b3d 7cdb cabd d8d6 3cbd
000003e0: 2aaf dc3c ada8 d3bd d9fd 03be 4b09 4c3d
000003f0: 828e 14bd f22f c5bd fdb4 793d 8ba3 073e
0.060278796 -0.12117604 -0.11893018 -0.037893925 0.050767235 0.07589737 -0.057026103 -0.0071010413
0.1293283 0.1334552 0.14283095 -0.04254628 0.021333098 -0.05071117 0.097244665 0.06721534
0.110980116 0.036247134 0.026412496 -0.028401945 -0.055267096 -0.031707056 0.0061535756 0.05776667
-0.044974577 0.016863612 -0.021111635 -0.10292246 0.071204275 0.10256622 -0.025358794 0.075365536
0.09130599 -0.012632043 -0.07380662 -0.14982696 -0.03385854 0.032239437 -0.13887265 0.06112303
0.0708705 -0.030830493 0.063120306 0.02733644 -0.103170134 -0.1271906 -0.09188704 -0.017712636
-0.08333326 -0.0029603182 0.04089691 0.0033363 -0.06917874 -0.09337084 -0.023090797 0.081898965
-0.08683995 0.009742749 -0.12246484 -0.055041157 -0.09722166 -0.067043245 0.0018305501 -0.045845926
-0.016352728 0.029299386 0.099203706 0.076694995 -0.13042036 0.09624407 0.097873345 -0.108771175
0.027946778 0.11820336 0.083305374 -0.029710665 0.09813523 0.17662758 -0.013459372 0.08021763
0.14882901 -0.06684582 -0.025134834 0.008213363 -0.10999976 0.053963758 -0.021007495 -0.050127007
0.12045696 0.020367006 0.07158604 -0.0045211087 -0.04581988 -0.021862336 0.0039358563 0.059711386
-0.08221011 -0.08520418 -0.051289894 0.14551836 0.0491611 0.011800211 -0.0136883035 0.045974284
-0.03217185 0.077418305 0.05063486 0.019602694 0.1102472 -0.118119314 -0.04648979 0.051481236
-0.09844639 0.055307586 -0.024291009 -0.12265993 -0.06930939 0.01738334 0.016761838 0.026121436
0.08775484 -0.07270041 0.11614341 -0.03321159 -0.06402884 -0.15810622 0.14156182 0.034411754
-0.08951067 0.09541523 0.008822579 -0.052821424 0.032845844 -0.14869474 -0.1611148 0.06698355
-0.06913261 -0.033419028 -0.030493159 -0.044274874 0.09790899 0.040945645 -0.0077346866 0.12067627
0.007827583 -0.01936527 -0.008160977 -0.15503743 -0.01017381 0.03153355 0.064698696 0.073356055
-0.071844645 0.08107008 -0.07721637 0.018058058 0.096226126 -0.13548951 -0.030885814 0.005950773
0.0005342615 -0.06728843 0.006202608 -0.0022001418 -0.086636804 0.053595033 0.11435312 -0.046156894
0.02393558 -0.07266882 -0.15552387 -0.0322744 0.09650374 0.037794873 0.020190049 -0.012958584
0.05882065 -0.010693803 0.0662187 0.05096785 0.10924193 -0.1061421 -0.009217811 0.02342926
-0.11275031 0.05878867 -0.008518185 -0.018990617 -0.021266866 0.12523635 -0.039841067 -0.033952314
-0.017370686 0.13860321 0.11866161 0.004100748 0.10843929 0.04482426 0.016611973 0.059471168
0.0046842787 0.075766616 -0.09493472 -0.026819773 -0.046098597 0.035242084 -0.09155629 0.046282258
-0.10262423 0.0053082276 -0.015497901 0.13853456 -0.022819076 -0.116891935 0.13773936 0.17520618
-0.030771174 0.06237113 0.054149 -0.07758877 -0.07926401 -0.029146427 -0.09711222 -0.1420306
-0.038241643 0.05300379 0.013027872 0.0339395 -0.11242619 -0.009581833 -0.06843293 0.0362026
0.08520429 -0.04266739 0.0010588963 0.11645162 0.07275105 0.04645601 -0.010702625 -0.05912341
-0.1266631 -0.06883513 0.054041557 -0.060009994 -0.025015656 0.04960209 -0.099051446 -0.04610333
0.026938993 -0.10334907 -0.12889804 0.04981355 -0.03626872 -0.096282855 0.06096362 0.1324598

conv4.bias f4 [10]
00000000: e1c5 dcbc d63c f5bc 3b5c 5abd 5541 94bd
00000010: 918a bdbd 58ba 953d 084a b2bd 779b 313c
00000020: ef6d ab3d 2f50 18be
-0.026949825 -0.029936235 -0.053310614 -0.072390236 -0.09254945 0.07310933 -0.087055266 0.010840288
0.083705775 -0.14874338

norm.weight f4 [10]
00000000: 1866 873f 0d2d 943f c23b 933f a27c 8a3f
00000010: a784 9f3f 1eb2 983f 5ed8 863f 4fc1 8d3f
00000020: 0d6f 7e3f 8963 843f
1.0578032 1.1576248 1.1502612 1.0819285 1.2462357 1.1929357 1.053478 1.1074618
0.993882 1.0342876

norm.bias f4 [10]
00000000: 1589 d3bd 3638 27bd cd1d 9fbd 511e cabd
00000010: 9a2e bfbc 71e3 cbbc 64fd 6ebd e919 c8bd
00000020: 2232 e0bd 9f7f 96bd
-0.10328881 -0.04082509 -0.07769356 -0.09869064 -0.023337651 -0.024888726 -0.05834712 -0.09770567
-0.10947062 -0.073485605

norm.running_mean f4 [10]
00000000: b9d2 c23c 2b10 2abe 42c1 9ebc e263 2ebd
00000010: 6706 4cbe d783 023e fefe 50be 0c3d 943d
00000020: f18f ad3e d248 8dbd
0.023782121 -0.1660773 -0.019379262 -0.042575724 -0.19924317 0.12745605 -0.20409772 0.07238206
0.3389888 -0.06898655

norm.running_var f4 [10]
00000000: 28d5 d53a 4d99 893a 04b4 f13a cc7c c83a
00000010: 46b1 913a 4f9a 293b 9dd1 693b 5864 c03a
00000020: cb6e b63a ca73 f33a
0.0016314136 0.0010497958 0.001844049 0.0015295981 0.0011115454 0.0025879329 0.0035677918 0.0014678342
0.0013918517 0.0018573937

fc1.weight f4 [50, 810]
00000000: 851b 503d 90c9 aa3c 5b22 6ebc 31dc 223d
00000010: d9b4 673d 8c8c 9d38 fc27 f53b 4a71 0ebd
00000020: 2653 893d 70ba a0bd 8203 813d 1b2c 9abc
00000030: db01 09bd bc77 703d 115f dd3c 01ad 85bd
00000040: 594e 963b 9e61 ff3c 94f1 c63d c404 ee3d
00000050: cfb4 eebc 0c35 11be 076e 3bbd 23f3 64bc
00000060: ed71 ff3c 4b65 e13b 7b17 c5bc 8988 693d
00000070: d0cb 023d e740 c7bd 9d76 82bd faa4 8e3b
00000080: b802 38bd 55d2 33bd 4eb0 5bbd 2430 1e3c
00000090: fcef ad3c 6611 0ebe 201f c2bd a3a2 493d
000000a0: 3f9b ac3d f521 23bd 1a76 32bd 7d33 1bbc
000000b0: 4dbd cdbc 0d37 cc3c 66e5 95bd af12 e73c
000000c0: c114 9e3d 7393 22bc f94d 8d3c 138d 48bd
000000d0: 8338 43bd 6460 4ebd 855f 233d 2736 9ebc
000000e0: 064a e8bd e3fc d03d 17c1 e73d 7c19 033d
000000f0: 266d a03c 1bf0 4d3d 5930 313d e174 f03b
00000100: e38f 993d 378d 56bd dc7d adbd d48d 5d3d
00000110: 3e2e 8b3d 041b c13b 5b22 16bd 2cf8 033d
00000120: 9715 823a b99a fa3d 8f68 02bb 268b a6bc
00000130: b6ac c63c 8c6b 583d 0662 27bd 0b3e 4f3c
00000140: 57be 9d3d e421 31bc 7a1b 0e3e a708 5c3d
00000150: fe93 f13d 0c54 a53d e045 153d 66f7 9b3d
00000160: aeaa 983d 6941 bb3d 60f4 e63d 8086 533b
00000170: d760 af3d 7097 a03d 1820 b23d 5559 083d
00000180: 53b4 953d 374c 953c 11c1 ea3d 17e6 ba3b
00000190: 9507 4a3d 945e 493d ae7f 193e 1d48 4c3d
000001a0: ccea 8d3d ce72 b73d 7931 8c3d 3fc0 1abd
000001b0: 17d2 5e3d eff3 773d 08ff a83d ade4 48bd
000001c0: 0ad4 343e b12a 7cbc 3f8c ad3c 39c4 45bb
000001d0: ba22 c5bd 9af3 813c d8ca 15bd 6d89 e6bd
000001e0: f970 3ebc 8aa5 013e dc9e baba 20a3 cbbd
000001f0: b7fa 85bd f13d 443d ea77 90bc 97be 0fbe
00000200: 92d4 a2bc 91f1 e43d efe0 023e b520 233d
00000210: 3708 98bd 1add debb 8804 83bd 0459 9c3d
00000220: 54aa 8dbd 0f38 b1bd c0bf 3ebc 8d3c eb3c
00000230: 4558 53bd bab3 943a 7e85 c73c c11b 973c
00000240: 2092 5f3d 9861 4e3d 682d 353d 0ae4 5fbd
00000250: e5a8 ed3d 92d5 233d 5b97 b33d e8fa 083e
00000260: a90a abbd 62d4 803d 50b3 fb3c ff95 f33d
00000270: 0ca4 efbc 5250 293d bd24 c8bd be50 3dbd
00000280: 0e64 8ebd f83b 083d caa1 ef3d 7092 25bd
00000290: 8823 81bd 5cbd 843d 347d 073d 8b8b a93d
000002a0: 0042 003d 6365 babc 43a3 623c ce61 053d
000002b0: 3e79 fa3b 9afe a23c 458b 913c f704 f63d
000002c0: 08b9 323e 3843 453d f38a bc3c 522c a93d
000002d0: 3e29 193d ee0d 52bc 9f6d c5bd 77d3 c2bd
000002e0: b56e c6bd 4ab4 8cbb efd4 a03c e7f6 633d
000002f0: 6af4 c63d 6223 bd3d d03e f6bd b1cd fbbd
00000300: 9b56 1cbd ba67 8d3d 991e 5d3c 2748 3ebd
00000310: 2d71 9cbd d167 2c3d f7c0 04bd 51f6 553d
00000320: 7c1b 4cbd cfb8 79bc 1cfc cfbc bae3 293d
00000330: 00db 6cbd ccf5 8fbd dd37 993d 02d4 503d
00000340: 2066 2dbd abb2 1abd b8af 023e f6c1 0ebc
00000350: 3329 ed3d c794 12bb 761f ddbd 15be dbbd
00000360: ac40 313d 3ad5 703d 2673 8dbd 6f10 ddbd
00000370: a1cd ad3d a8c5 053d 1209 eebc 2289 89bc
00000380: ac50 5d3d 4750 eb3d aab8 773c ef16 4e3d
00000390: bed1 073e 7cde 923d 78ae 383e bff0 2d3d
000003a0: a730 553d d437 b13d a9ac e13d 1476 d23c
000003b0: fa13 98bd ada2 653d edfb 9abc 4319 193c
000003c0: eaf2 083d 3aad db3d 8667 883d b704 0ebd
000003d0: a03d cfbc b1a7 8dbd 0a49 1ebd 0853 7cbd
000003e0: 2386 bebd 3dda 4dbe b8d5 55bd 2d1e 2f3d
000003f0: 0c96 7bbd 6e9a 2bbd af5f 9cbd 387d 82ba
0.050807495 0.020848066 -0.014534558 0.039760772 0.056568954 7.512522e-05 0.007481573 -0.03477601
0.067053124 -0.0784806 0.06299497 -0.01881986 -0.033449035 0.058707938 0.02702287 -0.065271385
0.0045869765 0.031174477 0.09714046 0.11622003 -0.02913895 -0.14180392 -0.045759227 -0.013973984
0.031182254 0.00687853 -0.024059048 0.057014976 0.031932652 -0.09729176 -0.0637028 0.004353163
-0.044924468 -0.04390176 -0.053634934 0.009655032 0.021232598 -0.13873824 -0.09478593 0.049227368
0.08428048 -0.039827306 -0.04356966 -0.009472725 -0.02511468 0.024928594 -0.07319145 0.028207151
0.07718802 -0.00992285 0.017249094 -0.048962664 -0.047661316 -0.050384894 0.039886016 -0.019312931
-0.11342244 0.10204484 0.11316126 0.032006726 0.019583296 0.05027781 0.043259 0.007338152
0.07498147 -0.052380767 -0.084712714 0.054090336 0.06795929 0.005893113 -0.036653858 0.032219097
0.0009924647 0.12236542 -0.0019898748 -0.020330023 0.024252277 0.05283694 -0.040864967 0.01264907
0.0770232 -0.010811303 0.13877669 0.05371919 0.117958054 0.08072671 0.03644359 0.07615547
0.074544296 0.09143335 0.112770796 0.0032276213 0.085633926 0.078413844 0.08697528 0.03328832
0.07309785 0.018224819 0.11462606 0.0057036984 0.049323637 0.049162462 0.14990112 0.04987346
0.069295496 0.08957444 0.06845374 -0.037780996 0.054399576 0.060535368 0.08251768 -0.049046207
0.17659011 -0.015391038 0.021185039 -0.0030176772 -0.09625764 0.015863229 -0.0365704 -0.11256681
-0.0116236145 0.12660804 -0.0014238018 -0.09943223 -0.06541961 0.047910634 -0.017635304 -0.14037548
-0.019876752 0.11178888 0.12781118 0.039826114 -0.07423442 -0.0068012597 -0.06397349 0.07634166
-0.06917253 -0.086532705 -0.011642396 0.028715396 -0.051597852 0.0011345067 0.024355646 0.018445851
0.054582715 0.05038604 0.044232756 -0.054660834 0.1160448 0.0399986 0.08769103 0.13376963
-0.08351643 0.06290509 0.030725151 0.11893844 -0.029253028 0.041336365 -0.09772632 -0.04621958
-0.06952678 0.033260316 0.11700781 -0.040422857 -0.06305605 0.0648143 0.033078387 0.08278569
0.031312943 -0.022753423 0.01383287 0.032563977 0.0076438477 0.019896794 0.017766604 0.12012666
0.17453396 0.048159808 0.023015475 0.082604066 0.037392847 -0.012820704 -0.09640049 -0.0951299
-0.096890844 -0.004293953 0.019632785 0.055655386 0.09714587 0.09235264 -0.12023699 -0.12295092
-0.03816853 0.0690455 0.013496065 -0.04645553 -0.07638774 0.042091195 -0.032410588 0.05223686
-0.0498309 -0.015241816 -0.02538877 0.041476943 -0.057826042 -0.07029304 0.07481358 0.050983436
-0.042333722 -0.037768047 0.12762344 -0.008713236 0.11580124 -0.002236651 -0.10797016 -0.10729615
0.043274567 0.0587971 -0.069067284 -0.1079415 0.08486486 0.032659203 -0.02905706 -0.016789023
0.054032013 0.11489921 0.015119711 0.05031484 0.13263604 0.07171342 0.18035305 0.04246592
0.05204835 0.086532265 0.110192604 0.02569107 -0.07425685 0.056063343 -0.018918956 0.009344402
0.033434786 0.107264 0.066603705 -0.034672465 -0.02529794 -0.0691675 -0.038643874 -0.061602622
-0.09302928 -0.20102783 -0.05220577 0.042753387 -0.061422393 -0.041895323 -0.07635438 -0.0009955531

fc1.bias f4 [50]
00000000: d9d2 ba3d 5e3d 1abd afbe 06bd 0f6c 1abd
00000010: 48a8 46bd 699f 8d3d 07df c2bc 2f81 82bd
00000020: 4a58 56bd 302d 68bd da18 73bd 8a5c 9bbc
00000030: 68e9 a0bb f53b 06bc 8732 153c fdbd 73bc
00000040: 57b5 b3bc dc4f 3abd 0ec1 13b9 3056 833d
00000050: bcc5 19bd 635b 4ebd 7d01 283c 2fac a6bc
00000060: 1fb8 01bd 5561 2abd 670f 29bd 1c72 dbb9
00000070: 9d01 00ba 39e0 0abc 99fd 2ebd cc1c 6fbd
00000080: de3d 98bc 7df2 c9bc b2a1 ebbb a9be 8fbb
00000090: 8e83 dc3a 24f3 9bbc 996e 30bd aea2 f9bc
000000a0: b941 7abd 1fd7 123b ae99 c6bc fc6e ffbc
000000b0: 136e 74bd 80a0 43ba 7f2d 3bbd 2fa9 2bbc
000000c0: e98d 53bd 169b 793a
0.09122247 -0.03765618 -0.032896694 -0.03770071 -0.04850033 0.06915171 -0.023787988 -0.06372296
-0.052330293 -0.05668372 -0.059349872 -0.018965025 -0.0049106367 -0.008193006 0.009106285 -0.01487684
-0.021937056 -0.045486316 -0.00014090931 0.06412923 -0.03754209 -0.050380122 0.010254261 -0.020345775
-0.031669732 -0.04159673 -0.041274454 -0.00041855953 -0.0004883053 -0.00847631 -0.04272232 -0.058377072
-0.018584188 -0.02465176 -0.0071909064 -0.004386742 0.0016823874 -0.019036837 -0.043074224 -0.03047308
-0.061097834 0.0022406054 -0.024243202 -0.031180851 -0.059675287 -0.0007462576 -0.045697685 -0.010477348
-0.051649008 0.0009521706

fc2.weight f4 [7, 50]
00000000: fafd 413e 1353 723d 9fd0 cf3c f753 d6bb
00000010: ac92 bb3d a6b9 303d af5d 0f3b 7e9f 15bc
00000020: 5cdc a43d 6c50 13be 8c7d fc3c f35b e13c
00000030: 6f27 c03d 7ffc 093d 5488 a23b a5a4 e03d
00000040: d70e 173d cc4f 3fbd 1bc0 a03d 6314 d73d
00000050: 78f1 5bbe 2bab 7f39 9f6b 8bbd 80b3 abbd
00000060: fc4e 61bd e36a 4ebd d96e 103d ee28 81bd
00000070: 1c00 e03d 62fc 4b3d ab2b 97bd 6706 c4bc
00000080: 70f8 88bc d983 86bd 73bc ec3d 51f8 c8bd
00000090: cbe6 f23d 5b8b 9e3c 02d1 fe3c 088b 16bd
000000a0: 5913 89bd f459 18bd 9e2e ea3d a79d 98bd
000000b0: c040 083d 80e9 a73d 9535 163d 0be9 c4bb
000000c0: d8da 7bbd eea7 bcbd 24f4 9a3c 1eb2 d6bc
000000d0: 854d ca3d 4417 07be 32c8 e3bd 793c 38bc
000000e0: 989d 9f3d 23c5 ecbd 7971 5bbe bbed dabd
000000f0: 1861 6a3d d801 c9bd 4632 1d3c 8d8b d03d
00000100: 51b7 953e 2354 473d c1b8 1ebd f719 133d
00000110: 8568 cfbd 3a9e 273e 2bd1 c43c ed8f d93d
00000120: b7ea 773a e2f4 803d 59e3 f7bc c5ff 4a3d
00000130: 9aec d7bc 99f1 a0bd 2e4f 933d 63fd eabd
00000140: 7601 7cbd 6161 a2bc 8c6b bcbc 9fbb c0bd
00000150: 79a8 be3d 2c31 a0bd b82b 47be 9d34 a9bc
00000160: 00c8 99bd d1c6 33bc 0ca3 4d3d e5dc b13d
00000170: 558b 2fbe 501f cebd e6bd cbbd ce52 8a3c
00000180: 1a1a e0bd 0064 80bc 74d9 4e3d c486 dfbd
00000190: 84cc 11be 041d 26be 216a 45bd 022f b9bc
000001a0: 7ce4 54bc 76f3 363e 6fcb 023e 8afb 883b
000001b0: a7e2 3d3e 59ef 73bb 2610 97bd 41f4 213e
000001c0: f7c2 103d 3c49 ec3b c077 c6bc 9ac7 7d3d
000001d0: 2aac cfbd 9705 843d 7b36 63bd 4d2e 453d
000001e0: c090 c43d 2a9d 573d 322a 273e 5dbb 60be
000001f0: 5ede c03d 1abb cfbc b6b7 01bd a14d 2cbe
00000200: c2c0 1d3e 6b28 f23d 9221 01bd c1c4 073d
00000210: dc1a 10be ff18 473d 1444 7fbd 595c 27be
00000220: 2a31 e73d c8f0 013e ed8d c63c 334f cb3d
00000230: b2bc e33d 75d9 fbbc b650 afbd 3602 44bd
00000240: 6c86 cbbc dfdf d5bd e4a3 07bd 1b74 f1bd
00000250: a5c3 bdbd 13aa 223e 85f6 be3d cff4 b53d
00000260: 42da 4ebc 1c7f 0b3d 8e87 71bd 0479 8abe
00000270: 69a9 953c 6fa7 6f3e 8686 6d3d 45b2 09be
00000280: 386f 8e3d 6e80 bf3d 52ee 9ebd 3789 a2bc
00000290: 3f4e bb3d 52f9 00be 2623 ab3d 0f45 04be
000002a0: 74d3 21bd 640a 31be c679 9a3d db36 1f3d
000002b0: 9d41 4abe 2479 b7bc 5ffd d8bd 486a abbd
000002c0: ee30 8ebd d886 09be 7dc1 83bb e495 933d
000002d0: 0e5b 82bd 4404 bd3d 51c6 99bd d6bf 343c
000002e0: 0219 8b3c 6e74 4dbb df57 81bd 93a4 8c3d
000002f0: 4c54 bdbd 6b89 10be 28a8 be3c 960f e43d
00000300: ee85 6e3d 18ff b1bd d150 343d aac7 a73d
00000310: 6b23 f93b 38d9 eebd 1bd2 de3d 90f1 16be
00000320: 1e43 6fbe 8c47 24bc 2303 ff3d b229 533e
00000330: 3457 1f3d 9d77 0fbe e3c8 d83d 0369 89bd
00000340: 622e 2f3d f12f 82bc 30c2 49bc c8d2 87bd
00000350: d935 013c 2715 ef3a 729d 813e 83bf 003e
00000360: b003 9dbd 3eac d5bd e77a c63d 68d6 c4bd
00000370: b62a d0bd e8bb 58bd 6d67 333e 1a89 0dbe
00000380: 9d4f 18bd ad63 7bbd ed58 4dbd 2926 91bd
00000390: aa24 a5bc 65bc 283e e0f1 a03d f6b8 94bd
000003a0: d6d9 a33c 3631 bd3c 87c9 afbc 3400 b83d
000003b0: dc0e 79bc c90c b33c ae9d 6ebc 9dc3 adbd
000003c0: dde3 8dbd a3e3 3b3d 9a65 c63c 6d25 283d
000003d0: 0bc5 b0bc cd8b 293c 908e 3a3c 4173 1abc
000003e0: ade5 9a3d ab98 b3bd 831f 283e 97f0 c83d
000003f0: 60e1 f0bd 18ba 52ba f9a2 dd3c 99c5 0fbe
0.1894454 0.059161257 0.025368033 -0.006540771 0.09158835 0.0431458 0.0021875908 -0.009132264
0.08049843 -0.14386147 0.030821584 0.027509665 0.09382521 0.033688065 0.0049600992 0.109689035
0.036879387 -0.04670696 0.07849141 0.10501935 -0.21478832 0.0002438246 -0.068076365 -0.08383846
-0.055006966 -0.050394904 0.035261963 -0.06306635 0.10937521 0.049801238 -0.07381376 -0.023928834
-0.016720027 -0.06568117 0.11559381 -0.098129876 0.118604265 0.01935356 0.031105522 -0.036753684
-0.066931434 -0.03719516 0.11434673 -0.07451945 0.033264875 0.081988335 0.036672194 -0.006009226
-0.061488003 -0.092117175 0.018915243 -0.02620798 0.09878067 -0.13192469 -0.111221686 -0.011244887
0.077937305 -0.11561038 -0.21430005 -0.10689875 0.057221502 -0.09814805 0.009594506 0.10182867
0.29241422 0.048664223 -0.038750414 0.035913434 -0.101273574 0.16368952 0.02402552 0.10623155
0.00094572775 0.06296708 -0.030259775 0.049560327 -0.026357938 -0.07858581 0.07192837 -0.11474111
-0.06152483 -0.019821825 -0.023000501 -0.09410786 0.09309477 -0.07821879 -0.19450271 -0.02065497
-0.0750885 -0.0109726945 0.05020432 0.086847104 -0.17142995 -0.10064566 -0.0994833 0.016885187
-0.109424785 -0.015672684 0.05050035 -0.109143764 -0.14238173 -0.16222006 -0.048196916 -0.022605423
-0.012993928 0.1786631 0.12772916 0.0041803764 0.18543492 -0.003722152 -0.07376127 0.15815832
0.035342183 0.0072108787 -0.024227023 0.061957933 -0.101402596 0.06446379 -0.05547188 0.04813986
0.09597921 0.052640118 0.1632469 -0.21946473 0.09417413 -0.025357772 -0.03166934 -0.16826488
0.15405563 0.11824115 -0.031526156 0.033146624 -0.14072746 0.048607823 -0.062320784 -0.16343822
0.11288674 0.12689507 0.024237597 0.099272154 0.11119975 -0.03074334 -0.08560316 -0.04785367
-0.02484437 -0.10443091 -0.033115283 -0.117897235 -0.09265832 0.1588519 0.093243636 0.08884584
-0.012625279 0.034056768 -0.058967166 -0.27045453 0.018269258 0.23403715 0.05798962 -0.1344691
0.06954807 0.09350668 -0.077603 -0.01984082 0.09145784 -0.12595108 0.083563134 -0.12916969
-0.039508298 -0.1728912 0.07542758 0.038870674 -0.19751592 -0.022396632 -0.10595202 -0.08369881
-0.06942926 -0.13430345 -0.0040208683 0.07206324 -0.063650236 0.09229329 -0.07508529 0.011032065
0.016979698 -0.0031349915 -0.06315588 0.068673275 -0.09244594 -0.14114921 0.023273543 0.11135785
0.058233194 -0.086912334 0.044022385 0.0819238 0.007603099 -0.11662525 0.10879918 -0.14740586
-0.23365447 -0.010026824 0.1245177 0.20621374 0.038901523 -0.14010473 0.10585191 -0.067094825
0.042768843 -0.015892 -0.012314364 -0.06632 0.007886373 0.0018240557 0.25315434 0.12573056
-0.07666719 -0.10433243 0.096914105 -0.09611207 -0.101643965 -0.052913576 0.17519923 -0.13821831
-0.0371853 -0.061374355 -0.050133634 -0.070873566 -0.020159084 0.16478117 0.07858634 -0.07261841
0.020001333 0.023094755 -0.0214584 0.08984414 -0.015201297 0.021856682 -0.014563961 -0.08484576
-0.06928227 0.04587139 0.02421837 0.041051317 -0.021578332 0.0103482725 0.011386529 -0.009426893
0.075633384 -0.087693535 0.16418271 0.09811514 -0.11761737 -0.00080385944 0.02705525 -0.14040221

fc2.bias f4 [7]
00000000: cc78 28bc b5ce 8a3e 9e02 d43c dd9c b63d
00000010: 9f68 07be 6e64 08bc c0ed 1cbe
-0.0102827065 0.2711083 0.025880154 0.08916638 -0.13223504 -0.008324726 -0.1532507

localization.0.weight f4 [8, 1, 7, 7]
00000000: 696d 46bd eea3 4c3c a997 41bd ab0c 223d
00000010: fb3f efbd 622a fcbd 96d9 d6bd 4f41 3ebb
00000020: 20ba 5cbd d629 00be 03f9 353d a30f d2bd
00000030: 39aa 6cbd 49aa bebd e245 48bd 6cc9 babd
00000040: db19 1cbe 5e1c cd3d 0fc2 89bd 8e62 e0bd
00000050: afe4 01bc a313 b53c ba79 c9bc 867c 89bd
00000060: 73d2 10be 0105 10bc d157 0cbd f7b6 a03d
00000070: 5e15 2a3d 545f 12bd 9a42 5e3d 203d 92bc
00000080: da5e e8bd 44bd f3bc e83d 9e3d 243b 3a3d
00000090: a514 23be 6b6a 2a3d 2316 b1bd 2acc b9bc
000000a0: aac6 783d f590 72bd e822 bd3d d36b b53d
000000b0: 1c80 453d 2166 c3bd 1c5e 9c3c 6e95 3abe
000000c0: 9b60 9bba 0f7e 99bd e5a9 de3c 3809 ca3d
000000d0: c390 bc3d 453a 1e3e 3e87 3f3c 5e3a b33d
000000e0: a3ed 873d 6084 083e b867 85bc bfe3 11bd
000000f0: ebb2 513d 06e5 b6bd e5a5 ab3d 06eb f83d
00000100: d95d f13d fc16 a73d 6d69 50bd 14db 1a3e
00000110: 1075 f53d 086f c53c 4947 d13c 5290 bebc
00000120: 553f 9c3d 06e4 213e 9780 113d 7306 233e
00000130: efd5 f8bc c720 7dbb b4f8 5ebc 1bb8 f8bc
00000140: c033 973d 9d81 ce3a ab47 de3d 5b66 fcbc
00000150: f0c2 4dbc 8c09 883c f850 1a3e 4484 84bd
00000160: 8c97 c23a d8ca d7bc 20f4 09bc 2b21 b2bd
00000170: 857c e63c 6d34 9d3b 16da 4d3e 555a bebb
00000180: 9088 b73d 9e96 153e 22b8 ebbc 09e8 82bd
00000190: 785f 953d 74a2 b8bd b8d8 a4bd a667 edbb
000001a0: 4666 9abd 7096 25bd 5bdc ebbc 5008 2e3e
000001b0: 3b28 983d bcf2 e1bd 258e 0f3e cc22 033e
000001c0: 7474 36bd 1100 0bbd 421f 95bd 00c1 7e3d
000001d0: 73c6 cf3d 2514 c8bd 7514 33bd f64c ac3c
000001e0: c7ea 08bd 878b ba3d a9e7 b33d ace6 083e
000001f0: 2088 98bd 22bd 453c 4228 6f3d 03ba 1d3e
00000200: 1023 64bd fb20 19bd 1382 afbd 7a7e b83d
00000210: 5a83 09bd 0006 bf3d b1bf 6bbc d7db fd3c
00000220: b371 4ebd bfe6 8fbd 522c 8e3d 9378 ddbd
00000230: e75a f0bc 9533 db3b 25f1 5d3d 6591 4abd
00000240: 20e6 b43d 5df3 453c 6349 9fbd 266c 0d3e
00000250: 0944 a83d e6b1 66bd 9ca8 283d 2353 8dbd
00000260: b941 cebd 752c a2bd 377a c0bd f44c c23d
00000270: e564 49bd f708 bfbd 0c51 103d b788 c3bd
00000280: 221f cabd 84a8 ea3d ac54 1e3d 8718 17bd
00000290: d362 6cbd 0199 b9bd 924c 273e 56a2 ec3d
000002a0: 54f4 f4bd 630e 4c3d 18b0 dd3a d036 47bd
000002b0: aae0 bcbd 6618 213c a4eb 8cbd cee5 7ebd
000002c0: 3d48 fc3d 9d91 39bd 09d5 61bd 1e56 533d
000002d0: 368b 8dbc 9cf8 7bbd a7e1 a6bd fc5f b93d
000002e0: 2a25 ddbc cab5 4f3d 01d3 dfbd 9418 fa3d
000002f0: b54e 85bc 4539 a43c 3136 cbbd 2e95 843d
00000300: 092b 04be b737 da3d 8df5 723d 1556 53bd
00000310: 4a2b 94bd 3b13 a1bd 1c2c aa3d 7a9b 23bc
00000320: 9fb7 1dbd 5521 56bd 0e5b 4b3d e21d 273d
00000330: d4bd f2bd 2d5a bebc 7c0e 7e3b 7a1e b53d
00000340: 6b9e 86bc 24b2 acbb a3ea 74bd 03b7 d63d
00000350: 04f5 95bd 3777 ae3d 8f6f bbbc 7b69 513d
00000360: ea91 0abe f4dc d9bd afc0 ff3c 8524 a1bd
00000370: c9d0 b3bd 24bb adbc 5c50 fb3d 8e12 babd
00000380: 39c4 a43c b9b1 0c3e 2504 dfbd 4624 ddbd
00000390: bdee acbc 6777 4ebd 4625 5b3c 9d50 94bd
000003a0: db19 c1bc 145d 003d 9364 babc 7612 143d
000003b0: 3e38 fb3d 2c5f 933d c4fa cbbc 26c2 7fbd
000003c0: 18ed c23d b1cc 133e 8f65 a6bd b53b 8bbd
000003d0: bd7d 28bd 12e7 b5bd c7b4 86bd beb7 013e
000003e0: ca2b 8b3d 4993 933d 4987 8a3d a893 1ebe
000003f0: 026c bbbd d960 923d 3eaf cabd 391e efbd
-0.048444185 0.012490256 -0.047263775 0.039562862 -0.11682125 -0.123127714 -0.1049072 -0.0029030626
-0.05388844 -0.12515959 0.04442693 -0.10256889 -0.057779524 -0.09309823 -0.04889477 -0.091204494
-0.15244238 0.10015176 -0.06726467 -0.10956298 -0.007928058 0.02210409 -0.024594177 -0.06713204
-0.1414278 -0.0087902555 -0.034263436 0.07847398 0.041524284 -0.035735443 0.054262735 -0.017851412
-0.113462165 -0.029753335 0.077266514 0.045466557 -0.15925844 0.041605394 -0.086468 -0.02268036
0.060736336 -0.059220273 0.092351735 0.088584565 0.048217878 -0.09540964 0.019087844 -0.18221065
-0.0011854352 -0.07494747 0.027180621 0.098650396 0.092072986 0.15451916 0.011689959 0.08751367
0.066371225 0.13331747 -0.016284809 -0.035617586 0.05119602 -0.089304015 0.08381251 0.12154202
0.11785478 0.08158681 -0.05088179 0.15122634 0.119852185 0.024100795 0.025546687 -0.023262177
0.07629267 0.1580964 0.035523023 0.15920429 -0.030375449 -0.0038624273 -0.0136091 -0.030361226
0.073829174 0.001575518 0.10853513 -0.030810526 -0.012558684 0.016606115 0.1506995 -0.0647054
0.001484619 -0.02634184 -0.00842002 -0.086977325 0.028135547 0.0047975094 0.20102724 -0.0058091083
0.08961594 0.14608237 -0.028774325 -0.063919134 0.072936 -0.090153605 -0.08049148 -0.007245022
-0.07539038 -0.04042667 -0.028791597 0.16995358 0.07429548 -0.11032626 0.14019068 0.12806243
-0.044544652 -0.03393561 -0.072813526 0.062195778 0.10145273 -0.09769467 -0.04372068 0.021032792
-0.033427026 0.09108644 0.0878442 0.13369244 -0.07447839 0.012069019 0.058388002 0.15402989
-0.0556975 -0.03738497 -0.085697316 0.090084985 -0.033572532 0.09327316 -0.0143889645 0.030988617
-0.0504014 -0.07026433 0.06942047 -0.10814013 -0.02934022 0.0066894987 0.05418505 -0.049455065
0.08832955 0.012081948 -0.07777669 0.13810787 0.08216102 -0.056322 0.041176423 -0.06900623
-0.10071129 -0.07918636 -0.09398311 0.09487334 -0.049168486 -0.09327882 0.035233542 -0.09547561
-0.09869219 0.11457923 0.03865497 -0.036888625 -0.057711434 -0.09062386 0.16337803 0.115544006
-0.119606644 0.049818408 0.0016913442 -0.048636258 -0.09222539 0.009832477 -0.068808824 -0.062230878
0.12318466 -0.045304883 -0.055134807 0.0515958 -0.017278295 -0.06151639 -0.081485085 0.09051511
-0.02699526 0.050710477 -0.10928918 0.12211719 -0.016272882 0.02004684 -0.099224456 0.06473766
-0.12907042 0.10655158 0.059316207 -0.051595766 -0.07234819 -0.07864996 0.083091944 -0.009985799
-0.038505193 -0.05227788 0.049647383 0.040799983 -0.11852613 -0.023236359 0.0038765958 0.088437036
-0.016432961 -0.0052702595 -0.05979408 0.104841255 -0.07322124 0.08518832 -0.022880344 0.051125985
-0.13532224 -0.106378466 0.031219808 -0.07868294 -0.08780057 -0.0212074 0.12271187 -0.0908557
0.020113098 0.13739671 -0.108894624 -0.10797934 -0.021109933 -0.05040684 0.013375586 -0.07241938
-0.0235719 0.031338766 -0.022753036 0.03615042 0.12266587 0.07195887 -0.024899848 -0.062441014
0.09517878 0.14433552 -0.081248395 -0.067984976 -0.04113554 -0.08881964 -0.06577449 0.12667748
0.067954615 0.07205827 0.06764085 -0.15486014 -0.0915146 0.071473785 -0.09896706 -0.116756864

localization.0.bias f4 [8]
00000000: ff8b c8bd d9cd 18bb a1fe a9bd da9c f9bd
00000010: bc54 a83d bf7b b6bd c40e fcbd fbbf 81bd
-0.09792327 -0.0023316054 -0.0830052 -0.1218812 0.08219287 -0.089103214 -0.12307504 -0.063354455

localization.3.weight f4 [10, 8, 5, 5]
00000000: 9cc0 bfbb 8eea 7abd 8067 173d 9d68 e93c
00000010: 8155 d63c cd62 7bbc c807 743d 0e31 8abc
00000020: a06d 09bb 6d4b 9ebc ce8c 5e3d d945 903d
00000030: c8dd 4bbd 74d8 3bbd dee4 1cbd 2702 6bbd
00000040: 4f6b 663d 2e1b 91bd a0f1 a8bc 4cac a7bd
00000050: 6905 3abc 443a 84bd 4f0f 41bd da88 e9bc
00000060: 62f4 013d 1f2d b13c 49db b93c 4a63 95bd
00000070: ab50 55bd 748e 89bd 4582 0a3c 7c5b 26bd
00000080: 5319 76bb e539 62bb e09b 0cbd 1798 b03c
00000090: 17e4 99bd 361d c5bd f895 55bd cfdc bebc
000000a0: 4be9 173d b9b4 42bd d0d7 38bd a74e 46bd
000000b0: b245 d9bd 591c c9bc 281b cebd 310f c6bd
000000c0: 45c7 7ebd eac7 3f3c e839 8abd 69a5 23bd
000000d0: 4811 c23c d637 28bc 2e54 c7bb d2ec 11bd
000000e0: a8f7 be3c 4e38 d13b 0b65 c3bd 5b5f c2bd
000000f0: d193 4c3d dace 2dbd d3b9 cbbc 8833 78bd
00000100: 703b 83bd 6d2a 01bd 9fbd 17bd 4948 77b8
00000110: d05c 36bd 7e3e 6e3c 6654 69bc e1ee bdbc
00000120: 5435 c7bc b392 f7bc 97cc adbd 2db0 143c
00000130: b925 1bbd fd77 91bd 9574 95bc 0158 383d
00000140: 5472 a4bd 8254 323d 31a2 363d dde8 3cbd
00000150: 2cfd 3f3d 974c d0bc bc9f c6bc 6d82 54bd
00000160: 3317 0f3d da05 b03b fb5e 21bd b8de 0b3d
00000170: dafd a93b 0dda d93c 3242 303d 8fb3 9bbd
00000180: bb25 85bc a98c bfbd d146 c4bd 4eb5 4dbc
00000190: fa79 19bc b65d 80bc b56e 6bbd 5330 cabc
000001a0: e65e db3c 9661 abbd 8d16 36bd 32b2 0c3c
000001b0: 410e 713c 8a22 a2bd 98f3 983c e811 3bbd
000001c0: 8756 12bd ee32 743b 2491 0f3c 9bd1 143d
000001d0: 4294 243a 63be 66bd de68 9cbc 6728 e0bd
000001e0: db1c f23c 06a4 72bd 50dd 1dbd 6e05 8bbd
000001f0: b887 92bc 9859 38bc 50bc 85bb 3457 afbd
00000200: b224 113d 083c a93c 1682 41bc ca76 193d
00000210: c44d 2e3c c008 b43c 15c4 0bbb 922a 8abd
00000220: 66f9 c6ba 71df 1abd 422b a5bc 5814 d3bd
00000230: 1fb9 33bd 26ad 82bd 3465 aabd c08a 50bd
00000240: 1933 d7bd d4aa 96bd 9a3d 1ebd 810e cbbd
00000250: f333 59bd e6ab f0bc 56c3 0d3c 8157 bebd
00000260: 8379 123d 965a 173b 57dc 03bd 5bba 233a
00000270: ad71 c9bd a065 33bc 5732 7dbd 1fe5 ac3c
00000280: 2c6c d5bd dbb6 4d3c 658a 653c 6c52 bcbd
00000290: 4fd1 8d3a 550e c73c 4ec1 2e3d 67ab 60bd
000002a0: abca 7d3d 866a 573d c0ae f6bb 4509 403c
000002b0: 907e 92bd 6faa 1e3d 2b80 57bc 7b8c 1e3d
000002c0: 27d5 8fbd efc5 f13b b89c 92bd f6a6 6bbb
000002d0: c165 a3bd 17eb b93c 2b67 22bd a417 11bd
000002e0: af2b 463c 3ad1 8cbd 4c77 5cbd fca8 43bd
000002f0: 53bb b2bd 1065 4fbb 32bb df3b 9614 34bc
00000300: d4ff 40bd 4ac0 89bd 836e 703a c377 373c
00000310: c133 0abd be80 bdbc 1a41 e0bd ba89 113d
00000320: 8d02 34bd e66b 27bd 716b 8b3d 09f9 33bd
00000330: 054e 973c efdb 56bd c971 80bc bcb7 77bd
00000340: f7bc 143d 8e34 3bbd 30bd 023d c5ad f1bb
00000350: 735c cdbd e283 313d 68bd a1bd 0124 00bd
00000360: 66eb bf3c f311 94bd ac5f 6cbc 761e 1b3b
00000370: 8164 f1bc 8eb6 363c 7ae7 99bd 49c6 b7bb
00000380: 49ac fdbc bc01 1a3d bbdb d3bc 8ce9 cabd
00000390: 3d3b 843c 3d62 bcbc 7500 aebd d839 a8bd
000003a0: aab0 043c ff88 fb3c 86a6 2bbd 820d 96bc
000003b0: e7ab 7dbd e2dd 2cbd abe5 a9bd 2a17 97bb
000003c0: de91 4c3d e5c7 2fbd 3dc8 a1bd db11 f23c
000003d0: 46c2 5dbd 5b0d 60bd 7f68 8bbd 6411 3dbc
000003e0: c50c df3c 92b9 25bc 1f9a 073c 341b eebc
000003f0: eb08 dbbd a230 b9bd 2dd6 49bd bc50 d1bb
-0.0058518182 -0.061258845 0.03696394 0.028492266 0.026163818 -0.01534338 0.059577733 -0.016869094
-0.0020969883 -0.019323075 0.0543335 0.070445724 -0.049772054 -0.045860723 -0.038304202 -0.0573751
0.05625468 -0.07085262 -0.020623028 -0.0818716 -0.011353829 -0.06456426 -0.04713374 -0.028507639
0.031727202 0.02162796 0.022687571 -0.072943285 -0.052078884 -0.06716624 0.00845391 -0.04061459
-0.0037551716 -0.003451937 -0.03432834 0.021556897 -0.07514208 -0.09624712 -0.052144974 -0.02329865
0.03708772 -0.04753563 -0.04512769 -0.048414852 -0.106089965 -0.02454965 -0.100637734 -0.09670866
-0.062201757 0.011705378 -0.06749326 -0.03995267 0.023689881 -0.010267219 -0.006083033 -0.03562624
0.023311451 0.006384886 -0.09540757 -0.09490844 0.049945656 -0.042433597 -0.024868881 -0.06059602
-0.06407821 -0.0315346 -0.03704607 -5.895671e-05 -0.044522107 0.0145412665 -0.014241314 -0.023185195
-0.024317421 -0.030221319 -0.08486288 0.009075207 -0.037877772 -0.07102964 -0.018244067 0.045005802
-0.08029619 0.043537624 0.04458827 -0.046120513 0.046872303 -0.025427146 -0.02424609 -0.051882196
0.034934234 0.0053717913 -0.03939722 0.034147948 0.005187732 0.026593233 0.04303188 -0.076026075
-0.016253343 -0.09353001 -0.0958382 -0.012555433 -0.00936746 -0.015669685 -0.057478625 -0.024681246
0.02677865 -0.083682224 -0.0444551 0.008587407 0.014712871 -0.07916744 0.018670842 -0.045671374
-0.03572705 0.0037261802 0.008762632 0.036332708 0.00062781957 -0.05633391 -0.019092973 -0.10945206
0.029554775 -0.059238456 -0.03854114 -0.06788145 -0.017886981 -0.01125183 -0.0040812865 -0.085615546
0.035435386 0.020658508 -0.0118108 0.0374668 0.010638658 0.021976829 -0.002132659 -0.06746401
-0.0015180528 -0.037810747 -0.020162228 -0.10306615 -0.043877717 -0.06380682 -0.08320084 -0.050913572
-0.10507793 -0.07356802 -0.038632967 -0.09914876 -0.05302806 -0.029378843 0.008652529 -0.09294034
0.035760414 0.0023094765 -0.032192554 0.00062457257 -0.09836135 -0.010949522 -0.061815586 0.021105347
-0.10421023 0.012555803 0.014010047 -0.09195408 0.0010819825 0.024298826 0.04266482 -0.054850962
0.061960857 0.052591823 -0.007528156 0.01172096 -0.07153046 0.038736757 -0.013153116 0.03870819
-0.070230775 0.007378332 -0.07158798 -0.003595767 -0.079783924 0.022695107 -0.03964917 -0.035422936
0.012095376 -0.06875844 -0.053824708 -0.047768578 -0.087271355 -0.0031645931 0.0068277353 -0.010991236
-0.047118977 -0.06726129 0.0009171741 0.011197987 -0.033740763 -0.023132678 -0.10949917 0.035531737
-0.043947745 -0.040874384 0.06807602 -0.04393867 0.01846982 -0.05245584 -0.015679257 -0.060477957
0.036313023 -0.045704417 0.031918705 -0.0073754513 -0.10027399 0.043338664 -0.078974545 -0.031284336
0.023427676 -0.07229986 -0.014427107 0.002366928 -0.02946687 0.011151923 -0.07514854 -0.005608354
-0.030965941 0.03759931 -0.025861612 -0.09907827 0.016141528 -0.022996062 -0.08496181 -0.08214158
0.008098761 0.030704973 -0.041906856 -0.018316988 -0.061931517 -0.04220379 -0.08295759 -0.0046109157
0.049943797 -0.042915244 -0.078995205 0.02954953 -0.05414035 -0.054700237 -0.068070404 -0.011539791
0.027227769 -0.010115044 0.008276491 -0.029065706 -0.1069506 -0.09042479 -0.04927652 -0.006387798
