deep_emotion-ckplus-30-8-0.001.pt (torch, 274522 bytes, 24 tensors)

conv1.weight f4 [10, 1, 3, 3]
0.079340644 0.17558374 0.18168013 -0.04353199 -0.24255045 -0.31947348 -0.1439106 0.21239501
-0.1794724 -0.15544365 0.28645787 0.24501172 -0.28652242 -0.13500704 -0.045716424 -0.2661229
0.11167583 -0.34979358 0.26486397 -0.15036488 0.054959957 -0.23826715 0.13735743 -0.28674662
-0.35742384 -0.056753974 0.14270158 0.011175693 0.014553424 0.30029324 0.18498364 0.056889333
-0.1688565 -0.020261133 0.25577888 0.051572178 -0.2018485 -0.26378778 0.23125589 -0.036746215
-0.219161 0.20597942 -0.32885537 -0.030159654 -0.27840477 -0.13291663 0.061043676 0.2532754
-0.2516748 -0.1855236 0.084463544 0.16038683 -0.26943237 -0.0036802979 0.2283911 -0.10626442
-0.14884989 0.13749045 -0.25183314 -0.026063206 0.1520096 -0.21421926 -0.11446142 0.30162123
-0.2957781 0.29895952 -0.054440163 -0.25912523 0.25995708 -0.05027168 -0.37027523 0.23009624
0.33560726 -0.17627838 0.15921204 -0.04962877 0.032690972 0.11167347 0.04792703 0.022491565
0.07146459 -0.15115753 0.032036617 -0.21659037 0.075949244 0.10917471 -0.2861065 -0.08859187
0.11907022 0.0018584492
00000000: 597d a23d 39cc 333e 5b0a 3a3e 9a4e 32bd
00000010: 255f 78be 0792 a3be 4d5d 13be 147e 593e
00000020: 9dc7 37be 9f2c 1fbe 9baa 923e 5ae4 7a3e
00000030: 11b3 92be 493f 0abe 2541 3bbd 4341 88be
00000040: 4cb6 e43d 2518 b3be 409c 873e 40f9 19be
00000050: b11d 613d 4efc 73be 6da7 0c3e 74d0 92be
00000060: 4200 b7be db76 68bd 5d20 123e 411a 373c
00000070: 7c71 6e3c 09c0 993e 5a6c 3d3e ca04 693d
00000080: b8e8 2cbe adfa a5bc 73f5 823e 593d 533d
00000090: 60b1 4ebe 310f 87be 58ce 6c3e 3383 16bd
000000a0: be6b 60be 45ec 523e bb5f a8be 6111 f7bc
000000b0: 128b 8ebe 4c1b 08be ef08 7a3d 50ad 813e
000000c0: 85db 80be e6f9 3dbe 39fb ac3d 723c 243e
000000d0: 0af3 89be 2731 71bb 5bdf 693e 29a1 d9bd
000000e0: 1b6c 18be 4cca 0c3e 46f0 80be 8182 d5bc
000000f0: 68a8 1b3e 4b5c 5bbe c06a eabd 196e 9a3e
00000100: 3a70 97be 3911 993e a6fc 5ebd 10ac 84be
00000110: 1819 853e ade9 4dbd b794 bdbe 599e 6b3e
00000120: b7d4 ab3e 5282 34be 7b08 233e 8a47 4bbd
00000130: f8e6 053d 0fb5 e43d 224f 443d 3b40 b83c
00000140: 075c 923d 0ac9 1abe d438 033d dec9 5dbe
00000150: 478b 9b3d fe96 df3d 8d7c 92be a86f b5bd
00000160: 16db f33d 3597 f33a

conv1.bias f4 [10]
0.10174582 -0.17988443 -0.09865509 -0.05470696 -0.13198751 0.3018754 0.17676902 0.034565274
0.2633775 -0.07975606
00000000: 1d60 d03d a033 38be ae0b cabd 6814 60bd
00000010: bc27 07be 6a8f 9a3e f002 353e 5194 0d3d
00000020: 6ad9 863e 2557 a3bd

conv2.weight f4 [10, 10, 3, 3]
0.10040971 0.09701859 -0.03202276 0.100811146 0.010658515 0.06936807 -0.03297303 0.10369682
-0.02208431 -0.073526256 -0.0055499277 -0.07664156 0.064499505 0.12672532 0.06227923 0.13067901
0.06854078 0.08695871 0.005610403 0.091550656 -0.14004181 -0.030707983 0.062455468 -0.055754643
0.019368771 0.14430213 0.046459656 0.03255467 -0.02531782 0.039790504 -0.015400952 0.007327764
-0.089921154 -0.08784916 0.04923735 -0.08229416 0.009998861 -0.0885564 -0.06120688 -0.0471553
0.07831408 0.011894351 0.04571101 -0.030858073 -0.025929905 0.007282672 0.04470054 -0.046954986
-0.059798308 -0.05869015 0.043548252 0.06261049 0.0016674849 0.022500558 -0.038145658 -0.057944532
0.067391306 0.05495896 -0.09351367 0.043447316 0.051258378 -0.012924212 -0.058178645 0.07390922
0.09844142 0.030141227 -0.06267536 0.081318125 0.048132986 -0.0043870113 0.030260619 0.0338379
-0.02858694 0.05453024 0.078395166 0.058240216 -0.109804004 0.041747015 0.074434295 -0.07402693
-0.04564421 -0.07523838 0.04691547 0.025251452 -0.12079247 -0.09941165 -0.012028924 0.023304077
-0.066697255 -0.10200424 -0.030987527 -0.03223542 -0.048570417 -0.11987645 0.0005440514 -0.011808155
0.13387975 0.13858671 0.016898701 -0.010339913 0.0047438424 -0.09327905 0.020046478 -0.060675528
0.009013725 0.13597262 0.13142955 0.085905455 -0.06970919 -0.065255545 -0.020345572 -0.003906676
-0.072147496 -0.094761126 0.09172404 0.02087065 0.1658408 -0.0089109 0.044004668 0.021995557
-0.04445311 -0.023229048 -0.05711848 -0.026873166 -0.0006344768 0.04763054 -0.079070166 -0.05766435
-0.062962934 0.049291223 -0.08452828 -0.028371708 0.056056976 -0.083721384 -0.083931774 -0.024054915
-0.0038077089 0.055416342 -0.07496164 -0.023190362 -0.12350618 0.016166572 -0.018068543 0.019798314
0.00644196 0.00164087 -0.027334785 -0.08495209 0.09524422 -0.019663597 0.028012466 -0.022881923
-0.05104853 -0.14080779 -0.12998207 0.04151526 0.031025307 0.05603078 0.074753106 0.08234448
0.11494036 0.087819695 -0.0038553511 0.024305249 -0.0178832 0.010602902 0.009328122 -0.055079736
-0.086244315 -0.03047228 0.07151411 0.05928108 -0.03637373 -0.028299315 -0.05689715 -0.0045796824
-0.087808326 0.024997178 -0.005179813 -0.07955655 -0.047662646 -0.06383243 0.04762238 -0.10891137
0.027813433 -0.051831644 0.024924215 -0.0127102835 0.09765498 -0.09641861 -0.028759535 -0.08091457
-0.08429071 -0.102355264 0.037816398 -0.06100873 0.023770485 -0.13094412 -0.10963142 -0.10606635
0.15370254 0.021355372 0.0142039815 -0.034952674 0.051642787 0.02053673 0.06329805 0.12285304
0.017438212 0.059061598 0.08143602 0.08213836 0.009225791 0.036647107 -0.12628075 0.0035880855
-0.12351223 -0.08372592 -0.051410798 -0.12466257 -0.015692255 -0.11443523 0.064818025 0.024149029
0.03957527 -0.10703788 -0.0694371 -0.011334673 0.045001905 0.042738277 -0.044111144 0.015677147
-0.053637832 -0.011110392 -0.035429724 -0.08563212 0.0021860432 -0.09209119 -0.021943813 0.15876289
0.034234792 -0.0064445664 -0.012526331 0.06856502 -0.02935216 -0.1508138 0.121417835 0.12046019
-0.10261762 0.032984357 -0.017467214 -0.109758265 0.098897174 0.06925876 -0.0074025597 0.06430145
00000000: 9ba3 cd3d afb1 c63d 4c2a 03bd 1376 ce3d
00000010: 0da1 2e3c d910 8e3d ba0e 07bd 005f d43d
00000020: 28ea b4bc ef94 96bd 2bdc b5bb 40f6 9cbd
00000030: 5118 843d 48c4 013e 8218 7f3d b8d0 053e
00000040: 1c5f 8c3d 6817 b23d 79d7 b73b e97e bb3d
00000050: 1f67 0fbe 4f8f fbbc 4ed1 7f3d fb5e 64bd
00000060: 42ab 9e3c f0c3 133e 7b4c 3e3d 0c58 053d
00000070: 5167 cfbc 5efb 223d 4654 7cbc bd1d f03b
00000080: 9528 b8bd 43ea b3bd 1aad 493d d789 a8bd
00000090: 43d2 233c 0f5d b5bd 11b4 7abd ea25 41bd
000000a0: 2263 a03d 86e0 423c 783b 3b3d 12ca fcbc
000000b0: f46a d4bc 7ba3 ee3b ea17 373d df53 40bd
000000c0: 12ef 74bd 1565 70bd a75f 323d ee39 803d
000000d0: 828f da3a 1753 b83c 9f3e 1cbd 3f57 6dbd
000000e0: 7404 8a3d a51c 613d 1884 bfbd d0f5 313d
000000f0: 4ef4 513d 13c0 53bc bb4c 6ebd b85d 973d
00000100: a89b c93d bcea f63c f05b 80bd 1e8a a63d
00000110: 1827 453d ebc0 8fbb 1ee5 f73c 9c99 0a3d
00000120: 292f eabc 1a5b 5f3d a58d a03d 4b8d 6e3d
00000130: ece0 e0bd ebfe 2a3d 0271 983d 6e9b 97bd
00000140: 6cf5 3abd 9416 9abd 702a 403d 22dc ce3c
00000150: 0b62 f7bd 5698 cbbd f714 45bc 31e8 be3c
00000160: 9298 88bd 99e7 d0bd 8ed9 fdbc 4a09 04bd
00000170: c6f1 46bd c981 f5bd ac9e 0e3a fe76 41bc
00000180: c617 093e ade9 0d3e 256f 8a3c bd68 29bc
00000190: 3c72 9b3b 1609 bfbd 8338 a43c e786 78bd
000001a0: 4eae 133c 683c 0b3e 7895 063e 33ef af3d
000001b0: b1c3 8ebd b3a4 85bd c2ab a6bc 9303 80bb
000001c0: 11c2 93bd 1f12 c2bd d0d9 bb3d edf8 aa3c
000001d0: 2cd2 293e 06ff 11bc 3d3e 343d 0730 b43c
000001e0: 7714 36bd d84a bebc 11f5 69bd 1d25 dcbc
000001f0: 0453 26ba 3e18 433d 8aef a1bd 7431 6cbd
00000200: b6f2 80bd 98e5 493d 2a1d adbd c96b e8bc
00000210: 009c 653d 1e76 abbd 6ce4 abbd d00e c5bc
00000220: c18a 79bb 3ffc 623d 7d85 99bd b7f9 bdbc
00000230: cff0 fcbd c26f 843c 7b04 94bc 1330 a23c
00000240: 1417 d33b 7612 d73a 33ed dfbc 5dfb adbd
00000250: 670f c33d 8d15 a1bc 667a e53c df72 bbbc
00000260: 4318 51bd eb2f 10be 051a 05be e80b 2a3d
00000270: c928 fe3c 8880 653d 2818 993d 39a4 a83d
00000280: da65 eb3d d0da b33d 0faa 7cbb cd1b c73c
00000290: ca7f 92bc cbb7 2d3c fbd4 183c 4a9b 61bd
000002a0: dca0 b0bd 01a1 f9bc fd75 923d b8d0 723d
000002b0: 9ffc 14bd f7d3 e7bc fc0c 69bd 2911 96bb
000002c0: dad4 b3bd e2c6 cc3c 6cbb a9bb 8bee a2bd
000002d0: e839 43bd 94ba 82bd af0f 433d ed0c dfbd
000002e0: ffd8 e33c 6b4d 54bd de2d cc3c cb3e 50bc
000002f0: 56ff c73d 1f77 c5bd 1e99 ebbc 8ab6 a5bd
00000300: 9ca0 acbd a39f d1bd 5ee5 1a3d 4ae4 79bd
00000310: 52ba c23c 3716 06be 7086 e0bd 5139 d9bd
00000320: 3364 1d3e 76f1 ae3c d1b7 683c 892a 0fbd
00000330: 6387 533d a53c a83c 68a2 813d 609a fb3d
00000340: 95da 8e3c 93ea 713d eec7 a63d 2838 a83d
00000350: c627 173c 471b 163d be4f 01be 1626 6b3b
00000360: fbf3 fcbd 7f78 abbd 2194 52bd 174f ffbd
00000370: 0b8d 80bc 055d eabd 50bf 843d 2fd4 c53c
00000380: ae19 223d ad36 dbbd 0a35 8ebd 10b5 39bc
00000390: eb53 383d 550e 2f3d e3ad 34bd 5c6d 803c
000003a0: 58b3 5bbd 5d08 36bc c21e 11bd e55f afbd
000003b0: b843 0f3b 4e9a bcbd 83c3 b3bc bd92 223e
000003c0: c839 0c3d f12c d3bb 3d3b 4dbc d16b 8c3d
000003d0: f173 f0bc ef6e 1abe eaa9 f83d d5b3 f63d
000003e0: 3029 d2bd 9b1a 073d 6717 8fbc f1c8 e0bd
000003f0: 9a8a ca3d 89d7 8d3d 2c91 f2bb 7bb0 833d

conv2.bias f4 [10]
0.040520072 -0.081913 0.082335114 0.009906743 0.086107336 0.027831389 -0.030239142 -0.10062597
-0.03291829 0.06686937
00000000: 60f8 253d 01c2 a7bd 509f a83d e44f 223c
00000010: 0b59 b03d a7fe e33c 14b8 f7bc fd14 cebd
00000020: 54d5 06bd cff2 883d

conv3.weight f4 [10, 10, 3, 3]
0.04051875 0.04942915 -0.05648494 0.026481995 0.1070728 -0.056719318 -0.043808274 -0.00043278642
-0.039553843 0.009192662 0.040543113 0.047989145 0.041080996 0.06675076 0.0765097 -0.00023875164
-0.021950703 -0.01681755 0.052447483 0.09362835 -0.12958543 -0.12803654 -0.10490078 0.08471667
0.11185406 -0.11746832 -0.0437721 0.07725826 -0.098672956 -0.093357116 0.10716711 0.09746301
-0.020168051 -0.042193223 -0.016948085 0.01389494 0.033838265 0.04786818 0.061791256 -0.12905802
0.04734921 0.028932527 -0.052438244 0.070249185 -0.024133421 -0.006394835 -0.055031214 -0.07841327
0.043643847 -0.14588267 0.023488976 0.10990473 0.0037901467 -0.061709557 -0.013018519 -0.03329848
-0.106079124 -0.016017824 0.040119905 0.07159755 -0.08119071 -0.053475276 0.08641291 -0.032312047
-0.08880506 -0.0855429 -0.0067804093 -0.02564451 -0.017856536 0.0319579 -0.095144324 0.05735921
0.08748185 0.06626215 0.009189267 0.12897414 0.038418017 0.03659906 -0.08519002 -0.051643755
0.0013678115 0.046245046 0.09481375 0.051050585 -0.08547322 0.047067527 -0.08236751 -0.03961469
0.035301767 -0.023116434 -0.04306849 0.039504465 0.024405902 0.018546568 0.08355982 -0.104218476
0.04641369 -0.034964778 0.07144249 -0.10957536 0.021957273 -0.10860936 0.048677646 -0.047812026
-0.08274673 0.11322882 0.038870886 -0.088609785 0.088848256 0.10312346 0.034764033 -0.0866041
-0.08362003 0.062120624 -0.028875634 -0.063474 0.009092925 0.09054175 0.04488734 -0.025745608
0.05393606 0.065723374 0.044505388 -0.10480818 -0.045266405 0.10814844 0.102898784 0.059193406
0.045276433 -0.14200239 -0.09929632 0.08679733 0.053425506 0.06982674 -0.07750009 0.030291103
-0.10575382 -0.015797906 0.07859682 0.007250041 -0.098396726 0.039658256 -0.08360709 -0.013851198
-0.016911943 0.031040115 -0.09448574 -0.04146514 -0.020963505 -0.025763266 -0.05750467 0.006335157
-0.016582655 0.052453503 -0.058560576 -0.061862886 0.040397953 -0.08475349 0.049354758 -0.0076400796
0.052644107 -0.059972726 -0.04455408 -0.07611591 -0.034600973 -0.010995664 -0.08100349 0.04549294
0.039921436 -0.089266285 -0.012325302 -0.034288097 -0.041202947 0.059415355 -0.053988025 -0.014641622
0.087460175 -0.07642767 0.06446476 -0.02235233 -0.10642791 0.02749995 -0.08609942 0.10383245
-0.0859634 0.0710548 0.08196817 0.009805723 -0.043518696 0.024642566 -0.060791515 0.030164707
0.03932847 -0.08967996 -0.101975806 0.035591893 -0.020834384 -0.083739206 0.07249868 0.01050698
-0.074952826 -0.059324488 0.044362485 0.028888678 0.020702844 -0.07858585 0.076540306 -0.034327433
-0.035230532 -0.046006963 0.044704717 -0.12719154 0.053263385 0.0746261 0.15557623 -0.10303971
0.0634675 0.06539067 0.0020318464 0.043356568 -0.0548936 -0.09189754 -0.04814501 -0.08843702
-0.03202453 0.1555677 0.12815274 0.095209725 0.042079423 -0.002075442 0.03544146 0.11762071
-0.029889788 0.030340148 -0.027418695 -0.012775068 0.06748538 -0.029143091 -0.056543373 0.07615217
0.063877776 -0.020630572 0.023716459 -0.045056444 -0.08743365 0.08382932 0.06817892 0.084626496
-0.057359397 -0.027917571 -0.04691161 -0.08352661 -0.052195523 -0.09047352 0.059313286 -0.08413349
00000000: fdf6 253d 3876 4a3d c15c 67bd c5f0 d83c
00000010: fc48 db3d 8452 68bd 4e70 33bd 9ce7 e2b9
00000020: 3603 22bd d29c 163c 8910 263d 4490 443d
00000030: 8c44 283d 9fb4 883d 1eb1 9c3d 6859 7ab9
00000040: f6d1 b3bc f5c4 89bc 2cd3 563d 38c0 bf3d
00000050: 0bb2 04be 031c 03be 38d6 d6bd ef7f ad3d
00000060: be13 e53d 3b93 f0bd 604a 33bd 9439 9e3d
00000070: 0c15 cabd 0432 bfbd 6e7a db3d b09a c73d
00000080: 7837 a5bc cdd2 2cbd b6d6 8abc 9aa7 633c
00000090: fe99 0a3d 6d11 443d d418 7d3d c927 04be
000000a0: 3ff1 413d e803 ed3c 7cc9 56bd cede 8f3d
000000b0: 74b3 c5bc c48b d1bb 6968 61bd 2397 a0bd
000000c0: e4c3 323d 4462 15be f46b c03c bb15 e13d
000000d0: 1c64 783b 29c3 7cbd a04b 55bc fd63 08bd
000000e0: 0340 d9bd d037 83bc c554 243d bca1 923d
000000f0: 5147 a6bd e408 5bbd 40f9 b03d a359 04bd
00000100: 6ddf b5bd 1e31 afbd 322e debb 6f14 d2bc
00000110: df47 92bc 49e6 023d 07db c2bd 7ef1 6a3d
00000120: af29 b33d 73b4 873d 948e 163c cc11 043e
00000130: 365c 1d3d e5e8 153d 1b78 aebd 6788 53bd
00000140: 2348 b33a 726b 3d3d b62d c23d 6b1a 513d
00000150: 950c afbd e1c9 403d 4cb0 a8bd 0343 22bd
00000160: 9698 103d ad5e bdbc 9668 30bd 6fcf 213d
00000170: e3ee c73c f9ee 973c 6921 ab3d 7f70 d5bd
00000180: 481c 3e3d 3a37 0fbd 7150 923d 0c69 e0bd
00000190: bddf b33c 966e debd 3662 473d 8bd6 43bd
000001a0: 1e77 a9bd 83e4 e73d 1437 1f3d 0c79 b5bd
000001b0: 13f6 b53d 6532 d33d bb64 0e3d 7e5d b1bd
000001c0: fa40 abbd 3272 7e3d 988c ecbc a8fe 81bd
000001d0: 7efa 143c f46d b93d cadb 373d 74e8 d2bc
000001e0: 0fec 5c3d fa99 863d 484b 363d aca5 d6bd
000001f0: 4469 39bd ee7c dd3d 99bc d23d c974 723d
00000200: c873 393d 1369 11be de5b cbbd ccc2 b13d
00000210: b4d4 5a3d 5201 8f3d 5eb8 9ebd 0c25 f83c
00000220: 7595 d8bd 9c6a 81bc 5ff7 a03d c091 ed3b
00000230: 3984 c9bd b270 223d 323a abbd 23f0 62bc
00000240: ea8a 8abc d747 fe3c bd81 c1bd 5ad7 29bd
00000250: a8bb abbc 7c0d d3bc 048a 6bbd 2697 cf3b
00000260: 59d8 87bc 7cd9 563d 37dd 6fbd f063 7dbd
00000270: 5378 253d 3d93 adbd 3728 4a3d a259 fabb
00000280: 59a1 573d f6a5 75bd 577e 36bd a9e2 9bbd
00000290: c0b9 0dbd 2827 34bc 28e5 a5bd ce56 3a3d
000002a0: a984 233d 3ed1 b6bd 10f0 49bc ad71 0cbd
000002b0: 6cc4 28bd 845d 733d 8c22 5dbd 6ae3 6fbc
000002c0: 521e b33d 1c86 9cbd 1a06 843d 3c1c b7bc
000002d0: e0f6 d9bd 9347 e13c e554 b0bd 1ca6 d43d
000002e0: 940d b0bd 2e85 913d eede a73d 2fa8 203c
000002f0: a940 32bd 35df c93c 8600 79bd fa1b f73c
00000300: e416 213d 20aa b7bd b1d8 d0bd cec8 113d
00000310: dfac aabc 767f abbd 307a 943d 7825 2c3c
00000320: de80 99bd 3cfe 72bd 70b5 353d f3a7 ec3c
00000330: 0399 a93c 9ef1 a0bd 2ac1 9c3d ec9a 0cbd
00000340: e44d 10bd cc71 3cbd 4b1c 373d 803e 02be
00000350: b52a 5a3d 92d5 983d 604f 1f3e 7c06 d3bd
00000360: 40fb 813d 8beb 853d ba28 053b a896 313d
00000370: 1dd8 60bd c734 bcbd b433 45bd 781e b5bd
00000380: 272c 03bd 244d 1f3e 793a 033e 51fd c23d
00000390: 795b 2c3d 2404 08bb 102b 113d 20e3 f03d
000003a0: 6edb f4bc e78b f83c 2c9d e0bc 854e 51bc
000003b0: c635 8a3d 7ebd eebc 069a 67bd abf5 9b3d
000003c0: 5ad2 823d 7201 a9bc 0549 c23c 1b8d 38bd
000003d0: 6a10 b3bd b5ae ab3d 64a1 8b3d a850 ad3d
000003e0: b0f1 6abd 64b3 e4bc 6326 40bd 0010 abbd
000003f0: f9ca 55bd 2e4a b9bd 7df2 723d 2e4e acbd

conv3.bias f4 [10]
-0.061029356 -0.039303157 0.02884045 0.020265585 -0.06327837 -0.040718786 0.08933159 -0.041581046
-0.0055562803 -0.051508196
00000000: ebf9 79bd 59fc 20bd cf42 ec3c 0304 a63c
00000010: 1798 81bd bec8 26bd 7bf3 b63d e350 2abd
00000020: 7511 b6bb 42fa 52bd

conv4.weight f4 [10, 10, 3, 3]
-0.13827656 0.041139517 0.071198724 -0.032582823 0.039515823 0.0333002 -0.0117903035 -0.040786438
0.10658072 -0.035169594 0.026273811 -0.100839265 -0.01227374 0.046615902 -0.0059039583 0.040880878
-0.04404935 0.023875533 0.086070225 -0.014044581 -0.12822326 0.033332143 0.09599138 0.041644588
-0.04305375 -0.052645966 0.13466874 -0.10813428 0.055237956 0.11803091 -0.067679964 0.04082849
0.17681816 0.09887553 -0.032371175 0.029028788 0.099323496 0.06261102 0.09057429 0.037448764
-0.032253902 -0.072812706 -0.07538261 0.06437325 0.02306733 0.066434145 -0.085344866 -0.08848471
0.009592701 -0.019272298 -0.019759774 -0.016969647 0.06233448 -0.0487198 0.09112577 0.060883336
-0.08489338 0.062252883 0.08463448 0.088714145 -0.05756701 -0.03263931 -0.042061567 0.11863888
-0.09847833 0.029599208 0.007722198 -0.06856637 0.083420105 -0.057330266 -0.03527178 0.07147962
0.00066435424 0.105423175 -0.015275618 0.015182923 0.030674431 -0.016303265 -0.06587017 -0.08027034
0.03934298 0.046408594 -0.0493677 -0.048586372 -0.06370462 0.062275406 -0.10727286 0.05697065
0.0010855065 0.010232642 0.033216704 0.03008328 0.06935084 0.02965644 -0.0041153887 -0.060598858
0.084724255 0.03978777 -0.1471302 0.04744654 0.061753683 0.1008964 -0.016132424 -0.033837978
-0.025048628 0.081726074 0.019379726 -0.008364141 -0.013567964 0.002649338 -8.104204e-05 -0.020570831
0.037705135 0.049938206 -0.021854497 -0.026088474 -0.037659187 0.057745364 0.04493141 0.031061586
0.09488916 0.068490304 -0.062000073 -0.052182384 0.05660042 -0.063130446 0.04555592 -0.1088906
-0.048656955 -0.04734281 0.11738061 -0.079386376 -0.052981764 -0.053199526 -0.07426409 -0.06426481
-0.021980677 -0.009895596 -0.052412823 -0.060110442 -0.0066427933 -0.028060665 -0.023463061 -0.06751509
0.03901575 -0.13305578 -0.036931384 -0.049579144 -0.083252564 -0.11146977 0.04347443 -0.034670796
0.07675115 0.12718922 0.0010579604 -0.08467673 0.033758685 0.02154115 0.06347757 0.02749039
-0.08883006 -0.016606703 0.095929556 -0.045640312 -0.037435666 0.043638 -0.031183448 -0.07476422
0.0025199933 -0.05546346 -0.011984053 -0.0012493781 0.092022516 0.01725654 0.027011203 -0.06388855
0.11623553 0.0044120564 0.024085674 0.1037303 0.10825607 -0.05515826 -0.022732913 -0.014297877
0.045658104 0.06907627 0.11236728 0.05484965 -0.083177716 -0.023055842 -0.044891063 -0.05422733
0.011766768 0.04237553 -0.023717752 0.1301449 0.07631483 -0.033918194 0.010280997 -0.05341067
-0.06048673 0.04730757 0.05517327 0.037287034 -0.07280843 0.10277393 0.04848481 0.042593516
-0.06746681 0.09085337 -0.020542895 0.07792871 0.19268346 0.080626555 0.028574063 0.022091568
-0.033284042 0.07031694 -0.029929658 0.004038333 0.035785493 0.1123297 0.05420573 -0.1125328
0.0695072 0.085209996 0.02491732 -0.019416597 0.0816472 -0.09233663 -0.07302914 -0.07365883
-0.02682795 -0.042057306 0.018353805 0.048023615 -0.05455367 -0.027004959 0.013948392 0.028723506
-0.03582128 0.13152525 0.025385296 0.01463857 -0.07800847 -0.014384537 0.006841113 0.08596159
0.02478194 -0.01093047 -0.062098887 0.096743494 0.09420477 0.030148344 -0.071442485 0.030162683
00000000: 5f98 0dbe e981 283d a3d0 913d 9175 05bd
00000010: 58db 213d ca65 083d 1e2c 41bc ae0f 27bd
00000020: fe46 da3d fe0d 10bd 2d3c d73c d184 cebd
00000030: cc17 49bc 51f0 3e3d fe75 c1bb b572 273d
00000040: 176d 34bd 9f96 c33c 9645 b03d 3e1b 66bc
00000050: f54c 03be 4987 083d 2197 c43d 8493 2a3d
00000060: 2159 30bd 4ca3 57bd 9ae6 093e 8175 ddbd
00000070: 3241 623d 31ba f13d cb9b 8abd c63b 273d
00000080: d20f 353e 417f ca3d a397 04bd c8cd ed3c
00000090: 1e6a cb3d 353a 803d 037f b93d e063 193d
000000a0: ab1c 04bd d41e 95bd 3362 9abd 1fd6 833d
000000b0: b2f7 bc3c a00e 883d 4ac9 aebd 7937 b5bd
000000c0: b42a 1d3c f0e0 9dbc 40df a1bc ee03 8bbc
000000d0: 7152 7f3d 6a8e 47bd 26a0 ba3d ce60 793d
000000e0: 95dc adbd e1fc 7e3d d854 ad3d c3af b53d
000000f0: 63cb 6bbd ccb0 05bd c048 2cbd f1f8 f23d
00000100: 02af c9bd 0a7a f23c 7e0a fd3b 866c 8cbd
00000110: 29d8 aa3d 24d3 6abd 2479 10bd e863 923d
00000120: 0f28 2e3a 1be8 d73d 9646 7abc cbc1 783c
00000130: f248 fb3c 6d8e 85bc f1e6 86bd c764 a4bd
00000140: 1b26 213d f016 3e3d c935 4abd 8102 47bd
00000150: 9177 82bd 7f14 7f3d e0b1 dbbd 0e5a 693d
00000160: 8e47 8e3a d0a6 273c 3d0e 083d 3671 f63c
00000170: d007 8e3d 10f2 f23c 62da 86bb 8236 78bd
00000180: e983 ad3d 80f8 223d 4da9 16be 4e57 423d
00000190: 6ef1 7c3d c6a2 ce3d 2528 84bc b199 0abd
000001a0: c832 cdbc 0060 a73d 3bc2 9e3c c009 09bc
000001b0: 2a4c 5ebc 84a0 2d3b 1df5 a9b8 2984 a8bc
000001c0: b370 1a3d 018c 4c3d 3408 b3bc 7fb7 d5bc
000001d0: 8540 1abd 6786 6c3d 000a 383d de74 fe3c
000001e0: 3f55 c23d a544 8c3d caf3 7dbd 32bd 55bd
000001f0: d8d5 673d 894a 81bd d898 3a3d 0902 dfbd
00000200: 844c 47bd 89ea 41bd 3f65 f03d 5395 a2bd
00000210: 6803 59bd bfe7 59bd c517 98bd 459d 83bd
00000220: d210 b4bc 2321 22bc d4ae 56bd 5e36 76bd
00000230: caab d9bb 7bdf e5bc 9b35 c0bc 5a45 8abd
00000240: fbce 1f3d c63f 08be 5d45 17bd 8013 4bbd
00000250: 5280 aabd 434a e4bd 3e12 323d f702 0ebd
00000260: b52f 9d3d e43d 023e 43ab 8a3a fe6a adbd
00000270: 8c46 0a3d 1177 b03c 8700 823d 8733 e13c
00000280: 89ec b5bd c80a 88bc b776 c43d 56f1 3abd
00000290: 2456 19bd c2bd 323d 6e74 ffbc fc1d 99bd
000002a0: 7926 253b a72d 63bd c358 44bc 2cc2 a3ba
000002b0: 4d76 bc3d 965d 8d3c 9946 dd3c 00d8 82bd
000002c0: e50c ee3d 0393 903b 524f c53c 8d70 d43d
000002d0: 5cb5 dd3d a1ed 61bd 603a babc a541 6abc
000002e0: fe03 3b3d dc77 8d3d d120 e63d 07aa 603d
000002f0: 1459 aabd 9bdf bcbc b1df 37bd 7a1d 5ebd
00000300: 67c9 403c f791 2d3d bb4b c2bc b444 053e
00000310: f34a 9c3d ceed 0abd a071 283c 26c5 5abd
00000320: efc0 77bd 95c5 413d 5efd 613d 4aba 183d
00000330: 961c 95bd 237b d23d 0298 463d 8a76 2e3d
00000340: 0a2c 8abd 5511 ba3d 9349 a8bc 1699 9f3d
00000350: d04e 453e 891f a53d 2714 ea3c 60f9 b43c
00000360: d954 08bd 5402 903d 0b2f f5bc fe53 843b
00000370: cf93 123d 1d0d e63d d406 5e3d 9977 e6bd
00000380: ca59 8e3d 9482 ae3d 681f cc3c 8e0f 9fbc
00000390: a636 a73d fd1a bdbd 4d90 95bd 71da 96bd
000003a0: 4ac6 dbbc 4844 2cbd b85a 963c 69b4 443d
000003b0: ab73 5fbd 8139 ddbc cc87 643c 8f4d eb3c
000003c0: 56b9 12bd 8eae 063e d3f4 cf3c 9dd6 6f3c
000003d0: e8c2 9fbd 1fad 6bbc 6a2b e03b a10c b03d
000003e0: 7f03 cb3c b715 33bc 675b 7ebd 7421 c63d
000003f0: 6eee c03d a9f9 f63c 7050 92bd bb17 f73c

conv4.bias f4 [10]
-0.02918606 0.012801886 -0.0069476366 -0.05465318 -0.0019676802 0.02748767 -0.12973998 -0.088816404
-0.0070045907 -0.03906114
00000000: 9b17 efbc 00bf 513c 00a9 e3bb 03dc 5fbd
00000010: 32f4 00bb d22d e13c 8fda 04be 60e5 b5bd
00000020: c486 e5bb 93fe 1fbd

norm.weight f4 [10]
1.1556442 1.1445482 1.193168 1.0933204 1.1671475 1.1511881 1.1743803 1.2340904
1.1937348 1.2634213
00000000: 26ec 933f 8e80 923f bbb9 983f ecf1 8b3f
00000010: 1765 953f 225a 933f 1852 963f adf6 9d3f
00000020: 4dcc 983f cab7 a13f

norm.bias f4 [10]
-0.057350997 -0.019770095 -0.020187689 0.007499454 -0.037630737 -0.019783493 -0.018841822 0.024613045
-0.064716466 0.02777823
00000000: e1e8 6abd e5f4 a1bc a760 a5bc fbbd f53b
00000010: b022 1abd fe10 a2bc 2a5a 9abc 4ca1 c93c
00000020: 118a 84bd 2c8f e33c

norm.running_mean f4 [10]
-0.0038740986 -0.013228707 0.021890111 -0.10703502 -0.019546857 0.044531662 -0.15376706 -0.08178783
0.0003024201 -0.049701456
00000000: 97e4 7dbb 38bd 58bc e452 b33c 2d35 dbbd
00000010: bb20 a0bc d566 363d 1d75 1dbe 6180 a7bd
00000020: 248e 9e39 c193 4bbd

norm.running_var f4 [10]
0.00048141833 0.00039914408 0.00064329326 0.0007970181 0.0004471175 0.0005396966 0.000497087 0.0005851439
0.00045920102 0.000476304
00000000: e066 fc39 3644 d139 aea2 283a fbee 503a
00000010: 186b ea39 6d7a 0d3a f24e 023a 5864 193a
00000020: ebc0 f039 71b8 f939

fc1.weight f4 [50, 810]
0.031637464 -0.0045925886 0.021364866 0.017506592 -0.0070838574 -0.005834856 -0.0086992085 0.015999865
0.028596818 -0.011907458 -0.027181936 -0.02617728 -0.029804714 -0.020668518 -0.019840667 -0.03733607
0.01916125 0.018041836 -0.028029911 -0.025287578 0.009269305 -0.020113576 -0.018332995 0.018755758
0.0093994355 0.021253329 -0.007577299 -0.0103317145 0.02124452 0.0016993823 -0.01612154 0.014300507
-0.028713405 -0.007637208 -0.011453553 -0.012012171 -0.010786616 0.010258828 -0.009858284 0.009514496
0.016173651 -0.034692924 0.018863756 0.019491686 -0.014600398 -0.019389858 -0.037542034 -0.038402386
-0.0160026 0.019921148 -0.00023399928 -0.0010169493 -0.006761046 -0.032536726 0.027346043 0.024634331
-0.01638466 -0.016702672 -0.010552288 -0.014674658 0.0056279143 -0.031781368 -0.013461098 0.02645089
0.0027160977 0.005840306 0.028455364 -0.0109260855 0.002278363 -0.027210092 0.026122177 0.0021241368
-0.033115003 -0.040779088 0.01672729 0.02150623 0.0031785173 -0.009185829 0.014353766 -0.029587105
-0.03767426 -0.010116734 -0.017086178 0.008230725 0.026617076 -0.014038377 0.011572768 0.00946144
0.02196753 -0.033137668 -0.012301929 -0.023116827 0.033636115 0.016623681 0.023004575 -0.028627083
-0.0029569387 -0.04476538 -0.039591547 0.017418128 0.004433256 -0.024369914 0.023214046 0.033837788
0.022691902 0.0055827424 0.031285465 -0.0049099172 0.0018258259 0.017033057 -0.031014437 -0.036748562
0.022177687 0.0064568333 -0.009827319 0.01729004 0.021570642 -0.0165306 -0.023020431 -0.0017649519
-0.012271889 -0.015869066 -0.00016867243 0.034430258 0.035152644 0.014649498 -0.016723407 0.00669986
-0.030773943 -0.025801828 -0.0014811105 0.0027236624 -0.023382176 -0.024130203 0.0019853627 0.020446252
-0.010055304 -0.019802874 0.026365362 0.024476932 -0.00570554 0.0013079132 -0.022472294 -0.0075460332
-0.009665201 -0.014394627 0.008673968 -0.02505258 -0.02791428 -0.029813442 0.014618906 0.0060595125
-0.02412859 -0.038527932 -0.004625205 -0.005231453 0.02807328 0.017762871 -0.030989744 0.0067221615
-0.002290402 -0.010664162 0.0054393075 0.01830882 0.025084017 -0.013177243 -0.031408574 0.007992415
-0.021092921 -0.015682995 0.009223841 0.017545676 -0.03877175 -0.02912828 -0.026384568 -0.0008010039
0.0009510356 0.032703765 -0.025722578 -0.031606127 0.026597159 0.0014146434 0.024539743 0.001579741
-0.008792141 0.014906153 -0.017298108 0.007264079 -0.016472422 0.0074380366 -0.0041283537 -0.033371337
-0.030794257 -0.015909515 0.02478044 -0.015878534 -0.017787926 -0.034968458 -0.004337107 -0.0016758523
-0.035318695 0.008894833 -0.0027883544 0.009889965 0.017190957 -0.025523284 -0.03798158 -0.035029892
-0.036133714 -0.016285159 -0.001699476 -0.03279298 -0.018935047 0.0009815535 -0.03517833 -0.011885778
0.02428988 0.007881755 0.0065597985 0.0007844055 0.021376757 0.024474176 0.0078617195 -0.005307625
-0.036547717 0.0064686025 0.0020670665 0.0011819977 -0.020200962 -0.039782718 -0.029149124 0.007873003
0.005940472 0.037515912 -0.0048485016 -0.02191936 0.021344071 -0.00089613243 -0.014966769 -0.000809306
0.0032069436 -0.0016382124 0.00066621485 -0.019692237 -0.011671323 -0.037291817 -0.03797909 -0.037401576
-0.023547515 0.031882804 -0.018412087 -0.005622752 -0.005159676 -0.020920651 0.014748416 0.04237115
00000000: 4996 013d 6d7d 96bb 5f05 af3c fc69 8f3c
00000010: b41f e8bb 5232 bfbb 2087 0ebc 2612 833c
00000020: e043 ea3c 8017 43bc a7ac debc bc71 d6bc
00000030: 0429 f4bc 0651 a9bc e588 a2bc b5ed 18bd
00000040: 0ef8 9c3c 79cc 933c fc9e e5bc e527 cfbc
00000050: 48de 173c 3ac5 a4bc 142f 96bc ada5 993c
00000060: 1700 1a3c 761b ae3c fe4a f8bb 5a46 29bc
00000070: fd08 ae3c cfbd de3a 5211 84bc ac4c 6a3c
00000080: 6038 ebbc 8b41 fabb afa7 3bbc b2ce 44bc
00000090: 59ba 30bc a514 283c a484 21bc b0e2 1b3c
000000a0: 9b7e 843c 2b1a 0ebd 2a88 9a3c 07ad 9f3c
000000b0: 8236 6fbc 7bd7 9ebc adc5 19bd d24b 1dbd
000000c0: e217 83bc ad31 a33c b45d 75b9 284b 85ba
000000d0: c48b ddbb 3b45 05bd cf04 e03c f0cd c93c
000000e0: 1f39 86bc 0bd4 88bc 81e3 2cbc fa6d 70bc
000000f0: 5e6a b83b 2e2d 02bd f08b 5cbc 89af d83c
00000100: 8f00 323b 0a60 bf3b 391b e93c 5303 33bc
00000110: 9750 153b b3e7 debc 2dfe d53c 1a35 0b3b
00000120: 99a3 07bd f907 27bd ab07 893c d52d b03c
00000130: ac4e 503b 2980 16bc 0f2c 6b3c a860 f2bc
00000140: 5350 1abd a8c0 25bc 50f8 8bbc 2ada 063c
00000150: 0e0c da3c 3901 66bc b59b 3d3c 2804 1b3c
00000160: 40f5 b33c 5dbb 07bd 088e 49bc 805f bdbc
00000170: 06c6 093d 632e 883c 1774 bc3c 5883 eabc
00000180: 33c9 41bb e75b 37bd bf2a 22bd 76b0 8e3c
00000190: d944 913b 6aa3 c7bc 622b be3c 7e99 0a3d
000001a0: 5ee4 b93c 70ef b63b 3025 003d 5fe3 a0bb
000001b0: 8d50 ef3a e988 8b3c fd11 febc a985 16bd
000001c0: fbad b53c d893 d33b c302 21bc d8a3 8d3c
000001d0: eab4 b03c 2e6b 87bc 5895 bcbc f555 e7ba
000001e0: 0810 49bc d8ff 81bc a9dd 30b9 be06 0d3d
000001f0: 38fc 0f3d 7304 703c 87ff 88bc 808a db3b
00000200: a319 fcbc 5b5e d3bc d221 c2ba 797f 323b
00000210: fa8b bfbc b4ac c5bc dc1c 023b e67e a73c
00000220: 00bf 24bc a339 a2bc 2cfc d73c d983 c83c
00000230: 8af5 babb 496e ab3a d117 b8bc b744 f7bb
00000240: cb5a 1ebc 71d7 6bbc 421d 0e3c 113b cdbc
00000250: 7dac e4bc 523b f4bc 2384 6f3c e08e c63b
00000260: 52a9 c5bc 77cf 1dbd 088f 97bb 9c6c abbb
00000270: eff9 e53c 7183 913c 34de fdbc 9445 dc3b
00000280: 921a 16bb bdb8 2ebc 383c b23b 61fc 953c
00000290: ff7c cd3c 5de5 57bc 47a6 00bd 9ef2 023c
000002a0: 10cb acbc a079 80bc 981f 173c f3bb 8f3c
000002b0: 20cf 1ebd 6e9e eebc 7324 d8bc 76fa 51ba
000002c0: eb4e 793a 62f4 053d 28b8 d2bc 6d75 01bd
000002d0: 49e2 d93c 8e6b b93a 9207 c93c 500f cf3a
000002e0: ea0c 10bc f038 743c c3b4 8dbc 8307 ee3b
000002f0: 2cf1 86bc c6ba f33b 2447 87bb 62b0 08bd
00000300: 3d44 fcbc ac54 82bc 5900 cb3c b313 82bc
00000310: fcb7 91bc 163b 0fbd 4a1e 8ebb 46a8 dbba
00000320: 56aa 10bd a2bb 113c d3bc 36bb 8509 223c
00000330: 0dd4 8c3c 3516 d1bc 9392 1bbd 817b 0fbd
00000340: f200 14bd 7468 85bc f4c0 deba ef51 06bd
00000350: ac1d 9bbc 78a7 803a 2717 10bd 91bc 42bc
00000360: 92fb c63c 7a22 013c 94f3 d63b 90a0 4d3a
00000370: 4f1e af3c 117e c83c 71ce 003c 96eb adbb
00000380: 0fb3 15bd 92f6 d33b 9f77 073b 43ed 9a3a
00000390: 7d7c a5bc 34f3 22bd 25ca eebc c5fd 003c
000003a0: 4aa8 c23b 49aa 193d 2ee0 9ebb 3b90 b3bc
000003b0: c3d9 ae3c 6eea 6aba 2e37 75bc 9b27 54ba
000003c0: 962b 523b 49b9 d6ba eca4 2e3a 9d51 a1bc
000003d0: 1439 3fbc 4ebf 18bd f68f 1bbd 6532 19bd
000003e0: b8e6 c0bc 8b97 023d f2d4 96bc 103f b8bb
000003f0: 8012 a9bb c961 abbc 57a3 713c 5f8d 2d3d

fc1.bias f4 [50]
-0.020170575 0.016534347 0.016496146 0.0019766751 0.059558533 0.053595178 0.016021905 -0.023178678
-0.008478895 0.023679757 -0.010107845 -0.028657505 -0.018450236 -0.026994186 0.020595869 0.0013000526
-0.041588604 -0.0044973064 0.0012506457 -0.024580402 -0.04238486 0.069049805 -0.030015744 0.045888476
-0.005761989 0.057044353 -0.058706217 0.009860161 -0.004502642 -0.027177796 -0.03294944 0.07290981
0.022151956 0.04291532 -0.009592497 0.017481225 -0.010482198 -0.009530845 -0.003343244 0.008491267
0.082985304 -0.0047028325 0.011563913 -0.02241418 0.026140409 0.015401717 -0.03736167 0.010128942
-0.041048374 0.015827063
00000000: c33c a5bc 0a73 873c ed22 873c 1b8b 013b
00000010: a6f3 733d 9e86 5b3d 5f40 833c 36e1 bdbc
00000020: 10eb 0abc 0dfc c13c 609b 25bc 25c3 eabc
00000030: f324 97bc e922 ddbc abb8 a83c 8766 aa3a
00000040: d058 2abd 245e 93bb b5ec a33a d75c c9bc
00000050: bf9b 2dbd fc69 8d3d 94e3 f5bc 8ef5 3b3d
00000060: 11cf bcbb 57a7 693d ee75 70bd 838c 213c
00000070: e68a 93bb f8a3 debc fef5 06bd bd51 953d
00000080: 0578 b53c f9c7 2f3d d929 1dbc c934 8f3c
00000090: 86bd 2bbc 4327 1cbc 541a 5bbb f51e 0b3c
000000a0: 33f4 a93d 381a 9abb 9176 3d3c f19d b7bc
000000b0: 6924 d63c 7c57 7c3c 8d08 19bd ddf3 253c
000000c0: 5722 28bd c2a7 813c

fc2.weight f4 [7, 50]
0.0095936535 -0.011710059 -0.049396284 0.1461606 0.11549053 0.07427961 0.0073278984 -0.16722311
0.07137396 0.08481857 -0.103564315 0.003440623 -0.010126937 0.12994048 -0.050731532 -0.14717203
0.12569891 -0.040125467 0.010909323 -0.08530345 -0.11747365 -0.08820168 -0.05718748 -0.105415426
-0.06284648 0.050342783 0.084431045 0.038273674 -0.06713984 0.031460993 -0.11885345 -0.007482962
0.12771699 -0.10333595 -0.06270139 0.043789014 -0.075137116 -0.0895435 -0.1654512 0.07808868
0.14626165 0.103902645 0.12175851 -0.06626724 0.0748417 -0.17181507 0.0103048105 -0.048388623
-0.038955197 -0.1637568 -0.048457503 -0.18901227 0.0023929079 0.027427051 0.13771297 -0.0011277547
0.04722338 -0.013541659 -0.24573044 -0.059512682 0.073247395 -0.10423481 0.04090878 0.0144929895
-0.1261761 0.13159755 -0.08792804 0.048551194 0.046874627 -0.044731557 0.080606125 0.078979075
-0.093711235 -0.08042444 0.12852909 0.1746365 -0.21511446 0.009895844 -0.08128622 0.11224471
-0.04533406 0.2160838 0.027945062 0.13281272 0.0010648973 -0.07965595 -0.02988233 -0.086357854
-0.1553536 -0.022224216 0.10895445 0.06391704 -0.0970262 0.052283704 0.03306161 -0.091250375
0.12338727 -0.09051132 -0.119682126 -0.027187292 -0.09127195 0.14785877 0.047495443 0.038612094
-0.040475488 0.12644023 0.080354914 0.011974618 0.020509908 -0.0934582 0.02829309 -0.040979076
0.111521974 -0.13885406 0.097461656 0.0052101403 -0.023352329 0.061540462 -0.1979025 -0.13741247
0.0855903 0.1689395 -0.062900916 0.17595565 -0.13233414 0.14870398 0.038440887 -0.061039895
0.017899584 -0.08171344 0.016716922 -0.24795066 -0.03763008 -0.18069598 -0.09062156 0.108421706
0.029825253 -0.13204853 0.04978947 0.06884612 -0.105272636 0.10611136 0.027437424 0.11030003
-0.075469255 0.17212129 -0.05137714 -0.12145936 0.025299657 -0.16321291 0.10123775 -0.089896984
0.055383295 -0.15687594 -0.12203266 0.1310743 0.037984207 0.031819176 -0.17938557 -0.08297503
0.07437712 -0.13685405 -0.09496265 0.087161995 -0.039142344 -0.0019626836 -0.03432852 0.03546016
0.12330545 -0.14680547 0.03344399 -0.123872384 0.14208247 -0.17004636 0.12854882 -0.1802973
0.17163643 -0.0936499 -0.15350397 0.022242889 0.11979803 -0.09884197 -0.06254578 0.0945341
-0.11884599 0.015810309 -0.12986389 0.13039622 0.06515412 0.08023494 -0.08717483 0.032768108
0.14351398 0.054237276 0.017866425 -0.1657594 0.13747644 0.11553942 -0.12654579 0.06346294
-0.11928508 -0.18156327 -0.07316896 0.10326191 0.15770835 -0.06280401 -0.09035481 0.13701415
-0.12529685 -0.2309032 -0.0006862974 -0.06959607 -0.0048713866 0.13961406 -0.03795333 0.17630728
-0.056569915 0.15161529 0.075935416 -0.10746949 0.11142324 -0.053298958 0.10824877 -0.14400046
0.078921385 -0.020900123 -0.020984016 -0.2346029 0.011907745 0.019250596 -0.075309604 -0.19366351
0.16080247 -0.13945694 0.18002352 -0.10269229 -0.086586535 0.0054601324 0.16261503 -0.02315546
-0.22546667 0.042712312 -0.09292782 0.044192307 -0.08234644 0.11007764 -0.08423368 -0.0150858555
-0.054729186 0.07477039 0.042720087 0.15045215 0.03462264 0.04495009 -0.05385785 -0.12252857
00000000: b32e 1d3c 8cdb 3fbc c253 4abd 20ab 153e
00000010: 4d86 ec3d e81f 983d de1e f03b 893c 2bbe
00000020: 832c 923d 5cb5 ad3d 8719 d4bd 137c 613b
00000030: 74eb 25bc 1e0f 053e decb 4fbd 44b4 16be
00000040: 37b7 003e 9a5a 24bd 04bd 323c 93b3 aebd
00000050: 0696 f0bd 15a3 b4bd 6b3d 6abd 0be4 d7bd
00000060: a8b5 80bd 3c34 4e3d 2fea ac3d dbc4 1c3d
00000070: 9d80 89bd 3edd 003d 7069 f3bd a333 f5bb
00000080: 3ec8 023e cca1 d3bd 9669 80bd 1c5c 333d
00000090: 7de1 99bd 9562 b7bd 0a6c 29be f5ec 9f3d
000000a0: 9dc5 153e e9ca d43d 875c f93d 1eb7 87bd
000000b0: 9b46 993d 4af0 2fbe 82d5 283c 2633 46bd
000000c0: 7c8f 1fbd ddaf 27be 607b 46bd 6f8c 41be
000000d0: 55d2 1c3b b2ae e03c a104 0d3e 2bd1 93ba
000000e0: 4e6d 413d d6dd 5dbc c3a0 7bbe 92c3 73bd
000000f0: bb02 963d 0f79 d5bd f78f 273d 0174 6d3c
00000100: 4f34 01be 82c1 063e 9e13 b4bd 9edd 463d
00000110: 9cff 3f3d 7038 37bd d314 a53d c8bf a13d
00000120: adeb bfbd 92b5 a4bd 219d 033e e9d3 323e
00000130: f746 5cbe 2e22 223c 6479 a6bd 8ee0 e53d
00000140: 35b0 39bd 1245 5d3e 0bed e43c 0f00 083e
00000150: 0694 8b3a a922 a3bd cacb f4bc 63dc b0bd
00000160: 0415 1fbe 8f0f b6bc 8323 df3d f0e6 823d
00000170: acb5 c6bd 7027 563d 9c6b 073d 7ae1 babd
00000180: 77b2 fc3d 005e b9bd e71b f5bd e2b7 debc
00000190: caec babd 4a68 173e 958a 423d b727 1e3d
000001a0: a0c9 25bd 8c79 013e 1e91 a43d 3031 443c
000001b0: 6504 a83c 0367 bfbd e9c6 e73c add9 27bd
000001c0: a265 e43d c22f 0ebe fa99 c73d d3b9 aa3b
000001d0: 624d bfbc da11 7c3d f4a6 4abe dbb5 0cbe
000001e0: f849 af3d 7afe 2c3e 32d2 80bd b82d 343e
000001f0: 9a82 07be db45 183e 3174 1d3d f804 7abd
00000200: 26a2 923c 6059 a7bd edf1 883c c7e6 7dbe
00000210: 0022 1abd 5e08 39be cc97 b9bd 330c de3d
00000220: 1754 f43c bb37 07be 0bf0 4b3d 32ff 8c3d
00000230: 2e99 d7bd ea50 d93d 73c4 e03c fbe4 e13d
00000240: a08f 9abd 9040 303e d670 52bd afbf f8bd
00000250: 3a41 cf3c 4921 27be bd55 cf3d e91b b8bd
00000260: 98d9 623d 16a4 20be 42ec f9bd 5738 063e
00000270: 5495 1b3d d354 023d dab0 37be d0ee a9bd
00000280: 0853 983d 7823 0cbe c77b c2bd fd81 b23d
00000290: b953 20bd 5ea0 00bb 109c 0cbd ac3e 113d
000002a0: 9187 fc3d 2c54 16be 91fc 083d ceb0 fdbd
000002b0: 117e 113e a220 2ebe 4da2 033e db9f 38be
000002c0: 76c1 2f3e 85cb bfbd 2530 1dbe b836 b63c
000002d0: ab58 f53d a96d cabd 0018 80bd 189b c13d
000002e0: 8765 f3bd 9f84 813c 0afb 04be 9686 053e
000002f0: 866f 853d 3752 a43d b888 b2bd da37 063d
00000300: 54f5 123e e827 5e3d 9c5c 923c d5bc 29be
00000310: a0c6 0c3e ee9f ec3d 3895 01be dcf8 813d
00000320: bc4b f4bd b9eb 39be 9cd9 95bd fb7a d33d
00000330: 4c7e 213e 649f 80bd f10b b9bd 704d 0c3e
00000340: d14d 00be e371 6cbe a4e8 33ba 6288 8ebd
00000350: 27a0 9fbb fdf6 0e3e f374 1bbd e589 343e
00000360: dbb5 67bd 0a41 1b3e 0784 9b3d f718 dcbd
00000370: de31 e43d 0250 5abd 88b1 dd3d db74 13be
00000380: 89a1 a13d bc36 abbc ace6 abbc be3b 70be
00000390: b418 433c 6db3 9d3c ec3b 9abd ba4f 46be
000003a0: 67a9 243e cdcd 0ebe 1658 383e 5650 d2bd
000003b0: 4854 b1bd e9ea b23b 8e84 263e 85b0 bdbc
000003c0: bce0 66be 1bf3 2e3d f150 bebd fe02 353d
000003d0: 40a5 a8bd 6370 e13d b582 acbd aa2a 77bc
000003e0: b62b 60bd 3821 993d 42fb 2e3d 2110 1a3e
000003f0: 78d0 0d3d 961d 383d 0d9a 5cbd 42f0 fabd

fc2.bias f4 [7]
-0.004535372 0.053500388 -0.08327215 0.066167034 0.082635455 0.08577866 0.045414157
00000000: 759d 94bb 3923 5b3d 978a aabd 9582 873d
00000010: c73c a93d b9ac af3d 3204 3a3d

localization.0.weight f4 [8, 1, 7, 7]
-0.050867893 -0.074587174 -0.044459384 -0.0453471 -0.059240483 -0.022504507 -0.14949907 0.100082174
-0.04501 0.005589284 0.13062742 -0.018550135 0.10517347 0.029925397 0.053997032 0.02271727
-0.11216153 -0.04278038 0.12184148 -0.047176097 -0.05605928 0.011477895 -0.017311895 0.0074855993
0.11781432 0.10784239 -0.108672984 0.071167305 -0.019834483 0.106393434 -0.007002881 -0.097843595
0.081862375 0.121995434 0.12133858 0.05000207 -0.049744267 -0.001083073 0.07981593 -0.12543918
-0.11063438 0.055836618 -0.13192639 0.031564504 -0.008847831 -0.022383679 0.0044849645 -0.13655946
0.048126332 -0.08885704 -0.013025219 0.10979204 -0.05817635 0.13451083 0.016399574 0.06437374
0.12746833 0.032277584 0.044409107 0.1275688 -0.09283428 -0.09829315 -0.027062574 -0.023133207
0.051851984 -0.0011874139 0.103005685 0.013614779 0.093303 -0.07699717 -0.0076810243 0.014788722
0.14587125 0.0899738 -0.02746712 -0.115901425 -0.09367337 -0.07096376 0.0009354641 -0.06591755
-0.11697424 0.023003051 0.083060786 0.04368883 0.1189477 0.06997465 0.098641396 -0.06621207
0.04908712 -0.027461996 0.02196958 -0.09086837 0.15269512 -0.06940621 -0.018377956 -0.0911368
-0.11468638 -0.06814875 -0.031581182 0.102356255 -0.12040911 -0.011319617 0.022670237 0.1003688
-0.013667374 -0.015030091 0.035418827 -0.11611253 -0.13358848 0.08548772 0.08998896 -0.053231396
0.13998598 0.1374406 -0.11431138 -0.005440198 -0.0820418 0.025251856 -0.07753844 -0.0800906
-0.116575494 -0.009353553 -0.13161539 0.017456995 0.026958335 -0.03279842 0.09723133 -0.1216858
-0.029628541 0.04309798 0.05481844 0.07503812 0.093390085 0.0618731 -0.041901436 -0.15001501
-0.13148805 -0.0458689 0.10017627 0.08282457 0.073404156 -0.13336991 -0.026017208 0.05979938
0.08576403 -0.04078233 -0.0049617994 -0.01232744 0.031856798 0.035563476 0.10613647 0.041682564
-0.14141354 0.028998977 -0.05807672 -0.08104862 -0.040982757 0.08936861 -0.09124056 0.060923133
0.02179815 0.00018104193 -0.11425563 0.08448427 0.11942486 0.124122046 0.020566309 -0.0053019575
0.09328598 -0.13726594 -0.12720534 -0.0075544906 -0.07889216 -0.035110615 0.10102966 0.12158818
0.046764035 -0.041669443 -0.03067695 0.10517555 -0.008873743 0.03550624 0.08435388 0.05173311
0.12982976 0.121429965 -0.0028598486 -0.1274325 0.027809085 -0.04569577 -0.13212909 -0.08339263
0.03173454 0.040264703 0.033205897 0.09940468 0.105981946 -0.015368998 0.105357595 0.0404665
0.017252827 -0.026916523 0.06587469 -0.028491639 0.105165854 -0.15985294 -0.056626823 -0.13838348
-0.10235963 -0.040827405 0.103675306 0.07533158 -0.11351633 -0.0042151604 -0.1371177 -0.08754694
0.13555023 -0.16202891 0.08319642 -0.09599284 -0.019052448 0.040670782 -0.00680192 0.071044326
0.043213677 0.09545598 0.017060243 -0.014274146 -0.073070355 0.06291445 0.066239424 -0.002369606
0.06502102 -0.099704996 0.029887728 0.013867968 0.009307244 0.13717982 0.029414684 -0.06405781
-0.023300355 0.04669142 -0.08212966 0.07806808 -0.11110671 -0.1125039 -0.09562917 -0.025041116
0.10030872 0.05590294 0.020528713 -0.0136722755 -0.08213993 0.113363646 0.12100554 0.10097337
00000000: da5a 50bd 29c1 98bd 0b1b 36bd e1bd 39bd
00000010: 26a6 72bd 5f5b b8bc 4916 19be e2f7 cc3d
00000020: 685c 38bd 5026 b73b 32c3 053e 74f6 97bc
00000030: 3065 d73d 1b26 f53c fe2b 5d3d 9119 ba3c
00000040: f2b4 e5bd 7b3a 2fbd 0788 f93d b93b 41bd
00000050: 6a9e 65bd c80d 3c3c add1 8dbc c249 f53b
00000060: a248 f13d 79dc dc3d f18f debd 2ac0 913d
00000070: ed7b a2bc cde4 d93d 6c78 e5bb 3962 c8bd
00000080: 76a7 a73d bed8 f93d 5d80 f83d f8ce 4c3d
00000090: a5c0 4bbd e6f5 8dba 8976 a33d 2173 00be
000000a0: 4794 e2bd f0b4 643d b617 07be c849 013d
000000b0: 7ef6 10bc fa5d b7bc 9cf6 923b 3ed6 0bbe
000000c0: 1e20 453d aefa b5bd ba67 55bc a6da e03d
000000d0: 534a 6ebd 35bd 093e 6658 863c 61d6 833d
000000e0: 0f87 023e 8035 043d 53e6 353d 65a1 023e
000000f0: e61f bebd eb4d c9bd 55b2 ddbc da81 bdbc
00000100: bf62 543d 00a3 9bba a5f4 d23d 8610 5f3c
00000110: a515 bf3d b1b0 9dbd 1ab1 fbbb 654c 723c
00000120: 465f 153e 2f44 b83d ba02 e1bc ba5d edbd
00000130: d3d7 bfbd 7355 91bd ef39 753a c8ff 86bd
00000140: 3190 efbd e570 bc3c c61b aa3d 0ff3 323d
00000150: da9a f33d df4e 8f3d 8004 ca3d 329a 87bd
00000160: 930f 493d fbf7 e0bc 8cf9 b33c 3219 babd
00000170: 1c5c 1c3e d824 8ebd 5e8d 96bc eea5 babd
00000180: b1e0 eabd 9291 8bbd 455b 01bd 28a0 d13d
00000190: 0d99 f6bd ea75 39bc efb6 b93c 288e cd3d
000001a0: 1fed 5fbc c540 76bc 5513 113d 68cc edbd
000001b0: 6bcb 08be 3014 af3d 224c b83d 2a09 5abd
000001c0: 7c58 0f3e 3bbd 0c3e 161c eabd b043 b2bb
000001d0: 8805 a8bd fbdc ce3c 79cc 9ebd 8a06 a4bd
000001e0: 22bf eebd a53f 19bc 2fc6 06be f901 8f3c
000001f0: bad7 dc3c a357 06bd 3821 c73d 6836 f9bd
00000200: 8eb7 f2bc 8287 303d 4d89 603d 96ad 993d
00000210: 4d43 bf3d a66e 7d3d d7a0 2bbd 899d 19be
00000220: cea4 06be 07e1 3bbd 3729 cd3d ee9f a93d
00000230: eb54 963d 1f92 08be 0a22 d5bc 32f0 743d
00000240: 0da5 af3d 5f0b 27bd 9796 a2bb 08f9 49bc
00000250: 467c 023d 02ab 113d 145e d93d 56bb 2a3d
00000260: b6ce 10be 438f ed3c dbe1 6dbd d2fc a5bd
00000270: 89dd 27bd e406 b73d 55dc babd 898a 793d
00000280: 0992 b23c 13d6 3d39 dbfe e9bd 1706 ad3d
00000290: 0595 f43d b333 fe3d ad7a a83c 0bbc adbb
000002a0: b80c bf3d 718f 0cbe 1e42 02be a98b f7bb
000002b0: 3692 a1bd 26d0 0fbd a3e8 ce3d 3903 f93d
000002c0: a58b 3f3d 94ad 2abd 3a4e fbbc 4766 d73d
000002d0: 2d63 11bc fe6e 113d bac1 ac3d 19e6 533d
000002e0: 18f2 043e 46b0 f83d 4c6c 3bbb aa7d 02be
000002f0: e1cf e33c 7d2b 3bbd d94c 07be c1c9 aabd
00000300: 14fc 013d 9aec 243d e802 083d ae94 cb3d
00000310: 100d d93d 40ce 7bbc b9c5 d73d 33c0 253d
00000320: cd55 8d3c 0a80 dcbc 4fe9 863d 4c67 e9bc
00000330: 3261 d73d 7db0 23be 87f1 67bd 66b4 0dbe
00000340: eda1 d1bd a33a 27bd b853 d43d 7247 9a3d
00000350: 407b e8bd 541f 8abb 9568 0cbe cf4b b3bd
00000360: aecd 0a3e e8ea 25be e262 aa3d e597 c4bd
00000370: e113 9cbc 6896 263d a4e2 debb b07f 913d
00000380: d300 313d 6d7e c33d ecc1 8b3c 1cde 69bc
00000390: e9a5 95bd 4bd9 803d 89a8 873d 644b 1bbb
000003a0: be29 853d 2232 ccbd 1cd7 f43c 7936 633c
000003b0: 697d 183c de78 0c3e 10f7 f03c be30 83bd
000003c0: 63e0 bebc 813f 3f3d 9833 a8bd 28e2 9f3d
000003d0: ea8b e3bd 7268 e6bd 3ad9 c3bd 0723 cdbc
000003e0: a86e cd3d 7bfa 643d d52b a83c ae01 60bc
000003f0: fb38 a8bd 332b e83d c1d1 f73d 20cb ce3d

localization.0.bias f4 [8]
-0.024586521 -0.07153568 0.055708557 -0.15049428 -0.08661788 0.013089378 0.10631549 0.11540424
00000000: ac69 c9bc 4c81 92bd a82e 643d 2c1b 1abe
00000010: b764 b1bd d574 563c f0bb d93d 0f59 ec3d

localization.3.weight f4 [10, 8, 5, 5]
-0.0115246 0.063595064 0.006153612 0.03680324 -0.04165702 -0.07775204 -0.048458915 0.0011587396
0.001103403 -0.020822866 0.06717703 0.028559748 0.057755604 -0.042820986 -0.02672741 0.029327834
0.02169064 0.03346296 -0.05562686 0.031099822 -0.009141469 0.06440667 0.06786901 0.050456516
-0.014655838 0.007328668 0.0722718 0.019056518 0.03142168 -0.062416196 -0.0052974573 -0.04487684
-0.079303764 -0.07390688 -0.052954454 -0.0620027 -0.024862794 -0.07294194 -0.042418823 -0.0013059671
-0.07691512 -0.018498749 -0.08984109 0.015346288 0.0060076895 -0.013644239 -0.061553903 0.010843942
0.028591285 0.020810701 -0.022114586 -0.04665441 -0.054716833 -0.00031581862 -0.0374647 -0.0136901755
0.07161886 0.037584454 0.026874637 -0.0059506204 -0.012438426 -0.0033859035 -0.046913773 -0.07129214
-0.024915878 -0.06318062 -0.0044879294 -0.07868244 0.046615507 0.029878587 -0.075862154 0.052767966
0.039636105 0.0019301281 0.034020208 -0.04835404 0.010769264 0.061344277 -0.063315354 0.016559405
-0.008446605 0.013078322 0.029197384 0.03383484 -0.03708031 -0.020431874 0.0044059465 -0.025694635
0.009055864 0.052795585 0.035194173 -0.003798678 0.03572448 0.035959896 0.015597655 0.015453004
0.0091750305 0.017468842 0.02703337 -0.06734931 -0.029338142 -0.0720067 -0.060317434 -0.026608737
-0.047804125 0.010400429 -0.05969503 -0.0067394706 0.04429802 0.009404643 0.051259622 0.070711665
0.054023243 0.0065296907 0.05221361 -0.027979068 -0.05943936 -0.06200311 -0.063705824 0.044458225
0.0074910554 -0.06293745 0.059436668 -0.021197129 -0.058413167 -0.012305517 0.01005715 0.057780527
-0.06705108 0.011755569 0.040467232 -0.020094033 -0.043955687 -0.075286634 -0.047386095 0.06391565
0.055811185 -0.005456349 0.03953967 -0.07586929 0.06321605 -0.045460165 0.027195523 -0.07432516
-0.023139698 0.038105324 0.0065232147 0.016843328 0.045322455 -0.004080261 0.022148095 0.03876905
-0.04949806 0.0010029186 0.06176152 0.025012784 0.041915137 -0.039800927 0.0014040465 0.011138975
-0.015144928 -0.01605692 -0.041872624 0.023683878 -0.06302666 -0.047232363 0.0019392201 -0.0068129012
0.010809874 0.00089981913 -0.023247909 -0.054615557 0.017834602 0.031282596 -0.051750563 0.0135403415
0.012014494 -0.004751258 0.047721703 -0.024493895 0.03376736 0.053358927 0.024689926 0.044548485
-0.073160864 -0.056229685 -0.05639897 -0.043080233 0.04850196 -0.09396101 0.028047629 0.023503348
0.050232675 -0.018319128 -0.032641344 0.03671122 0.029312268 0.015292559 -0.079120435 -0.085799396
-0.024993593 -0.033121053 -0.030495187 0.045651525 0.08372594 -0.072513334 -0.05528243 0.06588856
-0.04794443 0.011682968 0.011876775 -0.06551637 -0.05566387 0.0024882786 -0.010107613 -0.06128237
-0.059827212 -0.054266695 0.016617535 0.06429142 -0.0394594 -0.026703952 0.036824424 0.052286714
-0.0065427544 0.045869812 -0.04695173 -0.02059632 0.0018238485 -0.06774196 0.009183079 -0.039585274
-0.030312251 0.04473933 0.06819024 0.021512015 -0.054205444 0.0013924753 -0.01712782 -0.0443342
0.014451884 0.06224876 0.006991527 0.057751413 0.0610338 -0.06457045 0.03948686 0.07525269
0.027649954 -0.035228807 0.03370471 0.035713047 -0.036478844 -0.00406687 0.068395115 -9.842414e-05
00000000: add1 3cbc 213e 823d 3da4 c93b ffbe 163d
00000010: 8da0 2abd 763c 9fbd db7c 46bd d9e0 973a
00000020: 10a0 903a b794 aabc 1c94 893d 22f6 e93c
00000030: 2491 6c3d 0f65 2fbd 71f3 dabc ed40 f03c
00000040: 92b0 b13c 7510 093d fed8 63bd 0ec5 fe3c
00000050: 1ac6 15bc a5e7 833d e8fe 8a3d 7eab 4e3d
00000060: 0a1f 70bc 5325 f03b 3d03 943d 6a1c 9c3c
00000070: 05b4 003d 20a8 7fbd 4b96 adbb c7d0 37bd
00000080: 036a a2bd 7e5c 97bd c5e6 58bd 8bf6 7dbd
00000090: 0fad cbbc 9562 95bd 5cbf 2dbd fc2c abba
000000a0: ad85 9dbd b08a 97bc 9bfe b7bd ff6e 7b3c
000000b0: 27dc c43b 168c 5fbc f21f 7cbd caaa 313c
000000c0: 4538 ea3c 347b aa3c a629 b5bc b218 3fbd
000000d0: c21e 60bd 7594 a5b9 9674 19bd c24c 60bc
000000e0: e9ac 923d 28f2 193d 3328 dc3c 6cfd c2bb
000000f0: 8aca 4bbc 09e6 5dbb a828 40bd 9d01 92bd
00000100: 621c ccbc d764 81bd 7b0f 93bb 4224 a1bd
00000110: e7ef 3e3d f0c3 f43c 9e5d 9bbd 3923 583d
00000120: 7859 223d 5afc fc3a c658 0b3d e30e 46bd
00000130: 9171 303c 2344 7b3d 7bab 81bd 97a7 873c
00000140: a163 0abc 7546 563c 5a2f ef3c 6796 0a3d
00000150: 86e1 17bd bf60 a7bc c25f 903b 8e7d d2bc
00000160: 0c5f 143c 2f40 583d c427 103d 3ef3 78bb
00000170: d553 123d af4a 133d 4f8d 7f3c 992e 7d3c
00000180: de52 163c d11a 8f3c 1675 dd3c 6fee 89bd
00000190: 8b56 f0bc 4078 93bd 6a0f 77bd 91fa d9bc
000001a0: 42ce 43bd 9066 2a3c c782 74bd c7d6 dcbb
000001b0: d771 353d ef15 1a3c 9cf5 513d 47d1 903d
000001c0: 7a47 5d3d 04f7 d53b f0dd 553d 5c34 e5bc
000001d0: b076 73bd f9f6 7dbd 3378 82bd d419 363d
000001e0: 8777 f53b 5ae5 80bd dd73 733d 9aa5 adbc
000001f0: a542 6fbd 149d 49bc bfc6 243c 46ab 6c3d
00000200: 1452 89bd 6e9a 403c f8c0 253d 3e9c a4bc
00000210: e10a 34bd e12f 9abd ec17 42bd 35e6 823d
00000220: 459a 643d 2ccb b2bb 59f4 213d 5c61 9bbd
00000230: 6b77 813d 7034 3abd 25c9 de3c ca37 98bd
00000240: 778f bdbc 5414 1c3d b1c0 d53b 05fb 893c
00000250: 0aa4 393d b6b3 85bb ec6f b53c 4ccc 1e3d
00000260: 7abe 4abd 5d74 833a a6f9 7c3d 9ce7 cc3c
00000270: 35af 2b3d 4c06 23bd fc07 b83a 3f80 363c
00000280: 6f22 78bc cd89 83bc a182 2bbd b104 c23c
00000290: 1f14 81bd b976 41bd 6e2d fe3a c23e dfbb
000002a0: e61b 313c d7e1 6b3a 6672 bebc 90b4 5fbd
000002b0: df19 923c 2e22 003d 66f8 53bd 4fd8 5d3c
000002c0: 71d8 443c 71b0 9bbb d577 433d 6ca7 c8bc
000002d0: a54f 0a3d e48e 5a3d 8742 ca3c 7978 363d
000002e0: 5dd5 95bd 1951 66bd 9b02 67bd e674 30bd
000002f0: fea9 463d a16e c0bd 24c4 e53c 188a c03c
00000300: c7c0 4d3d ff11 96bc eeb2 05bd 815e 163d
00000310: 4820 f03c a48d 7a3c e509 a2bd 98b7 afbd
00000320: 5dbf ccbc f1a9 07bd 0bd1 f9bc 18fd 3a3d
00000330: 8178 ab3d df81 94bd d46f 62bd 95f0 863d
00000340: 6161 44bd eb69 3f3c ce96 423c 722d 86bd
00000350: ccff 63bd 6312 233b 679a 25bc 3903 7bbd
00000360: 610d 75bd c146 5ebd 7f21 883c 38ab 833d
00000370: 2ea0 21bd 3fc2 dabc 35d5 163d 982a 563d
00000380: 9a64 d6bb fce1 3b3d 7550 40bd 9db9 a8bc
00000390: 330e ef3a 4cbc 8abd a074 163c 2b24 22bd
000003a0: 6651 f8bc 9640 373d 53a7 8b3d f739 b03c
000003b0: 8706 5ebd b883 b63a a44f 8cbc c797 35bd
000003c0: 98c7 6c3c 8ef8 7e3d 2e19 e53b bf8c 6c3d
000003d0: 94fe 793d 833d 84bd f9bc 213d 151e 9a3d
000003e0: 2882 e23c 154c 10bd f30d 0a3d d847 123d
000003f0: d76a 15bd 6143 85bb bd12 8c3d 0f69 ceb8
