deep_emotion-500-128-0.005_78percent.pt (torch, 274522 bytes, 24 tensors)

conv1.weight f4 [10, 1, 3, 3]
0	0xbea90834	-0.3301407
1	0xbe584eca	-0.21123806
2	0xbe2e8f6a	-0.17046896
3	0xbe9a934e	-0.3019051
4	0x3d5c4b1f	0.05378258
5	0x3c0d0753	0.008607703
6	0xbe9d6ec2	-0.30748564
7	0xbd25bc72	-0.04046292
8	0xbedfb2ef	-0.43691203
9	0x3e8ff7cc	0.28118742
10	0xbe5ecf76	-0.21758828
11	0xbeae2647	-0.34013578
12	0x3d03ba10	0.032159865
13	0x3e9cee37	0.30650494
14	0x3ec11cbd	0.37717238
15	0xbeee6979	-0.46564844
16	0xbea38ea2	-0.31944758
17	0xbde9faef	-0.11424815
18	0xbeac3f59	-0.3364208
19	0xbe360508	-0.17775357
20	0x3e09b61c	0.13448375
21	0x3eadbe62	0.33934313
22	0xbe2d875c	-0.16946167
23	0xbea83947	-0.328562
24	0x3d13ba08	0.036066085
25	0x3e8c1247	0.27357695
26	0xbe424a60	-0.18973684
27	0xbe50e5f9	-0.20400228
28	0xbed089ec	-0.40730226
29	0x3d16c534	0.03680916
30	0x3ec31842	0.38104445
31	0xbd8348c8	-0.06410366
32	0xbe4849f7	-0.19559465
33	0xbe5a14b6	-0.21296963
34	0x3e91e760	0.28496838
35	0x3eb94645	0.36186424
36	0x3e96f7e7	0.2948601
37	0x3e998bac	0.29989374
38	0x3e048726	0.1294218
39	0x3e87fb82	0.26559073
40	0x3e93577c	0.28777683
41	0x3e440450	0.1914227
42	0x3ec82a5d	0.3909482
43	0x3e2751fc	0.16339868
44	0xbe8f8956	-0.28034467
45	0x3e99805b	0.2998074
46	0xbe3e2736	-0.18569645
47	0xbd0fab16	-0.03507527
48	0xbe85919d	-0.26087657
49	0xbd10c822	-0.03534711
50	0x3de63cf2	0.11242093
51	0xbe2aac4e	-0.16667292
52	0x3dc14bf7	0.09438317
53	0x3eab6715	0.33477083
54	0x3e3088c6	0.17239675
55	0xbe474920	-0.19461489
56	0xbe10cf23	-0.14141516
57	0x3e44e5e7	0.19228326
58	0xbe5362ad	-0.2064311
59	0xbeb1d55a	-0.34733087
60	0xbed16faa	-0.40905505
61	0xbdbe7518	-0.092996776
62	0x3e76cb27	0.24100934
63	0xbeb5a8bf	-0.35480306
64	0x3da85603	0.082195304
65	0x3da20b87	0.07912355
66	0x3e297a73	0.16550617
67	0xbca29365	-0.019845674
68	0xbe0639d8	-0.13108003
69	0xbcd69596	-0.026194375
70	0x3eb2382a	0.34808475
71	0x3eada3be	0.33913988
72	0x3e4411ed	0.19147463
73	0xbe1c77f7	-0.15280138
74	0xbd74607d	-0.05966233
75	0x3e382dd9	0.1798624
76	0x3db5fdd7	0.08886307
77	0x3e69b860	0.2282424
78	0xbe4ece75	-0.20195945
79	0xbe961e27	-0.2931988
80	0x3ea53023	0.32263288
81	0x3d182276	0.03714224
82	0xbea03ce6	-0.31296462
83	0xbe0fb358	-0.14033258
84	0xbe8af08e	-0.27136654
85	0x3e51b099	0.20477523
86	0x3e8e60cd	0.27808228
87	0x3e63fea8	0.22265112
88	0x3ed6ef65	0.4197952
89	0x3e7c1f2e	0.24621269

conv1.bias f4 [10]
0	0xbe8efc2b	-0.27926764
1	0xbe587c15	-0.21141084
2	0x3e2e9667	0.17049561
3	0xbe5b720c	-0.21430224
4	0xbda6acd8	-0.08138436
5	0x3d117031	0.035507385
6	0xbdd21862	-0.10258557
7	0xbe8de7bf	-0.2771587
8	0x3ce0474b	0.027377745
9	0x3d78bc88	0.060726672

conv2.weight f4 [10, 10, 3, 3]
0	0x3df379ef	0.11888491
1	0xbe8395e4	-0.25700295
2	0xbed1325a	-0.40858728
3	0x3d8193e4	0.06327036
4	0xbdacb6d9	-0.08433313
5	0xbf357c33	-0.7089264
6	0xbdba0738	-0.09083408
7	0xbcf5b586	-0.029993784
8	0xbea2cdfc	-0.3179778
9	0x3bda698a	0.0066654133
10	0x3df816af	0.121137016
11	0x3e76f39a	0.24116364
12	0xbe2d883f	-0.16946505
13	0xbec9f0f5	-0.39441648
14	0x3d09c7b3	0.033637714
15	0xbe53e17e	-0.20691487
16	0xbe52bebe	-0.20580575
17	0xbe899cf0	-0.26877546
18	0xbe586226	-0.2113119
19	0xbe8d72d8	-0.2762668
20	0xbea28058	-0.31738544
21	0x3e74d885	0.2391072
22	0x3d5195f6	0.051168405
23	0xbddab434	-0.10678902
24	0x3d471e66	0.048612975
25	0x3df207e1	0.11817909
26	0x3e2f255f	0.171041
27	0xbd07b483	-0.033131134
28	0x3e1f1b94	0.15537864
29	0xbd4ffddc	-0.05077921
30	0xbd7719ef	-0.060327467
31	0x3d86f07d	0.06588838
32	0x3da25015	0.07925431
33	0x3e4db88a	0.20089927
34	0xbc804b62	-0.015660945
35	0x3e0e19c2	0.13877013
36	0xbd1bf4e8	-0.038075358
37	0x3bda7187	0.0066663655
38	0x3da6b98c	0.08140859
39	0x3d0fdc25	0.035122056
40	0xbd4d0b86	-0.050059818
41	0x3aaee275	0.0013342636
42	0x3d5ebf35	0.054381568
43	0xbcc8cc1c	-0.02451139
44	0xbe0bbb62	-0.136457
45	0xbd3084f4	-0.043095544
46	0xbd79e40f	-0.06100851
47	0xbce4325c	-0.027856044
48	0xbe45ffd3	-0.1933587
49	0x3dc3eb75	0.09566394
50	0x3dc0d569	0.09415705
51	0xbdd8f3d4	-0.105933815
52	0xbea82c93	-0.32846507
53	0xbed7e3d8	-0.42166018
54	0x3709b2f6	8.207504e-06
55	0xbd5b4f79	-0.053542588
56	0xbeab5075	-0.3345982
57	0x3d491e09	0.04910091
58	0xbed7c66d	-0.42143574
59	0xbf4c55f9	-0.79818684
60	0xbe45d9c5	-0.19321354
61	0xbdb83e6f	-0.08996283
62	0xbe8aa155	-0.27076212
63	0x3da4051a	0.080087855
64	0xbe322b67	-0.17399369
65	0xbe676ef1	-0.22600915
66	0xbe3e272e	-0.18569633
67	0xbda0ebc6	-0.0785747
68	0x3ee3f7f2	0.44525105
69	0x3d8f73c9	0.07004506
70	0x3a669103	0.0008795412
71	0xbd4310f5	-0.047623593
72	0xbddd6781	-0.108107574
73	0xbd962944	-0.073320895
74	0x3e328b69	0.17435993
75	0xbe85e2b3	-0.2614952
76	0xbec9810e	-0.39356273
77	0xbeb6f5a7	-0.35734293
78	0xbd82675f	-0.06367373
79	0xbccb1cc0	-0.024793983
80	0x3ddfd6bc	0.10929629
81	0xbe18adfd	-0.14910121
82	0xbe8b38fd	-0.27191916
83	0xbe8265cd	-0.25468293
84	0xbe22898c	-0.15872782
85	0xbc9e9650	-0.019358784
86	0xbd81b2b3	-0.06332912
87	0x3e669f56	0.2252172
88	0xbcba9eb1	-0.022780748
89	0xbcd5dc53	-0.026106035
90	0xbdc44a67	-0.095845036
91	0x3cfb36bb	0.030665746
92	0x3d982164	0.07428244
93	0xbdbcc704	-0.09217647
94	0xbd9821f9	-0.07428355
95	0x3c5dd070	0.013538465
96	0x3ca89e02	0.020583156
97	0x3d108e3d	0.0352919
98	0xbba74619	-0.005104792
99	0x3c26f003	0.010189059
100	0x3d6bf67a	0.057608105
101	0xbdb31a30	-0.08745229
102	0xbe11565b	-0.14193098
103	0xbd451cb3	-0.048123073
104	0x3dd0d998	0.10197753
105	0xbd19f45c	-0.037586555
106	0xbd1eb61e	-0.0387479
107	0xbb9e55ec	-0.00483202
108	0x3ce2d612	0.027689967
109	0xbdbb8ed0	-0.09158099
110	0x3d95a8b7	0.073075704
111	0xbdf96edd	-0.121793486
112	0xbd8fa48f	-0.07013809
113	0x3d7b4794	0.06134756
114	0xbdf867aa	-0.12129147
115	0x3d570ec2	0.05250431
116	0xbcda28b3	-0.026630735
117	0x3ce1c576	0.027559977
118	0xbc94ee8a	-0.01818015
119	0xbb6248f6	-0.0034528351
120	0xbd6db640	-0.058035135
121	0xbcc08016	-0.023498576
122	0x3c645aec	0.013937693
123	0x3d3375ab	0.04381339
124	0xbd062abc	-0.0327556
125	0x3d9ef8e9	0.077623196
126	0x3d0b03f7	0.033939328
127	0xbc02d004	-0.007984165
128	0xbccefc98	-0.02526693
129	0xbcfcdbb0	-0.030866474
130	0xbdd86d08	-0.10567671
131	0xbd09c4a8	-0.03363481
132	0x3baa423b	0.0051958836
133	0xbe079a53	-0.13242464
134	0xbd728202	-0.059206016
135	0xbc47a603	-0.012185576
136	0xbd8c31ee	-0.06845461
137	0xbda27989	-0.07933337
138	0xbd773f32	-0.060363002
139	0xbe0642eb	-0.13111465
140	0xbab11a89	-0.0013511936
141	0xbdea8074	-0.11450282
142	0x3ce2aee1	0.02767128
143	0xb951e6a4	-0.00020017714
144	0x3d95d35f	0.073157065
145	0x3d3a29ab	0.045449894
146	0xbb57a73b	-0.0032906074
147	0x3d699004	0.05702211
148	0xbd83a17d	-0.06427286
149	0x3d9a973f	0.07548379
150	0x3bd931e5	0.0066282623
151	0xbd86526d	-0.0655869
152	0xbdabbb17	-0.08385294
153	0x3d99e07a	0.07513519
154	0x3b718e60	0.0036858544
155	0xbb77b476	-0.0037796772
156	0x3dfbe8b9	0.12300248
157	0x3de8a8a3	0.1136029
158	0xbb0d1b16	-0.0021531037
159	0x3e25bf34	0.1618622
160	0x3d83bcfe	0.06432532
161	0x3d33aa40	0.043863535
162	0xbdf7cacc	-0.12099227
163	0xbd8c7c26	-0.06859617
164	0xbd49ce54	-0.049269035
165	0xbd884e1e	-0.06655525
166	0x3c400c05	0.011721616
167	0x3d5d15ea	0.053975977
168	0x3d3fba70	0.04680866
169	0x3d51e4ef	0.05124372
170	0x3d5c0df1	0.053724233
171	0xbda539de	-0.08067678
172	0xbb8e411d	-0.004341258
173	0xbd1c252c	-0.038121387
174	0xbb614d9e	-0.003437854
175	0x3c222723	0.009897026
176	0xbc8ea88a	-0.01741435
177	0x3c0d3905	0.008619552
178	0xbe022636	-0.12709889
179	0x3aeff896	0.0018308337
180	0xbd6e1b70	-0.058131635
181	0x3bedcbb4	0.0072569493
182	0xbdf62c81	-0.12020207
183	0xbdc96b29	-0.09834892
184	0xbdb14f3a	-0.086576894
185	0xbcdc3d0f	-0.026884584
186	0xbf149274	-0.5803597
187	0xbf01bc8c	-0.50678325
188	0xbe81f78b	-0.25384173
189	0xbe55a1b2	-0.20862463
190	0xbea74448	-0.32669282
191	0xbe3501b3	-0.1767643
192	0x3e0a77e2	0.13522294
193	0xbc65f9be	-0.014036594
194	0xbde66033	-0.11248817
195	0xbea25495	-0.31705156
196	0xbe70762f	-0.23482583
197	0xbdd27b75	-0.10277454
198	0x3e1d3f97	0.15356289
199	0x3d89977a	0.06718345
200	0xbd04cfc1	-0.032424692
201	0x3cb45bd0	0.022016436
202	0x3d7ad9af	0.061242756
203	0x3e12403c	0.14282316
204	0xbdffdb8b	-0.124930464
205	0x3e099dd9	0.1343912
206	0xbdf0b244	-0.117527515
207	0x3e5a88e9	0.2134129
208	0x3e4fef85	0.20306213
209	0xbdc36f22	-0.09542681
210	0x3cb90d1d	0.02258926
211	0x3ddaee71	0.1069001
212	0x3e9a625c	0.30153167
213	0xbe14dcea	-0.14537397
214	0xbde9d342	-0.11417247
215	0x3e40ed36	0.18840489
216	0xbd8011d7	-0.06253403
217	0x3d23af21	0.039961938
218	0xbde6077f	-0.112318985
219	0x3d34c02e	0.04412859
220	0x3d23d4bd	0.039997805
221	0x3c95bc76	0.018278342
222	0xbccb39c5	-0.02480782
223	0x3d957670	0.07297981
224	0x3c3ec828	0.011644401
225	0xbdb2b35c	-0.08725616
226	0x3e01a655	0.12661107
227	0xbe1458ee	-0.14487049
228	0x3e3d0aa5	0.18461092
229	0x3e66f4d5	0.22554334
230	0xbe767330	-0.24067378
231	0x3dfe9337	0.12430423
232	0xbdb4300c	-0.08798227
233	0x3cb12249	0.021622794
234	0x3df679e2	0.12034966
235	0xbdbba241	-0.09161807
236	0xbe3331f6	-0.17499527
237	0x3e429d12	0.1900523
238	0xbda3f1ca	-0.08005102
239	0x3e0374dd	0.12837549
240	0xbe87b306	-0.26503772
241	0xbeb05292	-0.34437996
242	0xbe75f588	-0.24019444
243	0x3e566327	0.20936261
244	0x3e7962c0	0.24354076
245	0xbd641cc9	-0.055691514
246	0xbd4cd20b	-0.050005
247	0xbe938d70	-0.28818846
248	0x3d9c9d55	0.07647196
249	0x3d96c5b3	0.07361927
250	0x3cd07759	0.025447534
251	0x3d38ea5e	0.045145385
252	0xbbae6ea3	-0.0053232475
253	0x3d7b0691	0.06128556
254	0xbda520c2	-0.08062889
255	0x3cafa225	0.021439621

conv2.bias f4 [10]
0	0xbd8b4382	-0.067999855
1	0xbe029d6e	-0.12755367
2	0xbcb05b2f	-0.021527855
3	0x3de6c322	0.112676874
4	0xbd948832	-0.0725254
5	0xbc88978b	-0.016673824
6	0xbd5c1738	-0.05373308
7	0xbc220a00	-0.0098900795
8	0xbdd8e627	-0.10590773
9	0xbc335bf2	-0.010947214

conv3.weight f4 [10, 10, 3, 3]
0	0xbe20d718	-0.15707052
1	0xbc7d9055	-0.015476306
2	0x3eabbd7a	0.33542997
3	0x3e0b8edd	0.13628717
4	0xbe1d6805	-0.15371712
5	0xbe30cd2f	-0.17265771
6	0xbbe75b18	-0.00706042
7	0x3d70270e	0.058630995
8	0x3e1b6959	0.15176906
9	0x3d1a6e7c	0.037703022
10	0xbb9abe89	-0.0047224206
11	0xbc628cf3	-0.01382755
12	0x3dd67410	0.10471356
13	0x3a9abaa5	0.0011804892
14	0xbdcb68f6	-0.09932129
15	0xbd6ea415	-0.05826195
16	0x3dfc015c	0.12304947
17	0x3cd3d2e8	0.025857404
18	0xbe382eb0	-0.1798656
19	0x3dde5d96	0.10857694
20	0x3e898152	0.26856476
21	0xbcffc924	-0.031223841
22	0xbe3e3c00	-0.18577576
23	0x3de4f435	0.11179391
24	0x3e0804a7	0.13283025
25	0x3dc53823	0.09629848
26	0x3e12a107	0.1431924
27	0xbe8f4280	-0.27980423
28	0xbe691ff9	-0.22766103
29	0xbda7b8ce	-0.081895456
30	0x3eb14f07	0.34630606
31	0x3c69152e	0.014226241
32	0xbe9ed103	-0.31018838
33	0x3c957d7a	0.018248308
34	0x3e21b568	0.15791857
35	0x3d008ef9	0.03138635
36	0xbc423316	-0.011853
37	0xbdb90dce	-0.09035836
38	0xbddfb2ba	-0.10922761
39	0xbd978bde	-0.073997244
40	0xbc5ed0e2	-0.013599606
41	0xbe397ceb	-0.18114059
42	0x3de83326	0.11337881
43	0x3e01d21c	0.12677807
44	0x3d29e925	0.04148211
45	0xbdbb7a16	-0.091541454
46	0x3d41bc4a	0.047298707
47	0x3d9d1653	0.07670274
48	0x3d40a4bc	0.047032103
49	0xbdd5bfea	-0.10436995
50	0xbe1ee777	-0.15517984
51	0x3e832bea	0.2561944
52	0xbc28a03a	-0.010292107
53	0xbda80856	-0.08204715
54	0x3d334b48	0.043772966
55	0x3ca60adc	0.02026885
56	0xbd5bb03e	-0.053634875
57	0xbc62800b	-0.013824473
58	0xbd9e3dbd	-0.077266194
59	0x3d82b7b7	0.06382697
60	0x3d635a75	0.05550619
61	0x3ded0677	0.11573499
62	0xbd54103a	-0.051773287
63	0xbd240ae9	-0.040049467
64	0x3be4bc15	0.006980429
65	0xbdd3f7a1	-0.10349966
66	0x3c0fd114	0.008777875
67	0xbd360993	-0.044442724
68	0xbdf3c777	-0.11903279
69	0x3c0d7b67	0.008635378
70	0x3ca28a8e	0.019841459
71	0x3d29b540	0.04143262
72	0x3d79b55d	0.060963977
73	0x3d174a39	0.03693602
74	0xbda9dd8b	-0.08294209
75	0x3da36067	0.07977372
76	0x3ca4c093	0.020111358
77	0x3d4d6c8d	0.05015235
78	0xbc847073	-0.016166901
79	0x3d4678a0	0.04845488
80	0x3e0429e8	0.12906611
81	0xbdff466c	-0.12464604
82	0xbc9b6c90	-0.018972665
83	0xbdef1db8	-0.1167559
84	0x3be527dd	0.0069932775
85	0xbe856425	-0.26052967
86	0xbe8b6450	-0.2722497
87	0x3dabfa36	0.08397333
88	0x3db6b92a	0.08922036
89	0x3e554a9e	0.20829245
90	0x3d2b6e93	0.0418535
91	0xbdba685e	-0.09101938
92	0x3c10a74f	0.008828952
93	0xbd6d74b9	-0.057972644
94	0xbdf3b899	-0.119004436
95	0xbbf1bc40	-0.0073771775
96	0xbd3a2998	-0.045449823
97	0x3d2a4da4	0.04157795
98	0xbdce7120	-0.10080171
99	0xbd9eceb8	-0.07754272
100	0xbcabbebd	-0.020964975
101	0xbd89e44a	-0.06732996
102	0xbdb9d250	-0.09073317
103	0xbe046ef0	-0.12932944
104	0x3c36fac0	0.011168182
105	0x3dc01e66	0.09380798
106	0x3d660bcd	0.056163598
107	0x3d742af1	0.059611265
108	0x3bb3acf4	0.005483264
109	0xbaa2431f	-0.0012379623
110	0x3cb02a4e	0.021504547
111	0x3cf001e5	0.029297778
112	0x3d265c46	0.040615343
113	0xbe0cf7c5	-0.13766392
114	0xbe04a749	-0.12954439
115	0xbdb87c78	-0.090081155
116	0xbc536230	-0.012901828
117	0xbdf266c1	-0.11836005
118	0xbc6bac8a	-0.014384398
119	0x3c3284b8	0.0108959
120	0x3c64e8bd	0.013971505
121	0x3cbe7d15	0.023253003
122	0x3c8e28cb	0.017353436
123	0x3e198a1d	0.14994092
124	0x3ca58c15	0.020208398
125	0x3e0feddc	0.1405558
126	0x3c68a42d	0.014199299
127	0x3d36f795	0.044669706
128	0xbd50f52f	-0.051015075
129	0x3c6016d4	0.013677318
130	0xbe0cccea	-0.13750044
131	0xbdd6b98a	-0.104846075
132	0xbdd3eb17	-0.10347574
133	0x3dbf6b2d	0.09346614
134	0xbcae6866	-0.021290015
135	0xbd0f77c5	-0.03502633
136	0x3d4a219b	0.049348455
137	0xbd394654	-0.045233086
138	0x3cceccdc	0.025244169
139	0x3d452764	0.04813327
140	0xbe028de7	-0.12749444
141	0x3c0019d6	0.00781866
142	0x3c116a52	0.008875446
143	0x3d20bf82	0.039245136
144	0x3cf7f33b	0.030267349
145	0xbce2ede1	-0.02770132
146	0x3cdc9ded	0.026930774
147	0xbe0606fa	-0.13088599
148	0xbc72f2f2	-0.0148284305
149	0x3cf818f5	0.030285338
150	0xbb95eb28	-0.004575152
151	0x3d643bb2	0.055720992
152	0x3d4c16ba	0.04982636
153	0x3c8642fa	0.016389359
154	0xbd646835	-0.055763442
155	0xbdc98bf7	-0.09841149
156	0x3d4d0afb	0.0500593
157	0xbe08b7e7	-0.13351403
158	0xbded2d3a	-0.11580892
159	0xbd86779a	-0.06565781
160	0x3d5883b9	0.052859996
161	0x3d60ba12	0.05486495
162	0xbe0a5345	-0.13508327
163	0xbd37fc02	-0.044918068
164	0x3d52fd60	0.05151117
165	0xbac77a9c	-0.0015219036
166	0xbdcdcc57	-0.1004874
167	0x3cdc1ecb	0.026870152
168	0xbcee9499	-0.029123591
169	0xbdd3710d	-0.10324297
170	0xbcfae562	-0.030626956
171	0xbcffe92e	-0.031239118
172	0x3dab3c6f	0.08361136
173	0x3d90a64a	0.07062967
174	0xbc6b0690	-0.014344826
175	0xbc8d9274	-0.017281748
176	0xbdaed83d	-0.08537338
177	0x3d89d4c6	0.067300364
178	0x3d2d2d2c	0.042279407
179	0xbc9b55e5	-0.018961856
180	0xbdbe5aab	-0.09294637
181	0xbdb624d2	-0.08893742
182	0x3d4d2cbe	0.050091498
183	0xbd5e3a11	-0.054254595
184	0x3c7e6398	0.015526675
185	0x3a836540	0.0010024682
186	0xbd3039d6	-0.043023907
187	0x3c63ee03	0.013911727
188	0xbca5702c	-0.02019509
189	0xbde212cd	-0.11038742
190	0xbc565059	-0.01308068
191	0xbd01530c	-0.03157334
192	0xbcdcedbd	-0.026968831
193	0xbc8a989e	-0.016918477
194	0x3cc0379f	0.023464022
195	0x3cccf79d	0.025020415
196	0xbe02dbde	-0.12779185
197	0x3ce8c223	0.028412884
198	0xbccb4ff0	-0.02481839
199	0xbccb3c61	-0.024809064
200	0xbd94980c	-0.07255563
201	0xbdbb0dbf	-0.09133481
202	0xbde579e8	-0.112048924
203	0x3cd1618b	0.025559207
204	0x3cf9a9cc	0.030476473
205	0xbdf9dd25	-0.12200383
206	0x3d4446cb	0.047919076
207	0x3d0d4338	0.034487933
208	0x3d510d26	0.05103793
209	0xbe022b95	-0.12711938
210	0x3c8da693	0.017291343
211	0xbd05f37f	-0.03270292
212	0x3d1f1d3a	0.038846232
213	0xbddab3fa	-0.10678859
214	0xbbae572a	-0.0053204494
215	0x3a72947b	0.00092536927
216	0xbe0a55e7	-0.13509332
217	0x3d799a42	0.060938127
218	0xbdc175c9	-0.09446294
219	0x3b5e5346	0.0033924147
220	0xbd97d2ce	-0.07413255
221	0x3d72eac1	0.05930591
222	0x3d329be8	0.043605715
223	0xbdcf0c98	-0.10109824
224	0x3d586aed	0.052836347
225	0xbe041ab5	-0.12900813
226	0x3d2336ad	0.039847065
227	0xbd962ab9	-0.073323674
228	0xbcf974ad	-0.030451143
229	0xbcdce931	-0.026966663
230	0xbdffef44	-0.12496808
231	0xbcd98b8c	-0.026555799
232	0xbd127507	-0.035756137
233	0xbd06d875	-0.032921273
234	0x3ddeaccc	0.10872802
235	0xbdc1c3c2	-0.09461166
236	0x3d853441	0.06504107
237	0x3cbaf66a	0.022822578
238	0xbc4a47d0	-0.012346223
239	0x3dc724fa	0.097238496
240	0xbc1adc02	-0.009451868
241	0xbcbb2ea7	-0.022849394
242	0x3d74b8e0	0.059746623
243	0x3d308d4a	0.043103494
244	0x3d20b885	0.03923847
245	0xbb0eaf28	-0.0021771882
246	0xbdf569f4	-0.119830996
247	0x3b4fcaba	0.0031706528
248	0x3cfdd935	0.030987361
249	0xbdd8b699	-0.10581703
250	0xbd7e5e90	-0.0621019
251	0xbe0398a5	-0.12851198
252	0x3b98d4ef	0.0046640555
253	0x3d29d194	0.041459635
254	0x3cf58a84	0.029973276
255	0xbba73678	-0.0051029287

conv3.bias f4 [10]
0	0x3d88dd52	0.066828385
1	0xbe193ade	-0.14963862
2	0xbe00511c	-0.12530941
3	0xbe00abe9	-0.12565579
4	0x3eba26b3	0.3635765
5	0xbdc7b617	-0.09751528
6	0x3ea32765	0.31865993
7	0x3d2fc9e1	0.042917136
8	0xbda6f711	-0.08152593
9	0x3c9878bd	0.01861226

conv4.weight f4 [10, 10, 3, 3]
0	0xbe1ef033	-0.15521316
1	0xbda3ca9a	-0.079976276
2	0xbea2390b	-0.31684145
3	0x3de7f525	0.113260545
4	0x3d2fde1f	0.04293644
5	0x3dcdfcc8	0.1005798
6	0xbe708e16	-0.23491701
7	0x3d8d8e2c	0.06911883
8	0x3e8c92fc	0.2745589
9	0x3db08c38	0.086204946
10	0x3d589616	0.052877508
11	0x3d0db56a	0.034596838
12	0x3c61e6a2	0.013787897
13	0xbd40b125	-0.04704394
14	0xbd3da9fb	-0.046304684
15	0x3c5c7f5d	0.0134581
16	0xbd8af2be	-0.06784581
17	0xbdf4ccd9	-0.11953134
18	0x3d40ba64	0.047052756
19	0x3d941d7e	0.07232188
20	0xbdc28c6a	-0.09499438
21	0x3d95b390	0.073096395
22	0x3d570a6e	0.05250018
23	0x3e00893d	0.12552352
24	0x3c176a9f	0.009241729
25	0xbdfbf7db	-0.12303134
26	0x3d7c5447	0.06160381
27	0xbb45a183	-0.0030156083
28	0x3dff08bb	0.12452837
29	0xbb0f5d16	-0.0021875552
30	0x3bbc6632	0.0057494873
31	0x3d41a3f0	0.047275484
32	0xbcfb5842	-0.030681733
33	0x3c92a804	0.017902382
34	0x3d900ffd	0.070342995
35	0xbd74df9f	-0.059783574
36	0x3d8017af	0.06254517
37	0xbdf1f05c	-0.11813423
38	0x3d6abc7b	0.057308655
39	0xbc8d0026	-0.017211985
40	0x3d3b5c87	0.045742538
41	0x3d15ba94	0.036554888
42	0x3daf1558	0.08548993
43	0x3e5b3e36	0.2141045
44	0x3dd60603	0.104503654
45	0xbde8b650	-0.11362898
46	0x3d3d30e5	0.046189208
47	0xbcb20f6a	-0.021735866
48	0xbc3d1268	-0.011540033
49	0x3d2fc20d	0.04290967
50	0x3df7b18c	0.12094411
51	0x3d4d410b	0.050110858
52	0x3ce8f2fb	0.028436175
53	0xbd111398	-0.035419077
54	0xbe6848b3	-0.22683983
55	0x3a131c66	0.00056118367
56	0xbe306fcb	-0.17230146
57	0x3da20ce4	0.07912615
58	0x3b5274c1	0.0032113048
59	0x3e0f1261	0.13971855
60	0xbd81384f	-0.06309568
61	0x3c1e9b96	0.009680649
62	0xbd7e9876	-0.062157117
63	0xbdb3eb49	-0.087851115
64	0xbe45513c	-0.1926927
65	0xbec58832	-0.3858047
66	0xbe2c6988	-0.16837132
67	0xbde20e9b	-0.11037942
68	0xbdd5773a	-0.10423131
69	0xbc511218	-0.012760662
70	0xbda47b58	-0.080313385
71	0xbe327acb	-0.17429654
72	0xbcb82824	-0.022480078
73	0xbc294226	-0.010330712
74	0xbdbf986a	-0.093552426
75	0xbcfe4b3d	-0.031041736
76	0xbd8cf7a3	-0.068831705
77	0x3d355407	0.044269588
78	0xbd8d9e43	-0.06914952
79	0xbc843ab0	-0.016141266
80	0xbda58505	-0.08082012
81	0xbe1bf3be	-0.15229699
82	0xbe0d2617	-0.13784061
83	0xbe6d2942	-0.2316027
84	0xbd654a96	-0.055979334
85	0xbdc248cd	-0.09486542
86	0xbcb87749	-0.022517817
87	0xbd95ee0b	-0.07320794
88	0x3df2349b	0.1182644
89	0x3e59c77d	0.21267505
90	0xbe9682cc	-0.29396665
91	0xbdadd8b4	-0.084885985
92	0x3e76a8ec	0.24087876
93	0x3db8f4ee	0.09031092
94	0xbcbe6c0e	-0.023244884
95	0xbcf19c6f	-0.029493539
96	0x3d1aaa14	0.037759855
97	0xbda712e3	-0.08157899
98	0xbd0eebe5	-0.034892935
99	0xba9fbda0	-0.001218725
100	0xbd6897e1	-0.056785468
101	0x3c999d16	0.018751662
102	0xbd17ed2b	-0.037091415
103	0x3c791593	0.015202898
104	0x3d260f1f	0.040541764
105	0xbda09793	-0.078414105
106	0x3c3fe1d5	0.011711557
107	0xbd010041	-0.031494383
108	0xbde9023d	-0.1137738
109	0x3d0a23c0	0.0337255
110	0xbd76f301	-0.06029034
111	0xbcbc9d97	-0.023024363
112	0xbd3c60d6	-0.045990787
113	0x3d314af2	0.043284364
114	0x3d70f30d	0.05882554
115	0xbd1eb8d2	-0.038750477
116	0x3ce529f6	0.02797411
117	0x3dc45b65	0.095877446
118	0xbdd2d78b	-0.10295018
119	0x3d527a6e	0.05138629
120	0xbdac606a	-0.08416827
121	0xbd6306be	-0.05542635
122	0xbd6c39d2	-0.05767233
123	0x3bf25efe	0.007396578
124	0x3bfa2a6a	0.0076344507
125	0xbc16dc69	-0.009207823
126	0x3dcecaa1	0.10097242
127	0x3ddb9955	0.10722605
128	0x3b989896	0.0046568615
129	0xbe0b756f	-0.13619016
130	0xbd33a794	-0.043860987
131	0x3dc9f8e0	0.09861922
132	0x3ceee010	0.029159576
133	0xbe9304f5	-0.2871472
134	0xbe4a1d7b	-0.19737808
135	0x3e018ab3	0.12650566
136	0x3b4ba826	0.0031075566
137	0xbced2aee	-0.028951135
138	0xbbe77a01	-0.0070641045
139	0xbd28ca98	-0.041208833
140	0xbdde9d4c	-0.10869846
141	0xbd82c4a3	-0.06385162
142	0x3d4924d1	0.049107376
143	0x3dc0cd79	0.09414191
144	0xbd2f068b	-0.04273085
145	0x3d2500ef	0.040284093
146	0xbe86f332	-0.26357418
147	0xbe632d73	-0.22185306
148	0x3e00c02a	0.12573305
149	0x3e184b12	0.14872387
150	0x3dcabde5	0.09899501
151	0x3e268195	0.16260369
152	0x3d7b16a0	0.061300874
153	0xbdd92271	-0.10602272
154	0x3c97546b	0.01847287
155	0xbd67c18d	-0.05658107
156	0x3dc16e0b	0.09444817
157	0x3dd4bca5	0.103875436
158	0x3e0e63db	0.1390528
159	0x3d28f79a	0.041251756
160	0x3e4dd0c8	0.20099175
161	0x3e2fab88	0.17155278
162	0xbc8f8b56	-0.017522495
163	0x3d5eb614	0.054372862
164	0x3dd3a7f8	0.10334772
165	0x3d29b262	0.041429885
166	0xbced23bc	-0.028947704
167	0x3b871311	0.004122146
168	0xbd073f22	-0.033019193
169	0xbd4aa7ed	-0.049476553
170	0x3d2929d5	0.04129966
171	0xbd2f9457	-0.042866077
172	0x3ddc2514	0.107492596
173	0x3db283a1	0.087165125
174	0x3e7e2ea8	0.24822485
175	0xbe1b612f	-0.15173791
176	0xbd47025a	-0.048586227
177	0xbe078210	-0.13233209
178	0xbbc78d00	-0.0060898066
179	0x3d16b7d7	0.036796417
180	0xbd134881	-0.035957817
181	0x3d6b8c01	0.057506565
182	0x3caf78e8	0.021419957
183	0x3e60bb42	0.21946433
184	0xbcb53d7f	-0.02212405
185	0xbd84370c	-0.06455812
186	0xbc8f7b29	-0.017514782
187	0xbe59c3a9	-0.21266045
188	0xbd5b5531	-0.05354804
189	0xbc87f184	-0.016594656
190	0x3baa0fb0	0.0051898584
191	0x3d0286d6	0.03186687
192	0xbd6b6f0a	-0.057478942
193	0xbd61b9f6	-0.055108987
194	0xbd891855	-0.06694094
195	0xbb408da6	-0.0029381304
196	0x3d5255c0	0.05135131
197	0x3d333cda	0.043759204
198	0xbd883865	-0.066513814
199	0x3d004613	0.031316828
200	0x3e03a679	0.12856473
201	0x3c3b4f31	0.011432455
202	0xbdeda38c	-0.1160346
203	0xbd572e1a	-0.0525342
204	0x3d979a12	0.074024335
205	0xbd82894f	-0.06373846
206	0xbdaaadea	-0.08333953
207	0xbcd13f54	-0.025542893
208	0x3d074a67	0.03302994
209	0xba43d0eb	-0.0007469791
210	0xbd95f3ca	-0.0732189
211	0xbda75f47	-0.081724696
212	0x3bd22755	0.00641338
213	0xbce984c3	-0.028505689
214	0x3dd90ad2	0.10597767
215	0xbd346117	-0.044037905
216	0x3c6939bc	0.014234956
217	0x3e2e8e57	0.17046486
218	0x3da8fb18	0.08251017
219	0xbe2c92a8	-0.1685282
220	0xbe126ee5	-0.14300115
221	0xbe37abc7	-0.17936622
222	0xbd243b34	-0.040095523
223	0xbd401ef8	-0.046904534
224	0xbdd0ca94	-0.10194889
225	0xbd63fac4	-0.05565907
226	0xbd139cf9	-0.036038373
227	0xbe0bc096	-0.13647684
228	0xbca34b9c	-0.019933514
229	0x3d3e33e7	0.046436217
230	0xbde06a6b	-0.109577976
231	0x3c642dd8	0.013926946
232	0x3cf2a319	0.029618787
233	0x3d617a39	0.0550482
234	0xbe823161	-0.25428298
235	0x3e849994	0.2589842
236	0x3df1b13d	0.11801384
237	0xbe888c42	-0.26669508
238	0x3e01b209	0.12665571
239	0x3e6654d3	0.22493295
240	0xbe21c6df	-0.1579852
241	0xbddfb7f3	-0.109237574
242	0xbdbb34de	-0.09140943
243	0x3e6c56c3	0.23079972
244	0xbd1c6dea	-0.03819076
245	0xbe2bcfd5	-0.167785
246	0x3bc678e5	0.006056892
247	0xbda45610	-0.080242276
248	0x3e42fa42	0.19040778
249	0x3d953676	0.07285778
250	0x3af53e5a	0.0018710599
251	0x3d6929ef	0.056924757
252	0x3c23897e	0.009981511
253	0xbd90f29c	-0.07077524
254	0xbd358673	-0.044317674
255	0x3d5eb636	0.05437299

conv4.bias f4 [10]
0	0xbe57a7f4	-0.21060163
1	0xbc493326	-0.012280261
2	0xbdbe05ce	-0.09278451
3	0x3d6e1045	0.058120985
4	0xbe1c7edb	-0.15282767
5	0xbde5b73b	-0.11216589
6	0x3d9505da	0.07276507
7	0x3d3edf66	0.046599768
8	0x3e36e700	0.17861557
9	0x3e503a02	0.20334628

norm.weight f4 [10]
0	0x3f89adb4	1.0756135
1	0x3f900e08	1.1254282
2	0x3f91b20b	1.1382459
3	0x3f8ee82f	1.1164607
4	0x3f8d6de9	1.1049167
5	0x3f9105bf	1.1329879
6	0x3f946eb7	1.1596287
7	0x3f8fe0a1	1.1240426
8	0x3f865f4b	1.0497831
9	0x3f8a64f1	1.0812055

norm.bias f4 [10]
0	0xbf118a9d	-0.5685213
1	0xbf0664c8	-0.5249753
2	0xbf0524c3	-0.5200922
3	0xbf0a1545	-0.53938705
4	0xbf1c115c	-0.6096399
5	0xbf1808d9	-0.593885
6	0xbf0b2804	-0.54357934
7	0xbef717b6	-0.48260278
8	0xbf03a997	-0.5143065
9	0xbf173160	-0.59059715

norm.running_mean f4 [10]
0	0xbf0602ec	-0.5234821
1	0x3c93cb6f	0.01804134
2	0xbe94f490	-0.29092836
3	0xbe9b13a3	-0.3028842
4	0xbcbf1450	-0.023325115
5	0xbcf85905	-0.030315885
6	0x3e589ee7	0.21154366
7	0xbd98b21a	-0.07455845
8	0x3bfa72e3	0.00764309
9	0x3e73c104	0.23804098

norm.running_var f4 [10]
0	0x3d132a22	0.035928853
1	0x3d043af3	0.03228278
2	0x3cd8c949	0.026463168
3	0x3cff952a	0.031199057
4	0x3cbaedd6	0.022818487
5	0x3d020ae6	0.031748675
6	0x3d15e9a8	0.036599785
7	0x3d3169c2	0.04331375
8	0x3cf270f7	0.029594881
9	0x3cfded24	0.030996867

fc1.weight f4 [50, 810]
0	0xbbf351a7	-0.007425505
1	0xbd2a7ba2	-0.04162181
2	0xbd1d4397	-0.038394537
3	0xbdff946f	-0.12479483
4	0xbe80d680	-0.2516365
5	0xbec938b9	-0.39301088
6	0xbdf5f316	-0.120092556
7	0xbcf49d71	-0.02986023
8	0xbe842252	-0.25807434
9	0x3d01a40a	0.03165058
10	0x3dc5113b	0.09622427
11	0xbd5a317e	-0.053269856
12	0xbdcb6d43	-0.099329494
13	0x3d2579e7	0.04039946
14	0xbe0fcab3	-0.14042167
15	0x3e0f8c4f	0.14018367
16	0x3e6573d1	0.22407462
17	0x3d4e4691	0.050360266
18	0x3d802915	0.06257836
19	0xbd493360	-0.04912126
20	0xbe9cf6dd	-0.30657092
21	0xbd8db8d7	-0.06920021
22	0x3d117c7f	0.03551912
23	0xbc5fc394	-0.013657469
24	0xbd257f1c	-0.040404424
25	0x3e4573d3	0.19282465
26	0x3e3bee05	0.18352516
27	0xbd147e81	-0.036253456
28	0xbd9ae96d	-0.07564054
29	0xbe4fb9e4	-0.20285755
30	0xbdf86b12	-0.12129797
31	0x3c30203a	0.010749871
32	0x3dd2378d	0.10264502
33	0x3d857120	0.065157175
34	0xbcd0ff00	-0.025512218
35	0x3e3b2dca	0.18279186
36	0xbeaa4fd8	-0.3326404
37	0xbed20d99	-0.41026
38	0x3e250ab1	0.1611736
39	0x3e36a9e2	0.17838243
40	0x3d1f18a5	0.038841862
41	0x3e912b01	0.28353122
42	0x3e8e11b8	0.27747893
43	0x3b0a62a2	0.0021115919
44	0xbd8bad75	-0.06820194
45	0x3e39c219	0.18140449
46	0x3dafd3ad	0.08585296
47	0x3c7dbf38	0.015487485
48	0x3d2581de	0.040407054
49	0x3dd89bf2	0.10576619
50	0x3d93efe3	0.07223489
51	0x3d17ed77	0.0370917
52	0x3d9edf8d	0.07757483
53	0x3dcc1703	0.09965327
54	0x3d57f79c	0.052726373
55	0xbc16f591	-0.009213821
56	0x3c3c8d75	0.011508335
57	0x3dd345cd	0.10316048
58	0x3d39f37c	0.04539822
59	0xbcd3479e	-0.025790986
60	0x3dbbbe9b	0.091672145
61	0xbcbb72e2	-0.022881929
62	0x3d9ff653	0.078106545
63	0xbda6fd31	-0.08153761
64	0xbc2d220c	-0.010567199
65	0xbdb03211	-0.086032994
66	0xbbf1895d	-0.0073711113
67	0xbce168eb	-0.02751585
68	0x3e8114dd	0.2521123
69	0x3df37f48	0.11889511
70	0x3d65f862	0.05614508
71	0xbd06e967	-0.032937434
72	0xbae9a652	-0.0017826057
73	0xbdaaa057	-0.08331364
74	0xbc385718	-0.0112512335
75	0xbd5ffe65	-0.05468597
76	0xbb3fae0c	-0.0029248027
77	0xbeb0a890	-0.34503603
78	0x3c08f358	0.008358799
79	0x3e5fe15e	0.21863315
80	0x3ca604ed	0.02026602
81	0xbcac7516	-0.021051925
82	0x3e054be8	0.13017237
83	0x3daa1fa6	0.08306818
84	0x3e00cf09	0.12578978
85	0x3dbf50c3	0.09341576
86	0xbe322234	-0.1739586
87	0xbc411af2	-0.011786209
88	0xbbb6b005	-0.0055751824
89	0x3d20dc01	0.039272312
90	0xbd7c3236	-0.061571322
91	0x3d613b83	0.054988395
92	0x3d7144dd	0.058903564
93	0x3bc6ead1	0.0060704728
94	0x3ca12784	0.019672163
95	0x3ac21296	0.0014806564
96	0xbc6091b5	-0.013706614
97	0x3d26dbcb	0.040736955
98	0xbe36686e	-0.17813274
99	0xbd0264e3	-0.031834494
100	0x3d77f718	0.06053838
101	0x3da54747	0.08070236
102	0x3d7297a3	0.059226643
103	0x3d853c16	0.06505601
104	0x3e3f87b7	0.18704115
105	0x3e1880b5	0.14892848
106	0x3d6c292f	0.057656463
107	0x3d2193da	0.039447643
108	0x3e1775d9	0.14791049
109	0x3dce4426	0.10071592
110	0x3d7a422a	0.061098255
111	0xbde96b65	-0.11397437
112	0x3da49449	0.08036096
113	0xbc9d3a49	-0.019192832
114	0xbdcb4b4d	-0.09926472
115	0x3e4457e1	0.19174148
116	0x3d79cc74	0.060985997
117	0x3e28ff16	0.16503558
118	0x3d86c38a	0.06580265
119	0xbd8b06ac	-0.06788382
120	0xbcec7334	-0.028863527
121	0xbc473162	-0.01215777
122	0x3cf44db5	0.02982221
123	0xbd075065	-0.033035655
124	0x3d237205	0.03990366
125	0x3e4b87d8	0.19876039
126	0xbe8661e4	-0.2624656
127	0xbe49e867	-0.1971756
128	0x3f021229	0.5080896
129	0x3c97cbf9	0.018529879
130	0x3c154f9b	0.009113218
131	0xbd0d6605	-0.03452112
132	0xbe8dec90	-0.27719545
133	0xbe4e7ad4	-0.20164043
134	0x3e518994	0.20462638
135	0x3e67f8c5	0.22653492
136	0xbd4745c2	-0.04865051
137	0xbc53ea82	-0.012934329
138	0x3cce0c19	0.025152253
139	0x3c439def	0.01193951
140	0x3c3dc528	0.01158265
141	0x3c5fe498	0.013665341
142	0x3e61e4b0	0.22059894
143	0x3f079888	0.5296712
144	0x3d00ba94	0.031427935
145	0x3ac725e1	0.0015193784
146	0x3c9b33b6	0.018945556
147	0xbd7ce534	-0.061742023
148	0x3d0b81db	0.034059387
149	0xbc440086	-0.011963015
150	0xbc57f570	-0.013181075
151	0x3e2671df	0.16254376
152	0x3ebf7313	0.37392482
153	0x3dacbeee	0.084348544
154	0x3c03aec6	0.008037275
155	0x3df093f9	0.117469735
156	0x3e78f8a3	0.24313597
157	0x3e5cfa98	0.21579969
158	0x3e636ed2	0.22210243
159	0x3dc981c7	0.09839206
160	0xbe9c91ca	-0.30579978
161	0xbea11eb3	-0.31468734
162	0x3bc5b70c	0.006033784
163	0xbd63d5e1	-0.055623893
164	0x3d52cb01	0.05146313
165	0xbe280eca	-0.16411892
166	0x3e5f81a9	0.21826805
167	0xbdc26cf0	-0.094934344
168	0x3e45d4ab	0.19319408
169	0x3e2cdfdc	0.1688227
170	0x3c96d75f	0.018413244
171	0xbe4a689c	-0.19766468
172	0xbe546e17	-0.20745121
173	0xbe941e31	-0.28929284
174	0xbd270029	-0.040771637
175	0x3d8e4107	0.06945997
176	0xbab13804	-0.0013520722
177	0xbe80385d	-0.25043002
178	0xbe504e16	-0.20342287
179	0xbd5f90e8	-0.054581553
180	0xbd175981	-0.036950592
181	0x3db4a0f9	0.088197656
182	0xbcf39416	-0.029733699
183	0x3dd505a2	0.10401465
184	0x3d99dfe2	0.075134054
185	0x3da4d6ef	0.08048808
186	0x3dc298a5	0.09501771
187	0xbd912dad	-0.0708879
188	0xbcce2fef	-0.02516934
189	0x3e9770f9	0.2957838
190	0x3dbc3d49	0.09191377
191	0xbdad7b79	-0.08470816
192	0x3d8c700c	0.06857309
193	0x3e0fcbaf	0.14042543
194	0xbcab72e9	-0.020928817
195	0xbca133b0	-0.019677967
196	0x3e0bd890	0.13656831
197	0x3e2edbc1	0.17076017
198	0x3ee5b434	0.44864047
199	0x3d8859e5	0.06657771
200	0xbc6937a5	-0.014234458
201	0xbd37dc15	-0.04488762
202	0x3cfb1c67	0.030653192
203	0x3cd1e6c9	0.025622742
204	0x3cd6633a	0.026170362
205	0x3d10aadf	0.035319205
206	0x3e877dc7	0.26463148
207	0xbc293123	-0.0103266565
208	0xbc6e070a	-0.014528045
209	0x3d1e870d	0.038703013
210	0xba078601	-0.00051698094
211	0x3d2f319d	0.042771924
212	0xbdeb840f	-0.114997976
213	0xbe0eb795	-0.13937218
214	0xbd3f9df1	-0.046781484
215	0x3d587c6e	0.05285304
216	0x3e609cec	0.21934861
217	0xbd0d37c2	-0.034477003
218	0x3d4729d8	0.04862389
219	0xbd933cf2	-0.07189359
220	0xbafc59a4	-0.0019252789
221	0x3d53e696	0.051733576
222	0x3d101da2	0.03518451
223	0x3e3431da	0.17597142
224	0xbe5224ba	-0.20521823
225	0x3e25453b	0.1613969
226	0x3e588e92	0.21148136
227	0x3cd25073	0.025673127
228	0xbd260668	-0.040533453
229	0xbd448c0f	-0.047985133
230	0xbd116893	-0.03550012
231	0xbdcba226	-0.09943037
232	0x3cfa104e	0.030525353
233	0x3ed8d842	0.42352492
234	0x3ea30b85	0.31844726
235	0x3e9a8563	0.3017989
236	0x3cf2027b	0.029542198
237	0x3e5b32d5	0.2140611
238	0x3e7185ee	0.23586246
239	0x3da9fd9b	0.083003245
240	0x3e4e949f	0.20173882
241	0xbea971ba	-0.3309458
242	0x3d87e32e	0.06635128
243	0x3e0c3b9d	0.13694616
244	0x3dbd4a67	0.09242707
245	0x3d8b027b	0.067875825
246	0xbdb12a06	-0.086505935
247	0xbe4c47a8	-0.1994921
248	0xbc82d02d	-0.015968407
249	0x3c010532	0.007874774
250	0xbcac2f81	-0.021018745
251	0x3e0f7150	0.14008069
252	0x3e02f9c3	0.12790589
253	0x3c0a7d48	0.008452721
254	0x3dd11c76	0.102105066
255	0xbded198a	-0.11577137

fc1.bias f4 [50]
0	0x3c5ad868	0.013357259
1	0xbd4baedf	-0.049727317
2	0xbd18c212	-0.037294455
3	0x3d018a96	0.031626306
4	0x3b36a2da	0.0027868063
5	0xbbb845d1	-0.005623557
6	0xbd3ad1ee	-0.04561036
7	0xbd7c8463	-0.06164969
8	0xba7012bc	-0.0009158065
9	0x3d2bcaa6	0.041941307
10	0xbd5c5f1b	-0.053801637
11	0xbc74eb2c	-0.0149486475
12	0x3c55f94d	0.013059926
13	0xbcc632c9	-0.024194138
14	0x3cd73e65	0.02627487
15	0x3d33eeab	0.043928783
16	0xbd59fced	-0.053219724
17	0x3b0fb2ea	0.002192671
18	0x3c15ea1e	0.009150056
19	0xbd1750e8	-0.036942393
20	0xbd0bb5d2	-0.034108944
21	0xbd78731a	-0.060656644
22	0x3c55cf58	0.013049923
23	0x3a3ce436	0.0007205637
24	0xbcfc554c	-0.030802391
25	0xbb4c6d79	-0.003119318
26	0xbd4e641a	-0.050388433
27	0xbd28f1f5	-0.041246373
28	0xbbd99ec2	-0.00664124
29	0xbdf24822	-0.118301645
30	0x3d0dd46c	0.03462641
31	0x3dc71f01	0.097227104
32	0xbd167178	-0.036729306
33	0xbd12885f	-0.035774585
34	0xbc89d782	-0.016826395
35	0xba0e9ad3	-0.0005439941
36	0xbd14542a	-0.036213078
37	0x3d3a341d	0.045459855
38	0x3d360e4a	0.04444722
39	0xbd092d19	-0.033490274
40	0xbd83ad70	-0.06429565
41	0x3bd11db5	0.006381715
42	0x3d9450c1	0.07241965
43	0xbd6a60fa	-0.05722139
44	0x3dabb542	0.083841816
45	0xbb75bc19	-0.0037496148
46	0x3cb5bc30	0.022184461
47	0xbd93eae8	-0.07222539
48	0xbd2f4110	-0.042786658
49	0xbb74790f	-0.0037303602

fc2.weight f4 [7, 50]
0	0xbc0ee666	-0.008721923
1	0x3d1777df	0.036979552
2	0x3cf9ebc1	0.030507924
3	0x3e098c8a	0.13432518
4	0x3dc0a27f	0.09405994
5	0x3d79864d	0.060919095
6	0xbd3df1fc	-0.046373352
7	0xbd0eb8ea	-0.034844317
8	0xbe5425f7	-0.20717607
9	0x3df7b51c	0.12095091
10	0xbddec0af	-0.10876595
11	0xbd23ea00	-0.04001808
12	0x3e4632f6	0.19355378
13	0xbcf54757	-0.029941244
14	0x3d81b236	0.06332819
15	0xbd6df6b9	-0.05809662
16	0x3dd78e75	0.105252184
17	0xbd41bcd5	-0.047299225
18	0x3e8e3052	0.2777124
19	0x3d14d321	0.03633416
20	0xbcf56dcb	-0.02995958
21	0xbd382ce8	-0.0449647
22	0xbe812ae6	-0.2522804
23	0x3d47a4bc	0.048741087
24	0x3d8218c3	0.06352379
25	0x3e10e38e	0.14149305
26	0xbc8c6fd1	-0.017143162
27	0xbd9af24f	-0.07565748
28	0x3dcc87f4	0.099868685
29	0x3ddc0d3e	0.10744713
30	0x3d38c31d	0.04510795
31	0x3e9ea723	0.3098689
32	0xbdb71085	-0.08938698
33	0xbc346577	-0.011010519
34	0x3d42b6db	0.047537666
35	0xbeaa3686	-0.33244723
36	0xbc829709	-0.01594116
37	0x3c62b2b5	0.013836552
38	0x3e39d837	0.18148886
39	0xbec1a85d	-0.37823763
40	0xbd9731af	-0.07382523
41	0xbe550bc3	-0.20805268
42	0xbd50a608	-0.05093959
43	0x3d33ebb1	0.043925945
44	0x3e11a1cd	0.14221878
45	0xbdf137fa	-0.11778255
46	0xbc1712e4	-0.0092208125
47	0xbe9c8f19	-0.30577925
48	0xbe9534c1	-0.2914181
49	0x3d9dcf03	0.077055
50	0x3d020f78	0.031753033
51	0x3d7b79bc	0.06139539
52	0xbda139c7	-0.07872348
53	0xbd4c3dda	-0.049863674
54	0xbe0f32a6	-0.13984165
55	0xbd8e2270	-0.06940162
56	0xbd940202	-0.072269455
57	0xbd689e84	-0.056791797
58	0x3e128658	0.1430906
59	0xbe86a9d0	-0.26301432
60	0x3d5b9c1a	0.053615667
61	0x3e0cbd55	0.137441
62	0x3d9462b4	0.072453886
63	0xbda4a28c	-0.08038816
64	0xbe1059b8	-0.14096725
65	0xbe59fbfc	-0.2128753
66	0x3d74451b	0.059636217
67	0x3d530273	0.051516008
68	0xbe016f60	-0.12640142
69	0x3e131b1a	0.14365807
70	0x3e86f1bf	0.26356313
71	0xbcf5ec11	-0.030019792
72	0x3db465c5	0.088084735
73	0xbc184206	-0.009293085
74	0x3d9d54d6	0.07682197
75	0xbd004d1e	-0.031323545
76	0xbdeb0a3c	-0.114765614
77	0x3dc3734e	0.09543477
78	0xbcf3d531	-0.029764744
79	0x3d0a5c8d	0.03377967
80	0xbea4d24b	-0.3219169
81	0xbd427ed2	-0.047484227
82	0x3d1432d6	0.036181293
83	0x3e0367bf	0.12832545
84	0xbd97e64d	-0.07416973
85	0xbc1eb782	-0.009687306
86	0xbd25d379	-0.04048488
87	0xbece9169	-0.40345314
88	0xbe894372	-0.2680927
89	0xbdc0ce5a	-0.094143584
90	0xbe05812b	-0.13037555
91	0x3d96cd83	0.07363417
92	0x3e751ee7	0.2393757
93	0x3d09e67a	0.033667065
94	0x3cc14c82	0.023596052
95	0xbe04568b	-0.12923639
96	0x3e3f0b09	0.18656553
97	0xbe57ef0f	-0.21087287
98	0xbe962bc3	-0.29330263
99	0x3df97214	0.12179962
100	0xbe6c3311	-0.23066355
101	0x3ce8606f	0.028366296
102	0x3e1665d0	0.14687276
103	0x3d6c7c0f	0.0577355
104	0x3cedbd95	0.029021064
105	0xbdb6c560	-0.08924365
106	0xbd4cdc7f	-0.05001497
107	0x3cd182fb	0.025575152
108	0x3acfc48c	0.0015851422
109	0x3d0f0eb6	0.03492614
110	0xbddcdada	-0.1078393
111	0x3b583e41	0.003299609
112	0xbd0ccaaa	-0.034372963
113	0xbe1b49ca	-0.15164867
114	0xbe270ba1	-0.1631303
115	0xbe2fccb3	-0.1716793
116	0x3d7d7c23	0.061885964
117	0xbb14cac5	-0.0022703868
118	0xbe0797ba	-0.13241473
119	0xbdc1c786	-0.09461884
120	0xbe5e7cb0	-0.21727252
121	0xbd96177d	-0.07328699
122	0x3e01b57e	0.1266689
123	0x3dc123f4	0.09430686
124	0xbe6c2bc1	-0.23063566
125	0xbd66105d	-0.05616795
126	0x3d234e7d	0.039869774
127	0x3d4bb2b6	0.04973098
128	0xbd2649a5	-0.040597577
129	0xbcf4cf5a	-0.02988403
130	0x3e34be5a	0.17650738
131	0x3e77692e	0.24161217
132	0xbca8e689	-0.02061774
133	0x3a1fa36a	0.0006089719
134	0xbc649a41	-0.013952793
135	0xbe0a930f	-0.13532661
136	0xbddf0d33	-0.108911894
137	0x3e3937cc	0.18087691
138	0xbe860187	-0.2617304
139	0x3d56515b	0.05232368
140	0x3d2e65cc	0.04257755
141	0xbdf05c0b	-0.11736306
142	0x3e1cab81	0.15299799
143	0x3c2711b4	0.010197092
144	0x3d53228b	0.051546615
145	0xbd94c4eb	-0.072641216
146	0x3e3ba061	0.18322898
147	0x3e302096	0.1719993
148	0x3cb57e54	0.022154965
149	0xbe5a2545	-0.2130328
150	0x3d983ab0	0.07433069
151	0x3d704760	0.05866182
152	0xbccf4320	-0.025300562
153	0x3dc335b6	0.09531729
154	0xbd19e0b5	-0.037567813
155	0x3d498425	0.04919829
156	0xbde229db	-0.110431395
157	0x3c04b60b	0.008100043
158	0xbe769db0	-0.2408359
159	0x3d24b945	0.04021575
160	0xbda913ad	-0.08255706
161	0x3ceaf10e	0.028679397
162	0xbe0d548f	-0.13801788
163	0x3e0c2d44	0.13689142
164	0x3e58374b	0.21114843
165	0xbe63d323	-0.22248511
166	0xbcec7eee	-0.028869119
167	0x3c017bff	0.007903098
168	0xbe3b419c	-0.18286747
169	0xbdc15f53	-0.0944201
170	0xbc3fb1af	-0.011700078
171	0xbdc085f0	-0.094005466
172	0xbe62e882	-0.22159007
173	0x3d97c95e	0.074114546
174	0x3eb613da	0.3556202
175	0xbc5ff83c	-0.0136700235
176	0x3db8cd1e	0.09023498
177	0x3d1066b6	0.035254203
178	0x3be4260c	0.0069625434
179	0x3cbc1f8e	0.022964265
180	0x3e036638	0.12831962
181	0xbe5b294a	-0.2140247
182	0xbdf27936	-0.118395254
183	0x3dca5729	0.09879906
184	0x3da8828f	0.08228027
185	0xbe27a705	-0.16372307
186	0xbd01f214	-0.031725004
187	0xbab37d1f	-0.0013693905
188	0x3d0a5026	0.03376784
189	0x3d4ae3ce	0.049533658
190	0xbe282b07	-0.16422664
191	0xbe88e301	-0.2673569
192	0x3d8800a7	0.066407494
193	0x3db4eaa9	0.088338204
194	0xbe61626e	-0.22010204
195	0xbe002893	-0.12515478
196	0xbe939cde	-0.28830618
197	0x3e0b8305	0.13624199
198	0xbe157a38	-0.14597404
199	0x3d27c04e	0.04095488
200	0x3dda7060	0.10665965
201	0xbd8859fb	-0.066577874
202	0x3c49dc82	0.01232064
203	0xbbddc783	-0.0067681684
204	0x3d91daea	0.07121833
205	0x3e0d751b	0.13814203
206	0x3d3d06dd	0.046149123
207	0xbc95a510	-0.018267184
208	0x3deb1564	0.11478689
209	0xbe0c3ff8	-0.13696277
210	0xbc5a5395	-0.013325592
211	0xba56870a	-0.00081835745
212	0x3dd90e40	0.10598421
213	0x3d7333c8	0.059375554
214	0xbdc034ac	-0.09385046
215	0xbe850090	-0.25976992
216	0xbc3e229c	-0.011604931
217	0x3cf7b353	0.030236876
218	0x3e6ad9e9	0.22934689
219	0x3d8fce5a	0.0702178
220	0x3dd71b29	0.10503227
221	0xbd980b69	-0.07424051
222	0xbe283d47	-0.16429625
223	0x3e0b9319	0.13630332
224	0xbc5302fa	-0.012879128
225	0xbd4f7784	-0.05065109
226	0x3d9e0dd4	0.07717481
227	0xbd6a9840	-0.057274103
228	0xbe1bdb7c	-0.15220445
229	0xb9c9e9e6	-0.00038511975
230	0xbd7147f5	-0.058906514
231	0xbebad8c6	-0.3649351
232	0xbdd2ce27	-0.10293227
233	0x3da6c0b5	0.08142225
234	0xbde1fa81	-0.11034108
235	0x3d8744f7	0.06604951
236	0x3da01bcc	0.07817802
237	0x3d8828fc	0.06648442
238	0xbd0be6d1	-0.03415567
239	0x3dfbc9fd	0.122943856
240	0xbdb7aa28	-0.089680016
241	0xbe37d837	-0.17953573
242	0xbeae15d3	-0.34001026
243	0x3d8769e2	0.066119924
244	0xbd0bab23	-0.034098756
245	0xbe003a55	-0.12522252
246	0x3cf9d906	0.030498993
247	0x3d9d77a1	0.07688833
248	0x3d35686e	0.044289045
249	0x3d405f2b	0.04696576
250	0xbef149fc	-0.47126758
251	0x3b0a4014	0.0021095322
252	0x3d7e07d1	0.062019173
253	0xbdc6a257	-0.096989326
254	0xbe0b505f	-0.13604878
255	0x3acdf8fc	0.0015714462

fc2.bias f4 [7]
0	0x3cdc57d9	0.026897358
1	0xbdf7ac07	-0.120933585
2	0x3dacc83b	0.084366284
3	0xbc40b5b5	-0.011762072
4	0x3d3a32fc	0.04545878
5	0x3de139e2	0.109973684
6	0xbd32961a	-0.04360018

localization.0.weight f4 [8, 1, 7, 7]
0	0xbd85e8b7	-0.065385275
1	0xbe1d404f	-0.15356563
2	0x3cf3fd0e	0.029783752
3	0x3dbcbee0	0.09216094
4	0xbda4ecef	-0.08053004
5	0xbcd6f145	-0.026238093
6	0xbc831e7b	-0.016005745
7	0x3d4c97ec	0.04994957
8	0xbcba7c94	-0.022764482
9	0xbe0dba16	-0.13840517
10	0x3d921bb1	0.07134188
11	0x3d995d03	0.07488444
12	0x3db1f168	0.08688623
13	0xbe21a7dc	-0.1578669
14	0x3cdde2e3	0.027085727
15	0x3d449514	0.047993734
16	0x3dee222d	0.11627612
17	0x3db3ee84	0.087857276
18	0x3af32263	0.0018549677
19	0xbdbb238f	-0.09137642
20	0x3d015d5d	0.03158318
21	0xbcfb9cdd	-0.030714447
22	0x3dbcdba3	0.0922158
23	0xbcbabead	-0.022796
24	0x3d885eab	0.066586815
25	0xbd6ac9cf	-0.057321366
26	0x3d52f92c	0.05150716
27	0x3dd6b4c6	0.104836985
28	0xbdf2d7c9	-0.11857564
29	0xbe2d8558	-0.16945398
30	0xbe12a5e6	-0.14321098
31	0xbcd72a50	-0.026265293
32	0xbc82bd34	-0.01595936
33	0xbda6377b	-0.08116051
34	0xbdaaa69d	-0.0833256
35	0xbd35eab7	-0.044413295
36	0xbe10ea26	-0.1415182
37	0xbd0016d0	-0.031271756
38	0x3dc71d99	0.09722442
39	0xbd472cf1	-0.048626844
40	0xbe28a27a	-0.1646823
41	0xbd912acb	-0.0708824
42	0xbe180351	-0.14845015
43	0xbd3181c3	-0.04333664
44	0xbde3f81c	-0.111313075
45	0x3dd0f1f6	0.102024004
46	0x3ce76bf4	0.028249718
47	0x3d9f8572	0.077891245
48	0xbd954ecc	-0.0729042
49	0x3d1d1b04	0.038355842
50	0xbdcc71f0	-0.09982669
51	0xbde980ae	-0.11401497
52	0x3d327a8e	0.04357391
53	0x3d96bce3	0.07360246
54	0xbe18c9ed	-0.14920779
55	0xbce1ec7f	-0.02757859
56	0xbd7e0e3e	-0.0620253
57	0xbd96eff7	-0.073699884
58	0x3ddfc0f6	0.10925476
59	0x3de2b049	0.1106878
60	0x3dd533c2	0.10410263
61	0x3c55d110	0.013050333
62	0xbd4a3908	-0.049370795
63	0xbddf1a70	-0.108937144
64	0xbd27c97e	-0.040963642
65	0x3dfcc067	0.12341385
66	0x3d863140	0.065523624
67	0x3da84106	0.08215527
68	0xbb37507e	-0.002797156
69	0xbda7ef3d	-0.08199928
70	0x3d8fdf51	0.07025016
71	0x3dc47b35	0.095938124
72	0x3e18b758	0.1491369
73	0x3ca995f4	0.020701386
74	0x3dca4ab3	0.09877529
75	0x3cdaf7c7	0.026729478
76	0xbdb73dd6	-0.08947341
77	0xbddb9dc9	-0.107234545
78	0xbe3d5d34	-0.18492585
79	0xbdad8664	-0.084728986
80	0x3cceb466	0.025232505
81	0x3d9f073c	0.07765052
82	0x3de93ce7	0.11388569
83	0xbd9de196	-0.07709043
84	0x3db2ad66	0.087244794
85	0x3c5b9315	0.013401766
86	0xbd5842d0	-0.052798092
87	0x3de42376	0.11139576
88	0xbcdd027f	-0.02697873
89	0xbe0db1bc	-0.13837332
90	0x3d906216	0.070499584
91	0xbc3fd651	-0.011708812
92	0xbc69320d	-0.014233124
93	0xbd5bd06a	-0.053665556
94	0xbdb54071	-0.08850182
95	0x3e1de64d	0.15419884
96	0x3c5237b6	0.012830665
97	0xbdbc9378	-0.09207815
98	0x3e12f0c1	0.14349653
99	0xbc06e757	-0.008233867
100	0xbba6011c	-0.00506605
101	0xbe00a745	-0.12563808
102	0x3de73de3	0.11291101
103	0x3dfbc812	0.1229402
104	0x3ceb3fc7	0.028716935
105	0xbdbdc3d7	-0.09265869
106	0xbd738939	-0.059457038
107	0x3c88be79	0.016692387
108	0x3dce2f21	0.10067583
109	0xbdc765bd	-0.09736202
110	0x3d68d043	0.05683924
111	0x3d896479	0.06708617
112	0x3dcc6115	0.099794544
113	0xbbe2eba9	-0.0069250655
114	0xbe10f825	-0.1415716
115	0xbc3dd32b	-0.011585991
116	0xbe0b2a3f	-0.13590334
117	0x3da7cf01	0.0819378
118	0xbe05d88e	-0.1307089
119	0x3cb03397	0.021508975
120	0xbe14e2b8	-0.14539611
121	0x3c79df47	0.015250987
122	0xbe235a79	-0.15952481
123	0xbd02e95e	-0.031960838
124	0x3cd5e898	0.026111886
125	0xbd4aa4c1	-0.049473528
126	0xbe0da4fa	-0.13832465
127	0xbd6068ba	-0.054787375
128	0xbe0146de	-0.1262469
129	0x3d871325	0.065954484
130	0x3d893025	0.06698636
131	0xbd6c9cfc	-0.0577669
132	0xbd4d2ba9	-0.050090466
133	0x3d34de84	0.04415752
134	0xbcf26508	-0.029589191
135	0x3dbb2186	0.091372535
136	0x3c63e2a7	0.013909019
137	0x3d812b3e	0.06307076
138	0xbd15fcbf	-0.03661799
139	0x3d23e18f	0.04001003
140	0xbd7e0134	-0.062012866
141	0xbd50acf3	-0.050946187
142	0x3e054da0	0.13017893
143	0xbddb2de0	-0.10702109
144	0x3d464cc6	0.04841306
145	0xbd3332f0	-0.04374975
146	0xbda04378	-0.07825369
147	0x3d4c0f19	0.049819086
148	0x3e08f5e5	0.13375051
149	0x3bafd64d	0.005366123
150	0x3dc16875	0.09443752
151	0x3dbafa66	0.09129791
152	0xbc892bbb	-0.016744485
153	0xbd8759b1	-0.06608904
154	0xbcafb01e	-0.021446284
155	0x3d620a82	0.055185802
156	0x3cbe1bff	0.023206709
157	0x3d5d67c0	0.05405402
158	0xbc8c0cb8	-0.017095909
159	0xbce6a99f	-0.028157054
160	0xbca8a754	-0.0205876
161	0xbe4c924c	-0.19977683
162	0xbdd81fba	-0.10552926
163	0xbbf8e012	-0.0075950706
164	0x3d0aaf57	0.033858623
165	0xbe1e614f	-0.15466808
166	0x3db3abc4	0.08772996
167	0xbcf8c9ee	-0.030369725
168	0x3d57be4d	0.05267172
169	0xbe164eca	-0.14678493
170	0xbd93b286	-0.07211785
171	0xbdc68244	-0.09692815
172	0xbd8047a2	-0.06263663
173	0xbe08d80c	-0.13363665
174	0xbd95ad43	-0.07308438
175	0xbdaf96e8	-0.08573705
176	0x3d64eb5e	0.055888526
177	0x3d24fdca	0.040281095
178	0xbde4dacc	-0.11174545
179	0xbd8d9a97	-0.06914251
180	0xbdc66b22	-0.09688403
181	0x3e149977	0.14511667
182	0xbe463ebd	-0.1935987
183	0x3d80c8b1	0.06288279
184	0xbcb1c737	-0.021701438
185	0x3d1a46f0	0.037665308
186	0x3d0891f1	0.033342306
187	0x3ddf4c72	0.10903253
188	0xbd715432	-0.058918186
189	0x3d78a37a	0.06070278
190	0x3e03db30	0.12876582
191	0x3d97b23a	0.07407041
192	0x3df6036d	0.12012372
193	0xbce4bb78	-0.027921423
194	0x3d6e701e	0.058212392
195	0xbd81a826	-0.063309
196	0x3d60e593	0.05490644
197	0x3da6c397	0.081427746
198	0xbe17dd0a	-0.14830413
199	0x3d86c5f9	0.06580729
200	0xbddae532	-0.10688247
201	0xbe2b9d84	-0.16759306
202	0xbc9f45b9	-0.019442426
203	0x3da2bf7c	0.07946679
204	0xbcca0b64	-0.024663635
205	0x3dae46d8	0.08509606
206	0x3ce028a4	0.027363129
207	0xbbe6bd65	-0.0070416206
208	0xbbe437fb	-0.006964681
209	0x3d8fd200	0.07022476
210	0x3dcdefdd	0.10055516
211	0xbd7fd624	-0.06246008
212	0x3d886bbd	0.066611744
213	0xbc7b3849	-0.015333244
214	0xbdcb3df0	-0.09923923
215	0xbaaa8a48	-0.0013011182
216	0x3b108544	0.0022052089
217	0x3dd92a82	0.10603811
218	0xbb6fea04	-0.003660799
219	0x3d909bb6	0.070609495
220	0x3e2cd054	0.16876346
221	0xbc9f4879	-0.019443737
222	0x3de414d2	0.11136784
223	0xbc2a8833	-0.010408449
224	0x3d5e5131	0.05427665
225	0xbdfd6b43	-0.12373974
226	0x3dc77518	0.09739131
227	0xbcbd9593	-0.023142612
228	0x3d3562a4	0.044283524
229	0x3c85adcb	0.016318223
230	0xbd1fef9c	-0.03904687
231	0x3de3fd44	0.11132291
232	0xbe0abeed	-0.13549395
233	0xbbed827c	-0.007248221
234	0x3c9007e1	0.017581882
235	0xbcd6c9b0	-0.026219219
236	0x3a960e73	0.0011448398
237	0x3b27ee0d	0.0025624067
238	0x3caf0dba	0.02136885
239	0x3debfe31	0.115230925
240	0xbcf51c1c	-0.02992063
241	0xbd307003	-0.043075573
242	0xbd662d93	-0.056195807
243	0x3e252ac5	0.16129597
244	0xbdfce8b0	-0.12349069
245	0x3c230c05	0.009951596
246	0xbbf0ceb8	-0.0073488615
247	0xbd94e229	-0.07269699
248	0xbdfd78a6	-0.123765275
249	0xbe187267	-0.14887391
250	0xbe118530	-0.14210963
251	0x3dc39bfd	0.09551237
252	0x3ca4e8a4	0.020130463
253	0xbc50ab55	-0.012736161
254	0xbc325130	-0.010883614
255	0xbe221093	-0.15826635

localization.0.bias f4 [8]
0	0x3d0f3a9a	0.034967996
1	0x3d75cf43	0.060012113
2	0xbe38e065	-0.1805435
3	0x3cae450a	0.021273155
4	0x3d290c8f	0.041271742
5	0xbd66a962	-0.05631388
6	0xbd0a2f61	-0.03373659
7	0x3def21e3	0.11676385
