deep_emotion-ckplus-50-16-0.005.pt (torch, 274522 bytes, 24 tensors)

conv1.weight f4 [10, 1, 3, 3]
-0.053014483 0.38469258 -0.018067313 -0.0011104916 -0.45023665 -0.13547358 -0.2746566 0.21968152
0.38031796 -0.09731664 0.21374775 0.35501316 -0.0747033 0.0908975 0.063175514 -0.4341058
-0.36778522 0.20309399 0.18154146 -0.18215297 -0.045293637 -0.01698266 0.021450253 -0.12329628
-0.1829732 0.19308864 0.13548617 -0.29367754 -0.10896469 -0.20426445 -0.24610126 0.19153956
-0.44225797 0.046087276 -0.12844461 -0.05455536 -0.44214052 0.18651706 0.20109831 -0.08325132
-0.19860704 0.22567514 0.35131934 0.0023450742 -0.39789885 0.2431184 0.06981837 -0.07740883
0.03925638 0.36775592 -0.021324221 -0.34927574 -0.013981245 -0.10549587 -0.39790502 0.20727363
-0.022850512 0.1321695 -0.20417653 0.111441374 0.29495722 0.1796752 -0.397988 -0.24374907
0.037767574 0.014249095 -0.028164271 0.20135865 0.14293398 -0.23553807 0.10434143 -0.42225274
-0.3356222 -0.17016643 -0.34115565 -0.35223654 0.25226533 0.06840714 0.16497418 0.23526107
0.08073469 0.33988076 -0.14580631 -0.14386527 -0.36050248 -0.19425456 0.2162117 -0.12907518
-0.2684008 0.09867087
00000000: b725 59bd 6df6 c43e e701 94bc ea8d 91ba
00000010: 6b85 e6be 96b9 0abe ca9f 8cbe 31f4 603e
00000020: 09b9 c23e f24d c7bd b1e0 5a3e 49c4 b53e
00000030: 0bfe 98bd 7828 ba3d 2a62 813d 1e43 debe
00000040: 584e bcbe dff7 4f3e 01e6 393e 4f86 3abe
00000050: d285 39bd 381f 8bbc 71b8 af3c c382 fcbd
00000060: 545d 3bbe 07b9 453e e3bc 0a3e e75c 96be
00000070: e128 dfbd b32a 51be f801 7cbe f222 443e
00000080: a36f e2be 03c6 3c3d fc86 03be 7175 5fbd
00000090: 3e60 e2be 54fe 3e3e b7ec 4d3e ab7f aabd
000000a0: a55f 4bbe 6217 673e 21e0 b33e d1af 193b
000000b0: 66b9 cbbe 08f4 783e effc 8e3d 8588 9ebd
000000c0: 4ccb 203d 814a bc3e 22b0 aebc 45d4 b2be
000000d0: 9811 65bc 380e d8bd 35ba cbbe 8a3f 543e
000000e0: ff30 bbbc 7157 073e a713 51be 603b e43d
000000f0: a204 973e c7fc 373e 15c5 cbbe 5b99 79be
00000100: 2cb2 1a3d 0975 693c c2b8 e6bc f630 4e3e
00000110: 495d 123e e430 71be f6b0 d53d 8331 d8be
00000120: acd6 abbe 1c40 2ebe f4ab aebe 5958 b4be
00000130: ec28 813e 0b19 8c3d feee 283e 47e8 703e
00000140: 3b58 a53d da04 ae3e 404e 15be 6b51 13be
00000150: c893 b8be abea 46be 9a66 5d3e 492c 04be
00000160: d46b 89be f413 ca3d

conv1.bias f4 [10]
-0.24295916 0.19174713 -0.41774806 0.076844804 0.31022322 0.1613617 -0.17634305 -0.25883704
-0.13086754 -0.23127402
00000000: 49ca 78be 5c59 443e 13e3 d5be cf60 9d3d
00000010: 94d5 9e3e 003c 253e 4693 34be 4a86 84be
00000020: 2402 06be 19d3 6cbe

conv2.weight f4 [10, 10, 3, 3]
-0.043938793 -0.028180884 -0.08200968 -0.13348255 -0.025379067 -0.0361086 -0.13412228 -0.048769064
0.07035737 0.069920346 0.047969844 -0.050551254 -0.061144657 -0.11849404 -0.06450136 0.066316284
-0.010164937 -0.08123993 0.072938666 -0.029900385 -0.076386936 0.08690152 -0.06359619 0.0012623842
-0.034611825 0.007865013 0.010963845 0.035911426 -0.012567364 0.008267 -0.13534173 -0.02754717
-0.07838394 0.00021648599 0.006874027 -0.047747016 0.034444902 -0.098200075 -0.10852732 0.010670408
-0.025757767 -0.03401257 0.021115124 -0.101413496 0.06574001 0.036680426 0.020893184 -0.08748887
-0.024155429 -0.06256672 -0.0267659 0.041688338 0.07334216 -0.08990169 0.07762513 0.07212595
-0.060548227 0.022966497 -0.1214383 -0.09288435 0.05664942 -0.096330896 -0.068058364 0.048032977
-0.057978783 0.043990675 -0.03154647 0.009306081 -0.12795879 0.01263151 0.043396488 -0.112490736
-0.06899409 -0.04261737 -0.06909708 -0.0023163515 -0.03674667 -0.006677655 0.06411402 -0.02863222
0.09236439 -0.11460028 -0.045157965 -0.048548363 -0.0043733884 0.025682705 -0.03911962 0.014139549
0.059907787 -0.042062417 0.273904 0.18337272 0.04289757 -0.17720501 -0.12943178 -0.09362159
0.05983532 0.07035913 -0.072096705 0.26529256 0.14195524 -0.24345513 -0.008325664 -0.020200467
-0.09700071 0.010919264 0.1993778 -0.024287676 -0.0022121272 0.06494372 0.046897795 -0.060020924
-0.07918294 0.073477715 -0.15232061 -0.13055761 -0.011401462 -0.010106589 -0.18946685 -0.019971415
-0.019715812 -0.037412483 -0.07721597 -0.034078002 0.0014428071 0.07255797 -0.18425564 -0.36945948
-0.1203508 -0.048549913 0.044763632 -0.0049259975 -0.0834081 0.22298883 0.073009335 0.074673705
0.048154425 -0.012446114 -0.094085015 0.022422597 -0.15216874 -0.1475946 -0.21433836 0.004781387
0.14155762 0.18407986 0.21323368 0.05352164 0.08182762 0.04148013 -0.15651456 0.0415624
-0.11622748 -0.27369797 -0.2649403 -0.0563343 -0.31171617 -0.17053947 -0.13464954 -0.40730834
-0.30534524 -0.51231635 -0.08300764 0.11124723 0.0825412 -0.024350317 0.1882367 0.11282034
0.030076096 -0.04248282 0.12212255 -0.23866566 -0.15403247 -0.29909626 -0.011861819 -0.04259276
0.036820687 -0.2064876 -0.23021103 -0.108127736 0.0035362495 -0.08955513 -0.11325344 -0.23362954
-0.012512561 -0.15281263 0.043898486 -0.18628043 -0.084406585 0.0067346203 -0.099967 -0.19066724
0.07498598 0.09933937 -0.028357094 -0.0024918413 -0.03409133 0.02719954 0.086657636 -0.08750408
0.034295358 0.015688753 -0.1014604 0.022072691 -0.09600778 0.14143176 0.06250483 0.15100113
-0.012033097 0.008711466 -0.02267626 -0.036099624 -0.12855022 -0.23811366 -0.13834319 -0.08658819
-0.15398213 -0.14029677 -0.020684578 0.090988986 -0.10521359 -0.12871452 0.064138494 -0.15892802
-0.1592129 -0.006287417 -0.02997375 -0.060112733 -0.16684426 -0.07007309 -0.04199209 -0.2623748
-0.014293124 0.08959014 0.010376352 0.07037642 -0.11880442 0.07876422 0.0731186 0.036355346
0.1265585 -0.050684705 0.07671039 0.08967394 0.36215487 -0.095408775 0.08079322 -0.004239453
-0.011330411 0.02008702 0.024195619 -0.08622719 0.44698274 0.46097392 0.2800903 0.3000165
00000000: 2af9 33bd 99db e6bc b1f4 a7bd a6af 08be
00000010: c3e7 cfbc 9de6 13bd 5a57 09be 12c2 47bd
00000020: 8617 903d 6632 8f3d 077c 443d d50e 4fbd
00000030: d272 7abd 01ad f2bd 4a19 84bd d5d0 873d
00000040: d68a 26bc 1f61 a6bd de60 953d a7f1 f4bc
00000050: c170 9cbd 6df9 b13d b83e 82bd 9676 a53a
00000060: 21c5 0dbd 41dc 003c b3a1 333c dc17 133d
00000070: 58e7 4dbc 5072 073c 0697 0abe 9aaa e1bc
00000080: c287 a0bd 8400 6339 853f e13b 6092 43bd
00000090: 1916 0d3d 1f1d c9bd 9243 debd efd2 2e3c
000000a0: f401 d3bc c450 0bbd a0f9 ac3c e1b1 cfbd
000000b0: b3a2 863d 373e 163d 2f28 ab3c 5d2d b3bd
000000c0: 9be1 c5bc fb22 80bd 2944 dbbc 64c1 2a3d
000000d0: 6a34 963d 611e b8bd edf9 9e3d c5b6 933d
000000e0: 6b01 78bd 3c24 bc3c a5b4 f8bd 263a bebd
000000f0: 3909 683d 2249 c5bd 2f62 8bbd 3abe 443d
00000100: 297b 6dbd 912f 343d df36 01bd 8878 183c
00000110: a107 03be 65f4 4e3c 84c0 313d 8b61 e6bd
00000120: c64c 8dbd 8d8f 2ebd c582 8dbd eecd 17bb
00000130: ad83 16bd 3bd0 dabb 364e 833d 1e8e eabc
00000140: 8b29 bd3d 8db3 eabd 8ff7 38bd a6da 46bd
00000150: a44e 8fbb 8964 d23c e53b 20bd 91a9 673c
00000160: de61 753d a449 2cbd 253d 8c3e 0fc6 3b3e
00000170: 5db5 2f3d 3b75 35be c489 04be adbc bfbd
00000180: e115 753d 7318 903d 70a7 93bd 6dd4 873e
00000190: b75c 113e 4d4c 79be 5e68 08bc 737b a5bc
000001a0: 4fa8 c6bd b6e6 323c b229 4c3e f3f6 c6bc
000001b0: 56f9 10bb 3701 853d e717 403d 80d8 75bd
000001c0: aa2a a2bd 7c7b 963d eff9 1bbe e5b0 05be
000001d0: 33cd 3abc 1b96 25bc 9903 42be 189b a3bc
000001e0: 0e83 a1bc d53d 19bd 6823 9ebd 6095 0bbd
000001f0: 931c bd3a 4699 943d 83ad 3cbe cb29 bdbe
00000200: 7b7a f6bd 46dc 46bd 125a 373d 436a a1bb
00000210: ded1 aabd 2f57 643e eb85 953d 87ee 983d
00000220: 933d 453d c9ea 4bbc a5af c0bd 98af b73c
00000230: 1fd2 1bbe 0a23 17be 847b 5bbe 2ead 9c3b
00000240: 7bf4 103e 6e7f 3c3e ee59 5a3e 8239 5b3d
00000250: 3d95 a73d 12e7 293d 5a45 20be 563d 2a3d
00000260: ac08 eebd 2422 8cbe 41a6 87be ccbe 66bd
00000270: 4399 9fbe e6a1 2ebe 92e1 09be b88a d0be
00000280: 3656 9cbe 2a27 03bf e9ff a9bd 96d5 e33d
00000290: 5c0b a93d 517a c7bc 1fc1 403e 5a0e e73d
000002a0: 2562 f63c 7702 2ebd 631b fa3d c564 74be
000002b0: b0ba 1dbe 2523 99be 1358 42bc bf75 2ebd
000002c0: 4ad1 163d 7c71 53be 71bc 6bbe 1372 ddbd
000002d0: 6cc0 673b ae68 b7bd 6bf1 e7bd 953c 6fbe
000002e0: 7c01 4dbc ea7a 1cbe e6ce 333d 4cc0 3ebe
000002f0: 5cdd acbd 17ae dc3b 80bb ccbd 463e 43be
00000300: 4092 993d 7172 cb3d 234d e8bc 294e 23bb
00000310: 5aa3 0bbd 92d1 de3c 8f79 b13d 5735 b3bd
00000320: 4a79 0c3d b385 803c 78ca cfbd cad1 b43c
00000330: ba9f c4bd 7dd3 103e 8802 803d 0aa0 1a3e
00000340: 7826 45bc 89ba 0e3c 90c3 b9bc 33dd 13bd
00000350: aba2 03be 11d4 73be d6a9 0dbe 2655 b1bd
00000360: 7ead 1dbe f5a9 0fbe b472 a9bc 6f58 ba3d
00000370: 397a d7bd bdcd 03be 0b5b 833d 07be 22be
00000380: b508 23be ad06 cebb 828b f5bc c538 76bd
00000390: 39d9 2abe 7b82 8fbd e6ff 2bbd fd55 86be
000003a0: b52d 6abc 097b b73d 9301 2a3c 8321 903d
000003b0: bb4f f3bd 234f a13d 34bf 953d 58e9 143d
000003c0: 8d98 013e c49a 4fbd 561a 9d3d f8a6 b73d
000003d0: 5d6c b93e ad65 c3bd ea76 a53d 1ceb 8abb
000003e0: 30a3 39bc 898d a43c e435 c63c e297 b0bd
000003f0: ecda e43e c604 ec3e ff67 8f3e c39b 993e

conv2.bias f4 [10]
-0.09822107 -0.09424557 -0.06145755 0.0020482903 -0.10770902 -0.116059385 -0.062172465 0.024460448
-0.009442476 -0.094567776
00000000: 2128 c9bd d203 c1bd e9ba 7bbd 9c3c 063b
00000010: 8c96 dcbd 8bb0 edbd 8ea8 7ebd 4761 c83c
00000020: 9db4 1abc c0ac c1bd

conv3.weight f4 [10, 10, 3, 3]
0.10484018 0.06254215 0.06493742 -0.041201353 -0.016211051 -0.115868405 0.006413903 -0.024923509
0.124287225 -0.017723966 0.019726014 0.0800982 -0.10423858 -0.0035755713 -0.07155131 -0.13145983
0.007833402 -0.07390257 0.025601918 0.08785228 0.1003033 -0.12712947 0.00943872 -0.08189382
-0.12872611 -0.081720084 -0.030459708 -0.061667915 0.01016913 -0.017296206 -0.0069880947 -0.06137515
-0.054411307 -0.05636199 0.045034874 0.03815974 -0.139413 0.011959424 0.12775226 -0.073955566
-0.0008971853 -0.13306999 0.038824487 0.046495706 -0.07865341 -0.011851453 0.027001701 -0.02558512
-0.07349573 0.008904385 0.053171005 -0.14143442 0.036187958 -0.06504556 -0.044134527 0.043876115
-0.060241744 -0.024069348 0.005510909 -0.0023755857 -0.0867193 0.037932727 -0.1087371 -0.031152347
-0.033592593 0.10723782 -0.022426527 -0.11544063 0.010035693 0.066120595 -0.019306745 0.098536626
-0.05053303 -0.114365846 -0.1088089 0.022204565 -0.1637827 -0.073263966 -0.14611219 -0.18211474
-0.111061625 -0.09626121 -0.077061094 -0.08264921 0.046377707 0.020217564 -0.041533455 -0.15694754
0.003532983 0.027784325 0.07964939 -0.06786323 0.056514993 0.08246536 0.011844985 0.04409715
0.007738731 -0.051728565 0.10474029 -0.079436965 -0.12732719 -0.33117887 0.10573534 0.15221773
0.057847656 0.017098214 0.115132764 0.14252579 0.40645155 0.101409614 -0.14650172 0.17232539
-0.014589915 -0.17689903 -0.14463016 0.0749031 -0.11734555 0.016330443 0.030471323 -0.18270455
0.0037655581 -0.111986145 -0.19225459 -0.09757595 -0.07552673 -0.20107667 -0.060178284 -0.028374143
0.059918012 0.06458167 0.09888205 0.0016855985 0.050858103 -0.051593363 0.045891117 -0.0023702646
0.076443166 -0.048796456 0.09981004 -0.0452621 0.079594254 -0.027596228 -0.107423596 -0.012092746
-0.0415629 -0.17926969 -0.20044029 0.11559076 -0.11498814 -0.23652704 0.13613854 0.0345152
0.10835471 -0.027475104 -0.03152314 -0.17660114 -0.057091426 0.039438453 -0.16514115 -0.11287677
0.03902421 -0.06556647 0.020355444 -0.21609828 -0.23653878 0.23046632 0.07814492 -0.10109393
-0.12677418 0.056215018 0.18446073 -0.14876007 -0.34645855 -0.5865003 0.30744419 0.013937801
-0.14401296 0.1331253 0.2253815 0.2956616 -0.070984796 -0.09060425 -0.028315246 0.12851997
-0.044572197 0.041754432 -0.0011987367 0.04722064 -0.05352961 0.040998325 -0.06165116 -0.0088652205
-0.013873134 -0.16796055 0.023062628 -0.09514076 -0.19607882 -0.034386367 -0.1164074 -0.054289963
0.048818164 0.042572428 -0.060976416 -0.103524595 -0.096088275 -0.11934718 -0.080710225 -0.10842275
-0.021588935 -0.052488387 0.059991356 -0.031071015 0.06530221 -0.01371876 0.035871882 -0.06673968
0.052796077 0.01334356 0.013664931 -0.01209386 -0.033480026 0.05795508 0.04656904 -0.015857846
-0.015685504 -0.044908807 0.049656563 -0.076850325 -0.124043256 -0.008735582 -0.0061233533 0.06265566
0.025720371 0.0035944316 -0.17653011 0.0049328515 -0.012569487 -0.13591532 0.016192902 -0.07393362
0.024553988 0.025776021 -0.08236526 0.021735622 -0.12578996 -0.018542508 -0.04934338 -0.078129165
-0.11246102 -0.0019965717 -0.13366993 -0.03988337 -0.18254857 -0.087852135 -0.089472964 -0.026173472
00000000: 73b6 d63d 1916 803d e9fd 843d c0c2 28bd
00000010: 0acd 84bc 6a4c edbd b82b d23b 632c ccbc
00000020: 4d8a fe3d da31 91bc 7398 a13c 860a a43d
00000030: 097b d5bd 2254 6abb 7e89 92bd 689d 06be
00000040: ab57 003c 3b5a 97bd 1dbb d13c e5eb b33d
00000050: d16b cd3d 3a2e 02be dca4 1a3c f2b7 a7bd
00000060: c7d0 03be dc5c a7bd a386 f9bc 7f97 7cbd
00000070: 6c9c 263c c6b0 8dbc 63fc e4bb 8264 7bbd
00000080: 64de 5ebd d4db 66bd 7d76 383d 634d 1c3d
00000090: 48c2 0ebe 76f1 433c 7dd1 023e 0476 97bd
000000a0: 1631 6bba 8043 08be 6d06 1f3d 4872 3e3d
000000b0: 0a15 a1bd 992c 42bc ac32 dd3c e397 d1bc
000000c0: ee84 96bd b3e3 113c d7c9 593d 2fd4 10be
000000d0: d339 143d 9b36 85bd 68c6 34bd 71b7 333d
000000e0: 0cc0 76bd 152d c5bc db94 b43b b7af 1bbb
000000f0: e399 b1bd 595f 1b3d 8fb1 debd 3533 ffbc
00000100: 6398 09bd 819f db3d d6b7 b7bc 236c ecbd
00000110: bf6c 243c 3c6a 873d 2e29 9ebc 92cd c93d
00000120: b9fb 4ebd a438 eabd 33d7 debd 59e6 b53c
00000130: a7b6 27be 6b0b 96bd 6f9e 15be 497c 3abe
00000140: 4774 e3bd 9924 c5bd 35d2 9dbd fd43 a9bd
00000150: 8df6 3d3d 4e9f a53c fc1e 2abd dbb6 20be
00000160: 9e89 673b f49b e33c 381f a33d e1fb 8abd
00000170: 447c 673d 99e3 a83d 7811 423c 379f 343d
00000180: 2e95 fd3b 55e1 53bd 1482 d63d d9af a2bd
00000190: 0f62 02be 4790 a9be c58b d83d f7de 1b3e
000001a0: aaf1 6c3d 8e11 8c3c baca eb3d 48f2 113e
000001b0: 6b1a d03e d8af cf3d 8c04 16be 1176 303e
000001c0: 8a0a 6fbc 0525 35be ee19 14be cc66 993d
000001d0: dd52 f0bd 6cc7 853c ff9e f93c e716 3bbe
000001e0: 95c7 763b fe58 e5bd 63de 44be e6d5 c7bd
000001f0: c2ad 9abd 0be7 4dbe 817d 76bd e470 e8bc
00000200: 976c 753d 6543 843d ac82 ca3d 4def dc3a
00000210: 9650 503d 9053 53bd 53f8 3b3d 7156 1bbb
00000220: 3c8e 9c3d cbde 47bd 3569 cc3d c064 39bd
00000230: 5002 a33d 7c11 e2bc e700 dcbd a720 46bc
00000240: dc3d 2abd 7992 37be 3840 4dbe d9ba ec3d
00000250: e77e ebbd 2534 72be e767 0b3e cf5f 0d3d
00000260: 13e9 dd3d 7813 e1bc 681e 01bd eed6 34be
00000270: b3d8 69bd 378a 213d c31a 29be f02b e7bd
00000280: dad7 1f3d b747 86bd 76c0 a63c de48 5dbe
00000290: 3937 72be 5dff 6b3e 720a a03d 560a cfbd
000002a0: 17d1 01be b841 663d 46e3 3c3e 8f54 18be
000002b0: 0463 b1be e224 16bf 5369 9d3e 605b 643c
000002c0: 2278 13be 0052 083e 68ca 663e f560 973e
000002d0: 7a60 91bd b98e b9bd 60f5 e7bc bd9a 033e
000002e0: 5691 36bd b206 2b3d ee1e 9dba 6e6a 413d
000002f0: dd41 5bbd dced 273d ed85 7cbd 6e3f 11bc
00000300: 244c 63bc dafd 2bbe d6ed bc3c 29d9 c2bd
00000310: e3c8 48be b8d8 0cbd 0167 eebd 275f 5ebd
00000320: 8ef5 473d 6d60 2e3d 68c2 79bd b404 d4bd
00000330: eec9 c4bd 4b6c f4bd 674b a5bd bf0c debd
00000340: 47db b0bc 10fe 56bd 7fb9 753d a488 febc
00000350: 2abd 853d a6c4 60bc 65ee 123d d0ae 88bd
00000360: b340 583d f29e 5a3c e0e2 5f3c 5325 46bc
00000370: 5a22 09bd 4e62 6d3d 2dbf 3e3d 50e8 81bc
00000380: e37e 80bc 4cf2 37bd ae64 4b3d b463 9dbd
00000390: 640a febd b01f 0fbc 69a6 c8bb 9c51 803d
000003a0: 87b3 d23c 8e90 6b3b 4fc4 34be c2a3 a13b
000003b0: 40f0 4dbc 632d 0bbe faa6 843c 826a 97bd
000003c0: 7225 c93c 3c28 d33c 1eaf a8bd e70e b23c
000003d0: 15cf 00be 75e6 97bc 491c 4abd 2f02 a0bd
000003e0: f751 e6bd ead8 02bb c5e0 08be bf5c 23bd
000003f0: 03ee 3abe d2eb b3bd 9a3d b7bd c069 d6bc

conv3.bias f4 [10]
0.016035257 0.11121665 -0.12629244 0.11910379 -0.054361913 0.018447801 -0.12945127 0.26066175
0.000474783 -0.082509086
00000000: 5f5c 833c 8ec5 e33d ce52 01be b0ec f33d
00000010: 99aa 5ebd d81f 973c e08e 04be 7575 853e
00000020: 4cec f839 86fa a8bd

conv4.weight f4 [10, 10, 3, 3]
-0.049654454 -0.11905124 0.06546986 -0.028446244 -0.06343773 0.03605066 0.09286375 -0.07103077
-0.0011136257 0.24466456 0.1224778 -0.015402546 0.17765297 0.3022035 0.0907803 -0.06034609
0.23343812 0.30879775 0.07092257 0.025746834 -0.00014244969 0.022521963 -0.015703818 -0.093241036
-0.10410405 -0.040110134 0.0752117 0.087147176 0.0068454556 -0.10141852 0.017800469 -0.044836625
-0.10542402 0.24542338 0.12051574 -0.13685083 0.07077486 -0.057270788 -0.12764795 0.019686723
0.07270775 -0.117668204 0.105327286 0.052647285 -0.07162236 -0.043913145 -0.015029298 -0.06222421
-0.08212562 -0.04778024 0.031933617 0.023661708 -0.0066148154 -0.111064136 -0.0863764 -0.0068897083
-0.03032172 -0.014249851 -0.04028576 0.051704016 -0.008657783 0.12717865 -0.053750586 0.09246117
0.018832793 -0.04003835 0.06483531 -0.108675405 -0.026740773 0.4243997 0.032238428 0.028812708
0.0671455 0.036797397 -0.2421638 0.13289781 0.084595874 -0.18876743 0.092441685 0.25999922
-0.036003415 -0.08876047 0.0038636224 -0.058041003 -0.079432756 0.0321928 -0.036789373 0.1291386
0.19452664 0.085809186 0.011834513 0.07885212 0.11423793 0.0156507 0.050014798 0.11180365
0.036394052 0.0551596 -0.01776489 0.1998841 0.012955866 -0.07763906 -0.07208379 -0.019317277
-0.04790035 0.24259771 0.119864024 -0.131739 0.012289781 -0.0467818 -0.10461963 -0.1208961
-0.031856135 0.040682413 -0.14131808 0.08340379 -0.14306179 -0.01876239 0.12197989 0.358873
-0.22821052 -0.19603032 -0.103421815 -0.091759086 0.09000937 -0.04520152 -0.04340137 0.05622472
0.17516759 -0.13097624 -0.05166433 0.10966833 -0.1641174 -0.182969 -0.020193353 0.16570668
-0.023730837 -0.04795882 0.10388777 -0.08322099 0.08172878 0.1918502 -0.08166361 -0.044387847
-0.022884326 -0.074106984 -0.0064250208 0.007368301 -0.058948293 -0.0010045338 0.0019858556 -0.0057210694
-0.058589906 -0.055499464 0.022874463 0.29851314 -0.16081645 0.029987948 0.23207328 -0.21835583
0.09067548 -0.021662798 -0.16840339 -0.09887043 0.17460316 -0.23359606 -0.25581762 -0.10760994
0.11625013 -0.05490629 0.0626714 0.10632613 0.04344527 -0.026791027 0.05325439 0.0042246566
-0.08361119 -0.017442523 0.10188112 -0.10331137 -0.01678626 0.030024271 0.05155063 0.06292457
-0.002931112 -0.019652955 0.11629849 0.03816922 -0.029562762 0.044379663 0.03633228 0.30295232
-0.17592108 -0.17934528 0.08445354 0.10350362 0.05726114 0.16754118 0.07753018 0.06009763
0.07133022 0.06477421 -0.050227903 -0.023797525 0.079465315 0.048427187 -0.010446718 -0.23670362
-0.060589366 0.05473254 -0.12487133 0.11409339 0.11125497 0.08426159 0.08544711 0.2520167
-0.1634026 -0.08952811 0.08702043 -0.105704755 0.036143366 0.012115348 -0.10433833 0.052035414
0.10637335 0.06450001 0.055193316 0.111299664 0.06404314 0.07385292 -0.047741555 0.17453337
0.038461387 -0.09178584 -0.01565244 -0.010552994 -0.00380098 0.11677685 0.1487229 0.043836135
0.042768832 0.0036992792 -0.08222528 -0.22633587 -0.11259952 0.022728825 0.075936675 0.17870358
0.2737687 -0.1257998 -0.03305584 0.15087813 -0.059008088 -0.035087325 0.16958772 -0.17957146
00000000: 7862 4bbd 23d1 f3bd 1015 863d 1908 e9bc
00000010: a4eb 81bd dba9 133d 5a2f be3d 9578 91bd
00000020: 14f7 91ba 5989 7a3e a4d5 fa3d f65a 7cbc
00000030: a9ea 353e 6bba 9a3e 06eb b93d 762d 77bd
00000040: 670a 6f3e bd1a 9e3e da3f 913d 06eb d23c
00000050: 8c5e 15b9 fb7f b83c 4ba5 80bc 28f5 bebd
00000060: 8134 d5bd 864a 24bd 9708 9a3d 387a b23d
00000070: d84f e03b 83b4 cfbd 4ad2 913c 9ca6 37bd
00000080: 8ce8 d7bd 4450 7b3e f5d0 f63d a022 0cbe
00000090: 69f2 903d c694 6abd 25b6 02be 0d46 a13c
000000a0: cde7 943d 07fc f0bd d5b5 d73d aea4 573d
000000b0: beae 92bd 45de 33bd 723d 76bc d0de 7ebd
000000c0: 7a31 a8bd 37b5 43bd d3cc 023d 33d6 c13c
000000d0: 18c1 d8bb 9875 e3bd 1ce6 b0bd 10c3 e1bb
000000e0: 4165 f8bc 3578 69bc ae02 25bd 97c7 533d
000000f0: 60d9 0dbc 1f3b 023e 9329 5cbd 485c bd3d
00000100: 3b47 9a3c 41ff 23bd 60c8 843d 3691 debd
00000110: 770f dbbc eb4a d93e 710c 043d a108 ec3c
00000120: 9483 893d deb8 163d caf9 77be 5d16 083e
00000130: 9a40 ad3d 404c 41be 1152 bd3d 9e1e 853e
00000140: 5178 13bd 0dc8 b5bd d434 7d3b 67bc 6dbd
00000150: a4ad a2bd 99dc 033d 74b0 16bd e93c 043e
00000160: fe31 473e babc af3d 8ce5 413c 387d a13d
00000170: 93f5 e93d e635 803c 51dc 4c3d 50f9 e43d
00000180: ee11 153d 08ef 613d ad87 91bc 6bae 4c3e
00000190: d744 543c 3a01 9fbd aba0 93bd 443f 9ebc
000001a0: 2833 44bd 896b 783e 457b f53d 97e6 06be
000001b0: 145b 493c 469e 3fbd d142 d6bd 6098 f7bd
000001c0: 947b 02bd 9aa2 263d b0b5 10be 9bcf aa3d
000001d0: ca7e 12be 95b3 99bc 98d0 f93d 34be b73e
000001e0: 05b0 69be 2cbc 48be d1ce d3bd 30ec bbbd
000001f0: d556 b83d 3b25 39bd a3c5 31bd e44b 663d
00000200: 225f 333e a31e 06be fa9d 53bd ca99 e03d
00000210: 640e 28be 3a5c 3bbe 886c a5bc 03af 293e
00000220: 2c67 c2bc 7870 44bd 1cc3 d43d c46f aabd
00000230: 6b61 a73d 6174 443e 403f a7bd 08d0 35bd
00000240: e977 bbbc 67c5 97bd fb88 d2bb ca71 f13b
00000250: c473 71bd 90aa 83ba 2125 023b cf77 bbbb
00000260: f8fb 6fbd 6853 63bd 3a63 bb3c b7d6 983e
00000270: 11ad 24be 49a9 f53c 9ea4 6d3e ac98 5fbe
00000280: 11b4 b93d 2e76 b1bc f071 2cbe 947c cabd
00000290: 2ccb 323e ce33 6fbe 87fa 82be 9a62 dcbd
000002a0: 8c14 ee3d 6be5 60bd dd59 803d 84c1 d93d
000002b0: abf3 313d db78 dbbc 4621 5a3d fd6e 8a3b
000002c0: 583c abbd 9fe3 8ebc 0ca7 d03d e994 d3bd
000002d0: 5783 89bc 76f5 f53c c126 533d 99de 803d
000002e0: e617 40bb 3cff a0bc e72d ee3d 5457 1c3d
000002f0: 9b2d f2bc 73c7 353d 28d1 143d 911c 9b3e
00000300: a824 34be 4aa6 37be faf5 ac3d b5f9 d33d
00000310: a88a 6a3d ea8f 2b3e 25c8 9e3d ef28 763d
00000320: 9415 923d 57a8 843d c6bb 4dbd 07f3 c2bc
00000330: b6be a23d 965b 463d b628 2bbc 6f62 72be
00000340: 8e2c 78bd 3a2f 603d 8abc ffbd cca9 e93d
00000350: a5d9 e33d 5791 ac3d e5fe ae3d 5508 813e
00000360: 0353 27be 845a b7bd c437 b23d bc7b d8bd
00000370: 110b 143d 747f 463c 56af d5bd 1623 553d
00000380: 45da d93d 9518 843d 6312 623d 14f1 e33d
00000390: 0d29 833d 3340 973d a68c 43bd e0b8 323e
000003a0: b089 1d3d 37fa bbbd 8c39 80bc 77e6 2cbc
000003b0: dd19 79bb b328 ef3d d14a 183e 858d 333d
000003c0: 5f2e 2f3d 9b6f 723b ba65 a8bd 97c4 67be
000003d0: 949a e6bd cd31 ba3c b084 9b3d 12fe 363e
000003e0: 692b 8c3e aad1 00be 8f65 07bd cc7f 1a3e
000003f0: 77b2 71bd bab7 0fbd 67a8 2d3e 95e1 37be

conv4.bias f4 [10]
-0.013999389 0.007706478 -0.20232591 -0.037952792 0.15805252 0.06362338 -0.18711919 0.07940625
-0.10688065 -0.066811405
00000000: b15d 65bc 9f86 fc3b 862e 4fbe 6374 1bbd
00000010: 85d8 213e fa4c 823d 2c9c 3fbe be9f a23d
00000020: 3ee4 dabd 6bd4 88bd

norm.weight f4 [10]
1.2249943 1.172212 1.1037251 0.9775708 1.1107043 1.1907967 0.944148 1.2461239
0.9973011 1.1254987
00000000: 9dcc 9c3f 0b0b 963f dd46 8d3f 1442 7a3f
00000010: 8f2b 8e3f 076c 983f afb3 713f fd80 9f3f
00000020: 204f 7f3f 5710 903f

norm.bias f4 [10]
-0.3572006 -0.3264762 -0.44077244 -0.29429123 -0.478364 -0.2965406 -0.37321666 -0.3576301
-0.39354587 -0.2838033
00000000: ffe2 b6be e327 a7be edac e1be 57ad 96be
00000010: 20ec f4be 2bd4 97be 4116 bfbe 4b1b b7be
00000020: d87e c9be ab4e 91be

norm.running_mean f4 [10]
0.6621672 -0.6038024 0.17472167 -2.2807674 -1.4149303 0.22688 -1.2195711 1.6068538
-2.3856618 0.4987956
00000000: ca83 293f cb92 1abf 3dea 323e 18f8 11c0
00000010: 701c b5bf 3b53 683e e81a 9cbf 63ad cd3f
00000020: afae 18c0 2362 ff3e

norm.running_var f4 [10]
0.948144 0.93131155 0.44625312 1.0426596 0.67011184 0.48789528 0.5368396 1.2248206
0.8616859 0.90226626
00000000: 91b9 723f 6f6a 6e3f 4a7b e43e df75 853f
00000010: 738c 2b3f 69cd f93e 526e 093f ecc6 9c3f
00000020: 7297 5c3f ecfa 663f

fc1.weight f4 [50, 810]
-0.06426204 -0.056958612 -0.04994207 -0.04229387 -0.03607973 0.019317884 -0.012847568 -0.018339885
0.003291171 -0.0630801 -0.03597872 -0.06355585 -0.010549254 -0.035517592 -0.0018417906 -0.042756394
-0.05790247 -0.06086572 -0.042257346 -0.05201943 -0.04425244 -0.009014936 -0.051518623 -0.04090786
-0.03312747 -0.054897103 0.030357834 -0.04534824 -0.06053212 -0.03618684 -0.025706183 -0.0027621568
-0.060859952 -0.062738806 -0.025682319 -0.026617521 -0.024328701 -0.04245253 -0.031827696 -0.024506299
-0.048917193 -0.041461937 -0.0074208314 0.008633655 -0.015286548 -0.022254301 -0.010063235 -0.01453526
-0.020243935 -0.012808226 -0.009472127 -0.06278076 -0.06256457 0.0030645228 0.0030948669 0.0020069934
-0.009865854 -0.061441634 -0.031224981 -0.06274892 -0.05340774 -0.018763563 -0.059817046 -0.046367086
-0.03544877 -0.023924569 -0.06419663 -0.042894147 -0.054146335 -0.027143903 -0.057471372 -0.06494701
-0.060310166 -0.012981417 -0.05585376 -0.01331787 -0.013875646 -0.00040721594 -0.039618738 -0.05335566
-0.053072825 -0.022546735 -0.016111791 0.001551824 0.002740423 0.001970922 -0.056668133 -0.0052025323
-0.060659748 0.0012225859 -0.041262303 -0.03488133 -0.012058741 -0.033467293 -0.013466631 0.004123555
-0.05858669 -0.032653056 -0.005488035 -0.0016325793 -0.053199004 -0.02253559 -0.060114745 -0.03803664
-0.050741963 -0.037887882 0.0059562773 -0.04299362 -0.039878383 -0.003951935 -0.03655854 0.001769631
-0.022187155 0.0014786894 -0.038789358 -0.048560426 -0.06270699 -0.049828254 -0.009447171 -0.019875564
0.0037987095 0.0037716667 -0.002868594 -0.062417958 -0.0020320523 -0.020057483 -0.022189148 -0.05803108
-0.015637074 0.015216094 -0.015027361 -0.017167445 -0.02661463 -0.013875315 -0.05029199 -0.037431154
-0.03426524 -0.046183396 -0.031771265 -0.05268869 -0.058858596 -0.028297443 -0.021970917 -0.014374643
-0.021280857 -0.056047864 -0.045124583 -0.021560857 -0.009328633 -0.044103216 -0.0140390955 -0.05747588
-0.058593765 0.022978164 -0.0036762378 -0.0120309545 -0.035585064 -0.021275282 -0.046968177 -0.049801357
-0.040786635 -0.036157645 -0.00046476856 -0.05095146 -0.017916668 -0.006712539 0.038907092 -0.012265121
-0.03323541 -0.0011811557 -0.048288822 -0.057023935 -0.018741224 -0.028623288 -0.049079515 -0.0010552943
-0.04664622 -0.010484874 -0.038359825 -0.009464255 -0.052275974 -0.042821012 -0.0017581026 -0.002669318
-0.05464999 -0.031243185 -0.023259984 -0.009217059 0.0033532176 0.0047790557 -0.042409852 -0.04727699
-0.0068608355 0.004713177 -0.018728716 -0.061509088 -0.052198526 -0.013008467 -0.0588165 -0.03370047
-0.06471559 -0.0022771717 -0.016545981 -0.013606067 -0.04931654 -0.044493306 -0.050771456 -0.028812617
0.00995991 -0.02122694 -0.00025867618 -0.025793778 -0.045954444 -0.035736553 0.00353163 -0.023669144
-0.039416503 -0.020707907 -0.0003718154 -0.042154368 -0.06442912 0.014737736 0.013919588 0.06211033
-0.03550327 -0.03314318 0.024081983 -0.04607048 -0.028604914 -0.051857468 -0.017868808 -0.015957307
-0.0034742118 0.0047670244 -0.01106644 -0.022844434 -0.005849607 -0.010095294 -0.031007467 -0.063632935
-0.0092454245 -0.017544204 -0.049748734 -0.032712452 -0.030538864 0.0030471012 -0.03842372 -0.06015547
-0.037683826 -0.056653038 -0.049535755 -0.050987467 -0.00203493 -0.027009353 -0.0015054495 -0.040317014
00000000: d19b 83bd 6f4d 69bd 0e90 4cbd 563c 2dbd
00000010: 57c8 13bd 8a40 9e3c 9b7e 52bc 873d 96bc
00000020: b0b0 573b 2430 81bd 6c5e 13bd 9229 82bd
00000030: c7d6 2cbc e57a 11bd 3d68 f1ba 5421 2fbd
00000040: 242b 6dbd 554e 79bd 0a16 2dbd 5312 55bd
00000050: 0c42 35bd 62b3 13bc 3105 53bd 008f 27bd
00000060: acb0 07bd c9db 60bd feb0 f83c 13bf 39bd
00000070: 87f0 77bd a738 14bd c695 d2bc 4d05 35bb
00000080: 4948 79bd 347d 80bd ba63 d2bc fd0c dabc
00000090: fc4c c7bc b4e2 2dbd c25d 02bd 6fc1 c8bc
000000a0: 655d 48bd fed3 29bd 722a f3bb 2c74 0d3c
000000b0: 6e74 7abc a74e b6bc 44e0 24bc 4d25 6ebc
000000c0: 9cd6 a5bc 98d9 51bc fb30 1bbc 3393 80bd
000000d0: da21 80bd 29d6 483b 40d3 4a3b c387 033b
000000e0: 64a4 21bc 39aa 7bbd 88cb ffbc 8182 80bd
000000f0: 13c2 5abd 0bb6 99bc b802 75bd 6aeb 3dbd
00000100: bb32 11bd 75fd c3bc 8679 83bd c6b1 2fbd
00000110: 8cc8 5dbd e45c debc 1a67 6bbd f002 85bd
00000120: cb07 77bd 02b0 54bc eac6 64bd 3233 5abc
00000130: ad56 63bc 997f d5b9 4247 22bd 778b 5abd
00000140: e462 59bd eeb3 b8bc e0fc 83bc 9366 cb3a
00000150: ab98 333b 962a 013b d81c 68bd 017a aabb
00000160: 5b76 78bd 2d3f a03a a902 29bd badf 0ebd
00000170: 0792 45bc 0015 09bd 25a3 5cbc e31e 873b
00000180: 99f8 6fbd 36bf 05bd f9d4 b3bb 45fc d5ba
00000190: 33e7 59bd 8f9c b8bc e13a 76bd 4fcc 1bbd
000001a0: ced6 4fbd 5330 1bbd e02c c33b 141a 30bd
000001b0: 8457 23bd 3c7f 81bb 68be 15bd f7f2 e73a
000001c0: d6c1 b5bc 95d0 c13a 97e1 1ebd 4ce7 46bd
000001d0: 866c 80bd b618 4cbd 4fc8 1abc 14d2 a2bc
000001e0: c5f3 783b 112e 773b 05ff 3bbb f9a9 7fbd
000001f0: 2e2c 05bb 974f a4bc 04c6 b5bc ffb1 6dbd
00000200: 5219 80bc ed4c 793c 5235 76bc bea2 8cbc
00000210: ed06 dabc 4a55 63bc f9fe 4dbd 6951 19bd
00000220: b559 0cbd cd2a 3dbd 9622 02bd 19d0 57bd
00000230: b615 71bd 0ad0 e7bc 5afc b3bc 9f83 6bbc
00000240: 3155 aebc 7292 65bd 8ed4 38bd 65a0 b0bc
00000250: 1fd7 18bc 93a5 34bd 3c04 66bc d46b 6bbd
00000260: 0400 70bd b43c bc3c 09ed 70bb 7b1d 45bc
00000270: a5c1 11bd 8049 aebc b461 40bd 82fc 4bbd
00000280: e30f 27bd 0a1a 14bd 2eac f3b9 7ab2 50bd
00000290: fac5 92bc dcf4 dbbb 0b5d 1f3d a5f3 48bc
000002a0: da21 08bd 02d1 9aba 80ca 45bd ee91 69bd
000002b0: 3287 99bc 637b eabc 9a07 49bd cd51 8aba
000002c0: 1b10 3fbd c0c8 2bbc 311f 1dbd f60f 1bbc
000002d0: 551f 56bd 1665 2fbd 2270 e6ba baef 2ebb
000002e0: abd8 5fbd b5f1 ffbc b98b bebc 2603 17bc
000002f0: a8c1 5b3b a099 9c3b f4b5 2dbd 84a5 41bd
00000300: dcd0 e0bb ff70 9a3b f76c 99bc f4f0 7bbd
00000310: 1fce 55bd 7721 55bc 92e9 70bd 8109 0abd
00000320: 9b89 84bd 9a3c 15bb 708b 87bc fbeb 5ebc
00000330: 2400 4abd 9d3e 36bd bbf5 4fbd 7008 ecbc
00000340: e42e 233c 1fe4 adbc ee9e 87b9 794d d3bc
00000350: ba3a 3cbd 7e60 12bd eb72 673b cbe5 c1bc
00000360: 3373 21bd a1a3 a9bc 38f0 c2b9 0faa 2cbd
00000370: 6af3 83bd 8c76 713c fc0e 643c 6767 7e3d
00000380: e06b 11bd 25c1 07bd 9447 c53c 66b4 3cbd
00000390: da54 eabc 7f68 54bd 9b61 92bc e6b8 82bc
000003a0: 9aaf 63bb b334 9c3b 0350 35bc 4024 bbbc
000003b0: 0fae bfbb bb66 25bc 5f03 febc fc51 82bd
000003c0: 1f7a 17bc ddb8 8fbc 54c5 4bbd 7efd 05bd
000003d0: a42c fabc e0b1 473b 3162 1dbd 9565 76bd
000003e0: 5b5a 1abd 040d 68bd 01e6 4abd 3cd8 50bd
000003f0: 765c 05bb b842 ddbc 8152 c5ba 7423 25bd

fc1.bias f4 [50]
-0.04554358 -0.046790965 -0.054735128 -0.020202968 -0.051518288 -0.068958044 -0.0012668567 -0.08647179
0.0019861185 -0.005700177 -0.011053744 -0.024981137 -0.070398584 -0.06052813 -0.045964852 0.005483842
0.054654077 0.028090563 -0.03887559 0.087591 0.070669465 -0.018384362 -0.05404726 0.15825933
-0.041405268 -0.14797004 0.11910129 -0.04212366 -0.077225834 0.0066447863 -0.035588536 -0.05425097
-0.041663736 -0.026798785 0.053127505 0.24294527 -0.0022888747 -0.039968003 -0.055943634 -0.040506124
-0.040215716 -0.12149169 -0.02734139 -0.06970779 -0.054802205 -0.010095091 -0.057964407 0.027992247
-0.021581523 0.0005257944
00000000: e88b 3abd e2a7 3fbd f131 60bd b280 a5bc
00000010: d704 53bd e039 8dbd a80c a6ba 1f18 b1bd
00000020: 8a29 023b 8dc8 babb c31a 35bc 3ea5 ccbc
00000030: 222d 90bd 58ec 77bd a445 3cbd cdb1 b33b
00000040: f4dc 5f3d 2e1e e63c 033c 1fbd e962 b33d
00000050: 27bb 903d cd9a 96bc a960 5dbd bc0e 223e
00000060: 9298 29bd 7585 17be 61eb f33d dc89 2cbd
00000070: 9428 9ebd 82bc d93b 49c5 11bd 4436 5ebd
00000080: 98a7 2abd 2089 dbbc 3a9c 593d a5c6 783e
00000090: f200 16bb 7db5 23bd 2725 65bd c0e9 25bd
000000a0: 3cb9 24bd a3d0 f8bd 0dfb dfbc f5c2 8ebd
000000b0: 4778 60bd e165 25bc 166c 6dbd ff4f e53c
000000c0: bccb b0bc 77d5 093a

fc2.weight f4 [7, 50]
0.110826395 0.09620891 0.07821669 0.091028884 0.089929946 -0.052621305 -0.020749744 -0.2010258
-0.053430825 0.023761079 0.06459691 -0.13141638 0.10286061 0.009004575 0.09677188 -0.0682207
0.091249496 0.13338645 0.07502808 -0.0046593966 0.21615756 -0.003757538 -0.115163974 0.20990483
0.0075105657 0.0757686 0.061172105 -0.066605896 0.015459197 -0.03952207 0.06764918 -0.16867487
-0.08683295 -0.028212799 -0.25742224 0.09983376 -0.16060954 0.104623236 -0.032847207 -0.1273164
0.04858962 -0.11438894 -0.23385213 -0.10396884 0.061873913 -0.042119496 -0.11627962 0.14155813
-0.102428496 -0.12160461 -0.027747326 0.06889843 0.020440543 -0.12210522 0.03538674 -0.0028939422
0.010862443 -0.11622662 0.087349124 0.06382811 0.01762342 -0.033551153 0.08336182 0.04699381
0.029926436 -0.10987184 0.044562556 -0.21080595 0.075666614 0.20093347 -0.2201407 0.08614574
0.015152692 0.39123252 -0.15609363 -0.37203377 0.07332059 -0.14026946 -0.25779822 0.019930419
-0.020521332 -0.1081345 -0.1448279 -0.037270363 0.11763211 0.37908867 -0.100510046 -0.11359032
-0.07998905 0.0051265135 -0.004299803 -0.37107086 0.13959365 -0.13240942 0.055285975 0.054003134
0.03420113 -0.026642876 -0.09499344 -0.11293948 -0.04554746 0.14618 0.0021640393 0.041573398
-0.07381175 -0.020807935 -0.049929306 -0.01576186 0.11505819 -0.074153714 -0.03879849 -0.06658857
0.016460497 -0.06887034 -0.06325044 0.038173378 -0.20071648 -0.23786557 0.06511935 0.07661014
0.232809 0.019379426 0.0037165266 0.070190504 -0.01356223 -0.035958055 0.21543643 -0.099551275
0.15976402 -0.017506782 -0.07917359 -0.09305641 0.045595367 0.022919793 -0.25779346 -0.33153003
-0.012847254 -0.009046631 -0.06404473 0.036395606 0.052384317 0.08114717 0.09127428 -0.102951184
0.110291824 0.0097807115 -0.10466025 -0.16146715 -0.1307854 0.02197818 0.009049841 -0.101499915
0.05355301 0.045709558 -0.031254616 0.033005774 -0.053052776 -0.014959501 0.14642042 0.05845346
0.061672185 -0.005681015 0.0264634 0.064833015 0.048441038 -0.01847106 -0.039393224 -0.037379563
0.022025637 -0.10150082 -0.3355664 0.03845991 0.072125554 -0.19383031 0.0632224 0.28670284
-0.31629112 0.08837071 0.012330868 0.07297668 -0.06468623 0.06757242 0.06848874 0.09782201
-0.04131188 0.1279352 -0.027145771 0.08844462 0.05273374 0.09340097 0.10380579 0.08353048
0.11476101 -0.08742505 -0.07567475 0.09753238 -0.035184376 -0.17311603 -0.13166374 -0.15628481
0.003659484 0.002050216 0.006314746 -0.05849204 -0.091936715 0.10366982 -0.08862441 -0.09861269
0.17708488 -0.062450986 -0.09171257 0.10001231 -0.075467855 -0.13588293 -0.13896023 0.12310325
0.13711745 0.09039079 -0.05571634 0.11755747 -0.23565015 0.13482766 -0.04654127 -0.13450801
0.06717769 -0.41531673 -0.32118475 0.09872302 0.10206639 -0.057200376 0.080696374 -0.08136862
-0.14015682 -0.061280888 -0.043157447 -0.15902492 -0.043017384 0.10773975 -0.024187319 0.1138919
0.012287418 0.17266983 0.20266059 -0.039926384 -0.0034308091 -0.017471027 0.09922453 0.13085522
-0.050819512 0.11573943 0.066734225 0.04140896 -0.034565095 0.012049083 0.008967905 0.08292723
00000000: f3f8 e23d 2d09 c53d 1230 a03d 5a6d ba3d
00000010: 312d b83d 7089 57bd 5efb a9bc b5d9 4dbe
00000020: 48da 5abd 98a6 c23c 624b 843d 0492 06be
00000030: 95a8 d23d ed87 133c 5630 c63d 4bb7 8bbd
00000040: 04e1 ba3d 7596 083e 52a8 993d daad 98bb
00000050: 6858 5d3e 0741 76bb 17db ebbd 4bf1 563e
00000060: 311b f63b 912c 9b3d 9a8f 7a3d ac68 88bd
00000070: 9248 7d3c e5e1 21bd a78b 8a3d 1bb9 2cbe
00000080: 79d5 b1bd 871e e7bc d9cc 83be a475 cc3d
00000090: d476 24be b544 d63d cb8a 06bd 3b5f 02be
000000a0: e905 473d c044 eabd ef76 6fbe 9ded d4bd
000000b0: 806f 7d3d 7e85 2cbd 0224 eebd 9df4 103e
000000c0: 08c6 d1bd d60b f9bd 5c4e e3bc 9f1a 8d3d
000000d0: ed72 a73c 4d12 fabd b0f1 103d 4ba8 3dbb
000000e0: 63f8 313c 3908 eebd 19e4 b23d 50b8 823d
000000f0: fe5e 903c ef6c 09bd 9ab9 aa3d 957c 403d
00000100: 4928 f53c 7d04 e1bd 3a87 363d 84dd 57be
00000110: 19f7 9a3d 81c1 4d3e 906c 61be 2d6d b03d
00000120: ff42 783c a14f c83e 02d7 1fbe 367b bebe
00000130: 1b29 963d cca2 0fbe 21fe 83be 1e45 a33c
00000140: 5a1c a8bc 9f75 ddbd c44d 14be cfa8 18bd
00000150: 1be9 f03d e917 c23e 36d8 cdbd 0ba2 e8bd
00000160: 4dd1 a3bd 50fc a73b 5de5 8cbb 00fd bdbe
00000170: a3f1 0e3e 5696 07be 8c73 623d 6432 5d3d
00000180: 7c16 0c3d 2942 dabc ec8b c2bd d04c e7bd
00000190: f98f 3abd 36b0 153e 8ed2 0d3b de48 2a3d
000001a0: 9d2a 97bd 6775 aabc ac82 4cbd 041f 81bc
000001b0: a1a3 eb3d e7dd 97bd 2aeb 1ebd 975f 88bd
000001c0: 2ad8 863c e50b 8dbd 7289 81bd b05b 1c3d
000001d0: 9f88 4dbe 0893 73be 4b5d 853d c7e5 9c3d
000001e0: 7c65 6e3e 9ac1 9e3c f890 733b 0ac0 8f3d
000001f0: 1e34 5ebc c148 13bd 5e9b 5c3e 8ae1 cbbd
00000200: 2e99 233e 626a 8fbc c325 a2bd 5c94 bebd
00000210: 35c2 3a3d 4ac2 bb3c 81fd 83be 4ebe a9be
00000220: 4a7d 52bc 5238 14bc e229 83bd 8f13 153d
00000230: f090 563d 7d30 a63d 02ee ba3d 12d8 d2bd
00000240: aee0 e13d 473f 203c 1d58 d6bd a557 25be
00000250: 9cec 05be 960b b43c c945 143c 30df cfbd
00000260: 675a 5b3d f239 3b3d d704 00bd 1031 073d
00000270: de4d 59bd b218 75bc 3cef 153e e56c 6f3d
00000280: f99b 7c3d cf27 babb c6c9 d83c 2cc7 843d
00000290: 1c6a 463d 9f50 97bc ca5a 21bd 501b 19bd
000002a0: 1c6f b43c a9df cfbd 5ccf abbe 2388 1d3d
000002b0: 90b6 933d 747b 46be bf7a 813d b7ca 923e
000002c0: e9f0 a1be b4fb b43d 6907 4a3c cc74 953d
000002d0: 377a 84bd 6963 8a3d d343 8c3d e856 c83d
000002e0: a536 29bd 7201 033e cf60 debc 7422 b53d
000002f0: 56ff 573d 0249 bf3d 2198 d43d 0712 ab3d
00000300: d207 eb3d e80b b3bd 5dfb 9abd 0ebf c73d
00000310: 7e1d 10bd 5445 31be dcd2 06be 2009 20be
00000320: f4d3 6f3b eb5c 063b eeeb ce3b 5995 6fbd
00000330: 5149 bcbd d850 d43d b780 b5bd 73f5 c9bd
00000340: bd55 353e 9bcc 7fbd cdd3 bbbd 41d3 cc3d
00000350: e48e 9abd e524 0bbe 974b 0ebe 8f1d fc3d
00000360: 8468 0c3e ce1e b93d d136 64bd f9c1 f03d
00000370: 464e 71be 4310 0a3e 0fa2 3ebd 78bc 09be
00000380: 7594 893d 65a4 d4be 5472 a4be 4b2f ca3d
00000390: 2f08 d13d f14a 6abd 2444 a53d 97a4 a6bd
000003a0: 4585 0fbe ab01 7bbd ddc5 30bd 6ed7 22be
000003b0: ff32 30bd a8a6 dc3d 7c24 c6bc 2840 e93d
000003c0: 2b51 493c 5cd0 303e 4286 4f3e d989 23bd
000003d0: 6dd7 60bb 661f 8fbc 3b36 cb3d e9fe 053e
000003e0: 1f28 50bd cb08 ed3d f4ab 883d 719c 293d
000003f0: 2194 0dbd 8469 453c 1fee 123c c0d5 a93d

fc2.bias f4 [7]
0.095151834 0.38474193 0.0023549013 -0.076738805 -0.05695818 -0.057636153 0.020532819
00000000: f7de c23d e5fc c43e b054 1a3b 3c29 9dbd
00000010: fb4c 69bd e313 6cbd 7134 a83c

localization.0.weight f4 [8, 1, 7, 7]
0.03330725 -0.019564895 -0.06503466 -0.11091979 -0.15394168 0.01397805 0.028552396 0.017764507
-0.19005188 0.007940974 -0.05326311 0.036262702 0.09632341 -0.055349074 -0.019801732 0.0020205856
0.05049687 0.107637845 -0.12637316 -0.12009088 0.008642932 0.117195964 -0.13324928 -0.036948122
-0.07050877 -0.13007587 -0.032558467 0.09734776 0.00053165806 -0.020081162 -0.09596942 -0.061832603
-0.11449796 -0.10230546 0.06282366 0.031061776 -0.08374986 0.10970234 0.056073282 -0.06998846
-0.09110731 0.13800617 0.1119785 0.11903375 -0.08705499 0.03403297 0.043380473 -0.096845254
0.0012242806 0.077387705 -0.0016074572 0.07852053 0.09692351 0.036072988 0.10631649 -0.052049007
0.061158247 0.072808094 -0.11505088 0.054800205 0.063565485 -0.11342204 0.022266014 0.09924791
-0.09359224 -0.0286282 0.073304616 -0.081077315 0.17800999 -0.06957035 0.13233812 -0.06931997
-0.045648754 -0.08108504 -0.034031782 -0.07146321 -0.063670605 -0.091005936 -0.09270452 0.17191316
-0.014974084 0.021226011 -0.026974475 0.13582169 0.14277138 0.14473331 0.16425292 0.07652394
0.11236081 0.022099145 0.17563656 0.039945044 0.13312541 -0.012825413 -0.09454456 -0.067194976
-0.07904661 0.0022067963 -0.018813508 0.10309631 0.12111768 -0.050588224 0.095284216 0.051420674
-0.05485826 -0.050500497 -0.015696937 -0.08725867 0.13087799 -0.038271658 -0.15186799 0.049186245
-0.18039891 -0.06304889 0.034316957 -0.10684925 -0.049125828 -0.08268524 -0.04285595 0.06339435
-0.04769712 -0.047010656 -0.14192407 -0.0057769907 -0.121859506 0.11200748 -0.0918034 -0.18989238
0.04814998 -0.1033436 -0.014629153 -0.043508284 0.038316917 -0.068082556 0.0017091883 0.06601269
0.029144254 -0.15275419 -0.1025387 -0.0680835 0.0012632746 0.030613177 -0.15541603 -0.15778874
-0.14660755 -0.04139729 -0.05551777 0.082789585 -0.04684451 0.046698816 -0.08057659 0.022943962
-0.06785857 -0.0854652 0.08911288 -0.0052703177 -0.034656387 0.024737103 0.01768367 -0.104330525
-0.042642962 0.14053513 0.0759669 -0.07743682 0.08904755 0.06942521 -0.055115156 -0.023817077
-0.030793836 -0.070049934 0.07242253 0.08067963 0.0744628 -0.05107839 -0.016675487 -0.08387559
-0.10753265 -0.041645758 -0.052698836 -0.052741375 -0.12196407 0.10316217 -0.054803617 0.12693447
-0.015571771 0.08269852 0.0065029114 0.042655114 0.1261508 -0.009892914 0.041776076 0.13113083
-0.058345206 0.13502207 0.009921503 -0.06231763 -0.10225988 0.16267459 -0.09683507 0.0038561714
0.111355335 -0.08931028 0.16602506 -0.0156053305 -0.0756489 0.09898031 0.044711415 0.1861286
-0.07326621 0.0720592 -0.094211474 0.050425276 0.123442285 0.038812123 0.035256326 0.03126999
0.0624337 0.0014408916 -0.027450094 0.16294952 0.14212161 0.034701332 0.0051697763 0.064821266
0.13674524 -0.0005688759 -0.09790883 0.045449674 -0.011572475 0.06483058 0.1433355 0.09434555
0.092950456 0.014854418 0.008686078 -0.031442866 0.10524833 -0.020740628 -0.043251928 -0.10011646
-0.020491492 -0.076846614 0.0670469 0.022283033 0.116381936 0.08272591 -0.015289259 0.15430865
0.15510356 -0.018302903 -0.041728396 0.0044605453 0.09294334 0.078542836 0.10397978 0.027934546
00000000: 2f6d 083d 8f46 a0bc e430 85bd ea29 e3bd
00000010: e3a2 1dbe 3104 653c b7e6 e93c df86 913c
00000020: f69c 42be dc1a 023c 6b2a 5abd 3388 143d
00000030: 3545 c53d b6b5 62bd 3e37 a2bc cd6b 043b
00000040: ced5 4e3d 3b71 dc3d f767 01be 35f2 f5bd
00000050: 169b 0d3c 7004 f03d 8072 08be ea56 17bd
00000060: e766 90bd 9c32 05be 075c 05bd 435e c73d
00000070: f85e 0b3a 4081 a4bc 9e8b c4bd 2f44 7dbd
00000080: e87d eabd 8685 d1bd b1a9 803d 4475 fe3c
00000090: 0c85 abbd 9fab e03d 19ad 653d 1c56 8fbd
000000a0: 7896 babd 7d51 0d3e fc54 e53d f7c7 f33d
000000b0: e349 b2bd 2866 0b3d b9af 313d ce56 c6bd
000000c0: 0a78 a03a 727d 9e3d 50b1 d2ba 5fcf a03d
000000d0: d57f c63d 45c1 133d 76bc d93d 5731 55bd
000000e0: 1281 7a3d 691c 953d cc9f ebbd 2e76 603d
000000f0: 9f2e 823d d149 e8bd 3767 b63c 7d42 cb3d
00000100: 4aad bfbd b085 eabc bb20 963d dd0b a6bd
00000110: 4048 363e e67a 8ebd a583 073e a1f7 8dbd
00000120: 30fa 3abd ea0f a6bd e964 0bbd 4e5b 92bd
00000130: bc65 82bd 5261 babd dedb bdbd 010a 303e
00000140: dc55 75bc 2ce2 ad3c 93f9 dcbc d714 0b3e
00000150: a932 123e f834 143e eb31 283e 95b8 9c3d
00000160: 6d1d e63d 4409 b53c 12da 333e 6a9d 233d
00000170: 0752 083e ae21 52bc 94a0 c1bd 859d 89bd
00000180: 30e3 a1bd e69f 103b c91e 9abc 2824 d33d
00000190: 8c0c f83d 9935 4fbd 5f24 c33d 7c9e 523d
000001a0: 0eb3 60bd 9cd9 4ebd dd96 80bc acb4 b2bd
000001b0: e104 063e bec2 1cbd 4883 1bbe 8477 493d
000001c0: 7eba 38be c71f 81bd f08f 0c3d c8d3 dabd
000001d0: 2a38 49bd e156 a9bd b889 2fbd e6d4 813d
000001e0: 0e5e 43bd 3f8e 40bd 8b54 11be e94c bdbb
000001f0: 7a91 f9bd 2d64 e53d 6c03 bcbd 2673 42be
00000200: ea38 453d cfa5 d3bd 1daf 6fbc be35 32bd
00000210: 33f2 1c3d de6e 8bbd d806 e03a a931 873d
00000220: eebf ee3c 986b 1cbe cfff d1bd 5d6f 8bbd
00000230: 7694 a53a 7cc8 fa3c 6125 1fbe 5f93 21be
00000240: 4a20 16be 3490 29bd 9a66 63bd 968d a93d
00000250: 07e0 3fbd 4247 3f3d 5705 a5bd faf4 bb3c
00000260: 6ff9 8abd 6108 afbd d080 b63d a1b2 acbb
00000270: dbf3 0dbd 77a5 ca3c 58dd 903c 3eab d5bd
00000280: 63aa 2ebd 71e8 0f3e 8994 9b3d 3297 9ebd
00000290: 905e b63d ce2e 8e3d 6ec0 61bd 081c c3bc
000002a0: 5b43 fcbc 5776 8fbd 4352 943d 5d3b a53d
000002b0: f47f 983d 9337 51bd 089b 88bc f7c6 abbd
000002c0: 143a dcbd be94 2abd bcda 57bd 5707 58bd
000002d0: 4cc8 f9bd b046 d33d c279 60bd 1cfb 013e
000002e0: be20 7fbc d75d a93d 6016 d53b 21b7 2e3d
000002f0: ad2d 013e e415 22bc 641d 2b3d 2947 063e
00000300: 62fb 6ebd 3a43 0a3e cd8d 223c c540 7fbd
00000310: a16d d1bd 2b94 263e 7751 c6bd d2b7 7c3b
00000320: 440e e43d 4fe8 b6bd 7902 2a3e 80ad 7fbc
00000330: cfed 9abd 30b6 ca3d 5123 373d 7f98 3e3e
00000340: 980c 96bd c693 933d f2f1 c0bd bc8a 4e3d
00000350: 4fcf fc3d 76f9 1e3d f068 103d f614 003d
00000360: 7bba 7f3d 4ddc bc3a 05df e0bc 3ddc 263e
00000370: 5488 113e fc22 0e3d 3a67 a93b 03c1 843d
00000380: f206 0c3e 9e20 15ba 6d84 c8bd 7029 3a3d
00000390: 7a9a 3dbc e5c5 843d 8bc6 123e 3d38 c13d
000003a0: cf5c be3d f25f 733c 0d50 0e3c 3cca 00bd
000003b0: 708c d73d 40e8 a9bc ef28 31bd dc09 cdbd
000003c0: c6dd a7bc c261 9dbd e34f 893d e88a b63c
000003d0: a759 ee3d 346c a93d cd7f 7abc 1603 1e3e
000003e0: 78d3 1e3e f8ef 95bc 65eb 2abd c429 923b
000003f0: 1459 be3d 11db a03d 5af3 d43d fdd6 e43c

localization.0.bias f4 [8]
-0.124017246 0.024797978 0.18248478 0.00044554676 -0.14136215 -0.14277127 -0.025046045 -0.078551665
00000000: c1fc fdbd 2125 cb3c 4add 3a3e 4698 e939
00000010: 3dc1 10be a232 12be 5d2d cdbc b2df a0bd

localization.3.weight f4 [10, 8, 5, 5]
0.0054590995 0.05120482 -0.039931938 -0.006459456 0.025813077 0.04261644 -0.0089479275 -0.049297653
-0.008944022 0.012499546 0.0018421496 0.03856483 -0.018798288 -0.00546279 -0.019295365 0.019987486
-0.0944516 -0.014284283 -0.08353047 0.042506337 -0.09595896 -0.11097266 -0.04445779 0.024324173
-0.087753125 0.008280054 -0.043319188 -0.045473773 -0.0041672555 0.054809507 0.03906359 0.014015495
0.043013968 -0.0001475177 -0.030528536 0.018203922 -0.0099133495 0.009480316 -0.017934158 -0.015430901
0.030870155 0.0395939 -0.10124032 0.023059795 -0.07261822 -0.101644635 -0.11566231 -0.016367124
-0.082564265 0.032604698 -0.07040329 0.01932063 0.0028115667 -0.0032739043 -0.041570112 0.024317266
-0.028425762 -0.040111728 -0.023370067 -0.03443622 0.004428387 0.017477375 -0.052121986 -0.043111652
0.021321408 0.026626242 0.051042274 0.035178676 -0.060670543 4.069088e-05 -0.031004881 0.043044616
-0.08786716 -0.029591931 0.029641574 0.019405928 0.019016173 0.019111838 0.017153049 0.047197223
-0.024050264 -0.055379167 0.011242098 -0.06420261 0.06509821 0.02053967 -0.0489002 0.02872124
0.02848348 -0.007788238 -0.05074951 -0.07384769 0.020426303 -0.0869755 0.016288796 0.050563667
-0.05079887 -0.0030147557 -0.022095544 0.0022666336 -0.02242333 -0.08201536 0.004519121 -0.020824093
0.007741981 -0.0701861 -0.07038926 -0.004726562 -0.07539299 0.081982315 -0.05229776 -0.0151958885
-0.06677914 0.011544461 0.021702802 -0.0070768283 -0.020980772 0.028614683 0.0020079408 -0.10782501
0.047853827 0.047642652 -0.033443756 -0.10957829 -0.05437451 -0.08103824 -0.09035512 0.033943597
0.016643407 -0.027925976 -0.070108145 -0.042120058 -0.09654989 -0.026603468 -0.109255314 0.00032505416
-0.004905001 -0.027189413 -0.059610475 -0.07003383 -0.03309888 -0.019187335 0.010457061 -0.010218131
-0.035027716 -0.010301846 -0.049452778 -0.02978259 -0.02012989 -0.024664382 0.002447184 -0.100549795
-0.07131749 -0.08396552 -0.07100206 -0.044727333 -0.063337274 -0.099419884 -0.03904924 -0.085484624
-0.07140345 -0.10183111 -0.048387323 -0.10011288 -0.052592374 -0.06291089 -0.037124522 -0.05178521
0.033192262 0.029057257 0.06271972 0.00711924 0.019005332 -0.07358893 -0.012524415 0.02058522
0.02755379 -0.025414905 -0.07057172 -0.091740265 0.053048056 0.012674906 0.020504776 0.03959432
0.038230978 -0.10080545 0.029399918 -0.040037423 0.008998769 0.02808533 -0.04795808 -0.044390976
-0.0003134703 -0.018868774 -0.0909576 -0.020383917 -0.00771985 -0.037383426 0.013214951 -0.10507599
0.035121698 -0.047891963 -0.08911468 -0.10261356 0.016813489 -0.07686957 0.008589884 -0.030283984
-0.019529285 0.034305878 -0.018626448 -0.023946624 -0.06007968 -0.097327754 -0.07139247 -0.047287837
-0.014114872 -0.06865609 -0.02139642 -0.026635757 0.052790478 -0.050192326 0.049155574 -0.010063394
-0.0044042775 0.0120788505 0.05420657 -0.044950064 -0.035729907 -0.067381375 -0.04315482 0.0053768777
-0.01827404 -0.04220222 -0.071728095 -0.008955111 0.017093012 -0.09387701 -0.017739207 -0.056209996
0.017381629 -0.08119817 -0.06221324 -0.0075932625 -0.0707965 -0.07304478 0.027206985 -0.09876239
-0.035607744 -0.08317915 -0.098786324 -0.0715219 0.014838124 -0.00337927 -0.09160382 -0.07226873
00000000: 3fe2 b23b 25bc 513d ac8f 23bd d8a9 d3bb
00000010: f275 d33c 948e 2e3d 549a 12bc 56ec 49bd
00000020: f289 12bc e5ca 4c3c 4974 f13a 28f6 1d3d
00000030: defe 99bc 3401 b3bb 5011 9ebc ccbc a33c
00000040: d76f c1bd a008 6abc 0612 abbd 201b 2e3d
00000050: 2286 c4bd a245 e3bd 5f19 36bd 7d43 c73c
00000060: e9b7 b3bd 10a9 073c 766f 31bd b542 3abd
00000070: 798d 88bb ef7f 603d 2501 203d 3fa1 653c
00000080: 6a2f 303d fbae 1ab9 fb16 fabc 6420 953c
00000090: 9a6b 22bc 5453 1b3c a8ea 92bc e4d1 7cbc
000000a0: 68e3 fc3c 372d 223d 1657 cfbd e5e7 bc3c
000000b0: dcb8 94bd 102b d0bd 5ce0 ecbd 5914 86bc
000000c0: 7417 a9bd 818c 053d 9a2f 90bd 4c46 9e3c
000000d0: 4342 383b 008f 56bb 6c45 2abd 0135 c73c
000000e0: 25dd e8bc 324c 24bd 9572 bfbc fe0c 0dbd
000000f0: 011c 913b b62c 8f3c dd7d 55bd d895 30bd
00000100: 3caa ae3c 471f da3c b411 513d 8417 103d
00000110: ad81 78bd 80ab 2a38 f3fd fdbc 8d4f 303d
00000120: b3f3 b3bd c76a f2bc e3d2 f23c 2ef9 9e3c
00000130: cec7 9b3c 6e90 9c3c 8d84 8c3c e051 413d
00000140: 0f05 c5bc 44d5 62bd c730 383c a87c 83bd
00000150: 3652 853d cf42 a83c 934b 48bd ce48 eb3c
00000160: 3056 e93c 7a34 ffbb b8de 4fbd 753d 97bd
00000170: 1055 a73c 3620 b2bd 1570 853c d91b 4f3d
00000180: 7a12 50bd 3593 45bb b701 b5bc cd8b 143b
00000190: 22b1 b7bc abf7 a7bd 2215 943b 4a97 aabc
000001a0: 72b0 fd3b bbbd 8fbd 3f28 90bd 47e1 9abb
000001b0: a467 9abd 58e6 a73d 2d36 56bd 2df8 78bc
000001c0: 80c3 88bd fb24 3d3c 13ca b13c bde4 e7bb
000001d0: dedf abbc 5769 ea3c a897 033b 5cd3 dcbd
000001e0: 6002 443d f124 433d 52fc 08bd 956a e0bd
000001f0: ceb7 5ebd 60f7 a5bd 1b0c b9bd 7108 0b3d
00000200: c157 883c 04c5 e4bc dc94 8fbd 1586 2cbd
00000210: f3bb c5bd 84ef d9bc 40c1 dfbd 086c aa39
00000220: 21ba a0bb 55bc debc 1d2a 74bd e66d 8fbd
00000230: b192 07bd c22e 9dbc 1854 2b3c f369 27bc
00000240: 3979 0fbd 13c9 28bc ff8e 4abd 9efa f3bc
00000250: 70e7 a4bc f50c cabc ef60 203b 0ded cdbd
00000260: e70e 92bd 1df6 abbd 8769 91bd 0234 37bd
00000270: f9b6 81bd a79c cbbd 19f2 1fbd 9012 afbd
00000280: f93b 92bd d48c d0bd c931 46bd fb07 cdbd
00000290: 1a6b 57bd 6dd7 80bd e20f 18bd ba1c 54bd
000002a0: 9cf4 073d 7c09 ee3c 3273 803d 8348 e93b
000002b0: 12b1 9b3c cbb5 96bd 3433 4dbc 56a2 a83c
000002c0: 7cb8 e13c eb32 d0bc e887 90bd 52e2 bbbd
000002d0: eb48 593d 69aa 4f3c a2f9 a73c a72d 223d
000002e0: 1698 1c3d 1673 cebd 19d8 f03c 48fe 23bd
000002f0: 936f 133c 3513 e63c b16f 44bd 50d3 35bd
00000300: 4559 a4b9 b092 9abc fa47 babd 2cfc a6bc
00000310: ccf6 fcbb 5d1f 19bd 8683 583c 1532 d7bd
00000320: c5db 0f3d 5d2a 44bd c281 b6bd 0f27 d2bd
00000330: 71bc 893c cb6d 9dbd 96bc 0c3c 1e16 f8bc
00000340: e1fb 9fbc 5284 0c3d 7e96 98bc b62b c4bc
00000350: 1c16 76bd c653 c7bd 3736 92bd e4b0 41bd
00000360: 1042 67bc 909b 8cbd 8c47 afbc 3b33 dabc
00000370: d43a 583d 7896 4dbd 5b57 493d efe0 24bc
00000380: c251 90bb 5fe6 453c b507 5e3d 8f1d 38bd
00000390: 8659 12bd 3fff 89bd 1cc3 30bd 8530 b03b
000003a0: 71b3 95bc 3cdc 2cbd 2ee6 92bd 75b8 12bc
000003b0: a506 8c3c 9742 c0bd d051 91bc 743c 66bd
000003c0: eb63 8e3c 3a4b a6bd 4fd3 7ebd e7d0 f8bb
000003d0: c1fd 90bd 8098 95bd 2fe1 de3c f043 cabd
000003e0: 6dd9 11bd d559 aabd 7c50 cabd 137a 92bd
000003f0: 9a1b 733c be76 5dbb c99a bbbd a101 94bd
