deep_emotion-ckplus-40-16-0.005.pt (torch, 274522 bytes, 24 tensors)

conv1.weight f4 [10, 1, 3, 3]
0	0x3e4a8383	0.1977673
1	0x3da852e0	0.08218932
2	0x3d812b5d	0.06307099
3	0xbecba0b1	-0.39771035
4	0xbe677ef9	-0.2260703
5	0xbeb8bfa2	-0.36083704
6	0xbe0e1cc7	-0.13878165
7	0x3ccd1150	0.02503267
8	0xbdff7a6a	-0.124745205
9	0x3d245d8e	0.040128283
10	0xbd59ae9c	-0.053145036
11	0x3cc415d8	0.023936197
12	0xbe2280d5	-0.15869458
13	0x3e637db6	0.22215924
14	0x3e7e6ea3	0.24846892
15	0xbe225012	-0.15850857
16	0x3c829b2b	0.01594313
17	0xbe3a21ae	-0.1817691
18	0x3e973317	0.29531166
19	0x3e3f4a91	0.18680789
20	0xbd8eaa71	-0.06966103
21	0x3d207e20	0.039182782
22	0xbe2078fb	-0.1567115
23	0x3e15ec64	0.14640957
24	0xbe2a3b1f	-0.16624115
25	0xbe2382ca	-0.15967861
26	0x3e70e627	0.23525296
27	0xbde12319	-0.109930225
28	0xbe69a498	-0.22816694
29	0xbea0ecac	-0.31430566
30	0xbd5c88bf	-0.05384135
31	0x3e8caa45	0.27473655
32	0x3e0cafd2	0.13738945
33	0xbea8ce8d	-0.32970086
34	0x3e838083	0.25683984
35	0x3e85cf08	0.26134515
36	0x3d0882df	0.033327933
37	0xbdc21b47	-0.09477859
38	0x3ea1b851	0.31585935
39	0x3ef1159c	0.470868
40	0xbe5c5088	-0.21515095
41	0x3d8c10e5	0.0683916
42	0x3e8147d8	0.25250125
43	0xbddb891b	-0.1071951
44	0xbe80b71a	-0.25139695
45	0x3e3a0bef	0.18168615
46	0xbc21caa2	-0.009874972
47	0xbe30059a	-0.17189637
48	0xbe9d324e	-0.30702442
49	0x3ea35b5e	0.31905645
50	0xbd5874af	-0.052845653
51	0x3e3121e3	0.17298083
52	0xbe063745	-0.13107021
53	0xbd35f61d	-0.044424165
54	0x3ebd8be1	0.37020782
55	0xbcff32a6	-0.03115208
56	0x3e080d32	0.13286284
57	0x3d3694c0	0.044575453
58	0x3e713975	0.23557074
59	0x3da1d0ac	0.07901129
60	0xbea34352	-0.318873
61	0x3e39225e	0.18079516
62	0x3e6eb452	0.23310974
63	0xbea64b82	-0.32479483
64	0xbe2cda77	-0.16880213
65	0x3ee6564f	0.44987723
66	0xbe0de103	-0.13855366
67	0x3e8f6544	0.28006947
68	0x3e586a1e	0.2113423
69	0xbeac613b	-0.3366793
70	0xbe6924e0	-0.22767973
71	0x3dae5f9a	0.08514328
72	0xbe9f329f	-0.31093308
73	0x3e8e6ce4	0.27817452
74	0xbe89c0ff	-0.26905057
75	0x3d5d750f	0.054066714
76	0x3e2cdfa0	0.16882181
77	0x3e97d26c	0.29652727
78	0xbee7152d	-0.45133343
79	0xbe84b162	-0.25916582
80	0x3eab43f5	0.33450285
81	0xbd8aec78	-0.06783384
82	0x3e46a0a9	0.19397224
83	0x3ddb67b9	0.10713143
84	0x3d84711d	0.06466887
85	0xbe51d8fc	-0.20492929
86	0x3a1f6df9	0.0006081756
87	0xbeb188bc	-0.34674633
88	0xbedb9994	-0.42890608
89	0xbeb60706	-0.35552233

conv1.bias f4 [10]
0	0x3e0b48fb	0.13602059
1	0x3e33d171	0.17560364
2	0x3eb4eb9f	0.35336015
3	0xbeac0a7b	-0.33601746
4	0x3be7a455	0.0070691505
5	0xbe923306	-0.28554553
6	0xbe25e780	-0.16201591
7	0x3d8356b8	0.06413025
8	0x3da3a85a	0.07991095
9	0xbde3dbb1	-0.11125887

conv2.weight f4 [10, 10, 3, 3]
0	0xbe093207	-0.1339799
1	0xbd0350fe	-0.032059662
2	0xbd7973a3	-0.060901295
3	0xbce91abb	-0.028455129
4	0xbc87a618	-0.016558692
5	0x3d8bdb02	0.06828882
6	0xbdbe7258	-0.09299153
7	0xbd2ae146	-0.041718744
8	0xbd82cd6f	-0.063868396
9	0x3c6a8c24	0.014315639
10	0x3ccbdd16	0.024885695
11	0x3d6fa9d0	0.058511555
12	0x3c31f3db	0.010861362
13	0x3dcc36d2	0.09971394
14	0xbd8ce809	-0.06880195
15	0x3ccb9d31	0.024855228
16	0xbdc39b8e	-0.09551154
17	0xbe0ae695	-0.13564523
18	0xbd63dfd3	-0.055633377
19	0x3d2837ad	0.04106872
20	0x3ce74eee	0.028235879
21	0x3de018c0	0.10942221
22	0x3d90c8d5	0.07069556
23	0x3e070163	0.13184123
24	0xbdb51762	-0.088423505
25	0x3dded4b6	0.10880415
26	0xbc691348	-0.014225788
27	0x3de73d40	0.112909794
28	0xbcfa1068	-0.030525401
29	0xba85a3d3	-0.0010195918
30	0xbe1bda6d	-0.15220042
31	0xbe4004dd	-0.18751855
32	0xbd42be64	-0.047544852
33	0xbde1736d	-0.11008344
34	0xbe7c4913	-0.2463725
35	0xbe216c51	-0.15763976
36	0xbd24014f	-0.04004031
37	0x3c7945d6	0.015214404
38	0xbcf1ebc4	-0.029531367
39	0xbdedc6d9	-0.11610193
40	0x3e05a36c	0.13050622
41	0x3e09b3ab	0.13447444
42	0xbd87c8fb	-0.06630131
43	0x3d240a43	0.04004885
44	0x3e2154fd	0.15755077
45	0xbd54854e	-0.05188494
46	0xbcfc5ccb	-0.030805966
47	0x3d4d9d6e	0.050198965
48	0x3d4beb55	0.049784977
49	0xbd947c9c	-0.0725033
50	0xbca1205f	-0.019668756
51	0x3e2bd62c	0.16780919
52	0xbd02aad9	-0.031901214
53	0xbd2b23a1	-0.041782025
54	0x3df4d67e	0.11954974
55	0xbd0b7aae	-0.034052543
56	0x3de81fe6	0.11334209
57	0xbcc93294	-0.02456025
58	0x3dbec3c9	0.09314687
59	0x3d826097	0.06366079
60	0xbdaec052	-0.08532776
61	0xbd175836	-0.03694936
62	0x3d915b50	0.070974946
63	0x3e385541	0.18001272
64	0xbda2e7ab	-0.079543434
65	0xbdb51e8b	-0.08843716
66	0x3e1f5076	0.15558037
67	0xbd7a0321	-0.06103814
68	0xbe706dca	-0.23479381
69	0x3df41aa4	0.11919144
70	0xbe7ff70f	-0.24996589
71	0xbe70d182	-0.23517421
72	0x3e367c64	0.17820889
73	0x3d40fbef	0.047115263
74	0x3d86ac0d	0.06575785
75	0x3d9021cb	0.070376955
76	0xbdbfa79e	-0.09358142
77	0xbe8c3384	-0.27383053
78	0x3e024927	0.12723218
79	0xbddbe612	-0.10737242
80	0xbe065c04	-0.13121039
81	0xbdb3fd5a	-0.08788557
82	0xbda9b969	-0.08287317
83	0xbe01921a	-0.1265339
84	0xbdf4f6ca	-0.11961134
85	0xbe45f7dd	-0.19332834
86	0xbe6eed2c	-0.23332661
87	0x3c6f2b43	0.014597717
88	0xbd583f5f	-0.05279481
89	0xbd803eef	-0.06262004
90	0x3d776acf	0.060404595
91	0xbe195e54	-0.1497739
92	0xbdc0ce6a	-0.0941437
93	0x3b68d2d4	0.0035526054
94	0x3d1e92de	0.038714282
95	0xbda3f04c	-0.08004817
96	0xbdbaae51	-0.091152795
97	0xbdf06582	-0.11738111
98	0xbd469b84	-0.048488155
99	0xbdd54fcd	-0.104156114
100	0xbddd3ee8	-0.10803014
101	0xbcbbc21c	-0.022919707
102	0x3d2706db	0.040778022
103	0xbe0b908e	-0.13629362
104	0xbaf6d4bb	-0.0018831709
105	0xbdc1fea2	-0.094723955
106	0xbe01c33a	-0.1267213
107	0xbd07f132	-0.033189006
108	0xbd9be7be	-0.07612561
109	0xbd49a56d	-0.049230028
110	0x3c361b7b	0.01111495
111	0xbe006af1	-0.12540795
112	0xbc1370ad	-0.008999032
113	0xb9e35427	-0.00043359512
114	0xbd7a17e3	-0.061057936
115	0xbddc8989	-0.1076842
116	0x3c917c59	0.017759489
117	0xbd00bb7b	-0.031428795
118	0xbd830a1a	-0.06398411
119	0x3d71c5e5	0.059026618
120	0x3d8855ac	0.066569656
121	0xbd27c9a0	-0.04096377
122	0xbd981213	-0.074253224
123	0xbd93525c	-0.07193443
124	0x3d80b36b	0.06284221
125	0x3cb2c116	0.021820586
126	0xbd027862	-0.031853087
127	0xbde755d6	-0.11295669
128	0xbd0e602b	-0.03475968
129	0xbca0daac	-0.01963552
130	0x3d0ee8d5	0.034890015
131	0x3bc0ee12	0.005887755
132	0xbd8597ba	-0.0652308
133	0x3d21f1c9	0.039537225
134	0xbd3d2c1d	-0.046184648
135	0x3dee27e6	0.11628704
136	0xbb49bc3e	-0.0030782367
137	0xbdb07256	-0.08615558
138	0xbce2fd98	-0.027708814
139	0x3b48311f	0.0030546857
140	0x3decf895	0.11570851
141	0x3d805161	0.06265522
142	0x3d4d493c	0.05011867
143	0xbb87ed95	-0.004148195
144	0xbda875c1	-0.08225585
145	0xbcb180ea	-0.021667916
146	0xbe0526c8	-0.13003075
147	0xbdafa00e	-0.0857545
148	0xbdc675f0	-0.096904635
149	0xbde1c3a2	-0.11023642
150	0xbd65de05	-0.056119937
151	0x3cb99e49	0.022658484
152	0xbd9e46f8	-0.0772838
153	0xbd8cd9d0	-0.06877482
154	0x3c1498aa	0.009069601
155	0xbde5fe0a	-0.11230095
156	0x3b3c998c	0.0028778045
157	0x3d66c9ef	0.056344923
158	0x3c568a5e	0.013094513
159	0xbcced7bb	-0.025249353
160	0xbd56e99c	-0.05246888
161	0xbdbbf214	-0.09177032
162	0x3d1227f6	0.03568264
163	0x3d2ac3c4	0.041690603
164	0x3c773ef1	0.01509069
165	0xbdf96b3e	-0.12178658
166	0xbcd1654f	-0.025561003
167	0xbd713440	-0.05888772
168	0xbcbdc84f	-0.023166804
169	0xbbb4e555	-0.0055205026
170	0x3db96d28	0.09054023
171	0xbd78c811	-0.060737673
172	0x3db25226	0.08707075
173	0x3d98e894	0.07466236
174	0xbd7c27dc	-0.06156145
175	0xbdc75f0f	-0.09734928
176	0xbddfe3bf	-0.10932111
177	0x3c792bb4	0.015208174
178	0x3db40330	0.087896705
179	0xbdc5aea1	-0.096524484
180	0x3de076ab	0.10960134
181	0xbc64f342	-0.013974013
182	0xbdf515a6	-0.1196702
183	0x3e835155	0.2564799
184	0x3e34a237	0.17640005
185	0x3c832179	0.016007172
186	0x3c2bbd14	0.010482091
187	0x3e450f2a	0.19244066
188	0x3e1ba678	0.15200222
189	0x3d9a69f9	0.07539744
190	0x3cac9f47	0.021072043
191	0xbd93e336	-0.072210714
192	0xbd1a2203	-0.037630092
193	0x3d7763ba	0.06039784
194	0x3e80edd6	0.25181454
195	0xbe6ed376	-0.23322853
196	0xbd727c39	-0.0592005
197	0x3e1721ab	0.14758937
198	0xbc21ec41	-0.0098829875
199	0x3e71a943	0.23599724
200	0x3e8382f1	0.25685838
201	0xbde778f6	-0.11302368
202	0x3d2cf8c5	0.042229433
203	0x3cb2350c	0.02175381
204	0xbe12eedc	-0.1434893
205	0xbdc7bd6f	-0.097529285
206	0xbdc6e058	-0.09710759
207	0xbe7c345b	-0.24629347
208	0xbe87909b	-0.26477513
209	0xbd63508a	-0.05549673
210	0xbe0de843	-0.13858132
211	0x3bcb53e2	0.006205068
212	0xbd635e51	-0.05550987
213	0xbdaf3fac	-0.08557066
214	0xbe2e57ba	-0.17025653
215	0xbdb8b997	-0.090197735
216	0x3d1bc44d	0.038029004
217	0xbe846a8e	-0.25862545
218	0xbc32616f	-0.010887488
219	0x3c961848	0.018322125
220	0xbdf5177b	-0.11967369
221	0xbe19d9c6	-0.1502448
222	0x3e01b5df	0.12667035
223	0x3e6f19e6	0.23349723
224	0x3c62bf5a	0.013839567
225	0xbd88c242	-0.06677677
226	0xbd2a8733	-0.041632842
227	0xbd88492b	-0.06654581
228	0xbe411a44	-0.18857676
229	0x3daf4165	0.08557395
230	0xbdf8910a	-0.12137039
231	0x3dc64319	0.096807666
232	0x3d8e0918	0.06935328
233	0x3b41f3fb	0.0029594887
234	0xbdfc70ea	-0.12326224
235	0xbd01c84b	-0.031685155
236	0x3e0648a6	0.1311365
237	0xbde521a3	-0.11188056
238	0xbd7ce2e6	-0.061739825
239	0x3c8ec429	0.01742752
240	0x3cc72e05	0.024313936
241	0xbdc7e5f6	-0.097606584
242	0x3d960822	0.0732577
243	0xbda6ccd3	-0.08144536
244	0x3e5b2a29	0.21402802
245	0x3d8468e7	0.06465321
246	0x3cbc6228	0.022996023
247	0x3e8a9d4a	0.27073127
248	0x3ec62f61	0.38708022
249	0xbea51d36	-0.3224885
250	0x3cec8c8b	0.02887561
251	0x3e328335	0.17432864
252	0xbe1d5cc4	-0.15367419
253	0x3eb5bd1c	0.35495842
254	0x3e415f74	0.18884069
255	0xbd8331a9	-0.06405956

conv2.bias f4 [10]
0	0xbc46a162	-0.012123438
1	0x3cf5434b	0.029939314
2	0x3d015e2a	0.031583942
3	0xbd1ce20f	-0.038301524
4	0xbd7044bc	-0.0586593
5	0xbd566117	-0.052338686
6	0xbcaa203e	-0.020767327
7	0xbde7b6fd	-0.11314199
8	0x3e4d1675	0.20028098
9	0xbde04077	-0.10949796

conv3.weight f4 [10, 10, 3, 3]
0	0xbb802c21	-0.0039115106
1	0x3d14da10	0.036340773
2	0xbcca72f0	-0.02471301
3	0x3babb583	0.0052401437
4	0xbd33f60b	-0.043935817
5	0xbdc1a520	-0.09455323
6	0x3d7965a9	0.060887966
7	0xbdbe57b8	-0.09294075
8	0xbe087122	-0.13324407
9	0x3a3ab170	0.0007121777
10	0x3cc7e46c	0.024400912
11	0x3d8e9719	0.06962413
12	0xbc929be6	-0.017896604
13	0xbcb78c18	-0.02240567
14	0x3d1e98ee	0.038720064
15	0xbc023b27	-0.007948673
16	0xbd8b5bde	-0.06804632
17	0xbdd439a0	-0.103625536
18	0x3c82302d	0.015892113
19	0xbbe71ac1	-0.00705275
20	0xbde14e47	-0.11001258
21	0xbc9b0218	-0.018921897
22	0xbd75978b	-0.059958976
23	0xbcc133dd	-0.0235843
24	0x3d407e8c	0.046995685
25	0x3d930b19	0.07179851
26	0xbd397041	-0.04527307
27	0xbd932681	-0.071850784
28	0x3d06926e	0.03285449
29	0xbc1a97a0	-0.009435564
30	0xbde31dad	-0.110896446
31	0xbded90ba	-0.1159987
32	0xbd15be2f	-0.036558326
33	0xbd8061aa	-0.06268628
34	0xbd85ba27	-0.06529646
35	0x3acdf9e6	0.0015714734
36	0xbdce4546	-0.100718066
37	0x3cee60cb	0.029098889
38	0x3ce6f34a	0.028192181
39	0x3da5e683	0.08100607
40	0x3dd7bd57	0.105341606
41	0x3d7974fe	0.060902588
42	0x3dc41241	0.09573794
43	0xbcac0444	-0.020998128
44	0xbdd7a056	-0.105286285
45	0xbdb8a831	-0.09016455
46	0x3d414edc	0.047194347
47	0xbc7444f5	-0.014909019
48	0x3bb912d3	0.005647996
49	0xbd8fce4b	-0.07021769
50	0xbddedd0e	-0.108820066
51	0x3c3d3494	0.01154818
52	0xbc5ec31b	-0.013596321
53	0xbbb2bde1	-0.0054547642
54	0xbd0d0f9f	-0.034438726
55	0xbd6c15b3	-0.05763788
56	0xbdb2a0c8	-0.08722073
57	0x3d811736	0.06303255
58	0x3d4f0aaa	0.05054728
59	0xbd46c521	-0.04852784
60	0x3c9e6282	0.019334082
61	0xbd494d5a	-0.049146034
62	0xbdc826c6	-0.097730204
63	0xbde82fc4	-0.113372356
64	0x3c3975da	0.011319602
65	0x3d459249	0.04823521
66	0x3d27d62d	0.04097574
67	0x3c13d1c3	0.009022179
68	0x3cacb1e4	0.021080919
69	0x3d0b4690	0.03400284
70	0x3d4c816c	0.049928114
71	0xbd9aa8c1	-0.075517185
72	0x3cce7da2	0.02520639
73	0x3d59a058	0.05313143
74	0xbe089f01	-0.13341905
75	0x3d022134	0.031769946
76	0xbdefff80	-0.11718655
77	0xbca9d7b5	-0.02073274
78	0xbd5ac64c	-0.053411767
79	0xbd89f9b1	-0.06737078
80	0x3d8457b4	0.064620405
81	0x3daf43a9	0.08557827
82	0x3b8240f0	0.0039750263
83	0xbcc23348	-0.023706093
84	0x3d282486	0.041050456
85	0x3d41f642	0.04735399
86	0xbd6399f5	-0.055566747
87	0xbdb577be	-0.0886073
88	0x3db22f41	0.08700419
89	0x3dc20575	0.09473697
90	0xbc5ad7a9	-0.013357081
91	0xbb48f0c4	-0.0030661086
92	0x3b9f65cb	0.0048644296
93	0x3c5515a7	0.013005651
94	0x3e3a1ee1	0.18175842
95	0x3bfafcca	0.0076595293
96	0x3e34a874	0.17642385
97	0x3ae61b29	0.0017555702
98	0xbdd650f6	-0.10464661
99	0xbd9c44da	-0.0763032
100	0xbdaf1e5b	-0.08550712
101	0x3d40987e	0.047020428
102	0xbdc3a982	-0.095538154
103	0xbd2702af	-0.040774044
104	0x3bd3cc67	0.0064635756
105	0x3d166978	0.036721677
106	0xbd3be9dc	-0.045877323
107	0xbbc1eb39	-0.0059179333
108	0x3c7dc774	0.015489448
109	0x3e734fef	0.23760961
110	0x3e3acee1	0.1824298
111	0xbe361b3c	-0.17783827
112	0xbe408245	-0.18799694
113	0xbd840c94	-0.064477116
114	0xbd75ad21	-0.05997956
115	0xbe3d015a	-0.18457547
116	0xbe292ac5	-0.16520222
117	0x3c663d27	0.014052666
118	0x3dbac913	0.09120383
119	0x3d401594	0.04689558
120	0x3c56a89f	0.013101726
121	0x3c33e675	0.010980238
122	0xbddcf681	-0.107892044
123	0x3d64ab2a	0.055827297
124	0x3cfa3af0	0.030545682
125	0xbd41446e	-0.0471844
126	0xbd677f7d	-0.056518067
127	0x3c87a68c	0.016558908
128	0xbdd7bfe8	-0.1053465
129	0xbbded2bb	-0.0068000234
130	0xbbeeca33	-0.0072872876
131	0x3da205d6	0.07911269
132	0xbd6f4e4a	-0.05842427
133	0x3df3763e	0.11887787
134	0xbcb9feb9	-0.022704469
135	0xbd622d06	-0.05521872
136	0x3e0a79a1	0.1352296
137	0x3dd3945f	0.10331034
138	0xbcf032f7	-0.029321177
139	0xbd3a7f1a	-0.04553137
140	0x3e06cc46	0.13163862
141	0x3db7c965	0.0897396
142	0x39f0285c	0.00045806437
143	0x3d98b3d0	0.074561715
144	0x39b49554	0.00034443534
145	0x3e0ed8d4	0.13949901
146	0xbd500224	-0.05078329
147	0xbdce1348	-0.10062271
148	0x3cdb23d5	0.026750484
149	0xbd0ffda6	-0.035154007
150	0x3d24b93f	0.040215727
151	0xbde7e34f	-0.113226525
152	0x3d910353	0.07080712
153	0xbd563ed6	-0.05230602
154	0xbd3de1ef	-0.046358045
155	0xbe08f8ee	-0.13376209
156	0x3e156628	0.14589751
157	0x3e062591	0.13100268
158	0xbe04e442	-0.12977698
159	0x3e863f27	0.26220056
160	0x3e12b441	0.14326574
161	0xbc49ce16	-0.012317201
162	0xbd636c59	-0.05552325
163	0xbe19732a	-0.14985338
164	0xbe5ac8c8	-0.21365654
165	0x3e07b7ed	0.13253756
166	0x3e5a65f3	0.21327953
167	0xbd1bbb71	-0.038020555
168	0x3e542c58	0.20720041
169	0x3e444e07	0.1917039
170	0x3ad096b0	0.0015914049
171	0x3d8d0135	0.06884996
172	0xbd0bd51f	-0.034138795
173	0x3c20db30	0.009817883
174	0xbd8f0888	-0.06984049
175	0xbdaa68a4	-0.0832074
176	0x3d892bf0	0.066978335
177	0x3df5c059	0.11999578
178	0xbba0cf63	-0.004907535
179	0xbc52901c	-0.012851741
180	0x3d04ebbd	0.03245138
181	0x3d93eb7d	0.0722265
182	0xbd8a2360	-0.067450285
183	0x3d6055a5	0.054769177
184	0x3e136267	0.14393006
185	0xbd94c20d	-0.07263575
186	0xbdda8f89	-0.106719084
187	0xbd525965	-0.051354785
188	0x3c4f2e2d	0.0126452865
189	0xbdb7da7d	-0.0897722
190	0x3d034e86	0.032057308
191	0x3dbe018c	0.09277639
192	0x3da3b3c6	0.079932734
193	0xbd153d63	-0.036435496
194	0x3da2d148	0.079500735
195	0x3d3302a5	0.043703694
196	0xbd098194	-0.03357084
197	0x3d3cf5c0	0.046132803
198	0x3d82b2d9	0.06381769
199	0xbda39480	-0.079873085
200	0xbd372aa5	-0.044718403
201	0x3d743e9f	0.059630033
202	0xbe6707c3	-0.22561555
203	0xbe17c025	-0.14819391
204	0x3ef713db	0.48257336
205	0x3e8f9b81	0.28048328
206	0x3da2be1a	0.07946415
207	0x3e22d530	0.15901637
208	0x3cd53e6e	0.026030745
209	0xbde3f994	-0.111315876
210	0xbcfe9576	-0.031077128
211	0x3d576bdf	0.05259311
212	0x3d0c2270	0.03421253
213	0xbdb85691	-0.09000886
214	0xbc7bb8ec	-0.015363913
215	0x3d874628	0.06605178
216	0x3dc482fe	0.09595297
217	0x3dff4f6e	0.12466322
218	0xbd38dbfc	-0.04513167
219	0x3db914a1	0.09037138
220	0x3b6d64ef	0.0036223491
221	0xbd2beb11	-0.041972224
222	0x3d027cd7	0.031857338
223	0x3dee7910	0.116441846
224	0x3d138a48	0.036020547
225	0xbcd2d239	-0.025735008
226	0x3e09c0ab	0.13452403
227	0xbcaafb25	-0.020871708
228	0x3d7022c3	0.0586269
229	0xbd88fb8c	-0.06688604
230	0x3a8f95a9	0.0010954636
231	0x3d051718	0.032492727
232	0x3da57b4c	0.08080158
233	0x3c4133da	0.0117921475
234	0xbd8014c9	-0.062539645
235	0x3cf0a3c3	0.029374963
236	0x3bacd90c	0.0052748974
237	0x3d1ad086	0.03779652
238	0x3da43a1c	0.08018896
239	0x3def8fe6	0.11697368
240	0x3db2074b	0.08692797
241	0xbd7a9df3	-0.06118579
242	0x3cf09d6a	0.029371936
243	0x3dea088f	0.11427414
244	0xbe0d8b99	-0.13822784
245	0xbe4af64f	-0.19820522
246	0x3e5529a6	0.20816669
247	0x3e128c76	0.14311394
248	0xbe75f275	-0.24018271
249	0xbdc37c0b	-0.09545144
250	0x3cfac9eb	0.03061386
251	0xbd7c959e	-0.061666124
252	0xbcbe89ca	-0.023259062
253	0x3d885b4e	0.0665804
254	0xbe3d8cbd	-0.18510719
255	0x3e6809b7	0.22659956

conv3.bias f4 [10]
0	0xbdeea4b1	-0.11652506
1	0x3e615397	0.22004543
2	0x3e1ab4c9	0.15108027
3	0x3d880d85	0.06643204
4	0x3d56d212	0.052446432
5	0xbdb204f3	-0.0869235
6	0x3e3dcc86	0.18535051
7	0x3c5711b6	0.013126781
8	0xbd7c72f0	-0.06163305
9	0x3e98c571	0.29838136

conv4.weight f4 [10, 10, 3, 3]
0	0xbcfb59a0	-0.030682385
1	0x3d35681a	0.044288732
2	0xbd00b333	-0.031420898
3	0xbdaf4bd9	-0.08559389
4	0x3e0a6a7b	0.13517182
5	0xbcb278f5	-0.021786192
6	0xbe03c3a8	-0.12867606
7	0xbda2ecb5	-0.079553045
8	0x3d86dda9	0.06585247
9	0x3dbbb589	0.091654845
10	0x3d9de5ea	0.07709868
11	0xbc9cae56	-0.019126099
12	0x3ce7a172	0.028275225
13	0x3db7670b	0.08955201
14	0xbb44c4ac	-0.0030024452
15	0xbe3b2c7d	-0.1827869
16	0xbe23242c	-0.15931767
17	0xbe2978d3	-0.16549997
18	0xbd76246e	-0.060093336
19	0x3e338927	0.17532788
20	0x3dac8d81	0.08425427
21	0x3c7f1f45	0.01557142
22	0x3d81a3de	0.06330083
23	0x3d853cb8	0.06505722
24	0xbe0cec2d	-0.13761969
25	0xbe32c61b	-0.17458384
26	0xbdafd2d6	-0.08585136
27	0x3c1243a6	0.008927261
28	0xbdd05dc3	-0.10174134
29	0xbdae5f8b	-0.08514317
30	0x3dcc8fe3	0.09988382
31	0x3de19527	0.11014777
32	0xbdfd8a39	-0.123798795
33	0x3e2738fb	0.1633033
34	0x3e313314	0.17304641
35	0x3e8306b9	0.25591066
36	0x3cd894e8	0.026438192
37	0xbd0a4d81	-0.03376532
38	0x3c8bb7ed	0.017055476
39	0x3ccadf54	0.024764694
40	0x3bb22ca8	0.0054374523
41	0x3dcf1720	0.101118326
42	0x3c9880cc	0.018616103
43	0xbc88d062	-0.016700927
44	0xbd4d22d9	-0.05008206
45	0x3dea7304	0.11447719
46	0x3dc830eb	0.09774955
47	0xbbecc218	-0.007225286
48	0xbd862e4a	-0.06551798
49	0x3dab565b	0.083660804
50	0x3e0489f6	0.12943253
51	0xbdaf811e	-0.08569549
52	0x3c7fb106	0.0156061705
53	0x3ca116bd	0.019664163
54	0xbdb1e122	-0.08685519
55	0x3df22931	0.11824263
56	0x3e4f1bf4	0.20225507
57	0xbd34439d	-0.044009794
58	0xbe675d72	-0.2259424
59	0x3d0f8b80	0.035045147
60	0x3d96350e	0.07334338
61	0xbd890f97	-0.06692427
62	0xbd151d95	-0.036405165
63	0xbd885425	-0.06656674
64	0x3e0640b8	0.13110626
65	0x3d851e0e	0.06499873
66	0xbbad4126	-0.0052873073
67	0xbc4e2f26	-0.012584483
68	0x3cea15f3	0.02857492
69	0xbd5a2c37	-0.053264823
70	0xbd3e5b47	-0.046473768
71	0xbdcbbd2c	-0.09948191
72	0xbe107cd6	-0.14110121
73	0xbc44ef61	-0.012019963
74	0xbe494e2d	-0.19658728
75	0xbc87978c	-0.016551755
76	0xbdbbda1b	-0.0917246
77	0xbd94b542	-0.07261135
78	0x3dc17596	0.09446256
79	0x3e3e628e	0.18592283
80	0xbddbced0	-0.10732806
81	0xbcdd2488	-0.026994959
82	0xbc8d8704	-0.017276295
83	0x3e42d776	0.19027504
84	0x3d573620	0.052541852
85	0xbd8850e4	-0.06656054
86	0x3d58154e	0.052754693
87	0xbde12399	-0.10993118
88	0xbe1eb890	-0.15500093
89	0xbe2a77a4	-0.16647202
90	0x3d9123b9	0.07086892
91	0x3daadb0c	0.08342561
92	0xbdc814f0	-0.097696185
93	0x3dfb207b	0.122620545
94	0xbd5f36fe	-0.054495804
95	0xbce40a26	-0.02783687
96	0xbcc961a5	-0.024582693
97	0xbc2f9aa4	-0.010718022
98	0xbd617e4e	-0.055052094
99	0xbe06d8a3	-0.13168578
100	0xbe5dbfc5	-0.21655186
101	0xbdf557b1	-0.119796164
102	0x3e889827	0.26678583
103	0x3e7a9630	0.24471354
104	0xbcb283fb	-0.021791449
105	0x3e48ed8f	0.19621871
106	0x3e917136	0.28406686
107	0x3ea2a88d	0.3176922
108	0xbe65104c	-0.22369498
109	0x3d490459	0.049076412
110	0x3d94eea7	0.07272082
111	0xbd3f013f	-0.046632048
112	0x3d935ccc	0.07195434
113	0xbdef41b4	-0.11682454
114	0x3e606926	0.21915111
115	0x3e919470	0.2843356
116	0x3d20a964	0.039224043
117	0x3db020ac	0.08599982
118	0x3dafdc4f	0.085869424
119	0x3d9f6217	0.07782381
120	0x3d3eb41d	0.04655849
121	0x3d33c6ba	0.043890692
122	0xbd15f41e	-0.03660976
123	0xbe708873	-0.23489551
124	0xbe240e7e	-0.16021153
125	0x3c5bb7c8	0.013410516
126	0xbddb8382	-0.107184425
127	0xbdf19366	-0.11795692
128	0x3d846012	0.064636365
129	0xbe336725	-0.17519815
130	0xbe3ac769	-0.18240131
131	0x3d1f358c	0.038869426
132	0x3d7728e0	0.060341716
133	0xbb7f1955	-0.0038925011
134	0x3da6a30d	0.08136568
135	0xbd63e18e	-0.055635028
136	0xbd0d2727	-0.034461167
137	0xbdc49098	-0.095978916
138	0xbca019d3	-0.019543564
139	0x3d82a071	0.06378258
140	0xbab94f71	-0.0014138055
141	0x3bed9d4c	0.0072514173
142	0xbe04a2ed	-0.12952776
143	0xbc0477ad	-0.008085174
144	0xbd4618d6	-0.04836353
145	0xbd54d1f5	-0.051958043
146	0x3d884b04	0.06654933
147	0x3e0ecacb	0.13944547
148	0x3e4d0ef1	0.20025231
149	0x3d0daeae	0.034590416
150	0x3e252eb9	0.16131105
151	0x3e971fc8	0.29516435
152	0x3d0129cb	0.031533998
153	0xbdffafda	-0.12484713
154	0x3d1371b0	0.035997093
155	0xbb99bffc	-0.004692076
156	0x3d0a01c4	0.03369309
157	0x3db9f9f4	0.09080878
158	0xbcae3469	-0.021265225
159	0x3def888b	0.116959654
160	0x3e3a5573	0.18196659
161	0x3df7468e	0.12074004
162	0x3deeb175	0.11654941
163	0x3e07c42a	0.13258424
164	0x3d84f274	0.06491557
165	0x3d3939b7	0.045221057
166	0x3e0ec066	0.13940582
167	0x3e3d39cc	0.18479079
168	0xbbf9a7a6	-0.007618862
169	0xbcd54c31	-0.026037307
170	0xbe00a9b1	-0.12564732
171	0xbe246ad2	-0.16056374
172	0xbde8d8eb	-0.11369499
173	0x3c9c1e9c	0.019057564
174	0x3d5775b5	0.05260249
175	0xbd101b85	-0.035182495
176	0xbdc04d4c	-0.09389743
177	0x3cd77365	0.026300142
178	0x3dd143b1	0.10217989
179	0x3eb3dfaa	0.3513158
180	0xbd8244c4	-0.06360772
181	0xbd6b8506	-0.057499908
182	0xbd643f18	-0.055724233
183	0x3d3e9777	0.046531167
184	0x3bc3400b	0.0059585623
185	0xbdc44cbc	-0.095849484
186	0x3d018c71	0.031628076
187	0xbdc6c8df	-0.09706282
188	0xbd3c6daf	-0.04600304
189	0xbe695b23	-0.22788672
190	0xbcf0eb21	-0.029408993
191	0xbcf9179e	-0.03040677
192	0xbd261a1d	-0.040552247
193	0x3d6f628b	0.058443587
194	0x3e369a25	0.17832239
195	0xbe11e11d	-0.1424603
196	0x3e33c88a	0.17556968
197	0x3e6c044b	0.23048513
198	0xbdcba4b0	-0.09943521
199	0xbd6b9caf	-0.057522472
200	0xbe225e64	-0.1585632
201	0x3dc70c7f	0.0971918
202	0xbd3d5039	-0.046219084
203	0x3cb52fd7	0.022117538
204	0xbd649dad	-0.055814434
205	0x3b9e8a2b	0.0048382482
206	0x3e444700	0.1916771
207	0xbdb74f54	-0.089506775
208	0xbe2371b4	-0.15961343
209	0xbea8044d	-0.3281578
210	0xbd949175	-0.07254306
211	0xbe89b4a2	-0.26895624
212	0xbe5c7a24	-0.21530968
213	0x3ce74137	0.028229339
214	0xbdcc0b78	-0.09963125
215	0xba942e9d	-0.0011305396
216	0x3e515b5d	0.20445009
217	0xbcc90f23	-0.02454335
218	0xbe1a2c29	-0.15055908
219	0xbdf810a2	-0.121125475
220	0xbe10f176	-0.1415461
221	0x3d9e2ddf	0.07723593
222	0xbd3f0155	-0.04663213
223	0x3bc036c0	0.0058659017
224	0x3d3c5a65	0.045984644
225	0xbd984651	-0.07435287
226	0xbcfb5de6	-0.030684423
227	0x3ce99efa	0.028518189
228	0xbd6d672d	-0.057959724
229	0xbd1e4cde	-0.038647525
230	0x3dc2ded0	0.09515154
231	0xbd9156d4	-0.07096639
232	0xbd0a3345	-0.0337403
233	0x3d44079c	0.04785882
234	0xbe55ce0c	-0.20879382
235	0xbd1a3ae3	-0.037653815
236	0x3e03d477	0.12874018
237	0xbe1a1def	-0.15050481
238	0x3d91eb54	0.071249634
239	0x3ea66ec2	0.32506377
240	0xbd6bb2d6	-0.057543598
241	0x3dad7007	0.08468633
242	0x3e73fe22	0.23827413
243	0xbe02295b	-0.12711088
244	0x3d6d9735	0.05800553
245	0xbd4f59c7	-0.050622728
246	0x3ca3932e	0.019967642
247	0x3deb7df7	0.11498635
248	0x3e5689c8	0.20950997
249	0xbdd779c8	-0.10521275
250	0xbd4cce2b	-0.050001305
251	0x3e1741ac	0.14771146
252	0x3da75fa3	0.08172538
253	0x3e2428bd	0.16031165
254	0x3d14848e	0.036259227
255	0x3d42da98	0.04757175

conv4.bias f4 [10]
0	0xbdaa047d	-0.08301637
1	0xbd157f37	-0.036498275
2	0xbc365ee9	-0.011131027
3	0xbd453640	-0.04814744
4	0x3d9c0fac	0.07620177
5	0x3e3691ba	0.17829028
6	0x3caa26b5	0.02077041
7	0xbd5995e6	-0.05312147
8	0x3d7021cd	0.058625985
9	0x3d836201	0.06415177

norm.weight f4 [10]
0	0x3f93dda2	1.1552012
1	0x3f823ca6	1.0174758
2	0x3f8a37f4	1.0798326
3	0x3f9a6cc4	1.2064443
4	0x3f884457	1.0645856
5	0x3f85e988	1.0461893
6	0x3f840761	1.0314752
7	0x3f91ea5a	1.1399643
8	0x3f58a3ae	0.84624755
9	0x3f650b0d	0.8946999

norm.bias f4 [10]
0	0xbea59921	-0.3234339
1	0xbe6c7869	-0.23092808
2	0xbec18842	-0.3779927
3	0xbe973131	-0.29529718
4	0xbeb9284b	-0.36163554
5	0xbebfbdce	-0.37449497
6	0xbe90acaa	-0.28256732
7	0xbe9acaac	-0.3023275
8	0xbebc14b7	-0.36734554
9	0xbe9c1ce9	-0.30490807

norm.running_mean f4 [10]
0	0xbec5d7fc	-0.38641346
1	0x3f90591e	1.1277196
2	0xbf2831d5	-0.6570104
3	0x3f1cff67	0.61327213
4	0xbcd26b91	-0.025686057
5	0xbf83329b	-1.0249819
6	0x3fa3a9b1	1.2786161
7	0xbf7cd37c	-0.987602
8	0x3f2f7eea	0.6855303
9	0x400250db	2.036185

norm.running_var f4 [10]
0	0x3f56e67e	0.83945453
1	0x3fa719c4	1.3054738
2	0x3f0487e4	0.5176985
3	0x3f623fa2	0.88378346
4	0x3f80b586	1.0055397
5	0x3f6007b6	0.87511766
6	0x3fabc9e9	1.3420993
7	0x3f7e2f80	0.9929123
8	0x3efe89f4	0.49714625
9	0x3fccc8dd	1.5998799

fc1.weight f4 [50, 810]
0	0xbc1b9835	-0.009496738
1	0x3bf0e973	0.007352048
2	0x3c07d156	0.008289656
3	0x3d09dd7f	0.0336585
4	0xbccb770b	-0.024837038
5	0xbcd6c9e1	-0.02621931
6	0xbd6d885e	-0.057991378
7	0x3c44e13e	0.012016593
8	0x3c99f733	0.018794632
9	0xba58704d	-0.000825648
10	0x3cb160d2	0.021652613
11	0xbd32bfee	-0.04364007
12	0xbc58a200	-0.013222218
13	0x3bf5b6ab	0.0074985824
14	0xbc0b76f2	-0.0085122455
15	0x3ba56f12	0.005048641
16	0x3c57f5cb	0.01318116
17	0x3d13f6bd	0.03612398
18	0xbc326524	-0.010888372
19	0x3d4a7fca	0.049438275
20	0x3cdf4ff5	0.027259806
21	0x39f625a9	0.00046948835
22	0xbcc0f463	-0.023554033
23	0xbba739c2	-0.005103321
24	0xbcd6eca2	-0.026235882
25	0x3b04dbbd	0.0020272576
26	0xbd5567a6	-0.0521008
27	0xbd28ec34	-0.041240886
28	0x38f086f5	0.000114692295
29	0xbd4da739	-0.050208304
30	0xbd616e04	-0.05503656
31	0xbc853f7b	-0.016265621
32	0xbcb16e15	-0.021658937
33	0x3d277b3e	0.040889017
34	0xbcb290bd	-0.021797532
35	0xbce20eef	-0.027595012
36	0xbc324ad3	-0.010882097
37	0xbd7beaf9	-0.061503384
38	0xbd8ad3ca	-0.06778677
39	0xbd7cd154	-0.06172307
40	0xbd89c158	-0.067263305
41	0xbd849a19	-0.06474704
42	0xbc1312e8	-0.008976676
43	0xbd3572ee	-0.04429906
44	0xbd5159c9	-0.051111016
45	0xbc38a928	-0.011270799
46	0xbb1d71e6	-0.0024024188
47	0xbd3e4e1f	-0.04646122
48	0xbcd8e647	-0.026476992
49	0x3b42839b	0.0029680494
50	0xba46f320	-0.0007589329
51	0xbd5d3a5f	-0.054010745
52	0xbc4d30b3	-0.012523818
53	0xbd6f9006	-0.05848696
54	0xbc9b2eff	-0.018943308
55	0xbb3d37d7	-0.0028872394
56	0xbd80fb70	-0.06297958
57	0xbc5df7a8	-0.013547815
58	0xbd33c9a2	-0.043893464
59	0xbd30e524	-0.043187276
60	0xbd9aedd7	-0.075648956
61	0xbb8cd4b8	-0.004297819
62	0xbd273ae2	-0.04082764
63	0xbd543276	-0.051805936
64	0xbce7dfb8	-0.02830492
65	0xbd816b40	-0.063192844
66	0xbd041cf4	-0.032254174
67	0x3c1f4106	0.009720093
68	0xbd11494b	-0.03547029
69	0x3b7c4ebd	0.003849908
70	0xbd7f46ae	-0.062323265
71	0xbd2e4151	-0.04254276
72	0xbd025a7d	-0.031824578
73	0xbcf8fc34	-0.030393697
74	0x3b1f573d	0.0024313473
75	0x3ca9abef	0.020711867
76	0xbb86b411	-0.004110821
77	0x3c873237	0.016503436
78	0xbd0205e4	-0.0317439
79	0xbd39c9d2	-0.045358486
80	0xba111d0a	-0.0005535638
81	0xbd2df18e	-0.042466693
82	0xbc45125e	-0.012028305
83	0xbd83f783	-0.064436935
84	0xbcc32cf3	-0.023825144
85	0xbd03ee6a	-0.03220979
86	0xbcaf7447	-0.02141775
87	0xbca90e9b	-0.020636847
88	0x3c7493ec	0.014927845
89	0xbd24de10	-0.040250838
90	0xbcd91e63	-0.026503747
91	0xbd7eb21b	-0.062181573
92	0x3d88b0b4	0.066743284
93	0x3cdc087d	0.026859516
94	0x3adbe979	0.0016777954
95	0xbd3c3715	-0.045950968
96	0xbd7b4b44	-0.061351076
97	0x3cb25a0b	0.021771451
98	0x3ca24666	0.01980896
99	0xbd50d501	-0.050984386
100	0x3d89614c	0.06708011
101	0xbd039bcf	-0.032131013
102	0xbc2e85b7	-0.010651997
103	0x3bd4667a	0.0064819427
104	0x3c53d50d	0.012929213
105	0xbccd4a32	-0.025059793
106	0xbd1b8690	-0.037970126
107	0xbb2c8b95	-0.0026328315
108	0xbbbfcd8b	-0.00585336
109	0xbba43060	-0.0050106496
110	0x3d7e560a	0.062093772
111	0x3cb9ea59	0.022694753
112	0xbcb74c54	-0.022375263
113	0xba128de9	-0.0005590604
114	0xbd35265e	-0.044226043
115	0xbc293320	-0.010327131
116	0x3a1b2fa3	0.0005919879
117	0xba969715	-0.0011489118
118	0xbcf909c3	-0.030400163
119	0xbc33dd59	-0.010978066
120	0xbcb54eaa	-0.022132237
121	0xbc755561	-0.014973969
122	0xbd1c5910	-0.038170874
123	0x3c02b562	0.007977815
124	0x3c9017cb	0.01758947
125	0xbc922205	-0.017838487
126	0xbcf297f5	-0.029613474
127	0x3c817f0e	0.015807655
128	0x3d0a502a	0.033767857
129	0x3becc866	0.007226038
130	0x3ce57a47	0.028012408
131	0xbd75d025	-0.060012955
132	0x3bf13da1	0.007362083
133	0xba46fceb	-0.00075907883
134	0xbcf7b3ad	-0.030237043
135	0xbc6bf9b5	-0.0144027965
136	0xbc98b905	-0.018642912
137	0xbd6d20fb	-0.05789278
138	0x3ccc6c65	0.02495403
139	0x3c1eca48	0.009691782
140	0xbd2d2d32	-0.04227943
141	0xbd541da1	-0.05178607
142	0xbb80183b	-0.0039091385
143	0xbd93a71a	-0.072096065
144	0xbd002ddd	-0.03129374
145	0x3d10defc	0.035368904
146	0xbb5f9542	-0.0034116064
147	0x3d29a25c	0.041414604
148	0xbc82c239	-0.015961753
149	0xbd3061c0	-0.04306197
150	0x3ceb5553	0.02872721
151	0x3cf24b5d	0.029576952
152	0xbd20b401	-0.039234165
153	0xbadc0649	-0.0016786541
154	0xbceb7bd3	-0.028745567
155	0xbc46ceca	-0.012134263
156	0x3ba78313	0.005112061
157	0xbd1405aa	-0.036138214
158	0xbc52d322	-0.012867721
159	0xbc9c4c91	-0.019079478
160	0xbd0a9ada	-0.033839084
161	0x3d646056	0.055755936
162	0xbc19fd7f	-0.009398817
163	0xbd137868	-0.0360035
164	0x3c36c234	0.0111547
165	0xbbfa50d3	-0.0076390295
166	0xbd356c29	-0.044292603
167	0x3c884793	0.016635692
168	0xbd2c0ac1	-0.042002443
169	0xbccd6115	-0.025070706
170	0xbd81ae0d	-0.06332026
171	0x3c8f79b1	0.017514082
172	0xbd748f82	-0.059707172
173	0xbc6e9847	-0.014562673
174	0x3a950590	0.0011369456
175	0x3d23206f	0.039825853
176	0xbcb99be9	-0.022657352
177	0xbd7843e7	-0.06061163
178	0xbd231920	-0.039818883
179	0xbd0aa2c5	-0.033846635
180	0xbd3f2514	-0.04666622
181	0x3ccf7ba2	0.025327507
182	0x3adf936a	0.0017057483
183	0xbcb8de7d	-0.022567028
184	0x3c032655	0.008004745
185	0xbc8553e5	-0.016275356
186	0xbc5d893e	-0.013521491
187	0xbc11f567	-0.008908606
188	0x3aef41be	0.0018253846
189	0x3cf9a54f	0.030474333
190	0x39442998	0.00018707511
191	0xbd0c1db2	-0.034208007
192	0xbd447144	-0.04795958
193	0xbcb8fc69	-0.022581296
194	0xbc729729	-0.014806547
195	0xbd35fa62	-0.044428237
196	0xbb471f5c	-0.0030383682
197	0xbc3c4d47	-0.011493034
198	0xbbc0915b	-0.0058767027
199	0x3d9e24f1	0.0772189
200	0x3d2621c1	0.040559534
201	0xbc041fe9	-0.008064249
202	0xbca6d187	-0.020363582
203	0xbbce4946	-0.006295356
204	0x3c50cafb	0.012743707
205	0xbd052757	-0.03250822
206	0x3b8e8e52	0.004350462
207	0xbccf80a9	-0.025329905
208	0x3ba3f484	0.005003514
209	0xbc9a9001	-0.018867495
210	0x3d0f31d1	0.034959618
211	0xbc8f1d28	-0.017469957
212	0xbb536b16	-0.0032259873
213	0x3c62cf28	0.013843335
214	0xba28dc09	-0.0006441479
215	0xbbc2dbe7	-0.0059466246
216	0xbd40640f	-0.046970423
217	0x3cf945cb	0.030428788
218	0x3bab85fc	0.005234478
219	0xbbc129ed	-0.0058948905
220	0x3c391d4d	0.01129849
221	0x3b61c0e8	0.0034447256
222	0xbb8ccb76	-0.0042967154
223	0xbca832a4	-0.02053196
224	0x3d8602c0	0.06543493
225	0xbc7e8a7a	-0.015535945
226	0xbb76f18d	-0.0037680597
227	0xbd1d076e	-0.038337164
228	0xbce8b824	-0.028408118
229	0xbbc994f3	-0.0061517893
230	0xbc42fc8c	-0.011901032
231	0x3c9c0a63	0.019047922
232	0xbab9c469	-0.0014172915
233	0x3d711531	0.0588581
234	0x3cefb5fe	0.029261585
235	0xbd3284e3	-0.043583762
236	0xbbc1f1a9	-0.0059187007
237	0xbd1ef141	-0.038804296
238	0xbc4932f3	-0.012280214
239	0xbd7e9567	-0.0621542
240	0xbc150178	-0.009094588
241	0x3c9e4803	0.019321447
242	0x3be712b6	0.007051791
243	0xbc0999d7	-0.008398495
244	0x3d50a017	0.050933924
245	0xbd2c6c19	-0.042095277
246	0xbce76a0f	-0.028248815
247	0xbcc5feab	-0.024169287
248	0xbd2df2b1	-0.042467777
249	0xbbc2d040	-0.0059452355
250	0x3d811657	0.06303089
251	0x3c7bbd70	0.01536499
252	0xbc843844	-0.01614011
253	0x3ca697a3	0.020335978
254	0x3c99f640	0.018794179
255	0xbcab66af	-0.020922987

fc1.bias f4 [50]
0	0xbce8b7fe	-0.028408047
1	0xbd9b6d7c	-0.07589242
2	0xbd1884d7	-0.03723606
3	0xbd820ea8	-0.06350452
4	0xbb962844	-0.0045824368
5	0x3b6f5a1b	0.0036522213
6	0xbc9eb3ca	-0.01937284
7	0xbc011ad0	-0.007879928
8	0x3bb34ef5	0.005472059
9	0xbd483f9d	-0.04888879
10	0xbd639c8b	-0.055569213
11	0x3d87efb8	0.066375196
12	0xbd2ce428	-0.042209774
13	0xbcb59cd4	-0.022169508
14	0xbd3195a4	-0.0433556
15	0xbdb0a5e5	-0.08625392
16	0x3c6423b8	0.013924532
17	0xbcc775ea	-0.024348218
18	0xbd225853	-0.039635014
19	0xbd1faafc	-0.038981423
20	0xbd750164	-0.05981578
21	0x3d24f792	0.040275164
22	0x3d11ae09	0.035566363
23	0xbd037d06	-0.032101654
24	0xbbc91217	-0.0061361897
25	0xbd2a535e	-0.04158341
26	0xbd6aaf24	-0.057295933
27	0x3c49853d	0.012299833
28	0xbcd9aee5	-0.026572654
29	0xbdda0ae2	-0.10646607
30	0xbbb9e886	-0.005673471
31	0xbd8dfa87	-0.0693255
32	0xbd3501e1	-0.044191245
33	0xbce76c91	-0.02825001
34	0xbca9b999	-0.020718383
35	0xbd5f87ef	-0.054572996
36	0x3e6a5b99	0.22886504
37	0xbbbb3186	-0.0057126908
38	0xbce25d24	-0.027632304
39	0x3c2322ec	0.0099570565
40	0xbd17a1f9	-0.037019704
41	0xbd7e9bb8	-0.062160224
42	0x3d5f2fbf	0.054488894
43	0xbd4ff7a8	-0.050773293
44	0xbbe055f8	-0.006846186
45	0xbd1e7091	-0.03868157
46	0x3dc7c114	0.097536236
47	0x3d237dc9	0.03991488
48	0xbc8181ee	-0.015809026
49	0xbcd046af	-0.02542433

fc2.weight f4 [7, 50]
0	0xbcf3cb06	-0.029759895
1	0xbdd57a69	-0.104237385
2	0xbdcb19e6	-0.09917049
3	0xbde0ea4d	-0.10982189
4	0xbe35cdd6	-0.17754301
5	0x3d3cd515	0.04610165
6	0xbd9a64bb	-0.07538744
7	0x3e470869	0.19436802
8	0xbdc10fd7	-0.09426849
9	0x3d84c116	0.06482141
10	0x3d8c8e08	0.06863028
11	0x3da0bacf	0.07848131
12	0xbda1e31e	-0.07904647
13	0x3d9fd1d7	0.07803696
14	0xbdf2222c	-0.11822924
15	0x3c9ea46a	0.019365508
16	0x3d75ac02	0.059978493
17	0xbd094c64	-0.033520117
18	0xbd0b734a	-0.034045495
19	0xbd12e087	-0.035858657
20	0x3ce773a1	0.028253378
21	0x3c418a9f	0.011812835
22	0x3e8689bf	0.26276967
23	0xbe4ae595	-0.19814141
24	0x3c9ae37c	0.018907301
25	0x3d55eca0	0.052227616
26	0x3da2cb81	0.079489715
27	0x3dc9ab7a	0.0984716
28	0xbcf72b0c	-0.030171894
29	0xbd51e14d	-0.051240254
30	0xbe390d11	-0.1807139
31	0x3d0bfebb	0.034178477
32	0x3dbc2107	0.09185987
33	0xbe3f1381	-0.18659784
34	0xb5b85f7b	-1.3736857e-06
35	0x3d81ddb6	0.06341116
36	0x3daa8a77	0.08327191
37	0xbd5f55dc	-0.05452524
38	0xbc4777ee	-0.01217459
39	0xbc99e858	-0.018787548
40	0x3d78d4ff	0.060750004
41	0xbe19340b	-0.14961259
42	0xbd45518c	-0.048173472
43	0xbd91ef96	-0.071257755
44	0xbe0fa1a6	-0.14026508
45	0xbbd504c0	-0.0065008104
46	0xbda88bbf	-0.082297795
47	0x3e1e299a	0.15445557
48	0x3d47f16b	0.04881422
49	0x3cf3c1e5	0.029755542
50	0xbc0c88e5	-0.00857756
51	0xbd0433a6	-0.03227582
52	0x3d92d22e	0.07168995
53	0xbd8bdda9	-0.06829388
54	0xbdb020df	-0.0860002
55	0x3de23a48	0.110462725
56	0xbd8f6691	-0.07001985
57	0xbd876df7	-0.06612771
58	0x3e05aed6	0.13054976
59	0xbcffc8fa	-0.031223763
60	0xbdd75717	-0.10514658
61	0xbe20c636	-0.15700611
62	0xbbdc3e8a	-0.0067213224
63	0xbcf3e6e7	-0.029773189
64	0x3dbb37b3	0.09141483
65	0xbec9e433	-0.39431915
66	0xbcb56fd6	-0.022148054
67	0x3d667568	0.05626431
68	0xbe057a39	-0.13034905
69	0xbd62ae6d	-0.055342127
70	0xbdf4a12f	-0.11944806
71	0xbe7de017	-0.24792515
72	0xbe0438f4	-0.12912351
73	0xbe3c8f9b	-0.18414156
74	0x3d1f6fe6	0.038925074
75	0x3d96ab6e	0.07356916
76	0x3caa9a86	0.020825636
77	0xbcca9e1c	-0.024733596
78	0x3d947296	0.07248418
79	0xbe9cc17b	-0.30616364
80	0xbd39a690	-0.045324862
81	0x3d840e44	0.064480335
82	0x3dbe9247	0.09305244
83	0xbcc7556b	-0.024332723
84	0xbcb211de	-0.021737035
85	0x3c77dc92	0.015128272
86	0x3e9a9049	0.30188206
87	0xbbb579c9	-0.0055381996
88	0xbd8b1614	-0.067913204
89	0x3bab911e	0.005235805
90	0x3daee1a3	0.085391305
91	0x3c5ec344	0.01359636
92	0x3d96c44b	0.07361659
93	0x3ccb9513	0.024851358
94	0xbd2b241b	-0.04178248
95	0x3b99410e	0.0046769446
96	0x3e9fe013	0.31225643
97	0xbe7f452d	-0.24928732
98	0x3a9d8dc1	0.0012020395
99	0xbe26b4d4	-0.16279918
100	0x3d637013	0.055526804
101	0xbdf60af7	-0.1201381
102	0xbd6989fd	-0.05701636
103	0x3dcbea03	0.099567436
104	0xbe301c82	-0.17198375
105	0xbddc4c5c	-0.10756752
106	0xbd40ab2b	-0.04703824
107	0xbe8bc58d	-0.27299157
108	0xbe90414a	-0.28174812
109	0xbda2d25c	-0.07950279
110	0x3dc8df35	0.09808198
111	0x3e602053	0.2188733
112	0x3da444e7	0.080209546
113	0xbd939fef	-0.07208239
114	0xbd360fce	-0.044448666
115	0xbdf911d9	-0.12161607
116	0x3d8421c9	0.064517565
117	0x3d39ca84	0.04535915
118	0xbd0abeb7	-0.033873286
119	0xbcaedf4c	-0.02134671
120	0x3df49be3	0.119437955
121	0x3e693ae4	0.22776371
122	0x3d750b70	0.05982536
123	0x3cec3f9a	0.028838921
124	0x3e00e467	0.12587129
125	0x3bec3c7a	0.007209358
126	0xbc194206	-0.00935412
127	0x3d2c0942	0.042001016
128	0x3c0df5e2	0.00866458
129	0x3d859243	0.06522038
130	0x3e53e95b	0.20694487
131	0x3abe03cc	0.0014496981
132	0x3cef67e3	0.029224342
133	0xbe1f5a36	-0.15561756
134	0x3dc8e76f	0.098097675
135	0x3d6a342c	0.05717866
136	0x3dd1602d	0.10223422
137	0xbca691cb	-0.020333191
138	0xbd608179	-0.054810975
139	0xbdd02259	-0.10162801
140	0x3c2a6edb	0.010402407
141	0x3d97a5c2	0.07404663
142	0x3e22067e	0.15822789
143	0xbd1eda77	-0.038782563
144	0xbd98846a	-0.07447131
145	0xbdbb9653	-0.091595314
146	0xbe66e40f	-0.22547935
147	0x3e04659d	0.12929387
148	0x3d570240	0.05249238
149	0xbc4cac62	-0.012492271
150	0x3d7eb5d1	0.062185112
151	0x3e5b0f7b	0.21392624
152	0xbdd062a6	-0.10175066
153	0x3d7e8d32	0.062146373
154	0xbe0731dc	-0.13202614
155	0xbe13dbf0	-0.14439368
156	0xbdf050cb	-0.1173416
157	0xbd657b59	-0.056025837
158	0x3d425ef4	0.047453836
159	0xbe1cd76e	-0.15316555
160	0x3de2e6fb	0.11079212
161	0xbe60d727	-0.21957074
162	0xbd997f56	-0.074949905
163	0xbdd851fe	-0.10562514
164	0xbc6e206d	-0.014534098
165	0xbd88f612	-0.06687559
166	0x3e742a73	0.23844318
167	0xbd508b2b	-0.05091397
168	0xbda2d42e	-0.07950626
169	0x3d0383c9	0.032108102
170	0xbd36904e	-0.044571213
171	0xbea34a01	-0.31892398
172	0x3c0fb67d	0.008771536
173	0x3c85a33b	0.016313186
174	0xbd9a735a	-0.07541533
175	0x3cb7f5d2	0.022456083
176	0xbd34e8b1	-0.044167224
177	0x3de5bbb4	0.11217442
178	0x3d3e3f20	0.04644692
179	0x3da3e533	0.08002701
180	0x3de98b83	0.11403563
181	0x3d061d46	0.03274276
182	0xbd90d82a	-0.0707248
183	0xbb04dc76	-0.0020273007
184	0x3dda693b	0.10664602
185	0x3d6b77ae	0.057487182
186	0xbeb5ec42	-0.35531813
187	0xbdbae281	-0.091252334
188	0xbced84ce	-0.02899399
189	0xbb1afb03	-0.002364815
190	0xbdd3ba74	-0.103382975
191	0x3d309d43	0.043118726
192	0xbe1bb7e9	-0.15206875
193	0x3d7ae20c	0.06125073
194	0x3d922ace	0.071370706
195	0x3d7c85c2	0.061651
196	0xbdcbfc99	-0.099602886
197	0xbd37b0b5	-0.044846255
198	0x3ce38ba8	0.027776554
199	0xbb8789cf	-0.004136301
200	0xbd73b09b	-0.059494596
201	0xbe00f4e5	-0.1259342
202	0x3c452faa	0.01203529
203	0xbc890405	-0.01672555
204	0x3b79679d	0.0038056143
205	0xbcf05d8f	-0.029341487
206	0x3db9f883	0.09080603
207	0xbd4f648c	-0.050633
208	0x3d86b1f3	0.0657691
209	0x3d0befa5	0.03416409
210	0xbc9eed5b	-0.01940029
211	0x3dd55252	0.10416092
212	0xbd82e8c7	-0.06392055
213	0x3cfc30eb	0.030785045
214	0xbd11cd2d	-0.03559606
215	0x3e553bc3	0.20823579
216	0x3dbce032	0.09222449
217	0x3df63afd	0.1202297
218	0xbdd057f4	-0.10173026
219	0x3c009109	0.007847079
220	0x3c43e5a3	0.011956605
221	0xbde45401	-0.11148835
222	0xbddcae18	-0.10775393
223	0x3e81d53e	0.25358003
224	0xbcab8501	-0.020937445
225	0xbd907656	-0.07053821
226	0xbd826cfb	-0.063684426
227	0xbebceafd	-0.36898032
228	0xbdd997cd	-0.10624657
229	0x3e0dac81	0.13835336
230	0x3e257217	0.16156803
231	0x3da92f3a	0.08260961
232	0x3a88a7a8	0.0010425942
233	0xbda31b41	-0.07964183
234	0xbd358d5e	-0.04432427
235	0x3d684a95	0.056711752
236	0xbe2913f5	-0.16511519
237	0x3c2fbd78	0.010726325
238	0x3b054c6a	0.0020339736
239	0xbd3121f2	-0.043245263
240	0x3b77ca33	0.003780973
241	0x3c201f9d	0.009773162
242	0x3e2dbe57	0.1696714
243	0xbb0de8a7	-0.0021653564
244	0x3d003411	0.031299654
245	0x3ded100f	0.115753286
246	0x3d9d78fd	0.07689092
247	0xbe22e8d3	-0.15909128
248	0x3ddd4878	0.10804838
249	0xbd7a6fa6	-0.061141632
250	0xbce8e595	-0.028429786
251	0xbdbd1412	-0.09232344
252	0x3e35a8a3	0.17740111
253	0x3bac9d62	0.005267785
254	0xbe07da95	-0.13266976
255	0xbdba6890	-0.09101975

fc2.bias f4 [7]
0	0x3e045c41	0.12925817
1	0x3ebd9df6	0.37034577
2	0xbd9a3aa9	-0.0753072
3	0xbdd178d0	-0.10228121
4	0x3d655749	0.055991445
5	0x3da40cfb	0.08010288
6	0xbdbfa20d	-0.093570806

localization.0.weight f4 [8, 1, 7, 7]
0	0xbddfdf2a	-0.10931237
1	0x3dabc398	0.08386916
2	0x3d6b2912	0.057412215
3	0x3c58dc47	0.013236112
4	0xbd341d45	-0.043973226
5	0xbdead07b	-0.11465546
6	0xbd7d7e02	-0.06188775
7	0xbe175836	-0.14779744
8	0x3da17ff5	0.07885734
9	0xbdbea179	-0.09308142
10	0xbc3dba0a	-0.01158
11	0x3d1ed642	0.03877855
12	0x3d7d1524	0.06178774
13	0xbc25b893	-0.010114807
14	0xbe2e60a3	-0.17029051
15	0xbdab1c61	-0.08355022
16	0x3d6a20c7	0.057160165
17	0xbd22cf7e	-0.03974866
18	0x3d41350b	0.047169726
19	0xbde0609d	-0.109559275
20	0x3d8deb22	0.06929614
21	0xbdfbf4cd	-0.123025514
22	0xbdd8f1fa	-0.10593028
23	0x3c34c927	0.011034287
24	0x39f876d5	0.00047390783
25	0x3da41dcb	0.08013495
26	0xbe009846	-0.12558088
27	0xbd0e9e41	-0.03481889
28	0x3d52cd72	0.05146546
29	0xbd4f4947	-0.050606992
30	0xbd74f242	-0.059801348
31	0xbcc9bca8	-0.024626091
32	0x3d1b5d6b	0.037930887
33	0xbe396ab2	-0.18107107
34	0xbdabddbc	-0.08391902
35	0x3bb01dc7	0.0053746435
36	0xbcdfedfe	-0.027335163
37	0xbd7acd4a	-0.061230935
38	0xbc0dad0c	-0.008647215
39	0x3d2e2e6b	0.042524736
40	0xbdb38c61	-0.087670095
41	0x3d4d0f89	0.050063644
42	0xbd4492f8	-0.047991723
43	0x3dd814ff	0.1055088
44	0x3d320d5f	0.043469783
45	0xbc74665a	-0.014916981
46	0xbdb188f3	-0.08668699
47	0x3cea65d0	0.028613001
48	0x3c61a7bd	0.013772902
49	0x3c82df7c	0.015975706
50	0x3df478f2	0.11937131
51	0xbc650501	-0.013978244
52	0x3dae051c	0.08497068
53	0xbdbdde4a	-0.09270914
54	0xbcb379e3	-0.021908706
55	0xbe172835	-0.14761432
56	0xbdf3289f	-0.11872982
57	0xbd9812e0	-0.07425475
58	0xbbedc811	-0.007256516
59	0xbd8b6a1c	-0.06807348
60	0xbc657987	-0.014006025
61	0x3d0742b9	0.033022616
62	0x3db81006	0.08987431
63	0xbde00d00	-0.109399796
64	0x3e01acce	0.12663576
65	0xbdb0746e	-0.08615957
66	0xbdb429d0	-0.087970376
67	0x3d1482d5	0.036257584
68	0x3d24048e	0.040043406
69	0x3dd65553	0.10465493
70	0x3e09b8fe	0.13449475
71	0x3dc4cff3	0.09609976
72	0xbd846a18	-0.06465548
73	0x3d1940ee	0.037415437
74	0x3e0a8c9b	0.13530199
75	0xbd0947ab	-0.033515614
76	0x3cccdd67	0.025007917
77	0xbd9fa19a	-0.07794495
78	0xbd89ee5b	-0.06734916
79	0x3e04563a	0.12923518
80	0x3daf5321	0.085607775
81	0xbdcc8a00	-0.09987259
82	0x3d34d542	0.04414869
83	0xbdf5a476	-0.11994259
84	0xbd2927b3	-0.041297626
85	0xbcf59600	-0.029978752
86	0x3e1e795c	0.15475982
87	0xbde5e98f	-0.112261884
88	0xbd811dd2	-0.06304516
89	0x3db8a3a2	0.090155855
90	0x3e0704ec	0.13185471
91	0xbdeb8265	-0.1149948
92	0x3dfbad33	0.122888945
93	0xbcb0e272	-0.021592353
94	0xbdf35fd5	-0.11883513
95	0xbca2c6fd	-0.019870276
96	0x3bc9c3ad	0.0061573596
97	0x3ddfdba5	0.10930566
98	0x3daba762	0.08381535
99	0xbd7de3ec	-0.06198494
100	0x3d99aeb7	0.07504027
101	0x3d06cf76	0.032912694
102	0xbe143eb3	-0.14477043
103	0x3a4639b1	0.0007561697
104	0x3df0ef4f	0.117643945
105	0xbe104e0e	-0.14092276
106	0xbd6f2d9e	-0.058393113
107	0xbb5c2fac	-0.003359775
108	0xbcb527a1	-0.022113623
109	0x3d7881cc	0.06067066
110	0x3d96a119	0.07354946
111	0xbe4cf6e5	-0.20016058
112	0x3dccc069	0.09997637
113	0x3dacf234	0.08444634
114	0x3dce02dc	0.10059139
115	0x3d973ac9	0.07384259
116	0xbe1ebbae	-0.15501282
117	0xbe0e45cb	-0.13893811
118	0xbe403759	-0.18771113
119	0xbd50c251	-0.050966565
120	0x3d9eb7d2	0.07749905
121	0x3df2781d	0.11839316
122	0xbd1a23bc	-0.037631735
123	0x3d4a3bc7	0.049373414
124	0x3aeed89d	0.0018222515
125	0x3d9a3b4a	0.0753084
126	0x3e0a0520	0.13478518
127	0xba601929	-0.0008548671
128	0x3aba981b	0.0014236005
129	0x3e171bc2	0.14756683
130	0x3e1bd7ea	0.15219083
131	0x3e1b9f88	0.15197575
132	0xbd3d13dd	-0.04616152
133	0xbcef8cd2	-0.029241953
134	0xbd1355ce	-0.0359705
135	0x3b63b1ed	0.0034743503
136	0x3dedd60b	0.11613091
137	0xbaa583fe	-0.0012627838
138	0xbc20767f	-0.009793877
139	0x3d2a199a	0.04152832
140	0xbcd0122d	-0.025399292
141	0x3d0e3a15	0.03472336
142	0x3c82e4f9	0.015978323
143	0x3d9ce01c	0.07659933
144	0x3d90a15b	0.07062026
145	0x3de7287a	0.11287017
146	0x3d95b508	0.073099196
147	0x3dac316d	0.08407865
148	0xbd351927	-0.04421344
149	0x3ddebd8d	0.10875998
150	0xbd452216	-0.04812821
151	0xbe0115d6	-0.12605986
152	0xbdc3a5e9	-0.09553129
153	0xbc849aef	-0.01618716
154	0x3d62243a	0.05521033
155	0x3ae2b0f5	0.0017295169
156	0xbdefe235	-0.117130674
157	0x3da3fbd0	0.08007014
158	0x3d9dde3f	0.07708406
159	0xbd3dfb47	-0.046382215
160	0xbd6e3f0c	-0.058165595
161	0x3baa20c2	0.0051918933
162	0xbd72d3a0	-0.059283853
163	0x3b4f0e2e	0.0031594145
164	0x3d74271e	0.059607618
165	0xbdd1458d	-0.10218344
166	0xbdb67fa9	-0.08911068
167	0x3c83b677	0.016078217
168	0xba74449b	-0.00093180843
169	0x3df82125	0.12115697
170	0x3d9a9db6	0.07549612
171	0xbdb98e73	-0.09060373
172	0x3d92fd27	0.07177191
173	0x3cc1da00	0.02366352
174	0xbd065e99	-0.03280506
175	0x3d63f5b3	0.05565424
176	0xbcb60042	-0.02221692
177	0x3d960fe3	0.07327249
178	0xbe00516b	-0.12531058
179	0x3dc321c5	0.095279254
180	0xbda9af7f	-0.08285426
181	0x3cfa7ccd	0.030577088
182	0xbdfc32f6	-0.123144075
183	0x3dadc739	0.08485264
184	0xbd80303f	-0.06259202
185	0x3d749cc2	0.05971981
186	0xbe3c13dd	-0.18366952
187	0x3c501794	0.012700934
188	0xbcbb11fb	-0.022835722
189	0x3d0f7224	0.035020962
190	0xbcd29143	-0.025704032
191	0xbdfd1005	-0.12356571
192	0xbe0de49a	-0.13856736
193	0xbdb0861d	-0.0861933
194	0x3d8f0651	0.06983627
195	0xbba9ccf7	-0.0051819044
196	0xbdedbe8d	-0.1160861
197	0xbb7a3875	-0.0038180624
198	0x3caa6f6c	0.020805083
199	0xbe61e7e8	-0.22061121
200	0x3c8fc2a1	0.017548861
201	0x3c5d0817	0.013490698
202	0x3c715426	0.014729535
203	0xbdb395ae	-0.087687835
204	0xbd95b3d0	-0.07309687
205	0xbd844c7c	-0.06459901
206	0xbbb8ef0b	-0.0056437305
207	0xbdb7f836	-0.08982889
208	0xbc90e98b	-0.017689487
209	0x3c0d0683	0.00860751
210	0x3da91bd3	0.0825726
211	0xbdc301b2	-0.09521808
212	0xbda0d098	-0.07852286
213	0xbe27df2d	-0.16393729
214	0x3d17d19d	0.037065137
215	0x3cbc7b00	0.02300787
216	0xbd66f67d	-0.056387413
217	0x3cbc6bec	0.02300068
218	0xbd4cc830	-0.0499956
219	0x3c69b6fa	0.014264816
220	0x3bb5d41b	0.0055489666
221	0xbd515809	-0.051109347
222	0x3d197731	0.037467185
223	0x3c10fb96	0.008849045
224	0xbd824f67	-0.06362801
225	0x3d740e00	0.059583664
226	0xbd2a5b0a	-0.041590728
227	0xbde9641e	-0.11396049
228	0xbcc818a0	-0.024425805
229	0xbe0e4712	-0.13894299
230	0xbd33d3f0	-0.04390329
231	0xbcb1580c	-0.02164843
232	0x3da01ec0	0.07818365
233	0x3d1c18da	0.038109638
234	0x3c2f5fc5	0.010703986
235	0x3d33100e	0.043716483
236	0xbcbf6a38	-0.023366079
237	0xbda19784	-0.078902274
238	0x3cd6cdca	0.026221175
239	0xbd637f0f	-0.055541094
240	0xbd84395c	-0.06456253
241	0x3dadbefa	0.084836915
242	0xbd512886	-0.051064037
243	0xbd44f6e2	-0.04808701
244	0xbc43ef09	-0.011958846
245	0xbda8c562	-0.08240773
246	0xbdda05c6	-0.106456324
247	0xbb3f0de7	-0.0029152574
248	0xbc969eb2	-0.018386219
249	0x3d779735	0.060446937
250	0x3de00058	0.109375656
251	0xbe3e88f1	-0.18606927
252	0xbd17eec5	-0.037092943
253	0x3d85fba6	0.06542139
254	0xbca0b93d	-0.019619578
255	0xbd29b580	-0.041432858

localization.0.bias f4 [8]
0	0xbddd2fcf	-0.108001344
1	0xbdcb3f55	-0.09924189
2	0xbdaf0b1c	-0.08547041
3	0x3d7b5d5d	0.061368335
4	0x3bb8bb4f	0.0056375633
5	0xbdf90773	-0.12159624
6	0xbd8d918f	-0.06912529
7	0xbd20af23	-0.039229523
