deep_emotion-ckplus-20-32-0.001.pt (torch, 274522 bytes, 24 tensors)

conv1.weight f4 [10, 1, 3, 3]
00000000: 7bd8 8bbe b2e8 833e f71b 2d3e 6748 473e
00000010: 6cd0 8dbe c95d 9c3e 22dd 83be abf5 383e
00000020: fb56 8cbe fa6c 32be 250d c2bd 585f 893d
00000030: 547f a7bd d3d2 adbd 34d0 edbd e53b 55bd
00000040: 0d01 8fbe 9250 a6be 87b9 64be 8c90 46bd
00000050: 96a1 be3d 13be a63c 6aff e7bd fda8 ad3d
00000060: 2786 6fbd 5c2c 8fbe bb46 9f3e 267a 183e
00000070: 4368 aabe 1f5e 21be fa60 1c3e 160a 9fbe
00000080: e816 9ebe 66bf 973e 9859 9a3e e03e 9ebe
00000090: 1e34 1fbe 994f 5f3e 1b2d 913d e8d5 e5bd
000000a0: 903e 1bbe 9ea7 f8bc a0c4 3cbe 00e7 843e
000000b0: e642 7b3d 4665 0d3e 07a9 043c a7ae 47bd
000000c0: ab1a a93e 981f 95be 51fa a93e 6414 35be
000000d0: 49ae 55be 628c 0ebd 66e4 b1be 73f1 eb3d
000000e0: e8aa bb3c dc69 52be b082 8bbe d027 603d
000000f0: 9af2 6f3e 7e40 963e ff06 afbc 6610 243d
00000100: b7e8 80be f02e 3fbd 708c 83be 5f07 2b3e
00000110: db38 65bc eed2 71be d3e1 d0bd 9504 783e
00000120: 9207 86bd f404 833e e351 253e ace8 813d
00000130: a688 3fbe 9e55 813e e52f 9f3d 1c7a 63be
00000140: 40f8 0d3d 6dab 2b3e a21c b83b 9aed 7fbe
00000150: b2c4 8c3e bdf3 5bbe 2887 a43d 69bb 99be
00000160: 5a40 40be 369c a93d
-0.273136 0.2576347 0.16905199 0.19461213 -0.27698076 0.30540302 -0.25754648 0.18062465
-0.2741011 -0.17424384 -0.09475163 0.067076385 -0.08178583 -0.08487477 -0.11611977 -0.052059073
-0.2793049 -0.32483345 -0.22336398 -0.048477694 0.09308164 0.020354306 -0.11328013 0.084794976
-0.058477547 -0.2796353 0.3110865 0.14890346 -0.3328267 -0.1575856 0.15271369 -0.31062382
-0.3087685 0.29638213 0.3014648 -0.30907345 -0.15547225 0.21807708 0.07088681 -0.1122244
-0.15160584 -0.030353364 -0.18434381 0.2595749 0.061343096 0.13808164 0.00809694 -0.048750546
0.3302816 -0.29125667 0.3319879 -0.1768356 -0.20867266 -0.03480185 -0.34744567 0.11520662
0.022908643 -0.20548195 -0.27248144 0.05472547 0.23432389 0.2934608 -0.02136564 0.0400547
-0.25177547 -0.046675622 -0.25693083 0.1670203 -0.013990606 -0.2361562 -0.101993226 0.24220498
-0.06544413 0.25589716 0.16144519 0.06343207 -0.18704471 0.25260633 0.07772807 -0.2221455
0.034660578 0.16764612 0.0056186477 -0.24992982 0.27493817 -0.21479698 0.080335915 -0.30025795
-0.18774548 0.08281748

conv1.bias f4 [10]
00000000: 9e39 fbbb 6a95 dcbb e843 b13c a2fe 39be
00000010: 95b2 983d ff6b 82be 50cf 133c 28ae 303e
00000020: ca57 de3d 3622 8d3e
-0.0076667806 -0.0067316787 0.021638826 -0.18163541 0.07455937 -0.2547302 0.009021595 0.17253935
0.10856588 0.27565163

conv2.weight f4 [10, 10, 3, 3]
00000000: ed38 8bbd ead5 c03d 0843 81bc 0b3a 9f3d
00000010: 1b2f aa3d 247b 84bd 574a 843d 266a b13c
00000020: 9781 a1bd fba4 ff3b a839 f0bc fb29 9fbd
00000030: fe18 b53d 1e2a 4e3d aa82 153c c906 cabd
00000040: bd94 0e3d 81b4 9c3d c0cf e73c f429 b33b
00000050: 80c0 78bd 67ae 2bbd 9d6a e13d ee07 0f3d
00000060: 61f2 b2bc 062d d0bc 577d c43d 13b4 c3bc
00000070: 0f57 c0bd 04f1 23bd b907 c03d 3edb 1a3d
00000080: 10c5 8f3b a84b bc3d f609 9abd 59d2 9dbd
00000090: 0a07 293b ddd4 2bbc f037 03bd cd58 b8bd
000000a0: 0687 65bb 0224 013d 4682 33bd 2e55 41bd
000000b0: 99c2 00bd b287 7dbd 4667 e4bc e109 e93d
000000c0: ee5a 9a3d 20bf febc e50b afbd 73c5 d43d
000000d0: c062 7abd 72c1 9c3d dc8a 023c f469 14bd
000000e0: 5570 903d 6143 8f3d 2b39 ac3d feef bc3c
000000f0: 75f6 b5bb 7436 b13d 3cd5 afbd 171b 163c
00000100: f2ca 423d fbe8 6ebd 6695 293d f53b cd3d
00000110: ab65 9d3d 9fa5 5f3c d657 86bd c866 a9bc
00000120: bb7e 93bc f1f6 8ebd 7ad6 7a3d ca23 4c3d
00000130: f513 553d daed c1bc c104 cc3d 634e 1b3d
00000140: 3d2b 063c 1e6c 663d 4523 ecbd 67e1 cdbc
00000150: 1b1b 14bd 4da2 bf3d bcac cd3c fe00 49bd
00000160: 0862 63bd 1542 b33d ce7d fabc b747 c33d
00000170: 600b bdbd 9a26 113b 8031 24bd 6c73 533d
00000180: 7a8c 68bd a143 193d 018c 9c3d f228 c839
00000190: bb75 bebd adc4 2cbd a2b2 d5bc a08d 603d
000001a0: 4c6b 61bd 7239 a13c 5fd3 86bd a35e 703d
000001b0: 7489 913d 738d 9a3d a4bf df3d 1bc6 c83b
000001c0: 2952 5abd 5156 993d 421d 37bd 30c9 5fbd
000001d0: 1b01 e33d 3336 f4bd 8f0b 7c3c e649 d1bd
000001e0: 0b4e ea3d 2134 fd3d 538c 00be b34b 7f3d
000001f0: 506f 63bd 2b2c 9d3d 082e dabc 2089 a23d
00000200: 9dd6 353d b0a4 afbd d89b 563d 1855 c23b
00000210: 2f0f 5ebd 7b54 0dbd e3a0 bd3d 5adc 833d
00000220: e2c0 9dbd c44c 9d3d bc46 943d 10c3 efbb
00000230: 8149 e2bc 4c2f 35bd 466c 4dbd 9349 353d
00000240: 73e4 b6bd e0db b93a 9cd7 923c e24b e7bd
00000250: 93d8 4dbd 7113 343d ea86 883d 12bd ab3c
00000260: dafe bdbc f671 93bd bbf5 e6bc 4bae fe3d
00000270: f738 523d c24d b3bd 3ef4 fe3c 2245 bd3d
00000280: 21e0 db3b d06c 30bd e3e3 afbc 3204 563d
00000290: 5144 833c 14d2 c4bd 3e29 afbc 9a40 c83d
000002a0: 8d53 6a3d 92a6 c3bd bbfc cd3c e894 9fbd
000002b0: e08e cf3c c148 03bd b4ed a9bd 79e2 113c
000002c0: ee11 9e3d b7fa b9bd 1e5e ac3d b370 d83c
000002d0: a6e6 d239 5e41 a3bd 4a34 b03c b50e 63bd
000002e0: a97c 503d 85af fc3c 5eb5 143a f437 a13d
000002f0: 2162 e33d 92e8 8bbc 91b2 183d e663 11ba
00000300: 79cc d03c fe75 a9bd cb11 f23d 7db5 16bd
00000310: c531 ccbc 68b1 da3d 245c fd3c 3b08 42bd
00000320: 4efe 223d 1540 7e3c d2c4 86bc bcca 813d
00000330: 3341 59bd f7b7 333d a6f2 99bd 1a55 98b9
00000340: c6c5 b03d 2698 a53d 676b bdbc 21b0 a7bd
00000350: 59ef 1ebd 9a29 b43d dd6f 9dbd afe2 2fbd
00000360: 8906 dabd 80f3 093d 2f31 a6bc f01d e7bd
00000370: 860e be3d b003 a0bd 8714 84bc 410c 2dbd
00000380: ea8f 953c 2cc3 0abb cd05 a73d 365f f6bd
00000390: afa6 4ebd 2fed bebd 8e76 60bd a482 2a3d
000003a0: f3b9 b7bd ec57 21be 025c d9bd 7e19 04be
000003b0: 1e04 87bd bdc5 94bb e97c 063d 6173 d1bd
000003c0: 9510 4d3d 389c 23bd 03b0 6f3d 5a5c a33d
000003d0: 7a1e 0b3e c9e2 c8bd 7d90 8a3d 598d 85bd
000003e0: 1cbc 92bd e0c7 583d 1df1 36bd c03c d8bd
000003f0: e2d0 c3bd a995 49bd e370 a1bd 0e5a 88bc
-0.06797967 0.09415801 -0.015779033 0.07774743 0.08309766 -0.064688 0.06459492 0.02165706
-0.078860454 0.0078016496 -0.029324368 -0.07771679 0.088426575 0.050333135 0.009125391 -0.098645754
0.034809817 0.07651616 0.028297305 0.0054676477 -0.060730457 -0.04191437 0.11006663 0.03491967
-0.02184409 -0.025412094 0.09594219 -0.023889577 -0.09391605 -0.040024772 0.09376473 0.037806742
0.0043875054 0.09194118 -0.07521431 -0.07706136 0.002579155 -0.010487762 -0.032035768 -0.090013124
-0.0035023107 0.03152848 -0.04382541 -0.047200374 -0.031435583 -0.061896987 -0.027881276 0.113788374
0.07536875 -0.031096995 -0.085471906 0.10389223 -0.06112933 0.07654084 0.007967677 -0.036233857
0.07052676 0.069952734 0.084093414 0.023063656 -0.0055530616 0.08652964 -0.08585593 0.009161732
0.047556825 -0.058327656 0.041402243 0.100212015 0.07685407 0.013650327 -0.06559722 -0.020678893
-0.018004766 -0.06980694 0.061239697 0.04983882 0.052020986 -0.023672987 0.09961844 0.037916552
0.00818902 0.056255452 -0.11530165 -0.025131894 -0.036158662 0.09357128 0.02510678 -0.04907321
-0.05551341 0.087528385 -0.030577566 0.09535163 -0.09230685 0.0022148252 -0.04008627 0.051623747
-0.056774594 0.03741801 0.07643891 0.0003817748 -0.09299799 -0.042179752 -0.026086155 0.054822564
-0.055033967 0.019680712 -0.065832846 0.058684003 0.07106295 0.075465105 0.109252244 0.0061271316
-0.05330101 0.07487167 -0.044705637 -0.054635227 0.11084195 -0.119244 0.015383615 -0.10219173
0.11440667 0.123634584 -0.1255353 0.06232805 -0.055526078 0.0767444 -0.026633278 0.07936311
0.044394124 -0.085763335 0.052394718 0.005930554 -0.0542137 -0.034504395 0.09259202 0.06438513
-0.07702805 0.076806575 0.07240054 -0.0073169544 -0.02762294 -0.04423456 -0.050152086 0.04425962
-0.08930292 0.0014179908 0.017925076 -0.112937704 -0.05025537 0.043963853 0.06666358 0.02096418
-0.023192812 -0.07199471 -0.028193345 0.124355875 0.051323857 -0.087550655 0.031122323 0.09241702
0.006710068 -0.04307252 -0.02147097 0.052250095 0.016023787 -0.09610382 -0.02138197 0.09777947
0.057208586 -0.09553255 0.025144925 -0.077920735 0.025336683 -0.032051805 -0.082972914 0.008904093
0.077182636 -0.09081023 0.08416389 0.026420927 0.00040226168 -0.07971452 0.021509308 -0.055433948
0.050900135 0.030845413 0.0005672778 0.07872 0.11102701 -0.017078672 0.03727967 -0.0005546197
0.025488125 -0.08274458 0.118198 -0.036794174 -0.024926076 0.10678369 0.030927725 -0.04737113
0.039793305 0.015518208 -0.016451273 0.06337497 -0.053040694 0.043876614 -0.07516985 -0.00029055105
0.08631472 0.08085661 -0.023122502 -0.08187891 -0.03880248 0.08796997 -0.07687352 -0.04294079
-0.10645778 0.033679485 -0.020287124 -0.11285007 0.09280114 -0.07813203 -0.01612307 -0.042248014
0.0182571 -0.002117346 0.08155403 -0.12029879 -0.05045193 -0.09322583 -0.054800563 0.041628495
-0.08971014 -0.15756196 -0.10613252 -0.1290035 -0.06592582 -0.004540174 0.032833967 -0.10227085
0.050064642 -0.039943904 0.058517467 0.07976599 0.13585845 -0.09808881 0.0676584 -0.065211006
-0.07164785 0.05292499 -0.044663537 -0.10558462 -0.095613256 -0.049214993 -0.078828596 -0.016644504

conv2.bias f4 [10]
00000000: 6b45 b9bc 6e45 233c 6366 ac3d f525 233d
00000010: 863d d03c f55c 6d3d 3a0e cc3b 2565 983b
00000020: cd23 c73d d897 763d
-0.022616109 0.009965284 0.08417966 0.03983112 0.025419962 0.05794998 0.006227282 0.0046507292
0.09723625 0.060203403

conv3.weight f4 [10, 10, 3, 3]
00000000: ef24 e8bc 2d6d b13d 41b1 b83d 8846 5b3d
00000010: 062d 1d3b 3fca f53c 387c 8cbd 8207 abbd
00000020: 9d2f ddbd 1c87 ab3b 1bb6 0f3d 8909 86bb
00000030: 74ee 4e3c f198 933d 4dda 8b3d 3b84 663c
00000040: 8bf8 813d cf16 d43d c5cc 9f3b 2c64 d03d
00000050: 47c1 d63c 5b7b 15bc 4727 c1bd 7d02 bb3d
00000060: 76b0 763c 6690 38bd d327 2dbc 3eba 143d
00000070: 2e1b 5c3b 47cb 9bbd 0a28 0dbd 2f4e a9bd
00000080: 759c d63d 8832 be3d 8847 423d e7cf 08bd
00000090: ed0e 253c db0a 3e3c fd8a 41bd c65c 713c
000000a0: 37ac 95bd c7f1 5c3d 8070 5c3c fa4a 79bd
000000b0: 98f2 76bd 9f2f 8a3d 9d06 89bd 65d7 04bc
000000c0: 63e4 fbbc d332 a7bc b8c5 9cbd bf41 a03b
000000d0: 8a6e d5bc f135 403d 487c 4bbd 72cf ae3d
000000e0: c3e2 14bd 4077 94bc 5f13 dabd 4e26 8b3c
000000f0: 9be7 13bd 596d 1dbd d89c da3d fd25 b1bd
00000100: 7e2a b03d 39f0 b8bd 43f6 afbc 7649 93ba
00000110: be0f bbbd 1d9b ad3d 316b d23d 89ce 74bb
00000120: 5e01 c13d c681 213c 076c 3f3d c8fd c1bb
00000130: 9fd4 c83d 0f1a ae3d a351 923c 1ffd 63bd
00000140: 3fc2 30bd 00d2 c03c 38b4 1dbd 3ae4 85bc
00000150: 6831 a23d ef92 953d 0f86 8a3d f77e afbd
00000160: d217 d5bd a624 99b9 8919 52bd dc10 043e
00000170: 345c 37bc c4e8 4f3d 57e2 bebd 5bd8 ed3d
00000180: 1ed9 33bd 5e1a 51bd 2eea a4bd 4c0a 0f3e
00000190: 80cb 78bd a6b1 c6bd 005b a0bd 6ac9 973d
000001a0: 5572 a2bb 18e9 a1bd 9f7d 09bd c20b 51bd
000001b0: 0fa2 ae3d 0c11 e73c c80a 193c 8f7b 30bd
000001c0: f6ee 943c fa64 9cbd ebfc 6dbd 0075 ef3b
000001d0: 1368 3a3d f856 02bd 4277 823d 5014 8ebd
000001e0: dcfa 003c 211f f83c ab37 e33d c3e7 1fbc
000001f0: 836e 4ebd 390e 81bd fad7 893d 3801 f9bd
00000200: 82d2 b2bd a446 bf3c ce8d 6a3d b987 c8bc
00000210: c3e5 033c dea8 c23d 1e17 bb3d 2a66 27bc
00000220: 3538 56bd 2abd ecbc cb58 fc3d d724 1cbd
00000230: 6212 9e3d a90f 9e3d 74c4 9abd 6386 ebba
00000240: 3dfa 993b 08b1 cb3d cc13 ab3d ddd0 89bd
00000250: 71a7 86bb f021 32bd 9d52 163d 189a debb
00000260: 74a4 bebd c421 0c3d 2f52 e23d b6c3 e43d
00000270: dd74 bfbd f587 a0bc 3f47 c23d dbe0 2e3c
00000280: ec3b 9cbc cf32 67bc b32f 9bbd ccbe e8bc
00000290: 9cf0 f6bc 0558 d3bb 3d72 ad3d 19c3 c13d
000002a0: 6cb1 a33d 114a 773d 2c16 9c3c 52a1 c23d
000002b0: 327c 953c 065e d2bc 7245 f2bc c36e 923d
000002c0: 3d0c 7e3d e364 68bc 5e7f 903d 1986 923d
000002d0: 827a 1a3c 9ff8 f4bc 2fb6 763d a159 f1bd
000002e0: 9fdd c73d fc20 f73d c1da 7f3d 095a c5bd
000002f0: a6b0 57bd 6915 f13d 1ba4 1e3d 0d13 613d
00000300: 720d ac3c 3cd9 c93d e1c6 56bc 08d9 53bc
00000310: 008c da3d d900 fabc 0ec9 98bd 4fa4 b03c
00000320: f8d1 8abd bdff a53d 1fe9 be3d b24d a4bd
00000330: e569 28bd a766 b1bd cca8 0c3d d88d b43d
00000340: d17a 823d 5d57 ae3d 6220 b53d 32e4 30bb
00000350: 330e 623d 04a1 78bc 8a0b aebd 0ec5 b3bd
00000360: 88b6 a83d 9752 69bd 9758 f73c 023b 6bbd
00000370: cbe1 15bd 417f 3f3d 2ebb 953c 533a 043d
00000380: 5aa0 cebc ee64 7f3b b862 9a3d db63 9dbb
00000390: dab9 48bd ddf4 d43d 9290 cabc 7790 8cbd
000003a0: e022 91bd c177 84bd 7f8a ac3d db09 2e3d
000003b0: dc22 0c3d b3d7 8abd f395 ad3d 9cc3 b73c
000003c0: 5cea f9ba bf6a 883c d8fc c33d ed92 56bd
000003d0: ba15 923d d63b 10bd efa5 b5bd 0192 d9bd
000003e0: 5aea cd3d 678c e5bc d00a e2bc 8bf1 8bbd
000003f0: 986a f23c 7b72 b73d b253 83bd 7f9f b63d
-0.028337924 0.08663402 0.090181835 0.05353406 0.0023983135 0.030003665 -0.0685963 -0.083510414
-0.10800097 0.005234612 0.03508578 -0.004090492 0.012630094 0.07206906 0.06828747 0.014069612
0.06346234 0.10355913 0.0048767054 0.10175356 0.026215209 -0.0091236485 -0.0943132 0.09131334
0.01505672 -0.045059584 -0.010568577 0.036310427 0.0033585536 -0.076071315 -0.034462012 -0.082668655
0.104790606 0.09286982 0.0474315 -0.033401396 0.010074359 0.011599268 -0.04725169 0.014731592
-0.07308238 0.053941514 0.013454556 -0.06086252 -0.06028995 0.06747364 -0.066907145 -0.008107995
-0.030748552 -0.020409977 -0.07654899 0.00489065 -0.026053686 0.046926443 -0.04967907 0.08535661
-0.03634907 -0.01812327 -0.10648226 0.016986039 -0.036109548 -0.03843436 0.10674447 -0.08649824
0.08601855 -0.09030194 -0.021479731 -0.0011237103 -0.09133862 0.08476851 0.102743514 -0.003735455
0.09424089 0.009857601 0.046733882 -0.0059201457 0.09806179 0.08501064 0.017861193 -0.055661317
-0.043153998 0.023537636 -0.038501948 -0.016344178 0.0791958 0.07303416 0.06763851 -0.085691385
-0.10404934 -0.0002920974 -0.051293883 0.12897056 -0.0111914165 0.050759092 -0.09320515 0.11613532
-0.04390823 -0.051050536 -0.08052479 0.13968772 -0.060740948 -0.097018525 -0.07829857 0.074114636
-0.004957477 -0.07905787 -0.033567067 -0.051036604 0.08527004 0.02820637 0.009340949 -0.043086585
0.018180352 -0.07636447 -0.05810253 0.0073076487 0.04550941 -0.03182122 0.06370403 -0.06937468
0.00787231 0.03028828 0.11094602 -0.009759846 -0.05039836 -0.06301541 0.067306474 -0.121584356
-0.087315574 0.023349114 0.05726414 -0.02447878 0.008050385 0.09504865 0.09135269 -0.010217229
-0.052299697 -0.028898794 0.123216234 -0.03812107 0.0771835 0.07717831 -0.07557002 -0.0017969128
0.00469902 0.099458754 0.08353385 -0.06729291 -0.004109316 -0.043489397 0.03669988 -0.0067932718
-0.09308711 0.03421189 0.110508315 0.111701414 -0.09348462 -0.01959608 0.09486245 0.010673727
-0.019071542 -0.014111235 -0.07577457 -0.028411292 -0.030144028 -0.0064497017 0.08469055 0.0946104
0.07992825 0.06037337 0.019053541 0.09503426 0.018247698 -0.0256796 -0.02957413 0.07150032
0.06202339 -0.0141842095 0.07055543 0.07154483 0.009428622 -0.029903708 0.060232338 -0.117846735
0.09759068 0.12066838 0.06246448 -0.096363135 -0.0526587 0.11771662 0.038730722 0.05494981
0.021002505 0.09855887 -0.01310894 -0.012930162 0.10671234 -0.030517982 -0.07460223 0.021562723
-0.067783296 0.08105419 0.09321808 -0.08022632 -0.041116614 -0.086621575 0.034340665 0.08816117
0.063710816 0.08512757 0.08844067 -0.0026991484 0.055189323 -0.015175108 -0.08498295 -0.087778196
0.0823794 -0.05696353 0.03019361 -0.05742932 -0.036592286 0.04675222 0.01827773 0.032282185
-0.025222946 0.003897007 0.0753836 -0.0048031635 -0.049005367 0.103982665 -0.02472714 -0.06863492
-0.0708673 -0.06468154 0.084248535 0.042489868 0.034212932 -0.067794226 0.08475866 0.022432141
-0.0019067037 0.016652463 0.095697105 -0.052386213 0.0713305 -0.035213314 -0.0886954 -0.10623551
0.10054465 -0.02802105 -0.027593046 -0.0683318 0.029591843 0.08957382 -0.06412448 0.0891714

conv3.bias f4 [10]
00000000: db2d 1f3d 7c58 94bd 20d3 edbc 87c7 d23d
00000010: 3594 bfbb 4196 c4bd dd6d 493c d20f 21bc
00000020: 8fa2 fdbc b1e3 9cbd
0.03886209 -0.072434396 -0.029031336 0.10291963 -0.005846525 -0.09598971 0.01229426 -0.009830432
-0.030961303 -0.07660616

conv4.weight f4 [10, 10, 3, 3]
00000000: a0a1 54bd d76b 6e3d b40a 64bc cbd5 64bd
00000010: 8f6f a6bd 16f5 24bc b96e 9f3c e372 8a3d
00000020: 3bb6 c13c 6578 463d 02f8 a43c c0d4 50bd
00000030: 0192 62bd 6745 bd3d b9c1 bfbd 0e37 b6bd
00000040: cb43 9e3d 97ef 85bc 135a 50bd a17c 2b3d
00000050: c3d7 f1bc b00d 5cbd b6d6 bfbc 7264 1dbd
00000060: 4c9a 523d 9755 8bbd e8ec 9f3d 8fac 1ebd
00000070: eb75 a93d 6d97 71bd a6a3 0bbd dbce 73bd
00000080: 2036 073d 59bc c03c b04e 0639 891d f43d
00000090: bad5 a43b 3257 953d 8157 323c 3be9 babd
000000a0: ec30 d43d 566c e73d 2117 d13d 9ea5 3bbc
000000b0: ae36 d4bd ec95 02bc 75c9 d13d 6583 ddbd
000000c0: bc65 79bd f658 98bd 8980 8cbd d993 a73d
000000d0: ae09 42bd 1478 aabd 62d5 873d f560 f6bd
000000e0: c81a bc3d a715 9a3d 7698 9b3c 094d abbc
000000f0: 6642 7bbd a39d 823d b0c1 be3d 5790 823d
00000100: 1fa9 efbb f803 95bd 4638 e83d 8c1b a7bd
00000110: efdd 6ebc 9326 84bd a749 973d ecbb d0bc
00000120: b92e b13d 0bd9 7a3d 395d 0bbc 41a1 e13d
00000130: 29d4 43bd 9257 8ebd f42a 6cbd e543 66bd
00000140: 2326 193d e13a 7b3d 8dbd 7a3d 548f 11bd
00000150: 2c5f dc3c 276d 90bd 2ba2 103d 6703 9c3d
00000160: c4c2 f03c 7bdc da3d 0cd1 823d 5ac8 cebd
00000170: 7136 a6bd ee8e ec3b 515e ba3c 6e21 8fbd
00000180: 7387 a0bd db62 93bc fa71 42bc 9e7d bfbd
00000190: dcf7 633d d55a 1f3d 0cad f13c 8629 6c3d
000001a0: e02e a8bd 935d c7bd cf4a 9b3d 7483 c73d
000001b0: 8ef7 df3c 7740 f83d 706b b03d 49d6 313c
000001c0: cee1 ab3d ae58 80bc a818 9c3d c613 763d
000001d0: ade8 38bd eadd 81bd 43bb c9bc 550f 5a3c
000001e0: 145d 6a3d c2e3 78bd 8670 a7bc ea21 dbbd
000001f0: 7eea 22bc ba4f b1bd a561 d0bd 8f4c b73d
00000200: a192 373d 584a cdbc fc80 8abd 0ea0 2c3d
00000210: 0712 0abd d057 2e3c 0452 47bd de3d bf3d
00000220: bdd9 393d cde4 5dbd 4d1a 963d 1a8b 1bbd
00000230: 76f1 b1bc 0294 943c 099e 5cbd 81fd 5c3d
00000240: 5deb 333d d184 063d a74a 0b3c aa1c 7fbd
00000250: ec4e c2bc 09fe 37bd 2cd3 943c 0a1b b0bd
00000260: 8341 a03c 3d3e 27bd d72a a13d 97b1 6bbd
00000270: 6e7d 2a3d 7db3 703c 4c0c b2bd c82e cdba
00000280: 1afd 2d3c 91b4 d9bd eca9 b43d 8308 e6bd
00000290: 118a 4ebb f38a 8b3d 27f6 d7bd 51b8 e73c
000002a0: b4cf 4ebc 1286 393d 22a0 55bd b967 133d
000002b0: a108 c83d 8a86 db3d 2d4b 153e ecb4 4dbd
000002c0: 9212 98bb b0a9 9c3d b6c8 5b3d 9be6 0c3c
000002d0: 1111 b9bd f1b3 973d 0940 6d3d ea8f fabc
000002e0: de60 283d 6d1c 80bb 336c fc3d 15a8 dbbc
000002f0: 5fea e6bb 9055 9cbd 659b 63bd c896 b33d
00000300: 9d02 01bd fcf6 733d 8686 4c3d 965f 433d
00000310: 7294 103d 1c6a 19bd 24c6 a3bd 17bb 643d
00000320: 3eca bfbc b589 8e3d be2e 173d df84 b0bc
00000330: ce68 6e3d 8ddf 93bd 8a32 743b c6ce 0ebd
00000340: 63a6 8e3c bbf7 183d 2013 c0bd 1770 d0bd
00000350: 8c06 b0bd 618d ce3c e833 2b3c 6e13 9ebd
00000360: 671f 0f3d 6b0b 013c 6358 7b3d f518 9dbd
00000370: d7fc aabd 66b1 8fbc f0b0 9dbd bba1 52bd
00000380: 5947 76bb fcff adbd 9309 53bd 28a5 253c
00000390: 1b62 ddbd 12e0 5e3c 0bcd a7bd 32b7 d4bd
000003a0: 1db1 09bd bfb2 263d d709 943c cc56 223b
000003b0: 423e b8bd 3322 38bd ea17 a0bd 57ae a13c
000003c0: e1c9 033e d1c4 d23d 34ac c5bd c31c 8cbd
000003d0: c916 923d 20d7 c73c 8a3e bbbd cf51 3f3c
000003e0: 6e43 38bb eb52 8e3d 382c 75bd 468b 8dbd
000003f0: 3c49 9cbc 1e98 b53d 8cd3 d23d 7440 2abd
-0.05191195 0.058208313 -0.013918567 -0.05586795 -0.08126747 -0.010068199 0.019461976 0.06760194
0.023646465 0.04845466 0.02013779 -0.050984144 -0.05531502 0.09241753 -0.093631215 -0.088972196
0.07727774 -0.016349597 -0.05086715 0.041866902 -0.029521829 -0.05372399 -0.023417812 -0.03842587
0.05141668 -0.06803434 0.07808858 -0.038738783 0.08274444 -0.0589823 -0.034091614 -0.059523445
0.033010602 0.023527311 0.00012808549 0.11919696 0.005030361 0.07292022 0.01088512 -0.091265164
0.103608936 0.1129996 0.102094896 -0.01145306 -0.10361992 -0.0079703145 0.10243503 -0.10816077
-0.060888037 -0.07438843 -0.06860454 0.081824966 -0.047372513 -0.08323684 0.066324964 -0.12030212
0.091847956 0.07523661 0.018993597 -0.020910757 -0.06134262 0.06377723 0.09314287 0.06375187
-0.007313862 -0.072761476 0.11338858 -0.08159551 -0.01457928 -0.0645267 0.07387095 -0.025480233
0.0865149 0.061242145 -0.008506113 0.11017085 -0.047809754 -0.069502965 -0.05765815 -0.056217093
0.037389886 0.06133545 0.061215926 -0.03553708 0.02690085 -0.07052069 0.035310905 0.076178364
0.029389746 0.106865846 0.06387529 -0.10096808 -0.081158526 0.007219187 0.022750052 -0.06988798
-0.07838335 -0.017991474 -0.011867994 -0.093501315 0.0556563 0.038904984 0.02950146 0.057656787
-0.08212066 -0.09734645 0.07582628 0.097418696 0.027339723 0.12121671 0.08614242 0.010854312
0.08392678 -0.015667286 0.0762189 0.06007745 -0.045143772 -0.06341155 -0.024625426 0.0133093195
0.057217672 -0.06076408 -0.020439398 -0.10699828 -0.009943603 -0.08657785 -0.10174874 0.08950149
0.04481757 -0.025059864 -0.06762883 0.042144828 -0.0337086 0.010641053 -0.0486622 0.09337972
0.045373667 -0.05417328 0.07329235 -0.037974454 -0.021721583 0.018136982 -0.05386165 0.053952698
0.04392563 0.032841507 0.008501685 -0.062283196 -0.023719274 -0.04492 0.0181671 -0.08598907
0.019562488 -0.04083084 0.07869499 -0.05754241 0.041623525 0.014691231 -0.08693752 -0.0015654201
0.010619426 -0.106301434 0.088214725 -0.11232092 -0.00315154 0.06813612 -0.10544997 0.028286131
-0.0126227625 0.045293875 -0.052154668 0.03598759 0.09767271 0.10719021 0.14579459 -0.05022137
-0.0046408856 0.07649553 0.05365821 0.0085999025 -0.09036458 0.07407368 0.057922397 -0.030586202
0.041108005 -0.0039096386 0.12325325 -0.026813546 -0.007046982 -0.07633507 -0.055568118 0.087689936
-0.031496633 0.059561715 0.04993298 0.04769858 0.03529782 -0.03745471 -0.07996777 0.055842485
-0.023411866 0.06959859 0.03690981 -0.021547733 0.05820542 -0.07220373 0.003726157 -0.034865163
0.017413324 0.03734563 -0.09378648 -0.101776294 -0.08594999 0.0252139 0.010449387 -0.0771855
0.034942057 0.007876257 0.06136359 -0.07670776 -0.083490066 -0.017540645 -0.07699764 -0.05142377
-0.0037579148 -0.08496091 -0.051522803 0.010110177 -0.10809728 0.013603227 -0.08193406 -0.10386504
-0.033616174 0.04069781 0.018071098 0.0024770973 -0.0899625 -0.04495449 -0.07817061 0.019736452
0.1286998 0.10291446 -0.09651986 -0.06841423 0.07133252 0.024394572 -0.09142788 0.0116772195
-0.0028116363 0.06949409 -0.059856623 -0.0691133 -0.01907789 0.08866905 0.102942556 -0.041565374

conv4.bias f4 [10]
00000000: 1cfb a83d 6ea6 ce3d c489 723c 5631 783d
00000010: f43a 9ebd d123 cf3d 2647 8e3b 871c de3c
00000020: 7d0c 62bd cc54 ccbd
0.0825102 0.10090338 0.014803354 0.060593925 -0.07726088 0.10114253 0.0043419776 0.027113212
-0.05518769 -0.09977111

norm.weight f4 [10]
00000000: 3a49 8c3f 256e 8b3f 6996 853f 53dd 883f
00000010: 5519 8c3f 78c5 8d3f cb22 8c3f 21d3 8b3f
00000020: a3e0 8a3f 45da 8a3f
1.0959847 1.0892988 1.0436527 1.0692543 1.0945231 1.1075888 1.0948118 1.0923806
1.0849804 1.084786

norm.bias f4 [10]
00000000: fcaa 983c 5995 803c 2698 a8bb 074a a33c
00000010: c8bf 313c 9203 1a3d 104f fe3b 99a7 0c3d
00000020: 0e5d 8f3c 2b9b ff3b
0.01863622 0.015696215 -0.0051450906 0.01993276 0.010848947 0.03760106 0.00776089 0.03433952
0.017500427 0.00780048

norm.running_mean f4 [10]
00000000: 013e f73d fc8f 453d d4d0 c3bc 9a8c 023e
00000010: e1a9 77bd 089f d83d 7d41 043d b987 f33c
00000020: 6526 a4bd c704 ccbd
0.12072373 0.048233017 -0.023903288 0.12748948 -0.060464744 0.10577208 0.032289017 0.029727804
-0.08015136 -0.09961849

norm.running_var f4 [10]
00000000: 55a6 3d39 50ef 7d39 0cd8 3d39 f2e7 2239
00000010: 7058 4c39 f933 8b39 22da 4439 58ad b939
00000020: be06 8139 c776 a439
0.00018086408 0.00024217111 0.00018104928 0.0001553593 0.00019487902 0.0002655087 0.00018773277 0.000354151
0.0002460982 0.00031369014

fc1.weight f4 [50, 810]
00000000: bc67 fc3c 5b08 173c d8a8 aabc 4e99 31bd
00000010: dd8f cfbb 37ab 04bd a138 dabc b929 8cbc
00000020: 7e20 00bd 8fba d53b 3ccb a7bc 20be 4a3c
00000030: a707 1bbd 80c0 d53c f5ee a9bc 817d 8b39
00000040: 44bb 173d 477c 953b 8ac2 efbc e95b 913c
00000050: 88cd 3e3d f669 5d3d 0db7 38bc a11c b7bb
00000060: 3143 013d af35 013d 7cf2 573b c6ed 353c
00000070: 5152 a13c af08 a33c 9478 6a3d 3681 533b
00000080: 391b 133c d3a7 0abd 2a8b 3a3c 49f5 003d
00000090: 1754 d4bb a54e 6c3c 9ed0 2a3d 5ea0 043d
000000a0: 4d92 c6bc c1a6 373d 1aed 623d b36d 013d
000000b0: a978 3b3d 5f4a 263d 63e9 513c a3f5 ba3c
000000c0: 31d7 113d e2fe d3bc d252 783c 2d8e 403d
000000d0: daf9 123d 9148 623d 3257 183c e086 343d
000000e0: e056 4a3d 95c2 c03c 1bb1 623c d4e3 253c
000000f0: 8803 c5ba 8366 9bbc 4533 45bc ae21 13bd
00000100: 3860 06bd bcb2 f6bc 78d4 e2bc 7e0b f7bb
00000110: e258 14bc 5f1f 08bd 45a8 b3bc 43e2 0f3d
00000120: 2773 cfbc a95c e4bc bf7a 10bd 267c afbc
00000130: b389 04bd e060 8abc fc5d 573c b5bf a03b
00000140: 11c7 a0bc 1df9 633c 4236 7cbd e014 3a3c
00000150: 28d5 78bc 3867 27bc 7bd2 343a fdda bf3c
00000160: 3e7e 10bd fd4e 4abc 8e87 71bc bc6b 48bb
00000170: ab10 303c 3ce4 19bd b1c8 ebbb 6090 55bc
00000180: cb93 3bbc fb10 b23c e91f b1bb dba6 85bc
00000190: c5b9 bdbc 65bc c33c 6b32 2ebd a061 d33c
000001a0: 56dd 993b d8a8 2f3d f22b 733c 46d8 f43a
000001b0: 8723 ebbb f8b6 db3c b476 f2bb 7700 433d
000001c0: 3559 9c3c bb04 393d bcfd 003c 52c8 003d
000001d0: e4a5 5ebc fff5 c1bc 5cee 08bb 905f 103d
000001e0: 55cd c53d 6794 debc e842 80bc 87c4 8c3c
000001f0: 1177 45bc 912e b0bb 5e97 843b f9df 2c3c
00000200: 3d9f 2d3d 0058 f83c 135e 063d 5fec 103c
00000210: 5d73 793c 6493 833c 52a4 643c 8aef 693c
00000220: f761 1d3d 786c cc3c f361 153c c8cf 96bc
00000230: d7f8 a53c e4bc 1c3d a15e a43d 1f73 243c
00000240: c06a d6bc 89e6 99bc c41d 753d 7163 53bc
00000250: 9ac1 49bc a380 e83c db2a 8b3c 5a9b 743b
00000260: 43ca 133d 18c3 b5bc 047b e73a 8bd7 28bc
00000270: f9c4 183c f2a4 72bb 7813 bdbc 95dd aebc
00000280: 9adf b0bc 7176 633c f6dd 37bc deda f23c
00000290: eaba ecbc ecfb 90b9 04da 67bd 2b26 24bd
000002a0: e178 d8bc 3397 02bd 616b c03c 3e99 18bd
000002b0: 6ec7 f6bc 1dca 533c a74c c13c 69f0 c5bc
000002c0: defc 26bb 5d95 d2bb bc26 8ebc ce3e 42bc
000002d0: a23d 403d 8a36 743c 52b0 a83c f7c2 9e3d
000002e0: 7d44 213d 2f00 373b 57db 4abc 06d8 a13b
000002f0: e327 7bbc d8e2 a53c ed62 683b 0d9e 5e3d
00000300: 0609 f7bb 49fa cc3c 894e 96bc 6dbc 04bc
00000310: 33fb 253d 4276 073c d68a 8bbc 54ab b3bc
00000320: 3e23 3f3d 3fc9 90bb f680 0d3d e637 02bd
00000330: 6d38 7c3c b112 063d ff5f 2d3d 0ab0 ca3c
00000340: fc02 a8bc 4c8c a7bb b1bf b63a 3b47 363c
00000350: eb21 16bd b928 983c a5ce f73c 31b3 d23c
00000360: fa3f be3c 27d5 bf3c 0d81 abbc b248 423c
00000370: a70d 443c f292 c73c fc25 6c3d 1c69 2c3c
00000380: cd65 66bc e2cc d53b 0b9c 18bd f383 30bc
00000390: 537d e73b 3a85 2fbd 0af3 233c 728e 573c
000003a0: 3d00 d73c 7593 69bc da0f 74bc 5b78 133d
000003b0: 658c 91bb a67b 943c f975 e33a dbb5 883a
000003c0: 16e8 413c dc7e adbb 1393 cdbc fcda 613c
000003d0: 6ff1 19bd d73c 5d3c 5da9 42bc bb95 20bb
000003e0: 14b6 313d 99c7 483c ede5 ad3c 0326 123c
000003f0: fcc9 7eb9 30f0 233d 762a 693c 3487 0fbd
0.030811183 0.009218301 -0.020832464 -0.043359093 -0.0063342885 -0.032389846 -0.02663833 -0.017109739
-0.031280987 0.0065224837 -0.020482652 0.012374431 -0.037849095 0.026092768 -0.020743826 0.00026605654
0.037043825 0.004561934 -0.029267568 0.017744021 0.04658273 0.05405613 -0.011274111 -0.0055881296
0.03155822 0.031545337 0.0032950928 0.011104053 0.019692572 0.019901602 0.0572439 0.003227306
0.008978658 -0.033851456 0.011385718 0.031483922 -0.006479751 0.014423047 0.04170286 0.0323795
-0.024239684 0.044836763 0.0554019 0.031598758 0.045769367 0.04059827 0.012811991 0.022822207
0.035605613 -0.025878374 0.015156465 0.04701059 0.03588281 0.055244986 0.009298133 0.04407394
0.049399257 0.023530284 0.013836171 0.010125119 -0.001503096 -0.01896978 -0.012036149 -0.03592079
-0.032806605 -0.030114524 -0.027689204 -0.007539212 -0.009054394 -0.033233043 -0.021930823 0.03512789
-0.025323464 -0.027876215 -0.03527331 -0.021421503 -0.032357883 -0.016891897 0.013144966 0.0049056658
-0.019626172 0.013914374 -0.06157518 0.011357516 -0.015187539 -0.01021748 0.0006897819 0.023419851
-0.035276644 -0.012347934 -0.014741791 -0.0030581793 0.010746161 -0.037571177 -0.007195555 -0.01303491
-0.011448811 0.021736613 -0.0054054153 -0.016314914 -0.02315987 0.023893544 -0.04252855 0.025803387
0.0046955748 0.04288563 0.01484202 0.0018680177 -0.007175866 0.026820645 -0.0073994044 0.047607865
0.019085506 0.045170527 0.007872995 0.03144104 -0.013589356 -0.02367687 -0.0020894026 0.035247386
0.096583046 -0.027170373 -0.015656903 0.017183555 -0.012052313 -0.005376645 0.0040463647 0.010551446
0.04238819 0.0303154 0.03280456 0.008845418 0.015225259 0.016061492 0.013955193 0.014278302
0.038423505 0.024954066 0.009117591 -0.018409625 0.020260258 0.038266078 0.080258615 0.010037213
-0.02617395 -0.018786686 0.05984284 -0.012902127 -0.012314225 0.028381651 0.016988209 0.0037324042
0.036081564 -0.022187755 0.0017660563 -0.010305296 0.009324306 -0.0037024585 -0.023080572 -0.021345893
-0.021590997 0.013883219 -0.011222353 0.02964538 -0.028897721 -0.00027653517 -0.0566044 -0.040075462
-0.026424827 -0.031882476 0.023488702 -0.03725552 -0.030124392 0.0129266055 0.023596121 -0.024162488
-0.002548031 -0.006426497 -0.017352454 -0.011855794 0.046933778 0.014905581 0.020591889 0.0775203
0.039371956 0.0027923693 -0.012381396 0.004939082 -0.015329334 0.02024977 0.0035459355 0.054349948
-0.0075389175 0.025021689 -0.018347995 -0.008101565 0.040522765 0.008267941 -0.017033976 -0.021932282
0.04666447 -0.0044185217 0.034546815 -0.03179159 0.015394312 0.03273267 0.042327877 0.024742145
-0.020509236 -0.0051131602 0.0013942627 0.011125381 -0.03665344 0.018574106 0.030249903 0.02572021
0.023223866 0.023417069 -0.02093556 0.011858152 0.011966146 0.024362061 0.057653412 0.010523107
-0.014062357 0.006524668 -0.03725819 -0.010773647 0.0070645004 -0.042851664 0.0100066755 0.01315652
0.02624523 -0.014256348 -0.014896357 0.03600345 -0.004441785 0.018125366 0.0017353884 0.0010430174
0.011835119 -0.005294664 -0.025094545 0.01378512 -0.037583765 0.013503275 -0.0118812 -0.0024503309
0.043386534 0.012254619 0.021227801 0.0089201955 -0.00024298573 0.040023983 0.014231315 -0.03504105

fc1.bias f4 [50]
00000000: 204e b63a 845e 633c 3c9f 0f3d cc7e cabc
00000010: add2 313d c7a4 d8bc e267 923c 93b0 68bc
00000020: ba43 a93c 9920 4f3c bd0c 0abd 0f0a e73c
00000030: bd8c 72bc b634 26bc 7efb 82bc 1d10 2bbd
00000040: 0dd1 1dbc 840d f83b 2f82 9fbc fe87 d8bc
00000050: 14c7 f83c a28d bb3c 7d92 d9bc 9f42 efbc
00000060: cf66 14bc c210 183d 3918 06bd 478f 283c
00000070: 770f d73b 1a50 643c 0b92 25bc 01f5 973c
00000080: 5f12 91bc 4bd1 3fbc ead0 e0ba 2ed0 8ebc
00000090: aeb0 3c3d 053c 09bd 5c87 20bd d116 1abd
000000a0: 76a7 0f3c b1fe c93b 854e 5d3c 16d6 473a
000000b0: 2f9b f5bc 2f58 b13c 34f3 bebc efc3 763c
000000c0: 0656 cabc 9182 8fbc
0.0013908781 0.013877515 0.035063967 -0.024718665 0.043413807 -0.02644576 0.0178718 -0.014202255
0.020662177 0.012642049 -0.033703554 0.028203038 -0.014804062 -0.010144403 -0.015989061 -0.041763414
-0.009632361 0.0075699706 -0.019471256 -0.026432034 0.030368365 0.022894684 -0.026559109 -0.029206572
-0.009057715 0.037125356 -0.032737944 0.010288066 0.006563123 0.013935113 -0.01010562 0.018549444
-0.017708955 -0.011707614 -0.0017152105 -0.017433252 0.046066932 -0.033504505 -0.03919159 -0.037619416
0.008767953 0.006164395 0.01350749 0.0007623149 -0.029981224 0.021648495 -0.023309328 0.015061363
-0.024699222 -0.017518314

fc2.weight f4 [7, 50]
00000000: 95ed 063d 33af 163e cc41 0d3e f532 e0bd
00000010: cfee 9b3d 1a7a c73d 7989 ea3d d275 4d3d
00000020: aa74 1cbe 5caf 0dbe f8d6 e03c c435 20be
00000030: 9f31 daba e7ce 05be ed86 60bd 4993 13be
00000040: 079c 19be 40e5 183e 62b5 833d da70 90bd
00000050: f29c 1bbd 36a6 673d 2297 673d 908d f5bd
00000060: 5f05 473d c7e0 663b 9378 b13b 7f07 93bd
00000070: c1d7 e0bd bc4c 503d e3f5 0ebe 27b4 3cbd
00000080: 303f 64bc feb1 edbd 993d 303e 8dcf be3c
00000090: 9d9b 183e 211b f2bd efc0 d5bd 56fe 033e
000000a0: 0f24 1a3e cbff 42bb a0c6 aabd 2639 bc3c
000000b0: aafe 20be 0c64 a6bd b2cf afbd 3ef2 533d
000000c0: 19ce bbbd 1159 633d 3b3e 55bc b069 aa3d
000000d0: 85f1 38bd 1f5c d53d b2c4 eaba a95d b63d
000000e0: dbdc 03be cb1e fabc c9ef c9bd 618b 233d
000000f0: 6c34 0fbe c0b5 b43d cf34 c3bd 4984 f23c
00000100: 1f6a 0d3e f28f 20be c2bd 18be ca2e 36bd
00000110: 1074 55bd 55c5 9a3c 992e 0abe c650 543d
00000120: 62d5 0ebe 24f9 a2bd 44b1 8b3d c329 763d
00000130: 0e69 cc3c 6c39 a6bd 6d13 33bd 7834 f2bd
00000140: 14bd febd 4c17 4dbd 5839 fb3d 7d34 85bd
00000150: f056 c03d 34e0 1ebd ec10 073e 6a28 df3c
00000160: 50fb c1bd b8b5 64bd 5a74 10be 22bc 6ebb
00000170: 8432 f23d 5586 d93c acaf 84bc 94db 983d
00000180: 4539 3d3c 5a36 08bd 337d e33d 41b0 50bd
00000190: 286c da3d 015a 303d 673a 2a3d d53e cebd
000001a0: e403 e43c 3239 54bc ee61 583c 3f46 aabc
000001b0: 0d35 383e 26e3 03bc 69f2 d33d 576b b73d
000001c0: bdfe f9bd 8556 e4bd 036f 1ebd e785 0bbc
000001d0: 8905 313d e314 63bd 4ce5 19bd 916a 31bd
000001e0: 5fe7 0b3e 9eb5 1bbe 7701 bdbd c911 f73d
000001f0: 211f 1abe 9ebe 0e3e e4e5 adbd bcdd e43c
00000200: c28b e3bd de81 c53d 7bfc 703c ae18 e6bb
00000210: 91e9 81bc fe2d a53d 1407 d13c faf1 fd3c
00000220: d883 0c3e 27f7 9f3d 3e14 f63d 7c02 0bbe
00000230: 3a4d 9a3d 81fa 04be 49bb e3bb 9d2e 35bd
00000240: 3b81 d8bc bc43 673c a6fb 743d 38f3 9abd
00000250: 1205 cfbd 56af 3cbe d2a2 013d e532 34be
00000260: 4154 0dbe dc6b d0bd 5fe2 07be 5000 073d
00000270: 3258 83bd 398e 283b 1c56 e0bc 9148 42bd
00000280: 049c 2dbe 49d2 023e 46ea 84bd 14d7 0dbe
00000290: ee30 f0bd 47fb 903d 4f6b 1ebe 0ccb ed3c
000002a0: 3c47 013e 2a5e bf3d ae95 03bd fb14 9abc
000002b0: 5962 d4bc e2a3 073e df71 1f3e bc74 07bd
000002c0: 5f25 4b3d df6a 4ebd efbc 093e 8393 763c
000002d0: e7e1 9a3d 3dd0 e4bd cf2e b13d 558f 45bd
000002e0: 9cd6 a53d 869b 753c 297f df3d 72d5 c83c
000002f0: 6fdd c6bd c9b0 e73d 8687 dfbd 8515 353e
00000300: 9e80 2bbe ea01 463d b520 1f3c db4b 98bd
00000310: 6b7c 323c b757 16be 846a 053e 1c76 cf3d
00000320: cdac 803d fbbf f63b 5d7d 34be d20e 273e
00000330: 9a2d 22be 1a8e f13c 3916 ccbd 74e5 053e
00000340: d9f2 ea3d 864f 083e 2334 4e3d 4d08 83bc
00000350: 7ac9 5d3d 1759 ecbd cdc6 5b3d 2ce4 923c
00000360: 4536 c13d d4a6 9a3d 7146 b7bd db37 da3c
00000370: 3faf f1bd 52f6 533d b183 093e d5d9 903c
00000380: 02cc ff3c ff09 a03d 4258 e6bd 5802 33be
00000390: 3a77 11be 49a3 123e c3db 99bd 671d 0cbe
000003a0: 753a fb3d ec88 b23d 010a e7bd a9f7 b33c
000003b0: 1ef1 efbd 5a81 a03d 0e49 e83c 39cc 4fbd
000003c0: a6bc 80bd c512 cb3c 025d 3ebe d04d 783d
000003d0: 285b 063e ac86 be3c 9fc6 6ebd 9307 09be
000003e0: 9165 283d f53c 063e b5db 07be dfa2 d4ba
000003f0: feac d7bd 9cc2 5b3d f446 d7bd 20f6 f1bd
0.03294142 0.1471527 0.13794631 -0.10947219 0.076139085 0.09740086 0.11452002 0.05016119
-0.15278879 -0.13836426 0.027446255 -0.1564551 -0.0016646868 -0.13067208 -0.054816175 -0.14411654
-0.15000926 0.14931202 0.064310804 -0.07052775 -0.03799147 0.056554995 0.056540616 -0.119898915
0.048589107 0.0035229193 0.005415985 -0.07179164 -0.10978652 0.05085443 -0.13960986 -0.046070244
-0.013931081 -0.11606215 0.17210998 0.023292327 0.14903112 -0.11821581 -0.1043719 0.1288999
0.15052818 -0.0029754515 -0.08338666 0.02297647 -0.15722147 -0.08124551 -0.085845366 0.051744692
-0.091701694 0.055504862 -0.013015325 0.083209395 -0.045152206 0.10417961 -0.0017911403 0.08904583
-0.12877218 -0.030532261 -0.098601885 0.039927844 -0.13984841 0.088237286 -0.09531557 0.029604094
0.13810013 -0.15679911 -0.14916137 -0.044478215 -0.05211264 0.018892923 -0.13494338 0.051834844
-0.13948587 -0.07957676 0.0682092 0.06009842 0.024952438 -0.08116421 -0.043719698 -0.11826414
-0.124384075 -0.050071046 0.12266797 -0.06504152 0.09391582 -0.038788036 0.13190049 0.02724095
-0.09471762 -0.055837363 -0.14106885 -0.0036428054 0.11826041 0.026553312 -0.016197048 0.07463756
0.011549299 -0.03325496 0.11107864 -0.05094934 0.106651604 0.043054584 0.041559603 -0.10070578
0.027833886 -0.01295309 0.013206942 -0.02078545 0.17988987 -0.008049762 0.103489704 0.0895602
-0.122067906 -0.11149315 -0.038680088 -0.0085158115 0.04321817 -0.05543984 -0.03757219 -0.04331452
0.1366248 -0.15206 -0.09228795 0.12063939 -0.15050937 0.13939902 -0.08491114 0.027937762
-0.11110641 0.09643911 0.014708634 -0.007021985 -0.015858443 0.08065413 0.02551607 0.030999172
0.1372217 0.078108124 0.1201558 -0.13575166 0.07534261 -0.12986185 -0.0069498164 -0.044233907
-0.02642881 0.01411527 0.059810303 -0.075659215 -0.10108389 -0.1842626 0.03164942 -0.1759754
-0.13801672 -0.101768225 -0.13269947 0.032959282 -0.06413306 0.0025719537 -0.02738481 -0.047432486
-0.16954046 0.1277553 -0.064899966 -0.13851577 -0.117280826 0.07079177 -0.15470622 0.029027484
0.1262483 0.09344132 -0.032125168 -0.018808832 -0.025925802 0.1324611 0.15570782 -0.03307031
0.049596187 -0.05039489 0.13450979 0.015049818 0.07562619 -0.11172531 0.08651506 -0.048232395
0.08097574 0.014990693 0.10912926 0.024515841 -0.09710204 0.11313016 -0.10914521 0.1768399
-0.16748282 0.04834167 0.009712388 -0.07436343 0.010893921 -0.14681898 0.13028914 0.101299495
0.06282959 0.00753021 -0.17625947 0.16314247 -0.15837708 0.029486705 -0.09965176 0.1307581
0.11472101 0.13311586 0.05034269 -0.015995169 0.05414722 -0.1154043 0.053656388 0.017931066
0.09434179 0.07551351 -0.089489825 0.026637962 -0.11801004 0.05174858 0.13429143 0.017681995
0.031225208 0.078144066 -0.112473026 -0.17481363 -0.14205638 0.14320101 -0.07512619 -0.13683091
0.12267009 0.08717522 -0.11281205 0.02196868 -0.11715911 0.07837172 0.028355148 -0.05073187
-0.06285982 0.024789223 -0.18590167 0.060621083 0.13120711 0.023257576 -0.05829489 -0.13381796
0.041112486 0.13109191 -0.13267405 -0.0016222856 -0.105310425 0.05365239 -0.1051158 -0.11814523

fc2.bias f4 [7]
00000000: dc12 173e d6fa 2c3e e572 afbd d9f6 1abd
00000010: 3afd 3abc bbe8 a83c b883 ffbd
0.14753288 0.16892561 -0.08566836 -0.03783307 -0.011412913 0.020618787 -0.12476295

localization.0.weight f4 [8, 1, 7, 7]
00000000: 7276 b5bc d3cb f93d 3f39 e0bd ca99 b23d
00000010: 6330 b13c 3357 febc fc13 193d 1000 a03c
00000020: 7966 b0bd 1127 a73d 99a5 09be 1729 f1bd
00000030: 7644 053e 1804 6b3d 7429 bcbc 5f4b 913d
00000040: 6081 223c 1c6e 3f3d 3eb5 563d da30 043e
00000050: eb08 a8bc 5d68 443d d4f1 e23c feb8 c03d
00000060: d404 78bd 86ef 32bd 009a 413c fe90 2d3d
00000070: 2827 843c e7f9 dfbd 6e23 d93b 04ae 63bd
00000080: b826 f43d d281 c3bd 6ac1 903d 861a e63d
00000090: 1584 9bbd f411 5f3d b057 f03d 85a9 0dbd
000000a0: 36a5 79bc 9ba5 b9bd 0d03 483d a093 103d
000000b0: c4fb a63c a1de 82bb 5f90 19bc 802d 613d
000000c0: 8d4b f6bd 20ca afbd b1d1 a93c f44f 793c
000000d0: 29dc 8d3d 6676 d6bd d7c8 bcbd 345b cfbd
000000e0: 5aeb 093d e2a6 90bd c1cb 3e3d 32f5 9a3d
000000f0: 8b0a 1a3d 6985 fb3d 36d8 09bd e836 eabd
00000100: 0f63 933d d481 723d def6 abbd 71c7 b5ba
00000110: af54 c03d 49ba 7cbc 4fee 063e 9953 073b
00000120: d83b fd3b 025b 38bd ef80 ff3d 24bd eabd
00000130: 856b f63d 3b07 083e d663 be3c 67e6 14bd
00000140: ac04 b6bd 35d0 d73b 5cca 1dbe f36b ebbd
00000150: 471e 7c3d 6a83 883c 2b49 0f3e b24e e8bd
00000160: cc98 13be b8cc a3bc be60 563d 6530 a3bd
00000170: 9f28 bdbc 389f f63a 6420 ffbd c216 12bc
00000180: 8cc2 aa3d 4dc1 f63d e4fe ee3d 3eed 23bd
00000190: 9d82 123e 86f8 503d 1312 1abe 5a18 81bc
000001a0: 75e9 21be 9f4c b93d 49c0 a6bc c82c 9ebd
000001b0: 620b 003e 3073 8f3d de45 a33d 9d8b f3bd
000001c0: da1e 1a3d aa33 843d a6ad 093e 9a56 a4bd
000001d0: ab60 ef3d 2bef 103d 5ae8 f3bd 8502 77bd
000001e0: 400d 073e 8abf 90bd d0cb 133e f926 3fbd
000001f0: 9c5e 1fbb 944b 02be c20d d1bd 733a e4bd
00000200: a649 febd 4e72 05be 09f2 e2bc 5202 d63d
00000210: 0247 583d 0bba e2bd 2b3e 5f3d 6717 bbbc
00000220: baf2 4e3c 7375 f0bd 8520 103e f0c7 0dbe
00000230: 2cfc e03d b138 01bd 08e4 1c3d 010a 0a3e
00000240: 3209 e4bd 1b10 91bd 960d db3d 06a4 a33c
00000250: 9b66 1a3e d656 ddbd 4794 17be 53cd a8bd
00000260: 01a7 db3d 687f 97bd 2dee 62bd 5b8b 0bbe
00000270: c4d1 dd3d 01fe 71bd 0d10 a33d 04df bbbd
00000280: fb82 c13d 23bd 09be 51d3 563d 63d8 aabc
00000290: ba6c ad3d cebb f1bb 7f24 9dbd dfad 06be
000002a0: 02bc 133d d140 d9bd 342d 623d 9df2 973d
000002b0: c285 343d f3d2 153e fee0 ee3c a02c 94bd
000002c0: 9e8f bb3d 7fb2 9cbd a9e4 023d bfe0 df3d
000002d0: 3623 f33d e4b3 9f3d 6651 01be b0eb 81bd
000002e0: 8dde d9bd 8b52 eb3d 652b 4d3d e270 0f3e
000002f0: 5833 803d e745 cabd 1edf f8bd c62b 033d
00000300: 1e27 0cbe 184b 09be ceeb 003d 179f b2bd
00000310: 630c fcbc 0c8f 923d 0302 06be c8da 16be
00000320: 5bfa cb3d fff2 cebc cf75 15bd c784 f6bd
00000330: 15e3 913d 7f05 ef3d be49 f4bc fbb6 fabd
00000340: 75d0 d53d 774e 083d e8a6 77bc 80b1 13be
00000350: 159a c8bc b343 043d 3881 86bd fa9f 9c3d
00000360: 0f30 b0bd c7b4 393d 1a0c f7bb 76c5 2bbd
00000370: b155 14be 1442 423d 8be4 e9bc 3281 69bd
00000380: 86cc 8a3d aaac 41bd be91 c53b 9d5f 12be
00000390: 378c 9bbd 8b91 6e3d 8c7a 01be 30e9 83bd
000003a0: 2fbe fabd 0f90 19be 99bd 20bd 1b4e 85bd
000003b0: d589 bebd 6527 05be 31f7 00be f653 8fbc
000003c0: 593a 3abc 4f2b eebc 09e0 883d 6b4a b6bd
000003d0: 6b87 ddbd 114b 023e 5f37 cfbc 6139 573d
000003e0: f5f7 a33d c001 903d 3c45 c53c 6437 ddbd
000003f0: 8300 c43d 606c 10bd a691 4fbd 8fed c7bd
-0.022151206 0.121970795 -0.10948419 0.08720739 0.021629518 -0.03104744 0.037372574 0.01953128
-0.08613295 0.08161748 -0.13442077 -0.117754154 0.13014397 0.05737695 -0.022968985 0.07094454
0.009918541 0.046735868 0.05241894 0.1290926 -0.020512065 0.04795109 0.027703203 0.094102845
-0.06055148 -0.04368546 0.011816502 0.042374603 0.016131952 -0.10936337 0.006626538 -0.055585876
0.119214475 -0.09546246 0.07068141 0.11235528 -0.07593552 0.05446048 0.11735475 -0.034585495
-0.015237143 -0.0906479 0.048831034 0.035297036 0.020383723 -0.0039938246 -0.0093728 0.054975033
-0.12026129 -0.08583474 0.020729871 0.015216816 0.06926758 -0.104718015 -0.09217995 -0.101248175
0.033671714 -0.0706308 0.046581034 0.075662985 0.03760771 0.12281305 -0.03365346 -0.11436254
0.07196628 0.059205845 -0.083966956 -0.0013868642 0.09391152 -0.015425273 0.13176845 0.0020649193
0.007728081 -0.045008667 0.12475764 -0.11461857 0.120322265 0.13284008 0.023240965 -0.03635254
-0.0888761 0.0065860995 -0.15409225 -0.11495199 0.061552312 0.016664226 0.13992755 -0.11343135
-0.14413756 -0.019995078 0.052338354 -0.07968215 -0.023090659 0.0018815761 -0.1245735 -0.008916559
0.08337888 0.12048588 0.1166971 -0.040021174 0.14307638 0.05101826 -0.15045957 -0.015758682
-0.15811713 0.090478174 -0.02035536 -0.07723385 0.12504342 0.07004392 0.079723105 -0.118918635
0.03762708 0.06455167 0.13445148 -0.080243304 0.1168836 0.03538434 -0.11909552 -0.060305137
0.13188648 -0.07067783 0.14433217 -0.046668027 -0.0024317866 -0.12724143 -0.10207702 -0.11143961
-0.12416391 -0.13031885 -0.027703302 0.10449661 0.052802093 -0.11070641 0.054502647 -0.022838308
0.012631113 -0.11741152 0.14074905 -0.13845801 0.10985598 -0.031548206 0.038303405 0.13480379
-0.11134566 -0.0708315 0.10695951 0.019975673 0.15078203 -0.10807578 -0.14802657 -0.082422875
0.10725213 -0.07397348 -0.055402923 -0.13627379 0.10831025 -0.059080128 0.07962046 -0.09173396
0.09448811 -0.13451056 0.05244762 -0.020855134 0.084680036 -0.0073771244 -0.07672977 -0.13152264
0.03606797 -0.10608066 0.05521889 0.07419322 0.044072874 0.14631252 0.029160019 -0.07235074
0.09158252 -0.07651233 0.03195635 0.10931539 0.1187195 0.07797983 -0.12628707 -0.06343782
-0.10638151 0.11490353 0.050090212 0.14007905 0.06259793 -0.09876614 -0.12151931 0.032024167
-0.13686797 -0.13407552 0.03147488 -0.0872175 -0.030767625 0.0715619 -0.13086705 -0.14731896
0.09959861 -0.025262354 -0.036489304 -0.12037044 0.071233906 0.1167097 -0.02982032 -0.12241932
0.10440151 0.033277955 -0.015115477 -0.1442318 -0.024487535 0.032291126 -0.06567615 0.076477006
-0.086029164 0.04533842 -0.0075392844 -0.04193636 -0.14485814 0.0474263 -0.02855136 -0.057007976
0.06777291 -0.047283806 0.0060293367 -0.14294286 -0.07595103 0.05824427 -0.12644404 -0.06440961
-0.12243306 -0.1499636 -0.039243314 -0.06509038 -0.09303633 -0.13003309 -0.12594296 -0.01749609
-0.01136645 -0.029073386 0.06683356 -0.08900913 -0.108168446 0.12723948 -0.025294958 0.052544955
0.080062784 0.07031584 0.024080865 -0.108015805 0.0957041 -0.035259604 -0.05067601 -0.097621076

localization.0.bias f4 [8]
00000000: 12fc a1bd 652a 853d a23d 9a3d 9901 d5bd
00000010: 5122 3ebd 5fe0 93bc 7e0f eabd 674a 94bc
-0.07909407 0.06502227 0.07531287 -0.10400695 -0.046419445 -0.018051324 -0.11428736 -0.018101884

localization.3.weight f4 [10, 8, 5, 5]
00000000: 84c3 2bbd 3076 12bd ca03 1bbd ee84 7a3d
00000010: af82 48bd 3e55 153c 2956 433d af02 6cbd
00000020: b749 5dbc d4ca 1f3d 205d 86bd 013f 503d
00000030: 7bb7 5ebd 9f51 75bd f320 92bd 7cf1 1e3d
00000040: a978 733d 8a72 a33c d07c de3b 3d7f d6bc
00000050: 2fa3 633d de42 c0bc 0f57 633d 5f44 b23a
00000060: a67b 933d 4056 543c fde4 46bd 4c35 153c
00000070: 7211 913d 96d3 7f3d 717a 20bd 8b1a b23d
00000080: cea9 703d 8633 d0bb ef20 1dbc c56a 143d
00000090: f3e8 153d d943 40bd 8c33 f7bc 5f94 fbbc
000000a0: 5bbc 4a3d 7edd 893c b594 f8bc f657 823d
000000b0: d383 433d f4cb e8bc 3afe b5ba 89f9 67bd
000000c0: ea49 bd3c f8f5 c1bb 495f 99bd e3b4 f2bc
000000d0: d01c 77bd deff b43c ef50 253d fbbb 163d
000000e0: 23e9 3cbd 4c1d 8dbd ab83 953d 9eba a33d
000000f0: df22 e8ba cfa3 a63d ad20 e63c 81e8 613d
00000100: b18d 1cbd bdd7 0cbc a154 963d adc2 9ebd
00000110: 8332 89ba 2a40 45bd 9aef 77bd ebea 233d
00000120: d5cc 763d 55a2 6b3d 125b cfbc dec7 17bc
00000130: 145b a2ba ef38 46bd 293c 793d 9bec 8a3d
00000140: 6c0c cdbb 5318 4abd 1199 61bd 911b e5bd
00000150: 0fbd 49bb e036 ebbc 94b7 b0bd c6f5 4bbd
00000160: 85e1 3ebc ddde 74bc a68e 9d3d 5aff 573d
00000170: fccf 9bbd b1b5 9dbd 5591 cabd f741 98bd
00000180: 6d13 9ebd bdce a8bd 2b5f dcbd 7589 d3bc
00000190: 89a7 8fbc 9cea 1cbb 2e90 803c a29b 48bc
000001a0: 72e0 01bd 3424 28bd c18f 0ebd f5fc 86bd
000001b0: 88f5 383c c142 233d 86c6 25bc ed57 7a3c
000001c0: 1072 54bb bbdd 9abd b329 733d faa4 b83b
000001d0: 93ff 21ba 1843 653b d4ae 2cbd e007 a03d
000001e0: 8269 c7bd 5216 b93c de68 39bd 82d7 0c3d
000001f0: 5c43 7c3d 8d96 4b3c 0221 373d 388b 28bd
00000200: 2547 91bd d913 56bd a96e b43b abea 043b
00000210: 0d71 78bd c9ac 943d 9713 673d fedb c13c
00000220: 1331 793c 33f3 9cbd 9071 493c e979 f03c
00000230: 3248 1f3c b71a 1abd 977e 183d 38dd 763d
00000240: 6f9b 67bd a819 993c 4385 7f3d 15b8 4bbc
00000250: 7b00 afbc 1564 243d e4bf 073d 1492 78bd
00000260: 5058 6fbd d459 16bd 844f 69bd 0139 2fbd
00000270: 5b37 833d a268 92bd dc9f 8fbc 2227 8c3d
00000280: 06d8 e43a 7476 aabd 9ba3 053d 88e1 873c
00000290: 8279 f53c 409e 833c 5ec3 4ebd 9694 7b3d
000002a0: 4fb2 893c 338e 2bbd 2144 04bd 1ab5 943d
000002b0: 5276 1abd 7362 b5bc 2248 4d3c 4225 0c3d
000002c0: 5dc4 a0bd 6667 c4bc c01c 7a3c 0f40 b43c
000002d0: 3e4c 8cbd ad03 913c f7c5 823c 1039 4f3d
000002e0: 6b8e 81bd f865 a0bd 686f 6abc 2a48 913d
000002f0: 5fc0 61bd d6dd 57bd 581c 463d 7781 1cbd
00000300: d0a6 6fbc 8f3b 86bd 80e4 3f3d bc31 35bd
00000310: 630b b2bd b51f 27bd d2a7 273d ac9b 223d
00000320: 861e c4bb da5e 3f3d 30b8 9a3c 22ca f7bc
00000330: 87f6 2abc 03c8 023d 0bb4 273d 9291 95bc
00000340: adb3 71bd bdd6 fdbc 5a03 063d fa0d e13c
00000350: a099 873d 5a2a f33c 42ad 933d d25a 2b3d
00000360: ce04 8abd 62c8 213d 5d9b 003c 2c09 c23c
00000370: 2606 5cbc cbe2 b03c ff5f 063d 5529 f83c
00000380: b542 6e3d a249 0a3d b665 3abd 0837 cf3c
00000390: 9633 8cbd 8e39 8ebc 2a41 463c bce2 3abd
000003a0: 69ff 16bd 8358 91bd 83da c03c ac48 95bb
000003b0: fa5a 99bd 1c9c 533d 134d c7bc 4146 c43c
000003c0: 8821 6f3d c399 41bd 68ba f73c d371 a93c
000003d0: 8e63 21bd 32b5 78bd 5357 4a3c c910 0bbd
000003e0: b6be 92bd f3b3 0cbd d947 7d3d a4a0 e6bc
000003f0: f058 083c 4e13 ffbb c955 82bd 1f28 7f3d
-0.041934505 -0.035757244 -0.03784541 0.061161928 -0.048952755 0.009114562 0.04768959 -0.057619747
-0.0135063445 0.03901179 -0.06560731 0.050841335 -0.0543742 -0.059892293 -0.07135191 0.038804516
0.059441242 0.019952077 0.006789781 -0.026183719 0.055575546 -0.023469385 0.055502947 0.0013600698
0.072013184 0.012960017 -0.048558224 0.009106945 0.070834056 0.062457643 -0.03917927 0.08696469
0.05875569 -0.0063537983 -0.0095903715 0.036234636 0.03659911 -0.046939705 -0.030175947 -0.030710397
0.049496036 0.016829249 -0.030344347 0.063644335 0.04773314 -0.028417565 -0.001388497 -0.05663446
0.023106534 -0.0059192143 -0.07488877 -0.02962727 -0.060330212 0.022094663 0.040360387 0.036800366
-0.046120774 -0.068903536 0.07300504 0.07994579 -0.0017710588 0.08136713 0.028091753 0.055153374
-0.038221065 -0.008596358 0.073403604 -0.07751975 -0.0010467324 -0.048156895 -0.060531236 0.040018957
0.060253937 0.05752786 -0.02531198 -0.009263961 -0.0012386763 -0.04839414 0.06084839 0.0678341
-0.0062575843 -0.049339604 -0.055077616 -0.111868985 -0.0030782854 -0.02871269 -0.08628765 -0.049794935
-0.011650448 -0.014945713 0.07693224 0.052733757 -0.07608029 -0.077006705 -0.09891001 -0.07434457
-0.07718549 -0.08242557 -0.10760339 -0.02582238 -0.017535942 -0.002394355 0.01569375 -0.012244137
-0.03170819 -0.04105015 -0.034805063 -0.065912165 0.011289008 0.039858583 -0.010118132 0.015279752
-0.003241662 -0.07561823 0.05936594 0.005634901 -0.0006179746 0.0034982618 -0.042158917 0.07814002
-0.09736921 0.022593651 -0.045266025 0.03438521 0.061587676 0.012426031 0.044709213 -0.041148394
-0.07093648 -0.052265022 0.005506356 0.0020281475 -0.06065469 0.07259519 0.056415167 0.02366447
0.015209454 -0.07663574 0.012295142 0.029355006 0.009721803 -0.037623134 0.0372301 0.060269564
-0.056544717 0.018688992 0.062382948 -0.012434025 -0.021362534 0.04013451 0.033141986 -0.060686186
-0.05843383 -0.03670676 -0.056960598 -0.042778973 0.064070426 -0.071488634 -0.017532282 0.068434015
0.00174594 -0.083233744 0.03262673 0.016587034 0.029965166 0.01606667 -0.050479285 0.061421
0.016808657 -0.04188366 -0.032291535 0.07261105 -0.037710495 -0.02214167 0.012529405 0.03421522
-0.07849953 -0.023975085 0.015265644 0.022003202 -0.068504795 0.017701948 0.015963538 0.05059153
-0.06325992 -0.07831949 -0.014308788 0.07093842 -0.0551151 -0.052701794 0.048366874 -0.038209405
-0.014627174 -0.06554329 0.046848774 -0.044236884 -0.08693578 -0.040801723 0.04093153 0.03969924
-0.005985084 0.046721317 0.018886656 -0.030247752 -0.010434753 0.031929027 0.040943187 -0.01825789
-0.059009243 -0.030986184 0.03271804 0.027472485 0.066210985 0.02968328 0.07210781 0.04183466
-0.06739198 0.03949774 0.0078495415 0.023686014 -0.0134292 0.021592518 0.032806393 0.030293146
0.058169086 0.033761628 -0.045507155 0.025294796 -0.06845777 -0.017361429 0.012100497 -0.045626387
-0.03686467 -0.070969604 0.023541695 -0.0045557823 -0.074880555 0.05166255 -0.024328744 0.02395928
0.058381587 -0.04726578 0.030240253 0.020684158 -0.039401583 -0.060719676 0.012349921 -0.033951554
-0.071652815 -0.0343513 0.061836097 -0.028152771 0.008321986 -0.0077842837 -0.063640185 0.06229412
