deep_emotion-ckplus-20-32-0.005.pt (torch, 274522 bytes, 24 tensors)

conv1.weight f4 [10, 1, 3, 3]
0	0xbdace0d1	-0.08441318
1	0x3e8b5eec	0.27220857
2	0xbe8497c0	-0.25897026
3	0x3c94799d	0.018124396
4	0x3e9524f2	0.2912975
5	0xbce951a9	-0.028481321
6	0x3d46836a	0.04846517
7	0x3e3f51bd	0.18683524
8	0xbecc9b8b	-0.3996242
9	0x3ea6550a	0.32486755
10	0xbe25fec1	-0.16210462
11	0xbda241f0	-0.07922733
12	0xbd9fc2cc	-0.078008264
13	0x3e851884	0.25995266
14	0xbd38d4fe	-0.045125
15	0xbe579f53	-0.21056871
16	0xbe574dd3	-0.21025781
17	0xbe85d984	-0.26142514
18	0x3e8d16bc	0.27556407
19	0x3e942081	0.2893105
20	0xbd8b3f4d	-0.06799183
21	0xbeb63a84	-0.3559152
22	0x3e8f658f	0.2800717
23	0x3d93b2c8	0.07211834
24	0xbe8b4f77	-0.27209064
25	0xbc8b2e04	-0.016989715
26	0x3ea81bd5	0.32833734
27	0xbea3ac2b	-0.3196729
28	0x3e8b2189	0.27174023
29	0x3e8f26c1	0.27959254
30	0xbe6df164	-0.23236614
31	0xbe6128bd	-0.21988197
32	0x3d9dfd74	0.07714358
33	0xbdc6de35	-0.097103514
34	0x3d68a60f	0.05679899
35	0xbe405ad3	-0.18784647
36	0xbd8f5c75	-0.07000057
37	0xbe196d50	-0.14983106
38	0xbe8dc076	-0.276859
39	0x3d8a2a49	0.067463465
40	0xbd53edc8	-0.051740438
41	0x3e4214ae	0.18953201
42	0xbc6a3cd9	-0.014296734
43	0x3d07d533	0.033162307
44	0x3ea2f634	0.31828463
45	0x3dbdd837	0.09269755
46	0x3dc82a1c	0.09773657
47	0x3bb229f0	0.0054371282
48	0xbea49100	-0.32141876
49	0xbdbfb59a	-0.093608096
50	0xbd0bc7a3	-0.034125935
51	0x3e2b878a	0.16750923
52	0x3e108aa8	0.14115393
53	0xbe719838	-0.23593223
54	0xbeb8bde4	-0.36082375
55	0xbe4cc846	-0.19998273
56	0xbe10d677	-0.14144312
57	0xbe141034	-0.14459306
58	0x3e5147d8	0.20437562
59	0x3dcb9203	0.09939959
60	0x3eb4ba2d	0.3529829
61	0x3ac387f1	0.0014917833
62	0x3e5f283c	0.21792692
63	0x3e01ede4	0.12688404
64	0x3e32108d	0.17389126
65	0xbd34e96a	-0.044167913
66	0xbe675483	-0.22590832
67	0x3d5ee2b8	0.054415435
68	0x3da5eb38	0.08101505
69	0x3dbeafd2	0.09310879
70	0xbe66a9cf	-0.22525714
71	0x3e13cbe2	0.14433244
72	0xbdc4bf50	-0.096068025
73	0xbe96b424	-0.2943431
74	0x3d5d3368	0.054004103
75	0xbe8aa323	-0.27077588
76	0x3ea4058d	0.32035485
77	0x3eb92616	0.3616187
78	0xbe801a0d	-0.25019875
79	0x3c810be7	0.015752746
80	0x3d98c918	0.074602306
81	0x3e04f878	0.12985408
82	0xbe5ec865	-0.21756132
83	0x3b3b9e9e	0.0028628479
84	0x3dea9b66	0.11455421
85	0x3e79d315	0.24396928
86	0xbcb056be	-0.021525737
87	0x3e93d302	0.28871924
88	0x3e290620	0.16506243
89	0xbd48e2e4	-0.049044505

conv1.bias f4 [10]
0	0xbe783532	-0.24239042
1	0xbca0185a	-0.019542862
2	0xbd85a673	-0.06525888
3	0x3b6a6422	0.003576525
4	0x3d8f3eaf	0.06994378
5	0xbe6f112b	-0.23346393
6	0xbd141c89	-0.036160026
7	0xbe915d7b	-0.28391632
8	0x3e3f6413	0.18690519
9	0xbe60d8bb	-0.21957676

conv2.weight f4 [10, 10, 3, 3]
0	0xbd32f5ca	-0.043691434
1	0x3de30062	0.110840574
2	0x3db76a69	0.08955843
3	0xbe1dc913	-0.15408735
4	0xbd8b47f8	-0.06800836
5	0x3e0e32f9	0.13886632
6	0xbdbb0a61	-0.09132839
7	0xbe10204a	-0.14074817
8	0x3d94dca0	0.072686434
9	0x3c958aae	0.018254604
10	0x3de39364	0.11112097
11	0xbd5db988	-0.054132015
12	0x3d6698be	0.05629801
13	0xbdbd7b7e	-0.0925207
14	0x3ce7bf7a	0.028289545
15	0xbe034f73	-0.12823276
16	0xbe127920	-0.14304018
17	0xbdf75a5b	-0.12077781
18	0x3e06f5a0	0.13179636
19	0x3e105d4e	0.14098093
20	0x3d884fb8	0.0665583
21	0x3d9b4740	0.07581949
22	0xbcd1bfcf	-0.025604157
23	0x3d7a7f7e	0.061156742
24	0x3dbfbaee	0.09361826
25	0xbd0a49ee	-0.03376191
26	0xbd41e2bf	-0.047335383
27	0xbdd7e43a	-0.10541578
28	0x3c425733	0.01186161
29	0xbdf56a5f	-0.11983179
30	0x3e34cfa8	0.1765734
31	0x3be0cd57	0.006860416
32	0x3dc3b354	0.095556885
33	0xbdca1040	-0.09866381
34	0x3e191500	0.14949417
35	0x3db8f6dd	0.090314604
36	0xbd266acb	-0.04062919
37	0xba39da7f	-0.00070897484
38	0xbdd57547	-0.104227595
39	0x3c3680b9	0.011139088
40	0xbe1a33a5	-0.15058763
41	0xbd12fc9f	-0.03588545
42	0xbd68c9f0	-0.056833208
43	0xbe17e9f4	-0.1483534
44	0xbe18d07d	-0.14923282
45	0xbd19db99	-0.03756294
46	0xbc659457	-0.014012418
47	0xbd2dd9d0	-0.04244405
48	0x3d271e35	0.040800292
49	0xbe57ed61	-0.21086647
50	0xbdbf85ca	-0.0935169
51	0xbda0b930	-0.07847822
52	0x3e3df849	0.18551745
53	0x3e036ee4	0.1283527
54	0x3d5b1814	0.05348976
55	0xbd761675	-0.06008001
56	0xbe07742d	-0.13227911
57	0x3dde02c1	0.10840369
58	0x3c64efbe	0.013973175
59	0xbd55279d	-0.05203973
60	0x3e2bcc94	0.16777259
61	0x3e375f1c	0.17907375
62	0x3da1b603	0.07896044
63	0xbc9c3cb5	-0.019071916
64	0xbd885fcb	-0.06658896
65	0x3d86754c	0.06565341
66	0xbd307cf3	-0.04308791
67	0x3da7129d	0.08157847
68	0xbc0a1e76	-0.008430114
69	0x3d5f20a6	0.054474495
70	0x3d8e701d	0.06954978
71	0x3d56e724	0.052466527
72	0xbdc15d9c	-0.09441683
73	0x3ddfb0e0	0.10922408
74	0x3deaa2b6	0.11456816
75	0xbe084b03	-0.13309865
76	0x3de167b3	0.11006107
77	0x3cfb7776	0.030696612
78	0x3d70002b	0.05859391
79	0xbd8e048b	-0.0693446
80	0xbe21d69f	-0.15804528
81	0xbd66fae8	-0.056391627
82	0xbd7aae1f	-0.06120121
83	0xbdb184e6	-0.086679265
84	0xbe033706	-0.12813959
85	0xbd6b4f2f	-0.057448562
86	0xbdad01d8	-0.08447617
87	0xbddca03d	-0.107727505
88	0xbd19c579	-0.03754184
89	0x3dbd1a1f	0.09233498
90	0xbd983c86	-0.07433419
91	0x3dbba7f5	0.09162895
92	0xbd9cc565	-0.076548375
93	0x3d85ed59	0.06539411
94	0x3d86b5f1	0.06577671
95	0xbe80a647	-0.2512686
96	0x3cb5b97c	0.022183172
97	0x3d36020c	0.044435546
98	0xbd88cf52	-0.06680168
99	0xbdaabf8f	-0.08337318
100	0xbc3719e4	-0.011175606
101	0xbce30512	-0.027712379
102	0x3d28bc55	0.041195232
103	0x3d91088f	0.070817105
104	0xbd87dd61	-0.066340216
105	0xbca7ece3	-0.020498699
106	0x3d32e715	0.04367741
107	0xbc56a72a	-0.013101378
108	0x3cf6eec0	0.030143142
109	0x3cc0c042	0.023529176
110	0xba52d470	-0.000804252
111	0xbe365a4f	-0.17807887
112	0xbd489d41	-0.048978094
113	0xbd84ca1d	-0.064838625
114	0x3c92bfe2	0.017913762
115	0x3da68c94	0.08132282
116	0xbcf6ab78	-0.03011106
117	0x3da7329e	0.08163951
118	0x3cf6f1d7	0.030144615
119	0x3cfa39fa	0.030545224
120	0x3cf8f1b5	0.030388692
121	0x3d8d58e3	0.069017194
122	0x3cb2aca2	0.021810833
123	0xbd6af7a5	-0.05736508
124	0x3d69637d	0.056979645
125	0x3baa82eb	0.005203595
126	0xbdad1580	-0.084513664
127	0xbd109a3b	-0.035303336
128	0x3ced1e64	0.028945155
129	0x3d0894fb	0.033345204
130	0xbe10d583	-0.14143948
131	0x3bd94454	0.00663046
132	0xbd8f2dc0	-0.06991148
133	0xbcab92fd	-0.020944113
134	0xbdb83639	-0.08994717
135	0x3d8538f8	0.065050066
136	0x3d28bc2b	0.041195076
137	0x3ac8bb13	0.0015314542
138	0x3c8ef36b	0.017450055
139	0xbcf7e4df	-0.030260501
140	0x3dc365ef	0.09540927
141	0xbd20102f	-0.039077934
142	0x3dc3d7cc	0.09562644
143	0xbb55f59f	-0.0032647622
144	0x3c69bbc7	0.014265961
145	0x3d88d8c6	0.06681971
146	0xbcdb1c8f	-0.026747016
147	0xbcdc4ce4	-0.026892133
148	0xbdbba287	-0.09161859
149	0xbe403559	-0.1877035
150	0xbe2e693b	-0.1703233
151	0xbd76f312	-0.060290404
152	0xbdf3b276	-0.11899273
153	0x3ae53bdf	0.0017489156
154	0xbb5d9766	-0.0033812164
155	0xbdbd8f1e	-0.09255813
156	0xbd1d93f7	-0.03847119
157	0x3d1d811b	0.038453203
158	0xbd6425ad	-0.055699993
159	0xbbf81d92	-0.0075718844
160	0x3c31ca48	0.01085145
161	0xbd6ec520	-0.05829346
162	0x3dd05fe4	0.1017454
163	0x3e1b85d6	0.15187773
164	0x3e0fa093	0.14026098
165	0x3d313a0f	0.04326826
166	0x3df0d5e2	0.11759545
167	0x3d09acf4	0.033612207
168	0xbd28958e	-0.04115825
169	0x3cae9706	0.021312248
170	0xbd87be90	-0.06628144
171	0xbd8a8639	-0.06763882
172	0xbe13c386	-0.14430055
173	0xbc2ecde5	-0.010669206
174	0x3c10355a	0.0088017825
175	0xbbbb4d01	-0.0057159667
176	0xbcd45ba0	-0.025922596
177	0x3ce0d066	0.027443122
178	0xbda10418	-0.07862109
179	0xbc7d0a46	-0.015444344
180	0xbe53be2d	-0.20678015
181	0xbe31ce02	-0.17363742
182	0xbe9b1828	-0.30291867
183	0xbe80c0b1	-0.25147012
184	0xbdeea5f9	-0.116527505
185	0xbe60abc1	-0.21940519
186	0xbe6ff893	-0.23434667
187	0xbe3a521d	-0.18195386
188	0x3c70cbc5	0.01469702
189	0x3dbf111d	0.09329436
190	0x3d93f501	0.07224465
191	0xbcb153ac	-0.021646343
192	0x3d4138a7	0.04717317
193	0x3c825b39	0.015912639
194	0xbdcc5902	-0.099779144
195	0xbd944e91	-0.07241548
196	0xbe069f50	-0.1314671
197	0xbc89244a	-0.016740937
198	0x3d95a455	0.073067345
199	0xbce1c1ac	-0.02755817
200	0x3cbe9fa3	0.02326948
201	0xbd43b8b7	-0.04778358
202	0xbd899f1e	-0.06719802
203	0x3d991805	0.074752845
204	0x3ddf3087	0.10897928
205	0xbc46629e	-0.012108473
206	0x3d76a256	0.06021341
207	0x3e1503b6	0.14552197
208	0x3e333d79	0.17503919
209	0x3e1c92fd	0.15290447
210	0xbd7e274e	-0.062049203
211	0x3cd99573	0.02656052
212	0x3d827e9b	0.06371804
213	0xbe1ac53d	-0.15114303
214	0xbdecb125	-0.11557225
215	0xbda33b04	-0.07970241
216	0xbc10584c	-0.008810114
217	0xbe173c10	-0.14769006
218	0xbd9b3839	-0.07579083
219	0x3cd164dc	0.025560789
220	0x3db333d1	0.087501176
221	0x3def6620	0.11689401
222	0x3d8381a1	0.06421209
223	0x3d205470	0.039143026
224	0x3d955d35	0.072931685
225	0x3c85d881	0.016338589
226	0xbd4fe070	-0.05075115
227	0x3e563ce2	0.20921662
228	0x3d1ae713	0.037818026
229	0xbd492e6f	-0.04911655
230	0x3db5235a	0.088446334
231	0xbcad1174	-0.021126486
232	0x3d063931	0.032769386
233	0x3bb75093	0.005594322
234	0xbd7c119a	-0.061540224
235	0xbdab6d5b	-0.08370467
236	0xbe0fe4c8	-0.14052117
237	0x3e45c3c1	0.19312955
238	0x3dab96d8	0.083783805
239	0x3e2a6ab2	0.16642264
240	0x3cf27c89	0.029600399
241	0x3d4273db	0.04747377
242	0x3dd636e1	0.10459686
243	0x3d376551	0.044774357
244	0x3d33aff9	0.043868992
245	0x3db39e45	0.08770422
246	0xbd85411d	-0.0650656
247	0x3d624a78	0.0552468
248	0xbd1fd346	-0.039019845
249	0x3dd1b0ca	0.10238798
250	0xbd9b6fbe	-0.075896725
251	0x3bbf8559	0.0058447537
252	0xbdcd21f4	-0.10016242
253	0xbe0f0aea	-0.13969007
254	0xbdd9cfd2	-0.10635342
255	0x3d87d50e	0.06632434

conv2.bias f4 [10]
0	0x3cfbc11f	0.030731736
1	0x3d164850	0.036690056
2	0x3c408336	0.011750033
3	0xbda4df49	-0.08050401
4	0x3d20b85a	0.03923831
5	0x3d4281f5	0.047487218
6	0xbe02181f	-0.12704514
7	0xbd129f27	-0.03579631
8	0x3c763dcf	0.015029385
9	0xbce3681b	-0.027759602

conv3.weight f4 [10, 10, 3, 3]
0	0xbdc7abd4	-0.097495705
1	0x3d8d8a3f	0.06911134
2	0xbd7230dc	-0.059128627
3	0xbd811141	-0.06302119
4	0xbdc013e0	-0.09378791
5	0xbcacdbc8	-0.021100894
6	0x3c2d318a	0.010570893
7	0xbd8a185e	-0.06742929
8	0xbd8775d8	-0.06614274
9	0x3d232633	0.03983135
10	0xbd95fafe	-0.073232636
11	0xbd45b57a	-0.048268773
12	0xbcaa2394	-0.020768918
13	0xbc0465a5	-0.008080875
14	0xbd8aac75	-0.06771175
15	0x3de123f9	0.10993189
16	0xbda6cb5d	-0.08144257
17	0xbb6700fe	-0.0035248394
18	0x3ca8112d	0.020516003
19	0xbd32e14f	-0.043671902
20	0xbd98ee74	-0.07467356
21	0xbd6850e9	-0.056717787
22	0xbe01594f	-0.12631725
23	0x3d38caf7	0.045115437
24	0xbc5bb145	-0.013408964
25	0x3d8cbc75	0.06871883
26	0x3d4edf58	0.050505966
27	0xbd7b497e	-0.061349384
28	0xbcb9c22c	-0.022675596
29	0xbd540537	-0.051762786
30	0x3d27d15a	0.040971138
31	0xbd8e0cde	-0.06936048
32	0x3dcdcb23	0.10048511
33	0x3c758dd0	0.014987424
34	0x3db922b9	0.09039826
35	0xbc729000	-0.01480484
36	0xbcd7a088	-0.026321664
37	0xbdaacf5b	-0.08340331
38	0x3d82a4be	0.06379078
39	0xbdfbefbe	-0.123015866
40	0xbd02e20a	-0.03195385
41	0xbdf185ce	-0.11793099
42	0xbcb33536	-0.021875959
43	0xbe04fd1b	-0.12987177
44	0xbc902321	-0.017594876
45	0x3c839380	0.016061544
46	0xbdc6833d	-0.096930005
47	0xbd4949e0	-0.04914272
48	0xbcdd3c66	-0.02700634
49	0x3cffb980	0.031216383
50	0x3c99ba29	0.018765526
51	0xbd899543	-0.067179225
52	0xbe080668	-0.13283694
53	0xbda9b0a1	-0.082856424
54	0x3cd46b94	0.025930203
55	0xbd5b4be2	-0.053539164
56	0x3c93ca20	0.018040717
57	0xbdcd012a	-0.10009988
58	0xbd5257c7	-0.051353242
59	0xbd928ebc	-0.07156131
60	0xbe0515a1	-0.12996532
61	0x3dfe2312	0.12409033
62	0x3d27f686	0.041006587
63	0xbd5aee9c	-0.053450212
64	0xbc1a54df	-0.009419649
65	0xbca16d92	-0.019705568
66	0xbd3ea1d3	-0.046541046
67	0xbd906700	-0.07050896
68	0xbb8fb6a3	-0.0043857857
69	0x3c944abf	0.018102048
70	0xbd9442d6	-0.072393104
71	0x3cd891a3	0.026436632
72	0x3c9ac8fa	0.018894661
73	0x3c48ccc8	0.012255855
74	0xbdfa46a7	-0.12220507
75	0x3c4a9ad4	0.012366015
76	0xbd826b58	-0.063681304
77	0xbbcdea09	-0.0062840027
78	0xbdcc3cc5	-0.09972528
79	0x3c73ea0f	0.014887347
80	0xbd834f53	-0.06411614
81	0x3b80208b	0.0039101294
82	0x3d3353c1	0.043781046
83	0xbdcae0d7	-0.09906166
84	0x3dbdd24f	0.09268629
85	0xbe0639e7	-0.13108025
86	0xbdd8f002	-0.10592653
87	0x3d1cdd7a	0.038297154
88	0xbadd1e6f	-0.0016870032
89	0xbdc8f494	-0.098122746
90	0x3aa7fea8	0.0012816982
91	0x3cb38ffe	0.021919247
92	0xbd8af771	-0.06785477
93	0x3daa5a5a	0.083180144
94	0xbd474edc	-0.04865919
95	0x3cdcf8a8	0.026974037
96	0x3d2d2b66	0.042277716
97	0xbdb3959a	-0.087687686
98	0xbdc9e51f	-0.098581545
99	0x3dcbbd3d	0.09948204
100	0x3dbebebf	0.09313726
101	0xbd4e4a88	-0.050364047
102	0xbc86a2bf	-0.016435025
103	0xbcb81ddc	-0.022475176
104	0x3d49d622	0.04927648
105	0xbd083b56	-0.033259712
106	0xbd4ab9c3	-0.049493562
107	0xbd9f2b4e	-0.077719316
108	0xbe0d895a	-0.13821927
109	0xbdb364b5	-0.08759443
110	0xbe03ec78	-0.12883174
111	0x3c68b350	0.014202908
112	0x3de372af	0.111058585
113	0x3d8967cd	0.067092516
114	0x3d640309	0.055666957
115	0x3d96dd95	0.07366482
116	0x3e06519f	0.13117073
117	0x3d1264c3	0.035740625
118	0xbd6326b3	-0.05545683
119	0xbcb49a80	-0.022046328
120	0xbd1ff7f2	-0.03905482
121	0xbbfcc6f1	-0.0077141454
122	0x3d8e857a	0.069590524
123	0x3d43098d	0.04761653
124	0xbe0ab0e8	-0.13544047
125	0x3d6e49c0	0.058175802
126	0x3d3ddfae	0.046355896
127	0xbdb40e86	-0.087918326
128	0xbde6bcb3	-0.1126646
129	0x3d812705	0.063062705
130	0xbd01ffc4	-0.031738058
131	0x3d91ea81	0.07124806
132	0x3d978127	0.07397681
133	0x3c468bb6	0.012118271
134	0x3d25f58d	0.04051738
135	0xbda8de4d	-0.082455255
136	0xbdf57940	-0.11986017
137	0xbd80bfd9	-0.06286592
138	0xbde90201	-0.11377335
139	0xbdbbf2c8	-0.09177166
140	0xbe51ce9f	-0.20488976
141	0xbcc5042e	-0.024049845
142	0xbd272f01	-0.04081631
143	0xbcd36c9e	-0.025808629
144	0x3df8f9b9	0.12157006
145	0x3df7eef1	0.12106121
146	0xbc4c7a27	-0.012480295
147	0xbcab11ce	-0.020882513
148	0xbd3e6ae2	-0.04648865
149	0x3c7815dd	0.015141931
150	0x3d4a3b37	0.049372878
151	0xbd4df450	-0.050281823
152	0xbcb9333b	-0.022607436
153	0xbca53415	-0.020166436
154	0x3c306545	0.010766332
155	0x3d430546	0.04761245
156	0xbd216424	-0.039402142
157	0x3d8df4fb	0.06931492
158	0xbd50cd43	-0.050977003
159	0x3deeae93	0.11654391
160	0x3e049b04	0.12949759
161	0x3ca4e408	0.020128265
162	0xbd971916	-0.07377832
163	0xbdc3aa7c	-0.09554002
164	0x3d226f40	0.039656878
165	0x3c96ee04	0.018424042
166	0x3da757a5	0.08171014
167	0xbc9e56b4	-0.019328453
168	0x3cc98db2	0.024603698
169	0x3d5227a6	0.051307343
170	0x3de2c3be	0.11072491
171	0xbacd1a08	-0.0015648017
172	0x3d0c6de1	0.034284476
173	0xbd698727	-0.057013657
174	0x3dc32069	0.09527666
175	0xbc852c0b	-0.016256353
176	0xbdb81a64	-0.089894086
177	0x3da0040e	0.07813273
178	0xbc80e25b	-0.015732935
179	0xbe0c196b	-0.13681571
180	0xbc4bd979	-0.012441986
181	0xbd7b02f8	-0.061282128
182	0x3cb123ad	0.021623457
183	0xbdaa026f	-0.083012454
184	0xbdbfdf8e	-0.093688115
185	0x3d2447ee	0.04010766
186	0x3c306bb5	0.010767867
187	0xbe00253a	-0.12514201
188	0xbdcdf460	-0.100563765
189	0x3d4ae6d2	0.049536534
190	0x3d8de324	0.06928089
191	0xbc832d34	-0.016012765
192	0xbb955ee8	-0.004558433
193	0xbd96fc14	-0.07372299
194	0xbde1032c	-0.10986933
195	0xbd64c059	-0.0558475
196	0xbb911bf3	-0.0044283806
197	0xbe151fbd	-0.14562888
198	0xbdc3619e	-0.095401034
199	0xbda3936c	-0.07987103
200	0xbd94cff4	-0.072662264
201	0xbd942f13	-0.07235541
202	0xbd9991df	-0.07498526
203	0xbdaeb922	-0.08531405
204	0xbdfec135	-0.12439195
205	0xbe090d09	-0.13383879
206	0xbc93ea3f	-0.018056033
207	0x3db6be95	0.089230694
208	0xbd981f17	-0.07427805
209	0xbb1d2996	-0.0023981086
210	0xbd4bf8e1	-0.049797896
211	0x3c368a23	0.011141333
212	0xbd67d716	-0.056601606
213	0x39fddc6e	0.00048420153
214	0x3d915261	0.07095791
215	0x3cbfb435	0.02340136
216	0x3d7b2695	0.06131609
217	0x3d971579	0.073771425
218	0x3d5a81f9	0.053346608
219	0xbd96adda	-0.07357378
220	0xbc35e4c8	-0.011101909
221	0xbe1894e3	-0.14900546
222	0xbd024c73	-0.03181119
223	0xbd5aa12e	-0.05337637
224	0xbd6f6194	-0.058442667
225	0x3cc6f50c	0.02428677
226	0xbd4d81d9	-0.05017266
227	0xbdad1757	-0.08451717
228	0xbe053147	-0.13007079
229	0xbdc15514	-0.094400555
230	0x3d0b4f5c	0.03401123
231	0xbdb273f2	-0.08713521
232	0x3d702570	0.058629453
233	0xbe00b7b6	-0.1257008
234	0xbd685f8e	-0.056731753
235	0xbd6fbe9c	-0.05853139
236	0xbd418f2b	-0.047255676
237	0x3d34fddc	0.04418741
238	0x3b47ed9d	0.0030506619
239	0x3dcbfbdb	0.09960147
240	0xbc4b66c5	-0.012414639
241	0x3da0f2ae	0.078587875
242	0xbd0263d5	-0.03183349
243	0x3ca4caa6	0.020116162
244	0xbd68c844	-0.056831613
245	0x3c55c512	0.0130474735
246	0xbd4fd8b2	-0.050743766
247	0xbc4c9c85	-0.012488489
248	0x3c6a479b	0.014299299
249	0xbda9ed46	-0.082972094
250	0xbd27c349	-0.040957723
251	0xbd151262	-0.036394484
252	0x3d76da7d	0.06026696
253	0x3c584544	0.013200108
254	0xbbde5af7	-0.006785746
255	0x3d8a73dc	0.0676038

conv3.bias f4 [10]
0	0xbdc494cf	-0.095986955
1	0xbd2ab575	-0.041676957
2	0xbd28e43a	-0.04123328
3	0xbd793880	-0.0608449
4	0xbd655e98	-0.055998415
5	0x3d825d73	0.0636548
6	0xbdfcd3f2	-0.12345113
7	0x3dbd4544	0.09241727
8	0xbd0d188f	-0.03444725
9	0x3dcf7484	0.101296455

conv4.weight f4 [10, 10, 3, 3]
0	0x3d15094f	0.03638583
1	0x3d979919	0.07402248
2	0xbd9b32b4	-0.0757803
3	0xbd745d05	-0.059659023
4	0x3c9bb9db	0.019009521
5	0xbcce9dab	-0.025221666
6	0x3c3a6937	0.011377624
7	0x3d7c80df	0.06164634
8	0xb8e2c633	-0.00010813437
9	0x3ba2cf52	0.004968562
10	0xbdf66dc9	-0.120326586
11	0x3d374233	0.044740867
12	0xbd29b534	-0.041432574
13	0x3db12fb3	0.08651676
14	0xbd7b3f54	-0.06133969
15	0xbc860cc9	-0.016363518
16	0x3cbd9a22	0.023144785
17	0x3d5e6015	0.05429085
18	0x3cfe4b2f	0.03104171
19	0x3d5f9284	0.054583088
20	0xbc6d2c11	-0.014475838
21	0xbd96da60	-0.073658705
22	0x3db73dea	0.08947356
23	0xbd68ee12	-0.056867667
24	0x3dfadc51	0.12249053
25	0xbdaf8094	-0.08569446
26	0xbdc1b764	-0.09458807
27	0xbd8d9614	-0.06913391
28	0x3e0ba5e1	0.13637497
29	0x3d958b2f	0.07301938
30	0x3d269482	0.04066897
31	0x3d7990f4	0.060929254
32	0x3dc9faa7	0.09862261
33	0xbe063a5f	-0.13108204
34	0x3d4f6783	0.050635826
35	0x3d5fadf3	0.05460925
36	0x3d7a155b	0.061055522
37	0x3dc8f88d	0.09813032
38	0xbb305efe	-0.0026912089
39	0x3d48730f	0.048937853
40	0x3dc2acb0	0.09505594
41	0x3d892032	0.06695594
42	0x3c546a60	0.012964815
43	0xbd0b8a43	-0.034067404
44	0x3d67e43d	0.05661415
45	0x3da9c7a0	0.082900286
46	0x3d19cf6d	0.037551332
47	0xbb36133a	-0.0027782456
48	0xbdad9279	-0.08475203
49	0xbd5e7238	-0.054308146
50	0xbd6206c6	-0.05518224
51	0x3d20ae2e	0.03922861
52	0x3d8d0f4f	0.068876855
53	0x3d81fc9b	0.06347009
54	0x3c356eb5	0.011073758
55	0x3dae1e7b	0.085019074
56	0x3d334109	0.043763194
57	0x3bbbe4cf	0.005734063
58	0xbd96060f	-0.07325374
59	0x3b484c56	0.0030563078
60	0xbd0c84f6	-0.03430649
61	0xbd31358c	-0.043263957
62	0x3d80d764	0.062910825
63	0x3d26a0fd	0.040680874
64	0xbc3dcf25	-0.011585032
65	0x3d3b9728	0.04579845
66	0xbdf7f9b4	-0.12108174
67	0x3dab4fab	0.08364805
68	0x3e892ef4	0.26793635
69	0xbd9fee77	-0.078091554
70	0x3c726688	0.014794953
71	0x3cf9c806	0.030490886
72	0xbdaa9122	-0.08328463
73	0x3ce1d629	0.02756794
74	0xbbe5c5c4	-0.007012101
75	0xbcf58611	-0.029971154
76	0xbcc1cfb4	-0.02365861
77	0x3de3e158	0.11126965
78	0x3df3aa2a	0.118976906
79	0xbccd4c8a	-0.02506091
80	0xbd9c6873	-0.076371096
81	0x3c95c01a	0.018280078
82	0xbe139b1d	-0.1441464
83	0xbd03c49b	-0.03216992
84	0x3d5c9e1f	0.053861734
85	0x3dd85425	0.10562924
86	0x3da79c52	0.081841126
87	0x3d0d0c84	0.034435764
88	0x3d01a5c7	0.03165224
89	0x3e0de670	0.13857436
90	0x3d46667e	0.048437588
91	0xbdc51f97	-0.09625166
92	0x3e0019f9	0.12509908
93	0x3cb771e8	0.022393182
94	0xbc918489	-0.017763393
95	0x3d0f9eb8	0.035063475
96	0x3cf0e8d0	0.029407889
97	0x3c1a425c	0.009415235
98	0x3ce03a3c	0.027371518
99	0xbcefd57e	-0.029276606
100	0xbd422910	-0.04740244
101	0xbd148b9a	-0.036265947
102	0x3d89ca23	0.06728008
103	0x3c6c0805	0.014406209
104	0x3e08e98e	0.13370344
105	0x3dd16de9	0.10226042
106	0x3d6e4b3a	0.05817721
107	0xbd0064fe	-0.031346314
108	0x3cd776a4	0.02630169
109	0xbdc8b8d4	-0.09800878
110	0xbd871eb7	-0.06597655
111	0xbd1f1acd	-0.03884392
112	0xbd5fd95e	-0.054650657
113	0x3cbe5620	0.023234427
114	0x3cd29b11	0.025708707
115	0x3df9562e	0.121746406
116	0xbd37a3a6	-0.0448338
117	0x3df01713	0.11723151
118	0x3d1588db	0.03650747
119	0x3e0da7f5	0.13833602
120	0x3de58227	0.11206465
121	0x3d94651e	0.07245849
122	0xbd83fd4a	-0.064447954
123	0xbd5b49e9	-0.053537283
124	0xbca24b0a	-0.019811172
125	0xbd61f493	-0.055164885
126	0xbdb6a7ec	-0.08918747
127	0x3ca5e290	0.020249635
128	0x3c9e7dcf	0.0193471
129	0x3cbfbb13	0.023404634
130	0x3dbec7da	0.093154624
131	0xbd9ebabd	-0.07750461
132	0x3d0f39c6	0.034967206
133	0x3dea9057	0.11453312
134	0xbd89289b	-0.06697198
135	0x3d371c5e	0.044704787
136	0x3d8dbbe1	0.06920601
137	0x3d0ac802	0.03388215
138	0x3dbaeae4	0.09126833
139	0x3e46df3b	0.19421093
140	0x3e6dc83a	0.23220912
141	0xbd55a443	-0.052158605
142	0xbd71d96d	-0.059045244
143	0xbdb872cc	-0.09006271
144	0xbd0db6d5	-0.03459819
145	0xbc480719	-0.012208723
146	0xbde07922	-0.10960604
147	0xbd7e8e84	-0.062147632
148	0x3b369658	0.0027860608
149	0xbdcbde7a	-0.099545434
150	0x3d253b0a	0.040339507
151	0xbdc9a7c5	-0.098464526
152	0x3d916f65	0.07101325
153	0xbe088a3c	-0.13333982
154	0xbdaaeb86	-0.08345704
155	0x3de34a7e	0.11098193
156	0x3d88c23c	0.06677672
157	0x3da12050	0.07867491
158	0x3db8343e	0.089943394
159	0xbdf59a5b	-0.119923316
160	0xbd55780e	-0.052116446
161	0x3d0ee48d	0.03488593
162	0xbe023fac	-0.12719601
163	0x3ca7757f	0.020441769
164	0x3da7c3c5	0.08191637
165	0xbcb4c1aa	-0.022065002
166	0x3dea20c6	0.11432032
167	0x3dc6fd49	0.09716279
168	0xbbfb005f	-0.0076599563
169	0xbcd2ca9f	-0.025731383
170	0xbd167f0f	-0.036742266
171	0xbc04a1bd	-0.008095202
172	0xbe074682	-0.1321049
173	0xbd82042d	-0.06348453
174	0xbdc3a77d	-0.0955343
175	0xbcd449ed	-0.025914157
176	0xbd7e8366	-0.06213703
177	0x3e058135	0.1303757
178	0x3e0c09a9	0.1367556
179	0x3df8e199	0.12152404
180	0xbd87740f	-0.06613933
181	0xbbb7e677	-0.0056121903
182	0xbd9521a9	-0.07281811
183	0xbe0b191b	-0.13583796
184	0xbd4734d9	-0.048634384
185	0xbcc35a65	-0.023846814
186	0xbdce6982	-0.10078718
187	0xbe029782	-0.12753108
188	0x3d5a29d7	0.053262558
189	0xbde01f62	-0.10943486
190	0x3cdb4898	0.026768014
191	0xbd51a3f2	-0.05118174
192	0xbd8f4a4a	-0.069965914
193	0x3b92bec5	0.004478308
194	0x3d6021fc	0.05471991
195	0xbbb2d34d	-0.005457318
196	0x3d408cd3	0.0470093
197	0x3cd282a3	0.025697058
198	0x3d023a02	0.0317936
199	0x3cb7830c	0.022401355
200	0xbd317548	-0.04332474
201	0xbda78ba7	-0.081809334
202	0x3d1b22c0	0.037874937
203	0x3d686f0c	0.056746528
204	0x3d5c4c91	0.053783957
205	0x3d9aa1a6	0.07550363
206	0xbdab62ab	-0.08368429
207	0x3ce925e3	0.028460449
208	0xbd9f9d9e	-0.07793735
209	0x3d3b7338	0.045764178
210	0x3d2f33b6	0.042773925
211	0xbc550e49	-0.013003894
212	0x3db21e2d	0.08697162
213	0x3d27d831	0.04097766
214	0xbdb1320a	-0.08652122
215	0xbdbf4dd9	-0.0934102
216	0x3d8c954d	0.06864414
217	0xbdebb764	-0.11509588
218	0xbdd752c8	-0.10513836
219	0xbd41aaa3	-0.047281872
220	0x3d80318c	0.0625945
221	0x3cb3cd46	0.021948468
222	0xbd22d27a	-0.039751507
223	0xbbcdf154	-0.006284872
224	0xbd209ac6	-0.039210103
225	0xbd82d96f	-0.063891284
226	0xbae2db60	-0.001730781
227	0x3dde926c	0.108677715
228	0x3c4bd2b9	0.012440377
229	0x3d8ae045	0.06781057
230	0xbd09d8bd	-0.033653963
231	0xbda74e31	-0.08169211
232	0xbde759f0	-0.11296451
233	0xbbb5ecdd	-0.005551918
234	0x3cf02d77	0.029318554
235	0x3c23a4db	0.009988035
236	0xbd898aba	-0.06715913
237	0xbd467cdc	-0.04845892
238	0x3d520b95	0.051280577
239	0xbd75f395	-0.06004675
240	0x3d8b62ea	0.06805976
241	0xbaf12073	-0.0018396511
242	0xbd2347a1	-0.039863233
243	0x3e29ea18	0.16593206
244	0x3e58cdb4	0.2117222
245	0x3e1942d5	0.149669
246	0xbdb52a06	-0.08845906
247	0xbdf19710	-0.11796391
248	0x3d41465b	0.047186237
249	0x3d1a18b3	0.03762121
250	0xbb8c4ba2	-0.004281477
251	0xbe1cd353	-0.15314989
252	0x3d88c33d	0.06677864
253	0xbd4e7a1e	-0.05040943
254	0xbdc91bcd	-0.09819756
255	0x3d843003	0.0645447

conv4.bias f4 [10]
0	0xbcc0f5b8	-0.023554668
1	0xbd81ca52	-0.06337418
2	0x3e053c68	0.13011324
3	0xbd9b2358	-0.07575101
4	0x3d3daf1c	0.046309575
5	0x3aa70e86	0.0012745417
6	0x3d758d6a	0.059949316
7	0xbcd62ad8	-0.026143476
8	0x3e074211	0.13208796
9	0x3db6fa3a	0.08934446

norm.weight f4 [10]
0	0x3f949f66	1.1611145
1	0x3f8ae65f	1.0851554
2	0x3f96e45a	1.1788437
3	0x3f8e64bb	1.112449
4	0x3f903fc6	1.1269462
5	0x3f88ca31	1.0686704
6	0x3f83bf2e	1.0292718
7	0x3f8d2b1e	1.1028783
8	0x3f8b2e9a	1.0873597
9	0x3f8cd6bf	1.1003035

norm.bias f4 [10]
0	0xbe22149d	-0.15828176
1	0xbdeffade	-0.11717771
2	0xbd9c0f9a	-0.07620163
3	0xbe15b806	-0.1462098
4	0xbdc7a257	-0.09747761
5	0xbda05d5e	-0.078303084
6	0xbe22d6ee	-0.15902302
7	0xbe390ab2	-0.18070486
8	0xbe172aa5	-0.14762361
9	0xbd838b57	-0.06423061

norm.running_mean f4 [10]
0	0x3e106f04	0.14104849
1	0xbd44f079	-0.048080895
2	0x3e5fd540	0.21858692
3	0x3b8ec515	0.00435699
4	0xbbb6cb2c	-0.005578419
5	0xbd8085c8	-0.06275517
6	0x3ce80cea	0.02832647
7	0xbe22a0ff	-0.15881728
8	0x3c05497e	0.008135198
9	0x3e3044e9	0.17213787

norm.running_var f4 [10]
0	0x3c08d602	0.008351805
1	0x3bd38524	0.0064550806
2	0x3c44042d	0.011963886
3	0x3b92345b	0.0044618077
4	0x3c51c843	0.012804094
5	0x3c7c659e	0.015405087
6	0x3c03c0d1	0.0080415765
7	0x3c0e2f38	0.00867825
8	0x3c1c70d4	0.009548385
9	0x3bd4555a	0.0064799013

fc1.weight f4 [50, 810]
0	0xbcf53cdb	-0.029936245
1	0xbc98033a	-0.018556226
2	0xbc98598a	-0.018597383
3	0xbd76be90	-0.06024033
4	0xbc6bc066	-0.014389133
5	0xbd42acfe	-0.04752826
6	0xbce60dac	-0.028082691
7	0x3b50f9fa	0.003188728
8	0xbc48a6f0	-0.012246832
9	0x3d2a3c14	0.0415612
10	0xbd2a7ef6	-0.041624986
11	0xbd1bb9d6	-0.038019024
12	0xbd250fef	-0.0402984
13	0xbd2911de	-0.041276805
14	0x3d62fdd3	0.055417847
15	0xbd1ed62b	-0.038778465
16	0xba12f0ea	-0.0005605357
17	0x3c903114	0.017601527
18	0xbd359d6d	-0.044339586
19	0x3d887e39	0.066647
20	0x3c823849	0.01589598
21	0xbd7636dd	-0.060110915
22	0x3d6d960c	0.058004424
23	0x3cd475f4	0.02593515
24	0x39085f4f	0.00013005476
25	0xbd6c4ac9	-0.05768851
26	0xbce5b7dd	-0.028041774
27	0xbcbedae4	-0.023297735
28	0xbd27abc0	-0.040935278
29	0xbcbe7067	-0.023246957
30	0x3cb951a4	0.022621937
31	0xbc1fe28e	-0.009758605
32	0xbb95973a	-0.0045651468
33	0xbd4096be	-0.04701876
34	0xbbfaf5d8	-0.0076587014
35	0xbb9cc5d2	-0.004784324
36	0x3d2d2a0b	0.042276423
37	0xbcdcc9c6	-0.026951682
38	0x3d2a3a53	0.04155953
39	0xbaacf186	-0.0013194538
40	0xbd19b406	-0.0375252
41	0x3a18fa10	0.0005835602
42	0xbd1a3b28	-0.037654072
43	0xbd3f7c7e	-0.046749584
44	0x3c23d2f4	0.009999026
45	0x3d4b0329	0.04956356
46	0x3be326a0	0.0069320947
47	0x3c703444	0.014660899
48	0xbb946990	-0.0045291856
49	0xbd80347a	-0.06260009
50	0x3cf29552	0.029612217
51	0xbc917f8a	-0.01776101
52	0xbbf14d68	-0.007363964
53	0xbb604c10	-0.0034225024
54	0x3d0d9c8e	0.03457313
55	0x3c2f2cfc	0.010691877
56	0x3bd515c5	0.0065028393
57	0x3d34a0a2	0.044098504
58	0x3cea33c9	0.028589146
59	0x3d2e2ead	0.042524982
60	0xbd5cca5a	-0.053903915
61	0x3b4b5630	0.0031026714
62	0xbd763829	-0.060112152
63	0xbd1c7414	-0.03819664
64	0x3c0a055e	0.008424131
65	0x3d349927	0.04409137
66	0xbd197410	-0.0374642
67	0x3b9e60d7	0.0048333216
68	0x3d33b811	0.04387671
69	0xbd460db4	-0.048352912
70	0x3d72de19	0.05929384
71	0xbcba9f10	-0.022780925
72	0xbbde58dd	-0.0067854957
73	0x3c0edc2d	0.008719486
74	0x3cf51fbe	0.029922362
75	0xbbd44af7	-0.006478663
76	0x3ad638b3	0.0016343802
77	0x3cd1ff8f	0.025634555
78	0xbc95366e	-0.01821443
79	0x3c293a78	0.010328881
80	0xbc8d6d94	-0.017264165
81	0xbc85a5c0	-0.016314387
82	0xbc823d3d	-0.015898341
83	0xbd08b382	-0.033374317
84	0xbd87e82b	-0.066360794
85	0xbd51ad6f	-0.05119079
86	0xbd0148fa	-0.031563736
87	0xbcac3b21	-0.021024289
88	0xbba0a469	-0.0049024117
89	0xbd75c4b4	-0.060002044
90	0xbd47f8ad	-0.04882114
91	0xbd0d8beb	-0.034557264
92	0xbd1a7a87	-0.037714507
93	0xbcc45c2f	-0.023969738
94	0xbcb2de28	-0.021834448
95	0x3b0b1771	0.002122369
96	0xbd3bcce0	-0.04584968
97	0x3d13d2e0	0.036089778
98	0xbd047a39	-0.032343123
99	0xbcee0350	-0.029054314
100	0xbce268ac	-0.027637802
101	0xbc839a20	-0.016064703
102	0xbb10db19	-0.0022103249
103	0x3d3c2477	0.045933213
104	0xbd635cc6	-0.055508398
105	0xbd1d16d6	-0.038351856
106	0xbd84e00a	-0.064880446
107	0x398fb413	0.0002740925
108	0x3c1040f9	0.008804553
109	0xbd4899bc	-0.048974738
110	0xbd5eb29a	-0.054369546
111	0x3d8072d5	0.062719025
112	0xbd4ffb39	-0.050776694
113	0xbc857c50	-0.016294628
114	0xbd340b60	-0.04395616
115	0xbb1de28b	-0.002409133
116	0x3d1a0fe2	0.037612803
117	0x3d1c2bd3	0.03812773
118	0xbce0acc6	-0.027426135
119	0xbd56b29b	-0.052416425
120	0x3cb8f67c	0.02257847
121	0x3c463d31	0.01209955
122	0xbd2810ad	-0.04103153
123	0x3b70a443	0.0036719001
124	0xbd2b0b7e	-0.041759007
125	0x3c0de2ec	0.008660059
126	0xbd1bca68	-0.038034827
127	0xbd5d2be2	-0.053996928
128	0xbc390c11	-0.011294381
129	0xbd7ff707	-0.062491443
130	0xbbedc9c5	-0.007256719
131	0xbd31c3cd	-0.04339962
132	0xbb58df91	-0.003309224
133	0xbc92a9fb	-0.017903319
134	0xbd7ef6fb	-0.062247258
135	0x3d513b76	0.051082097
136	0xbd20e2ed	-0.039278913
137	0x3bdae148	0.0066796876
138	0xbc85e759	-0.016345667
139	0x3ae65c37	0.001757509
140	0xbb99ea35	-0.004697109
141	0x3caf6c1a	0.021413852
142	0xbd2dbe37	-0.04241773
143	0x3b8a2330	0.0042156205
144	0xbd2455f5	-0.040121038
145	0xbd1ad3a4	-0.037799492
146	0xbd7e5a51	-0.06209785
147	0x3d3d288a	0.04618124
148	0xbd02a9fb	-0.031900387
149	0xbd5f5041	-0.054519895
150	0xbce8f122	-0.028435294
151	0xbc89d4fc	-0.016825192
152	0xbd148abb	-0.036265116
153	0xbac64940	-0.0015128031
154	0x3d17a72b	0.03702466
155	0xbd758429	-0.05994049
156	0xbd3c28fe	-0.04593753
157	0x3cdae7ba	0.026721824
158	0xbd2ab6ab	-0.041678112
159	0xbd540620	-0.051763654
160	0xbd2128b0	-0.039345443
161	0xbce45d6a	-0.027876575
162	0xbd111945	-0.03542449
163	0xbceb6980	-0.02873683
164	0xbd681f53	-0.056670498
165	0xbb61339e	-0.0034363042
166	0xbb07a49f	-0.0020697487
167	0x3d96b5a2	0.073588625
168	0xbd409847	-0.047020223
169	0x3b9e5b6e	0.0048326766
170	0x3cab32bd	0.020898217
171	0xbcf1d9b6	-0.029522758
172	0x3d49f902	0.049309738
173	0xbc8989e6	-0.016789388
174	0x3ccdd653	0.025126612
175	0xbc164a1c	-0.0091729425
176	0x3cdb93c2	0.026803855
177	0x3bfd1e8d	0.007724589
178	0xbcb8f617	-0.022578282
179	0xbd21f0f0	-0.039536417
180	0xbd47e336	-0.04880067
181	0xbd088100	-0.03332615
182	0x3d2798b8	0.04091713
183	0x3cb00ad4	0.021489538
184	0xbc675d01	-0.014121295
185	0xbcbf6ca0	-0.023367226
186	0xbd35a11b	-0.044343095
187	0x3ca9aa6c	0.020711146
188	0xbccf957e	-0.025339838
189	0xbc4e182e	-0.012579007
190	0x3ae48c30	0.0017436799
191	0x3d3bb747	0.045829084
192	0xbd853965	-0.06505088
193	0xbd1f3830	-0.038871944
194	0xbd59463f	-0.053045508
195	0xbd8b587c	-0.068039864
196	0x3d5633da	0.052295543
197	0x3c3522cf	0.011055662
198	0xbb973d01	-0.0046154265
199	0xbd5e72f9	-0.054308865
200	0x3d844f1e	0.06460403
201	0xbd65bad8	-0.05608639
202	0xbcd6fd3a	-0.026243795
203	0xbc5888c1	-0.013216198
204	0x3d1fc462	0.039005645
205	0xbd7ef1a6	-0.062242173
206	0xba02e6dd	-0.0004993508
207	0xbca5cf86	-0.020240556
208	0x3ce249a2	0.027623001
209	0x3d4d18e6	0.050072573
210	0xbbd8a1d7	-0.0066110897
211	0xbc48b36c	-0.012249809
212	0x3c63fc71	0.013915167
213	0x3d707476	0.058704816
214	0xbc837ebc	-0.016051643
215	0xbb9a0d5f	-0.004701301
216	0xbced4b4f	-0.028966574
217	0x3d435635	0.047689635
218	0x3d5fdbb0	0.05465287
219	0xbcf50c46	-0.029913079
220	0xbd10b81d	-0.035331834
221	0xbc99ac77	-0.018758995
222	0xbd44a55e	-0.04800927
223	0x3b71c80f	0.0036892926
224	0x3bc69ebf	0.0060614045
225	0xbbaf191f	-0.005343571
226	0xbc9b65b0	-0.018969387
227	0xbcafb42d	-0.02144822
228	0xbc132576	-0.008981099
229	0xbd1fdf5b	-0.039031368
230	0xbca30be8	-0.019903138
231	0x3c6fbab2	0.014631914
232	0x3d285907	0.041100528
233	0x3d83cb9d	0.064353205
234	0x399a0acd	0.00029381216
235	0x3d8c429c	0.06848642
236	0xbc25efed	-0.010128004
237	0x3b9568c7	0.0045596096
238	0x3d4e3f66	0.05035343
239	0xbd688424	-0.056766644
240	0x3b0764ec	0.002065952
241	0xbc57e8c4	-0.013178054
242	0x3b3cf326	0.0028831451
243	0x3d10376a	0.035209097
244	0x3c124495	0.008927484
245	0x3c3a904b	0.011386941
246	0xbc9f95af	-0.019480554
247	0x3d76f438	0.0602915
248	0x3c376ac5	0.011194889
249	0x3d812cd9	0.06307382
250	0xb94c3ee1	-0.0001947838
251	0xbd21ae06	-0.039472602
252	0xbccb7472	-0.024835799
253	0x3bf7f789	0.0075673503
254	0x3c577db8	0.013152532
255	0x3d0797b4	0.03310366

fc1.bias f4 [50]
0	0xbcf2e412	-0.029649768
1	0xbba42ffd	-0.0050106035
2	0xbcfae6a8	-0.030627564
3	0xbc86ff84	-0.016479261
4	0xbc490574	-0.0122693665
5	0xbc9b7eba	-0.018981326
6	0xbd280fb0	-0.041030586
7	0x3ccdef61	0.025138559
8	0x3d111e04	0.035429016
9	0xbd789fec	-0.06069939
10	0xbd7dd766	-0.061972998
11	0xbd7faf03	-0.062422764
12	0xbd0bb15f	-0.0341047
13	0xb98e8c88	-0.00027189055
14	0xbcff286c	-0.031147204
15	0xbd18755c	-0.037221298
16	0xbd825ab6	-0.06364958
17	0x3d55b2ce	0.052172475
18	0xbd17318a	-0.03691248
19	0xbc8a727b	-0.016900292
20	0xbceaa0db	-0.028641155
21	0xbd58611e	-0.052826993
22	0x3d09169b	0.033468824
23	0xbca47d0d	-0.02007916
24	0xbd441519	-0.047871683
25	0xbc371f1a	-0.011176849
26	0x3d3f6c0c	0.0467339
27	0xbb68c9dc	-0.0035520708
28	0x3da1eec0	0.07906866
29	0xbda58cde	-0.08083509
30	0xbc09b585	-0.008405094
31	0xbcc8dbed	-0.024518931
32	0xbcfb3c36	-0.03066836
33	0xbd2b51a8	-0.04182592
34	0xbc497b64	-0.012297485
35	0xbd81524a	-0.063145235
36	0xbd673795	-0.05644949
37	0xbcc6c6e6	-0.024264764
38	0xbd506bb0	-0.05088395
39	0x39190034	0.00014591293
40	0xba25d669	-0.00063262
41	0xbb9f6fd4	-0.004865626
42	0xbc51e644	-0.012811247
43	0x3c1a9fab	0.009437482
44	0x3e2aff94	0.16699058
45	0xbc653141	-0.013988794
46	0x3a529b5c	0.00080340146
47	0x3d8b9c6b	0.06816944
48	0x394a97c6	0.00019320761
49	0xbd24520c	-0.04011731

fc2.weight f4 [7, 50]
0	0xbd440b83	-0.04786254
1	0x3d2097a8	0.03920713
2	0xbd8e29c5	-0.06941561
3	0xbb7aa1df	-0.0038243455
4	0x3d1d6117	0.03842267
5	0xbe3f524a	-0.18683735
6	0x3d5f9631	0.054586593
7	0x3e0c8841	0.13723852
8	0x3cfee821	0.031116547
9	0xbdfc25b2	-0.12311877
10	0x3d339293	0.043840956
11	0x3d577b9f	0.05260813
12	0x3df65c55	0.1202933
13	0x3d9c3f07	0.07629209
14	0xbd905487	-0.07047372
15	0xbe083872	-0.13302782
16	0x3cfb46a7	0.030673338
17	0x3d6e2fcb	0.058151048
18	0xbb2b7f8a	-0.0026168549
19	0x3df35a5d	0.1188247
20	0xbe2ee73d	-0.17080398
21	0xbda7d035	-0.08194009
22	0xbe3f531c	-0.18684047
23	0xbe0bb573	-0.13643436
24	0x3d984aab	0.07436117
25	0x3e11f1f4	0.14252454
26	0x3d4050e5	0.046952147
27	0xbd94d898	-0.072678745
28	0x3cb5210a	0.02211048
29	0xbdaa53c0	-0.08316755
30	0xbdabdc4d	-0.083916284
31	0xbb84665b	-0.004040522
32	0x3de8861d	0.11353705
33	0xbd694ad7	-0.05695614
34	0xbe40196e	-0.187597
35	0x3db52eb3	0.08846798
36	0xbd39ec24	-0.045391217
37	0xbdb51436	-0.088417456
38	0xbdd56ccd	-0.10421143
39	0xbda5ed76	-0.08101933
40	0x3cd58fd3	0.026069557
41	0x3c721eeb	0.014777879
42	0xbdaf7647	-0.085674815
43	0x3dd4b6b2	0.10386409
44	0x3e0fe6d5	0.14052899
45	0xbcdd94e1	-0.02704853
46	0xbdf29810	-0.1184541
47	0x3e354c20	0.1770482
48	0xbe07445c	-0.13209671
49	0x3c151225	0.009098564
50	0x3db36406	0.08759312
51	0xbd5a3da5	-0.053281445
52	0x3dde994e	0.10869084
53	0x3dacf58b	0.08445271
54	0xbe16a7da	-0.14712468
55	0x3d72e56d	0.05930083
56	0x3db5654d	0.08857212
57	0xbe075d2f	-0.1321914
58	0xbd8ec20c	-0.06970605
59	0xbdea3886	-0.11436562
60	0x3d17e849	0.03708676
61	0xbd931119	-0.071809955
62	0xbdd86ad5	-0.105672516
63	0x3cd02ee3	0.025412982
64	0x3ddfa5d7	0.10920303
65	0xbe1d69cd	-0.15372391
66	0x3d9b6891	0.07588304
67	0x3dbc1306	0.09183316
68	0xbd66b672	-0.056326337
69	0x3c6198bb	0.013769324
70	0x3dc157c1	0.09440566
71	0x3d4ab4c0	0.049488783
72	0xbe511c99	-0.20421065
73	0x3d77445c	0.060367927
74	0x3d53ae49	0.051679883
75	0xbd2b16d6	-0.041769825
76	0xbd76f463	-0.06029166
77	0x3bbcb2a1	0.005758599
78	0x3dafac73	0.08577814
79	0xbe69c56c	-0.22829217
80	0x3d93f4f1	0.07224453
81	0xbd3c65cd	-0.045995522
82	0xbdca271c	-0.09870741
83	0xbeb8a23e	-0.3606128
84	0x3e49090f	0.19632362
85	0xbc9c6dda	-0.01909535
86	0xbacd3a59	-0.0015657648
87	0xbd1f6947	-0.03891876
88	0x3dbf3bd4	0.09337583
89	0xbe0cd118	-0.13751638
90	0x3dadf45e	0.08493875
91	0xbe2af00e	-0.16693136
92	0x3c753ae7	0.014967657
93	0x3bb64c05	0.0055632615
94	0x3e8d14c7	0.27554914
95	0xbdac9ffa	-0.084289506
96	0xbde79001	-0.113067634
97	0xbd85b27e	-0.06528185
98	0x3e107f5f	0.14111088
99	0xbb3c6c27	-0.0028750987
100	0x3c2ce8e3	0.010553571
101	0xbd851b05	-0.06499294
102	0xbdf0a02c	-0.117493
103	0x3d0d5fe5	0.03451528
104	0xbd4e524e	-0.05037146
105	0xbdee2c73	-0.11629572
106	0xba129484	-0.00055915886
107	0x3b644954	0.0034833746
108	0xbe473a8e	-0.1945593
109	0xbda5c5ff	-0.080944054
110	0x3d9a73c6	0.07541613
111	0xbe2f5bbd	-0.17124839
112	0x3de9559c	0.11393282
113	0xbe145bf0	-0.14488196
114	0xbcb712e3	-0.022347873
115	0xbd4eaeb2	-0.05045957
116	0xbd53a643	-0.05167223
117	0x3db00279	0.085942216
118	0x3e0ff845	0.14059551
119	0x3d7e9ed8	0.062163204
120	0x3d9df18d	0.07712088
121	0x3dd8db8c	0.1058875
122	0x3dda6a77	0.10664838
123	0xbd70e0eb	-0.05880825
124	0xbd2b44bc	-0.041813597
125	0x3dea278c	0.11433324
126	0xbcbc93f3	-0.023019766
127	0xbe6a48c6	-0.22879323
128	0x3ddcb194	0.10776058
129	0xbd8d47f4	-0.068984896
130	0x3b622061	0.0034504163
131	0x3d89e843	0.067337535
132	0x3de4ec8a	0.11177929
133	0x3e05ad2a	0.13054338
134	0x3deaa406	0.11457066
135	0x3dcf7dba	0.10131402
136	0xbde02745	-0.1094499
137	0xbd12321e	-0.035692327
138	0x3cc66ad5	0.024220863
139	0xbd4a4b30	-0.04938811
140	0x3dda304e	0.10653745
141	0x3ce64f9b	0.02811413
142	0xbcc2a5ae	-0.023760643
143	0x3d65d094	0.05610712
144	0xbe1cc477	-0.1530932
145	0xbcbb5ea2	-0.022872273
146	0xbe17dba5	-0.14829881
147	0x3e28be39	0.16478814
148	0xbcd08a2b	-0.025456509
149	0xbde11ee8	-0.10992223
150	0xbdf0851e	-0.1174414
151	0x3d5d0200	0.053956985
152	0xbdc859c1	-0.09782744
153	0xbe02a8c1	-0.12759687
154	0xbdce32c0	-0.100682735
155	0xbc50a87a	-0.01273548
156	0xbcbd44a5	-0.023104021
157	0xbdb53b12	-0.088491574
158	0x3c7ec937	0.015550903
159	0xbd8b2c77	-0.0679559
160	0xbd6645b3	-0.056218814
161	0x3cd9a200	0.026566505
162	0x3d7d2ca7	0.061810162
163	0x3e1a364e	0.15059778
164	0xbd1602af	-0.036623653
165	0x3dd64eb8	0.10464233
166	0x3d8eecc5	0.06978754
167	0x3c5ec58f	0.013596906
168	0xbda8bd9e	-0.082392916
169	0x3cc31e91	0.023818286
170	0xbdb32e61	-0.087490804
171	0xbd501874	-0.05080457
172	0xbe77e517	-0.24208485
173	0xbe5e5b08	-0.21714413
174	0xbc54c6b3	-0.012986827
175	0xbdadbd55	-0.08483378
176	0xbe640bfe	-0.222702
177	0x3e38509b	0.17999499
178	0xbe55c3b8	-0.20875442
179	0x3e6871f5	0.22699721
180	0x3dcfe50d	0.1015111
181	0x3d68e504	0.05685903
182	0xbd826da9	-0.06368572
183	0xbe24e4e6	-0.16102943
184	0x3e084c74	0.13310415
185	0x3d85acf6	0.0652713
186	0x3dda10eb	0.10647758
187	0xbcf09d52	-0.029371891
188	0xbe0de1b7	-0.13855635
189	0xbe160303	-0.14649586
190	0xbdef0b7a	-0.11672111
191	0xbe01e5a4	-0.12685257
192	0x3e3e396b	0.1857659
193	0x39a9e055	0.00032401332
194	0xbcc66556	-0.024218243
195	0x3da611ac	0.081088394
196	0xbd8171a0	-0.063205004
197	0xbd90e90e	-0.07075702
198	0x3deea27b	0.116520844
199	0xbdd1981e	-0.10234092
200	0x3b8b5f0e	0.0042532748
201	0x3d4ac868	0.04950753
202	0x3ce71396	0.028207581
203	0xbcfedc99	-0.031111049
204	0xbd608169	-0.054810915
205	0x3da0cb12	0.078512326
206	0x3cfa52fa	0.030557144
207	0xbe6a54d5	-0.22883923
208	0xbe551862	-0.20810083
209	0xbdcaf337	-0.09909671
210	0x3c80345e	0.01564997
211	0x3d18dab7	0.037317958
212	0xbe01cb72	-0.12675264
213	0x3e22c656	0.15895972
214	0xbdbdf8f8	-0.09276003
215	0xbdc9c0db	-0.098512374
216	0xbe06ee54	-0.13176852
217	0xbe67b2d7	-0.22626816
218	0xbd322990	-0.04349667
219	0x3d410f85	0.04713394
220	0xbdada789	-0.084792204
221	0x3d936e65	0.071987905
222	0x3d1a7605	0.03771021
223	0x3e6cf867	0.23141633
224	0xbd94fe94	-0.072751194
225	0x3ded1727	0.115766816
226	0x3db4211d	0.08795378
227	0xbda487e8	-0.080337346
228	0xbd507cd0	-0.05090028
229	0x3e44213b	0.19153301
230	0xbd54337d	-0.051806916
231	0x3c43e20e	0.011955751
232	0x3e0a96f9	0.13534154
233	0xbdb14902	-0.08656503
234	0xbcc76616	-0.02434067
235	0x3d793b01	0.060847286
236	0x3c0ac6fc	0.008470293
237	0x3cd5c215	0.026093522
238	0xbd237182	-0.03990317
239	0x3d42367f	0.047415253
240	0xbdc93784	-0.09825042
241	0x3d66e2f4	0.056368783
242	0x3de10fdc	0.10989353
243	0x3daff5da	0.08591814
244	0x3bdae36a	0.006679942
245	0xbd1d0a08	-0.038339645
246	0xbe08a8d1	-0.13345648
247	0x3d397cef	0.04528516
248	0x3e332938	0.17496192
249	0xbd9d92fe	-0.07694052
250	0xbe0c14ea	-0.13679853
251	0xbd8f7a34	-0.0700573
252	0x3e08e80e	0.13369772
253	0x3e2535e8	0.16133845
254	0x3d64614b	0.05575685
255	0xbd98bb5f	-0.07457613

fc2.bias f4 [7]
0	0x3e0bf9f0	0.13669562
1	0x3ccebd4c	0.025236748
2	0xbdc6b3d4	-0.09702268
3	0x3cf9ce86	0.030493986
4	0xbe01fd5d	-0.12694307
5	0x3dfb7a55	0.12279192
6	0x3d9ca38a	0.0764838

localization.0.weight f4 [8, 1, 7, 7]
0	0xbc912fdf	-0.017723022
1	0x3d1975c5	0.03746583
2	0x3c446f70	0.011989459
3	0xbc9351d0	-0.017983347
4	0xbd1a483f	-0.037666555
5	0x3cf6e10a	0.030136604
6	0xbceb5872	-0.028728697
7	0xbd063279	-0.03276298
8	0x3d81d804	0.0634003
9	0x3dbc58a7	0.091965966
10	0x3e102a46	0.14078626
11	0x3dea578f	0.11442482
12	0x3d3f1ec1	0.04666019
13	0xbd080472	-0.033207364
14	0xbc80a724	-0.015704699
15	0x3e0bf04e	0.13665888
16	0xbdb79fba	-0.08966012
17	0x3d8ab237	0.06772273
18	0x3dfedbb0	0.12444246
19	0xbd75c0ee	-0.059998445
20	0xbcebd858	-0.028789684
21	0x3d22cd17	0.03974637
22	0x3d694092	0.056946345
23	0xbdbecc40	-0.09316301
24	0xbd382a47	-0.044962194
25	0x3e2be791	0.16787554
26	0xbd73f92b	-0.059563797
27	0xbcfe9eea	-0.031081636
28	0x3d48549d	0.04890882
29	0x3e14d1f0	0.1453321
30	0x3e18ecb1	0.1493404
31	0x3cabe4d3	0.020983135
32	0x3cfe020e	0.03100684
33	0x3ddc00f7	0.107423715
34	0x3dc2b2ef	0.09506785
35	0xbdb375ee	-0.08762728
36	0x3cec585e	0.02885073
37	0x3e234e45	0.15947826
38	0xbd7f715d	-0.06236397
39	0x3d2e4892	0.042549677
40	0xbdc957e0	-0.09831214
41	0x3994ae0a	0.0002835843
42	0xbda4a6e4	-0.08039644
43	0x3c9f0b09	0.019414442
44	0x3d3a160d	0.045431186
45	0x3dd54fff	0.10415649
46	0x3cb2828e	0.021790769
47	0xbdc2b755	-0.09507624
48	0xbdf28517	-0.11841791
49	0x3e240c35	0.16020282
50	0x3d272dae	0.040815048
51	0x3cba4ef2	0.022742722
52	0x3d92e5f7	0.071727686
53	0x3c043d56	0.008071264
54	0x3d75799c	0.05993043
55	0x3d46b465	0.04851188
56	0xbca62a77	-0.02028392
57	0x3cf1d347	0.02951969
58	0x3dd38913	0.10328879
59	0x3e23c7c4	0.15994173
60	0x3e0773ad	0.1322772
61	0x3daefd32	0.08544387
62	0xbd1a6d05	-0.037701625
63	0x3dfdb865	0.12388686
64	0xbcb581b4	-0.022156574
65	0xba89e523	-0.0010520559
66	0xba3d2dab	-0.0007216583
67	0x3bcb9496	0.006212781
68	0xbd31cdd8	-0.0434092
69	0x3d9c297c	0.076251
70	0xbb2fde02	-0.0026835208
71	0x3e263b31	0.16233517
72	0x3d5f40e1	0.054505233
73	0xbc3e83a0	-0.0116280615
74	0x3e011446	0.1260539
75	0x3e26e7f7	0.16299425
76	0x3dd6ea62	0.10493924
77	0xbdb43445	-0.08799032
78	0x3e1c2b5e	0.15250918
79	0x3dd78593	0.10523524
80	0x3e186adc	0.14884514
81	0xbd95bf29	-0.073118515
82	0xbd7b6e0a	-0.06138424
83	0x3e0eb20d	0.13935108
84	0xbca6a617	-0.02034287
85	0x3e21a4ef	0.15785573
86	0x3e2fc1b2	0.17163733
87	0xbdd4e524	-0.103952676
88	0xbd3deb34	-0.046366885
89	0xbc63a029	-0.013893166
90	0x3d9fb8ff	0.07798957
91	0x3c99c06a	0.018768508
92	0xbceae9bd	-0.028675908
93	0xbd59eb6d	-0.053203035
94	0x3da1e001	0.079040535
95	0xbc2f15f0	-0.010686383
96	0x3e038f03	0.12847523
97	0xbe0b874f	-0.13625835
98	0xbd6172d6	-0.055041157
99	0x3d117f40	0.035521746
100	0xbc809c38	-0.01569949
101	0xbbcd2502	-0.006260515
102	0xbd28a2e7	-0.04117098
103	0x3c80e65a	0.01573484
104	0xbde244d9	-0.11048288
105	0x3d47f56a	0.04881803
106	0x3dd87c06	0.105705306
107	0xbd5bd915	-0.053673822
108	0xbe0bf1a2	-0.13666394
109	0x3be28aee	0.0069135344
110	0x3dc8c422	0.09803034
111	0x3d9e94d0	0.077432275
112	0x3d2b155a	0.04176841
113	0xbd8b3935	-0.06798021
114	0xbd9ceefb	-0.076627694
115	0xbdeba404	-0.11505893
116	0xbd86cfd5	-0.065826096
117	0x3d80f26c	0.06296238
118	0xbe252b65	-0.16129835
119	0x3d794c92	0.06086404
120	0xbd273ad8	-0.040827602
121	0x3d9a1c34	0.075249106
122	0xbe030e6f	-0.12798475
123	0x3cc84317	0.024446053
124	0xbd808f86	-0.06277375
125	0x3de0af96	0.1097099
126	0x3cc1a81c	0.023639731
127	0xbd2dc9c7	-0.042428758
128	0xbda9cc9a	-0.08290978
129	0x3dc3e32b	0.09564813
130	0x3dd4264d	0.10358868
131	0xbdcdd824	-0.10050991
132	0xbde2395c	-0.11046097
133	0xbe143441	-0.14473058
134	0xbd1af5b3	-0.037831973
135	0x3c1b9f08	0.009498365
136	0x3c193258	0.009350382
137	0x3d855a95	0.06511418
138	0xbe1085b6	-0.14113507
139	0xbb393aa2	-0.0028263708
140	0xbd47dd25	-0.048794884
141	0xbd5d137d	-0.053973664
142	0x3d243ef7	0.04009911
143	0x3cd36a4e	0.025807526
144	0x3d38c7e2	0.045112498
145	0xbdc1dffa	-0.09466548
146	0xbdb118f0	-0.086473346
147	0xbd60761a	-0.05480013
148	0xbb65e51d	-0.003507919
149	0x3e394177	0.18091379
150	0xbdc1a731	-0.09455717
151	0x3dd924aa	0.10602696
152	0xbb0344c8	-0.002003001
153	0xbdd53b8e	-0.1041175
154	0x3d89f0f6	0.06735413
155	0xbd8a7765	-0.06761054
156	0x3dbd445b	0.092415534
157	0xbdd00d1a	-0.10158749
158	0x3def1ef7	0.11675828
159	0x3be3a80c	0.006947523
160	0xbdb58aa1	-0.08864332
161	0x3d2bcab0	0.041941345
162	0x3e2e3ef2	0.17016199
163	0x3e410527	0.18849622
164	0xbda21f63	-0.07916143
165	0xbd9db988	-0.07701403
166	0xbd99aba0	-0.07503438
167	0x3d8011f7	0.062534265
168	0x3e452dd2	0.1925576
169	0x3d38c1e9	0.045106802
170	0x3d90ee75	0.07076732
171	0xbdee58eb	-0.116380535
172	0x3d08ebc0	0.033427954
173	0xbe0c8282	-0.1372166
174	0xbdfb0080	-0.12255955
175	0x3bab1e68	0.0052221306
176	0xbd483453	-0.048878025
177	0xbe0077e9	-0.12545742
178	0x3dfd2eaa	0.12362416
179	0x3db91d63	0.09038808
180	0x3b0afa8a	0.0021206462
181	0x3b8c0e67	0.004274178
182	0xbd1cd837	-0.038292136
183	0x3be7276f	0.0070542614
184	0xbd82ccc6	-0.06386714
185	0x3d4fcb77	0.05073115
186	0x3d09e3de	0.033664577
187	0x3b7b056f	0.00383028
188	0xbdef1438	-0.11673778
189	0x3d7e74b5	0.06212302
190	0xbdd72a2a	-0.10506089
191	0x3dc89984	0.09794906
192	0xbd6a91df	-0.05726802
193	0x3c51e917	0.012811921
194	0x3e0a3744	0.13497645
195	0x3e055f48	0.13024628
196	0xbd299486	-0.04140141
197	0x3dc8df87	0.098082595
198	0xbcd86ef6	-0.026420098
199	0x3d6e4471	0.05817074
200	0x3db8f3dc	0.090308875
201	0xbd270f58	-0.040786117
202	0x3d0d2cf5	0.034466702
203	0xba158545	-0.00057037576
204	0x3d16d94e	0.03682833
205	0x3da519a5	0.08061532
206	0xbe16ba86	-0.1471959
207	0xbe118cc4	-0.14213854
208	0xbd7621d3	-0.06009085
209	0xbd15cc13	-0.036571573
210	0xbcb0e377	-0.021592839
211	0x3d6f2155	0.058381397
212	0xbe0210cb	-0.12701719
213	0x3c948854	0.018131413
214	0xbe275e1e	-0.16344497
215	0x3d85d98e	0.06535636
216	0x3d244281	0.040102486
217	0xbd684088	-0.056702167
218	0xbdfb0c78	-0.122582376
219	0xbbcc5916	-0.006236206
220	0x3dbf7a67	0.09349518
221	0xbe2af530	-0.16695094
222	0xbe2abf35	-0.16674502
223	0xbde951cd	-0.113925554
224	0xbcf9ed71	-0.030508729
225	0x3e2c45ff	0.16823576
226	0xbd9d94f4	-0.07694426
227	0xbc4bdb04	-0.012442354
228	0xbdd56430	-0.104195
229	0xbb76d3d8	-0.003766289
230	0xbdad2167	-0.084536366
231	0x3dace1f1	0.084415324
232	0x3ae79672	0.0017668738
233	0xbd9e4ecb	-0.07729872
234	0x3d8f168e	0.06986724
235	0x3e031517	0.12801014
236	0x3e0079a8	0.12546408
237	0x3d37af0a	0.044844665
238	0xbdd6e467	-0.10492783
239	0x3d84a976	0.064776346
240	0x3b91a1cc	0.0044443365
241	0x3dd6e862	0.10493542
242	0xbe0eac78	-0.13932979
243	0xbc3a9697	-0.0113884425
244	0xbc1eef54	-0.009700615
245	0xbca19daa	-0.0197285
246	0xbe11d61f	-0.14241837
247	0x3c3c7b96	0.011504075
248	0x3d516d0c	0.051129386
249	0x3dac853e	0.084238514
250	0xbddbe458	-0.107369125
251	0xbda4cca8	-0.080468476
252	0xbdccc22a	-0.09997971
253	0x3e08c49e	0.13356254
254	0xbdc8679b	-0.09785386
255	0xbe14a3d4	-0.1451562

localization.0.bias f4 [8]
0	0xbdd7ebea	-0.10543044
1	0x3cdc192c	0.026867472
2	0x3d887454	0.06662813
3	0x3b8ebbc4	0.0043558795
4	0x3d120611	0.035650317
5	0xbdc982a0	-0.09839368
6	0x3da2cc01	0.07949067
7	0x3d836703	0.06416132
