deep_emotion-100-8-0.003.pt (torch, 274522 bytes, 24 tensors)

conv1.weight f4 [10, 1, 3, 3]
000000 82 9f 73 3e 8a 33 af be 54 11 89 be dd 2f 2a be
       0.23791316 -0.3421901 -0.26771033 -0.16619821
000010 fc 0e b6 3e c1 ee a2 be 33 52 2d 3e 62 d7 e6 3e
       0.35558307 -0.3182278 0.16925888 0.450862
000020 d1 75 63 be bc e4 6b 3c 89 94 ca bc 5e 28 a8 3e
       -0.22212912 0.014397796 -0.02472903 0.32843298
000030 8c d1 9e be 31 58 9a be 1c c6 4c be d7 94 53 bd
       -0.31019247 -0.3014541 -0.19997448 -0.051655617
000040 6e 82 81 3e 66 74 8d 3e bb 8f 6f 3e 55 67 1c 3e
       0.25294822 0.27627867 0.23394673 0.15273793
000050 89 ae 25 3e fd 8b 52 3e 95 17 15 be 3f e6 6e be
       0.16179861 0.20561214 -0.14559777 -0.2333002
000060 a9 5d da 3d a6 ec 24 3b 8f f1 32 be 33 de 18 be
       0.106623955 0.0025165468 -0.1747496 -0.14928512
000070 32 a5 d0 bd c7 fb 0e 3e ab b5 a0 3c 06 b8 29 3d
       -0.101877585 0.13963233 0.019617876 0.041435264
000080 0a d1 9e 3e d2 7b a0 bd 29 c0 aa be ed 7d 99 bd
       0.3101886 -0.07836117 -0.33349732 -0.074947216
000090 04 f0 ed 3e 25 a3 ec bd 4b c1 73 be 31 dd 4a 3e
       0.4647218 -0.11554555 -0.23804204 0.1981094
0000a0 58 9e ac be 16 43 98 3d ea 7f ee 3d c8 f4 0f 3e
       -0.33714557 0.074346706 0.116454914 0.1405822
0000b0 e3 c7 d4 be 40 fb cd be 7d 56 44 3c e4 fd a2 be
       -0.4155875 -0.4023075 0.011983511 -0.31834328
0000c0 01 41 37 be e5 db 08 be bd ee 82 3e e5 4b b6 3e
       -0.17895891 -0.13365133 0.25572768 0.35604778
0000d0 66 5a c4 3e 33 f1 49 be 33 5d 76 3e 1c ce ed bd
       0.3835022 -0.19720916 0.2405899 -0.11611578
0000e0 78 93 bc be a9 ae ee bd e5 0d bd be 15 12 03 be
       -0.3683126 -0.116544075 -0.36924663 -0.12799866
0000f0 e3 5c b4 bd 55 f1 36 3d dd 19 cc 3e c5 a2 9e be
       -0.08806779 0.044663746 0.39863482 -0.30983558
000100 af f0 b8 be bf e8 25 3e a1 2a 8d be be 05 cb 3d
       -0.36121127 0.16202067 -0.27571586 0.099132046
000110 a1 17 3d be f7 66 bc 3e 35 81 84 3e 34 9e a2 3e
       -0.18466045 0.36797306 0.25879827 0.31761324
000120 b6 94 f4 bd 52 ba 18 3e 3b 3e 55 3e 82 c7 a5 3e
       -0.11942427 0.14914826 0.2082452 0.32378775
000130 2e ed a2 be 54 fb 09 3d 16 23 b4 3e d2 79 36 3e
       -0.3182158 0.03368695 0.35183018 0.17819908
000140 69 0a 46 bf 46 2c 9a be d1 d3 a1 be b1 b0 4a 3e
       -0.77359635 -0.30111903 -0.31606916 0.19793965
000150 16 4c 7f be 16 81 b0 be eb 73 c6 bd 37 a0 4a 3e
       -0.24931368 -0.34473485 -0.09690078 0.1978768
000160 8d 93 17 3e 8b 15 ed 3d
       0.1480238 0.115763746

conv1.bias f4 [10]
000000 40 be cc bd 63 cb 15 3e d4 8c a9 bc f9 c9 a9 be
       -0.09997225 0.14628367 -0.020697035 -0.33161905
000010 93 86 2a 3e 66 64 79 3e 67 86 03 bd 03 f5 82 3e
       0.16652898 0.24354705 -0.032110598 0.25577554
000020 2c e6 d8 3d e2 ed 8f be
       0.10590777 -0.28111178

conv2.weight f4 [10, 10, 3, 3]
000000 ba 35 8c bd 12 46 9d 3d 07 15 88 be 67 56 12 be
       -0.06846185 0.076793805 -0.26578543 -0.14290772
000010 af f1 be bd 78 74 b2 bc 1a 46 4c bd 6a f0 fd bd
       -0.09323441 -0.021784052 -0.04987154 -0.12399371
000020 6d e6 57 3c 64 6d 23 be d8 99 53 be 15 9f ab 3d
       0.013177496 -0.15959698 -0.20664155 0.08379952
000030 c1 a8 13 3d af ec 68 bc 58 02 58 3e 20 c0 67 bd
       0.03604961 -0.014216586 0.21094644 -0.05657971
000040 02 da d8 3c cb 54 db 3d 19 c1 96 bc 21 22 96 3e
       0.026471142 0.10709532 -0.018402623 0.29322913
000050 da c2 df bb 2c 37 8f 3d 20 d3 16 3e ab 91 5e bd
       -0.006828648 0.06992945 0.14728975 -0.05433814
000060 61 05 28 be 26 56 5e be 4b 7d 8e bd 9e 28 8f 3d
       -0.16408302 -0.2171255 -0.069574915 0.06990169
000070 5a 05 b6 bd f8 56 9f 3b 3a 11 01 bd df 80 23 bd
       -0.088877395 0.0048626624 -0.03151057 -0.039917823
000080 d7 bf b6 3d de 6b 3d 3d 36 fe 67 3d ab 18 4d 3e
       0.08923309 0.04624545 0.05663892 0.20028941
000090 70 ed af 3d 9e 9c 08 3e 2d 66 54 3c e3 62 37 3e
       0.085902095 0.13340995 0.012963814 0.17908816
0000a0 4f b8 6c 3e f0 50 cf bc ce 55 dc 3b 0c 3e bf 3d
       0.23117183 -0.025307149 0.006724096 0.093380064
0000b0 4a 39 ce 3a d6 94 cd 3b ef e3 10 be f1 17 10 be
       0.0015733626 0.006273846 -0.1414945 -0.14071633
0000c0 ec f8 9c be ea 4b 58 be d4 38 a0 3d a7 67 59 3c
       -0.30658662 -0.21122709 0.07823339 0.013269342
0000d0 54 37 21 3e de ce 0a 3e c5 67 88 bd 1b ac ed bc
       0.15743762 0.13555476 -0.066604175 -0.02901273
0000e0 ae 61 61 bd 4f d6 af bd bd a3 0e 3e 43 2f d3 3d
       -0.055024795 -0.08585798 0.13929649 0.10311749
0000f0 2c 68 90 3e ad 5a 8d 3d 95 6a 0d bd e2 be 8e bd
       0.28204477 0.06902061 -0.034525473 -0.06970002
000100 29 33 42 be f8 4e 17 be e4 bd 96 be 70 d3 81 be
       -0.18964829 -0.14776218 -0.2944175 -0.25356627
000110 4b b0 04 3e ea 0b 8c bd 11 fc 27 3d 42 40 66 3e
       0.12957875 -0.0683821 0.041011874 0.2248545
000120 0c 69 c4 3e df ed 84 3e 5d 11 c3 bd 27 7c 8d 3d
       0.38361394 0.2596273 -0.09524796 0.06908446
000130 e8 31 ba bd cd 86 2b bd 1a 3e 0b be 8f 62 87 be
       -0.0909155 -0.041876603 -0.13597909 -0.26442382
000140 9d 48 ac bc 91 d9 09 3d 2b cb 12 3e 54 4b 88 3d
       -0.021030718 0.033654753 0.14335315 0.06654993
000150 fc b5 28 be c1 5b ea 3c 7a f5 d5 bb 43 91 1c 3e
       -0.16475672 0.028608205 -0.006529507 0.15289788
000160 c8 da cf 3d dc 46 4d 3b 9e a7 73 be cb fc c0 3d
       0.10149151 0.0031322753 -0.2379441 0.094232164
000170 6d aa 45 3e 23 7a cd be 6a 1b f9 bc 45 9d 7e 3e
       0.19303294 -0.40132245 -0.03040858 0.24864681
000180 83 0e 74 be e2 b7 61 be d3 01 91 3e 19 4b 97 3e
       -0.23833661 -0.22042802 0.28321704 0.29549482
000190 96 b3 18 3e f5 f4 f1 3c 6d 0c 5c bd 5a d6 ab bd
       0.14912257 0.02953575 -0.053722788 -0.08390494
0001a0 0a 4c a3 3d 29 52 63 be 43 b8 aa bd e1 74 1f 3e
       0.07973488 -0.2219931 -0.083359264 0.1557193
0001b0 b2 50 9b bd 7e 34 8f 3d 8e a2 1e 3e 74 f5 05 3c
       -0.07583751 0.06992434 0.15491697 0.008176196
0001c0 d6 27 ed bd c9 8f a3 3d b0 a6 0f 3d 24 a7 46 be
       -0.11579864 0.07986409 0.035071075 -0.19399697
0001d0 7d d8 90 bd 25 54 ab 3d ce fb 97 bd 98 ec 4b be
       -0.07072542 0.08365659 -0.07421075 -0.19914472
0001e0 19 ad ab bd 07 08 5c be c6 3d b9 bd 6f be b5 bd
       -0.08382625 -0.21487437 -0.090449855 -0.08874213
0001f0 0a 99 a4 3d 75 fb 08 be 3b 10 a6 bd 33 39 f5 3d
       0.080370024 -0.13377173 -0.081085645 0.119738005
000200 ef 5e 8f 3e cb 16 20 bc 43 ed 22 3d 14 b2 7a 3e
       0.28002116 -0.009771059 0.03977705 0.24481994
000210 a7 25 6a 3e 41 e8 3c bc de 21 fa 3d 24 04 a5 3d
       0.22865926 -0.011529983 0.12213491 0.080574304
000220 7f ff f2 3d a8 8b 77 bd eb bb b0 3d 10 c9 d2 3d
       0.11865138 -0.06043592 0.086295925 0.10292256
000230 2b da ea 3d 5c fb 68 be 3c 25 02 be d0 da 19 3e
       0.114673935 -0.22752136 -0.12709516 0.15024877
000240 79 93 09 be 68 28 d1 bd 0e b1 04 3e f4 5f 27 be
       -0.13435163 -0.10212785 0.12958166 -0.16345197
000250 36 40 52 3b 64 e5 95 3e d1 52 ce be f2 93 92 3d
       0.003208173 0.29276574 -0.4029756 0.071571246
000260 e4 87 e8 3e f2 ef 1a 3e df cf b7 bd 18 e2 2e 3d
       0.45416176 0.15130594 -0.08975195 0.04269609
000270 8c a8 8c 3d 62 1b 84 bc 54 cb 63 bd f2 9a 19 be
       0.06868085 -0.016126338 -0.05561383 -0.15000513
000280 ef e2 37 be db 2d dc 3c b0 30 23 3e 29 9a 14 3e
       -0.17957662 0.026877334 0.15936542 0.14511932
000290 2a d0 00 3f ac 57 18 3e e3 61 83 3d 76 66 a9 bd
       0.50317633 0.14877194 0.06415155 -0.08271496
0002a0 2f ca 1a 3e d2 ca 9e be 54 47 bd be 7c a8 11 be
       0.1511619 -0.31014115 -0.36968482 -0.14224428
0002b0 36 41 d2 3c 83 aa 53 bb 01 78 15 3e 83 c0 22 3d
       0.02566586 -0.0032297678 0.14596559 0.039734375
0002c0 28 d4 93 bd 80 96 96 be ea bb a8 be ab 4b 1e be
       -0.072182 -0.29411697 -0.32955867 -0.15458553
0002d0 de 41 35 3e 1d b6 5f 3e 09 d3 df be c3 80 e2 3d
       0.17700908 0.21846814 -0.43715695 0.110597156
0002e0 87 85 7b 3e ca 40 10 be eb 0a ea bd 75 77 b7 bd
       0.24562655 -0.14087215 -0.11427864 -0.089583315
0002f0 0d 11 00 bb 88 84 b8 3b d5 10 a5 3d d8 9b 99 3c
       -0.0019541413 0.0056310333 0.08059851 0.01875107
000300 0b b5 c1 bd 95 bb 84 3d f4 ff 0c 3e 5f 16 bf bd
       -0.09458359 0.06481091 0.13769513 -0.09330439
000310 39 7b 51 3d a4 63 9f bd ff 0f 09 3e 9b ed db 3d
       0.051142905 -0.07782677 0.13385008 0.10738679
000320 9f 10 7c 3d c3 35 ac bd 1e 33 37 be 8c 4b 35 3c
       0.06153929 -0.08408692 -0.17890593 0.011065375
000330 b7 9a ea bd 8e 9f 87 be 33 d9 13 be 20 b5 24 3d
       -0.11455291 -0.26488918 -0.14438324 0.040211797
000340 64 9c 6c 3e e7 c2 66 3e a0 bd c2 3d c8 48 e4 ba
       0.23106533 0.22535287 0.09508824 -0.001741671
000350 d2 74 50 bd c1 91 86 bd f3 54 df bc 3f a4 9f bd
       -0.05089266 -0.06570769 -0.027262187 -0.07794999
000360 e1 12 98 3e 3d df 89 3c 90 98 21 be 6b 23 3f 3e
       0.29701903 0.016830081 -0.15780854 0.18665855
000370 b9 d1 51 be 7a 5d 8c be 22 3b ad 3d cd 54 f9 bd
       -0.20490159 -0.27415067 0.08458544 -0.121743776
000380 a8 57 1e be df 8d cc 3d a6 5d 36 3e 54 74 02 3e
       -0.15463126 0.09987997 0.17809162 0.12739688
000390 47 ad 27 3c 12 95 16 3d b4 df 08 bc 11 4d 53 3e
       0.010234184 0.03676326 -0.008354116 0.20634867
0003a0 cb b5 cd 3c 61 a9 16 3d 09 d5 5d 3e e8 1e 03 3e
       0.0251111 0.036782626 0.21663298 0.12804759
0003b0 1f 10 61 bd 44 9d 53 3c c3 1a 0c 3e 16 71 05 3e
       -0.054947015 0.012915913 0.13682084 0.1303142
0003c0 9d 55 95 3d f3 db 22 3e ad b7 2b be 62 c5 87 3d
       0.0729172 0.15904216 -0.16769286 0.06629445
0003d0 03 c8 c7 3d 33 84 c5 3d 60 3f 1a 3d 67 05 e5 3d
       0.09754946 0.096443556 0.037658095 0.11182671
0003e0 c5 93 bc 3d c3 0e 83 3d bd 31 96 3d a3 d6 0a bd
       0.09207872 0.063993 0.073337056 -0.0338961
0003f0 45 95 31 be 35 20 1d 3e a3 67 5b bd fb ff ef bd
       -0.17342098 0.15344317 -0.053565633 -0.11718746

conv2.bias f4 [10]
000000 57 ff 34 3e ca ab c2 3d 69 23 1d bd 10 20 01 be
       0.1767553 0.095054224 -0.038363848 -0.12609887
000010 cf 1f 3a 3c 6f 42 16 bd 61 53 40 bd fc 74 42 3e
       0.011360123 -0.03668445 -0.046954516 0.18989938
000020 63 02 1a 3e 63 09 21 bd
       0.15039973 -0.039315592

conv3.weight f4 [10, 10, 3, 3]
000000 4e b6 e2 bd 9f 81 bc 3c fa 15 0d 3e 72 ac 40 be
       -0.11069928 0.023011027 0.13777915 -0.18815783
000010 3f c4 87 3c e4 6f 06 3e d0 be 3f be c6 e3 cc 3d
       0.01657307 0.1312862 -0.18725133 0.10004382
000020 d6 98 91 3e c3 a2 47 be 3e 89 82 3d f4 3d fa 3c
       0.28436917 -0.19495682 0.06373833 0.03054712
000030 ea 92 08 be bc 01 5e 3b 9c 48 09 3d 3a 34 c7 bc
       -0.13337293 0.0033875545 0.03351651 -0.024316896
000040 75 9b 80 3d 49 d3 08 be 40 9c 28 bc ef 20 af bc
       0.06279651 -0.13361849 -0.010291159 -0.021378009
000050 a7 25 2a be e6 9c 1b be f2 ba 67 bd fd 4b 8e bd
       -0.16615926 -0.15196571 -0.05657477 -0.06948087
000060 a8 80 72 be 45 ab 31 be f9 d2 9e 3c 30 3f 35 3d
       -0.23681891 -0.1735049 0.019387709 0.044249713
000070 3b a9 08 3d 47 4d 9e bd b3 c7 ad 3d 89 ac 90 3d
       0.033364516 -0.07729583 0.08485355 0.070641585
000080 97 66 51 3d ba 56 a7 3d ca 15 c4 3c e3 c9 b6 3d
       0.051123228 0.08170839 0.023936171 0.089252256
000090 62 c1 f2 bc f5 bf df bd cf b8 7f 3b 02 c9 2a bc
       -0.029633228 -0.10925285 0.0039020067 -0.010423901
0000a0 a2 85 33 3d 76 03 c1 bc 28 56 ac bd 19 a3 33 bc
       0.043828614 -0.02356122 -0.084148705 -0.0109641785
0000b0 05 60 bb 3d ab f2 03 be 21 69 a3 bd cd d7 9a 3c
       0.09149174 -0.12885539 -0.07979036 0.01890173
0000c0 b4 ac cd 3c 97 b2 91 3c 23 d8 9c 3d e2 f5 33 3d
       0.025106765 0.017785354 0.07658412 0.043935664
0000d0 af f7 a8 3d 0a 83 8c 3d 35 ed 82 3d 54 0d cb bd
       0.08250367 0.06860931 0.063929 -0.099146515
0000e0 27 be 2c bc 1b bb f4 bd 5d 0c 6b be 25 01 8d bd
       -0.010543383 -0.1194975 -0.22953935 -0.06884984
0000f0 2b cb 1a be da a3 27 be 75 aa 22 bd 03 81 37 be
       -0.15116565 -0.16371098 -0.03971334 -0.17920308
000100 67 9e e2 bd d6 b3 02 bd d1 a2 50 3d ee da 48 3e
       -0.11065369 -0.031909786 0.050936524 0.19614765
000110 34 be 71 3d 3c e4 25 3d f7 55 08 3e 0a ee 6a bc
       0.059019282 0.040500864 0.13314043 -0.0143389795
000120 24 80 c0 3d 61 c3 a2 bb 59 80 42 bc 20 fd 21 be
       0.09399441 -0.0049671386 -0.011871421 -0.15819216
000130 57 54 08 be df 79 00 be 2d 0c a9 3d 7e 6e 23 be
       -0.13313423 -0.1254649 0.082542755 -0.15960118
000140 2d bb 89 be 7c d3 99 bd 9d e4 78 3d 5c 9d 8e bd
       -0.26900616 -0.075110406 0.060764898 -0.06963608
000150 d5 fd 89 3d b5 5a bc 3d 9a 80 df bc 67 92 25 3d
       0.06737868 0.091969885 -0.027283002 0.040422823
000160 24 d4 25 3d ce d0 2e bd bf 10 b3 bd 3d 7a 48 3b
       0.040485516 -0.0426796 -0.087434284 0.0030590438
000170 8a 48 01 bd 85 86 3f 3d 2a 04 9a bd 89 fa 0a bd
       -0.03156332 0.046759147 -0.075203255 -0.033930335
000180 45 1b ed 3c 51 bf f9 bd d8 c0 ce 3c 06 47 08 be
       0.028943667 -0.12194694 0.02523844 -0.13308343
000190 b8 f2 94 3c 96 fc 1d bd 73 75 65 bd 01 c6 82 bd
       0.018182144 -0.038570963 -0.05602021 -0.063854225
0001a0 a4 9e 5e bd fa ec 65 bd bb 3d be bd 19 f6 29 3d
       -0.05435051 -0.0561342 -0.09289118 0.041494463
0001b0 0d 9a 0a bd a3 74 d2 b9 bc b1 2b bc 6c 6f eb bc
       -0.03383832 -0.00040141222 -0.010479387 -0.028739654
0001c0 16 55 ea 3c ad 2d 16 3d d3 a9 e2 bc e6 bc 44 bd
       0.028605025 0.036664654 -0.02766887 -0.04803171
0001d0 86 a5 2d bd 9d 3f cc bd f6 d9 31 bd 56 e6 a1 bb
       -0.042394184 -0.09973071 -0.043420754 -0.0049407883
0001e0 8a 4b 56 3d 02 eb 53 bd 3d b3 66 3d 2a ed ac 3c
       0.052318133 -0.051737793 0.05632328 0.021109182
0001f0 c0 a3 ec bd c4 97 44 ba 3b 4b 51 3c d2 18 eb 3c
       -0.1155467 -0.00074994215 0.012774284 0.028698359
000200 57 c3 cb 3b 7f e0 2c 3c 79 af 6d bd e9 8f 87 bd
       0.0062183547 0.010551571 -0.058028672 -0.066192456
000210 6b 74 93 3d 4d 60 e9 bc cd 04 1e bd 63 26 e3 bd
       0.07199939 -0.028488303 -0.038578797 -0.11091306
000220 c3 2c a0 3c ac e4 f3 bd 6e 0f 2a 3d 32 2c e9 3c
       0.019552594 -0.1190885 0.04151862 0.028463457
000230 cb 0d a6 3d 3b 86 e8 3d eb 7a 80 3c 1b e5 e6 3d
       0.081080996 0.113537274 0.015683612 0.11274167
000240 93 67 cb bd 5e 3f d5 bd 8b ba bd bd a6 68 33 3d
       -0.099318646 -0.10412477 -0.09264096 0.043800972
000250 07 98 64 bd 45 a1 89 bc dd 86 93 bd 1b f6 bd 3d
       -0.055809047 -0.016800532 -0.072034575 0.092754565
000260 a5 98 5d 3c d9 51 43 3c 18 d3 7b bd 52 40 dd bd
       0.013525163 0.0119213695 -0.06148061 -0.10803284
000270 de 0a c9 bd e4 bc dd 3c c8 73 be bc 47 4a 39 bd
       -0.09816526 0.02706761 -0.023248568 -0.045236852
000280 27 ae c2 3c 54 58 be bd 8d f4 c5 3c 0f f2 d3 bd
       0.023764683 -0.09294191 0.024164462 -0.103489034
000290 64 3f ba bd 61 2f 52 bd 9f e7 ce bd c0 47 dd bd
       -0.09094122 -0.051314715 -0.10102772 -0.10804701
0002a0 8b 45 6f 3c 5f d3 6d 3d 79 01 e9 bc 03 31 fd bd
       0.014603983 0.058062907 -0.028443085 -0.12362864
0002b0 48 ab 74 3c b1 f7 c3 bd 2b f5 56 bd 88 f3 08 bd
       0.014933415 -0.09568728 -0.052479904 -0.033435374
0002c0 a4 3a ca bd be f4 7c bd 6f d8 8b bd 16 83 f2 3c
       -0.09874466 -0.06175684 -0.06828391 0.029603522
0002d0 36 40 59 bd 6d a0 0e be 03 4c b9 bd a8 7d 69 3d
       -0.053039752 -0.13928385 -0.09047701 0.0570046
0002e0 cc df 8f bd d1 83 b2 bd 45 ab d8 bc 56 a6 c4 bd
       -0.07025108 -0.08716548 -0.026448855 -0.096020386
0002f0 45 6a e3 3b b4 39 a7 bc d4 8d 7d bd 6c 4c 52 bb
       0.0069401585 -0.020413257 -0.061902836 -0.0032089008
000300 5c 61 f4 bc 6f 6e a4 bd 05 96 9b bd b7 1b 18 be
       -0.02983158 -0.08028876 -0.07596973 -0.14854322
000310 f3 e6 e4 bc 8f 1c 0e be 54 c8 84 3c e9 57 c2 bd
       -0.027942156 -0.13878082 0.016208805 -0.09489424
000320 67 74 d4 bd 21 a1 56 bd 52 7a 82 bd 11 c5 c5 bd
       -0.103737645 -0.05239976 -0.06370987 -0.09656728
000330 ee 17 4d bd 23 f7 c1 ba 90 d6 55 bc 48 fc 28 3c
       -0.05007165 -0.0014798384 -0.013051644 0.010314055
000340 fa 59 12 3d f2 af 76 3d a8 95 3b 3c e0 89 71 bb
       0.03573034 0.06022639 0.011449255 -0.0036855862
000350 c0 e2 da 3a 2c a8 ef 3c e2 b1 60 3d 3b 8b d5 bd
       0.0016699657 0.029254995 0.054857142 -0.10426947
000360 dc 6c c2 bc 90 d1 9a bc dc ee 66 bd a8 e4 a1 bc
       -0.023733549 -0.018898755 -0.056380138 -0.019762352
000370 0a ed 06 3d a9 73 97 bd 64 82 d4 3c 47 59 82 3d
       0.0329409 -0.07395107 0.025941081 0.063646846
000380 2b 1a ad 3d e4 9d af bc b2 32 7a 3d 25 83 9c bd
       0.08452257 -0.021437593 0.061083503 -0.07642201
000390 f2 57 73 3c 0b 71 06 3d 38 72 c5 bd 5d e3 8c 3d
       0.014852511 0.03282265 -0.09640926 0.068793036
0003a0 7a ec 9d 3c fd b0 06 3b da e3 b8 bc 4c 30 7e bd
       0.0192778 0.002055227 -0.022569586 -0.06205778
0003b0 78 9b e1 bc 43 8f 40 3c 1c d2 f8 3c 53 c9 8f 3d
       -0.027539954 0.011752906 0.030373625 0.070208214
0003c0 5d 3e 53 3b 0b 81 8f bd 54 f9 7e 3c 24 5d 84 bd
       0.0032233216 -0.07007035 0.015562374 -0.06463078
0003d0 6e 40 82 3d e9 4f 93 bd 58 30 6b bd 19 5b 53 bc
       0.06359945 -0.07192976 -0.05741915 -0.012900137
0003e0 06 00 2a 3c 64 e7 2a bd 6f 22 11 be 17 d2 d2 bd
       0.010375982 -0.041724578 -0.14173292 -0.10293978
0003f0 28 27 5c 3d ed a7 95 bd 5e d5 63 bd 8f c6 0d bd
       0.05374828 -0.0730742 -0.055623405 -0.03461319

conv3.bias f4 [10]
000000 79 33 97 bd 11 7a 13 3d 9f b4 f5 bd 39 24 d4 bd
       -0.073828645 0.036005083 -0.11997341 -0.103584714
000010 21 11 aa bd 69 12 df bd 33 86 e6 3e 0a db 29 be
       -0.08304048 -0.10892183 0.4502426 -0.16587463
000020 1e 1e 9a 3e 5f f7 0b be
       0.30101103 -0.13668583

conv4.weight f4 [10, 10, 3, 3]
000000 2b ef a6 bd a6 65 ca bc 47 30 cf 3c 50 34 af 3d
       -0.081510864 -0.024706673 0.025291575 0.085549
000010 fd 54 bf 3d 29 33 ac 3e 9a bf f5 3c 11 57 0a 3d
       0.09342382 0.33632782 0.02999859 0.03377444
000020 6f dd 1a 3e c2 0e 9a bc 20 fd 3a bd 78 84 3c bd
       0.15123533 -0.018805865 -0.045651555 -0.04602477
000030 1f c0 76 3d 99 74 85 3d 15 67 90 3d ab 9b 9c 3d
       0.060241815 0.0651638 0.07050911 0.07646879
000040 bb 81 8a 3d 97 d7 4b 3d e7 5b 18 bd 5a 50 e4 3d
       0.067630254 0.04976615 -0.03719702 0.11148138
000050 32 02 d7 3d b0 c7 39 3d 26 0c 0b 3d 3d 7f 18 bd
       0.104984656 0.045356452 0.033947133 -0.03723072
000060 b5 23 1f 3d a4 3c f2 bd f7 2e bb 3d 33 6e 3b 3d
       0.038852412 -0.118279725 0.09139817 0.04575939
000070 3a 41 92 3d 2a 82 9f bd a3 50 ce bc 0a 9b 7a 3d
       0.07141347 -0.07788499 -0.025184935 0.061183013
000080 27 07 3c bc ca 88 4d 3d 32 04 85 3d c5 bd 3b bd
       -0.011476315 0.05017928 0.06494941 -0.045835275
000090 ae c7 f6 3d d1 04 f0 3c 8a 60 a5 3d 4b 0a d8 3b
       0.12049805 0.029299172 0.08075054 0.006593024
0000a0 d7 10 1a ba df bf 9b 3d 60 d9 55 bd ff 46 ad 3d
       -0.0005877143 0.07604956 -0.052209258 0.08460807
0000b0 b5 13 03 3e 31 d2 d1 3b 1c c2 e3 3d af a0 f5 3c
       0.12800486 0.0064032306 0.11121008 0.029983846
0000c0 a8 68 1b 3c 81 56 81 3d 07 58 a6 bd fe af e8 bd
       0.009485401 0.063153274 -0.08122259 -0.11361693
0000d0 08 5e bd 3d d1 36 84 3d fc 9a 83 3e 61 ea 5b 3d
       0.09246451 0.06455768 0.2570418 0.053690318
0000e0 b6 f3 03 be a0 55 85 be ef a2 a1 be b2 5e f8 bd
       -0.12885937 -0.2604189 -0.3156962 -0.12127437
0000f0 18 78 a2 be f8 1f e2 bd 01 3c 53 3d a5 24 b1 bd
       -0.3173225 -0.11041254 0.051570896 -0.086495675
000100 6e 72 5b 3d 66 ac 18 3e d6 3d 63 3e 25 dd 3c 3e
       0.053575926 0.14909515 0.22191557 0.18443735
000110 1d f6 ad 3d b8 fe f9 3d 05 c3 3a 3d df c8 a3 3c
       0.08494208 0.12206787 0.04559614 0.019993244
000120 9e 4c c9 3d 38 3e 15 be 64 57 b4 bd 42 3a c9 bd
       0.09829067 -0.14574516 -0.08805731 -0.09825565
000130 9e ef 3f be f9 28 b5 3d 1a 37 90 3b 5e d9 b9 3c
       -0.1874375 0.088457055 0.0044011 0.022686657
000140 c5 f5 82 3e 46 65 42 3d 06 ae 13 3e 63 33 92 bd
       0.25578132 0.047459863 0.14421853 -0.071387075
000150 76 51 8d 3d 2a 9d 1e bd fa 8a b7 bd 91 c5 19 3d
       0.06900303 -0.038724102 -0.089620546 0.03754193
000160 59 b9 f6 bc f2 0d 3c bd 13 60 a8 bd 80 ea f4 bd
       -0.030117678 -0.045911737 -0.0822145 -0.1195879
000170 b0 2a 78 be a4 73 08 be da 18 32 3e bb e1 c2 bd
       -0.24235034 -0.13325363 0.17392293 -0.09515711
000180 3f c9 6c bd 93 39 f0 3c e4 5d f7 bc 4e 5c b2 bc
       -0.05780911 0.029324329 -0.030196138 -0.02177253
000190 b0 aa 3f bd be f0 61 bd b4 52 13 3d 71 c7 cc 3d
       -0.04679364 -0.05516123 0.035967544 0.09998978
0001a0 13 89 cd 3a 67 dc 0a 3d 53 0f 64 bc c3 c6 94 3d
       0.001568111 0.0339016 -0.013919669 0.07264473
0001b0 0b e2 3a 3d 4e 53 50 bd d0 dc 88 3d b6 32 73 bb
       0.045625728 -0.050860696 0.06682742 -0.0037109083
0001c0 60 78 59 3d be ec 9d 3d 3e be 0f be 1e 86 dd 3d
       0.053093314 0.077111706 -0.14037415 0.108165964
0001d0 f7 96 64 bd e1 35 ec bd 97 85 4d bc 42 cd e3 bc
       -0.055808034 -0.11533714 -0.012544057 -0.027807835
0001e0 2e f1 fc bd 92 7a 84 3c 65 48 87 3d 7a 55 34 3d
       -0.12350689 0.016171727 0.06605605 0.04402683
0001f0 28 78 b8 bd b9 46 94 bd 24 3e e1 bd 2f 61 75 3d
       -0.09007293 -0.07240052 -0.109981805 0.059907135
000200 80 5b 0b be bb 47 96 3d 64 d4 af 3d 12 2a a4 bd
       -0.13609123 0.073379 0.08585432 -0.08015837
000210 0a f3 3d 3d 37 b6 d0 3c 6e 5b cf bc 46 16 b7 3d
       0.04637436 0.025477512 -0.025312152 0.08939795
000220 8b cb da bd ed 4d 11 be ee 1b 49 bd 07 69 07 3e
       -0.10683354 -0.14189883 -0.0490989 0.13223659
000230 30 7f e0 bc 5f 31 d4 bd 5b 66 6a bc 6b 58 ac 3d
       -0.027404398 -0.10360979 -0.01430663 0.08415302
000240 62 43 cf 3d 51 b2 4d 3e 7c 76 77 bb c7 6d 0f 3d
       0.10120274 0.20087554 -0.0037759831 0.0350168
000250 55 aa 77 bc ae 7a 76 3e ec 8d bb bd c1 65 04 be
       -0.015116294 0.24070236 -0.09157929 -0.12929441
000260 02 2e ca 3e e6 f5 11 3e 56 f6 a5 3d ba e1 97 bc
       0.39488226 0.14253959 0.081036255 -0.018540252
000270 70 94 d9 3c 4f a7 8a 3c 54 cf b2 bd 8d 6b a8 bd
       0.026560038 0.016925482 -0.08730951 -0.08223639
000280 f9 7c bc bd 76 80 96 3e b3 76 a0 3c f3 32 4c 3e
       -0.09203524 0.29394883 0.01958785 0.1994131
000290 a7 e2 09 3d d9 99 1b be db a1 db bd d6 d5 5d bd
       0.03366342 -0.15195407 -0.10724231 -0.054159008
0002a0 29 ef 67 be 98 5c 85 bd 9a b5 b2 3d 33 5d 75 3c
       -0.22649826 -0.065118015 0.08726044 0.014975834
0002b0 f4 3d 31 bd c6 1e e5 ba c2 b4 a6 3d 68 5b 15 3e
       -0.043271974 -0.0017480485 0.081399456 0.1458565
0002c0 ff 62 28 3b cf a2 a5 3d 09 42 09 bb 40 08 9e 3d
       0.0025693772 0.08087694 -0.00209439 0.07716417
0002d0 53 bc bf bc eb d4 42 3d 30 3c 82 3d 10 e4 a9 bd
       -0.02340523 0.047566336 0.06359136 -0.082954526
0002e0 61 34 fa bd 24 6d d1 3c b4 3a 2a 3e ea a8 6d 3d
       -0.12217022 0.025564738 0.16623956 0.058022417
0002f0 03 0a 24 be 05 de 5c bd b5 09 71 3d 23 8c 85 bd
       -0.16019444 -0.05392267 0.058847148 -0.065208696
000300 9c 73 28 bd ae 14 5c 3d b6 07 81 3d 62 09 6b 3d
       -0.04112588 0.05373066 0.06300299 0.057381995
000310 05 aa e9 3d 87 dd be 3d 41 e2 c2 3d 8e e5 d3 3d
       0.11409382 0.09319597 0.09515811 0.103465185
000320 08 4e c9 3d 03 a6 ff 3d 5b 1f 1b bd c9 ae fe 3d
       0.098293364 0.12482836 -0.0378717 0.124356814
000330 8c 05 dd 3d 38 27 24 bd 4d 76 5d bb f0 c8 a7 bc
       0.107920736 -0.040076464 -0.0033792437 -0.020481557
000340 92 fb 24 3d 0b 35 bc bc 5b 48 5f bd e6 3f 83 bb
       0.04027898 -0.022974512 -0.054512363 -0.00400542
000350 55 d6 9c 3b c4 02 cc bd 2f 82 d5 3c 1f dd f7 bd
       0.0047862926 -0.09961465 0.026063053 -0.121027224
000360 48 52 66 bd 0a 59 1a 3d 96 6b ba 3d a6 08 bd bb
       -0.056230813 0.03768257 0.09102552 -0.0057688532
000370 a0 3d 04 be 59 43 fb 3d b8 dd 4d 3d c8 42 ec 3d
       -0.12914133 0.12268705 0.050260276 0.11536175
000380 4a 69 da 3b d7 4c 41 3d c9 ba c1 3d 5f 1c 88 3d
       0.0066653835 0.04719242 0.094594546 0.06646036
000390 d7 25 9a 3d 67 fc 50 be 35 25 9a bc 37 d7 81 bd
       0.075267486 -0.20408784 -0.01881657 -0.06339877
0003a0 0f 83 bf bd f8 e5 17 3d 2d e4 31 bd b2 0f ab be
       -0.09351169 0.03708455 -0.043430496 -0.33410412
0003b0 65 41 ef bb df 55 cc be e4 e6 eb be e9 d7 de bd
       -0.007301497 -0.39909264 -0.46074593 -0.10881025
0003c0 e6 49 83 bd 94 f7 95 be 78 01 05 be 63 b3 3c 3e
       -0.064105794 -0.2929045 -0.12988842 0.18427806
0003d0 70 cb 0d 3e 31 e4 ab 3d fa 46 5b 3e fa 37 2d 3e
       0.13847136 0.083931334 0.21413794 0.16915885
0003e0 fb 9d d0 bc 7e 12 97 3e 01 c2 03 be ae 6f b9 bd
       -0.025465956 0.29506296 -0.12866975 -0.09054504
0003f0 d9 73 92 bd 87 c1 dd bd ba 4b be bc 43 7a 97 be
       -0.071510024 -0.10827928 -0.023229469 -0.29585466

conv4.bias f4 [10]
000000 72 1c 5a 3e b8 3c ee bd 7e d1 b6 b9 f5 71 d3 3c
       0.21299914 -0.11632675 -0.0003486983 0.025811175
000010 a6 26 98 3c 34 d4 db bd 66 22 37 be b7 3f 3f 3d
       0.018573117 -0.10733834 -0.17884216 0.046691623
000020 76 64 8e bd d1 b0 a2 3d
       -0.06952755 0.07943881

norm.weight f4 [10]
000000 02 22 85 3f c4 cf 84 3f 0f d2 73 3f 9a 5e 83 3f
       1.0401003 1.0375905 0.952424 1.0263245
000010 47 6e 8d 3f 60 12 8d 3f f6 05 83 3f 8e d9 8e 3f
       1.1049279 1.1021233 1.0236194 1.1160142
000020 84 a9 95 3f 92 99 8e 3f
       1.1692357 1.1140616

norm.bias f4 [10]
000000 f6 be ef be e5 71 bf be 3d fd d3 be 93 d7 08 bf
       -0.4682538 -0.37391582 -0.41404143 -0.5345394
000010 43 6c 08 bf 36 2b e3 be 41 41 d4 be 50 b2 f7 be
       -0.53290194 -0.44368905 -0.41456035 -0.4837823
000020 29 b7 d0 be 12 19 e7 be
       -0.4076474 -0.45136315

norm.running_mean f4 [10]
000000 a3 bc 48 be f3 3d a2 3e 29 15 a4 bf 50 c2 93 bf
       -0.19603209 0.31687889 -1.2818958 -1.1543674
000010 b3 de fe bd 37 5f de 3d 14 b9 44 3e c5 31 00 3f
       -0.1244482 0.108580045 0.19211227 0.5007594
000020 31 e4 2e be 64 df 17 3f
       -0.17079236 0.5932524

norm.running_var f4 [10]
000000 10 3c 0a 3e 9a c4 18 3e 18 a6 85 3e 27 6f 57 3e
       0.13499475 0.14918748 0.26103282 0.21038495
000010 bf ed 72 3e 2f 3e 70 3e b7 a0 a9 3e 2c 55 a0 3e
       0.23723505 0.23461221 0.33130428 0.3131498
000020 8d 33 a8 3e 3f 2a a6 3e
       0.3285183 0.32454106

fc1.weight f4 [50, 810]
000000 9d 87 3a be 65 36 80 3d b1 fc 76 3e b8 28 9f 3e
       -0.18215795 0.06260375 0.24119832 0.31085753
000010 10 9d b6 3d a3 f3 02 be 21 ab da 3b aa ff 2b be
       0.08916676 -0.12788253 0.006673232 -0.16796747
000020 28 84 29 bc 7b 49 56 3d d6 44 84 3e 06 79 14 3e
       -0.01034645 0.05231617 0.25833768 0.14499292
000030 1d 64 7e bd f2 bf cd be fb a2 09 bd cd fa ef bd
       -0.062107194 -0.40185505 -0.033602696 -0.11717758
000040 9a 4c 91 bd c2 c7 af bc 8b 51 95 3d f9 7a e3 3c
       -0.07094689 -0.021457557 0.07290944 0.027768599
000050 7c d4 33 3e 18 20 02 3e 9e 52 f9 bd 2c 7f f0 bd
       0.17561525 0.12707555 -0.12173961 -0.11743006
000060 2b 56 da 3d cd 89 b2 bd 38 1c 31 3d 93 af ca bd
       0.106609665 -0.0871769 0.043239802 -0.098967694
000070 89 d1 10 be 63 10 4c bd b1 17 ac 3c 68 54 3a 3e
       -0.14142431 -0.049820315 0.02100739 0.18196261
000080 83 d5 03 be 24 8c 44 be 16 cb 96 3e 7a e6 93 3c
       -0.12874417 -0.19194084 0.29451817 0.018054236
000090 bb b9 7e 3c ae e7 13 be a8 96 bc 3c d0 50 70 3b
       0.015547211 -0.14443848 0.023021057 0.0036669262
0000a0 a1 80 a4 3d 0c 68 d2 3c 3b 8c 05 be 12 81 06 3e
       0.080323465 0.025684379 -0.13041775 0.13135174
0000b0 fb e5 3b 3e 8a be a0 bc 4c 8c 85 bd 8f ee 9b bd
       0.1834945 -0.019622106 -0.065209 -0.07613861
0000c0 a3 42 46 3d c0 a3 6e bb f0 ad 64 bd e3 bf e5 bd
       0.048403393 -0.003641352 -0.055829942 -0.1121824
0000d0 e6 ce f0 bd 71 4e fa bd a6 a2 34 3d 70 0e 7e 3d
       -0.11758213 -0.12221993 0.044100426 0.062025487
0000e0 e6 1b 02 3d f4 99 5a 3e 8d 15 7e bd 62 84 88 be
       0.031764887 0.21347791 -0.06203227 -0.266635
0000f0 d9 77 5d be e0 7b 43 be f6 28 32 3d 71 fa 63 bc
       -0.2162775 -0.19090223 0.043496095 -0.01391469
000100 24 c5 a5 bb 0d 9e e6 3d be c6 4a bd 37 8a a8 3c
       -0.0050589014 0.112606145 -0.04950594 0.020573718
000110 22 b8 ad bd 3a 2b 3c 3d 0f 16 7f 3d 84 54 9e bb
       -0.08482386 0.04593966 0.062276896 -0.0048318524
000120 b2 08 87 bd f5 69 2d 3e 66 c6 c8 bd 8a 5e 25 3e
       -0.065934554 0.1693495 -0.098034665 0.16149345
000130 19 c8 8c 3e 4d 7e 61 3d 51 38 0b be a2 1b 00 be
       0.27496412 0.05505209 -0.13595702 -0.12510541
000140 62 34 ed 3c 94 06 0a 3d 59 3c 94 3c 7a dc 68 bd
       0.028955642 0.03369768 0.018095182 -0.056850888
000150 5a 6f 07 3b a1 cd 53 be 8f b4 56 bd 25 c4 03 be
       0.0020665736 -0.2068391 -0.052418288 -0.12867792
000160 2e d1 50 3e 24 61 fe 3c df e9 b1 3d c0 55 58 be
       0.20392296 0.03105218 0.086871855 -0.21126461
000170 10 1a e4 bd 81 bc 36 bc 06 6c 1e bd 9e cf 3e bc
       -0.111377835 -0.011153341 -0.038677238 -0.0116461795
000180 73 dd 28 be 7c c7 23 bd a6 cc bb ba 6e 0c 98 3d
       -0.16490726 -0.039985165 -0.0014327958 0.07424246
000190 0e 9e 42 3e 67 f0 46 3e d3 61 ec 3d 5e 3b f5 ba
       0.19005606 0.19427644 0.11542096 -0.0018709709
0001a0 94 63 d2 3d a7 c9 4c bd 6b 22 c1 3d 84 4c c8 bb
       0.10272899 -0.049997 0.09430393 -0.006112637
0001b0 04 ec b6 3d bc ea 21 3d bf fb 2e 3d 7b f4 96 3d
       0.08931735 0.0395305 0.042720553 0.0737085
0001c0 f4 95 d0 3c b4 8c 11 bd 35 79 5a 3d 2d 9a 04 bc
       0.025462128 -0.035534576 0.05333825 -0.008093399
0001d0 94 59 eb 3d 35 ef 1a 3e c5 e5 18 3e 60 1d 46 3e
       0.11491695 0.15130313 0.149314 0.19347143
0001e0 02 8f 1c 3e 20 36 6f bb e6 a5 04 3e 2f 22 86 be
       0.15288928 -0.0036500767 0.1295391 -0.26197955
0001f0 12 4b f8 bc 75 5f bb 3d 18 89 17 bd a3 82 c3 bb
       -0.030309234 0.09149066 -0.036995977 -0.005966501
000200 2b f4 33 bd ee 52 4b 3e 5b db 84 be e4 b8 01 be
       -0.04393403 0.19855854 -0.25948605 -0.12668186
000210 7f cc 8c 3d 8f f4 53 bd be 16 3d 3e 44 4a 02 be
       0.06874942 -0.0517469 0.18465707 -0.12723643
000220 02 74 58 be 52 cd 38 3d 1d 6e d5 3d c1 2d fa bc
       -0.21138003 0.045117684 0.10421393 -0.030539395
000230 cd 52 39 bb bf 32 04 3e 4b 45 07 3d 83 92 0e 3d
       -0.0028278113 0.12909983 0.033025067 0.034807693
000240 5f 5e 2f 3e 0a 1f 06 be 19 5d 13 bd 45 f2 cf bd
       0.17125843 -0.13097778 -0.035977457 -0.10153631
000250 79 ff f7 bd 0b d6 9e be a2 8d d5 bd d4 8c 16 be
       -0.121092744 -0.31022677 -0.10427405 -0.14702159
000260 5d 37 1e be b9 2d 02 3c 8f ca 06 be 6a 3c e5 bd
       -0.15450807 0.007945471 -0.13163207 -0.11193164
000270 cc 94 9d 3d 7c 4d 9d 3c 18 55 db bd 05 ee 08 bc
       0.076943964 0.019201986 -0.1070959 -0.0083575295
000280 2b 3a 38 bd 29 e9 2f bd d8 85 26 bd 00 aa 0d be
       -0.04497735 -0.04294697 -0.040654987 -0.13834381
000290 22 1c 02 be 45 f8 8e 3d cf 7d 86 3d 9f bb 30 bc
       -0.12706044 0.069809474 0.06566965 -0.01078692
0002a0 a2 e2 bf 3d 7f 1e 21 bd 5f 86 cf 3d f6 8d 02 3c
       0.09369399 -0.039335724 0.10133051 0.007968416
0002b0 15 33 ad 3d 2d 22 11 3e ac b0 4d 3c 8a fe 0c be
       0.08457009 0.14173193 0.012554329 -0.13768974
0002c0 46 79 1e be ff 6a 1b be 73 10 08 be 2e 65 7b 3e
       -0.1547595 -0.15177535 -0.13287525 0.24550316
0002d0 27 05 9c 3d 0a 37 03 3d 90 1c 30 3c 84 93 98 bd
       0.0761817 0.03203491 0.010748997 -0.074500114
0002e0 6d d9 d0 3d 3c 1e 2a be 6d 2f f3 bd 9c cc 6c bc
       0.10197721 -0.16613096 -0.1187428 -0.01445308
0002f0 57 c7 61 3d 5a d9 69 bd 51 a0 c8 bc 20 07 eb 3d
       0.055121746 -0.05709205 -0.024490507 0.11475968
000300 1c ee c4 3d 3a 4f 3e 3e d7 ad 94 bd 73 b1 ea 3d
       0.09615728 0.1858491 -0.0725972 0.11459627
000310 fd c5 26 3e 47 e2 49 be 67 e4 f0 3d 60 69 27 be
       0.16286464 -0.19715224 0.11762314 -0.16348791
000320 48 c1 fd 3c 4a 69 fc bd d9 e9 0a bd 98 3c 7d bc
       0.030975953 -0.1232477 -0.03391442 -0.015456341
000330 f9 17 60 3d bc 0e 9c 3d 7c 9e 8b 3d 47 ff f4 3d
       0.054710362 0.07619998 0.06817338 0.11962753
000340 09 44 a4 bc a7 2d 24 3d d2 89 4f 3d 49 29 42 3d
       -0.020051973 0.0400826 0.050668545 0.047402654
000350 5e 4a 2b 3e cc 0e bb bd 40 b0 b9 bd 2d df 0a 3c
       0.16727588 -0.09133682 -0.0906682 0.008476061
000360 d6 b6 98 3d 20 66 99 bb 19 39 ca 3d 62 1e 07 3e
       0.07456748 -0.0046813637 0.09874172 0.13195184
000370 9d 6b 63 3c eb ac 0f be 35 ce 86 be c2 dd da bd
       0.0138806375 -0.14030807 -0.26329198 -0.10686828
000380 f1 13 27 be c5 eb 25 3e 7a 8c 87 3e fe fc 38 3e
       -0.16316201 0.1620322 0.26474363 0.18065259
000390 96 9c 07 bd a4 d2 d9 bd c4 70 9a 3d 74 3c 56 3e
       -0.033108316 -0.1063588 0.075410396 0.20921499
0003a0 65 a7 ca 3d 10 29 d2 bc c6 34 b5 3e ed 6a 91 3e
       0.09895209 -0.025654346 0.35391825 0.2840189
0003b0 a5 f5 08 3e 7d 98 ab 3e 91 a9 fe 3d a7 a5 bc bd
       0.13374956 0.33514777 0.12434686 -0.09211283
0003c0 16 6c df bc ba 84 13 3d 92 cf b1 3e a8 23 7b bd
       -0.02727322 0.03601525 0.34728676 -0.0613133
0003d0 c4 ce e4 3d c8 03 a4 3d 44 38 14 3d 5c 16 8f 3d
       0.1117225 0.08008534 0.03618647 0.069866866
0003e0 2a cd 0d 3e 90 97 b5 3d 9e ae 81 3d 64 1e 0a 3d
       0.13847795 0.08866799 0.06332134 0.03372039
0003f0 52 1d e5 bd 9f a5 b5 3d c1 0b 9d bc 25 25 9a be
       -0.11187233 0.0886948 -0.019170644 -0.30106464

fc1.bias f4 [50]
000000 2e c2 a1 3e 2c 9a e7 bd 24 b7 92 bb 2f ff df 3e
       0.3159346 -0.11308703 -0.0044773985 0.43749377
000010 30 1b ab 3c 5e 56 f3 bd cc f7 7c bd b9 cf 25 bd
       0.020886987 -0.118817076 -0.061759755 -0.040481303
000020 77 f1 f0 3b 5a 52 0d bd 18 17 54 bd 79 71 1c bd
       0.0073530036 -0.034502365 -0.051779836 -0.038194153
000030 60 c8 ba bc 87 9c ae 3e ba f0 9e bc d4 73 68 3c
       -0.022800624 0.34103796 -0.019401897 0.014187772
000040 62 ed 0c be f1 e4 95 bd ac ac 14 bd c6 bb 7e bd
       -0.1376243 -0.07319058 -0.036297485 -0.062190793
000050 a6 fe 89 bd a8 09 2b bd 71 3c 8a bc 26 2b 95 3c
       -0.067380235 -0.041757256 -0.016874524 0.018209051
000060 6f 77 fb 3b 61 12 b1 bd 1f 4f 87 bd ba 61 4a bd
       0.0076741497 -0.086460836 -0.06606888 -0.049409606
000070 6a 9b ca 3b 16 1a 39 bd 2b 78 14 bd 32 b8 ea bc
       0.0061830776 -0.045190893 -0.036247414 -0.028652284
000080 a7 87 c9 bb 81 d0 87 3b 71 96 72 3b f6 19 18 bd
       -0.006150204 0.0041447286 0.003701594 -0.037134133
000090 e2 2c 43 bd 5c 16 b3 bb b7 63 ed bb 09 fa d4 bc
       -0.047650225 -0.005465312 -0.007244553 -0.025998132
0000a0 5b 66 41 3e 32 8a 6f 3b f6 f1 01 bd c1 73 41 bd
       0.18886702 0.0036550877 -0.031724893 -0.047229532
0000b0 37 9b 18 be 94 bd 22 bd 3b 79 b9 bd a0 c3 45 bd
       -0.1490296 -0.039731577 -0.09056326 -0.048282266
0000c0 ed da a2 bd b9 fa 1d bd
       -0.07951913 -0.038569186

fc2.weight f4 [7, 50]
000000 02 70 64 bd 5b 87 88 3d 59 ad 70 bd ad 53 df 3d
       -0.05577088 0.06666442 -0.058759067 0.10904632
000010 21 dd 8b 3e bc 67 03 bd 9e 79 d2 bc 36 99 b7 be
       0.27317145 -0.03208135 -0.025692757 -0.35859078
000020 d7 22 10 3e 7d 14 f0 bd 5b e3 71 3d 2c 09 4e bd
       0.1407579 -0.11722658 0.059054714 -0.050301716
000030 6e 6e 89 bd 96 ff a2 3d a2 b5 b4 3d 80 8c 51 bc
       -0.06710516 0.079589054 0.08823706 -0.0127898455
000040 63 71 cb bd 93 69 19 3e c6 8e 61 bd 9e 83 71 bc
       -0.09933736 0.1498168 -0.0550678 -0.014740853
000050 1e 7a 93 3d 1f 9a aa be be af a3 be 2b ed ca 3d
       0.072010264 -0.3332071 -0.31970018 0.099085175
000060 2d 6d 11 be 50 2b 56 3d 88 e8 fb bc 66 17 c6 bc
       -0.14201804 0.0522874 -0.030750528 -0.02418108
000070 d5 2b c8 bc 8b a4 a4 bd 6c 27 8c 3d 2d ec c4 bd
       -0.024434963 -0.080391966 0.068434566 -0.096153595
000080 15 63 31 bc 52 04 a1 bc ca 6c 93 3d 20 1d 9a 3d
       -0.010826846 -0.01965538 0.07198484 0.075250864
000090 fa 5b 18 be c1 4e e2 3c 4a c2 72 bd a7 ee 95 bd
       -0.14878836 0.027625443 -0.05926732 -0.0732091
0000a0 ae 9b 89 bd fb ce f1 bd bc 5a 05 be 0f 7f 6c 3d
       -0.06719147 -0.118070565 -0.13022894 0.05773836
0000b0 71 a3 7c 3d 86 62 da 3d de e9 5f bc 4d 8e 17 3d
       0.061679307 0.10663323 -0.013666598 0.037000943
0000c0 62 c7 a6 3d 94 5a e8 bd da 8d 98 3e de 55 a6 be
       0.08143498 -0.113454014 0.29795724 -0.32487386
0000d0 50 f3 f1 3b a7 ea b0 3e 3b de 96 be f0 9b c2 be
       0.0073837414 0.34554026 -0.29466423 -0.38009596
0000e0 1e 40 90 bd bf 78 d2 3d ac ee 00 3d 90 a2 19 be
       -0.070434794 0.10276937 0.031477615 -0.15003419
0000f0 84 17 b4 3d 7c 82 d2 3d d3 be e6 bd bb 23 a6 3e
       0.08793548 0.10278794 -0.112668656 0.32449135
000100 d6 d4 45 3d 3b 47 0c bd f1 bb ad bd f1 dc 44 be
       0.04829868 -0.03424762 -0.084831126 -0.19224907
000110 e5 50 0e bd a1 5a d5 3c e5 4d ab bd 38 9c f0 bd
       -0.034745116 0.026044192 -0.083644666 -0.11748546
000120 4d ce 36 be c1 be f8 bd e4 02 92 3c f8 ed 86 be
       -0.17852135 -0.121457584 0.017823644 -0.2635343
000130 d2 5c 74 be 4f 58 7a be db b5 8b 3d d5 93 62 bd
       -0.23863533 -0.2444775 0.068217956 -0.055316765
000140 e0 be d3 bc bc 0d 8e 3d c1 4a e3 bd ca 00 ca 3d
       -0.025847852 0.069362134 -0.110982426 0.09863432
000150 50 56 03 3d 64 a6 42 3c 73 b3 fb 3d fe 9a a8 bb
       0.032064736 0.011880491 0.122900866 -0.0051454296
000160 2f c2 d4 3d 84 bd 86 bd 13 e0 e1 3e 13 22 65 bd
       0.103886 -0.06579116 0.44116268 -0.0559407
000170 f6 3b 96 3d 44 a8 1b 3d cd 3b 84 be f6 12 87 bd
       0.073356554 0.038002267 -0.25826874 -0.065954134
000180 ad 0a 27 be cf b6 41 3c 9d 30 82 be 7f f6 fa bd
       -0.16312666 0.01182337 -0.25427714 -0.12254047
000190 3b 33 01 bc d2 fa 41 3e 2b 77 2e 3d 6e 77 f3 ba
       -0.007885749 0.18943337 0.042594116 -0.0018575022
0001a0 b3 05 05 3e be a4 3a be 16 a3 87 bc 8e aa 16 bc
       0.12990455 -0.18226907 -0.016557258 -0.009195937
0001b0 ea 40 65 bc 33 4d 0f be b7 0c fa bd ca 1e 81 3b
       -0.0139925275 -0.13994293 -0.122094564 0.003940438
0001c0 64 13 64 bd d2 3f 62 be e5 22 ae bd a4 1b 0f 3e
       -0.055682555 -0.22094658 -0.08502749 0.13975388
0001d0 d5 32 bf be 49 11 84 bd 5a 47 22 bb 92 36 00 3e
       -0.3734347 -0.064486094 -0.0024761767 0.12520817
0001e0 ca 4e b4 3b be 06 8a 3d 67 d7 93 3e 08 8c af bd
       0.0055025565 0.06739567 0.28875276 -0.08571631
0001f0 82 ca 04 bd d0 67 01 3e 04 48 5e bd 20 9c 3f 3d
       -0.03241969 0.12637258 -0.0542679 0.04677975
000200 1f a0 73 bd 6d 3a 68 3c b5 06 0c 3e c4 07 60 3b
       -0.059478875 0.014174086 0.13674434 0.0034184316
000210 70 58 9a 3e 01 27 6a bd a0 eb b0 bd 46 01 95 bd
       0.30145597 -0.057166103 -0.08638692 -0.072756335
000220 91 f9 0c be 39 04 74 bd fe d0 19 be e8 c8 9d bd
       -0.13767077 -0.05957434 -0.1502113 -0.077043355
000230 24 70 85 bd fc 46 0d bc dd ec 2c 3d 4b 7a 6d bd
       -0.0651553 -0.008622881 0.042218078 -0.057977956
000240 17 a5 ee bd 70 18 4c 3c af 29 22 3d f7 74 8c bd
       -0.11652582 0.012456998 0.039590534 -0.06858247
000250 d6 2a 87 bd d9 ea ba bd ec 81 26 be 10 4c 11 3e
       -0.06599967 -0.09126825 -0.16260499 0.14189172
000260 82 ea df 3d 25 3c 67 bd 74 ce a7 be 50 ba 4f be
       0.10933401 -0.056453843 -0.327747 -0.20285916
000270 8c c8 d7 3d 99 66 2c 3e 7f b1 c5 3c 20 7c 2b 3d
       0.10536298 0.16836013 0.024132488 0.04186642
000280 02 9b 8f bc 83 67 a6 ba 01 46 92 3d 51 9b aa be
       -0.017529968 -0.0012695644 0.071422584 -0.33321622
000290 27 bb 11 bc 69 20 3f bd ec f5 99 3e 5e bf 50 bd
       -0.008894718 -0.046661768 0.30070436 -0.050963752
0002a0 cf 0c 43 3d d5 93 83 bc 91 f0 aa bd bb 68 31 3e
       0.047619637 -0.016061703 -0.08346666 0.17325108
0002b0 6c 50 0b be 98 ad ef bb 69 13 c3 3d b5 93 aa bd
       -0.13604897 -0.007314395 0.095251866 -0.08328954
0002c0 40 e3 4a be e1 2f 2c 3e 46 2e f8 bd 59 fe ae 3d
       -0.19813251 0.1681514 -0.12118201 0.08544607
0002d0 3e 46 e6 3c b8 d2 44 3c 83 8d 4f be f8 d7 ac 3d
       0.028109666 0.01201313 -0.20268826 0.0843963
0002e0 db ad e4 3c d0 5e b9 3c a8 b6 02 3c b1 e9 28 3b
       0.027914932 0.022628218 0.007978119 0.0025774057
0002f0 b8 b2 da 3d 63 80 4e 3c 6e 48 81 be 30 b4 9e 3d
       0.10678619 0.012603852 -0.25250572 0.07749212
000300 da 1c cb 3d 31 ae fc 3d 02 55 c9 3d e1 c1 e3 3d
       0.099176124 0.12337912 0.09830667 0.11120964
000310 dc 24 51 be b4 8e a8 bd 68 66 11 3e db 4f aa 3d
       -0.20424217 -0.082303435 0.14199221 0.083160125
000320 be 79 dc bc e0 49 e6 3d 02 ae 98 bd 92 7b 9f be
       -0.02691352 0.11244559 -0.07455064 -0.31148964
000330 14 5c 9d be 65 c6 75 be 9b 87 8e bd 47 18 4a be
       -0.30734313 -0.24001463 -0.069594584 -0.19735824
000340 7f 54 fa 3c af bf e3 bc 91 90 93 3d 6a 25 fc 39
       0.030557869 -0.027801363 0.07205308 0.0004809306
000350 0e a4 92 3d f5 29 f0 3d 64 fd a2 bd 8c 04 37 bb
       0.07160197 0.11726753 -0.07958487 -0.0027926294
000360 78 37 bc 3d dd b7 6f be 2e 95 77 bd 17 b1 f1 bd
       0.09190267 -0.23409982 -0.060445003 -0.11801355
000370 2b dd 7f bd 2b 43 25 3e 4c e1 4d bb 14 bf 07 3d
       -0.06246678 0.16138904 -0.0031414805 0.03314121
000380 14 93 d7 bd b6 7d 9b 3d 6b 5c 0c 3e 88 6b dc 3d
       -0.105261 0.07592337 0.1370713 0.107626975
000390 99 f7 d9 3d 43 92 07 be f4 6e 98 bc d3 2b f2 3d
       0.10642929 -0.13239388 -0.018607594 0.11824765
0003a0 cf f5 62 3e fd 90 b6 3c dd 1a 79 3c 8d 2a 25 bd
       0.22164081 0.022285933 0.015204159 -0.040323783
0003b0 75 00 36 bb 39 3f 43 3c 63 06 e2 3d aa ba 11 be
       -0.0027771269 0.011916929 0.110363744 -0.14231363
0003c0 8c fd 4d be 98 2b c4 bd 28 3f ed bd 10 97 96 3d
       -0.20116252 -0.09578627 -0.11584312 0.07353032
0003d0 ef fe e0 bc 39 31 ce 3b 2a 6c 7c 3e 22 d1 17 be
       -0.027465312 0.006292489 0.24650636 -0.14825872
0003e0 69 bd 03 3e 28 d1 77 bd e6 ae 29 3e 7c 2c 9f be
       0.12865223 -0.0605022 0.16570625 -0.31088626
0003f0 54 21 12 bd 94 a5 0c be 43 33 b9 3d d6 5f aa 3e
       -0.035676315 -0.13735038 0.090429805 0.33276242

fc2.bias f4 [7]
000000 c4 12 3a 3e a0 32 cc 3e b1 aa 13 be 8d 78 bf bd
       0.18171221 0.39882374 -0.14420582 -0.09349165
000010 df 6c 53 be c8 65 66 be 26 87 eb bd
       -0.20647 -0.22499764 -0.11500387

localization.0.weight f4 [8, 1, 7, 7]
000000 94 2a 3c bd 1e ab b6 bd 58 43 ed bd 3c 63 05 be
       -0.045939043 -0.08919357 -0.115851104 -0.13026136
000010 de 09 92 3d b7 e4 ea 3d 14 2b ff 3c f4 bb 46 3b
       0.07130788 0.11469405 0.031148471 0.003032443
000020 47 75 ad bd 9d 49 cf bc ab 92 24 bd f1 ce cc bd
       -0.084696345 -0.025303656 -0.040178936 -0.100004084
000030 6b 5c 02 3e c7 e9 6d bc ab 1e 1e be 43 30 7e bc
       0.12730567 -0.014521069 -0.15441386 -0.015514436
000040 83 f0 5d bd ea f0 43 bd 6e 1a 25 3d f4 c5 4d bd
       -0.054184448 -0.047837175 0.04030841 -0.05023761
000050 3c a0 46 bc cb e9 9f bd 79 bd a5 3c 2f e5 0e be
       -0.012123164 -0.07808264 0.02023195 -0.13954614
000060 7c f1 53 bc e6 25 5f bd 0e 2f 9b bc 90 c8 de 3d
       -0.012935992 -0.054479502 -0.018943336 0.10878098
000070 ba ee 3f bd 84 f5 5a bd 51 af 14 be 75 5d c2 3d
       -0.046858527 -0.0534568 -0.14520003 0.09490482
000080 57 1c d2 3c 13 15 64 3d c9 be eb 3d 46 f0 fb bc
       0.02564828 0.05568416 0.11510999 -0.03075422
000090 18 cb 87 bd 8e 89 79 3d cd ee a7 3d 19 32 92 bd
       -0.06630534 0.060922198 0.081998445 -0.071384616
0000a0 c8 c2 43 bd be 9b 4b bd c0 cc ba 3d a5 18 d8 3d
       -0.04779318 -0.049709074 0.09121084 0.105515756
0000b0 9e 6e b1 bd c7 4a a3 bc 6b 36 c2 3b a0 8d da 3d
       -0.08663677 -0.019933118 0.0059268973 0.10671544
0000c0 27 91 d0 3d 6e 74 71 3d e3 6f 87 bb 68 1a 92 3d
       0.101839356 0.058948927 -0.004133211 0.07133943
0000d0 36 9c f4 3c 09 4b c9 bd 65 b0 d2 3d 53 ae 21 bb
       0.029859643 -0.09828765 0.10287551 -0.0024670556
0000e0 8b 4d a7 38 7e 38 2d bd b9 7d 9d 3d d4 7a 2f bd
       7.977624e-05 -0.042290203 0.07689995 -0.042841747
0000f0 b0 96 bc bc 20 3e 00 3e 37 96 c7 bd c5 82 bc bd
       -0.023021072 0.12523699 -0.09745448 -0.0920463
000100 80 dc a7 bd 53 4e 3e be be 1e 2c be 57 90 42 be
       -0.08196354 -0.18584566 -0.16808602 -0.19000374
000110 3f ea ba 3d 7e f3 ae 3c 2e 75 8e bd b9 1c ad 3d
       0.0912671 0.02135634 -0.06955944 0.08452744
000120 7b 63 af bd f5 26 f6 bd 42 7b d1 3d 04 f7 1d be
       -0.08563896 -0.12019149 0.10228588 -0.1542626
000130 8a 37 ad 3d 02 c6 c4 3d a1 e3 cf 3d 70 7f ca 3d
       0.08457859 0.096080795 0.10150839 0.09887588
000140 e4 77 ed 3d bd d2 e8 3a eb 0f 9f 3c a8 06 96 3c
       0.11595133 0.0017763 0.01941677 0.01831372
000150 62 c4 aa 3d c7 0f ef bd e1 27 d9 bc fd 51 e3 3d
       0.08338238 -0.11672931 -0.026508274 0.110996224
000160 89 06 08 bc 8b a5 04 3e 8b 51 10 be f2 78 c9 3c
       -0.008302339 0.12953775 -0.14093606 0.024593804
000170 f9 26 06 3e 4d f6 94 bd c4 29 3b bd ad 5c 8f bd
       0.13100804 -0.07273541 -0.045694128 -0.070000984
000180 6c 6f c9 3d 13 cd 6a bd 8e 3c e9 bd 98 ee a2 bd
       0.09835705 -0.05732448 -0.11388503 -0.079556644
000190 c6 97 c6 3d 34 57 ca 3d 31 ee 2a be bc 1c 83 3d
       0.09696917 0.09879914 -0.16692425 0.06401965
0001a0 89 6b f0 bc c1 62 0f be 4d d0 b7 3d b8 b5 f6 3c
       -0.029348152 -0.14002515 0.08975277 0.030115947
0001b0 d5 8f 83 bd c4 97 a8 bc b8 7c 1e bd f9 4d dc 3d
       -0.06423918 -0.02058018 -0.03869316 0.107570596
0001c0 2b 59 9a 3d 49 44 31 bb 76 4a aa bb 23 c4 f3 bc
       0.07536539 -0.0027048758 -0.0051968647 -0.029756611
0001d0 f2 2b f3 bd 89 8a 95 bd 29 79 cf 3d 91 f8 02 be
       -0.11873616 -0.07301814 0.10130531 -0.12790133
0001e0 b0 d9 00 bd 09 e6 c9 bc d1 86 e8 3d 7f d2 0f bd
       -0.031457603 -0.024645822 0.11353839 -0.035112854
0001f0 6e 10 86 bd eb 8e 56 3d 37 05 3c bd eb 5a d3 3d
       -0.065461025 0.05238239 -0.04590341 0.103200756
000200 6c 58 1a 3d 70 7a 0a be 54 e2 dc 3d d0 70 2f bd
       0.037681982 -0.13523269 0.10785356 -0.042832196
000210 2b 10 94 bc 80 60 52 3d 24 64 e7 bd fc 1b 46 bd
       -0.018074116 0.05136156 -0.11298397 -0.04836653
000220 87 e1 63 3d 5b 52 e9 3a d5 4b 24 be db 5b a7 bc
       0.055635 0.0017801033 -0.16044553 -0.020429542
000230 6b 37 c8 3d b7 73 68 bd a2 0c a9 3c ba 12 33 3d
       0.09776195 -0.05675098 0.020635907 0.04371903
000240 29 03 ee 3d ff ab 02 be 75 1d a7 bc ee 8f 05 3d
       0.116216965 -0.12760924 -0.020399788 0.032607965
000250 60 51 21 bb c0 4f 88 3d fa 2a 88 bd 57 b7 b2 bd
       -0.0024615154 0.06655836 -0.06648822 -0.087263756
000260 e3 c1 cb bd 4b a5 b9 3d 55 2d 14 3e 6a 46 98 3d
       -0.0994909 0.0906473 0.14470418 0.074353054
000270 70 0c 7e bd 49 7a d8 bc 93 12 03 3e 3c dd 2b bd
       -0.06202358 -0.026425498 0.12800054 -0.041959032
000280 94 e0 4d bd f1 19 cf 3d 97 59 f8 bd f6 86 12 bd
       -0.050263003 0.1011237 -0.12126463 -0.03577324
000290 2b 3f f3 bd 4d 83 d1 3d d5 20 0b 3e fe 85 a4 3c
       -0.11877283 0.10230122 0.13586743 0.020083424
0002a0 f8 55 86 3d 5e 15 04 ba 56 b6 44 3d 75 7e 6b 3c
       0.06559366 -0.00050385843 0.04802545 0.014373411
0002b0 e1 8f 09 3e d0 a7 4e bd b2 27 63 bc 1f e6 f0 3d
       0.13433792 -0.050453007 -0.013864445 0.11762642
0002c0 15 ef ec 3d 87 30 b8 3d 94 35 be bb 2a e1 c5 bd
       0.11569039 0.08993631 -0.005804727 -0.09662087
0002d0 cf d0 ae bd de 31 02 3e c4 5a b1 bc 75 5d 08 be
       -0.08535921 0.12714335 -0.021649726 -0.13316901
0002e0 4a 2e fe 3d 5d b9 bc 3d 21 de b8 bd 56 16 99 bd
       0.12411173 0.09215043 -0.09026743 -0.07474963
0002f0 58 c0 2c bd f9 1a 92 3d 51 97 b4 3d 83 cc f9 3d
       -0.04217562 0.07134051 0.08817924 0.12197211
000300 12 6e 44 bd aa b8 eb bd 26 10 7b bd 4a 00 13 be
       -0.047956534 -0.11509831 -0.061294697 -0.14355579
000310 cc 94 38 3e c8 20 02 3e b9 39 fa bc 0f ff a1 3c
       0.18025512 0.12707818 -0.030545102 0.019774942
000320 9e 75 d5 bd 80 a9 0a bd 72 67 87 bd 18 c6 95 bd
       -0.10422824 -0.033853054 -0.066115275 -0.07313174
000330 d9 96 8e 3d fd c4 2f bd 85 c6 c3 bd eb 3f 47 bd
       0.06962366 -0.042912472 -0.09559349 -0.04864494
000340 c8 8d 12 bd e6 80 1f 3e 55 9d 31 3d 5d e4 2a 3d
       -0.035779744 0.15576515 0.043362934 0.04172169
000350 33 d3 c8 bd 4f 6c 96 bc d5 84 7c bd cd 13 ec bd
       -0.09805908 -0.018362192 -0.061650116 -0.11527214
000360 7e 8e c8 ba 7d c6 95 3c f5 e8 3d bd e6 51 f1 bb
       -0.0015301255 0.018283123 -0.046364743 -0.0073644994
000370 73 50 a7 3d 25 96 87 bd 25 d7 05 be 3d 5a a8 bc
       0.08169641 -0.06620435 -0.13070352 -0.020550841
000380 a5 0f bf bd c2 7c b6 3d 16 df ee 39 fb 07 82 bd
       -0.09329156 0.089105144 0.0004556111 -0.063491784
000390 86 b1 04 be 5c e3 f7 3d 7a ea 0f bd 92 16 f2 bd
       -0.12958345 0.12103912 -0.035135724 -0.11820711
0003a0 70 a7 e6 3d de d1 03 bd 6c 84 57 bd e3 5b 92 bd
       0.11262405 -0.032182567 -0.05261652 -0.07146432
0003b0 93 00 73 3d fa 1c 8c 3b df d0 88 bd 05 01 13 3e
       0.05932672 0.004275915 -0.06680464 0.14355858
0003c0 b8 18 f0 bd 3b 3b 45 3d 78 01 27 be 3d 29 00 bc
       -0.11723465 0.04815219 -0.16309154 -0.007822332
0003d0 d4 e1 54 3d 00 4e 12 bd 6e 80 88 3d 7d 23 91 bd
       0.05197318 -0.035718918 0.06665121 -0.07086847
0003e0 69 04 9c 3d 44 3f 61 bc 46 63 27 3c cc d8 04 be
       0.07618029 -0.013747994 0.01021654 -0.12973326
0003f0 47 4b d6 3d 5b eb 01 bd a5 9f ab 3c 6d bd e8 3c
       0.10463577 -0.031718593 0.020950148 0.028410638

localization.0.bias f4 [8]
000000 33 4b f2 bd 80 67 b7 3c cb 01 c0 3d 96 93 b8 3d
       -0.11830749 0.02238822 0.09375342 0.09012525
000010 ac 79 0e bd ec e6 d3 bd e1 83 d9 bd 7c 4a 87 bc
       -0.034784004 -0.10346779 -0.10620857 -0.01651501
