deep_emotion-500-128-0.005_74percent.pt (torch, 274522 bytes, 24 tensors)

conv1.weight f4 [10, 1, 3, 3]
0.038016707 0.43984172 0.3139117 -0.117198475 -0.28299487 0.3540062 0.042923052 0.13175003
-0.27881902 0.19072923 0.14510494 0.26842484 0.092736825 -0.0030534395 -0.44656405 -0.22133793
0.27951676 -0.35902184 -0.19044207 0.06619974 -0.19197628 -0.34601212 0.12578207 0.43070403
-0.3222587 0.003205711 0.46844837 0.07906476 -0.08850585 0.31091106 0.1410633 0.036619674
-0.15495579 -0.33104357 -0.33705798 -0.13598715 0.315648 0.4451008 0.49522093 0.39165255
-0.1894064 0.087363735 0.19727966 -0.0045352126 0.03551654 -0.14224374 -0.07109621 -0.4130264
-0.06664246 0.114292026 -0.3103842 0.023522278 0.17084482 -0.20802887 0.32683343 0.40675217
-0.38310665 0.4287032 0.2413095 -0.3335855 0.074623555 -0.09409967 -0.17740335 0.21450596
-0.35496822 -0.11202297 -0.40872833 0.3642857 0.18057354 -0.14363332 -0.11104184 0.06460319
0.14624296 -0.10707393 0.14991477 0.18570387 0.22476988 -0.01908132 -0.24614677 -0.16541341
-0.21734062 -0.22690263 -0.26021078 -0.19754574 0.3457606 -0.35602918 -0.10949048 0.30787832
-0.12775637 -0.11953913
00000000: 68b7 1b3d ef32 e13e 09b9 a03e c105 f0bd
00000010: b4e4 90be 4d40 b53e 15d0 2f3d 7be9 063e
00000020: 5ec1 8ebe 864e 433e 6496 143e fb6e 893e
00000030: ceec bd3d 371c 48bb 0ba4 e4be 69a6 62be
00000040: d21c 8f3e b6d1 b7be 3f03 43be bb93 873d
00000050: 6e95 44be 8028 b1be 04cd 003e 3d85 dc3e
00000060: 18ff a4be e816 523b 77d8 ef3e b4ec a13d
00000070: 8e42 b5bd bc2f 9f3e e672 103e 83fe 153d
00000080: bbac 1ebe 8b7e a9be dd92 acbe 3740 0bbe
00000090: 9d9c a13e 41e4 e33e 998d fd3e af86 c83e
000000a0: c0f3 41be c2eb b23d ae03 4a3e 1f9c 94bb
000000b0: cb79 113d 58a8 11be e49a 91bd 3278 d3be
000000c0: d87b 88bd f011 ea3d aeea 9ebe cbb1 c03c
000000d0: f2f1 2e3e 8505 55be b656 a73e d241 d03e
000000e0: 8e26 c4be fc7e db3e d619 773e b8cb aabe
000000f0: 3cd4 983d 54b7 c0bd 39a9 35be 73a7 5b3e
00000100: 65be b5be 4d6c e5bd d744 d1be a883 ba3e
00000110: 45e8 383e 9d14 13be e769 e3bd ad4e 843d
00000120: b7c0 153e 9449 dbbd 4283 193e 2829 3e3e
00000130: 132a 663e 6e50 9cbc e60d 7cbe 2262 29be
00000140: 8a8e 5ebe 2a59 68be 593a 85be 6e49 4abe
00000150: 8907 b13e 7549 b6be 8b3c e0bd 3aa2 9d3e
00000160: 91d2 02be eed0 f4bd

conv1.bias f4 [10]
-0.17967921 0.2263944 0.24999937 -0.046559233 -0.38370866 -0.28923458 0.2813003 0.020206384
0.09601743 -0.33546638
00000000: d4fd 37be efd3 673e d6ff 7f3e e5b4 3ebd
00000010: 7675 c4be 8e16 94be 9806 903e dc87 a53c
00000020: c9a4 c43d 40c2 abbe

conv2.weight f4 [10, 10, 3, 3]
0.07191042 0.0053034755 0.08137073 0.44735086 0.31943905 0.12177118 0.022397062 0.105571225
-0.15455653 -0.090723485 -0.19565012 0.0669264 0.020105632 -0.03319694 0.14435649 0.08175288
0.17456333 0.124607734 0.30813283 0.0981809 -0.1326343 0.052521 0.0014459188 -0.108869344
-0.11044755 -0.2341372 0.08060094 0.048316233 0.051296763 -0.11505757 0.020873707 0.014923054
-0.006475635 -0.09867122 -0.017391896 0.1371045 0.05057627 -0.062532306 -0.00509379 0.2137569
0.2884287 0.24580622 0.20044528 0.31688038 0.18367386 0.14301132 0.08852136 0.08236888
0.022468781 0.04286398 0.09064566 0.015398258 -0.1082254 0.046786994 -0.095800474 0.0053624334
0.28659445 -0.31008908 -0.050680406 0.39279306 -0.020832201 0.14913937 -0.03143001 0.12550558
0.14499566 0.03181123 0.15720563 0.06975647 -0.093608014 -0.044659015 -0.20049143 -0.124644555
0.11210038 -0.13673696 -0.007447547 -0.13811949 0.08757452 0.10848462 0.098078586 0.0038782593
0.06942829 0.15737715 -0.25268185 -0.076061346 0.14236847 -0.17751734 0.06925648 0.053594593
-0.16100341 -0.04372657 0.13073315 -0.054382153 -0.18170337 0.01659513 0.03415148 0.09664132
-0.099910915 -0.13910075 0.01864483 0.08986348 0.20501268 0.1557712 0.038965315 0.13022703
0.084568605 -0.4652633 -0.3315964 -0.18050623 -0.08125623 -0.21100555 -0.15960534 0.022563837
-0.111936875 -0.252641 0.12087898 -0.052191228 0.038955405 0.16108653 0.06270948 0.17980662
0.09165662 0.15029524 0.13027862 -0.45465606 -0.22105975 -0.28672895 -0.3526238 -0.35494706
-0.26197565 -0.045465928 -0.09606853 -0.053136267 0.046499804 -0.029058466 -0.05134632 -0.20603636
-0.4406774 -0.5071593 0.041238252 0.14097027 0.15751085 0.21954827 0.17334996 0.25970727
0.017998602 0.12355013 0.06280798 -0.27416995 -0.20554455 -0.22952642 -0.36622354 -0.11646614
-0.25955358 0.1389706 0.09228953 -0.07413184 -0.07700864 -0.058324564 -0.33469588 0.10597766
-0.019091047 -0.017733073 0.1583352 0.16738436 0.07248209 -0.08881049 0.029557854 0.00025853526
-0.28105104 -0.101778924 -0.20329039 -0.38837686 -0.4251265 -0.44867706 -0.06286035 -0.13535295
0.016057387 0.22169082 0.0207622 0.23360334 0.018938007 0.10377947 0.22547582 -0.1509853
0.09768536 0.22395237 -0.069724776 0.067876734 0.25436005 -0.078153 0.013608644 -0.13819472
0.048965722 0.14767447 -0.06926404 -0.06619351 -0.18046287 0.015192583 0.22794615 0.12753874
0.064420834 0.054400556 -0.1573181 -0.041248567 0.019112881 -0.20557854 -0.17790227 -0.01378961
0.039352607 0.0323521 -0.11285844 -0.0063601257 0.100047946 -0.25151235 -0.07843965 -0.06322049
-0.17393401 -0.24553764 -0.17736001 -0.17442966 -0.17181945 -0.051565647 -0.02038014 0.155995
0.13674238 -0.005197984 -0.006388653 0.2253823 -0.21553905 -0.140163 -0.05775026 -0.085092954
0.05971517 -0.054169927 -0.2214509 0.04928313 0.16419396 -0.2876987 0.12445889 0.030757653
0.05585066 0.13506645 0.072971426 0.122161865 0.10821538 0.061560053 -0.0577864 -0.16960248
-0.0029026994 0.07547306 -0.05411114 0.0073107844 0.028514808 0.02563213 0.008948134 -0.039929528
00000000: c545 933d c7c8 ad3b b3a5 a63d 2c0b e53e
00000010: 848d a33e 2b63 f93d 0b7a b73c ba35 d83d
00000020: 1144 1ebe 3ccd b9bd 8158 48be b510 893d
00000030: 91b4 a43c 84f9 07bd 30d2 133e 0e6e a73d
00000040: bbc0 323e 5732 ff3d 96c3 9d3e 1113 c93d
00000050: 49d1 07be 4320 573d fc84 bd3a e4f6 debd
00000060: 5332 e2bd aac1 6fbe 1b12 a53d 3ee7 453d
00000070: 8e1c 523d 4ea3 ebbd 56ff aa3c d37f 743c
00000080: 9031 d4bb 2314 cabd 7379 8ebc 1f65 0c3e
00000090: 1029 4f3d f010 80bd cfe9 a6bb 17e3 5a3e
000000a0: edac 933e a0b4 7b3e 8741 4d3e 253e a23e
000000b0: 0015 3c3e 8f71 123e b04a b53d 04b1 a83d
000000c0: 7310 b83c 2492 2f3d 6fa4 b93d fa48 7c3c
000000d0: 47a5 ddbd b8a3 3f3d 0a33 c4bd 5ab7 af3b
000000e0: 82bc 923e ffc3 9ebe 4296 4fbd 2c1c c93e
000000f0: 4ba8 aabc feb7 183e c1bc 00bd 8984 003e
00000100: be79 143e 7e4c 023d 83fa 203e 7bdc 8e3d
00000110: 8fb5 bfbd 5fec 36bd a04d 4dbe a545 ffbd
00000120: e294 e53d c604 0cbe 8d0a f4bb 326f 0dbe
00000130: 455a b33d 2f2d de3d 6ddd c83d 652a 7e3b
00000140: 6b30 8e3d 7a27 213e 845f 81be 0dc6 9bbd
00000150: 0ac9 113e 1bc7 35be 57d6 8d3d 0186 5b3d
00000160: 14de 24be a21a 33bd e9de 053e d2bf 5ebd
00000170: 7310 3abe 83f2 873c 6ce2 0b3d e2eb c53d
00000180: 189e ccbd 6d70 0ebe 0bbd 983c 580a b83d
00000190: d8ee 513e 7c82 1f3e 189a 1f3d 3c5a 053e
000001a0: 4e32 ad3d fe36 eebe 01c7 a9be a0d6 38be
000001b0: ab69 a6bd d711 58be 956f 23be ccd7 b83c
000001c0: 293f e5bd 295a 81be 668f f73d 78c6 55bd
000001d0: b48f 1f3d def3 243e d46d 803d 3a1f 383e
000001e0: 77b6 bb3d ffe6 193e c267 053e aec8 e8be
000001f0: 7d5d 62be 23ce 92be 1b8b b4be 9fbb b5be
00000200: ac21 86be 7b3a 3abd 94bf c4bd 6aa5 59bd
00000210: 9476 3e3d 050c eebc 8550 52bd 32fb 52be
00000220: 78a0 e1be 31d5 01bf 71e9 283d 835a 103e
00000230: 864a 213e 43d1 603e a782 313e 5af8 843e
00000240: ce71 933c da07 fd3d 78a1 803d 0160 8cbe
00000250: 457a 52be f908 6bbe a781 bbbe cd85 eebd
00000260: 35e4 84be 4f4e 0e3e 4b02 bd3d 6fd2 97bd
00000270: b5b6 9dbd bde5 6ebd 425d abbe d10a d93d
00000280: d464 9cbc f344 91bc 9f22 223e ce66 2b3e
00000290: 7d71 943d 46e2 b5bd 5023 f23c 048c 8739
000002a0: ece5 8fbe 7871 d0bd 5b2b 50be 55d9 c6be
000002b0: 2eaa d9be 00b9 e5be edbc 80bd f799 0abe
000002c0: c88a 833c eb02 633e 7d15 aa3c b735 6f3e
000002d0: e123 9b3c 558a d43d 22e3 663e e49b 1abe
000002e0: 430f c83d c553 653e ddcb 8ebd f502 8b3d
000002f0: 7b3b 823e ae0e a0bd caf6 5e3c eb82 0dbe
00000300: 4890 483d fa37 173e 4eda 8dbd 7790 87bd
00000310: 42cb 38be 50ea 783c b76a 693e 8499 023e
00000320: 12ef 833d 1ed3 5e3d ff17 21be 42f4 28bd
00000330: 9e92 9c3c 2e83 52be 032c 36be d1ed 61bc
00000340: 3330 213d a383 043d 5322 e7bd 9a68 d0bb
00000350: f0e5 cc3d 3ac6 80be f8a4 a0bd bf79 81bd
00000360: c21b 32be 386e 7bbe dd9d 35be b09d 32be
00000370: 70f1 2fbe 8036 53bd 40f4 a6bc 27bd 1f3e
00000380: 3206 0c3e da53 aabb e857 d1bb 9eca 663e
00000390: 45b6 5cbe e486 0fbe 898b 6cbd 3745 aebd
000003a0: e597 743d 49e1 5dbd 06c4 62be 1bdd 493d
000003b0: 7622 283e 3e4d 93be 4de4 fe3d 79f7 fb3c
000003c0: a9c3 643d dc4e 0a3e 0b72 953d 0030 fa3d
000003d0: 06a0 dd3d 6526 7c3d 6fb1 6cbd 46ac 2dbe
000003e0: 373b 3ebb 9f91 9a3d a5a3 5dbd 4e8f ef3b
000003f0: e397 e93c 79fa d13c 329b 123c 258d 23bd

conv2.bias f4 [10]
-0.07067986 -0.026083296 -0.10072673 -0.09241498 0.011382342 0.03381945 0.20996717 0.030143483
0.12966114 -0.06874705
00000000: 9ac0 90bd a3ac d5bc d149 cebd 1144 bdbd
00000010: 017d 3a3c 4386 0a3d a201 573e 77ef f63c
00000020: e4c5 043e 41cb 8cbd

conv3.weight f4 [10, 10, 3, 3]
0.04450907 -0.024231082 -0.13189322 -0.051661387 0.116958454 -0.005637341 0.11324134 -0.112003095
-0.09814969 -0.20990509 -0.3525158 -0.3417953 -0.09010799 -0.23442411 -0.22116297 0.07913699
0.013080781 0.03162192 -0.0013167475 0.10413548 -0.15749237 -0.0147189135 -0.029717617 -0.2478289
0.047250077 0.15459345 0.086112306 0.0062656747 -0.09140046 -0.07016585 0.025877144 0.1471446
-0.22272567 -0.10584714 0.09149738 0.20942488 -0.047759913 -0.06408841 0.019456198 0.07863643
0.029780751 -0.07802521 -0.08830506 -0.32916048 -0.36772266 -0.052746926 0.13266253 -0.05414332
0.069177434 0.011981029 -0.066130586 -0.0114959795 -0.07845192 -0.048170105 0.07917602 0.00896862
-0.05955482 -0.19701362 0.073464155 0.17163303 0.10656338 0.22758839 -0.004040092 -0.006138238
-0.0103056915 0.10600498 -0.077989005 0.055591736 0.060522504 -0.07333939 0.023456952 0.0030896186
-0.21523623 -0.0922099 -0.0809988 -0.24452247 0.07247655 -0.095355995 0.21149704 0.3346042
0.08393291 -0.008736583 -0.065718934 -0.017925726 0.08108855 0.08224491 0.09857141 0.008400343
-0.04813599 0.053212553 -0.05157656 -0.1807802 -0.24641131 -0.05428994 -0.071293384 -0.09863528
0.07772234 -0.0135412775 -0.059717707 -0.0066173146 0.0338367 -0.15562885 -0.14314176 0.00018059945
-0.058513455 -0.010913489 0.10665166 0.0066056806 -0.022641178 -0.08081055 0.07348432 -0.06482875
-0.07845336 -0.04009205 0.09522063 -0.085132666 -0.03950888 0.1003056 -0.0031707024 0.081456006
0.035518 0.020921212 0.08055817 -0.09323874 0.07793262 -0.017116424 -0.06809199 -0.18690018
-0.117751144 -0.09757159 0.051041324 0.097319685 0.09573537 0.08403576 0.012920059 -0.035218176
-0.1510865 -0.17197207 -0.018348226 -0.13702829 -0.046226256 0.060749486 -0.045230225 -0.04143135
0.04175313 -0.08596391 0.0051454464 -0.04407285 -0.046970796 -0.004948189 -0.109887555 -0.009704524
-0.08667059 -0.034031834 -0.10512573 0.04433532 -0.026760733 0.02092237 0.09372836 0.13522656
0.17887163 0.046774693 -0.04095843 -0.01227706 0.030944625 0.009651963 -0.07780155 -0.05030889
-0.0034489494 -0.081983715 -0.0771522 -0.14066681 0.028683176 0.024372809 0.0035871891 0.00081752706
0.05714879 0.04522645 -0.15112253 -0.03398039 -0.017831815 0.32250124 -0.013250531 0.072773635
-0.32786328 -0.39767587 -0.019247815 0.045903705 0.22324672 -0.55107164 -0.16863377 0.13155173
-0.05449546 -0.08728119 -0.14533533 0.19357507 -0.08616129 -0.42874253 0.08567078 0.09120514
-0.14407274 -0.08088312 -0.30930287 0.10298846 -0.10151628 0.12668292 -0.02811791 -0.012350724
-0.04657565 -0.08856344 -0.055222884 -0.06724111 0.06721148 0.050125536 -0.06456143 -0.26559523
-0.043147404 0.0076119583 -0.33602518 0.0024820194 -0.35325018 -0.16375718 -0.3299093 -0.010014985
0.55357933 0.07169925 -0.09295822 -0.23599987 -0.02397013 -0.21478714 -0.13727754 0.073747024
0.08772146 0.061699253 -0.26921389 -0.021144662 0.29659206 0.2744766 0.28011844 0.06566865
0.22101559 -0.121822864 -0.39320955 -0.063794635 0.13069591 -0.022643302 -0.020277577 0.087669395
0.002020493 0.009129341 0.0029912707 0.11260293 -0.15058427 0.06685529 0.2179145 0.22654322
00000000: 254f 363d 4380 c6bc 040f 07be e49a 53bd
00000010: ea87 ef3d 72b9 b8bb 13eb e73d e161 e5bd
00000020: b402 c9bd 5cf1 56be f37c b4be cbff aebe
00000030: 8a8a b8bd e00c 70be 8c78 62be 9312 a23d
00000040: c650 563c fd85 013d b796 acba fc44 d53d
00000050: ae45 21be 9927 71bc 5c72 f3bc dcc6 7dbe
00000060: 4c89 413d bf4d 1e3e a65b b03d 4a50 cd3b
00000070: 2a30 bbbd 1db3 8fbd 4efc d33c 13ad 163e
00000080: 3312 64be 63c6 d8bd fa62 bb3d 7a73 563e
00000090: e69f 43bd c940 83bd 9b62 9f3c 230c a13d
000000a0: c3f6 f33c aecb 9fbd 49d9 b4bd b987 a8be
000000b0: 2546 bcbe 290d 58bd b0d8 073e 63c5 5dbd
000000c0: e6ac 8d3d 144c 443c 796f 87bd a259 3cbc
000000d0: 66ab a0bd 044e 45bd 0a27 a23d 1ef1 123c
000000e0: c1ef 73bd f0bd 49be 6074 963d 92c0 2f3e
000000f0: e73d da3d ee0c 693e c062 84bb 4623 c9bb
00000100: 34d9 28bc 2419 d93d b3b8 9fbd 29b4 633d
00000110: 72e6 773d f632 96bd cb28 c03c 337b 4a3b
00000120: e366 5cbe 8bd8 bcbd b3e2 a5bd 1964 7abe
00000130: 966e 943d 014a c3bd ae92 583e 3e51 ab3e
00000140: 04e5 ab3d e323 0fbc a697 86bd f9d8 92bc
00000150: c111 a63d 0570 a83d cfdf c93d 98a1 093c
00000160: 3e2a 45bd 68f5 593d f141 53bd 721e 39be
00000170: 3f53 7cbe 215f 5ebd 4402 92bd 4b01 cabd
00000180: e42c 9f3d 3cdc 5dbc 8e9a 74bd 0fd6 d8bb
00000190: 5a98 0a3d 2b5d 1fbe c193 12be 4c5f 3d39
000001a0: ceab 6fbd 7ece 32bc 2f6c da3d 7774 d83b
000001b0: fe79 b9bc 0080 a5bd f27e 963d f0c4 84bd
000001c0: 28ac a0bd 9037 24bd 0903 c33d 095a aebd
000001d0: 10d4 21bd 066d cd3d 8fcb 4fbb 68d2 a63d
000001e0: 537b 113d f662 ab3c affb a43d f4f3 bebd
000001f0: 239b 9f3d be37 8cbc d073 8bbd c362 3fbe
00000200: 8327 f1bd 9dd3 c7bd b510 513d 8b4f c73d
00000210: e810 c43d f11a ac3d a8ae 533c ef40 10bd
00000220: 6bb6 1abe 7219 30be 054f 96bc 2551 0cbe
00000230: be57 3dbd 74d4 783d 5443 39bd ebb3 29bd
00000240: 5405 2b3d d90d b0bd 229b a83b bc85 34bd
00000250: 7364 40bd 6b24 a2bb ba0c e1bd b9ff 1ebc
00000260: 5a80 b1bd f764 0bbd 294c d7bd f498 353d
00000270: 5339 dbbc 6465 ab3c a8f4 bf3d d578 0a3e
00000280: 202a 373e d296 3f3d 07c4 27bd b925 49bc
00000290: 957f fd3c 4423 1e3c 6b56 9fbd b210 4ebd
000002a0: c507 62bb 14e7 a7bd f901 9ebd f60a 10be
000002b0: fbf8 ea3c 7ca9 c73c 0c17 6b3b 504f 563a
000002c0: da14 6a3d 5f3f 393d ddbf 1abe 052f 0bbd
000002d0: 0714 92bc e21e a53e c118 59bc 580a 953d
000002e0: b2dd a7be 2c9c cbbe 98ad 9dbc 8605 3c3d
000002f0: ca9a 643e 0813 0dbf 55ae 2cbe 7fb5 063e
00000300: a236 5fbd 7bc0 b2bd c9d2 14be 8b38 463e
00000310: 5575 b0bd 2484 dbbe 2974 af3d c3c9 ba3d
00000320: ce87 13be 0da6 a5bd f25c 9ebe 9deb d23d
00000330: c4e7 cfbd 2bb9 013e 8857 e6bc b15a 4abc
00000340: 1cc6 3ebd c060 b5bd 6431 62bd b5b5 89bd
00000350: 2ca6 893d 6f50 4d3d c838 84bd 19fc 87be
00000360: 55bb 30bd bc6d f93b 7e0b acbe 60a9 223b
00000370: 35dd b4be f6af 27be dfe9 a8be e415 24bc
00000380: 60b7 0d3f 0ed7 923d e160 bebd f3a9 71be
00000390: 025d c4bc 29f1 5bbe 7c92 0cbe ae08 973d
000003a0: 4fa7 b33d 5bb8 7c3d 67d6 89be 9237 adbc
000003b0: eada 973e 3288 8c3e af6b 8f3e 497d 863d
000003c0: e951 623e 447e f9bd c352 c9be c3a6 82bd
000003d0: 26d5 053e 727e b9bc 291d a6bc 038c b33d
000003e0: 3f6a 043b 3b93 153c 3209 443b 5d9c e63d
000003f0: c332 1abe 6deb 883d fb24 5f3e f2fa 673e

conv3.bias f4 [10]
0.14643677 -0.11863278 0.13272856 0.22255939 -0.08714981 -0.066940755 0.15027335 0.17946851
0.013907895 0.028954616
00000000: 85f3 153e bef5 f2bd ffe9 073e 9ce6 633e
00000010: 997b b2bd 3c18 89bd 42e1 193e 98c6 373e
00000020: f1dd 633c 3b32 ed3c

conv4.weight f4 [10, 10, 3, 3]
0.07015837 0.07367691 -0.16964488 -0.15048465 -0.0687956 0.1679236 0.02452239 0.22219528
0.29543006 0.019022614 0.019032078 0.07285825 0.0059877266 -0.029795408 0.0020457725 0.053735774
0.15652773 0.032386426 0.20421371 0.24032658 0.07479825 0.12424534 0.19693573 0.14406401
0.00081076735 0.051584918 0.38314763 -0.21990423 -0.18363814 -0.1786045 -0.03801299 -0.025908142
-0.05572347 0.15969415 0.31309336 0.19261555 0.12979703 -0.014763143 0.057975594 0.006128004
0.03489568 -0.033132117 -0.13050969 -0.070279405 0.039721914 0.038561877 -0.014793047 0.134458
-0.1110286 -0.0078241555 0.03894236 -0.0017438094 -0.037216887 0.016312655 -0.03512202 0.09036329
0.19154835 -0.011543058 0.0026212502 0.006772707 0.07299619 -0.0312917 -0.16731188 -0.06552246
0.0073916917 0.10959534 -0.11905188 -0.078079194 0.010980075 -0.1056508 0.21958824 0.1704873
-0.10704975 -0.06530612 0.033571213 0.04032131 0.08070761 -0.038872823 0.15707587 -0.019554812
-0.12593119 -0.08543412 -0.010853064 0.020102713 0.00647504 -0.10155556 0.034744546 0.08591417
-0.031679686 -0.003444735 -0.007864813 0.0054443665 -0.24498191 0.041814707 0.13849051 -0.107646845
0.1629741 -0.011166708 -0.08116226 0.16451837 0.02382222 0.051947024 0.11481072 -0.013499757
-0.01651145 -0.1065729 0.07644057 0.0028566264 -0.28575292 -0.20987916 -0.06954038 0.031187745
-0.03546292 0.0056948364 -0.15458584 -0.011457506 0.15465444 -0.096220426 -0.09379976 -0.0466069
-0.0061881873 -0.1040022 0.008602417 0.3054026 0.01295143 -0.36393264 -0.050768748 0.111328125
0.09412062 0.099431336 0.03693192 0.07818269 -0.074716575 0.046130855 0.011066851 -0.056360696
-0.038702153 0.07716534 0.042839013 -0.09352998 0.012223042 0.062244326 -0.00070587615 0.08042058
-0.08304359 -0.07287183 -0.10733787 -0.11437475 -0.09894069 -0.209461 0.31496987 0.3337421
0.13244992 -0.20567097 0.010177913 0.036360115 -0.031779636 0.26732948 0.22777253 -0.112553015
0.2013007 -0.018391602 -0.06513484 -0.2665211 -0.07141237 0.021144252 -0.2519591 -0.15688166
0.1563419 0.09315673 0.06495097 0.037973747 0.18077262 -0.11609491 -0.12228324 0.051404294
-0.047210727 0.0017437157 -0.016180934 0.06406885 0.063371554 -0.07099135 -0.041305028 -0.15274602
0.084607884 0.11593935 -0.17394444 -0.06261454 -0.19618677 0.09822728 0.08118966 -0.07482939
0.05928997 -0.021294976 0.08804766 -0.068904474 -0.13738449 -0.13690408 0.022642625 0.25372577
0.74609226 0.20130028 0.11599376 0.18498224 0.025668385 -0.16271816 0.1833354 0.07305895
0.15393719 -0.045818284 0.07884245 -0.07092778 -0.15293582 0.085320786 0.059555918 -0.01157349
-0.08441141 0.06051164 -0.048913267 -0.008370527 -0.09124888 0.07023174 0.029605998 -0.08745962
0.036086828 -0.008737794 0.07027343 0.040983677 -0.01871905 0.05754116 -0.017525725 -0.06042701
0.061386317 0.10890278 0.14861743 -0.08051884 -0.10167547 0.03452248 -0.07387425 0.0909156
0.074721165 -0.14562197 -0.0029569129 0.04093521 0.07092553 0.15718207 -0.31190816 0.055819865
0.178167 -0.17579453 0.015983313 -0.022166183 -0.01536433 -0.15773053 -0.15216477 -0.0055950293
00000000: 31af 8f3d ebe3 963d 63b7 2dbe a618 1abe
00000010: b5e4 8cbd 2af4 2b3e 2ee3 c83c 2987 633e
00000020: 9c42 973e 50d5 9b3c 29e9 9b3c b536 953d
00000030: b134 c43b 8015 f4bc 5e12 063b 0b1a 5c3d
00000040: ce48 203e a1a7 043d 661d 513e 2c18 763e
00000050: d32f 993d 5774 fe3d 85a9 493e 8485 133e
00000060: ad89 543a b54a 533d ed2b c43e 932e 61be
00000070: a30b 3cbe 19e4 36be 82b3 1bbd 503d d4bc
00000080: 4b3e 64bd dd86 233e c64d a03e 033d 453e
00000090: 83e9 043e 1ce1 71bc d177 6d3d 6ccd c83b
000000a0: c6ee 0e3d 8bb5 07bd 55a4 05be a6ee 8fbd
000000b0: 72b3 223d 0ff3 1d3d 895e 72bc 5caf 093e
000000c0: f662 e3bd e330 00bc 0682 1f3d 8990 e4ba
000000d0: bc70 18bd 1ea2 853c 1bdc 0fbd 6310 b93d
000000e0: 4025 443e 181f 3dbc 48c9 2b3b 96ed dd3b
000000f0: 077f 953d ba2b 00bd ce53 2bbe a430 86bd
00000100: 0136 f23b 8673 e03d 79d1 f3bd fce7 9fbd
00000110: c6e5 333c 725f d8bd bddb 603e 3994 2e3e
00000120: e63c dbbd 37bf 85bd f881 093d f527 253d
00000130: 084a a53d 1c39 1fbd 7fd8 203e 6a31 a0bc
00000140: 1bf4 00be 15f8 aebd 0dd1 31bc 72ae a43c
00000150: 932c d43b 5dfc cfbd 4c50 0e3d c5f3 af3d
00000160: 8fc2 01bd 10c1 61bb 6bdb 00bc a866 b23b
00000170: 8adc 7abe e645 2b3d 75d0 0d3e f375 dcbd
00000180: afe2 263e 91f4 36bc 6638 a6bd 8177 283e
00000190: d126 c33c 67c6 543d e221 eb3d 162e 5dbc
000001a0: 0543 87bc e542 dabd e08c 9c3d 3d36 3b3b
000001b0: 354e 92be 90ea 56be 306b 8ebd 717d ff3c
000001c0: 9141 11bd c09b ba3b c04b 1ebe 43b8 3bbc
000001d0: bc5d 1e3e 370f c5bd 171a c0bd e0e6 3ebd
000001e0: 47c6 cabb 1bff d4bd 27f1 0c3c bb5d 9c3e
000001f0: 3c32 543c 6155 babe e4f2 4fbd 0000 e43d
00000200: 50c2 c03d a8a2 cb3d ed45 173d 3f1e a03d
00000210: 0105 99bd b5f3 3c3d bd51 353c 79da 66bd
00000220: 2686 1ebd dd08 9e3d f677 2f3d a58c bfbd
00000230: 2743 483c e8f3 7e3d 8c0a 39ba 8cb3 a43d
00000240: c212 aabd d33d 95bd f5d3 dbbd 4f3d eabd
00000250: 6ba1 cabd f27c 56be bb43 a13e 3fe0 aa3e
00000260: f4a0 073e 699b 52be 43c1 263c 58ee 143d
00000270: 5d2b 02bd 69df 883e 343d 693e 3282 e6bd
00000280: c521 4e3e fca9 96bc 6a65 85bd 7475 88be
00000290: a640 92bd b636 ad3c c800 81be 96a5 20be
000002a0: 1718 203e f5c8 be3d 0405 853d 5c8a 1b3d
000002b0: 751c 393e 2bc3 edbd a36f fabd 4f8d 523d
000002c0: 0960 41bd 648d e43a e18d 84bc 8736 833d
000002d0: f2c8 813d ea63 91bd 762f 29bd 7469 1cbe
000002e0: e646 ad3d 9c71 ed3d 7e1e 32be 0d3c 80bd
000002f0: 2fe5 48be 622b c93d c446 a63d 2740 99bd
00000300: 0ada 723d cd72 aebc 5552 b43d ca1d 8dbd
00000310: 85ae 0cbe 9530 0cbe 077d b93c 58e8 813e
00000320: e7ff 3e3f a921 4e3e 238e ed3d fc6b 3d3e
00000330: 8146 d23c 979f 26be 46bc 3b3e ee9f 953d
00000340: b6a1 1d3e f4ab 3bbd 2778 a13d 9542 91bd
00000350: 359b 1cbe aabc ae3d e8f0 733d bc9e 3dbc
00000360: e4df acbd 0edb 773d 4759 48bd 8924 09bc
00000370: b1e0 babd a9d5 8f3d 4788 f23c 071e b3bd
00000380: c8cf 133d f728 0fbc 84eb 8f3d 80de 273d
00000390: b158 99bc 48b0 6b3d 1c92 8fbc 5082 77bd
000003a0: 3870 7b3d 6c08 df3d 2b2f 183e 10e7 a4bd
000003b0: 3b3b d0bd 7267 0d3d 624b 97bd f531 ba3d
000003c0: 6907 993d ed1d 15be c4c8 41bb aeab 273d
000003d0: 6741 913d 56f4 203e 6db2 9fbe 5fa3 643d
000003e0: 6971 363e 7b03 34be 70ef 823c db95 b5bc
000003f0: acba 7bbc 1d84 21be 15d1 1bbe 8256 b7bb

conv4.bias f4 [10]
0.0845537 -0.13755397 0.067181475 -0.117549025 0.18027863 0.1506192 -0.1654064 -0.17855784
0.062580965 -0.1898998
00000000: 7e2a ad3d f3da 0cbe 7196 893d 8bbd f0bd
00000010: f69a 383e eb3b 1a3e 4c60 29be ded7 36be
00000020: 732a 803d 1875 42be

norm.weight f4 [10]
1.1513764 0.9999307 1.0620394 1.055116 1.0434048 1.0086875 1.0834681 1.0864708
1.2440826 1.1048766
00000000: 4d60 933f 75fb 7f3f e8f0 873f 0b0e 873f
00000010: 4a8e 853f ac1c 813f 15af 8a3f 7a11 8b3f
00000020: 193e 9f3f 996c 8d3f

norm.bias f4 [10]
-0.58840775 -0.42567912 -0.55177796 -0.53766376 -0.577518 -0.43101597 -0.55190665 -0.66390646
-0.6992077 -0.47963002
00000000: e4a1 16bf 9df2 d9be 5241 0dbf 55a4 09bf
00000010: 38d8 13bf 20ae dcbe c149 0dbf c6f5 29bf
00000020: 47ff 32bf 1192 f5be

norm.running_mean f4 [10]
0.5202028 -0.87574756 -0.016305173 -0.3349305 -1.7012655 -0.39478487 1.3174614 -0.054520678
-0.39170188 3.0623841
00000000: 032c 053f fe30 60bf 6d92 85bc 037c abbe
00000010: 11c3 d9bf 3e21 cabe 93a2 a83f 1351 5fbd
00000020: 268d c8be 1afe 4340

norm.running_var f4 [10]
0.6890821 0.7710816 0.4842539 0.8780946 0.9740546 0.91807896 1.1939719 0.5460036
0.6882077 1.7997774
00000000: af67 303f 9b65 453f 21f0 f73e cfca 603f
00000010: a45b 793f 3907 6b3f 12d4 983f e4c6 0b3f
00000020: 612e 303f 1b5f e63f

fc1.weight f4 [50, 810]
-0.029291514 -0.03211114 -0.035099186 0.0016279207 0.013310894 -0.006517141 -0.020110095 -0.046571616
-0.027500514 -0.054314826 -0.0028175272 -0.037147682 -0.02038523 -0.048148133 -0.016113847 -0.026524287
-0.014979361 -0.052621283 -0.06456713 -0.052598055 -0.041922342 -0.017850034 -0.009270936 -0.06334432
0.006057091 -0.024446554 -0.05441719 -0.012813894 -0.007639555 -0.015138058 -0.03622023 -0.011601147
-0.021277346 0.013884585 -0.015540415 0.0011203879 -0.04858467 0.00038192334 -0.0403417 -0.03122215
-0.05824948 -0.012121485 -0.0074948724 -0.040750984 -0.017043382 0.0022061926 -0.060408637 -0.05433293
-0.054641403 0.0043870895 -0.035027735 0.01782753 0.00036049634 -0.0438993 -0.001303477 -0.059535302
-0.05331596 -0.050247237 -0.039611474 -0.052043214 -0.036395404 0.009810522 -0.046385366 -0.0317018
-0.043468364 -1.9199204e-05 -0.023038171 -0.051766176 0.00014217137 -0.02717371 -0.023702413 -0.063371055
-0.06283875 -0.052669935 -0.030523287 0.0021825926 -0.021934763 -0.004390045 -0.0003786723 -0.039691683
-0.056536306 -0.02619738 -0.058587782 -0.035144504 -0.0019722767 -0.008495901 -0.030989483 -0.03470023
-0.023139017 -0.006831972 -0.05363584 -0.059402265 -0.014492112 -0.04608555 -0.02433799 0.0068689324
-0.042733215 -0.007512447 -0.05671844 -0.009204624 -0.025286308 -0.01372568 -0.02096382 -0.010227207
-0.040073715 -0.021825096 -0.028733801 -0.012750215 0.027370404 -0.04263163 -0.003301116 -0.01328917
-0.06412689 -0.009177994 -0.0023487627 -0.02825736 -0.0021323776 0.016842894 -0.040419195 -0.01643784
-0.009577684 0.030002873 0.018934794 -0.014968952 -0.018942524 -0.03825742 -0.0477384 -0.0031986013
0.008183613 -0.041492824 -0.014425869 -0.06374398 -0.0047602877 -0.028027952 -0.0005473804 -0.053456284
-0.014420305 -0.057569437 -0.052728765 -0.055155374 -0.059718866 0.0036175922 -0.055527464 -0.050814897
-0.030063948 0.0020471476 -0.016621007 0.0013150788 -0.02542054 -0.064954646 -0.042206757 0.0012000209
-0.053743754 -0.009193655 -0.014960383 -0.034372643 -0.0021028582 -0.035117205 -0.0073094894 -0.012687547
-0.03594864 -0.0641773 0.01154045 -0.031338114 -0.045371324 -0.055013105 0.023904882 -0.027752476
-0.044099264 -0.007539871 -0.020196903 -0.06280298 0.0016527462 -0.038193427 -0.04442053 0.020199798
0.016405467 -0.0070169116 -0.029658426 -0.008819064 -0.043004904 0.000371708 -0.043989424 -0.0045144
-0.035310432 -0.02069323 -0.0017825647 -0.050003503 0.03044219 -0.01420967 -0.029419951 -0.03692603
0.0024568758 0.02247106 -0.044561394 -0.03471507 -0.044014174 -0.026533201 -0.0024480983 -0.022350982
-0.039516605 -0.005509273 0.0043383352 -0.051461242 -0.04435457 -0.007687297 -0.051604256 -0.04500162
-0.012320024 -0.020942254 0.0015685109 -0.03333946 -0.01713145 -0.034109786 0.010823157 0.0036227466
0.0036186774 0.011929456 -0.0127888 -0.027824024 -0.060487375 -0.0050729844 0.027141582 -0.03175758
-0.059807595 -0.018432844 0.0017136201 -0.00635205 -0.029928083 0.0041522924 -0.017858496 0.0350763
-0.0065252017 -0.04012258 -0.0046107643 -0.0066399206 -0.055163242 -0.010181533 -0.06065678 -0.04942385
-0.05313284 -0.057821427 -0.06336328 0.029172335 -0.006917935 -0.025237404 -0.010963416 -0.028064573
-0.05900204 -0.02818292 -0.006670891 0.004711788 -0.020713717 0.013873555 -0.027974067 -0.03326986
00000000: c2f4 efbc f986 03bd 2ac4 0fbd f45f d53a
00000010: f015 5a3c be8d d5bb edbd a4bc e1c1 3ebd
00000020: c248 e1bc 3979 5ebd 43a6 38bb 2b28 18bd
00000030: edfe a6bc fa36 45bd 3001 84bc 7649 d9bc
00000040: fe6b 75bc 6a89 57bd c53b 84bd 0f71 57bd
00000050: c3b6 2bbd 3c3a 92bc 20e5 17bc abba 81bd
00000060: 907a c63b 2444 c8bc 8fe4 5ebd 5ef1 51bc
00000070: 3b55 fabb 9e05 78bc aa5b 14bd bd12 3ebc
00000080: d44d aebc 2c7c 633c 3a9d 7ebc fbd9 923a
00000090: b800 47bd e23c c839 573d 25bd 98c5 ffbc
000000a0: 0297 6ebd 3199 46bc 8c97 f5bb 81ea 26bd
000000b0: 909e 8bbc c595 103b 0c6f 77bd 358c 5ebd
000000c0: aacf 5fbd 93c1 8f3b 3e79 0fbd 0a0b 923c
000000d0: 0001 bd39 c1cf 33bd 6ed9 aaba 4adb 73bd
000000e0: d661 5abd 0cd0 4dbd a43f 22bd 442b 55bd
000000f0: 5913 15bd 50bc 203c 95fe 3dbd bfd9 01bd
00000100: e20b 32bd fa0d a1b7 8cba bcbc c508 54bd
00000110: d613 1539 669b debc 902b c2bc afc8 81bd
00000120: 9ab1 80bd 6ebc 57bd f90b fabc d409 0f3b
00000130: 88b0 b3bc 5eda 8fbb 8988 c6b9 bf93 22bd
00000140: 9d92 67bd e39b d6bc bef9 6fbd aff3 0fbd
00000150: 5041 01bb 6432 0bbc a8dd fdbc d421 0ebd
00000160: 098e bdbc bcde dfbb 41b1 5bbd ca4f 73bd
00000170: 5370 6dbc 34c4 3cbd 7760 c7bc c814 e13b
00000180: 0609 2fbd f92a f6bb 9851 68bd fece 16bc
00000190: 3b25 cfbc ade1 60bc 51bc abbc 0490 27bc
000001a0: 5624 24bd 8bca b2bc 2663 ebbc 47e6 50bc
000001b0: e637 e03c 819e 2ebd 8957 58bb d2ba 59bc
000001c0: f554 83bd 4c5f 16bc b3ed 19bb fb7b e7bc
000001d0: 5cbf 0bbb 1cfa 893c 998e 25bd a6a8 86bc
000001e0: b8eb 1cbc 96c8 f53c 241d 9b3c 5640 75bc
000001f0: 5a2d 9bbc d0b3 1cbd 5789 43bd a09f 51bb
00000200: 9014 063c 61f4 29bd 7b5a 6cbc 348c 82bd
00000210: 30fc 9bbb e09a e5bc 147e 0fba faf4 5abd
00000220: 2543 6cbc eecd 6bbd 1efa 57bd 9aea 61bd
00000230: c59b 74bd 2015 6d3b c470 63bd 4823 50bd
00000240: ab48 f6bc 7029 063b c728 88bc b95e ac3a
00000250: bc3e d0bc f106 85bd fee0 2cbd 054a 9d3a
00000260: 6922 5cbd fca0 16bc 651c 75bc 54ca 0cbd
00000270: 1bd0 09bb 0fd7 0fbd 7184 efbb 6edf 4fbc
00000280: e23e 13bd 636f 83bd 2814 3d3c 655c 00bd
00000290: 48d7 39bd 6c55 61bd 2cd4 c33c 2959 e3bc
000002a0: 6ea1 34bd 0611 f7bb fa73 a5bc d99e 80bd
000002b0: f6a0 d83a b670 1cbd 4df2 35bd 0c7a a53c
000002c0: c264 863c 1fee e5bb 3af6 f2bc d67d 10bc
000002d0: e925 30bd cee1 c239 412e 34bd 88ed 93bb
000002e0: aca1 10bd d984 a9bc f2a4 e9ba 79d0 4cbd
000002f0: e661 f93c adcf 68bc 1c02 f1bc c03f 17bd
00000300: 8903 213b 3a15 b83c 0286 36bd 6431 0ebd
00000310: 3548 34bd 285c d9bc 4670 20bb 6819 b7bc
00000320: 2adc 21bd 2287 b4bb 9828 8e3b 06c9 52bd
00000330: 23ad 35bd b9e5 fbbb fc5e 53bd 9e53 38bd
00000340: edd9 49bc 178f abbc 7e96 cd3a f58e 08bd
00000350: 4157 8cbc b4b6 0bbd 9c53 313c 9a6b 6d3b
00000360: 5527 6d3b c473 433c 1d88 51bc 35ef e3bc
00000370: 9cc1 77bd 473b a6bb 0658 de3c 3c14 02bd
00000380: cff8 74bd 7a00 97bc 8d9b e03a dc24 d0bb
00000390: bd2b f5bc f40f 883b fb4b 92bc 2bac 0f3d
000003a0: 5cd1 d5bb 9357 24bd e515 97bb b193 d9bb
000003b0: daf2 61bd 72d0 26bc 3e73 78bd aa70 4abd
000003c0: d2a1 59bd 29d6 6cbd 9bc4 81bd d2fa ee3c
000003d0: d8af e2bb acbe cebc e69f 33bc ade7 e5bc
000003e0: 20ac 71bd dedf e6bc 7d97 dabb 5865 9a3b
000003f0: d0af a9bc e84d 633c df29 e5bc fa45 08bd

fc1.bias f4 [50]
-0.004439105 -0.04388564 0.04427216 -0.048228912 -0.06392159 -0.028900977 0.09576624 0.09112179
0.024590863 -0.057044216 0.06877901 -0.0003147245 -0.00030347667 -0.04600397 0.014187311 -0.04436937
-0.023568664 -0.061851688 -0.051287297 -0.039960045 0.0019149919 0.07017941 -0.008682672 0.01968476
-0.06369974 0.03634335 -0.038835928 -0.019002376 -0.021842007 -0.014659189 -0.052443895 0.002030988
-0.015836393 0.004741838 -0.026703151 -0.0065826797 -0.012501677 -0.049139243 -0.06367376 -0.045403678
-0.011001481 0.033522263 -0.01000857 -0.019155286 -0.030444285 -0.03614186 -0.006598737 0.0026470846
0.009917184 -0.06381093
00000000: e975 91bb 6ec1 33bd b956 353d ae8b 45bd
00000010: 53e9 82bd bec1 ecbc 1721 c43d 109e ba3d
00000020: c772 c93c 32a7 69bd 02dc 8c3d 9b01 a5b9
00000030: f31b 9fb9 a96e 3cbd e571 683c a8bc 35bd
00000040: 1213 c1bc 3258 7dbd a112 52bd 25ad 23bd
00000050: 7700 fb3a 39ba 8f3d c441 0ebc ef41 a13c
00000060: 0275 82bd c4dc 143d 6c12 1fbd dfaa 9bbc
00000070: 02ee b2bc 182d 70bc 69cf 56bd 531a 053b
00000080: 53bb 81bc 6c61 9b3b 91c0 dabc 85b3 d7bb
00000090: d5d3 4cbc 3b46 49bd 6367 82bd 35f9 39bd
000000a0: 8e3f 34bc a44e 093d fcfa 23bc 8ceb 9cbc
000000b0: 4b66 f9bc 7d09 14bd 383a d8bb b67a 2d3b
000000c0: af7b 223c 4eaf 82bd

fc2.weight f4 [7, 50]
0.07951968 0.13678187 -0.20109262 0.16350217 -0.0037538542 0.08243437 0.27188674 0.114413224
0.009744211 0.041388582 -0.19604963 0.06449157 -0.10199594 -0.11606306 -0.20261346 -0.13997623
-0.07864303 -0.08885339 -0.06531464 -0.01585378 0.10351209 0.15395485 -0.04818787 0.023085505
-0.05221605 0.126275 -0.030632885 0.01985975 -0.014434078 0.021389263 -0.10386715 0.16672532
0.08844874 -0.040758703 0.11292378 0.055779733 -0.06433538 -0.1298385 -0.037283193 0.041850854
-0.22910058 0.15481085 -0.11704978 -0.10096071 -0.10129365 -0.040137026 -0.43003094 0.15399663
0.10519236 -0.019144522 -0.09673714 0.022917017 -0.14351137 -0.10663143 0.0059666457 0.092265286
-0.08343091 0.085446805 -0.24241848 -0.081166565 -0.4749206 -0.045045733 -0.11090166 -0.07676085
0.19615878 0.07679123 -0.09361357 0.045226563 -0.06795937 0.0008380526 0.13295327 -0.08953686
0.08546994 0.104000375 -0.09283895 -0.14693613 0.13260552 0.008286745 0.24867442 -0.017403707
-0.072195165 -0.021711277 -0.018934187 -0.024787849 -0.049254145 -0.07769248 0.025157765 -0.051930178
0.044051085 0.107844666 -0.25132412 0.20236787 0.03978876 -0.0632716 0.1676294 0.046621025
0.08427884 0.053048052 0.05940979 0.12156542 0.0046678483 -0.056564134 0.062490452 0.06049225
-0.10883491 -0.08909439 -0.1283062 0.11129384 -0.10485337 0.018955719 0.13526773 -0.0657229
-0.061380696 0.09007947 0.1767212 -0.059331656 0.039343342 -0.08993981 0.1422885 0.13880411
0.10332543 0.08015587 0.16252568 -0.21391287 -0.34381476 0.23627476 0.031403657 -0.065583356
0.1040677 -0.05184937 0.07485104 0.061017662 0.05062547 -0.093599975 -0.15719862 -0.015300981
-0.13356598 -0.08522822 -0.0039828504 0.07044453 0.14513445 -0.21047507 0.008507751 0.1349482
-0.021247532 -0.08283182 0.010437568 -0.10664869 0.0010191213 -0.10867364 -0.0728834 -0.1271084
-0.1763771 -0.06855852 0.022464104 0.061153255 -0.32620576 -0.24113037 0.15553215 -0.016106501
-0.12766838 -0.040940043 -0.16494851 -0.0024880487 -0.032228965 -0.10276812 0.042962395 0.055409864
0.07515079 0.08856374 -0.1024539 0.11042777 0.06445693 -0.2207266 0.19945851 0.15195163
0.19969182 0.040418282 -0.08259717 0.100222446 0.07346185 0.0038550075 0.07266149 0.034117296
-0.05270879 -0.058118317 0.021688571 -0.09728468 -0.10713296 -1.1545345e-05 0.14891377 -0.060299844
-0.012085241 -0.1804595 0.030377299 -0.09448745 -0.117967814 0.102077104 0.118589826 0.07074096
-0.13582246 0.07820809 0.28090876 0.25139186 0.010348171 0.07799907 -0.22231352 0.21270877
-0.045459766 0.09435073 -0.23465563 -0.043625224 0.06586161 0.09293721 -0.12601146 -0.08279771
-0.06524297 0.00798888 0.013135415 0.031592306 0.036584605 -0.19927278 0.015054336 -0.07557529
0.062285054 -0.09810533 0.076202296 0.11044936 -0.2634682 0.049017616 0.037163883 -0.032999728
0.08344433 -0.08112466 -0.14168836 0.018514179 -0.1034419 0.07631524 0.021546276 0.16318382
0.023208618 0.0029364892 0.05791206 -0.07321029 -0.056934677 0.05424234 -0.13597368 -0.011088162
-0.072374746 0.094713315 -0.03542095 0.011981196 -0.0046472778 0.09209775 0.07293337 -0.0057574715
00000000: 37db a23d 8c10 0c3e 39eb 4dbe 1d6d 273e
00000010: 3903 76bb 5ad3 a83d bd34 8b3e 7b51 ea3d
00000020: 2fa6 1f3c 1387 293d 3cc1 48be 2814 843d
00000030: 3fe3 d0bd 78b2 edbd e779 4fbe ee55 0fbe
00000040: 990f a1bd c4f8 b5bd afc3 85bd c9df 81bc
00000050: 26fe d33d 57a6 1d3e a560 45bd d01d bd3c
00000060: 7fe0 55bd 3c4e 013e d1f1 fabc eab0 a23c
00000070: e97c 6cbc 8938 af3c 4db8 d4bd 0bba 2a3e
00000080: 9d24 b53d 99f2 26bd 9544 e73d 4a79 643d
00000090: 45c2 83bd 62f4 04be 43b6 18bd cd6b 2b3d
000000a0: 5899 6abe bc86 1e3e ccb7 efbd 7dc4 cebd
000000b0: 0c73 cfbd b966 24bd 042d dcbe 4bb1 1d3e
000000c0: 186f d73d f9d4 9cbc 1f1e c6bd 78bc bb3c
000000d0: a5f4 12be 9461 dabd da83 c33b 95f5 bc3d
000000e0: d3dd aabd bcfe ae3d 8d3c 78be a83a a6bd
000000f0: cb28 f3be e081 38bd 6920 e3bd cb34 9dbd
00000100: d9dd 483e b844 9d3d 79b8 bfbd 7d3f 393d
00000110: 482e 8bbd c2b0 5b3a e724 083e 1a5f b7bd
00000120: dd0a af3d 26fe d43d 5922 bebd 6d76 16be
00000130: bec9 073e 21c5 073c 82a4 7e3e 3892 8ebc
00000140: 0fdb 93bd d9db b1bc de1b 9bbc e30f cbbc
00000150: b7be 49bd 3c1d 9fbd a817 ce3c bdb4 54bd
00000160: e96e 343d aadd dc3d 8ead 80be 8639 4f3e
00000170: 8af9 223d 8a94 81bd 0ba7 2b3e b0f5 3e3d
00000180: 629a ac3d ea48 593d ae57 733d 4af7 f83d
00000190: c0f4 983b cbaf 67bd fdf5 7f3d b9c6 773d
000001a0: d6e4 debd 1f77 b6bd b362 03be 06ee e33d
000001b0: 5dbd d6bd 0649 9b3c a083 0a3e ba99 86bd
000001c0: 536a 7bbd 967b b83d 67f6 343e c005 73bd
000001d0: 7c26 213d 5d32 b8bd 14b4 113e aa22 0e3e
000001e0: 489c d33d c328 a43d 226d 263e fa0b 5bbe
000001f0: 7d08 b0be 03f2 713e 1fa1 003d 9150 86bd
00000200: 7221 d53d 0160 54bd 814b 993d a8ed 793d
00000210: a75c 4f3d 58b1 bfbd adf8 20be f7b0 7abc
00000220: 85c5 08be 228c aebd 9282 82bb 3945 903d
00000230: 209e 143e c786 57be 1864 0b3c dc2f 0a3e
00000240: 4e0f aebc bba3 a9bd 5502 2b3c a16a dabd
00000250: 0994 853a 4990 debd e443 95bd b428 02be
00000260: 339c 34be 6968 8cbd a406 b83c d67b 7a3d
00000270: 7104 a7be e1ea 76be d243 1f3e c8f1 83bc
00000280: 80bb 02be bfb0 27bd 43e8 28be 880e 23bb
00000290: 8502 04bd 1878 d2bd 56f9 2f3d 74f5 623d
000002a0: a8e8 993d e860 b53d 5ad3 d1bd f427 e23d
000002b0: ff01 843d 2706 62be da3e 4c3e 3599 1b3e
000002c0: 037c 4c3e a48d 253d b428 a9bd 6d41 cd3d
000002d0: 2b73 963d 4ba4 7c3b 8ccf 943d 94be 0b3d
000002e0: 2ce5 57bd 790d 6ebd 3bac b13c 313d c7bd
000002f0: 8668 dbbd e1b2 41b7 da7c 183e f8fc 76bd
00000300: 2d01 46bc 60ca 38be d0d9 f83c a382 c1bd
00000310: 1c99 f1bd cd0d d13d 39df f23d a3e0 903d
00000320: 0b15 0bbe 902b a03d 46d3 8f3e 6fb6 803e
00000330: 608b 293c fabd 9f3d 28a6 63be 54d0 593e
00000340: 0534 3abd f53a c13d 9149 70be 5db0 32bd
00000350: 74e2 863d dd55 be3d 2609 01be d991 a9bd
00000360: 1b9e 85bd cbe3 023c ec35 573c ef66 013d
00000370: bdd9 153d 2a0e 4cbe 76a6 763c 38c7 9abd
00000380: 9d1e 7f3d 72eb c8bd f30f 9c3d 4633 e23d
00000390: 4ee5 86be b2c6 483d 2839 183d b92a 07bd
000003a0: dce4 aa3d b024 a6bd c116 11be 0cab 973c
000003b0: 59d9 d3bd 2a4b 9c3d d181 b03c a919 273e
000003c0: 0020 be3c 1d72 403b 3235 6d3d 47ef 95bd
000003d0: 5634 69bd 372d 5e3d af3c 0bbe 1fab 35bc
000003e0: 3639 94bd 0ef9 c13d 8f15 11bd c74c 443c
000003f0: 3148 98bb bf9d bc3d 175e 953d 2ca9 bcbb

fc2.bias f4 [7]
-0.026414152 -0.068395816 0.14569712 0.012511225 0.1721067 -0.12928838 -0.12679142
00000000: 7e62 d8bc 1b13 8cbd a031 153e e2fb 4c3c
00000010: bd3c 303e 2c64 04be 9cd5 01be

localization.0.weight f4 [8, 1, 7, 7]
-0.17881167 -0.19257024 0.05431841 -0.22786541 -0.15835717 -0.17790583 -0.057267707 -0.0724928
-0.103300214 0.18771665 0.17035094 0.28769454 -0.07490655 0.16850978 -0.20157816 -0.2182773
0.05818933 0.09703577 0.16864614 0.048177205 -0.14700569 0.10188573 -0.27576223 -0.025769005
0.091624215 -0.20042625 0.108607695 -0.24277584 -0.057179935 -0.20764253 -0.30845746 -0.017375976
-0.15042655 -0.06873244 0.024540143 -0.091714956 0.029412761 -0.117289975 0.14298901 -0.0017790161
-0.09663389 0.21832484 0.08830512 0.25313076 -0.0022945201 -0.14313298 -0.18380103 0.0084666265
-0.065054394 -0.31191975 -0.33793664 -0.11878868 -0.1800891 -0.28423128 0.044662658 0.479137
0.1810448 0.06231273 0.20948939 0.20392632 -0.26313767 -0.15817514 0.07334953 0.12546328
0.049966026 -0.083222464 -0.14262311 -0.024112357 0.12248413 -0.06753726 0.18331297 0.11195167
-0.14019091 -0.05226435 -0.11491645 -0.05807989 -0.15260628 0.028454347 0.11889548 0.27481955
0.10771288 -0.066438094 0.21121843 0.18691914 -0.21649036 0.21350196 0.22001234 0.05826106
0.031131217 0.028752934 0.027948324 -0.20672429 -0.12645642 0.0375525 0.061754897 -0.21906602
-0.033589322 0.10895305 -0.01116785 -0.13525675 -0.14163509 0.045536254 0.077444054 -0.10945767
-0.35707635 -0.022621052 -0.15092453 -0.3487852 0.085827805 0.25424623 0.2097843 0.085629255
-0.13588625 -0.24613748 -0.08118192 -0.16372685 0.19705847 -0.00420674 0.14908138 0.28179964
-0.028323596 -0.24232231 -0.051640324 -0.02380167 0.10352544 0.08877481 0.17962082 -0.012737893
-0.23552728 -0.28965214 -0.120561294 -0.10384757 0.06716425 0.18333521 -0.083351456 -0.029002085
0.24496923 0.053179674 -0.052233815 -0.039117392 0.25709334 -0.1837101 -0.15767673 -0.116957754
0.043202803 0.04838297 -0.20525764 0.12310322 -0.024382776 -0.045245916 0.0846177 -0.060613662
-0.09959316 -0.17289597 0.0060626706 0.24491286 0.17976996 -0.24577563 -0.08106223 -0.08939434
0.11694457 -0.008774444 -0.19259097 -0.26119813 -0.24871328 -0.20766515 0.115162246 0.0021029466
-0.1741761 -0.05973756 -0.09839506 -0.020912535 -0.05467031 0.16539946 0.18097106 -0.13392116
0.053304426 0.013424357 0.243545 -0.15219672 -0.08911008 -0.012505617 -0.16352905 0.08422022
0.06366724 0.09019615 -0.18714169 -0.046289638 0.19857414 0.002261338 0.1407682 -0.0018977345
-0.035409924 -0.14968534 0.059603557 0.085115574 0.20929605 0.013359138 0.08605247 0.0005019191
-0.111703195 -0.08910891 -0.05834633 -0.13330606 -0.18095005 -0.14605899 -0.23013401 0.028168201
-0.113474295 0.2183979 0.10198669 0.09899481 0.1798229 0.1767712 -0.13706522 -0.038991276
0.121021524 0.11390904 -0.14180563 0.08283248 -0.02843432 -0.27137113 0.07825649 -0.19345504
0.05682248 0.044842724 -0.06215959 0.04134001 -0.09575269 -0.007823006 -0.0077017127 0.028740052
0.20430438 -0.067442514 0.097116716 0.069854565 0.22763331 -0.013566939 -0.18577366 -0.26273346
-0.05290323 -0.059827864 -0.035067968 -0.16711162 -0.079195134 -0.0031689948 0.108930714 0.3871168
0.28986442 -0.011709321 0.12786157 -0.058463804 -0.13881658 -0.13043228 0.0629024 0.25893226
00000000: 681a 37be 2231 45be fb7c 5e3d 8d55 69be
00000010: 6228 22be f22c 36be 8b91 6abd 1b77 94bd
00000020: 108f d3bd cb38 403e 7a70 2e3e b34c 933e
00000030: 9b68 99bd d48d 2c3e 816a 4ebe 1684 5fbe
00000040: ef57 6e3d b1ba c63d 93b1 2c3e 7655 453d
00000050: a988 16be 77a9 d03d b530 8dbe 8519 d3bc
00000060: 7aa5 bb3d 8a3c 4dbe b66d de3d 3b9a 78be
00000070: 8235 6abd 3ea0 54be 23ee 9dbe 1058 8ebc
00000080: 6b09 1abe 98c3 8cbd 6908 c93c 0dd5 bbbd
00000090: 08f3 f03c ba35 f0bd b66b 123e e02d e9ba
000000a0: fde7 c5bd 8c90 5f3e 51d9 b43d 5b9a 813e
000000b0: a95f 16bb 7491 12be 5636 3cbe 9bb7 0a3c
000000c0: 3d3b 85bd f2b3 9fbe 0806 adbe 7b47 f3bd
000000d0: 4769 38be c386 91be 31f0 363d 7251 f53e
000000e0: cf63 393e a23b 7f3d 6384 563e 10d2 503e
000000f0: fbb9 86be aaf8 21be 4738 963d 7279 003e
00000100: 2da9 4c3d 8a70 aabd cb0b 12be 4787 c5bc
00000110: f6d8 fa3d fa50 8abd 65b6 3b3e eb46 e53d
00000120: 358e 0fbe 2513 56bd 5159 ebbd 2ee5 6dbd
00000130: d244 1cbe 1719 e93c 797f f33d 26b5 8c3e
00000140: 9298 dc3d b210 88bd a549 583e bb67 3f3e
00000150: a6af 5dbe 42a0 5a3e ea4a 613e 26a3 6e3d
00000160: e506 ff3c 468b eb3c e2f3 e43c 88af 53be
00000170: cb7d 01be a6d0 193d b4f2 7c3d d852 60be
00000180: f594 09bd c722 df3d 5cf9 36bc bf80 0abe
00000190: ca08 11be 3984 3a3d fd9a 9e3d 582b e0bd
000001a0: b6d2 b6be c94f b9bc f68b 1abe f993 b2be
000001b0: 7dc6 af3d 902c 823e b2d1 563e 645e af3d
000001c0: c425 0bbe 770b 7cbe b542 a6bd 03a8 27be
000001d0: b2c9 493e b1d8 89bb caa8 183e 0b48 903e
000001e0: e306 e8bc 5723 78be ce84 53bd b8fb c2bc
000001f0: 2505 d43d 91cf b53d 85ee 373e 98b2 50bc
00000200: 102e 71be 494d 94be d7e8 f6bd 09ae d4bd
00000210: 698d 893d 3abc 3b3e 2bb4 aabd c895 edbc
00000220: 37d9 7a3e eed2 593d 20f3 55bd 8f39 20bd
00000230: bda1 833e 801e 3cbe 0276 21be 8c87 efbd
00000240: 6cf5 303d 392d 463d 0f2f 52be 8a1d fc3d
00000250: 63be c7bc c853 39bd 0b4c ad3d 0846 78bd
00000260: 80f7 cbbd a40b 31be 5ea9 c63b 70ca 7a3e
00000270: 9e15 383e 9bac 7bbe f403 a6bd 6114 b7bd
00000280: a280 ef3d b0c2 0fbc 9136 45be c3bb 85be
00000290: b2ae 7ebe 2ca6 54be 2fda eb3d 97d1 093b
000002a0: 385b 32be 5faf 74bd 5983 c9bd c450 abbc
000002b0: faed 5fbd 7a5e 293e 7a50 393e a122 09be
000002c0: be55 5a3d d6f1 5b3c dc63 793e 75d9 1bbe
000002d0: 587f b6bd 5ce4 4cbc 2974 27be a77b ac3d
000002e0: f863 823d c2b8 b83d 12a2 3fbe 349a 3dbd
000002f0: 0557 4b3e f532 143b 8a25 103e 67bd f8ba
00000300: ff09 11bd 1d47 19be dc22 743d 1351 ae3d
00000310: b451 563e 49e0 5a3c 473c b03d 3893 033a
00000320: a5c4 e4bd bb7e b6bd 90fc 6ebd 6281 08be
00000330: f84a 39be 7d90 15be 40a8 6bbe 00c1 e63c
00000340: 3665 e8bd b3a3 5f3e 66de d03d cabd ca3d
00000350: 7f23 383e 8203 353e d35a 0cbe 51b5 1fbd
00000360: 22da f73d 2549 e93d 7f35 11be 13a4 a93d
00000370: 17ef e8bc 28f1 8abe f044 a03d 1419 46be
00000380: b0be 683d 01ad 373d 0e9b 7ebd 2454 293d
00000390: fd19 c4bd 112c 00bc a65e fcbb 4270 eb3c
000003a0: 2b35 513e 4d1f 8abd 21e5 c63d e90f 8f3d
000003b0: b518 693e de47 5ebc 733b 3ebe 0085 86be
000003c0: 0fb1 58bd 100e 75bd 6ea3 0fbd 4f1f 2bbe
000003d0: 0f31 a2bd e9ae 4fbb 1117 df3d 2c34 c63e
000003e0: 1c69 943e 74d8 3fbc 25ee 023e be77 6fbd
000003f0: ef25 0ebe 0a90 05be f9d2 803d c592 843e

localization.0.bias f4 [8]
-0.18691199 -0.37127787 -0.20001261 -0.18378802 -0.29395437 -0.20213878 -0.34123176 -0.22585657
00000000: db65 3fbe 2218 bebe 1bd0 4cbe ed32 3cbe
00000010: 3081 96be 78fd 4ebe eeb5 aebe f246 67be

localization.3.weight f4 [10, 8, 5, 5]
-0.17632438 0.004008098 -0.25359082 -0.07269986 -0.059167802 -0.16670953 -0.3308584 -0.4028032
0.03618561 -0.18774474 0.015320681 -0.13323395 -0.14759538 -0.2575482 0.027060825 0.13218313
-0.07299354 -0.15560648 -0.037942186 0.08346132 -0.26819938 -0.04222778 -0.099559024 -0.27724814
-0.20058103 -0.1282712 -0.05269877 -0.28725898 -0.042660236 0.08748245 0.10696952 -0.2524128
0.13946058 -0.089659825 -5.131369e-05 -0.009743911 0.08004495 0.312791 -0.14976573 -0.25582066
-0.16062579 -0.05207691 -0.2801342 -0.22173448 -0.044043645 0.06003814 -0.115893826 0.27553672
0.16488905 -0.12310872 0.14137666 0.09688687 -0.11260141 -0.29898444 -0.0911993 -0.040357236
-0.14947708 -0.01191704 0.09117343 -0.26707724 0.0042939456 -0.35744074 -0.22148153 -0.15840298
-0.25281027 0.094420254 -0.094040856 -0.10020712 0.017971288 0.23876311 0.07386016 0.076516025
-0.109179 -0.094511665 0.056446813 0.053984452 0.115460165 -0.10611305 -0.06301483 0.09208434
0.25503513 0.13282844 -0.25377005 -0.08297631 -0.118774764 -0.23301256 -0.4103385 -0.4767333
-0.16870053 0.13448077 -0.026534738 0.010356652 0.12620029 0.079250015 -0.103969 0.07658021
0.045734946 -0.12863615 -0.29019397 -0.020000793 -0.066286504 -0.099424765 -0.11074585 -0.09281086
0.009511088 0.13105264 0.2135368 0.24588057 0.14405662 -0.0145441275 -0.28404456 -0.38679853
-0.20549549 0.0795131 0.11201098 -0.06331265 -0.015728472 -0.106322646 0.00793248 -0.05026699
0.12256717 -0.05214037 0.04829443 0.105373956 -0.03552354 -0.11013223 -0.2646178 -0.27755886
-0.1397321 -0.09915225 -0.1294999 0.0036241887 0.009362159 -0.22949964 -0.09071523 0.21063456
0.16129804 0.21883374 0.00047911424 0.04399758 0.028633704 -0.24060112 -0.23875444 -0.21537702
-0.1887722 -0.35893676 -0.14262356 -0.056710437 -0.009974748 0.101738185 -0.27750343 -0.10739219
-0.03783022 -0.0620244 -0.051336303 0.078099854 0.04115601 -0.15159182 0.11721775 -0.10733238
0.04381744 0.22908306 -0.14141044 -0.19671026 0.038045697 -0.2724991 -0.34708124 -0.2138576
0.030166479 -0.003655074 0.23916242 0.22556351 0.08652346 0.1769675 0.014669165 0.01645438
-0.04271575 -0.25728595 -0.06555186 -0.049972598 -0.16284107 -0.11110462 0.12718475 0.039534573
-0.020681767 -0.033113074 -0.15147313 -0.4377909 -0.06547487 0.053521622 0.16656968 0.10211688
0.069679804 -0.06372235 -0.06452682 -0.20506427 -0.37658003 -0.424329 -0.12196548 -0.34910244
-0.22727041 -0.12174052 -0.11766523 -0.14523019 -0.08140496 0.052644923 0.075287 -0.11488428
0.10216147 -0.12377902 -0.07838366 -0.10155687 -0.29649878 -0.060840584 0.039098904 0.078555316
0.13471659 -0.047833014 0.11782359 0.19964476 -0.23107195 -0.318167 -0.36480644 -0.18020491
-0.3380545 -0.10681681 -0.056370087 -0.026788423 -0.16645457 0.10204886 -0.20990202 -0.069234595
-0.1917053 -0.15712658 -0.15461175 0.062993154 -0.015642775 -0.019747108 -0.14293332 0.02287197
-0.08665307 -0.13204326 -0.01608193 -0.17004977 0.058974065 -0.033167962 0.07298624 0.109971374
0.039034612 -0.1314503 -0.045224365 -0.088611685 0.0008586399 0.06454058 -0.22596222 0.04960216
00000000: 618e 34be 5d56 833b a8d6 81be aae3 94bd
00000010: f059 72bd e7b5 2abe 4666 a9be 393c cebe
00000020: 5d37 143d 2840 40be 9803 7b3c 7b6e 08be
00000030: 3e23 17be 5cdd 83be aaae dd3c 045b 073e
00000040: a37d 95bd 4e57 1fbe 4469 1bbd c5ed aa3d
00000050: 6e51 89be 09f7 2cbd 9ae5 cbbd 78f3 8dbe
00000060: 1d65 4dbe 8759 03be aada 57bd 9c13 93be
00000070: 80bc 2ebd 002a b33d d612 db3d 403c 81be
00000080: c1ce 0e3e 929f b7bd a839 57b8 eda4 1fbc
00000090: 9bee a33d 2426 a03e 305c 19be edfa 82be
000000a0: 167b 24be 994e 55bd c06d 8fbe 5d0e 63be
000000b0: 1c67 34bd 8dea 753d be59 edbd 2613 8d3e
000000c0: add8 283e 6d20 fcbd 0bc5 103e a06c c63d
000000d0: 919b e6bd 7d14 99be b3c6 babd a14d 25bd
000000e0: 8510 19be b03f 43bc 23b9 ba3d 59be 88be
000000f0: 3ab4 8c3b 7902 b7be 0ecc 62be 6434 22be
00000100: 5970 81be 685f c13d 7e98 c0bd 6439 cdbd
00000110: 8638 933c 517e 743e ff43 973d 6fb4 9c3d
00000120: 3d99 dfbd 558f c1bd c634 673d cd1e 5d3d
00000130: 6176 ec3d cc51 d9bd eb0d 81bd b796 bc3d
00000140: f793 823e 2e04 083e 26ee 81be 7cef a9bd
00000150: 2f40 f3bd d89a 6ebe e317 d2be 6316 f4be
00000160: d5bf 2cbe 54b5 093e 615f d9bc f2ae 293c
00000170: a63a 013e d54d a23d b3ed d4bd 16d6 9c3d
00000180: 9154 3b3d 32b9 03be 4e94 94be b4d8 a3bc
00000190: 38c1 87bd 369f cbbd b8ce e2bd 9f13 bebd
000001a0: 65d4 1b3c aa32 063e 64a9 5a3e 1ec8 7b3e
000001b0: 9483 133e 7e4a 6ebc 4a6e 91be 750a c6be
000001c0: 696d 52be c4d7 a23d 0366 e53d 10aa 81bd
000001d0: ffd8 80bc b0bf d9bd 3cf7 013c c2e4 4dbd
000001e0: 7f04 fb3d 2491 55bd 61d0 453d 4dce d73d
000001f0: 2281 11bd 028d e1bd fc7b 87be 321c 8ebe
00000200: ee15 0fbe 5610 cbbd 9f9b 04be cc83 6d3b
00000210: be63 193c f401 6bbe e8c8 b9bd 96b0 573e
00000220: 502b 253e f415 603e a031 fb39 ce36 343d
00000230: 3b91 ea3c 2460 76be 0b7c 74be cb8b 5cbe
00000240: 804d 41be 8fc6 b7be e90b 12be 3449 68bd
00000250: 206d 23bc 1c5c d03d ee14 8ebe 70f0 dbbd
00000260: dcf3 1abd 4c0d 7ebd 0446 52bd d1f2 9f3d
00000270: 3493 283d e33a 1bbe dc0f f03d 14d1 dbbd
00000280: ea79 333d c094 6a3e e6cd 10be 6a6e 49be
00000290: ced5 1b3d 0185 8bbe a2b4 b1be 7dfd 5abe
000002a0: b11f f73c f789 6fbb fee6 743e 1ffa 663e
000002b0: 3633 b13d f836 353e f056 703c 56cb 863c
000002c0: b6f6 2ebd fcba 83be 0e40 86bd 11b0 4cbd
000002d0: cfbf 26be d28a e3bd b83c 023e 01ef 213d
000002e0: cf6c a9bc 93a1 07bd c61b 1bbe 2126 e0be
000002f0: b017 86bd 7d39 5b3d 3e91 2a3e a822 d13d
00000300: 49b4 8e3d dd80 82bd a326 84bd 5efc 51be
00000310: 19cf c0be a741 d9be 0ac9 f9bd 8ebd b2be
00000320: 93b9 68be 1853 f9bd 78fa f0bd 39b7 14be
00000330: a5b7 a6bd 34a2 573d 1230 9a3d 7348 ebbd
00000340: 083a d13d db7f fdbd 9d87 a0bd 0cfd cfbd
00000350: b0ce 97be fa33 79bd 2c26 203d 9ce1 a03d
00000360: 25f3 093e 8dec 43bd 7f4d f13d ad6f 4c3e
00000370: 209e 6cbe c9e6 a2be e9c7 babe a387 38be
00000380: 7b15 adbe c6c2 dabd 52e4 66bd 6573 dbbc
00000390: 1173 2abe fefe d03d 8ef0 56be deca 8dbd
000003a0: 654e 44be cae5 20be 8b52 1ebe 8e02 813d
000003b0: 4725 80bc b0c4 a1bc 1d5d 12be ff5d bb3c
000003c0: 2a77 b1bd 5936 07be 40be 83bc 8721 2ebe
000003d0: ca8e 713d 21db 07bd cf79 953d ac38 e13d
000003e0: c2e2 1f3d e89a 06be 2f3d 39bd 0b7a b5bd
000003f0: 5916 613a da2d 843d a462 67be a22b 4b3d

localization.3.bias f4 [10]
-0.023252446 -0.034378562 -0.16593993 -0.06960622 -0.12383492 -0.18665494 -0.06523022 0.08121525
-0.105139464 -0.043303356
00000000: ea7b bebc 89d0 0cbd 28ec 29be b58d 8ebd
00000010: 2a9d fdbd 7922 3fbe 6c97 85bd 2e54 a63d
00000020: 5c53 d7bd dc5e 31bd
