deep_emotion-ckplus-20-32-0.003.pt (torch, 274522 bytes, 24 tensors)

conv1.weight f4 [10, 1, 3, 3]
-0.13530093 -0.15356973 -0.12116402 0.2893585 -0.26779795 0.1685956 -0.24559367 0.3144759
-0.24216644 0.22207536 0.10314121 -0.045848027 0.23775265 -0.04605457 0.28210852 -0.11053018
-0.41840893 -0.15737882 -0.16419457 0.29257753 0.11496227 0.029257791 0.24260975 -0.23751141
-0.14688244 -0.03313083 -0.2642714 -0.20975342 -0.25500616 0.15691188 0.022455761 -0.09071899
0.24319404 0.16816577 -0.2829562 0.2552124 -0.34957796 0.14540581 -0.3062677 -0.19582124
-0.13035014 0.09621207 0.090961486 0.06541985 0.046834514 -0.1261025 -0.06615372 0.10892205
0.12226508 -0.09848397 -0.12116566 0.10292012 0.11356689 -0.24686867 0.21410863 -0.23171668
-0.23854223 -0.19437926 0.077963494 0.06505323 0.17428665 0.30697575 -0.0776457 -0.12478605
0.2759804 0.109007776 -0.21253157 0.14622003 -0.07383284 -0.18290877 -0.21234152 -0.24336258
0.03198845 -0.18476933 -0.30690825 -0.23298316 0.2765256 0.27731478 -0.16007632 0.1671097
0.039421223 -0.13163564 -0.040373933 -0.29830745 0.0389546 0.017289115 0.21470374 0.10867522
-0.13114658 0.2885117
00000000: 548c 0abe 6241 1dbe d724 f8bd cc26 943e
00000010: d01c 89be 53a4 2c3e e87c 7bbe fc02 a13e
00000020: 7bfa 77be b967 633e b33b d33d 24cb 3bbd
00000030: 6e75 733e b7a3 3cbd 8770 903e a65d e2bd
00000040: b239 d6be ea27 21be 9f22 28be b9cc 953e
00000050: 5771 eb3d 09ae ef3c b16e 783e 3136 73be
00000060: 5a68 16be 31b4 07bd 954e 87be 9ac9 56be
00000070: 2b90 82be 82ad 203e 25f5 b73c e1ca b9bd
00000080: dc07 793e a633 2c3e a3df 90be 33ab 823e
00000090: e2fb b2be 43e5 143e 1fcf 9cbe 5d85 48be
000000a0: 827a 05be d50a c53d 044a ba3d d8fa 853d
000000b0: 8cd5 3f3d 0421 01be 9a7b 87bd 8612 df3d
000000c0: 1d66 fa3d f7b1 c9bd b425 f8bd c9c7 d23d
000000d0: c295 e83d 24cb 7cbe 4b3f 5b3e 2347 6dbe
000000e0: 6a44 74be 5b0b 47be 53ab 9f3d a13a 853d
000000f0: 3378 323e ed2b 9d3e b504 9fbd d48f ffbd
00000100: 4e4d 8d3e 783f df3d e0a1 59be b4ba 153e
00000110: ac35 97bd 704c 3bbe 0e70 59be 0a34 79be
00000120: 5206 033d 2c34 3dbe 1423 9dbe 2393 6ebe
00000130: c394 8d3e 34fc 8d3e 0ceb 23be ce1e 2b3e
00000140: 2678 213d 7ecb 06be 235f 25bd c1bb 98be
00000150: dc8e 1f3d e7a1 8d3c 4cdb 5b3e 1d91 de3d
00000160: 4a4b 06be ceb7 933e

conv1.bias f4 [10]
-0.046453565 0.08765868 0.27342975 0.28432405 0.2008762 -0.048846185 0.033932343 -0.1700901
0.16366681 0.23367482
00000000: 1846 3ebd 6586 b33d fcfe 8b3e ec92 913e
00000010: 7eb2 4d3e f012 48bd a4fc 0a3d 192c 2ebe
00000020: 4698 273e 7448 6f3e

conv2.weight f4 [10, 10, 3, 3]
0.00087841856 0.04651879 -0.050753377 0.05974708 -0.0065241437 -0.021173306 0.07660506 -0.032911688
-0.05566786 0.08941805 -0.029238036 -0.05143512 0.0665188 -0.014667129 0.08491986 0.1350224
0.0745348 0.074242875 0.046548996 0.09541154 0.11180328 0.031371433 0.08336398 6.212763e-05
0.14530243 -0.010125192 0.12717661 -0.06808657 0.007585167 0.091470435 0.04621179 -0.03858585
-0.07567391 0.06107944 0.009725421 -0.10236265 -0.11987539 -0.015130425 -0.032407198 0.021350263
0.0046190745 -0.049260493 -0.10409237 0.067403875 0.004130941 0.04328712 0.05689863 0.093175985
0.08633103 0.1350187 -0.103818946 0.029569725 -0.083239466 0.015477834 -0.05532467 0.029457303
-0.13650502 -0.02381172 -0.08449245 -0.10471139 -0.11663246 -0.0011257117 -0.0757745 -0.045321107
-0.099336974 0.07319282 -0.03280482 -0.056803033 0.0049873097 0.05837252 0.14820625 -0.050141495
0.035185896 -0.037065443 0.011047038 -0.082392775 -0.0024148608 -0.08749732 0.056737963 -0.054587994
0.011390022 -0.08739984 0.0822554 -0.08392951 0.06823105 -0.114345536 -0.054454558 -0.100076735
0.08040871 0.080219746 -0.051711366 -0.04002208 -0.0518595 0.076374464 -0.110011786 0.051266473
-0.058685254 -0.006984642 -0.042606436 -0.07920881 -0.004644025 -0.104478486 -0.117205925 -0.105612755
-0.011464257 -0.049762726 0.050846934 -0.055886474 -0.089794636 -0.048287522 -0.08820456 0.06502166
0.059315655 -0.039815664 0.042310253 -0.038167324 0.062323786 -0.09559879 0.02606116 -0.098581366
-0.11244387 -0.10399184 -0.009276134 -0.04597892 0.03234786 0.06937605 -0.1250617 -0.09734045
0.0486537 -0.04477502 -0.06650682 -0.014063892 0.024072932 0.04074557 -0.027263764 -0.06323238
-0.065925635 0.08992225 -0.0039033631 -0.034475453 -0.014701057 -0.042964287 0.019170083 -0.024852596
0.045453265 0.0033240085 0.0771486 0.0076081883 -0.11453479 -0.09239041 0.043178186 0.057402525
0.051900696 0.0804908 0.06640414 -0.03998942 -0.058830153 0.03924769 0.059291247 -0.06294497
0.07820828 0.014004049 0.0115140425 -0.10435822 -0.09937392 -0.059987128 -0.016188737 0.026361952
-0.00051645393 -0.100865036 0.013621693 -0.076563254 -0.09462154 -0.02630992 -0.075704575 0.0918526
0.059886005 -0.035729587 0.025876096 -0.06091395 -0.008839583 0.07122612 0.08934998 -0.01959615
0.0974232 0.01953906 -0.06099977 -0.049493905 -0.00019177975 -0.0010681532 -0.023913305 -0.043889
-0.0036220723 0.0033057146 0.05316968 0.12080446 -0.085010804 -0.059381112 -0.09501261 -0.092584126
-0.030689722 -0.092092276 0.091055736 0.03266848 0.06917909 0.04316802 -0.012676236 -0.052266795
0.04767545 -0.08294648 0.097596526 -0.011736559 0.0679539 0.0008843022 0.065539286 0.044792324
-0.03198467 -0.023738334 -0.048466805 0.11454129 0.08116449 -0.048330754 -0.044648804 -0.06789669
0.08829719 -0.12736928 0.038635466 -0.013150138 -0.023047967 0.06470273 0.016696425 0.056005903
-0.031197071 -0.03691835 0.12427195 0.06727413 0.08674965 -0.09822844 -0.00016914948 0.03494481
0.05280512 0.01572567 0.04069485 -0.064152285 0.0051444205 -0.014047411 -0.046569575 -0.12454019
-0.023161063 -0.04097712 -0.010356133 -0.002455019 0.055932507 0.115243234 -0.09588972 0.06133455
00000000: ac45 663a 7d8a 3e3d c6e2 4fbd 5bb9 743d
00000010: 7cc8 d5bb a473 adbc 1de3 9c3d 68ce 06bd
00000020: fb03 64bd d020 b73d 9b84 efbc a2ad 52bd
00000030: 023b 883d 664e 70bc 77ea ad3d 5043 0a3e
00000040: b4a5 983d a60c 983d 29aa 3e3d 2067 c33d
00000050: 1ef9 e43d 557f 003d bcba aa3d 844a 8238
00000060: 29ca 143e 22e4 25bc 963a 023e f970 8bbd
00000070: fe8c f83b da54 bb3d 9348 3d3d 320c 1ebd
00000080: ecfa 9abd 6f2e 7a3d 5f57 1f3c 82a3 d1bd
00000090: 3a81 f5bd 9ae5 77bc 69bd 04bd bfe6 ae3c
000000a0: 9b5b 973b 5fc5 49bd 612e d5bd 0b0b 8a3d
000000b0: d85c 873b d64d 313d 8a0e 693d 0dd3 be3d
000000c0: 53ce b03d 5842 0a3e 079f d4bd 353c f23c
000000d0: 7479 aabd be96 7d3c 1f9c 62bd 7150 f13c
000000e0: f9c7 0bbe cc10 c3bc 610a adbd ed72 d6bd
000000f0: 00dd eebd 9e8c 93ba a92f 9bbd a0a2 39bd
00000100: 2f71 cbbd 1ee6 953d 595e 06bd 4caa 68bd
00000110: 966c a33b 0618 6f3d 61c3 173e 2b61 4dbd
00000120: 161f 103d efd1 17bd a3fe 343c 8bbd a8bd
00000130: a442 1ebb cb31 b3bd 1166 683d a997 5fbd
00000140: 379d 3a3c b0fe b2bd 8575 a83d 3ce3 abbd
00000150: b9bc 8b3d fe2d eabd be0b 5fbd 08f5 ccbd
00000160: 52ad a43d 404a a43d 4ccf 53bd 31ee 23bd
00000170: a16a 54bd 376a 9c3d dc4d e1bd cbfc 513d
00000180: f35f 70bd 6cdf e4bb 1684 2ebd 3b38 a2bd
00000190: e82c 98bb d1f8 d5bd a909 f0bd 804b d8bd
000001a0: 94d4 3bbc 00d4 4bbd e044 503d 37e9 64bd
000001b0: 40e6 b7bd 23c9 45bd 98a4 b4bd 132a 853d
000001c0: f9f4 723d c015 23bd 844d 2d3d 5755 1cbd
000001d0: 3a47 7f3d 4cc9 c3bd 377e d53c 07e5 c9bd
000001e0: f948 e6bd acf9 d4bd edfa 17bc 6454 3cbd
000001f0: 317f 043d 0815 8e3d 2d10 00be 6e5a c7bd
00000200: 1a49 473d 0366 37bd ba34 88bd 3d6c 66bc
00000210: 9934 c53c d4e4 263d 4258 dfbc fa7f 81bd
00000220: 0504 87bd 2829 b83d 91cf 7fbb 2236 0dbd
00000230: b4dc 70bc 52fb 2fbd 940a 9d3c ac97 cbbc
00000240: 342d 3a3d 9cd7 593b 1600 9e3d 1c4e f93b
00000250: 3791 eabd 2f37 bdbd 9cdb 303d e91e 6b3d
00000260: d395 543d 5cd8 a43d e5fe 873d f2cb 23bd
00000270: e3f7 70bd 30c2 203d 61db 723d 4be9 80bd
00000280: aa2b a03d 3d71 653c 65a5 3c3c c3b9 d5bd
00000290: 8e84 cbbd 10b5 75bd 3e9e 84bc 05f5 d73c
000002a0: a362 07ba 5492 cebd 852d 5f3c 32cd 9cbd
000002b0: f0c8 c1bd e787 d7bc 000b 9bbd 371d bc3d
000002c0: 074b 753d 3059 12bd 1bfa d33c e880 79bd
000002d0: e6d3 10bc 00df 913d 1ffd b63d 1b88 a0bc
000002e0: d185 c73d 6110 a03c e5da 79bd 1fba 4abd
000002f0: 7c18 49b9 4601 8cba d6e5 c3bc f4c4 33bd
00000300: 4a60 6dbb b0a4 583b 73c8 593d 5468 f73d
00000310: 251a aebd 9c39 73bd f995 c2bd bf9c bdbd
00000320: 0369 fbbc e09a bcbd 6e7b ba3d 62cf 053d
00000330: c4ad 8d3d f3d0 303d fdaf 4fbc b515 56bd
00000340: 5547 433d d8df a9bd b0e0 c73d b24a 40bc
00000350: 6a2b 8b3d 84d0 673a 7639 863d 2878 373d
00000360: 5b02 03bd e576 c2bc 2185 46bd a094 ea3d
00000370: 9139 a63d 78f6 45bd aae1 36bd 6b0d 8bbd
00000380: 28d5 b43d 186d 02be 3940 1e3d ad73 57bc
00000390: 17cf bcbc dd82 843d f1c6 883c 7266 653d
000003a0: 0091 ffbc b237 17bd 4b82 fe3d 05c7 893d
000003b0: cda9 b13d fe2b c9bd b85d 31b9 4a22 0f3d
000003c0: 2e4a 583d 1fd3 803c a5af 263d 4662 83bd
000003d0: 8792 a83b 1d27 66bc bdbf 3ebd ed0e ffbd
000003e0: 45bc bdbc a0d7 27bd c5ac 29bc 62e4 20bb
000003f0: 7c19 653d a504 ec3d d461 c4bd f039 7b3d

conv2.bias f4 [10]
0.046056915 0.024081258 -0.0038183196 -0.027133044 0.06791207 -0.08843143 0.044588633 0.03255906
0.020346817 0.10202072
00000000: 2da6 3c3d 0f46 c53c c63c 7abb 1e46 debc
00000010: 7c15 8b3d 8a1b b5bd 92a2 363d a65c 053d
00000020: 5eae a63c 3df0 d03d

conv3.weight f4 [10, 10, 3, 3]
-0.09054268 -0.0028310781 -0.0049032504 0.093765035 0.12896338 0.035821714 0.07766326 0.078706905
-0.13119751 -0.021666683 0.0058956775 0.07091225 -0.0042497 -0.019195264 -0.05815446 0.07448759
0.039398868 -0.106324166 -0.08570836 0.004377345 0.08002187 -0.13841553 0.08178598 -0.021425024
-0.019398963 0.015094762 0.07883942 -0.021466428 0.027407775 0.089894846 -0.12212559 0.05171836
0.075146034 -0.14980869 0.054985877 0.10726257 -0.067013316 0.023809364 -0.06093328 -0.106080696
0.08183425 0.10723665 0.029589146 -0.046807095 0.08772396 -0.015781647 0.07213819 -0.08427577
-0.046684712 0.018145954 -0.06949458 0.015076915 -0.054994006 0.059036557 -0.12205274 -0.014164429
0.10144567 0.042273425 0.09211477 0.11106287 -0.036139604 0.1551734 -0.020622378 0.021821441
-0.07959959 0.032931425 0.0022118464 -0.09274685 0.0060182586 -0.030669073 0.056895014 -0.019103985
-0.14341737 0.05675485 -0.07506535 0.02145916 -0.10612192 -0.0131023675 0.092370845 -0.09744045
-0.0957493 0.0054942425 0.11558207 0.12683591 -0.13067085 0.0939329 0.058860507 0.12343355
0.088752426 -0.16095778 0.0730602 0.0036810972 0.015672438 -0.012447094 0.06540107 0.07342449
0.039221145 -0.091046154 0.020215046 -0.038164023 0.08193386 -0.110064186 0.013009963 -0.037713207
-0.077226326 0.066317946 -0.043863367 0.010953191 -0.03067083 0.0059373113 -0.009674772 -0.078236036
-0.07704888 -0.069056965 0.03995897 0.06916557 0.073369324 0.008146875 -0.02422408 -0.013728051
-0.10431904 0.09892411 -0.10782105 -0.013478303 0.04544723 -0.13716258 -0.03135719 -0.07218381
-0.060005467 -0.036945987 0.06728465 0.015936619 0.12296448 -0.056527983 -0.054610096 -0.07957621
0.009994807 -0.046307467 0.115312934 0.0030539637 0.067043014 0.0929198 0.054471068 -0.08823394
0.108935565 -0.029667675 -0.042208504 -0.13234016 0.021959594 0.04978133 -0.041073065 -0.02770427
-0.047046497 0.06543596 -0.06513567 0.14421293 0.034917157 0.07567348 0.060495947 -0.10242531
-0.07691558 -0.043901607 0.12248405 0.010558613 -0.020139087 -0.012302141 0.05434274 -0.052495863
0.08522032 -0.034928743 0.020715646 0.0986308 0.12608488 0.10822716 -0.09834068 -0.015228858
-0.10903056 0.10047583 -0.008602495 0.0045363456 0.087066844 -0.112191886 -0.056646332 -0.073558174
-0.06578869 0.06986156 0.042427965 0.036683433 -0.05684271 0.12857267 -0.04794174 -0.06283385
-0.05552714 0.10565695 0.017825546 -0.04646616 -0.07269925 0.089334495 -0.08312562 -0.0374283
0.07338892 0.0029496327 0.08924701 -0.057515055 -0.049301703 0.023711372 0.05938028 0.03208537
-0.028010739 0.034296583 0.09431559 0.0021988852 -0.021983478 -0.038049866 0.07308888 0.066548124
0.07127549 0.098798744 -0.044175796 -0.031935133 -0.041177828 0.0019991293 0.022809949 0.08421857
0.0364678 -0.10691453 -0.09361496 -0.02456032 0.048491582 0.1015705 0.025516458 0.03163876
0.03489274 -0.019850783 0.107929215 0.100368015 0.10552626 0.0032499644 0.0753749 0.035810314
-0.11908385 -0.10829514 -0.026726495 -0.13055167 0.0191388 0.069705024 -0.062038537 0.05182265
0.11162815 0.055560466 0.056820627 0.019493435 0.07810385 0.09100835 0.045823965 -0.05353935
00000000: 716e b9bd 9c89 39bb 72ab a0bb e207 c03d
00000010: fa0e 043e cab9 123d ea0d 9f3d 1631 a13d
00000020: a458 06be 547e b1bc 8730 c13b 713a 913d
00000030: 1141 8bbb 633f 9dbc 5f33 6ebd f38c 983d
00000040: b560 213d 7cc0 d9bd dd87 afbd d56f 8f3b
00000050: 82e2 a33d cdbc 0dbe 687f a73d 8883 afbc
00000060: 93ea 9ebc 0550 773c 9076 a13d 5dda afbc
00000070: 4586 e03c ca1a b83d fb1c fabd a2d6 533d
00000080: 2ae6 993d 7367 19be df38 613d 7aac db3d
00000090: 473e 89bd db0b c33c 2d95 79bd d640 d9bd
000000a0: b798 a73d e49e db3d f064 f23c ccb8 3fbd
000000b0: 9fa8 b33d 8348 81bc 30bd 933d c698 acbd
000000c0: 7838 3fbd d3a6 943c 2d53 8ebd 2a05 773c
000000d0: 6541 61bd 51d0 713d c9f6 f9bd ec11 68bc
000000e0: bfc2 cf3d e626 2d3d aba6 bc3d ee74 e33d
000000f0: 1f07 14bd c7e5 1e3e 43f0 a8bc e1c2 b23c
00000100: 1c05 a3bd 1ae3 063d a0f4 103b 0ff2 bdbd
00000110: d034 c53b b53d fbbc bf0a 693d f67f 9cbc
00000120: 01dc 12be c677 683d ddbb 99bd 1fcb af3c
00000130: 7356 d9bd 50ab 56bc ed2c bd3d dc8e c7bd
00000140: 3618 c4bd 0c09 b43b 4bb6 ec3d 46e1 013e
00000150: 94ce 05be e45f c03d b717 713d bbca fc3d
00000160: d5c3 b53d 1ed2 24be 96a0 953d 903e 713b
00000170: 7c63 803c e5ee 4bbc fff0 853d 945f 963d
00000180: 5aa6 203d 6876 babd 069a a53c e151 1cbd
00000190: f1cc a73d 5569 e1bd bd27 553c 2a79 1abd
000001a0: d628 9ebd b4d1 873d 13aa 33bd 0375 333c
000001b0: 6441 fbbc c78d c23b ef82 1ebc 373a a0bd
000001c0: cecb 9dbd bd6d 8dbd 04ac 233d aea6 8d3d
000001d0: a842 963d 787a 053c 9471 c6bc 9feb 60bc
000001e0: 39a5 d5bd b998 ca3d 48d1 dcbd 1ad4 5cbc
000001f0: e026 3a3d 5974 0cbe 6670 00bd 1bd5 93bd
00000200: 4bc8 75bd ad54 17bd 89cc 893d 838d 823c
00000210: cdd4 fb3d e389 67bd d6ae 5fbd daf8 a2bd
00000220: 42c1 233c e6ac 3dbd 3029 ec3d 0225 483b
00000230: d94d 893d bc4c be3d 0e1d 5f3d ffb3 b4bd
00000240: 9c19 df3d a009 f3bc d3e2 2cbd 2e84 07be
00000250: 9be4 b33c 82e7 4b3d 3b3c 28bd 11f4 e2bc
00000260: d4b3 40bd 4a03 863d da65 85bd 8eac 133e
00000270: 4b05 0f3d b3fa 9a3d 99ca 773d 5cc4 d1bd
00000280: ea85 9dbd 2cd2 33bd ebd8 fa3d 08fe 2c3c
00000290: bafa a4bc eb8e 49bc 7e96 5e3d e705 57bd
000002a0: fe87 ae3d 7111 0fbd dcb3 a93c f2fe c93d
000002b0: 651c 013e 34a6 dd3d d766 c9bd 7682 79bc
000002c0: 6a4b dfbd 46c6 cd3d 7bf1 0cbc a0a5 943b
000002d0: 1a50 b23d dcc4 e5bd fc05 68bd aba5 96bd
000002e0: 38bc 86bd 9413 8f3d f2c8 2d3d 5e41 163d
000002f0: e7d3 68bd 8ea8 033e 8f5e 44bd 09af 80bd
00000300: 6d70 63bd ac62 d83d e106 923c 4d53 3ebd
00000310: 58e3 94bd 01f5 b63d c43d aabd 6b4e 19bd
00000320: ee4c 963d a04e 413b 23c7 b63d e894 6bbd
00000330: 95f0 49bd 5a3e c23c bd38 733d f36b 033d
00000340: c776 e5bc 937a 0c3d 8828 c13d 2c1b 103b
00000350: b216 b4bc 2dda 1bbd 9faf 953d 624a 883d
00000360: e2f8 913d ff56 ca3d aef1 34bd 6ace 02bd
00000370: 15aa 28bd d303 033b eedb ba3c c97a ac3d
00000380: 435f 153d 01f6 dabd 33b9 bfbd b932 c9bc
00000390: 1c9f 463d 3204 d03d e407 d13c a597 013d
000003a0: b1eb 0e3d 1c9e a2bc fe09 dd3d bf8d cd3d
000003b0: 271e d83d 5bfd 543b 285e 9a3d d6ad 123d
000003c0: 3ce2 f3bd d8c9 ddbd 86f1 dabc 56af 05be
000003d0: f9c8 9c3c 82c1 8e3d 1f1c 7ebd fd43 543d
000003e0: 4d9d e43d 5f93 633d bfbc 683d b2b0 9f3c
000003f0: e9f4 9f3d 9662 ba3d e9b1 3b3d 144c 5bbd

conv3.bias f4 [10]
0.18464537 0.060000505 -0.004395765 -0.057534825 -0.08924773 -0.031017607 -0.0015078285 0.030569933
0.031828653 -0.06760625
00000000: ad13 3d3e 17c3 753d 590a 90bb a3a9 6bbd
00000010: 84c7 b6bd a318 febc 54a2 c5ba cc6d fa3c
00000020: c35e 023d 2575 8abd

conv4.weight f4 [10, 10, 3, 3]
0.081287764 0.123492934 -0.02468567 -0.06644656 0.049719904 0.06101303 -0.00048476135 -0.058618482
-0.122527085 0.09423313 0.06309997 0.09425596 0.063307635 0.1729963 -0.048525233 -0.042423222
-0.08553111 -0.09040708 -0.082020774 0.049856402 0.05655576 -0.09271129 -0.000891622 -0.056761496
-0.11383923 -0.08308625 -0.070683666 0.06975308 0.04881588 0.09796794 0.08012635 -0.025590507
-0.073212884 -0.090434186 -0.06658481 0.027726214 0.02853127 -0.029852666 -0.096798696 0.022216046
-0.016279303 -0.020233495 0.06743658 -0.05904461 0.072323814 0.014242731 -0.005146258 -0.05818777
-0.0022234276 0.013299464 -0.0680156 0.026691623 0.048857108 -0.018790774 0.055096526 0.103760004
0.12067135 0.09525891 0.048801944 -0.0823744 0.092001624 -0.061755482 0.08934588 -0.07930118
-0.08120197 0.10935234 -0.097245 0.048383586 0.0013803169 -0.046476275 0.052798014 -0.05771362
0.061371915 0.032749157 -0.024598964 -0.047647867 -0.048573744 0.08802284 -0.042502295 -0.013497878
0.006734555 -0.021248452 -0.009315847 -0.057164975 0.015060777 0.072363034 -0.042860135 -0.11336862
-0.08592164 -0.0100392075 -0.025354419 0.0893902 0.0026376834 0.05444963 0.1301816 0.07640726
0.10247403 -0.104703315 -0.1254797 -0.160881 0.11752231 0.06719416 0.07777665 0.04972133
-0.081706 -0.03557999 -0.09515694 0.03663768 0.09867552 -0.06480742 -0.051122822 -0.043975055
0.026806002 0.035551056 -0.0064599672 0.011146383 0.10539528 -0.08492713 0.05886074 0.009924474
0.052259196 0.058088165 0.03370103 0.050068554 -0.044390395 -0.01581492 0.046432346 0.086191274
0.09427962 0.040113207 0.07088572 0.10773264 -0.0938199 0.09792829 0.07744634 0.002505304
0.070716344 -0.04689328 -0.0060883355 -0.08716227 -0.03657623 0.081568316 0.017862944 -0.023317657
-0.075371176 -0.07514023 0.12409281 0.036972396 0.0024613691 -0.048214823 -0.018547336 -0.021029001
-0.07722943 -0.11614422 -0.075746015 -0.003299159 0.14192776 0.045955602 0.15866452 -0.084043525
0.054667983 -0.09706957 0.080298126 -0.07659005 -0.025369396 -0.056253467 0.010676709 0.042566977
0.05289711 0.07917139 -0.025587417 -0.023573916 -0.03568912 -0.06244133 0.11927959 -0.077849254
-0.043594286 -0.029765636 0.07169723 -0.022264767 0.021845888 0.02343396 -0.1827175 0.08595672
0.1322517 -0.059119243 0.0270612 0.01181817 -0.0026301702 -0.061703335 0.068868466 0.015613559
-0.03573566 -0.06825919 -0.0037075547 0.0065322584 0.040261984 -0.12536749 -0.059259653 0.013877855
0.00305996 0.051720846 -0.022071024 -0.024799861 0.14334188 0.08048723 -0.035205323 -0.11653209
0.05446337 -0.051461447 -0.103863604 0.06174163 -0.024856491 0.054323714 0.086551815 -0.0687935
0.07547985 -0.05928369 0.04221181 0.09943928 0.014559687 -0.04374013 -0.030882793 0.0044249366
-0.023589086 -0.106822066 0.08236778 0.02073867 0.1035704 -0.1106197 -0.06379537 0.022488577
0.079568826 0.067384146 -0.036728125 0.08284672 -0.03530261 0.030157331 -0.010386807 -0.04135993
0.00105315 0.027164176 -0.053565077 -0.094651856 -0.032351106 -0.005890293 0.024513664 -0.075430356
0.10474627 0.051183984 0.032626525 0.06830973 0.0123224035 -0.039596472 0.06768026 0.03193799
00000000: 337a a63d dde9 fc3d 9a39 cabc 2215 88bd
00000010: 19a7 4b3d cde8 793d 9127 feb9 ef19 70bd
00000020: 7bef fabd 4dfd c03d 8f3a 813d 4509 c13d
00000030: 6fa7 813d f125 313e 65c2 46bd f9c3 2dbd
00000040: ef2a afbd 5927 b9bd 82fa a7bd 3a36 4c3d
00000050: 03a7 673d 6bdf bdbd bdbb 69ba be7e 68bd
00000060: 8b24 e9bd 2029 aabd 99c2 90bd b4da 8e3d
00000070: 29f3 473d 6aa3 c83d 4919 a43d 2fa3 d1bc
00000080: a3f0 95bd 8f35 b9bd 9e5d 88bd 1622 e33c
00000090: 69ba e93c 948d f4bc 653e c6bd 6dfe b53c
000000a0: 2c5c 85bc b7c0 a5bc 311c 8a3d c3d8 71bd
000000b0: 821e 943d 585a 693c f1a1 a8bb 4d56 6ebd
000000c0: edb6 11bb ffe5 593c c34b 8bbd 64a8 da3c
000000d0: 641e 483d 1cef 99bc e5ac 613d 2080 d43d
000000e0: 8a22 f73d 1a17 c33d 8ce4 473d e9b3 a8bd
000000f0: 596b bc3d 51f3 7cbd f9fa b63d a868 a2bd
00000100: 384d a6bd 1ff4 df3d 6328 c7bd de2d 463d
00000110: c0eb b43a e85d 3ebd bb42 583d 1e65 6cbd
00000120: 1e61 7b3d fb23 063d c483 c9bc 692a 43bd
00000130: 43f5 46bd 5245 b43d e316 2ebd 3426 5dbc
00000140: 8bad dc3b 3c11 aebc 7fa1 18bc d225 6abd
00000150: 7ac1 763c 1233 943d 1c8e 2fbd cf2d e8bd
00000160: aff7 afbd 7d7b 24bc 12b4 cfbc 3612 b73d
00000170: fcdc 2c3b 9306 5f3d 534e 053e 697b 9c3d
00000180: e7dd d13d b16e d6bd c07d 00be fdbd 24be
00000190: 89af f03d 179d 893d 5d49 9f3d 98a8 4b3d
000001a0: 7a55 a7bd 53bc 11bd a4e1 c2bd 6411 163d
000001b0: 6416 ca3d c1b9 84bd 2a66 51bd 301f 34bd
000001c0: 4398 db3c fc9d 113d 22ae d3bb 529f 363c
000001d0: 7bd9 d73d 46ee adbd f617 713d 439a 223c
000001e0: bd0d 563d dbed 6d3d 170a 0a3d af14 4d3d
000001f0: b4d2 35bd 4b8e 81bc d82f 3e3d 0d85 b03d
00000200: ac15 c13d bf4d 243d 882c 913d eea2 dc3d
00000210: a624 c0bd a18e c83d 309c 9e3d 0730 243b
00000220: bbd3 903d 2b13 40bd a980 c7bb 2282 b2bd
00000230: f5d0 15bd 4a0d a73d 4f55 923c ac04 bfbc
00000240: 345c 9abd 1fe3 99bd 5f24 fe3d 5e70 173d
00000250: ec4e 213b e87c 45bd 95f0 97bc 0345 acbc
00000260: 772a 9ebd 05dd edbd ba20 9bbd b436 58bb
00000270: 8355 113e f13b 3c3d f478 223e 031f acbd
00000280: 89eb 5f3d 69cc c6bd 5873 a43d 3edb 9cbd
00000290: 7bd3 cfbc 096a 66bd 5ded 2e3c b65a 2e3d
000002a0: a4aa 583d 9c24 a23d b49c d1bc 161e c1bc
000002b0: c12e 12bd 7bc2 7fbd dc48 f43d 6e6f 9fbd
000002c0: ec8f 32bd 10d7 f3bc ffd5 923d 9a64 b6bc
000002d0: 26f6 b23c 93f8 bf3c 4c1a 3bbe 140a b03d
000002e0: fd6c 073e 0527 72bd 73af dd3c ffa0 413c
000002f0: ef5e 2cbb a3bc 7cbd e90a 8d3d 03d0 7f3c
00000300: 8e5f 12bd 79cb 8bbd 72fa 72bb 8e0c d63b
00000310: c0e9 243d 5660 00be 40ba 72bd f15f 633c
00000320: 9c89 483b 3dd9 533d 4bce b4bc 1429 cbbc
00000330: 37c8 123e 7dd6 a43d 7533 10bd 60a8 eebd
00000340: fc14 5f3d 3dc9 52bd 71b6 d4bd cbe4 7c3d
00000350: d79f cbbc 8b82 5e3d 1442 b13d 9be3 8cbd
00000360: 2e95 9a3d 74d3 72bd 4ae6 2c3d d2a6 cb3d
00000370: c18b 6e3c da28 33bd e9fd fcbc 0fff 903b
00000380: e63d c1bc 87c5 dabd 70b0 a83d 25e4 a93c
00000390: b81c d43d 958c e2bd 26a7 82bd f739 b83c
000003a0: fbf4 a23d b300 8a3d 3b70 16bd 8bab a93d
000003b0: 7899 10bd 820c f73c 6d2d 2abc 0869 29bd
000003c0: da09 8a3a 6887 de3c 0e67 5bbd d5d8 c1bd
000003d0: 9882 04bd 5c03 c1bb e1d0 c83c 3b7b 9abd
000003e0: 3685 d63d 4ca6 513d 64a3 053d f9e5 8b3d
000003f0: e8e3 493c e92f 22bd f39b 8a3d 69d1 023d

conv4.bias f4 [10]
-0.024448019 0.102672994 -0.059463162 0.053872798 -0.03350638 -0.051443525 -0.0073017385 0.036961794
-0.033022445 -0.13300188
00000000: 3647 c8bc 3846 d23d a58f 73bd b9a9 5c3d
00000010: fc3d 09bd 72b6 52bd 6c43 efbb 4065 173d
00000020: 8b42 07bd a531 08be

norm.weight f4 [10]
1.1463746 1.2034001 1.1884735 1.2301351 1.2034824 1.1786437 1.1412094 1.1100357
1.1474249 1.1562744
00000000: 67bc 923f 0409 9a3f e61f 983f 1175 9d3f
00000010: b60b 9a3f ccdd 963f 2613 923f a615 8e3f
00000020: d2de 923f cd00 943f

norm.bias f4 [10]
0.018744359 0.012017248 0.03490531 -0.065432355 0.023924347 -0.010750105 0.013145731 -0.009763075
-0.022256376 0.045754183
00000000: c58d 993c fee3 443c dff8 0e3d 6601 86bd
00000010: fefc c33c 3521 30bc 3161 573c 4ef5 1fbc
00000020: 0153 b6bc bd68 3b3d

norm.running_mean f4 [10]
-0.05814938 0.2001904 -0.005075327 0.0033964722 -0.0830184 -0.052032284 0.048474576 0.1871207
0.018223887 -0.13222186
00000000: 0b2e 6ebd b6fe 4c3e ee4e a6bb 5997 5e3b
00000010: 8d05 aabd ce1f 55bd 478d 463d 929c 3f3e
00000020: 434a 953c 2b65 07be

norm.running_var f4 [10]
0.002008472 0.0024364698 0.0010291964 0.0019205848 0.0022736508 0.0015380175 0.00310067 0.0021536609
0.003192519 0.003376664
00000000: 92a0 033b 2ead 1f3b 1ae6 863a 22bc fb3a
00000010: 8801 153b 4e97 c93a 9c34 4b3b 6f24 0d3b
00000020: 9539 513b 054b 5d3b

fc1.weight f4 [50, 810]
0.009390739 0.000535103 0.006784195 0.039542872 -0.051153734 0.0074576167 -0.0021444994 0.00408627
0.03705728 -0.0483369 -0.013593507 0.003765941 -0.045200687 -0.07814752 0.0055551305 -0.031382646
-0.022178024 0.03238608 -0.01146525 0.009097633 0.007837788 -0.00044804372 -0.028399406 -0.01599423
0.07349472 -0.024445971 -0.017183984 -0.032277256 -0.010719862 0.017515467 -0.032550357 0.092078775
0.019004708 0.028303862 -0.00013035268 0.011663311 -0.00765019 0.022760496 0.07581946 0.014469346
-0.010477655 -0.036832836 -0.048742734 -0.027845839 0.013785219 -0.0089563355 0.013919503 -0.048042975
-0.027814273 -0.005428044 -0.03788939 -0.011078883 -0.08373311 -0.05600818 0.03652446 -0.029888505
0.045070462 -0.024508525 -0.027349208 -0.041464303 -0.036825564 0.030234737 0.025897715 -0.0023437056
-0.011525389 0.122641295 0.12927514 0.1096332 0.033127192 0.06490449 0.08122527 0.043265887
0.021577371 0.031961273 -0.019132445 0.11190083 0.11598734 0.09520363 0.007187336 0.07234524
0.048131935 0.0498921 -0.008865031 -0.026948867 -0.058144506 0.02517817 -0.023976974 0.043963637
0.1203163 0.054223448 -0.068725966 0.0752362 0.060895376 0.015764808 -0.007736125 -0.007955379
0.08334077 0.099721864 0.051708903 0.007465724 -0.033919744 -0.02300992 0.01013978 -0.023772119
0.055957966 0.0036466038 -0.022154674 0.06193342 0.025716543 -0.031166842 0.020929256 0.042866737
0.032368552 -0.011519637 -0.011589251 -0.025813214 -0.05359344 -0.057957172 -0.08622383 -0.018205853
0.007531485 0.0034814011 -0.013152576 0.033115927 -0.030159963 -0.0077221477 -0.02773593 -0.001398504
-0.020354439 0.018087436 -3.0282572e-05 0.07858573 0.023357728 -0.035009786 -0.0060569663 -0.027023938
-0.08938166 0.026369695 0.025827447 0.035340168 0.0418558 -0.059614524 -0.01503672 -0.0012380863
-0.05561171 -0.13993521 0.0022889238 -0.01619286 0.07120314 0.017154638 -0.054241475 -0.06930142
-0.023308275 -0.008636031 -0.018982198 0.052743014 -0.024973657 0.02324232 -0.0077043134 0.045433402
-0.05431561 -0.008487521 0.07243381 0.0029658966 -0.03878301 -0.039552025 0.0044375136 0.016951857
0.048522066 -0.016311895 -0.0155860605 0.05654265 -0.07574528 -0.045905367 0.041243803 0.05847321
0.018430606 0.04513815 0.05162742 0.052004762 -0.016800014 0.026092943 -0.0011209763 0.05260417
0.023179488 -0.00078012125 -0.00060142134 -0.030027734 0.07176188 0.017865455 0.00632985 -0.060286663
-0.044002198 -0.024562871 -0.00080272777 0.018007575 -0.008012792 0.012204764 -0.035539098 -0.040270545
0.037286215 -0.02461117 0.017543158 -0.022754196 0.015899839 0.020927066 0.013703218 -0.047857504
0.00406778 0.0063487366 -0.0007845048 -0.039988175 0.055073906 0.05586546 0.015120434 0.04000187
0.004609415 -0.042812277 -0.018395698 0.08582323 0.07241068 0.036110327 0.016311023 0.009301925
-0.01536527 -0.05355027 -0.10727603 0.017475616 -0.05764646 -0.019218449 0.07058993 -0.015595754
-0.03785295 -0.061448466 0.021744246 -0.035241667 -0.040223815 0.00985435 0.03134164 0.0104416385
0.048317134 -0.053067543 -0.030388726 0.051915485 0.082162306 -0.04407578 -0.02516083 -0.07130176
-0.0028562902 0.055356577 0.06559734 -0.023848353 0.030160794 -0.037250057 -0.009039953 0.014486375
00000000: 9ddb 193c 2846 0c3a f44d de3b b5f7 213d
00000010: 9486 51bd 065f f43b bb8a 0cbb 1ee6 853b
00000020: 60c9 173d eafc 45bd 4db7 5ebc 01ce 763b
00000030: 5b24 39bd cf0b a0bd d007 b63b 178b 00bd
00000040: b0ae b5bc 44a7 043d bed8 3bbc 3d0e 153c
00000050: 116a 003c 69e7 eab9 dfa5 e8bc 5506 83bc
00000060: 6684 963d eb42 c8bc 6dc5 8cbc 2835 04bd
00000070: 5ca2 2fbc 997c 8f3c 8653 05bd cc93 bc3d
00000080: c3af 9b3c 80dd e73c 48af 08b9 7917 3f3c
00000090: 72ae fabb 3874 ba3c 3c47 9b3d d610 6d3c
000000a0: 78aa 2bbc 07de 16bd 76a6 47bd f51c e4bc
000000b0: 66db 613c 98bd 12bc a10e 643c b6c8 44bd
000000c0: c2da e3bc bcdd b1bb e831 1bbd 3484 35bc
000000d0: 447c abbd d568 65bd ac9a 153d bdd8 f4bc
000000e0: ce9b 383d 1ac6 c8bc 720b e0bc 79d6 29bd
000000f0: 67d6 16bd d7ae f73c 7227 d43c db98 19bb
00000100: fcd4 3cbc 5c2b fb3d b460 043e 5f87 e03d
00000110: 61b0 073d a5ec 843d 6f59 a63d 9237 313d
00000120: 07c3 b03c d3e9 023d a5bb 9cbc 432c e53d
00000130: c58a ed3d 1ffa c23d bf83 eb3b be29 943d
00000140: fe25 453d a95b 4c3d a33e 11bc dfc3 dcbc
00000150: ef28 6ebd 7342 ce3c 5c6b c4bc 3713 343d
00000160: 6468 f63d 6819 5e3d 33c0 8cbd 7015 9a3d
00000170: 6e6d 793d 3325 813c 527f fdbb 4757 02bc
00000180: 91ae aa3d fa3a cc3d b7cc 533d 08a3 f43b
00000190: 6eef 0abd 4d7f bcbc 5221 263c bfbd c2bc
000001a0: 2e34 653d dcfb 6e3b b87d b5bc e6ad 7d3d
000001b0: 80ab d23c 9b51 ffbc d573 ab3c 0895 2f3d
000001c0: e394 043d dcbc 3cbc d8e0 3dbc 3c76 d3bc
000001d0: cc84 5bbd 8064 6dbd 1f96 b0bd 7124 95bc
000001e0: adca f63b 3828 643b e77d 57bc 91a4 073d
000001f0: 0712 f7bc 120a fdbb 7636 e3bc 024e b7ba
00000200: 5abe a6bc 1a2c 943c 5407 feb7 8ef1 a03d
00000210: b558 bf3c 6c66 0fbd 8479 c6bb 4e61 ddbc
00000220: bb0d b7bd 4205 d83c 1594 d33c dac0 103d
00000230: fd70 2b3d 5c2e 74bd 935c 76bc 4847 a2ba
00000240: 1bc9 63bd 2d4b 0fbe c501 163b e4a6 84bc
00000250: f4d2 913d e287 8c3c 4f2c 5ebd e7ed 8dbd
00000260: fff0 bebc 247e 0dbc 8e80 9bbc 0f09 583d
00000270: 8e95 ccbc ae66 be3c 7774 fcbb 6018 3a3d
00000280: 0c7a 5ebd 3e0f 0bbc 2d58 943d 7d5f 423b
00000290: efda 1ebd 4e01 22bd 9068 913b 9fde 8a3c
000002a0: 13bf 463d 86a0 85bc ad5c 7fbc 4499 673d
000002b0: 5720 9bbd 4407 3cbd 43ef 283d 9b81 6f3d
000002c0: c8fb 963c c8e2 383d 4677 533d f202 553d
000002d0: 2fa0 89bc dec0 d53c b9ed 92ba 7877 573d
000002e0: e9e2 bd3c 0d81 4cba b4a8 1dba b9fc f5bc
000002f0: e4f7 923d 935a 923c a16a cf3b 26ef 76bd
00000300: a63b 34bd 1338 c9bc 266e 52ba 9f84 933c
00000310: 1648 03bc 7ef6 473c 7291 11bd baf2 24bd
00000320: 6eb9 183d 5d9d c9bc abb6 8f3c 0267 babc
00000330: 6140 823c 3d6f ab3c 7683 603c 3b06 44bd
00000340: 034b 853b 1009 d03b 3aa7 4dba a4ca 23bd
00000350: 2d95 613d 2ed3 643d b2bb 773c 00d9 233d
00000360: 930a 973b ed5b 2fbd 93b2 96bc 17c4 af3d
00000370: 0d4c 943d 6ce8 133d b29e 853c 1a67 183c
00000380: 9dbe 7bbc 8757 5bbd 89b3 dbbd 0629 8f3c
00000390: b21e 6cbd 0270 9dbc 7491 903d 5585 7fbc
000003a0: b20b 1bbd 63b1 7bbd fd20 b23c 9159 10bd
000003b0: bac1 24bd 2474 213c 1760 003d 6813 2b3c
000003c0: 30e8 453d 5a5d 59bd c7f1 f8bc 55a5 543d
000003d0: b644 a83d ce88 34bd 161e cebc a806 92bd
000003e0: 9930 3bbb 94bd 623d e657 863d 9f5d c3bc
000003f0: c513 f73c 8493 18bd 501c 14bc 4358 6d3c

fc1.bias f4 [50]
-0.022249466 0.013551955 -0.0025931497 -0.04836255 -0.01011439 -0.015939655 0.007195842 0.011132538
-0.039809987 -0.042575747 0.028102377 0.06603478 -0.005867303 0.014380634 0.0094947135 -0.0110250125
-0.031015508 -0.03150279 -0.033548832 -0.009955778 0.023443447 -0.04046177 -0.028396996 0.050526164
-0.005961716 0.014104903 -0.03708197 -0.00070281175 -0.02644384 0.00048009804 -0.050441317 0.0007716964
-0.011702809 -0.012735235 -0.01185182 0.022523044 -0.021131491 -0.053996228 0.013256066 -0.04038409
0.01975919 -0.023895293 -0.0154100405 -0.038402736 0.034392476 0.0013771537 0.0028869906 -0.023395518
0.0140814055 0.029117515
00000000: 8344 b6bc 0509 5e3c d5f1 29bb cf17 46bd
00000010: d4b6 25bc e193 82bc 19cb eb3b 4065 363c
00000020: cc0f 23bd e863 2ebd f536 e63c 3e3d 873d
00000030: 8142 c0bb c09c 6b3c b78f 1b3c 41a2 34bc
00000040: 3c14 febc 1209 01bd 806a 09bd 8f1d 23bc
00000050: 790c c03c 3ebb 25bd d1a0 e8bc 86f4 4e3d
00000060: 805a c3bb 4018 673c 44e3 17bd e63c 38ba
00000070: c0a0 d8bc abb5 fb39 8e9b 4ebd ab4b 4a3a
00000080: 23bd 3fbc 72a7 50bc 232e 42bc 3f82 b83c
00000090: f31b adbc 262b 5dbd f82f 593c ca69 25bd
000000a0: 06de a13c 10c0 c3bc 657a 7cbc 304c 1dbd
000000b0: 20df 0c3d 9c81 b43a aa33 3d3b f5a7 bfbc
000000c0: b2b5 663c db87 ee3c

fc2.weight f4 [7, 50]
0.028993487 -0.15646395 0.07230848 0.1149891 0.123125955 0.1438034 -0.15781593 0.03130102
-0.21848315 -0.06755568 -0.12068155 0.17809102 -0.016711254 0.032699946 0.09246301 -0.09469878
0.108589865 -0.13614754 -0.022863965 -0.094824746 0.013139702 0.058901995 0.093437605 -0.018392501
-0.081668876 0.11864247 0.009933332 -0.00656309 -0.09792108 -0.12625581 0.07434133 -0.0007519973
0.026711617 0.047893878 0.0149170235 0.11759741 0.055135395 0.110248305 0.0731367 -0.08343959
-0.034613773 0.05192687 0.040918954 -0.045956474 0.11533745 -0.06063476 -0.04887389 -0.009043728
0.060142428 0.019682534 -0.11995079 0.18294993 -0.0873808 0.10317835 0.10292045 -0.1519235
0.0010719312 -0.13063167 0.019974943 0.021675846 -0.114784375 0.12447339 0.0466414 0.03383295
-0.07982346 -0.028653802 -0.056690168 -0.10764033 0.092685364 0.054211207 -0.09339371 0.0649233
-0.017033365 0.17809753 -0.025851782 0.07298966 -0.06001099 -0.016708622 -0.19287096 -0.019976841
-0.04711779 0.06896484 0.04718598 -0.08311868 0.08341724 0.052955706 0.013419484 0.04520198
0.08084204 0.099120945 0.09811146 -0.17162211 -0.06514989 0.072534285 -0.020066896 0.06458819
0.115522854 0.120020755 -0.11285391 -0.04057793 -0.032642506 -0.090119064 0.12410965 -0.13278498
-0.05547869 0.12854037 0.116397105 -0.024758197 0.07639877 0.12045542 -0.13334979 -0.06653235
0.009843136 0.025367703 0.11848594 0.015252007 -0.07034707 0.15032744 0.099255234 -0.0466846
-0.1063419 -0.1263933 0.11082294 -0.1986589 0.02971847 -0.0437801 -0.061158303 0.15276553
0.049046576 -0.009072413 0.03343356 -0.113559484 -0.13361305 0.051935162 0.12252298 0.1843221
-0.07476935 -0.12752107 0.02262857 0.031579435 -0.21708347 -0.14262033 -0.091181725 0.057156637
0.15171053 0.06685444 -0.13537998 -0.12438743 -0.11887253 0.09790856 0.029528756 -0.16000701
-0.026059758 0.0312972 0.08339564 -0.14861013 0.028643528 0.038408205 0.113034 0.025945539
-0.12749018 0.112825476 0.05179598 -0.06072371 -0.14452478 -0.13619336 0.17264482 -0.061245255
0.070632406 0.12140002 -0.004891277 -0.11353435 -0.08847612 -0.11107615 -0.1273352 0.03296305
0.13739066 -0.20816223 0.065730035 0.0021368014 -0.1097698 -0.15134333 0.056121603 0.057317276
-0.01830288 0.08775274 -0.09251961 -0.047379863 -0.030412741 -0.023180924 0.18131581 -0.24577992
-0.020965714 0.038781125 -0.063957185 -0.14531398 0.016408062 0.13118452 0.102543205 -0.0207758
-0.21549264 -0.08201236 -0.013191444 -0.058269396 0.13098758 -0.21386869 0.0871753 -0.07621769
0.098445036 -0.072661124 -0.121244766 -0.017874856 0.08010026 0.081163436 -0.016057186 -0.042016607
0.0525548 0.23135655 -0.06612972 -0.07555116 0.10952603 0.108287476 -0.10880376 -0.2148947
-0.03272238 -0.09004055 -0.052711245 -0.054086674 -0.11157838 -0.019389 -0.02087656 -0.09799299
-0.08993773 -0.09607882 -0.08378055 -0.1042287 0.12379662 0.041683204 0.10331805 -0.07960206
0.09483875 -0.22401138 -0.09987439 0.11571831 0.04666182 0.15372169 -0.009303722 -0.018057821
-0.042379662 0.12184626 -0.15801957 0.0017898354 0.1439052 0.08323246 -0.13293684 -0.14239365
00000000: c083 ed3c 1638 20be 7816 943d 687f eb3d
00000010: 7629 fc3d 3341 133e 809a 21be 8035 003d
00000020: 0cba 5fbe a25a 8abd e327 f7bd 7e5d 363e
00000030: 0ae6 88bc 61f0 053d 3f5d bd3d 6ff1 c1bd
00000040: 5d64 de3d 436a 0bbe 364d bbbc 7a33 c2bd
00000050: e847 573c 3843 713d 375c bf3d dfab 96bc
00000060: 0342 a7bd d3fa f23d 6abf 223c 300f d7bb
00000070: d98a c8bd 3449 01be 4440 983d af21 45ba
00000080: 52d2 da3c 5f2c 443d 8866 743c e9d6 f03d
00000090: a7d5 613d ddc9 e13d b2c8 953d 60e2 aabd
000000a0: 2cc7 0dbd 45b1 543d a29a 273d db3c 3cbd
000000b0: 0a36 ec3d 275c 78bd fd2f 48bd 252c 14bc
000000c0: e857 763d 443d a13c c3a8 f5bd 3a57 3b3e
000000d0: b4f4 b2bd 2c4f d33d f5c7 d23d d591 1bbe
000000e0: 0b80 8c3a 4fc4 05be 7ea2 a33c 8b91 b13c
000000f0: 1214 ebbd e8eb fe3d 0d0b 3f3d 6b94 0a3d
00000100: 7b7a a3bd 61bb eabc f333 68bd 8972 dcbd
00000110: d3d1 bd3d 920c 5e3d 3445 bfbd 82f6 843d
00000120: 8e89 8bbc 335f 363e 1ec7 d3bc 9a7b 953d
00000130: 15ce 75bd 85e0 88bc f77f 45be 79a6 a3bc
00000140: 95fe 40bd 703d 8d3d 1646 413d 203a aabd
00000150: a8d6 aa3d 15e8 583d 65dd 5b3c b625 393d
00000160: 8390 a53d ecff ca3d a9ee c83d b5bd 2fbe
00000170: 4e6d 85bd db8c 943d 5563 a4bc d046 843d
00000180: 3f97 ec3d 71cd f53d f31f e7bd 0b35 26bd
00000190: 26b4 05bd 5890 b8bd 332d fe3d c9f8 07be
000001a0: 9f3d 63bd 16a0 033e 9b61 ee3d b4d1 cabc
000001b0: f576 9c3d 55b1 f63d d98c 08be 1d42 88bd
000001c0: 1b45 213c eecf cf3c c2a8 f23d 8ee3 793c
000001d0: 2012 90bd 70ef 193e 5446 cb3d 5a38 3fbd
000001e0: c8c9 d9bd 3f6d 01be 23f7 e23d 3d6d 4bbe
000001f0: 2674 f33c c352 33bd 2181 7abd 916e 1c3e
00000200: 10e5 483d 75a4 14bc a1f1 083d e091 e8bd
00000210: dcd1 08be f7b9 543d 54ed fa3d efbe 3c3e
00000220: ac20 99bd e294 02be 8d5f b93c 7059 013d
00000230: 214b 5ebe 100b 12be 7cbd babd 141d 6a3d
00000240: 015a 1b3e fbea 883d 0da1 0abe d6be febd
00000250: 7173 f3bd 4884 c83d 4ae6 f13c e1d8 23be
00000260: 467b d5bc 7e31 003d 55cb aa3d 412d 18be
00000270: d5a5 ea3c ec51 1d3d 5f7e e73d bd8b d43c
00000280: c98c 02be 0b11 e73d 0628 543d 6db9 78bd
00000290: 4efe 13be 4676 0bbe cec9 303e 4edc 7abd
000002a0: b9a7 903d 93a0 f83d 0147 a0bb b384 e8bd
000002b0: f832 b5bd e47b e3bd 2964 02be 4304 073d
000002c0: 23b0 0c3e 7b28 55be 789d 863d 9409 0c3b
000002d0: fdce e0bd bff9 1abe c4df 653d 85c5 6a3d
000002e0: ecef 95bc b5b7 b33d ec7a bdbd 6311 42bd
000002f0: 2424 f9bc ece5 bdbc daaa 393e bbad 7bbe
00000300: 4ac0 abbc f5d8 1e3d fcfb 82bd 30cd 14be
00000310: 336a 863c 3c55 063e 2c02 d23d 0332 aabc
00000320: 1aaa 5cbe 19f6 a7bd ed20 58bc e4ab 6ebd
00000330: 9c21 063e 6500 5bbe f788 b23d 0518 9cbd
00000340: 8d9d c93d 5bcf 94bd 2d4f f8bd 4a6e 92bc
00000350: 9b0b a43d 0439 a63d 5c8a 83bc 9b19 2cbd
00000360: b443 573d bbe8 6c3e 056f 87bd 91ba 9abd
00000370: 2f4f e03d d3c5 dd3d 81d4 debd 5b0d 5cbe
00000380: e707 06bd 2e67 b8bd bfe7 57bd fd89 5dbd
00000390: 3583 e4bd aed5 9ebc 5205 abbc 8cb0 c8bd
000003a0: 4631 b8bd f9c4 c4bd 2395 abbd db75 d5bd
000003b0: 1589 fd3d 02bc 2a3d 6a98 d33d 6806 a3bd
000003c0: d23a c23d 3d63 65be f28a ccbd b9fd ec3d
000003d0: 7720 3f3d 3869 1d3e a36e 18bc ffed 93bc
000003e0: 4c96 2dbd 888a f93d e2cf 21be e998 ea3a
000003f0: e25b 133e c875 aa3d 9820 08be a4cf 11be

fc2.bias f4 [7]
-0.06567896 -0.041324776 -0.040411204 -0.05249064 0.022897242 0.008540875 -0.02579788
00000000: b182 86bd 2b44 29bd 3886 25bd 6d00 57bd
00000010: ff92 bb3c 07ef 0b3c 1356 d3bc

localization.0.weight f4 [8, 1, 7, 7]
-0.06450075 -0.113688186 0.014903622 0.1277902 0.05314694 -0.07075633 0.117087565 -0.062921986
0.074475706 -0.10303776 -0.043752253 -0.07690336 0.018367747 -0.13381617 0.102567986 0.023036536
-0.09238404 -0.005900936 0.12454633 -0.07480522 0.017493982 -0.15341368 0.09910641 -0.113261126
0.086403705 0.0813246 -0.021283869 0.10384999 -0.1470743 -0.07224854 0.021817364 -0.10912594
0.11700147 0.038832128 0.06594712 0.116522364 0.043835673 -0.15240812 -0.010707076 -0.11871347
0.11182773 0.09614889 0.0966159 0.045058817 0.040515926 -0.16833104 0.06093497 -0.010454968
-0.040855806 -0.047788713 0.0058568493 -0.0642088 -0.040879086 0.024873905 0.0048131314 0.0412893
-0.07846238 0.099463575 -0.10729381 0.15358171 0.091586724 -0.05881871 0.011014516 -0.05080868
-0.10553375 -0.09536726 0.10669098 -0.035212573 0.055237573 0.10055752 -0.06638992 -0.026760032
0.017747499 0.06714989 0.016306717 -0.0064520044 -0.097165555 -0.09344682 0.13730876 0.08551843
-0.072563685 0.002875384 0.00013103841 -0.08629785 0.0004560465 -0.043081857 0.0898293 0.07992642
-0.09312575 0.09624878 -0.036573645 0.09279926 -0.04508718 0.019091986 0.013083243 -0.08196888
0.083900444 -0.13713583 -0.090360254 0.009910936 -0.047462255 -0.040593315 -0.07592228 0.071487896
-0.14262497 0.12739745 0.05803465 0.029279947 0.12101793 0.083095126 0.024807645 -0.01263602
-0.08363237 0.11867769 -0.10509069 0.059917323 -0.046333194 -0.11078042 -0.018079203 0.1402522
-0.0032325834 0.06169381 0.037054505 -0.028447494 0.11006326 0.11627862 -0.060175292 -0.05674123
-0.0028682621 0.11844909 -0.09243611 0.05667392 -0.087027214 0.11510952 -0.07564337 -0.06549049
0.14501928 -0.017116578 0.021986524 0.087824516 -0.12992793 -0.060126875 -0.010742634 -0.051016312
-0.0073627545 0.092656545 0.08131207 0.076890655 -0.11310437 0.07626295 -0.0049914923 0.042622603
0.016280212 -0.14819306 -0.06764493 -0.024106793 -0.028127352 -0.06553179 -0.07282065 0.018059218
0.09729112 0.10343094 -0.0050352174 -0.033219844 0.08734539 -0.11695624 -0.0401104 -0.2106508
-0.05362277 -0.11704137 -0.102410145 0.03223397 -0.01611451 0.06486079 -0.13870671 0.11908752
0.016519882 0.074420474 -0.0027179238 0.010889146 0.12785663 0.099017926 -0.04801162 -0.048473142
0.05889484 -0.05989359 -0.06668726 -0.041086987 -0.050770927 0.0951913 -0.11373969 0.094860554
-0.10692462 -0.09777973 0.13149296 -0.05348002 -0.018535167 -0.062444005 -0.09410833 -0.04369856
-0.050668847 0.04228529 -0.06394996 0.040576432 -0.12170154 0.06807416 -0.063318916 0.042722754
-0.11388716 0.024993224 0.10610309 -0.021092014 0.11987576 -0.047382303 -0.014700529 0.059873793
-0.002580199 0.021727359 -0.023358876 -0.10035336 0.06728824 0.049474508 0.12606631 0.09608524
0.02444674 -0.067662366 0.08555791 -0.117852345 -0.12701696 -0.027752405 0.090521574 -0.15115418
0.004019106 -0.041938193 -0.05947425 -0.08772945 -0.010160556 0.060237467 -0.060285054 -0.055003323
-0.033469554 -0.090549424 0.10222 -0.1528199 0.11456859 0.043627977 -0.121670365 0.08441086
0.04339372 -0.17464797 0.06257932 0.07741929 -0.021778343 0.07992978 0.11381385 -0.0071425214
00000000: f818 84bd 5ad5 e8bd 522e 743c 6fdb 023e
00000010: 9bb0 593d b2e8 90bd 9bcb ef3d 3edd 80bd
00000020: b886 983d 7605 d3bd 9035 33bd 827f 9dbd
00000030: f577 963c 1b07 09be 2a0f d23d 1eb7 bc3c
00000040: d833 bdbd a45c c1bb 2512 ff3d 7b33 99bd
00000050: 8a4f 8f3c 7a18 1dbe 4df8 ca3d 73f5 e7bd
00000060: 6df4 b03d 838d a63d 825b aebc 4eaf d43d
00000070: a59a 16be 0bf7 93bd 54ba b23c 6c7d dfbd
00000080: 779e ef3d 700e 1f3d 490f 873d 47a3 ee3d
00000090: 098d 333d e010 1cbe bb6c 2fbc 0c20 f3bd
000000a0: f005 e53d b6e9 c43d 8fde c53d 988f 383d
000000b0: 07f4 253d f95e 2cbe f296 793d 504b 2bbc
000000c0: 6b58 27bd 19be 43bd d0ea bf3b e77f 83bd
000000d0: d470 27bd 5cc4 cb3c 79b7 9d3b f81e 293d
000000e0: e2b0 a0bd 8fb3 cb3d dbbc dbbd 8644 1d3e
000000f0: d291 bb3d e3eb 70bd 3b76 343c c31c 50bd
00000100: 1422 d8bd e94f c3bd cd80 da3d 0f3b 10bd
00000110: cb40 623d 1af1 cd3d 70f7 87bd db37 dbbc
00000120: 3463 913c e285 893d aa95 853c 566b d3bb
00000130: bcfe c6bd 0c61 bfbd ab9a 0c3e 4924 af3d
00000140: 459c 94bd f070 3c3b 5b67 0939 edbc b0bd
00000150: 8619 ef39 9a76 30bd 6df8 b73d 76b0 a33d
00000160: b7b8 bebd 151e c53d 3fce 15bd 8a0d be3d
00000170: 56ad 38bd cc66 9c3c 195b 563c 4ddf a7bd
00000180: ffd3 ab3d 566d 0cbe cc0e b9bd 7a61 223c
00000190: c867 42bd 2d45 26bd 247d 9bbd 3f68 923d
000001a0: 480c 12be 7a74 023e beb5 6d3d 80dc ef3c
000001b0: 40d8 f73d c72d aa3d 6739 cb3c 4f07 4fbc
000001c0: 7347 abbd 4a0d f33d ca39 d7bd de6b 753d
000001d0: e0c7 3dbd d8e0 e2bd d61a 94bc 469e 0f3e
000001e0: c0d9 53bb a6b2 7c3d 77c6 173d b80a e9bc
000001f0: d968 e13d 7c23 ee3d 5e7a 76bd 7e69 68bd
00000200: 74f9 3bbb 7095 f23d 254f bdbd ea22 683d
00000210: 533b b2bd 8abe eb3d e9ea 9abd e11f 86bd
00000220: ef7f 143e 1138 8cbc 151d b43c 57dd b33d
00000230: d40b 05be 9947 76bd df01 30bc 7bf6 50bd
00000240: 4343 f1bb b7c2 bd3d f186 a63d d978 9d3d
00000250: 44a3 e7bd c02f 9c3d ac8f a3bb 0a95 2e3d
00000260: 145e 853c ecbf 17be 6d89 8abd 9c7b c5bc
00000270: 556b e6bc 8835 86bd fe22 95bd edf0 933c
00000280: 9140 c73d 9ad3 d33d 77fe a4bb 8811 08bd
00000290: 24e2 b23d c186 efbd ce4a 24bd d8b4 57be
000002a0: 8da3 5bbd 63b3 efbd 69bc d1bd c407 043d
000002b0: 9402 84bc bcd5 843d 2209 0ebe 28e4 f33d
000002c0: b454 873c c369 983d 321f 32bb 6368 323c
000002d0: d9ec 023e e9c9 ca3d d5a7 44bd c68b 46bd
000002e0: b73b 713d fb52 75bd 5593 88bd d44a 28bd
000002f0: 2df5 4fbd a8f3 c23d 5bf0 e8bd 4046 c23d
00000300: 4cfb dabd bd40 c8bd 17a6 063e de0d 5bbd
00000310: 10d7 97bc 49c5 7fbd debb c0bd 43fd 32bd
00000320: 238a 4fbd 5733 2d3d 32f8 82bd 7933 263d
00000330: a83e f9bd 776a 8b3d 59ad 81bd 0efe 2e3d
00000340: ac3d e9bd 97be cc3c 944c d93d 29c9 acbc
00000350: 6c81 f53d f213 42bd 7dda 70bc 393e 753d
00000360: 8e18 29bb 93fd b13c 1d5b bfbc 1086 cdbd
00000370: 6bce 893d c8a5 4a3d 8717 013e 57c8 c43d
00000380: 8844 c83c 9192 8abd fc38 af3d 925c f1bd
00000390: bc10 02be 0359 e3bc 6063 b93d 29c8 1abe
000003a0: b4b2 833b 62c7 2bbd 459b 73bd 7fab b3bd
000003b0: 7678 26bc 90bb 763d 76ed 76bd 2a4b 61bd
000003c0: 5f17 09bd fa71 b9bd b858 d13d d27c 1cbe
000003d0: f0a2 ea3d 40b3 323d 502e f9bd 9adf ac3d
000003e0: 9dbd 313d ebd6 32be 9629 803d 018e 9e3d
000003f0: 7f68 b2bc 39b2 a33d 3c17 e93d d00b eabb

localization.0.bias f4 [8]
-0.07876892 -0.13516039 0.039369136 -0.17559363 -0.09549836 -0.03631877 -0.0712747 0.112045646
00000000: 9951 a1bd 7c67 0abe 8841 213d d1ce 33be
00000010: a594 c3bd fec2 14bd 78f8 91bd 3078 e53d

localization.3.weight f4 [10, 8, 5, 5]
-0.030718537 0.012449241 0.045357347 0.04480787 0.036095086 0.043405812 -0.011376043 0.0040814453
-0.09445555 0.037015483 0.05381497 0.0045433226 0.01823471 -0.073426545 -0.08544775 0.009640521
-0.009151353 -0.0524945 -0.033172887 -0.0024200978 -0.043198735 -0.017262895 0.007995204 -0.0013437187
0.02725751 -0.044199612 0.024854682 0.013922476 0.032110278 -0.027527569 0.044868637 -0.05947502
0.009313396 0.002008343 -0.037136257 -0.01400044 -0.06534993 0.041336246 -0.085692026 -0.11482199
-0.0063153156 0.030008845 0.022486998 0.0013087906 -0.07533088 -0.054534342 -0.043123137 0.004859916
-0.025409944 0.0069601815 -0.05347873 0.036410943 0.009187685 -0.0076235337 -0.06976055 0.03876139
0.03231156 -0.016900083 -0.00916518 -0.03704884 -0.07988222 -0.053677574 -0.06377559 -0.061331503
-0.015882554 -0.0003415739 -0.029325645 -0.008688916 0.013986107 -0.08656783 -0.06594265 -0.046628706
-0.08148395 0.018498527 -0.051797785 -0.007205771 -0.044083145 0.046139147 0.03440678 -0.023753038
0.011793592 0.061131865 -0.0810091 -0.021018418 0.061276626 -0.010720054 -0.049306598 0.038242307
-0.05803118 0.056963358 0.049930636 -0.034794703 -0.03197205 0.020767495 -0.031187233 0.02014509
-0.048169464 0.023081414 0.042945035 -0.0017396953 -0.022070535 0.057768513 -0.03288482 -0.055781137
-0.06955237 0.013769653 -0.026255786 -0.06603313 -0.07968824 -0.05076448 0.027650531 0.03278087
-0.023099223 -0.070019305 0.016300397 0.0387922 -0.021198096 0.023919707 -0.046978366 0.050072376
0.05354886 0.004898475 0.036832448 -0.0455066 -0.07412796 0.028193723 -0.07615311 0.030042656
-0.015158791 -0.021011552 -0.019982807 -0.05832654 -0.057298176 -0.077339225 0.04031627 0.01773308
-0.017432626 0.001919632 -0.048181973 0.045028884 0.02162355 -0.06665028 -0.051686607 -0.00998358
0.02651216 -0.059024356 -0.0064999303 -0.043492958 0.020553201 0.023212193 0.052450877 0.025369056
0.056546636 0.024873063 0.009710611 0.01365703 -0.06588988 -0.051932283 0.02912617 -0.008617149
0.04215225 -0.05065966 -0.022555355 -0.040677387 0.015158943 -0.06629161 0.03531953 0.0014115451
-0.058561668 -0.047022894 0.04225215 0.04416395 0.04313814 -0.035741977 0.032601178 0.03251229
-0.081732884 -0.090766065 0.0010254268 -0.07463715 -0.04344091 -0.010907365 -0.090725146 -0.0045768763
-0.023434395 0.01668282 -0.09647133 -0.07159422 0.055509012 0.007449194 -0.058346227 -0.09709001
0.020733101 0.013904667 -0.009554196 -0.040947843 -0.053424425 0.0045691836 0.009690892 -0.038968854
-0.018203517 -0.008187338 0.06750899 0.022877377 -0.07549551 0.008010117 -0.005008538 -0.026703933
0.040059153 -0.08814845 0.06038901 -0.06801462 0.037333503 0.089349195 -0.06205929 0.07196028
-0.030428927 0.036726393 0.059580997 -0.069777034 -0.017323516 -0.022602526 -0.005295093 -0.075087376
-0.01601048 -0.0784657 -0.035724077 0.06974768 -0.052177154 0.0023980492 0.055202544 0.047954842
0.03701599 0.016200168 -0.048168674 -0.031123467 0.04788425 -0.0061060577 -0.04064365 -0.008530488
0.048612453 -0.04108243 0.043899223 -0.03656655 0.010353721 -0.0058611142 0.020542087 -0.03532948
-0.05539777 -0.051377717 0.056128558 -0.015534766 -0.0588297 0.06113255 -0.03005801 0.0070337006
00000000: 71a5 fbbc e7f7 4b3c a0c8 393d 7588 373d
00000010: 71d8 133d 4bca 313d 9562 3abc a5bd 853b
00000020: e971 c1bd 8c9d 173d 166d 5c3d 27e0 943b
00000030: f560 953c a860 96bd 3bff aebd 47f3 1d3c
00000040: 8eef 15bc 7904 57bd 4be0 07bd 819a 1ebb
00000050: 28f1 30bd ea6a 8dbc 51fe 023c b81f b0ba
00000060: 244b df3c a70a 35bd 0c9c cb3c 191b 643c
00000070: 1186 033d 7f81 e1bc 2dc8 373d 149c 73bd
00000080: 3797 183c 689e 033b 301c 18bd 1a62 65bc
00000090: 2fd6 85bd 3250 293d 4d7f afbd cb27 ebbd
000000a0: b5f0 cebb 1cd5 f53c a736 b83c ba8b ab3a
000000b0: 1447 9abd 675f 5fbd e3a1 30bd ee3f 9f3b
000000c0: 8428 d0bc 3c12 e43b 830c 5bbd a423 153d
000000d0: f287 163c d6ce f9bb 9fde 8ebd 43c4 1e3d
000000e0: 2059 043d 0b72 8abc 8d29 16bc 86c0 17bd
000000f0: 4a99 a3bd 04dd 5bbd c79c 82bd be36 7bbd
00000100: 211c 82bc 4615 b3b9 563c f0bc f55b 0ebc
00000110: fc25 653c 794a b1bd f10c 87bd befd 3ebd
00000120: 0fe1 a6bd 398a 973c ea29 54bd 631e ecbb
00000130: 8790 34bd 67fc 3c3d 20ee 0c3d bb95 c2bc
00000140: e939 413c 6865 7a3d 19e8 a5bd d12e acbc
00000150: 33fd 7a3d 2aa3 2fbc b7f5 49bd f7a3 1c3d
00000160: 1ab2 6dbd 6952 693d 1184 4c3d e484 0ebd
00000170: 20f5 02bd 9820 aa3c 5e7c ffbc 5107 a53c
00000180: 584d 45bd 3c15 bd3c 22e7 2f3d 7d06 e4ba
00000190: 44cd b4bc ad9e 6c3d 3cb2 06bd c37a 64bd
000001a0: 7971 8ebd 1c9a 613c 6016 d7bc 613c 87bd
000001b0: 9733 a3bd 6aee 4fbd 5e83 e23c 3c45 063d
000001c0: 953a bdbc 4866 8fbd 6988 853c 92e4 1e3d
000001d0: a1a7 adbc 43f3 c33c 636c 40bd b118 4d3d
000001e0: 0d56 5b3d 6383 a03b 9fdd 163d 2165 3abd
000001f0: 66d0 97bd 86f6 e63c 29f6 9bbd 041c f63c
00000200: 945c 78bc 6b20 acbc fcb2 a3bc cfe7 6ebd
00000210: 7eb1 6abd 0764 9ebd ac22 253d f744 913c
00000220: dece 8ebc 299c fb3a 765a 45bd 3570 383d
00000230: df23 b13c f17f 88bd 56b5 53bd 2b92 23bc
00000240: 0830 d93c 86c3 71bd 5efd d4bb ac25 32bd
00000250: 305f a83c 7f27 be3c bbd6 563d c4d2 cf3c
00000260: 729d 673d 98c2 cb3c 4119 1f3c bcc1 5f3c
00000270: 46f1 86bd f2b6 54bd 019a ee3c f12e 0dbc
00000280: d6a7 2c3d 8180 4fbd 02c6 b8bc 559d 26bd
00000290: 375d 783c e5c3 87bd 36ab 103d 9803 b93a
000002a0: 5cde 6fbd 149b 40bd 9710 2d3d 42e5 343d
000002b0: 9eb1 303d 2e66 12bd d088 053d 9b2b 053d
000002c0: 9263 a7bd 8fe3 b9bd 9d67 863a 5ddb 98bd
000002d0: 18ef 31bd ceb4 32bc 1bce b9bd 9ff9 95bb
000002e0: 7df9 bfbc 69aa 883c c392 c5bd fe9f 92bd
000002f0: 6b5d 633d 5e18 f43b 74fc 6ebd 21d7 c6bd
00000300: 77d8 a93c 67d0 633c 3489 1cbc edb8 27bd
00000310: 92d3 5abd 17b9 953b 8cc6 1e3c ce9d 1fbd
00000320: 8b1f 95bc 2f24 06bc 2742 8a3d 5669 bb3c
00000330: 649d 9abd de3c 033c a91e a4bb 35c2 dabc
00000340: 1115 243d 2d87 b4bd 775a 773d 404b 8bbd
00000350: 04eb 183d b6fc b63d e231 7ebd e95f 933d
00000360: 1646 f9bc 6a6e 163d 340b 743d 43e7 8ebd
00000370: 0cea 8dbc ef28 b9bc 7682 adbb 69c7 99bd
00000380: 6928 83bc a0b2 a0bd 6953 12bd dfd7 8e3d
00000390: b6b7 55bd 9728 1d3b 101c 623d 4c6c 443d
000003a0: 149e 173d 37b6 843c 844c 45bd a4f6 febc
000003b0: 4622 443d 5315 c8bb f579 26bd 76c3 0bbc
000003c0: da1d 473d 0d46 28bd accf 333d cfc6 15bd
000003d0: a7a2 293c 970e c0bb e147 a83c a5b5 10bd
000003e0: c6e8 62bd 7171 52bd 0fe7 653d 8885 7ebc
000003f0: 69f7 70bd 2066 7a3d 373c f6bc f57a e63b
