deep_emotion-500-128-0.005.pt (torch, 274522 bytes, 24 tensors)

conv1.weight f4 [10, 1, 3, 3]
000000 9e 7f d5 3e 51 c3 ff be e0 ba a2 3d 11 ad ac 3e
       0.41698927 -0.49953702 0.079458 0.3372579
000010 10 c1 0c bf 20 39 c1 be 64 8f f4 3e 7e d0 2b be
       -0.5498209 -0.37738895 0.47765648 -0.16778752
000020 46 31 76 3e 02 87 c0 3e 7e 6f c4 3e d0 68 8c bc
       0.24042234 0.37603003 0.38366312 -0.017139822
000030 81 c6 4f 3e 08 b0 82 3e 59 30 9e be 25 8b ef bd
       0.20290567 0.25524926 -0.3089626 -0.116964616
000040 df 0a b8 be aa 05 11 bf 43 ce 58 3e d2 fc cc 3e
       -0.35945794 -0.5664927 0.21172433 0.40036637
000050 f5 fb cb 3b 2e 5f 61 3e fd e7 60 be d9 2a 9e be
       0.006225104 0.22008964 -0.21963497 -0.30892065
000060 ad 39 a7 3d 68 b0 0c ba 79 82 92 be 79 80 15 3e
       0.08165298 -0.0005366863 -0.28615168 0.1459979
000070 4b 30 03 3f ad e0 64 3e ec c3 6a bd b9 72 0e be
       0.51245564 0.22351332 -0.057315752 -0.1391095
000080 10 1f 9d 3e 92 83 eb be db ba e2 bd c1 bf 96 3d
       0.3068776 -0.45998818 -0.11070796 0.07360793
000090 7c 78 e6 be da a1 a8 be 51 a7 cb be b1 11 93 be
       -0.45013797 -0.32935983 -0.3977609 -0.28724435
0000a0 a0 58 f5 3d 35 47 2b 3c 42 03 6f bd bb c9 03 3e
       0.119797945 0.010453989 -0.058352716 0.12869923
0000b0 7c ff 15 3f b9 2f 6c 3e fb 9e 3f 3e d5 75 16 be
       0.58592963 0.2306508 0.1871299 -0.14693387
0000c0 bd 97 54 3e 36 79 8a be 8e 24 87 bd ac 00 a1 be
       0.20761009 -0.27045602 -0.06598769 -0.31445825
0000d0 28 0a f9 3d b6 58 22 be 3f be f1 bd 04 e3 81 3d
       0.1216014 -0.15854153 -0.11803865 0.06342128
0000e0 59 66 14 3d 90 1e 51 3e 78 5c 53 be aa 57 63 3e
       0.03623042 0.20421815 -0.20640743 0.2220141
0000f0 ec 86 42 3d 05 f0 f9 bc f9 1b 31 be d3 67 6c 3e
       0.047491953 -0.030509958 -0.17295827 0.23086481
000100 38 17 a7 bd 3d 3f 84 be a3 95 c6 bd b7 79 38 be
       -0.081587255 -0.25829497 -0.0969651 -0.1801518
000110 7e b2 52 3e 64 36 97 be 58 90 0a 3e 93 bf c4 3e
       0.20575902 -0.29533684 0.13531625 0.3842741
000120 40 12 a0 bd eb 32 a0 be 8a b9 a6 be 6a 1d 48 bd
       -0.07815981 -0.31288847 -0.3256343 -0.048856176
000130 99 8a 4c be 81 62 94 be b9 6f 42 bd 4f 06 2b be
       -0.19974746 -0.28981403 -0.04746983 -0.16701625
000140 87 2e 38 be d4 19 c6 be 84 32 74 3d 06 f5 0c 3e
       -0.17986499 -0.3869158 0.059618488 0.13765344
000150 16 f1 f0 bd bf 28 c4 be d1 16 9b bc 67 08 b6 3e
       -0.117647335 -0.38312337 -0.018931778 0.35553285
000160 1e 56 6b bd e3 2c b4 3e
       -0.057455175 0.35190496

conv1.bias f4 [10]
000000 91 0c 13 be 00 68 c9 3d 20 c5 02 3e 60 21 03 be
       -0.14360262 0.098342896 0.1277051 -0.128057
000010 0c 65 03 be 2f ae 1c be 32 7d c2 be 17 6c 9c 3e
       -0.12831515 -0.15300821 -0.3798614 0.30551216
000020 cb f6 ff be 83 06 ad bd
       -0.49992976 -0.08448508

conv2.weight f4 [10, 10, 3, 3]
000000 32 fc 65 3e 49 91 14 3d 3b c6 9e 3e 43 dd 19 3f
       0.22459486 0.036271367 0.31010613 0.60103244
000010 c4 aa 9c bb 69 f5 43 3d 1c 09 89 3e ab e2 16 be
       -0.004781099 0.047841463 0.26764762 -0.14734904
000020 5f 17 89 bd 87 03 8a 3e 35 0d 62 3e 48 0c 63 be
       -0.06693911 0.26955816 0.2207535 -0.22172654
000030 20 26 a3 3e 32 10 4f 3d d2 13 94 be 73 00 8d 3e
       0.31865025 0.050552554 -0.28921372 0.27539405
000040 40 ba 4f 3e 86 82 5f bd b6 2e 80 3e f3 cd ad 3c
       0.20285892 -0.054567836 0.25035638 0.021216368
000050 f1 2b c9 bd dd 59 75 3e 96 35 93 bd 21 05 05 bf
       -0.09822834 0.23960061 -0.07187955 -0.5196095
000060 b0 43 5e 3e cb 2e 91 3d 02 b4 96 be f6 f8 00 3e
       0.21705508 0.07089003 -0.2943421 0.12594971
000070 83 db 9e 3e c7 fd 93 3e cc cb 49 3e 59 b8 be 3e
       0.3102685 0.28904554 0.19706649 0.3725002
000080 7a 4d a5 3e 85 6d 58 bd ee 27 19 3e 27 67 9e 3e
       0.32285672 -0.05283882 0.14956638 0.30938074
000090 28 db 41 be 8c 9a 51 be fb e5 bc 3c 90 3b ab bd
       -0.18931258 -0.20469111 0.023058882 -0.0836097
0000a0 d1 98 bc bd b3 97 86 3d 83 a7 e2 3d 4a 5d c6 bc
       -0.09208835 0.06571903 0.110671066 -0.024214406
0000b0 b3 d8 03 be 37 f2 d1 3c d8 40 47 3c 4e 62 74 bb
       -0.12875633 0.025628192 0.012161456 -0.003729004
0000c0 d8 7f fb bc 30 3e 15 be 2e 8e 72 be a4 19 db 3d
       -0.03070061 -0.14574504 -0.2368705 0.1069825
0000d0 48 d4 a3 3d ca 42 54 bd 92 77 94 3d 4d e2 b1 bc
       0.07999474 -0.051821508 0.07249369 -0.021714354
0000e0 76 8e e5 3d 55 cf 3a 3d 2c 19 55 bd c9 a3 65 bd
       0.11208813 0.045607883 -0.05202596 -0.0560644
0000f0 b2 b5 ec bb 77 c5 7f 3d 12 c2 9e 3b ee 64 a0 be
       -0.007223808 0.062444177 0.0048449123 -0.31327003
000100 9b 87 54 3d cb 1a 00 3f ed b8 4a bd 10 0a 25 3e
       0.051887136 0.5004088 -0.049492765 0.1611712
000110 d6 80 ab 3e 31 cf 71 bd b4 be 1a 3d c4 e0 55 3e
       0.33496732 -0.059035484 0.037779525 0.20886523
000120 c9 a6 75 be 4f c2 03 bd d4 e8 6b 3e 2d 6b 8a bd
       -0.23989405 -0.03216773 0.23038036 -0.067587234
000130 c5 82 ea bd cd 5f 51 3d 9c 93 8e bd 66 02 d9 bd
       -0.114507236 0.051116753 -0.06961748 -0.105961606
000140 ed fe 42 3d 88 d6 a9 3d c6 2f c6 3c 30 dc 22 be
       0.047606397 0.08292872 0.024192702 -0.15904307
000150 97 15 5f be 91 a1 70 bd 6f 5a 04 3d 11 94 28 3e
       -0.2178558 -0.05874783 0.032312807 0.16462733
000160 85 cf ce 3e 72 b2 63 3e 4a f4 4d be 9c c2 00 be
       0.403927 0.2223604 -0.2011272 -0.12574238
000170 11 fb 05 3e 8b c3 9e bd f2 f8 4a be dd ea c3 3d
       0.13084055 -0.077521406 -0.19821528 0.09566281
000180 16 8d 83 be 45 41 55 be 93 ab 58 bd 67 33 41 be
       -0.25693578 -0.2082568 -0.052898 -0.18867265
000190 df e2 e3 bd 75 2f c0 be d0 8f 8e be 8d 81 88 be
       -0.111272566 -0.37536207 -0.27844095 -0.2666134
0001a0 5b b3 64 be 2c 4d 50 bd 7c 20 bf bd b8 c9 ce 3d
       -0.22334044 -0.050854847 -0.09332368 0.100970685
0001b0 53 5a bf bd 1a fd 0f 3d ad c0 ec bd 0d 8b 0d 3e
       -0.093434 0.035153486 -0.115601875 0.13822575
0001c0 16 26 3a 3e 74 43 17 3e 63 88 a4 be ca 0b 65 3b
       0.18178591 0.14771825 -0.32135305 0.0034949654
0001d0 7f e8 1c 3e 41 91 eb bd 3a af ed bd 01 41 a1 be
       0.15323065 -0.11502314 -0.116056874 -0.31494907
0001e0 20 12 45 3d 99 0e 41 be a5 0c 7b be f8 f5 77 3e
       0.04811299 -0.18853225 -0.24516542 0.24214923
0001f0 e7 56 31 3e 61 ea c0 bd 7b a4 d6 bd 93 06 fe bd
       0.17318307 -0.09419704 -0.10480591 -0.12403598
000200 fd bc 8f 3d 05 82 d9 be 92 54 40 be af 99 d6 be
       0.070184685 -0.4248201 -0.18782261 -0.41914126
000210 70 43 25 be 6b 14 2f be ff 45 5f be 98 7d 5b be
       -0.16139007 -0.17097633 -0.21804045 -0.21434629
000220 ab d0 b1 bd f7 94 a2 bd 10 43 d4 bd 51 6d a6 bd
       -0.086823784 -0.07938569 -0.10364354 -0.08126319
000230 cb 85 0b be 4f c2 f9 bd cb f6 87 be 15 ac 46 be
       -0.13625257 -0.121952645 -0.26555476 -0.19401582
000240 13 93 80 3b a7 10 bc bd 64 4c 65 3d e1 24 f1 bb
       0.0039237826 -0.09182864 0.055981055 -0.0073591326
000250 c9 5c a3 3c 35 0e cd bc 0d 11 eb 3d fe da 63 bd
       0.019941704 -0.025031189 0.114778616 -0.05562877
000260 e2 67 82 3d cf 8a 3b 3e 8a 17 a2 3d bd 58 07 bd
       0.0636747 0.1831467 0.07914646 -0.03304361
000270 15 16 0a 3e a9 f0 38 3e 08 21 c7 3d 5c 86 50 3e
       0.13484986 0.18060555 0.09723097 0.20363754
000280 90 8b b5 3b db 93 a8 3d 74 1e 25 bb 93 d0 44 be
       0.005540319 0.08231326 -0.0025195153 -0.1922019
000290 2e 4f 21 be 95 e9 8a bd 09 5c 99 3d 36 e0 87 bd
       -0.15752861 -0.067828335 0.074882574 -0.06634562
0002a0 96 64 26 3d 66 ec 08 bd 95 fe 86 3b 63 15 f7 3d
       0.04062327 -0.033428572 0.004119704 0.12064626
0002b0 54 54 a0 3c 1a 60 92 3d 2d 5c 0a 3e 32 e8 0b 3e
       0.01957146 0.07147236 0.13511725 0.13662794
0002c0 16 98 89 3e 56 29 72 bd 9f 55 8f bc a0 08 05 3e
       0.26873845 -0.059121452 -0.017496882 0.12991571
0002d0 ad 9b aa 3d b9 5f 64 be da ec 0a be d2 2f ff 3d
       0.08330474 -0.2230214 -0.13566914 0.12460293
0002e0 a2 5f b6 be 0d 6b c6 bc 5b 7e c8 be d2 0c aa be
       -0.35619837 -0.024220968 -0.39158902 -0.33212906
0002f0 d7 f4 8a 3e d7 b6 e1 be 56 ff 05 3e a9 66 1c 3e
       0.27139923 -0.44084808 0.13085684 0.15273537
000300 1c 84 e8 bd 8e be 3a 3e 0c 82 96 3e cf bd 61 3e
       -0.11353323 0.18236753 0.29396093 0.22045062
000310 da fb 9c 3d 4e a1 1b be 05 b7 3e be e9 00 29 bd
       0.076652244 -0.15198252 -0.18624504 -0.041260634
000320 81 d9 96 bd 68 f7 54 be 43 60 8f 3e b4 80 18 3e
       -0.07365704 -0.20797503 0.2800313 0.14892846
000330 a3 94 eb 3d 27 bb 80 3d ac b5 f9 bd 11 5b d4 bc
       0.115029596 0.062856965 -0.12192854 -0.02592233
000340 04 f8 37 be 33 bb 0e bd bf 7a 6a be 17 7d 05 be
       -0.17965704 -0.034846496 -0.22898386 -0.13035999
000350 19 40 fe bd f3 c1 58 3c f9 97 a7 bd bd c0 1f be
       -0.124145694 0.013229835 -0.08183283 -0.15600868
000360 4e d5 cd be f4 b5 ee be 3e 6c bc be cd 8c 8e be
       -0.402018 -0.46623194 -0.36801332 -0.27841797
000370 d0 4b a0 be de 1a 63 be 48 e1 54 bd a7 03 d8 bd
       -0.3130784 -0.22178218 -0.051972657 -0.10547572
000380 8d e1 e5 3c d4 4f 89 ba 3d c3 57 bd ef 0f a0 3d
       0.028061653 -0.0010476061 -0.052676428 0.07815539
000390 2f e3 fc bd dd 3c e5 3d 2a f3 b1 3d 34 fe 9d 3c
       -0.12348019 0.111932494 0.08688958 0.019286253
0003a0 75 74 cb 3d ba 11 14 3e 81 c2 87 3d 35 d6 b7 bd
       0.09934322 0.14459887 0.066288956 -0.089764036
0003b0 57 1b 70 bc d2 ef ae bd 85 64 29 3e 1b 18 9e 3c
       -0.014654956 -0.08541836 0.16542251 0.019298604
0003c0 33 d1 09 be 1e eb 6e bd c2 ab 89 3c df 61 64 3d
       -0.1345871 -0.058329694 0.016805533 0.0557574
0003d0 93 11 44 3b f0 7e af bd 14 27 2a be 2d a9 fd bd
       0.0029917702 -0.08569133 -0.1661647 -0.12385783
0003e0 83 41 69 bd 8d d2 03 3d c9 49 b1 3c 28 fd 1e 3e
       -0.056947242 0.03218322 0.021641629 0.15526259
0003f0 eb e1 26 be df d4 61 3d 22 45 6c bd 12 2e 9a bd
       -0.16297118 0.05513465 -0.057683118 -0.075283185

conv2.bias f4 [10]
000000 6a 43 8e 3d da c0 8e 3d 0d 03 f5 3d c8 9a e9 bd
       0.06946452 0.06970377 0.119634725 -0.11406475
000010 39 1f 47 bc 64 dd 2a be 8e e7 0e 3d 6e 3b fb 3d
       -0.01215344 -0.16686016 0.034888797 0.12267195
000020 67 3c 75 3e a2 00 d5 bd
       0.23948823 -0.10400511

conv3.weight f4 [10, 10, 3, 3]
000000 78 29 72 be c7 98 71 be 61 fd 98 be 88 ee ba 3d
       -0.23648632 -0.23593436 -0.29880813 0.091275275
000010 0f 3f 19 3d 55 4e c4 3b 23 72 18 3e 33 7e 1b 3e
       0.037413653 0.005990783 0.1488729 0.1518486
000020 ab 49 95 3d 09 5d b6 3e ac 60 12 3e 3a 5b a9 3d
       0.07289442 0.35617855 0.1429469 0.08269353
000030 e7 8c f8 3d 88 a4 43 3e 22 d2 cd 3b 37 8f 86 bc
       0.1213625 0.19105732 0.0062811533 -0.016425712
000040 3d 64 36 be e3 75 be bd 32 6c a3 3d 47 55 b1 bd
       -0.17811675 -0.09299829 0.07979621 -0.086588435
000050 1a ad f6 3d dc 57 48 3c 46 eb 91 3d dd d6 06 3e
       0.12044735 0.012227979 0.07124953 0.13167901
000060 fa 65 7c 3e 35 e5 31 3e ee 07 41 3e c7 ad cf bd
       0.24648276 0.17372592 0.18850681 -0.10140567
000070 e0 5f c5 bd a1 e7 8d 3c c1 6a 8f 3d 97 0d 92 bd
       -0.09637427 0.017322363 0.070027836 -0.07131498
000080 e0 83 b3 3c ff 56 13 3e e9 0b bc 3c 2c 76 89 bd
       0.021913469 0.14388655 0.022954898 -0.067119926
000090 0a dd 34 be 18 9e af be a5 35 29 be db 34 6c 3d
       -0.17662445 -0.34300303 -0.1652437 0.057667594
0000a0 25 49 74 3e 3f 25 cb 3d b3 fa 34 3d 68 9c a9 3e
       0.23856027 0.099192135 0.044184398 0.3312714
0000b0 55 99 2c 3e ab f6 f8 bc ab 4e 36 3d bc e6 e2 3d
       0.16855367 -0.030391058 0.044508617 0.11079165
0000c0 86 7f c0 bd e3 16 86 3c f8 50 f9 bc 9d 0b 04 3e
       -0.09399323 0.016368335 -0.030434117 0.12895055
0000d0 9a ed 99 3d 76 31 0c be 0c 77 65 be 0e 55 1d be
       0.07516022 -0.13690743 -0.22408694 -0.15364477
0000e0 62 70 3c be 8f 4e 51 be 3f d7 43 be 2a 71 f2 3c
       -0.18402246 -0.20440124 -0.19125079 0.029594976
0000f0 7f 70 1f 3e ae 89 15 3e 41 43 3b 3c d6 da e5 be
       0.15570258 0.14603302 0.011429609 -0.4489352
000100 0f 47 d5 be c9 0f 90 3d 57 59 4f be 27 07 ba bb
       -0.41655776 0.07034261 -0.20248924 -0.005677122
000110 21 d0 c2 3d 27 74 23 3e 43 4a 64 3e 4a 6e 58 3e
       0.09512354 0.15962277 0.22293954 0.21135822
000120 51 5a 9a 3e 69 ab 31 3e d3 40 39 3e 63 31 90 3e
       0.3014703 0.17350544 0.18091135 0.2816268
000130 a3 cb 31 3d 83 fe c6 bd 3b 23 a1 bd 0b d8 10 be
       0.043407094 -0.09716513 -0.07868048 -0.14144914
000140 9a 92 90 be 80 11 bf bd b5 7d 1c be 31 8c 87 3e
       -0.28236848 -0.0932951 -0.15282328 0.26474145
000150 94 e2 93 be 2b df 51 be 22 2e 11 3e 99 29 66 bd
       -0.28883803 -0.20495288 0.14177755 -0.056192014
000160 8e 11 9e 3c 56 fe 17 3e 78 7a e8 bc 85 e4 54 bd
       0.01929548 0.14843115 -0.02837871 -0.051975746
000170 5a 0b d3 bd 31 6c 07 be 3f 9b 97 bd 59 10 5f be
       -0.103048995 -0.13224865 -0.07402658 -0.2178358
000180 09 c9 7d bd 55 40 ec bd 66 5b c2 bd 3c b7 1d be
       -0.0619593 -0.11535708 -0.09490089 -0.1540193
000190 7f 7f 9f 3d 76 3e fd 3c 61 1d cd bd ce 6f 49 bc
       0.0778799 0.030913573 -0.10015369 -0.012294723
0001a0 2a d0 26 bc fe 9b 45 be 7d 7f 89 3c 85 27 b6 bc
       -0.010181466 -0.19297788 0.016784424 -0.022235641
0001b0 fc 43 32 3e c3 bd 7d 3d b3 6f eb 3d 23 7b 25 3d
       0.17408746 0.06194855 0.11495914 0.040400635
0001c0 29 62 53 be f6 06 c1 bd f0 df 10 bd dc 30 46 be
       -0.20642914 -0.09425156 -0.035369813 -0.19354576
0001d0 65 ad 87 3d c0 b7 00 be 9f a8 82 bd 94 b9 3c bd
       0.06624869 -0.12570095 -0.06379818 -0.04607542
0001e0 3f cf 55 3d 96 0c c5 bd dc 91 60 3d 4b 11 f6 3d
       0.0521996 -0.09621541 0.054826602 0.12015017
0001f0 53 c7 af 3d 90 d3 15 3d 9d 35 24 3d ee 17 fd 3c
       0.0858294 0.036578715 0.040090192 0.0308952
000200 92 50 56 be 28 b6 f6 bb 7c 01 d3 bd f5 ac 30 be
       -0.20929173 -0.007529039 -0.103030175 -0.17253478
000210 f3 0a 72 bb 75 c1 d3 bc c7 a4 66 bc b7 dd 9c bd
       -0.0036932796 -0.025849083 -0.014077372 -0.07659476
000220 40 d2 45 bd b0 bb ae 3c 32 e6 61 3c 34 98 52 bd
       -0.048296213 0.02132973 0.013787793 -0.051414683
000230 5a cb 24 3d d1 8f 05 be 08 63 85 bd a8 1a a1 bd
       0.040232994 -0.13043143 -0.06513029 -0.078664124
000240 78 be 8e b8 0d 76 15 3d 72 73 09 bd 1f 06 e5 bd
       -6.806565e-05 0.036489535 -0.033557363 -0.11182808
000250 d1 38 05 bd 69 29 85 bd 5c 3a 36 be 84 31 28 be
       -0.032524887 -0.06502039 -0.177957 -0.16425139
000260 a2 1b 64 3d 3d 55 58 3e 67 5e 49 bc 52 df 9f bc
       0.055690415 0.21126266 -0.012290574 -0.019515667
000270 a8 81 d3 bd 8c 25 66 3d 1b 05 26 be 38 70 2b bd
       -0.10327464 0.05618815 -0.16212885 -0.041855067
000280 94 cf ad bd 45 8b 87 bd eb e1 07 be 7c 8c 90 3d
       -0.08486858 -0.066183604 -0.13269775 0.07058045
000290 e9 4a 72 bd ff bc df bd 87 b9 ad bd 4c 42 0f be
       -0.05915347 -0.1092472 -0.08482652 -0.13990134
0002a0 11 d5 d4 bd 1f db 57 3d 36 2c 9d bd 56 ba 9a bd
       -0.10392202 0.052699205 -0.07674448 -0.07555072
0002b0 3f dc fd bd d4 64 1e 3e 40 64 8b bd 6d 36 2f bd
       -0.12395524 0.1546815 -0.068062305 -0.042776514
0002c0 3f d5 13 3e 67 51 fc bd ad d1 73 3d 49 12 c7 3c
       0.14436816 -0.12320214 0.059526134 0.024300711
0002d0 3f 59 bf be 3f be 3f 3e 7e a5 d6 3e 45 1e 6f be
       -0.37372777 0.18724917 0.41923136 -0.2335139
0002e0 33 20 da 3b 40 89 96 3e 8e 54 02 be db b2 cc 3b
       0.0066566705 0.29401588 -0.12727568 0.006246907
0002f0 1d 39 c4 bd 01 d3 f2 bc d1 1d 1b be 4b 69 63 3c
       -0.09581206 -0.02964163 -0.15148093 0.013880084
000300 2c 4e e3 3c bf 8c 43 be b7 42 60 be ad 32 73 bb
       0.027747236 -0.19096659 -0.2190045 -0.0037109063
000310 a7 93 30 3d 14 69 56 3a 9e 2e 9a 3e eb b9 0f 3e
       0.043109562 0.000817911 0.3011369 0.14035766
000320 b1 eb 28 be f4 79 8a 3e a2 cf 76 3e 94 97 6a bd
       -0.16496159 0.27046168 0.24102643 -0.057273462
000330 1f c1 55 3e 70 77 68 3d b7 cf 45 be 92 32 79 bc
       0.20874451 0.05675453 -0.19317518 -0.015209811
000340 bc ef 86 3d 90 6a 22 bd 09 d7 bf 3d 7c 43 f3 3d
       0.065886945 -0.039652407 0.093671866 0.11878106
000350 03 98 eb 3d 86 60 da 3c c1 80 ad 3d e7 d8 f3 3c
       0.11503603 0.026657354 0.084718235 0.029766513
000360 13 ff 4b be fb 10 85 3e 53 6a 7c 3d 7a 9e cd bd
       -0.19921522 0.25989518 0.061624836 -0.10039993
000370 13 85 68 3e de 3c 6c bc 63 8f 1c 3f 4e 5b c6 3e
       0.22707014 -0.014418809 0.6115629 0.38741535
000380 11 e6 49 bd dc 8e a1 3d ac 32 a6 bd 4c a6 d1 bd
       -0.049291674 0.078885764 -0.08115134 -0.10236797
000390 80 21 67 3d f9 51 38 3e d3 a4 5c 3e fc 65 85 bd
       0.056428432 0.1800002 0.2154725 -0.065135926
0003a0 8b ec ad 3d 42 a0 84 3d 63 f0 68 be ce 09 b1 3d
       0.084923826 0.06475879 -0.2274795 0.08644448
0003b0 48 3e b0 3c 8d 86 f6 3d 53 fd db 3e be ba 55 3c
       0.021514073 0.12037382 0.4296671 0.013045011
0003c0 54 aa 8d 3e 99 17 de 3e 40 5d 72 bd 7d 83 ac 3e
       0.27669013 0.4337738 -0.05917096 0.33694068
0003d0 e1 9b 9c 3e 26 a7 70 be bb 63 5e 3e 91 7e a2 3e
       0.30587676 -0.23501262 0.21717732 0.31737188
0003e0 ec 72 2c be ce b1 a1 3e a0 40 65 bd bc c3 02 be
       -0.16840714 0.31580967 -0.055969834 -0.12769979
0003f0 09 3c 96 be d3 68 6e be 57 49 05 be df 12 1e 3d
       -0.29342678 -0.23282175 -0.13016258 0.038592216

conv3.bias f4 [10]
000000 86 a9 0e 3e 00 db eb bd 8c 45 eb 3d 4f 7a 23 be
       0.13931856 -0.1151638 0.114878744 -0.15964626
000010 39 84 04 be 1f ea 8d 3c b4 ec 2a bd ea 99 98 bc
       -0.12941064 0.017323552 -0.041729644 -0.01862808
000020 4b 5a 49 3d bb 56 f9 3e
       0.049158376 0.48698983

conv4.weight f4 [10, 10, 3, 3]
000000 6e a1 3a be e9 4f f6 bc b5 01 ac 3d 84 c2 33 3d
       -0.18225643 -0.030067401 0.08398763 0.043886676
000010 c7 66 a3 bc 18 c2 c1 3e 40 35 70 bd e9 22 ef 3d
       -0.019946469 0.37843394 -0.058644533 0.116765805
000020 68 4d 05 3f ad 81 e0 3d 97 fb 54 3d 71 40 49 3e
       0.5207124 0.10962234 0.051997747 0.19653489
000030 f1 ae 44 3b 1f 56 5f bd f6 f0 4f bd b8 85 9c 3d
       0.00300115 -0.05452549 -0.050766908 0.07642692
000040 5c 77 d7 bd 49 76 4a bd 7f 43 b9 3e f9 0a 27 be
       -0.10520813 -0.04942921 0.36184308 -0.1631278
000050 b2 a7 92 be 86 42 5c 3d 57 da cc bc 07 e5 ac bd
       -0.28643566 0.05377438 -0.025006456 -0.08442121
000060 c5 45 37 3e 23 6f e5 bd 55 ae 2b be fe 9b 39 bd
       0.17897709 -0.11202838 -0.16765721 -0.04531478
000070 a1 c6 17 bd 64 20 12 be 25 16 ad bd 89 a7 c0 be
       -0.03705466 -0.14270169 -0.08451489 -0.3762782
000080 d6 63 2d be 73 07 a9 bb b4 e9 0c 3e 0b 97 0e 3d
       -0.16932616 -0.0051583587 0.13761026 0.034812015
000090 4b fc d1 3d 8b 45 66 3e b4 4c 1c 3e 4a 1e d3 3d
       0.10253199 0.22487466 0.15263635 0.103085116
0000a0 41 1f 43 3e ef 21 a6 3a a1 7b 36 3e 0e b7 34 3d
       0.19054891 0.0012674908 0.17820598 0.044119887
0000b0 e5 38 01 bd e4 81 0c be c0 f2 c4 bc 77 0f b2 bd
       -0.0315484 -0.13721424 -0.024041533 -0.08694356
0000c0 6e bc b9 bd fe 87 2a 3b 36 8f f9 bd e7 46 7c 3c
       -0.09069143 0.0026021 -0.121855184 0.015397764
0000d0 ca e2 66 bc ec 88 53 3d 51 59 0c bd d6 ed db bd
       -0.014092157 0.05164425 -0.034264866 -0.10738723
0000e0 57 1d 00 3c c4 22 b3 3d 42 dd 91 3d 17 76 3b 3d
       0.007819495 0.087468654 0.0712228 0.045766916
0000f0 57 62 2c bd 61 32 bf 3d 57 15 50 3d 11 12 0d be
       -0.04208597 0.09335781 0.0508016 -0.13776423
000100 a7 d4 67 bd b5 82 11 be 57 f2 8a bd 56 e0 28 bd
       -0.056599285 -0.14210017 -0.06784504 -0.04122957
000110 64 6c ef bb 72 4f 8e 3d 66 fc 33 3d dd 83 f8 3c
       -0.0073066223 0.06948747 0.043941878 0.030336315
000120 19 27 95 be 8a ef aa bc c1 48 db 3e d2 7f 21 be
       -0.29131392 -0.020866174 0.42828944 -0.15771416
000130 fc d5 12 bc f9 d1 3c be 1c a0 13 be 01 2a 26 be
       -0.008962151 -0.18439473 -0.14416546 -0.1622696
000140 e0 81 30 be 45 93 10 3d 2a d3 a7 3c a8 1f 89 ba
       -0.17237043 0.035296697 0.020486433 -0.0010461705
000150 6d 8f 92 3c 35 a1 ed 3c d1 28 8a be 6f 30 ba 3d
       0.017890656 0.029007534 -0.26984265 0.09091269
000160 1b e9 a0 bd 84 a1 1a 3e ae 05 01 3c 4b a0 a4 3e
       -0.07856961 0.15100676 0.007874889 0.32153544
000170 f1 f5 91 3e c7 27 23 3e d2 22 24 3d 39 d6 63 bd
       0.2850795 0.15933143 0.04007227 -0.05562422
000180 ad ec 20 3e f9 80 dc 3c bc cb a2 bd 57 b6 a6 3d
       0.15715285 0.026916968 -0.079490155 0.08140247
000190 37 4b 81 bd d5 9b 59 3d 0e 82 ca 3d 04 4c ba bd
       -0.06313174 0.05312713 0.09888087 -0.0909653
0001a0 c6 cd 68 3e 03 b2 07 bd 3b 2d 83 3c 10 46 1c 3e
       0.22734746 -0.03312875 0.016012779 0.15261102
0001b0 ec 55 85 bd 60 ff d9 bd 5b 86 97 bb f5 dd 05 3e
       -0.06510529 -0.10644412 -0.0046241707 0.13072951
0001c0 1d 14 71 3e a8 92 06 3e 9d c3 9f 3e ae b7 42 3e
       0.23542829 0.13141882 0.3120393 0.1901538
0001d0 8c 37 5c bd e2 a9 f7 bd 10 ab 0d be 31 84 79 3b
       -0.05376391 -0.120929495 -0.13834786 0.0038073177
0001e0 d8 1b d8 bc ca e4 ce bd c6 a1 de 3d 5c 70 17 3e
       -0.026380464 -0.10102232 0.108706996 0.14788955
0001f0 5d 09 aa 3d 1f 30 4f 3d 89 6e ff 3d 83 57 ae bb
       0.08302567 0.050583 0.12472255 -0.005320491
000200 f8 4b f8 bc ad b4 a4 bc 8e cc 98 bd ee bb b4 bd
       -0.030309662 -0.020105684 -0.07460891 -0.08824907
000210 a7 1e 18 be 09 a4 9f ba 76 2c f8 3c f5 2b 43 3d
       -0.14855443 -0.0012179624 0.030294638 0.047649343
000220 69 83 4d bd c4 05 b5 3d 33 54 07 bc b4 71 3c 3d
       -0.05017415 0.0883899 -0.008259821 0.046006873
000230 06 38 47 bc bb 09 1a bd 93 ee 63 bd 07 2d f5 bb
       -0.012159353 -0.037606936 -0.055647444 -0.0074821743
000240 49 11 3c 3d ae 6b 3a bd 5d 3e 12 3d 10 59 7e 3c
       0.045914922 -0.045512848 0.035704006 0.015524164
000250 4b db c5 3b c1 5c d2 3b 5c 11 8e 3c 4b 07 c1 3d
       0.0060381046 0.0064197485 0.017342262 0.09425219
000260 3e c2 87 bd 5f 9e 06 be 73 95 5a 3d 24 fc fb bd
       -0.06628846 -0.13146351 0.053365182 -0.123039514
000270 30 f4 9d 3d c9 16 d4 3b d2 87 8a bc 1b 2d 4b bd
       0.07712591 0.0064724428 -0.016910467 -0.049603563
000280 86 f0 4d bd 0a 3a aa bc bb 48 39 bd eb ad 38 3e
       -0.05027821 -0.020779628 -0.045235377 0.18035094
000290 c4 c7 55 3d 85 70 99 3d b2 91 a3 bd 9c 43 95 3d
       0.052192464 0.074921645 -0.079867736 0.07288286
0002a0 50 92 b0 3c 6c 9b 6f bc 1a 4f ba 3c 8f d3 a7 3d
       0.021554142 -0.014624458 0.022742797 0.081946485
0002b0 6d 3b 29 3e d5 87 b4 bd 6f 67 18 3c 6b 46 e3 3b
       0.16526575 -0.088149704 0.009302004 0.0069358847
0002c0 fd d4 96 be 59 cf 1a be 2e 14 45 be 91 35 3c 3e
       -0.29459372 -0.1511816 -0.19245979 0.18379809
0002d0 aa 1f 86 bd ec a9 10 be cd 53 e5 be 0c f1 1a 3e
       -0.06549008 -0.1412732 -0.44790497 0.15131015
0002e0 87 e1 19 3d d9 ec 6b bd 24 a0 99 be 02 af b3 bc
       0.037568595 -0.057598922 -0.3000499 -0.021934036
0002f0 8d 8c fb bd c2 8e 0a 3d e7 2e 3e bd 65 dc ed bd
       -0.12282667 0.03382755 -0.04643145 -0.116143025
000300 ad 12 7e 3d 44 af 88 3d bf a2 b9 bc c1 b0 9d bd
       0.06202953 0.06674054 -0.022660611 -0.07699729
000310 40 42 d8 bd 57 d0 e2 3d f1 80 c5 be cf 17 a6 be
       -0.10559511 0.11074894 -0.38574937 -0.3244004
000320 d7 85 fe bd 0b 75 02 be 1e fa 1a be cd 92 01 be
       -0.12427872 -0.12739961 -0.15134475 -0.12653656
000330 26 26 62 be fd 7c a9 be c7 dc 41 be a5 e1 bf bd
       -0.22084865 -0.3310317 -0.18931876 -0.0936921
000340 a4 9d 81 3d e2 26 f2 3d f5 e4 df bd b0 e9 90 3c
       0.06328896 0.118238226 -0.10932342 0.017689556
000350 e8 a7 e1 bd cb 10 0c 3e 22 ca 04 3e 74 fb 81 3d
       -0.11018354 0.13678281 0.12967733 0.06346789
000360 b9 63 d0 bd e0 a7 c7 3c d5 dc f4 bd f9 8d bf 3c
       -0.101752706 0.024372041 -0.11956183 0.023383128
000370 d4 1d fb bb 4a bb 93 3c 4a 37 34 bd 6c 82 7d bc
       -0.007663468 0.018033642 -0.04399804 -0.0154729895
000380 e0 22 0b 3e 68 bc 9d bd 1d a2 36 bc ba 9f 8a bd
       0.13587523 -0.07701951 -0.011147049 -0.06768747
000390 34 78 13 bd df d8 cd bc 68 54 9c 3d 1c 91 e2 bb
       -0.036003307 -0.025127826 0.07633287 -0.006914271
0003a0 70 10 ab 3c 1c 9d b5 bd bb 30 8c bd 9a 97 91 bd
       0.020881861 -0.08867857 -0.06845232 -0.07108994
0003b0 a2 a4 ce bd ea 81 6f bd 7d 9f c0 bd 13 3c 3f bd
       -0.10089995 -0.058473505 -0.0940542 -0.04668815
0003c0 c4 cc c2 bd 3a 5c ce 3c d6 25 e1 bd 35 13 ec bc
       -0.09511712 0.025190461 -0.10993545 -0.028817752
0003d0 f9 c1 2a bd 7c 18 29 3c 05 67 c5 bc 48 b4 4f bc
       -0.041688893 0.010320779 -0.024096975 -0.01267726
0003e0 de 63 35 3e 27 cb dd bb 37 91 94 3d fd 3f aa bd
       0.17713878 -0.0067686024 0.0725426 -0.08312986
0003f0 a7 5f 10 be f3 13 73 bd ab ea 85 bc c2 c5 fc bc
       -0.14098988 -0.059345197 -0.01634725 -0.030856017

conv4.bias f4 [10]
000000 8b 2a 17 be d2 71 44 3e 6a 4c 4f be 4e 0b 8c 3d
       -0.14762323 0.19184044 -0.20243993 0.06838094
000010 ed dd e3 3b 92 8b 2b 3e e2 15 5b 3d c8 54 6f bd
       0.006953946 0.1675246 0.053487666 -0.058430463
000020 f1 df 3c be 45 bc 01 3e
       -0.18444802 0.12669475

norm.weight f4 [10]
000000 67 d1 95 3f 0f 03 92 3f a5 61 8a 3f 6a 9c 9f 3f
       1.170453 1.1407183 1.0811049 1.2469609
000010 f8 f5 87 3f a0 54 89 3f 65 2a 9b 3f bd 7c 8a 3f
       1.0621939 1.072895 1.2122313 1.0819317
000020 44 18 8c 3f 3f dc 88 3f
       1.0944905 1.0692214

norm.bias f4 [10]
000000 03 be de be fe bc 15 bf 23 6f ad be 61 06 1c bf
       -0.43504342 -0.58491504 -0.33873853 -0.60947233
000010 11 6a 02 bf c5 41 cb be a5 71 07 bf d0 d9 08 bf
       -0.50943094 -0.39698616 -0.5290778 -0.53457355
000020 1e 72 00 bf 67 5b 03 bf
       -0.5017413 -0.51311344

norm.running_mean f4 [10]
000000 88 57 62 be 04 7e a9 3f 08 1f af c0 34 1b 5d bf
       -0.22103703 1.3241582 -5.472538 -0.86369634
000010 b8 07 47 c0 e0 38 04 3e 46 50 69 c0 2c a1 49 be
       -3.109846 0.12912321 -3.6455245 -0.19690388
000020 60 e1 d1 3e a8 80 bc be
       0.4099226 -0.36816907

norm.running_var f4 [10]
000000 2e ef d0 3f 12 9c 2e 40 cc 1e 9f 40 94 98 e7 3f
       1.6322992 2.7282758 4.9725094 1.8093438
000010 49 32 90 40 40 c7 e2 3f ac 7e 19 40 5b 6c 90 3f
       4.5061383 1.7717056 2.3983564 1.1283067
000020 e4 84 fb 3f 1d 15 95 3f
       1.964993 1.1647068

fc1.weight f4 [50, 810]
000000 e7 a4 5c bd c1 56 17 bd df 54 6c bd 71 ea ba bc
       -0.0538682 -0.03694797 -0.057698127 -0.022816868
000010 de 28 0d bd 46 f4 80 bd b5 35 47 bd 35 1d 9e bb
       -0.034462802 -0.062965915 -0.048635203 -0.004825259
000020 a8 9a d4 bc 58 c0 3e 3c 50 44 49 3b 38 69 84 bb
       -0.025952652 0.011642538 0.0030710883 -0.0040408634
000030 cd 6f 64 bc 60 84 5f 39 72 f7 61 bd 92 8a c1 bc
       -0.013942671 0.00021316251 -0.055167623 -0.023625646
000040 8b f1 6f bd 47 98 25 bd 03 1d 4a bd f9 e8 0e bb
       -0.058579963 -0.040428426 -0.049344074 -0.0021806343
000050 4d 64 5d bd 27 c3 83 bd d8 68 57 bd 64 b2 06 bd
       -0.054050732 -0.06433707 -0.05259022 -0.03288497
000060 89 2a 1f bb c5 69 13 bd 94 d4 03 bd 0f ce ad 3c
       -0.0024286828 -0.03598954 -0.032185152 0.02121642
000070 99 20 5e 3c d5 ad c2 bb 69 43 92 bc 3e b7 bd bc
       0.013557577 -0.0059411325 -0.01785441 -0.023158666
000080 21 89 f5 bc ec da db bc 8b 37 8e bc 9f 87 36 3d
       -0.029972615 -0.026837789 -0.01736047 0.044562932
000090 64 fe 91 bc 8e 71 82 bd 94 ac 2c bd 25 34 5f bd
       -0.017821498 -0.06369315 -0.04215677 -0.05449309
0000a0 d2 05 52 bd f0 0f 25 bc 04 32 3f bd c4 99 57 b9
       -0.051275082 -0.010074601 -0.046678558 -0.0002056128
0000b0 50 0c c2 bc 2c 8a 10 3d 47 ce 1f bd ed df 71 bb
       -0.023687512 0.03528802 -0.03901508 -0.0036907152
0000c0 bf 3c b5 bc 50 c6 b2 38 24 b1 47 bd 5f 5d 3d bd
       -0.022123693 8.52464e-05 -0.04875292 -0.046231624
0000d0 c7 41 94 3b 46 e9 11 bc 64 6b 6f bd b1 ea 10 b8
       0.004524443 -0.008905714 -0.058452025 -3.455085e-05
0000e0 a8 43 50 bd 37 86 54 bd 52 c3 02 3b a1 4d c2 bc
       -0.050845772 -0.05188581 0.0019952846 -0.023718657
0000f0 56 1f 69 bd b9 93 27 bd bd 3d 76 bc 5b 90 e9 bc
       -0.05691465 -0.040912364 -0.015029368 -0.028511217
000100 6f 25 25 bd 7d ee 13 bd 84 4c 8d 3a a2 a5 6d bd
       -0.040318903 -0.036116112 0.001078025 -0.058019288
000110 5d 0c ba bc b5 2a 03 bd b4 92 16 3c 07 98 69 bb
       -0.022710973 -0.03202315 0.00919025 -0.0035643594
000120 2a 79 d0 3c 81 03 55 bd 0e fb 19 bc 30 b1 5f bd
       0.0254484 -0.052005295 -0.009398235 -0.05461234
000130 5a 0b 2d bd 28 b6 21 bd 30 0b ae bc 10 82 6b bd
       -0.042247154 -0.03948036 -0.021245569 -0.057497084
000140 15 ae c9 bb 17 2e 29 bc e9 29 eb bc 00 66 71 bd
       -0.0061547854 -0.01032593 -0.028706508 -0.058935165
000150 24 87 a2 bb 8c 7a 22 bd 66 c2 83 bd 97 ec 81 bd
       -0.0049599577 -0.03966765 -0.06433563 -0.06343954
000160 23 fd ce 3c 64 fa 32 bd fc 8f bd bc ee 35 0f bd
       0.02526719 -0.043695822 -0.023139946 -0.03496354
000170 af 11 59 bd 5d c8 c5 bc ee 95 72 bd d7 69 4b bd
       -0.05299538 -0.024143392 -0.059225015 -0.049661484
000180 71 2f d1 bc 36 9d dd bc 85 7c 2b bb 8e f4 19 bd
       -0.025535317 -0.027052503 -0.0026166749 -0.03758674
000190 b9 88 7a bd 3f d1 9b 3b d5 31 40 3a 7d aa be bc
       -0.061165545 0.0047551687 0.00073316443 -0.023274655
0001a0 e7 98 40 bd ca c2 0b bd f3 4b 0e 3b b7 56 6a bd
       -0.04702082 -0.034121312 0.002171275 -0.057211604
0001b0 03 4e 17 3b fb a2 f3 bc 19 8b 6d bd 62 75 de bc
       0.002308727 -0.029740801 -0.057993982 -0.027155582
0001c0 08 34 80 bd e9 5f 95 bc 85 87 09 bd b3 e0 16 bc
       -0.06259924 -0.01823421 -0.033576507 -0.009208846
0001d0 f8 c1 6e bd da 0c a2 3b 9a dc 69 bc 49 7b 53 bd
       -0.05829045 0.0049453797 -0.014273787 -0.051631246
0001e0 37 b5 59 bd e1 44 83 bd 25 b9 c6 bc f0 dd fe bc
       -0.053151336 -0.06409622 -0.024258206 -0.031111687
0001f0 4f 8f 64 bd b3 05 5b bd 10 cd a3 bc c9 fd d7 bc
       -0.055800732 -0.053472232 -0.019995242 -0.026366131
000200 06 e2 d9 bc 31 65 04 bd eb 3b 84 bd 14 03 31 bb
       -0.026597034 -0.032323066 -0.06456741 -0.0027009891
000210 73 64 3e bd 80 04 77 bd 76 08 c1 b9 10 76 c9 bc
       -0.046482515 -0.060307026 -0.00036818133 -0.02459243
000220 23 69 31 bd 16 12 29 bd a6 82 4c bd d3 14 2d bd
       -0.043313157 -0.041277014 -0.049929284 -0.042256188
000230 7e ac 7f 39 31 08 22 bc 97 c9 e2 bc b0 31 60 bc
       0.00024382953 -0.009889648 -0.027684016 -0.013683721
000240 c2 9d 25 bd ce ef 22 bb f0 99 5c bd ae 6f 9d bc
       -0.040433653 -0.0024862173 -0.053857744 -0.019218292
000250 8e 57 2a bd 9d be 77 3a 2d 34 6a bd e1 32 5b bd
       -0.041587405 0.0009450706 -0.057178665 -0.05351532
000260 c5 d4 a3 bc ed e5 7a bd 4b a3 01 bd 65 34 d9 bc
       -0.019998917 -0.06125443 -0.03164987 -0.026514241
000270 fd d6 03 bd ba 33 43 bd 8c 20 8a bb 8a 7b a6 bc
       -0.03218745 -0.047656752 -0.0042153057 -0.02032258
000280 73 07 88 bc 90 44 a3 bb de 1d 1b 3c 19 0a 48 bb
       -0.016605115 -0.0049825385 0.00946757 -0.0030523597
000290 a4 48 03 bd 4f cc 5e bc 66 04 c6 bc a9 32 bd 3a
       -0.032051697 -0.013598516 -0.02417202 0.0014434654
0002a0 b8 3c d0 bc 4b 16 98 b9 e3 ec 38 bc e6 d1 c2 bc
       -0.025419578 -0.0002900831 -0.011286947 -0.023781728
0002b0 b8 6d 27 bb 4c 3e 22 3d ff 8e 80 bd c1 fe 57 bd
       -0.0025547575 0.039610192 -0.06277274 -0.052733187
0002c0 1d 39 24 bd ec 10 78 bc 8e 16 a7 3b 01 1f 9e bc
       -0.04009353 -0.015140753 0.0050991243 -0.019301893
0002d0 76 2a 9c 3c dd 5f ab 3c 56 86 8e bc 05 0e 1c bd
       0.019063216 0.020919735 -0.01739804 -0.038099308
0002e0 49 bc ae bc ab c8 1e bd 19 21 1b 3d 18 84 c9 bb
       -0.021330016 -0.03876559 0.03787336 -0.00614978
0002f0 09 20 02 bc 2c 9d 40 bd 8f 57 d0 bc 88 14 ea bb
       -0.007942208 -0.04702489 -0.025432376 -0.007143561
000300 0c 93 7d bd 66 24 7e 3b f1 ef 82 bd 85 01 75 bd
       -0.061907813 0.003877902 -0.063934214 -0.059815902
000310 b1 6e 2e bd b5 ac 1d bd 4e f7 3f bd 6e 86 27 3a
       -0.042586032 -0.038494784 -0.046866708 0.0006390576
000320 4a 31 d0 ba c0 29 41 3b 77 5b 20 bc 53 1e 3d bd
       -0.001588383 0.0029474348 -0.009787432 -0.046171498
000330 33 d9 6f bd 14 f7 ae bc cc 98 8b bb 20 69 4a bd
       -0.058556747 -0.02135805 -0.004260158 -0.04941666
000340 e9 94 84 bd c0 83 8e bc 82 c7 ed bc 2c ba 80 bd
       -0.06473715 -0.017396808 -0.029025797 -0.062855095
000350 9b d5 ef bc bf e2 4e bd 6a 08 41 bd ac ce 2f bd
       -0.02927666 -0.05050921 -0.047127165 -0.042921707
000360 ac a6 32 bd a0 b9 15 bd 6e 50 1f bd fc c5 03 bb
       -0.043615982 -0.03655398 -0.038895063 -0.0020107022
000370 4b e9 dd bc e5 87 19 bc a8 94 8f bc 3a 1c 3d bd
       -0.027088782 -0.009370779 -0.01752694 -0.046169497
000380 4f 3c 68 bd 52 c3 0a bd 5d f4 15 bd b0 f0 fa bc
       -0.05669814 -0.03387768 -0.036609996 -0.030632347
000390 ab 7b 5d 3b 51 38 dc bc 7c 01 47 bd 42 90 1e bd
       0.0033795636 -0.026882323 -0.0485854 -0.038711794
0003a0 1f 94 03 bd 94 97 b9 bc 4a 38 40 bb 3a 3c aa 3c
       -0.03212368 -0.022655286 -0.0029330426 0.020780671
0003b0 ce 5d 8f 3b 12 37 41 bd b0 8c bb bc 6b 33 53 bd
       0.004375196 -0.04717166 -0.022894233 -0.051562708
0003c0 d9 e5 fb bc c9 e5 5f bb ad 0f c6 bc 6f 06 a0 3b
       -0.030749248 -0.0034164062 -0.024177397 0.0048835794
0003d0 45 a5 e2 bc f9 bf 82 bd 1e f2 dd bb 1d 1a 03 bd
       -0.027666697 -0.06384272 -0.0067732474 -0.032007325
0003e0 73 76 83 bd 67 09 62 bd 7a 72 9c 3b f4 49 81 bd
       -0.06419077 -0.055184748 0.004774389 -0.063129336
0003f0 2c 67 1c bd c0 b1 00 bd 14 5e 07 bd af 83 1f bd
       -0.03818433 -0.031419516 -0.033048704 -0.038943943

fc1.bias f4 [50]
000000 23 6c 81 bd e3 e5 8c 3e 19 5d 04 bc 3a 55 7a bd
       -0.063194536 0.2751914 -0.008078837 -0.061116435
000010 4b 2b e5 bb 9a cd 87 bd a2 37 06 bd 38 ad e7 3c
       -0.0069936863 -0.06631012 -0.0327679 0.02828084
000020 17 3d 02 bc 71 0f 47 bd 94 c3 2d bd 91 5c 38 3c
       -0.007949135 -0.04859871 -0.042422846 0.011252538
000030 33 10 62 bd 6d 78 9b bd 69 62 e7 bc 0d 21 ea bd
       -0.05519123 -0.07591329 -0.028245168 -0.11432085
000040 f0 a3 2a bd 7d 74 28 bd fd c3 07 bd fd 4c 76 bb
       -0.04166025 -0.041126717 -0.033145893 -0.003758251
000050 33 f1 18 bd d5 0b 08 3e 77 3d 30 bd 2e 8f 6a bd
       -0.0373394 0.13285764 -0.043027367 -0.057265453
000060 95 d7 25 bd a3 9d 5c bd c2 30 56 bd d9 69 72 bd
       -0.0404888 -0.05386127 -0.052292593 -0.059182975
000070 91 26 3b bd 51 b5 6d 3e 45 a0 46 bc c8 7b a3 bd
       -0.045691077 0.23213698 -0.012123172 -0.07982594
000080 03 63 13 bd a4 75 00 3c 74 48 b5 ba a9 28 b6 ba
       -0.035983097 0.007840548 -0.0013830797 -0.0013897616
000090 57 27 cc bd 98 a6 13 bd 3c 24 ea bc 39 98 0f bd
       -0.09968441 -0.036047548 -0.028581731 -0.03505728
0000a0 4b 57 68 bd 92 4b 17 3d 23 34 bc bc a9 bf cf 3a
       -0.056723874 0.036937304 -0.02297408 0.0015849966
0000b0 eb fd 37 bd e5 72 f8 3b 8b 38 dc bd c3 3a 20 3d
       -0.04491989 0.007582056 -0.10752972 0.03911854
0000c0 97 4b 76 bd 54 ca ff bc
       -0.06013068 -0.031224407

fc2.weight f4 [7, 50]
000000 39 58 96 3d 90 f0 74 3d a9 7f b2 bd ca 5f 9f 3d
       0.07341046 0.05979973 -0.087157555 0.07781942
000010 46 b7 81 3c 64 5d 02 be eb 23 31 3d a7 c8 5e 3e
       0.015834462 -0.12730938 0.043247145 0.2175623
000020 63 dd df 3d d5 04 1f 3d 34 94 db 3d b7 f3 d2 3d
       0.10930898 0.038822968 0.10721627 0.10300391
000030 20 02 e6 3c 74 55 61 be cd 66 e3 3d c5 a0 55 be
       0.028077185 -0.22005254 0.11103592 -0.2086211
000040 ed 62 fe bd 92 a9 d2 bd 6e 29 8e 3d b6 0e a4 bb
       -0.12421212 -0.10286249 0.06941496 -0.0050066365
000050 5f 0f 50 3d a4 f7 4f 3e 10 d4 8c 3d 09 0e 71 bd
       0.05079591 0.20309311 0.06876385 -0.058851276
000060 94 bc d8 3d 84 8b 7c bd 4a 46 b8 bc 55 06 c8 3d
       0.105828434 -0.06165649 -0.022494454 0.09766833
000070 df 24 61 3e 5f 6f 70 3e d1 be de 3d 5b 6e b7 3d
       0.21986721 0.23479985 0.10876239 0.089565955
000080 36 3a a0 bd fb 42 28 bd c0 5b 8b bc e3 4e 29 3d
       -0.07823603 -0.041079503 -0.017011523 0.041334998
000090 6d 14 ef bd 86 ec 4c 3d 3d b8 22 be a5 c5 0e be
       -0.11673818 0.050030254 -0.15890594 -0.13942583
0000a0 0c 2c e0 3c fe e8 51 be cd 04 cc 3d 92 d9 8d 3c
       0.027364753 -0.20499036 0.09961853 0.01731566
0000b0 67 b3 05 bd 72 9b 57 3e 29 88 28 3d fb 7f aa be
       -0.032641795 0.21055391 0.041145477 -0.33300766
0000c0 0b 9b 13 3d 9a 2b 39 3c 03 e5 a1 bd eb b6 db 3e
       0.036036532 0.011301899 -0.07905009 0.42912993
0000d0 90 68 78 3d 30 29 a3 3d 74 78 d0 3b a1 04 74 3c
       0.060646594 0.0796684 0.0063620154 0.014893682
0000e0 24 ff 78 bd 7b 40 8d be 3b eb 36 3d 5c a0 d2 3d
       -0.060790196 -0.27588257 0.044657927 0.102844924
0000f0 ba 71 64 3d 3c fa 19 be 8a 14 e3 3d af a1 0e be
       0.05577252 -0.15036863 0.11087902 -0.13928865
000100 24 bd dd bc 60 46 44 bf 64 29 87 bd b0 d4 e0 3c
       -0.027067728 -0.76669884 -0.065996915 0.027445167
000110 7a ba 2e be 70 fc 48 3d 0a db d5 bd fd da 68 bb
       -0.17063323 0.04906887 -0.10442169 -0.0035530918
000120 cc 3f b9 3c 8d a7 7d 3d 99 b9 d0 bd 10 57 0c bf
       0.022613429 0.061927367 -0.1019165 -0.54820347
000130 62 ae 44 bd 33 28 00 3d 39 71 82 be 7e 59 a6 3d
       -0.048017867 0.031288337 -0.25477007 0.08122538
000140 98 66 87 3a bc fa f5 bd 57 7e 40 3c 73 1b 04 3c
       0.0010330258 -0.120107144 0.011748872 0.008063185
000150 78 e7 93 3d 33 26 cb 3d 7e aa 72 bd dc 66 b0 3c
       0.072218835 0.09919395 -0.059244625 0.021533422
000160 3f 01 e2 3d fa a3 6c 3d 2c f6 b9 3d 09 d4 9e be
       0.11035394 0.057773568 0.09080157 -0.31021145
000170 3b 7a 4d bd 90 ae 28 3d 3b 8b 03 be e6 46 0b be
       -0.050165396 0.0411821 -0.12846081 -0.13601264
000180 07 e9 f6 be 6b 9f 3c 3e ae 1b 8c 3d 2f 95 0d be
       -0.4822466 0.18420188 0.06841217 -0.1382644
000190 d8 b4 61 bd 82 13 e6 3c f7 90 cf 3d f3 79 52 3d
       -0.055104107 0.028085474 0.10135072 0.05138583
0001a0 cf 6f 34 3d 39 85 2f 3e 07 db 12 be c7 2b 74 be
       0.04405194 0.17140664 -0.14341365 -0.23844825
0001b0 e6 ff 58 bd 16 80 a3 3d 46 15 20 bc 6d 6f 8c 3d
       -0.05297842 0.07983415 -0.009770697 0.0685719
0001c0 57 bd 50 3d 1b 4c 2f 3e da 0e bd bd 8e 42 ab 3e
       0.05096182 0.17118876 -0.09231348 0.33449215
0001d0 88 2b 95 3d 7c fb d7 3c bb 63 29 3d 8f 55 d0 bd
       0.072836936 0.026365034 0.041354876 -0.10172569
0001e0 96 06 ba bc 34 17 86 3e 4a e9 a1 bd c4 55 d0 3d
       -0.022708219 0.26189578 -0.079058245 0.101726085
0001f0 f5 ab d4 bd 6d ad 57 be 4a f7 25 3e 7c 79 7c 3c
       -0.10384361 -0.2106225 0.16207615 0.0154098235
000200 a3 97 f7 bc 16 27 92 3d 99 4e c9 bd fa 6a 04 3d
       -0.030223673 0.07136361 -0.098294444 0.032328583
000210 02 fd 91 3d 59 c0 ca 3d ca 03 be 3d cd 0c 2a 3e
       0.071283355 0.09899969 0.092780665 0.16606446
000220 bd a2 82 3c d8 47 81 bd 20 05 64 bd ce f7 0d bd
       0.01594674 -0.06312531 -0.05566895 -0.034660153
000230 ca ba 9c 3d de 13 b9 bd a7 e8 cc 3d 34 84 24 3b
       0.07652815 -0.090369925 0.100053124 0.0025103213
000240 71 45 6f bd 38 8f 67 be e3 81 63 bd 4c 1d 9c be
       -0.058415834 -0.22613227 -0.05554379 -0.30491102
000250 b9 32 00 3e f7 22 90 bd f6 f9 2e be 0a dd 94 bd
       0.12519349 -0.07037919 -0.1708754 -0.07268722
000260 5e 86 96 ba 25 17 cf bd 41 12 a2 3c ac 94 ca 3d
       -0.0011484136 -0.10111836 0.019784095 0.09891638
000270 4a 3a 79 3e 5d 06 04 bc bb 59 ce bd 11 2d e2 3d
       0.24338642 -0.008058158 -0.100757085 0.11043752
000280 0d ef 35 3c 0d 63 d2 bd ba 9c b0 bd 3c 52 18 bd
       0.011104357 -0.10272799 -0.08623643 -0.0371878
000290 48 09 c2 ba 92 ae 9c bd fd 65 95 ba 56 84 af bd
       -0.0014803791 -0.07650484 -0.0011398193 -0.08570163
0002a0 4a 17 b1 3c af 8b a7 bc 33 76 ba 3d 76 d0 b4 be
       0.02161755 -0.020452349 0.09104576 -0.35315293
0002b0 45 c7 96 bd d0 f5 a3 bc b3 71 50 bd 12 8a 9e be
       -0.073622264 -0.020014673 -0.050889682 -0.30964714
0002c0 62 e3 82 3a e9 9a ac 3d a1 df 71 3e e3 e6 93 be
       0.0009985978 0.08427984 0.23620464 -0.2888709
0002d0 e4 0f 2f bd 25 8e 6f 3e fb 66 b5 3d ab de 7b 3d
       -0.042739764 0.23394068 0.088575326 0.06149165
0002e0 15 fd 8e 3d 71 aa c4 3d 34 44 58 3e bb 0f e7 bd
       0.06981865 0.096028216 0.21119767 -0.11282297
0002f0 ac 2b 27 be 27 c5 db bd b5 3f d5 bd 8d 7f c5 be
       -0.16325253 -0.10730963 -0.10412542 -0.38573876
000300 0b 64 09 bc e3 d6 5f bd cc b1 04 3d 4d 0d 83 be
       -0.0083856685 -0.05464829 0.032396123 -0.25596085
000310 87 85 fd bd d0 6c 93 3e 12 ca 97 3d 60 da 7f 3d
       -0.12378984 0.28793955 0.07411589 0.062464118
000320 e3 18 21 bd 61 a2 4c 3d 4d ef 11 3d 5d 29 8f 3d
       -0.039330374 0.049959544 0.035628606 0.06990311
000330 29 31 2f bb c2 15 3c 3d 72 38 5f be f2 ea 1e be
       -0.0026732183 0.045919187 -0.21798876 -0.15519312
000340 77 66 96 3d dd ae ba bd 36 db ce 3c 21 12 10 bd
       0.07343762 -0.09115384 0.025251012 -0.03517354
000350 23 92 f3 bd d9 2d 2e be ea ea 6c bd c1 e3 00 3e
       -0.11893108 -0.17009677 -0.05784122 0.12586881
000360 a9 48 52 bd c0 83 bc bc 70 cd da bc 68 c5 9b 3d
       -0.051338825 -0.023012042 -0.026709288 0.07606012
000370 15 a2 a1 bb 71 2c 5c 3d b1 44 8f 3d f5 e8 00 3e
       -0.0049326518 0.05375332 0.06995524 0.12588866
000380 aa d6 80 bd df 66 d6 3e d5 13 3d bd 7b 27 16 3e
       -0.06290944 0.4187536 -0.04616149 0.14663498
000390 a4 e6 f3 3d 52 66 38 be a5 8f 25 bd d4 01 84 be
       0.119092256 -0.18007782 -0.040420193 -0.25782645
0003a0 cc 67 21 3e 15 9a 07 3d ca c5 d7 3d 7f bb ec 3c
       0.15762252 0.03310593 0.10535772 0.028897999
0003b0 30 3a ec 3d a5 32 d2 3d 00 fd d8 bd e2 ea 44 3d
       0.11534536 0.10263566 -0.10595131 0.048075564
0003c0 4a ec 89 bd 95 2c 0d be 14 98 fb 3a 9e 1c d5 3c
       -0.06734522 -0.13786538 0.0019195103 0.026014622
0003d0 89 8c 05 3c be bd 4d bd 6c 04 d0 bd 9d 90 15 3d
       0.008151182 -0.05022978 -0.101570934 0.036514867
0003e0 8e e2 ca 3d de 34 8c bc 10 f2 7b 3d 96 f5 cb be
       0.09906493 -0.017115053 0.061510146 -0.39835805
0003f0 8f 7a 62 bd c9 7f 1a bc 32 64 d2 3d bf 5f dc 3d
       -0.055292662 -0.00942988 0.10273017 0.107604496

fc2.bias f4 [7]
000000 bb 46 89 3e cc 4f cd 3e db 74 15 be 83 3d e4 3d
       0.26811776 0.40099943 -0.14595358 0.11144545
000010 fc 49 92 be f7 ff 8f 3d b3 5b 88 be
       -0.2857207 0.07031243 -0.2663246

localization.0.weight f4 [8, 1, 7, 7]
000000 47 b9 20 bb ac 03 66 bd e5 07 c9 bd ab 91 f8 3d
       -0.0024524496 -0.056155846 -0.09815959 0.12137159
000010 af 0d 9b bd 55 2c 8a bd 75 d6 cf 3d 36 ef 83 bd
       -0.07570969 -0.06746737 0.10148326 -0.0644211
000020 24 67 0a 3e 95 bc 32 ba 51 71 8d 3d 5a b4 23 3e
       0.13515908 -0.0006818262 0.06906379 0.15986767
000030 be 61 b7 3c ed b9 ff bc 62 12 2e 3e ca f4 06 3e
       0.022385474 -0.031216586 0.169992 0.13179317
000040 01 ed 70 bb 7c 08 1e 3e 8e 8c 0b 3b 6e cf f2 3d
       -0.003676236 0.15432924 0.0021293494 0.1185597
000050 06 bc b1 bc c0 7a 7f bd 6a ea c7 bd cc 70 8e bd
       -0.021696102 -0.062372923 -0.09761508 -0.06955108
000060 9d 41 6a bd 23 5c b3 3d 16 50 e0 bc b8 40 c2 3c
       -0.05719148 0.08757808 -0.027381938 0.0237125
000070 63 05 b4 bd 87 e3 6d 3c 8d 88 df bd 36 81 7c bd
       -0.0879009 0.014519579 -0.10914717 -0.061646663
000080 39 b6 97 3d 93 fd cc 3d f4 f0 03 bd f3 9b 97 bd
       0.07407803 0.10009303 -0.032212213 -0.07402792
000090 d5 bf aa 3d 59 56 0b 3e 7b 4e ae bd ca 4f cf 3d
       0.0833737 0.13607158 -0.08511063 0.101226404
0000a0 c6 d7 21 3e c4 73 97 3c e0 76 95 bd 3e 15 c8 bd
       0.15804967 0.018487819 -0.07298064 -0.097696766
0000b0 aa 03 8d bd dc b0 85 bd 5c 1f bf 3d e0 a3 08 3e
       -0.068854645 -0.06527874 0.09332153 0.13343763
0000c0 55 26 3f 3d d7 18 b5 3d f1 66 0a 3e de 0d 70 3d
       0.046667416 0.088426284 0.13515832 0.058606975
0000d0 85 89 0b be b5 9d 86 bd fe 0c 9f bc a6 23 9a bd
       -0.13626678 -0.06573049 -0.019415375 -0.07526331
0000e0 4f ba 0b be e7 d8 cd 3d 41 10 95 bd f8 4e b2 bd
       -0.1364529 0.100511365 -0.07278491 -0.08706468
0000f0 78 08 fb 3d ec 8a 8f 3d 95 f4 83 3c cb db 21 bc
       0.12257475 0.07008919 0.016107837 -0.009879063
000100 1d e7 e3 bd 2a f2 a1 3c 0e 2b 09 bd ea 71 ce bd
       -0.11128066 0.019768793 -0.033488326 -0.10080321
000110 ee 8d fa 3d ba 46 aa 3c 06 83 ab bd 2a a1 ac 3d
       0.12234102 0.020785678 -0.083746 0.08429177
000120 59 1a fe 3d 69 92 99 3c 4d 5f ef bd 2b fa d0 bd
       0.12407369 0.018746572 -0.11688099 -0.10203966
000130 91 e6 9e bd 0b bd 40 bd 99 b4 ac 3b fb ab 5d 3d
       -0.07758821 -0.047055285 0.0052705524 0.05411909
000140 88 06 46 3d 7e 70 b2 3d 8e 84 9c 3d 4f e5 dc 3d
       0.048346072 0.087128624 0.0764247 0.10785925
000150 a6 5a 0e bd 9e 9a 0a bd 02 93 dd bd d5 a1 14 3e
       -0.034754418 -0.03383886 -0.10819055 0.14514859
000160 c3 22 16 3d cf 51 30 bd 2d 0b a6 3c ab 57 ae 3d
       0.036654245 -0.04304677 0.020269 0.08512815
000170 47 c6 75 bd 0c a8 7a bd 27 6f e1 bd 42 1c 99 bc
       -0.060003545 -0.06119542 -0.11007529 -0.018690232
000180 ec 7c 7d 3d 9e c6 78 bd 1f ad 1a 3d 2c 27 f7 3d
       0.061886713 -0.06073629 0.037762757 0.12068018
000190 43 3c b2 3d ac ac 39 bc 26 56 8e bd 9a 8b 03 be
       0.087029 -0.011332672 -0.06950025 -0.12846223
0001a0 74 17 0b 3c 77 c2 b5 bd 15 a7 18 3d 64 94 9b bb
       0.008489478 -0.08874982 0.037268717 -0.004747914
0001b0 c8 55 0a be c7 d3 09 3d db 0b ba bc 48 84 9a bc
       -0.13509285 0.033649232 -0.022710731 -0.018861905
0001c0 19 27 a7 3d de a3 9d bc 83 28 b1 3d 0f e2 7b 3d
       0.08161754 -0.019243177 0.08650305 0.061494883
0001d0 98 2b 0d be f8 e1 81 3d 10 bb cf 3c 7b dc 9a bd
       -0.13786161 0.06341928 0.025357753 -0.075615846
0001e0 11 db 9d 3b 0b a1 07 3d 45 ee 88 3d ff 52 5a 3c
       0.0048173745 0.033112567 0.06686071 0.013325452
0001f0 ca a3 e7 3d f3 20 ee 3d b5 1c 86 bd ef 38 40 3d
       0.11310537 0.11627378 -0.06548444 0.046929296
000200 d4 78 f3 bb a0 ff f3 3d b9 3b 08 be 6c 64 94 bc
       -0.0074301753 0.11913991 -0.13304032 -0.018114291
000210 71 b9 cb 3d 7a f8 73 bc af 2b 89 3c 07 ce 92 bd
       0.099474795 -0.014890784 0.016744463 -0.07168203
000220 35 de 42 3d 66 9e db 3d fc 24 d9 3d 82 11 c9 bd
       0.047575194 0.107235715 0.10602757 -0.098177925
000230 54 9f f6 bd ed 25 0b bd b8 0b 7f bc b8 bb e6 3d
       -0.12042108 -0.033971716 -0.015566759 0.11266273
000240 2a 15 98 bd e2 00 a6 bd e6 90 bc bd fd aa eb 3d
       -0.07425912 -0.08105637 -0.09207325 0.11507223
000250 34 11 e6 3c ec 70 8d 3d 0a c4 e8 3d 7a d7 7c bd
       0.028084375 0.06906304 0.113655165 -0.061728932
000260 2e ff 09 bd e0 a0 1b be 37 0c 73 bd b7 af bb 3c
       -0.033690624 -0.15198088 -0.05933782 0.022910936
000270 f1 84 24 be c2 74 0c be 82 58 d4 bd 51 3f fa 3d
       -0.16066338 -0.13716415 -0.10368444 0.12219108
000280 54 49 a0 bd b7 a9 f2 bd 61 73 f3 3d 2b 7a 80 bd
       -0.07826486 -0.11848777 0.11887241 -0.06273302
000290 04 98 5b bd 38 0a d3 3d 99 89 b6 3d 91 80 bc 3c
       -0.05361177 0.103046834 0.089129634 0.023010524
0002a0 59 c4 b9 3d fa 7e fc bc 95 be 96 3d 23 f0 9b bd
       0.090706535 -0.030822266 0.073605694 -0.07614162
0002b0 9c eb 00 be aa 2c a0 ba 14 fe d5 3d 91 7c 01 3d
       -0.12589878 -0.0012220342 0.10448852 0.031612936
0002c0 ea c8 9d 3d 81 6e 3e 3b 99 5f 11 3d 95 b5 dd bd
       0.07704337 0.0029057565 0.03549156 -0.1082565
0002d0 27 b5 b8 bd 50 34 17 3d 4d 86 59 bc 1b 25 09 bc
       -0.09018927 0.036915123 -0.013276649 -0.008370663
0002e0 33 fe ff 3d 5c b4 93 3c 8b 5a a0 3d 72 6e ca 3d
       0.124996565 0.018030338 0.0782977 0.09884347
0002f0 9f a5 59 3d 57 c1 0e bd 11 70 ca 3d ad d2 9e 3d
       0.053136464 -0.034852352 0.09884656 0.07755027
000300 24 e2 dc 3c 4e 2e fc bc f3 23 69 3b f0 26 3b 3d
       0.026963301 -0.030783799 0.0035574406 0.04569143
000310 e3 c7 af bd b1 04 e8 3d 76 23 d0 bb a8 fe c6 bd
       -0.08583047 0.1132902 -0.0063518835 -0.097165406
000320 37 ef 64 bd 5e 96 ef 3d b3 87 f0 3d b7 15 0e 3e
       -0.055892196 0.11698602 0.117446326 0.13875471
000330 63 ce c7 3d e3 84 f0 3d 42 97 16 3e 4c f6 1b bd
       0.09756162 0.11744096 0.14706138 -0.038076684
000340 b2 9e b9 3d e0 0e 5f 3d aa bf a3 3c 4a 46 c0 bc
       0.09063472 0.054457545 0.019988853 -0.023471016
000350 60 a5 1a bb e2 6e 93 bd a9 e7 cb 3d 01 21 0d bd
       -0.0023597106 -0.071988836 0.09956295 -0.034455303
000360 ca 04 d2 bd cb 41 43 3d b1 46 85 3d ee cc 0b 3e
       -0.1025482 0.047670167 0.06507624 0.13652393
000370 3c 13 90 bd d5 5d 8a 3d 79 b2 b2 ba c2 9a b4 bd
       -0.07034919 0.06756178 -0.0013633511 -0.0881858
000380 fa 4e 95 3d 70 68 a9 bd 40 23 af bc 88 69 fc bd
       0.07290454 -0.08271873 -0.021379113 -0.12324816
000390 e6 da d1 bd 77 2d 16 3e db 8b 96 bc 8f fa cf ba
       -0.1024683 0.14665781 -0.018377235 -0.0015867519
0003a0 ca 0c 90 bc 24 9e bb bc 60 23 60 3d cf cc 05 3e
       -0.017584223 -0.022902556 0.054721236 0.1306641
0003b0 8c 27 5a bd 7e b4 c9 3d e5 df bd 3d a3 3f c0 3d
       -0.05326037 0.09848879 0.0927122 0.09387138
0003c0 e6 1e eb 3b eb 79 2b 3d 30 23 97 3d 27 fb bd 3c
       0.0071753142 0.041864317 0.07379758 0.023191048
0003d0 71 fc de bd d3 54 87 3d 87 2b d3 3d 1f 37 ef 3b
       -0.10887993 0.06607976 0.103110366 0.007300272
0003e0 77 64 1e bc c9 64 1c 3e df 4d ad 3c 95 73 fc bc
       -0.009667507 0.15272821 0.021155296 -0.030816833
0003f0 4e 41 30 3e 76 aa 7c bd cd 12 72 bd bc ef 3a bb
       0.17212412 -0.061686 -0.05909996 -0.002852424

localization.0.bias f4 [8]
000000 2d e0 bb bd 80 8b da 3b 0f 69 c7 bd 69 b8 87 bc
       -0.091736175 0.0066694617 -0.09736835 -0.016567426
000010 d6 ff d8 3b 1b a6 42 bd 57 db a6 bd fc 31 0e be
       0.006622295 -0.04752169 -0.081473045 -0.13886255
