deep_emotion-ckplus-500-128-0.005.pt (torch, 274522 bytes, 24 tensors)

conv1.weight f4 [10, 1, 3, 3]
-0.12156354 0.06516029 -0.25570646 0.012502435 0.36913136 -0.05207732 -0.30630916 0.13136086
0.10380875 -0.017591612 -0.2776657 0.079571605 -0.007404645 0.22247198 -0.055001017 -0.06193097
0.40182492 0.32390076 0.030784203 -0.07723078 0.014328267 -0.18699655 0.06421548 0.051776994
0.1341841 0.20948464 -0.22207268 -0.46741596 -0.37322354 0.10991941 -0.36889267 -0.18303826
0.0790558 0.18311135 0.36303434 0.19191334 0.5117983 0.25998312 -0.101319216 0.3917671
0.30184224 -0.2612544 -0.11255053 0.34322914 0.25317806 -0.027326899 0.2024064 0.1984047
-0.45428067 0.21593127 0.42490467 -0.02700832 -0.33375773 -0.15210067 0.12335525 0.03567912
-0.030140901 -0.42607573 -0.42892194 -0.026039548 0.055377338 -0.20810755 -0.14900744 0.02363323
0.46409854 0.32297304 0.06671753 -0.23151284 0.247836 -0.3832013 -0.41609192 -0.12762052
0.16200845 -0.3068996 0.023658767 0.33524945 -0.07234351 -0.28881702 0.4562186 0.56771815
-0.119062744 -0.29001018 -0.17708394 -0.01885495 -0.48508024 -0.3270515 -0.0806269 0.057550415
-0.2397719 -0.23259775
00000000: 4ef6 f8bd c272 853d f5eb 82be 03d7 4c3c
00000010: c9fe bc3e 074f 55bd 8ed4 9cbe 7683 063e
00000020: af99 d43d 491c 90bc 332a 8ebe 70f6 a23d
00000030: aaa2 f2bb b2cf 633e bf48 61bd 54ab 7dbd
00000040: ffbb cd3e 52d6 a53e 272f fc3c 2c2b 9ebd
00000050: 1cc1 6a3c 067c 3fbe 6883 833d 1d14 543d
00000060: 8f67 093e 2483 563e 0567 63be 2551 efbe
00000070: 2817 bfbe 6d1d e13d 80df bcbe 626e 3bbe
00000080: 02e8 a13d 8b81 3b3e a3df b93e ee84 443e
00000090: 3705 033f 821c 853e 7380 cfbd b395 c83e
000000a0: 118b 9a3e 23c3 85be e480 e6bd bbbb af3e
000000b0: 8ea0 813e a9dc dfbc a043 4f3e 9a2a 4b3e
000000c0: 7a97 e8be 161d 5d3e 1b8d d93e 8d40 ddbc
000000d0: 4be2 aabe 47c0 1bbe ada1 fc3d 4524 123d
000000e0: 0dea f6bc 9926 dabe a89b dbbe e450 d5bc
000000f0: 59d3 623d 251a 55be 6895 18be 7a9a c13c
00000100: 539e ed3e b95c a53e 33a3 883d b411 6dbe
00000110: b8c8 7d3e f632 c4be 000a d5be f4ae 02be
00000120: 8be5 253e f221 9dbe 08d0 c13c d1a5 ab3e
00000130: d628 94bd d3df 93be 7c95 e93e fa55 113f
00000140: 2bd7 f3bd 377c 94be 7e55 35be b275 9abc
00000150: 705c f8be 4b73 a7be b71f a5bd fcb9 6b3d
00000160: c486 75be 1b2e 6ebe

conv1.bias f4 [10]
0.19088344 -0.16213061 -0.16424987 -0.32024923 -0.13294843 0.1521897 -0.31252727 0.15753393
-0.04820749 -0.15798567
00000000: f376 433e 9105 26be 1e31 28be b5f7 a3be
00000010: a223 08be 9ed7 1b3e 9303 a0be 9350 213e
00000020: 3875 45bd ffc6 21be

conv2.weight f4 [10, 10, 3, 3]
0.030881733 -0.10915623 -0.26922762 0.1816408 0.36031935 0.1672288 -0.14496678 -0.12690292
0.13683309 -0.2639835 -0.13479474 -0.07995091 -0.120980486 0.04165424 0.064479426 -0.12319755
-0.10790405 -0.42946634 0.06108886 -0.077446274 0.12612583 -0.12394205 0.056270283 0.07272771
-0.04676084 0.07755064 0.11247327 -0.025296094 0.028011285 0.012251128 0.041362386 -0.009839201
-0.23782419 0.08721656 -0.16065207 -0.18393484 -0.059041392 0.04366118 -0.04053253 -0.11494571
-0.09474439 -0.01182569 -0.29726708 -0.02847927 0.037064858 -0.09480452 -0.3137638 0.03598867
-0.0052415393 -0.28616998 -0.39490262 0.14766613 0.16075684 0.2900188 -0.2439923 -0.18766797
-0.017296372 -0.2750076 -0.023298724 0.07139603 0.058402415 0.14705215 0.06375445 0.14540257
0.129907 0.053032674 0.16895811 -0.07974796 -0.38811284 0.2786137 0.29257092 0.3142912
-0.36209333 -0.25095716 0.014953496 -0.29883686 -0.0672789 0.15603998 -0.08414424 -0.052645072
0.07763108 -0.12350096 -0.14829648 -0.02913637 -0.05234517 -0.014646614 0.06783258 0.06432028
0.13830829 0.045791704 -0.14532633 0.00171173 0.21050139 -0.318711 -0.13131073 0.056182876
-0.111269265 -0.17522305 0.12907666 -0.2415427 -0.08433143 0.07740848 -0.12787147 -0.15934141
0.13760126 0.06823452 -0.026040278 0.023651047 -0.17100017 -0.03328787 0.01609767 0.08776477
0.017047 0.010847026 0.07900785 -0.017689409 -0.018911242 -0.23356113 -0.31480297 -0.16857953
-0.22367875 0.09464905 0.017183438 0.03571396 0.24943392 0.2533139 -0.10023899 0.022584634
0.11047438 0.008952352 -0.06582639 -0.055429075 0.02847332 -0.08608745 -0.08333149 0.044509523
-0.024871456 0.025552643 -0.009045074 0.31048355 0.14158198 -0.25232124 -0.15541948 0.138232
-0.14261895 -0.073484086 -0.06768702 0.28873777 0.33662397 0.20740376 0.2673269 0.15578745
0.288204 0.55073315 0.3388042 0.31460515 0.21957783 0.33255908 0.36528972 -0.3303189
-0.18758641 -0.14014857 -0.10061118 -0.2097544 -0.17024285 0.16802652 -0.23271094 -0.26314193
0.27865234 0.35265958 -0.121901296 -0.230501 -0.15885511 -0.10555378 0.24302743 0.17042182
0.1110339 0.11348849 0.3340812 0.20995787 0.21360852 0.1676489 0.08887125 0.05804865
0.119189195 0.18744837 0.015614497 -0.021352405 0.008009182 -0.06524654 0.08490197 -0.0028539132
0.089673325 0.07059826 0.16856356 -0.03739549 -0.02550477 -0.058367886 -0.08275657 -0.0042924946
-0.03492705 -0.18623587 -0.12560849 0.03414277 -0.035880215 -0.016884668 0.05672163 0.48658878
0.22492012 0.32449365 -0.0064136684 -0.08626324 -0.0042857574 -0.11760542 0.19657017 -0.040964894
-0.25635377 -0.16665396 -0.050988782 -0.047585037 -0.13569777 -0.0064755823 0.100149274 0.036150694
0.06217635 0.25034305 0.026393533 -0.2748904 -0.12222183 -0.21749038 -0.17707829 -0.071910344
-0.11463357 0.0022707689 -0.18203484 -0.18700115 0.0586606 -0.25458804 -0.06477229 0.19836779
-0.21636897 -0.07146413 0.07477397 -0.25403523 -0.3588687 -0.49325725 -0.00033046244 -0.23022568
-0.45228472 -0.05978357 -0.15025926 -0.116171874 -0.0055977907 0.086129546 0.090869315 0.05571524
00000000: b0fb fc3c 4d8d dfbd 34d8 89be 0c00 3a3e
00000010: c77b b83e 073e 2b3e 2c72 14be d7f2 01be
00000020: f91d 0c3e d828 87be a207 0abe 4dbd a3bd
00000030: 9ec4 f7bd a39d 2a3d ca0d 843d ff4e fcbd
00000040: ccfc dcbd 03e3 dbbe 5038 7a3d 279c 9ebd
00000050: 2127 013e 54d5 fdbd ab7b 663d 44f2 943d
00000060: 4b88 3fbd dfd2 9e3d 6358 e63d c139 cfbc
00000070: ec77 e53c f5b8 483c 9b6b 293d 9a34 21bc
00000080: 2f88 73be 999e b23d fa81 24be 6a59 3cbe
00000090: 63d5 71bd 11d6 323d 7005 26bd a868 ebbd
000000a0: 5909 c2bd 8ac0 41bc 6433 98be 5c4d e9bc
000000b0: 52d1 173d df28 c2bd a6a5 a0be db68 133d
000000c0: 38c1 abbb df84 92be ad30 cabe ca35 173e
000000d0: 719d 243e 587d 943e 1ed9 79be 082c 40be
000000e0: 1fb1 8dbc cccd 8cbe f7dc bebc 1538 923d
000000f0: 5f37 6f3d d794 163e b191 823d 69e4 143e
00000100: 5706 053e ca38 593d 5b03 2d3e e652 a3bd
00000110: bab6 c6be 74a6 8e3e dbcb 953e c7ea a03e
00000120: 4c64 b9be 757d 80be 82ff 743c 2501 99be
00000130: 85c9 89bd f2c8 1f3e d153 acbd 5ca2 57bd
00000140: 0bfd 9e3d 12ee fcbd 08db 17be 66af eebc
00000150: e467 56bd 5af8 6fbc cfeb 8a3d 5aba 833d
00000160: b0a0 0d3e 1590 3b3d 6dd0 14be 215c e03a
00000170: ad8d 573e 172e a3be 5276 06be 0420 663d
00000180: 24e1 e3bd ac6d 33be ac2c 043e f856 77be
00000190: f5b5 acbd 5688 9e3d bdf0 02be 652a 23be
000001a0: 58e7 0c3e 8abe 8b3d 6c52 d5bc d7bf c13c
000001b0: ab1a 2fbe dd58 08bd 43df 833c 04be b33d
000001c0: 26a6 8b3c b9b7 313c dece a13d 61e9 90bc
000001d0: c0eb 9abc a62a 6fbe db2d a1be 1da0 2cbe
000001e0: 0b0c 65be 5cd7 c13d 48c4 8c3c cd48 123d
000001f0: 9b6b 7f3e 5cb2 813e 194a cdbd 6903 b93c
00000200: 6440 e23d e3ac 123c fdcf 86bd 9909 63bd
00000210: e140 e93c 9e4e b0bd b3a9 aabd 9e4f 363d
00000220: 39bf cbbc c753 d13c ca31 14bc b3f7 9e3e
00000230: defa 103e 4030 81be 4926 1fbe b08c 0d3e
00000240: b40a 12be d37e 96bd 7e9f 8abd 70d5 933e
00000250: fa59 ac3e a761 543e 12df 883e bf86 1f3e
00000260: 7a8f 933e d9fc 0c3f be77 ad3e ed13 a13e
00000270: 03d9 603e 2f45 aa3e 4107 bb3e 8f1f a9be
00000280: a716 40be 1b83 0fbe 3c0d cebd dcc9 56be
00000290: 2454 2ebe 250f 2c3e c74b 6ebe 8aba 86be
000002a0: 85ab 8e3e cc8f b43e 63a7 f9bd 7408 6cbe
000002b0: eaaa 22be 952c d8bd 2fdc 783e 0f83 2e3e
000002c0: be65 e33d a76c e83d b10c ab3e 32ff 563e
000002d0: 31bc 5a3e 27ac 2b3e 2102 b63d 6cc4 6d3d
000002e0: 7719 f43d 77f2 3f3e f2d3 7f3c 3deb aebc
000002f0: f238 033c fa9f 85bd 16e1 ad3d b808 3bbb
00000300: a6a6 b73d d295 903d ed9b 2c3e 032c 19bd
00000310: 61ef d0bc 2a13 6fbd 477c a9bd 0ea8 8cbb
00000320: ab0f 0fbd 9eb4 3ebe 839f 00be 4ad9 0b3d
00000330: 22f7 12bd b751 8abc f154 683d 2a22 f93e
00000340: 7651 663e 0824 a63e c029 d2bb c8aa b0bd
00000350: 8a6f 8cbb 1cdb f0bd b149 493e ceca 27bd
00000360: cd40 83be 56a7 2abe 9dd9 50bd 87e8 42bd
00000370: 5bf4 0abe 1f31 d4bb 101b cd3d c012 143d
00000380: a1ac 7e3d f72c 803e 4037 d83c 6fbe 8cbe
00000390: 704f fabd ccb5 5ebe 0354 35be bb45 93bd
000003a0: 01c5 eabd 2ed1 143b 5767 3abe 3b7d 3fbe
000003b0: 1946 703d 5d59 82be 56a7 84bd ed20 4b3e
000003c0: d48f 5dbe c95b 92bd 1823 993d e810 82be
000003d0: a3bd b7be 378c fcbe eb41 adb9 48c0 6bbe
000003e0: dd91 e7be 9edf 74bd 90dd 19be 85eb edbd
000003f0: ac6d b7bb b064 b03d b119 ba3d aa35 643d

conv2.bias f4 [10]
0.09434788 -0.10694729 0.09857556 -0.14925203 -0.22357672 -0.123965845 -0.0533992 -0.06379828
0.019426284 -0.14182267
00000000: 7639 c13d 2e07 dbbd fce1 c93d 86d5 18be
00000010: 4cf1 64be cee1 fdbd 1fb9 5abd aca8 82bd
00000020: df23 9f3c f639 11be

conv3.weight f4 [10, 10, 3, 3]
-0.035386074 -0.16360846 -0.14969638 0.14970754 0.26867712 0.087902404 -0.15814433 0.078669
0.06885598 -0.110086605 -0.06676163 0.1098547 0.108761914 0.031563517 -0.16112082 0.034108903
0.19568393 0.22270258 0.038280927 0.101392806 0.07443152 0.098122574 0.06793419 0.25597706
0.07995473 -0.21972997 -0.046987027 0.09119707 -0.014934236 -0.022531267 -0.022538226 -0.16024292
-0.035005957 0.06680452 0.040007174 -0.012139313 0.16723306 0.09935086 -0.007905952 0.07065804
0.09210229 0.09818111 -0.06200277 0.1005418 0.24874103 0.020775655 0.102593556 0.11970022
-0.0013296152 -0.007816022 0.004337176 -0.003640159 0.037253316 0.04248659 0.0006115138 -0.015317499
-0.0074964385 0.033485293 0.008083324 0.035250086 -0.04045895 -0.08191712 0.005816627 0.15185064
0.0763325 -0.247778 -0.040199548 0.3850108 0.040030636 -0.26479805 0.3619418 0.39279166
0.06152947 0.26392525 0.0037821368 -0.06870801 0.41420075 0.12484005 -0.044977468 0.21580255
0.3093878 0.00022323428 -0.0128451595 0.06991054 -0.009075709 -0.038153395 0.015104383 0.06152528
-0.07459203 -0.20104474 -0.13823396 -0.085858814 0.06404936 -0.040581893 -0.22422336 -0.065491706
0.13799568 0.3840908 0.47797704 -0.35036692 -0.22978647 -0.23927367 0.066919744 0.16333419
0.36849728 -0.010671856 -0.10547265 -0.25288832 0.17770675 0.09873765 -0.043257006 0.16020997
0.025620114 -0.2220877 -0.093582205 -0.13154125 -0.118302785 0.08196364 -0.07576293 -0.20505369
0.090677984 -0.106088586 0.08312014 -0.27195662 -0.3257398 -0.2307694 0.18155615 0.072019584
-0.092642814 0.0632567 0.119152136 -0.04794519 0.100284606 0.13091168 0.0903845 0.12099876
0.03671013 -0.01518048 -0.042789843 0.011869874 -0.012553473 0.0730317 0.030549644 -0.014576235
-0.018220574 0.042983606 -0.06703298 -0.10187566 -0.01838884 -0.03128484 -0.08334502 -0.028660296
-0.12972441 -0.09227182 -0.18885398 -0.15387003 0.15224195 -0.07050158 -0.29795355 0.06425018
0.2791342 0.27638996 -0.051660463 -0.19006254 -0.4385057 0.20196915 0.12930532 -0.278727
0.20688447 0.26138267 0.21649553 -0.008296088 0.100810684 0.06979155 -0.23864044 -0.20676145
-0.05594896 0.015957436 -0.109419405 0.000103777544 0.30196455 0.28536668 0.06335417 -0.08109889
-0.25541875 -0.043817714 0.06147362 -0.12572622 -0.15628265 0.14558978 0.40099457 0.42099464
0.03176642 0.111439735 0.24380012 -0.1703867 -0.26129723 -0.357229 -0.056391943 -0.114992425
-0.21648163 0.26074103 0.30992508 -0.026013056 0.0004180412 -0.063861795 -0.25517672 0.058987476
0.046297733 -0.0023308238 0.101541184 0.12354758 0.09410725 0.069072485 0.047588706 -0.1566892
-0.06785821 -0.11612377 -0.12828717 -0.010991099 -0.11744235 -0.2958996 0.2629713 0.18964942
-0.06386296 -0.07372383 -0.008503524 -0.006644645 -0.07166033 -0.12507938 0.08915814 0.07313837
0.116172865 0.09797307 -0.07254755 0.07851332 0.03169366 0.055778082 -0.0015114375 0.027795158
-0.11160863 -0.04724891 -0.057748247 0.0010357335 0.16346252 0.22444473 -0.040863045 -0.02384253
0.038806163 -0.060416423 -0.20890662 -0.24973693 0.059774604 -0.13893163 -0.23145415 -0.07617026
00000000: fdf0 10bd fa88 27be 024a 19be ef4c 193e
00000010: 0c90 893e 2d06 b43d 96f0 21be 361d a13d
00000020: 5d04 8d3d 1675 e1bd 52ba 88bd 80fb e03d
00000030: 91be de3d bf48 013d dbfc 24be c7b5 0b3d
00000040: 5e61 483e 250c 643e 76cc 1c3d 08a7 cf3d
00000050: 8e6f 983d 7df4 c83d 1521 8b3d 6d0f 833e
00000060: 4ebf a33d e500 61be 7875 40bd 88c5 ba3d
00000070: baae 74bc 7e93 b8bc 16a2 b8bc b816 24be
00000080: 6862 0fbd cfd0 883d 90de 233d f8e3 46bc
00000090: 253f 2b3e 7778 cb3d f787 01bc 2ab5 903d
000000a0: 20a0 bc3d 2e13 c93d 9ef6 7dbd dce8 cd3d
000000b0: f8b5 7e3e b531 aa3c 921c d23d 6425 f53d
000000c0: 7c46 aeba c60e 00bc df1e 8e3b bc8f 6ebb
000000d0: ef96 183d 6b06 2e3d ff4d 203a 3ff6 7abc
000000e0: afa4 f5bb e027 093d eb6f 043c 6562 103d
000000f0: 49b8 25bd 2ac4 a7bd 6799 be3b bc7e 1b3e
00000100: 3754 9c3d 84b9 7dbe 48a8 24bd 2320 c53e
00000110: 2af7 233d 9c93 87be 7050 b93e fd1b c93e
00000120: 5306 7c3d 3621 873e badd 773b c9b6 8cbd
00000130: 1f12 d43e 24ac ff3d 4b3a 38bd 58fb 5c3e
00000140: 1468 9e3e ff13 6a39 8174 52bc 422d 8f3d
00000150: 48b2 14bc bc46 1cbd 6078 773c ef01 7c3d
00000160: b5c3 98bd acde 4dbe 348d 0dbe bfd6 afbd
00000170: 502c 833d 3339 26bd cf9a 65be 8420 86bd
00000180: bd4e 0d3e 8da7 c43e 68b9 f43e 4b63 b3be
00000190: 254d 6bbe 2804 75be 380d 893d 1441 273e
000001a0: adab bc3e 02d9 2ebc 0b02 d8bd 947a 81be
000001b0: c2f8 353e f736 ca3d 422e 31bd 150e 243e
000001c0: 46e1 d13c f56a 63be 07a8 bfbd c0b2 06be
000001d0: bb48 f2bd 8edc a73d 9829 9bbd 98f9 51be
000001e0: 61b5 b93d f944 d9bd e43a aa3d e63d 8bbe
000001f0: 5ec7 a6be d04e 6cbe dbe9 393e 017f 933d
00000200: 84bb bdbd bb8c 813d 0906 f43d 2d62 44bd
00000210: 0462 cd3d b60d 063e 821b b93d 33ce f73d
00000220: 5c5d 163d 8cb7 78bc 6744 2fbd dc79 423c
00000230: 15ad 4dbc a591 953d 3f43 fa3c 29d1 6ebc
00000240: 5043 95bc 940f 303d 9648 89bd 30a4 d0bd
00000250: 31a4 96bc 8824 00bd cbb0 aabd ffc8 eabc
00000260: 7ad6 04be 02f9 bcbd f062 41be 1b90 1dbe
00000270: 50e5 1b3e 2263 90bd 5e8d 98be 9995 833d
00000280: aeea 8e3e fc82 8d3e ec99 53bd c19f 42be
00000290: d283 e0be 00d1 4e3e 9d68 043e 4eb5 8ebe
000002a0: 86d9 533e f3d3 853e 01b1 5d3e 51ec 07bc
000002b0: d575 ce3d dfee 8e3d 295e 74be 46b9 53be
000002c0: bd2a 65bd 2bb9 823c 4817 e0bd 25a3 d938
000002d0: 199b 9a3e 951b 923e d5bf 813d 2d17 a6bd
000002e0: 3fc6 82be 347a 33bd c3cb 7b3d 60be 00be
000002f0: 8f08 20be 7d15 153e 294f cd3e 9c8c d73e
00000300: 811d 023d 843a e43d bda6 793e da79 2ebe
00000310: c0c8 85be b8e6 b6be 3dfb 66bd 2681 ebbd
00000320: 5cad 5dbe d97f 853e 80ae 9e3e 5519 d5bc
00000330: 8a2c db39 f9c9 82bd 86a6 82be da9c 713d
00000340: b1a2 3d3d bcc0 18bb d3f4 cf3d 8306 fd3d
00000350: 4dbb c03d e075 8d3d 60ec 423d 2273 20be
00000360: 3ff9 8abd 4dd2 edbd b65d 03be 0314 34bc
00000370: 9d85 f0bd 2780 97be 2da4 863e 7533 423e
00000380: 95ca 82bd 85fc 96bd 5d52 0bbc 52bb d9bb
00000390: a7c2 92bd cf14 00be 8b98 b63d 92c9 953d
000003a0: 0aec ed3d 1ba6 c83d cf93 94bd 97cb a03d
000003b0: 36d1 013d 8f77 643d 6d1b c6ba acb2 e33c
000003c0: 1193 e4bd 1388 41bd 6d89 6cbd 73c1 873a
000003d0: b862 273e d7d4 653e 0260 27bd 6951 c3bc
000003e0: 36f3 1e3d 3677 77bd 9eeb 55be 0abb 7fbe
000003f0: 37d6 743d 1844 0ebe 5102 6dbe 27ff 9bbd

conv3.bias f4 [10]
0.039706513 0.10192927 -0.036001686 -0.09203832 0.33365172 -0.14023878 -0.047773927 -0.07022594
0.18667871 0.044783533
00000000: 4ca3 223d 4bc0 d03d 8176 13bd 967e bcbd
00000010: 66d4 aa3e c19a 0fbe 98ae 43bd 9ed2 8fbd
00000020: b428 3f3e f06e 373d

conv4.weight f4 [10, 10, 3, 3]
0.0161732 -0.14224535 0.12803832 0.073850535 -0.13199447 0.12149005 -0.20402355 -0.25269616
-0.20421109 -0.23322742 -0.23367876 -0.21468072 -0.11125114 -0.06950999 -0.25497127 -0.13662419
-0.15686145 -0.2614235 -0.010776579 0.08464312 -0.11128002 -0.41161963 -0.3725684 -0.4017716
-0.17550486 -0.1878849 0.028044742 0.04805693 -0.12521248 -0.08041658 -0.24681248 0.11176989
0.027495047 0.011645869 0.055582583 0.03805083 0.19574225 -0.08714101 -0.1523027 -0.1898443
-0.11493797 -0.30740187 -0.13865797 0.09404529 0.043376617 -0.14660747 -0.10810796 -0.0305571
-0.0543286 0.014601156 0.005385481 0.012745128 -0.05222159 -0.1618641 -0.083163075 0.052612018
-0.031451013 -0.07704997 0.0012061426 0.050554905 0.0783719 0.03369713 0.0706556 0.03089701
0.052203674 -0.01791073 0.1296777 -0.012040283 0.019572828 0.055115655 0.060342047 -0.010016593
-0.031035684 -0.22166078 -0.13684034 -0.08280276 0.07041922 -0.13373822 -0.28730243 -0.31362262
-0.48714808 -0.2402619 -0.19540499 0.15152755 -0.31341976 0.06821251 0.005180802 0.083702855
-0.061448023 0.053932264 0.12636338 0.2146251 0.08839487 -0.048119098 -0.008917497 0.15101627
-0.0016556515 -0.04513415 -0.1660088 0.06751774 -0.038772568 0.028088095 -0.062796645 0.09947565
-0.08875602 -0.043297507 0.08202141 0.051066507 0.08539752 0.11257674 0.06307462 0.7070402
0.3513551 0.13045204 0.08155319 0.090136856 0.20185028 -0.005224161 0.2041573 -0.004140673
0.09359234 0.18076289 0.08479716 -0.032448128 0.007232807 -0.04970673 0.16909179 0.30562535
0.20451692 0.21408851 0.055715915 -0.112885885 0.059278 -0.124041125 -0.23272577 -0.025262177
-0.035078585 0.0019025934 -0.09301321 -0.04261005 0.0022272626 0.12282998 0.0009820033 -0.026974427
0.05736208 -0.058901392 0.049193405 0.016552817 0.08486478 0.046387322 0.08336537 0.05131716
0.02498414 0.11303457 0.124673806 -0.07880755 -0.11177077 -0.031487357 0.041140206 0.0604976
-0.03679124 0.020558378 -0.021873742 0.22872771 0.14006202 -0.18521994 -0.06286733 -0.14704575
-0.047179986 0.14826958 0.0010651614 0.2694583 0.14875233 -0.23201002 0.15910298 0.30306885
0.31546855 -0.00083476806 0.24689257 0.30756807 -0.11632141 0.05979084 -0.12023086 -0.056941077
0.12918289 -0.023525486 -0.11049408 -0.022066155 0.10735943 -0.1749832 -0.16984688 -0.08142486
0.077447586 0.073368564 0.062261682 -0.26997912 0.024324372 -0.103697225 0.067868724 -0.035862297
0.013334567 -0.0067449417 0.10239308 0.07416339 0.6046041 0.46570697 -0.064017996 0.050429843
0.020416616 0.039158083 -0.10347663 0.091048226 0.121508166 -0.057237834 0.005222778 -0.0033329015
-0.31325522 -0.05042938 0.21362662 -0.01216789 0.334993 0.34467694 -0.19500488 -0.00856469
0.027447011 0.16412717 0.14180502 0.0647189 -0.014217436 0.06968285 0.074705705 -0.081846856
0.1152344 -0.058818053 0.071016245 -0.10587631 -0.008196775 0.0057733743 0.034916624 0.13302574
-0.03454392 0.029879505 0.088382356 0.010600999 -0.04371428 -0.02426038 -0.08283237 -0.0503601
-0.11552121 -0.0055865226 0.10811878 0.09979111 -0.15590294 0.08346428 0.0769832 -0.21144754
00000000: a97d 843c c4a8 11be 7a1c 033e f33e 973d
00000010: 8f29 07be c6cf f83d 8deb 50be 6461 81be
00000020: b61c 51be 2bd3 6ebe 7c49 6fbe 43d5 5bbe
00000030: a3d7 e3bd 415b 8ebd 988b 82be 36e7 0bbe
00000040: 4aa0 20be 4dd9 85be 4090 30bc 5f59 ad3d
00000050: c7e6 e3bd cfbf d2be 49c1 bebe 02b5 cdbe
00000060: 8cb7 33be e664 40be 16be e53c 58d7 443d
00000070: b337 00be 73b1 a4bd 69bc 7cbe 9de7 e43d
00000080: 4b3d e13c 51ce 3e3c 90aa 633d 30db 1b3d
00000090: a870 483e fc76 b2bd 3df5 1bbe 8b66 42be
000000a0: 9964 ebbd c763 9dbe 5bfc 0dbe d19a c03d
000000b0: aeab 313d 4520 16be b567 ddbd e252 fabc
000000c0: ab87 5ebd b039 6f3c b078 b03b f1d0 503c
000000d0: 4ee6 55bd b4bf 25be 6751 aabd b37f 573d
000000e0: c7d2 00bd 60cc 9dbd 6e17 9e3a a912 4f3d
000000f0: 7281 a03d 0006 0a3d e2b3 903d ba1b fd3c
00000100: 85d3 553d 86b9 92bc 3bca 043e 9b44 45bc
00000110: 3257 a03c f4c0 613d 3929 773d a31c 24bc
00000120: 8c3e febc 0bfb 62be e01f 0cbe 7e94 a9bd
00000130: f437 903d acf2 08be 4e19 93be 2593 a0be
00000140: 796b f9be 3707 76be 3f18 48be 0a2a 1b3e
00000150: 8e78 a0be 00b3 8b3d b8c3 a93b 676c ab3d
00000160: ecb0 7bbd 14e8 5c3d 6765 013e afc6 5b3e
00000170: 5f08 b53d 8818 45bd b11a 12bc 02a4 1a3e
00000180: 7202 d9ba 96de 38bd 36fe 29be be46 8a3d
00000190: fccf 1ebd 0119 e63c 879b 80bd e4b9 cb3d
000001a0: b7c5 b5bd ba58 31bd d7fa a73d 1d2b 513d
000001b0: e5e4 ae3d a28e e63d 442d 813d 9600 353f
000001c0: d1e4 b33e 3895 053e 5c05 a73d ac99 b83d
000001d0: d7b1 4e3e 702f abbb 9c0e 513e 7cae 87bb
000001e0: 57ad bf3d e819 393e 22aa ad3d 54e8 04bd
000001f0: 2f01 ed3b 4999 4bbd 6626 2d3e ed7a 9c3e
00000200: e26c 513e 053a 5b3e 5f36 643d b730 e7bd
00000210: 7dcd 723d 4609 febd aa4f 6ebe a0f2 cebc
00000220: 90ae 0fbd 7160 f93a b67d bebd e087 2ebd
00000230: 44f7 113b 498e fb3d 90b6 803a 79f9 dcbc
00000240: 80f4 6a3d 9642 71bd 067f 493d c699 873c
00000250: 96cd ad3d a200 3e3d 77bb aa3d f131 523d
00000260: 8aab cc3c ab7e e73d fb54 ff3d da65 a1bd
00000270: 13e8 e4bd e3f8 00bd a282 283d 55cc 773d
00000280: 69b2 16bd 0b6a a83c 9030 b3bc 9937 6a3e
00000290: 6b6c 0f3e 4caa 3dbe 96c0 80bd 2993 16be
000002a0: cd3f 41bd fbd3 173e e39c 8b3a 70f6 893e
000002b0: 8852 183e 0994 6dbe e4eb 223e d72b 9b3e
000002c0: 1885 a13e 56d4 5aba 68d1 7c3e 9079 9d3e
000002d0: eb39 eebd 3de7 743d 993b f6bd 0c3b 69bd
000002e0: 8548 043e 85b8 c0bc b84a e2bd 15c4 b4bc
000002f0: 43df db3d cc2e 33be 57ec 2dbe 14c2 a6bd
00000300: d79c 9e3d 4242 963d 1b06 7f3d b43a 8abe
00000310: e843 c73c 365f d4bd c2fe 8a3d 58e4 12bd
00000320: 3a79 5a3c ac04 ddbb 77b3 d13d fae2 973d
00000330: 56c7 1a3f 2571 ee3e de1b 83bd 868f 4e3d
00000340: bf40 a73c 3a64 203d 8eeb d3bd 7e77 ba3d
00000350: 46d9 f83d 3872 6abd d623 ab3b cf6c 5abb
00000360: fd62 a0be 0a8f 4ebd f0c0 5a3e d45b 47bc
00000370: 3484 ab3e 7f79 b03e 5caf 47be ea52 0cbc
00000380: 8ed8 e03c f410 283e 5635 113e 588b 843d
00000390: 40f0 68bc e2b5 8e3d 4eff 983d 539f a7bd
000003a0: 0300 ec3d 33eb 70bd f770 913d aed5 d8bd
000003b0: c44b 06bc 932e bd3b bc04 0f3d e637 083e
000003c0: ed7d 0dbd ddc5 f43c cf01 b53d d0af 2d3c
000003d0: bf0d 33bd b4bd c6bc 05a4 a9bd 6446 4ebd
000003e0: 6296 ecbd 260f b7bb 616d dd3d 485f cc3d
000003f0: 05a5 1fbe 52ef aa3d 5ea9 9d3d b485 58be

conv4.bias f4 [10]
-0.11385943 0.17633666 -0.07996672 0.11543994 0.15116894 -0.15309314 -0.050766774 0.024650615
-0.04118244 0.063185565
00000000: 222f e9bd 9991 343e 97c5 a3bd c66b ec3d
00000010: 08cc 1a3e 73c4 1cbe d2f0 4fbd 16f0 c93c
00000020: ebae 28bd 6f67 813d

norm.weight f4 [10]
1.0248345 1.0417386 0.96250564 0.92971236 1.011863 0.85305995 1.0498283 0.80613637
0.9475976 1.020717
00000000: c72d 833f b157 853f c566 763f a101 6e3f
00000010: ba84 813f 2362 5a3f c660 863f f45e 4e3f
00000020: c295 723f dba6 823f

norm.bias f4 [10]
-0.3681825 -0.5184725 -0.57292086 -0.41238743 -0.51462185 -0.45024845 -0.67843527 -0.4099348
-0.47378778 -0.36673075
00000000: 6b82 bcbe 9dba 04bf f1aa 12bf 7224 d3be
00000010: 42be 03bf f786 e6be efad 2dbf f9e2 d1be
00000020: 5094 f2be 22c4 bbbe

norm.running_mean f4 [10]
-5.956969 2.552544 0.3585674 -5.905643 0.25711083 0.5112254 -2.2231865 1.32967
0.21150956 0.78259444
00000000: 7d9f bec0 e25c 2340 2596 b73e 07fb bcc0
00000010: 08a4 833e abdf 023f b048 0ec0 a032 aa3f
00000020: f695 583e 1c58 483f

norm.running_var f4 [10]
7.5474257 6.772082 4.020132 10.626473 3.957489 5.614426 6.3225756 5.0681787
3.7426622 4.5191836
00000000: 8384 f140 e5b4 d840 eca4 8040 0906 2a41
00000010: 8047 7d40 61a9 b340 8a52 ca40 852e a240
00000020: c787 6f40 279d 9040

fc1.weight f4 [50, 810]
0.060236387 0.015617448 -0.041436873 0.12730008 -0.05284822 0.048982915 0.100325614 0.09140302
0.14575237 0.069438025 -0.1667473 -0.31568098 0.10208388 0.19569308 0.060095157 -0.025897346
-0.118180186 0.14323214 0.14719851 0.18341328 -0.1504971 -0.4478923 0.060794573 0.115687564
-0.033757698 0.010238937 0.09588665 -0.12172541 -0.11113825 -0.06920649 0.09183771 0.092574716
0.117068425 -0.04469987 0.01644154 0.07636004 -0.069409035 0.012158876 -0.2751092 0.15877017
-0.07681948 0.17235732 0.09563177 0.030677747 0.03219583 0.03719021 0.015157572 -0.1552143
-0.18390417 0.08800217 -0.105276726 -0.085190125 -0.26717666 -0.3745565 0.20259874 0.24683213
-0.19118123 -0.2742553 0.019426541 0.113675416 0.10639892 -0.21619761 -0.12107412 0.05063366
0.06665845 -0.21311302 -0.23106048 -0.015438614 0.015102696 0.112354495 0.15704262 0.111765474
0.0455963 0.029447488 0.024109868 0.054752428 0.17124163 0.054041762 0.067408785 0.16378807
0.034534715 -0.07978075 -0.10540823 0.20304644 -0.08084126 -0.13576746 -0.15143172 0.0015086735
-0.027410341 -0.015039586 -0.15002893 0.20593803 0.013685901 -0.021370918 -0.114109926 -0.19105525
-0.17347424 -0.042786513 0.027181992 0.054116037 0.07909382 0.0328512 0.04175525 -0.082852095
0.0023569637 -0.096360065 -0.06682001 -0.006608162 -0.05415873 -0.025202468 0.058650985 -0.09487826
-0.24949253 -0.14404984 -0.029024536 -0.068399824 0.10574827 0.10377321 -0.015671642 -0.038599644
0.09023881 -0.041011 -0.015805516 0.035268415 -0.014796511 -0.08085761 -0.01366092 0.15679857
0.3285069 -0.25742477 -0.17391476 -0.030383026 0.006239159 0.1928999 0.14808051 -0.044848777
0.19078466 0.56779623 0.049978685 0.034884706 -0.053080574 0.021300964 -0.032214392 0.3089283
-0.15603644 0.31088397 0.4699505 0.19552761 0.011659641 -0.08288894 -0.007774656 0.25194782
0.3042196 -0.051968236 -0.030140704 0.27491325 0.122155085 -0.1390889 -0.28603667 -0.1709615
-0.26633304 -0.14635697 0.006339476 -0.11885757 -0.07670529 -0.06603994 0.015388156 -0.06521948
-0.047614343 -0.031990502 -0.07602813 0.08869447 0.23214701 0.19231017 -0.17169131 -0.10397441
-0.20281231 -0.0735194 0.11084241 0.12937185 -0.028289564 -0.060705557 0.17067121 -0.1533569
-0.21624923 -0.03343927 0.07722026 0.033643343 0.027716868 -0.1332822 0.15462221 0.011351607
-0.109827384 0.03265757 -0.10761816 0.1440576 -0.013620292 -0.10891696 0.21701328 -0.11247444
-0.11692328 -0.35671207 -0.0679406 -0.2191027 -0.04186399 -0.039014596 0.08972937 0.03631268
0.18555546 0.12239491 -0.124662265 0.004646568 -0.07947383 -0.18340811 -0.008207154 0.108361594
0.12991863 0.13049394 0.4857294 0.040790413 -0.102492966 -0.09057758 -0.0050655943 0.36943778
0.09668167 -0.13441609 0.1344408 0.36667052 0.08798826 -0.014679972 -0.11396633 0.23766066
0.33853534 0.13151018 -0.123299435 -0.1259352 0.18835649 -0.110272355 -0.10037975 -0.16710943
-0.05416858 0.055553917 0.14779231 -0.013932824 -0.10887236 0.01337255 0.1154056 0.047374047
-0.047107905 0.10366116 -0.06448344 0.046325047 -0.012448086 -0.17595826 -0.019618591 0.027088683
00000000: 6eba 763d 53e0 7f3c b6b9 29bd f45a 023e
00000010: 6077 58bd 4fa2 483d 8477 cd3d 8231 bb3d
00000020: 1c40 153e 8635 8e3d cebf 2abe f0a0 a1be
00000030: 5a11 d13d c463 483e 5726 763d ac26 d4bc
00000040: 7408 f2bd 72ab 123e 35bb 163e b1d0 3b3e
00000050: e91b 1abe 2452 e5be bb03 793d 9aed ec3d
00000060: 8345 0abd 37c1 273c 3860 c43d 2c4b f9bd
00000070: 739c e3bd 22bc 8dbd 6915 bc3d d097 bd3d
00000080: 92c1 ef3d 3617 37bd 69b0 863c a762 9c3d
00000090: 5326 8ebd 0636 473c 1ddb 8cbe a694 223e
000000a0: 8853 9dbd 707e 303e 97da c33d e64f fb3c
000000b0: c6df 033d c354 183d 7757 783c 7ff0 1ebe
000000c0: 6051 3cbe 7b3a b43d 539b d7bd 2978 aebd
000000d0: 61cb 88be dfc5 bfbe 0b76 4f3e 90c1 7c3e
000000e0: 03c5 43be 316b 8cbe 6924 9f3c a8ce e83d
000000f0: ade7 d93d e862 5dbe b5f5 f7bd 3e65 4f3d
00000100: 3a84 883d 4d3a 5abe 1e9b 6cbe 3ef2 7cbc
00000110: 4c71 773c 1d1a e63d c8cf 203e 4ce5 e43d
00000120: 30c3 3a3d dc3b f13c 0f82 c53c 1544 603d
00000130: f759 2f3e e55a 5d3d 9e0d 8a3d 0fb8 273e
00000140: 4674 0d3d 1764 a3bd 45e0 d7bd 68eb 4f3e
00000150: 1a90 a5bd a006 0bbe eb10 1bbe afbe c53a
00000160: a78b e0bc 9968 76bc 2fa1 19be 6be1 523e
00000170: d43a 603c 1012 afbc 77b2 e9bd fda3 43be
00000180: 3ba3 31be e940 2fbd c5ac de3c c7a8 5d3d
00000190: f1fb a13d fb8e 063d 8e07 2b3d 5cae a9bd
000001a0: 4a77 1a3b 6d58 c5bd eed8 88bd 4889 d8bb
000001b0: 8bd5 5dbd 6875 cebc 043c 703d 884f c2bd
000001c0: f87a 7fbe cd81 13be ddc4 edbc 3515 8cbd
000001d0: 8d92 d83d 0c87 d43d d161 80bc a91a 1ebd
000001e0: 20cf b83d 26fb 27bd 927a 81bc 9d75 103d
000001f0: 116d 72bc ad98 a5bd 0dd2 5fbc ce8f 203e
00000200: 0e32 a83e 2ecd 83be b616 32be d3e5 f8bc
00000210: dc71 cc3b 8d87 453e 6ba2 173e 5ab3 37bd
00000220: 0e5d 433e 185b 113f 73b6 4c3d 44e3 0e3d
00000230: 046b 59bd 5c7f ae3c 3df3 03bd da2b 9e3e
00000240: 04c8 1fbe 2f2c 9f3e 5a9d f03e 6438 483e
00000250: 1408 3f3c adc1 a9bd 8bc2 febb 4eff 803e
00000260: acc2 9b3e a5dc 54bd a3e9 f6bc 6ec1 8c3e
00000270: 722c fa3d 526d 0ebe 6673 92be 8810 2fbe
00000280: ce5c 88be 9ade 15be 61bb cf3b 996b f3bd
00000290: aa17 9dbd f33f 87bd 9b1e 7c3c ca91 85bd
000002a0: 4207 43bd 7908 03bd a3b4 9bbd 72a5 b53d
000002b0: f2b7 6d3e f5ec 443e d9cf 2fbe 89f0 d4bd
000002c0: 08ae 4fbe 5791 96bd 5801 e33d 0e7a 043e
000002d0: 84bf e7bc 64a6 78bd 6fc4 2e3e 9709 1dbe
000002e0: 7070 5dbe 9ef7 08bd a825 9e3d 9acd 093d
000002f0: 7c0e e33c 217b 08be 4955 1e3e 17fc 393c
00000300: 2eed e0bd f2c3 053d e966 dcbd d683 133e
00000310: a527 5fbc db0f dfbd bb38 5e3e 0059 e6bd
00000320: 7975 efbd f7a2 b6be 7124 8bbd 755c 60be
00000330: 9379 2bbd c5cd 1fbd 08c4 b73d 9bbc 143d
00000340: 4002 3e3e 2faa fa3d ee4e ffbd 3d42 983b
00000350: 2dc3 a2bd 56cf 3bbe 4d77 06bc afec dd3d
00000360: 6409 053e 34a0 053e 86b1 f83e d913 273d
00000370: d5e7 d1bd bd80 b9bd 49fd a5bb f326 bd3e
00000380: 0a01 c63d 5fa4 09be d9aa 093e 3dbc bb3e
00000390: 3033 b43d 4484 70bc 2e67 e9bd 515d 733e
000003a0: 8154 ad3e 9baa 063e 6a84 fcbd 28f5 00be
000003b0: 86e0 403e 79d6 e1bd e693 cdbd bc1e 2bbe
000003c0: dfdf 5dbd 818c 633d de56 173e 8046 64bc
000003d0: 79f8 debd 8a18 5b3c c559 ec3d 4a0b 423d
000003e0: 38f4 40bd 4d4c d43d e50f 84bd 55bf 3d3d
000003f0: 0ff3 4bbc 672e 34be 2bb7 a0bc 16e9 dd3c

fc1.bias f4 [50]
-0.011352676 0.25180155 -0.05754208 -0.031920355 0.011303397 -0.052157156 -0.10367215 -0.1665801
-0.0071810223 -0.05578516 -0.03795402 -0.0382277 -0.058224373 -0.039036296 -0.038167197 -0.031511527
-0.09710537 0.092775516 -0.08388683 -0.096723184 -0.0838185 0.05255581 -0.006879492 -0.021326013
-0.046024576 0.47420222 -0.05023503 -0.01194837 -0.050202005 -0.017703556 0.22054076 -0.047343373
-0.009099876 -0.034098256 0.14690605 -0.15554884 -0.027515842 -0.019245656 0.016127266 -0.2040586
0.06004425 -0.024489395 -0.03027068 -0.068073414 -0.018782113 0.010255284 -0.040112123 -0.04537904
0.16917537 -0.14718316
00000000: 9300 3abc 22ec 803e 3eb1 6bbd ebbe 02bd
00000010: e231 393c bea2 55bd 1052 d4bd f993 2abe
00000020: c84e ebbb fb7e 64bd ad75 1bbd a694 1cbd
00000030: ae7c 6ebd 86e4 1fbd 3555 1cbd 3b12 01bd
00000040: 2edf c6bd 1701 be3d dccc abbd ce16 c6bd
00000050: 09a9 abbd c344 573d 5d6d e1bb e4b3 aebc
00000060: 4484 3cbd a2ca f23e 3fc3 4dbd 19c3 43bc
00000070: 9ea0 4dbd 0c07 91bc 70d5 613e 20eb 41bd
00000080: a517 15bc 9daa 0bbd 8a6e 163e 3248 1fbe
00000090: e768 e1bc 11a9 9dbc 541d 843c bdf4 50be
000000a0: f6f0 753d fc9d c8bc 38fa f7bc 136a 8bbd
000000b0: f2dc 99bc c705 283c 9c4c 24bd 5fdf 39bd
000000c0: 4f3c 2d3e 2fb7 16be

fc2.weight f4 [7, 50]
-0.08777615 -0.07294829 0.0717427 0.07171955 0.095157616 -0.033097755 -0.20383236 0.10030432
-0.117936626 -0.11561736 -0.29641807 0.06612053 -0.24366434 0.0854719 -0.011397796 0.081645325
-0.04697214 -0.083896495 -0.13546172 0.09978246 -0.0067386623 0.083227694 0.016060073 -0.043791607
0.044216745 -0.19060625 -0.04945172 -0.0021301087 -0.10625163 0.043350644 0.16184308 -0.114261
-0.03900876 0.08570054 0.12364415 -0.097183615 -0.11293964 0.1537545 0.103613645 -0.09797346
-0.15191117 0.08954126 0.01684983 0.18603842 0.06944937 0.17339276 -0.032431 -0.04045648
0.17790979 -0.15098828 0.12916121 0.25914583 -0.15680882 0.085802585 0.025333218 -0.007900007
-0.2888598 -0.290292 -0.091011055 -0.032502417 0.07265632 0.06987959 -0.3907331 0.029289586
-0.018617634 0.07003324 -0.26643476 0.033793285 -0.2971921 0.019750388 -0.38774297 -0.19272067
-0.00043087665 -0.048019573 -0.023137879 0.42490453 0.006964695 0.090767354 -0.06819076 -0.14054626
0.19059305 0.08401678 -0.06814706 -0.12324193 0.20027763 -0.12677144 -0.020618528 -0.059635233
-0.30910218 -0.16811876 0.20112607 0.03863698 0.07738855 -0.41939422 0.045533843 0.02302156
0.08798652 0.014050198 0.114284284 -0.46044588 -0.20325421 -0.5344531 -0.018224647 0.053538155
0.12521027 0.04272585 0.25821066 -0.15545623 -0.0487409 -0.03957748 0.26207137 0.123728074
-0.16461988 -0.098977454 0.025279295 -0.06920369 -0.20419292 0.013193734 0.0071412446 -0.007385173
-0.0046998924 0.18454474 -0.0856805 0.12203349 -0.06474483 0.33170542 0.051395435 0.071272634
-0.018051114 -0.007024689 -0.07422161 0.020866025 -0.10830524 0.13692082 0.110494636 -0.15372434
0.006612021 0.16956122 0.19998313 0.066969104 -0.010963197 0.13980477 0.011712115 -0.011517992
-0.046017684 -0.22877471 -0.023072548 0.15906872 -0.09181605 0.211757 -0.034494475 0.10268836
-0.063973956 -0.11837944 -0.059362315 -0.10673607 0.030093122 0.17229062 -0.08252133 0.098559886
-0.09133102 0.058422375 -0.22092302 0.02397421 0.07794736 -0.025190214 0.09594424 0.01919144
0.021252645 -0.2772928 -0.19350033 -0.25053775 -0.026485363 -0.0022386464 0.045477357 -0.18160067
-0.10061638 0.01211404 0.03261538 0.021735592 -0.2831137 -0.039865594 0.07580568 0.036068484
0.022756478 0.31530526 0.038343497 -0.0037499445 0.06802554 0.072470166 0.09995819 -0.0048643993
-0.0370509 -0.050802328 0.025943736 -0.053973764 -0.06188409 0.10314305 -0.122025765 0.13883561
0.21612482 -0.29175356 -0.089660905 -0.057889085 -0.0047364803 -0.016906835 0.08423954 0.11582706
-0.066132665 -0.03134478 0.11418693 0.013009873 -0.10473513 0.024335688 0.023660135 -0.030064201
-0.29159716 -0.022382848 0.11577711 0.25304917 0.22425804 -0.21597199 0.10032226 -0.08692056
-0.0921709 -0.08275759 -0.08879109 0.0095367115 0.069461286 -0.018016733 -0.29697686 0.041814744
0.050610058 -0.0520441 0.0030883104 -0.047037195 0.10220487 -0.05516496 -0.32207304 0.069937065
0.24093413 -0.10230815 0.12893163 -0.13141522 0.048418272 0.03640555 0.020054512 0.022735711
-0.018221391 0.17379642 -0.3667332 0.11276715 0.073062114 0.09053543 -0.08045911 0.020582149
00000000: fbc3 b3bd ea65 95bd d6ed 923d b3e1 923d
00000010: ffe1 c23d 8391 07bd 6eb9 50be 5a6c cd3d
00000020: c288 f1bd cbc8 ecbd 1cc4 97be 336a 873d
00000030: 2583 79be e40b af3d d2bd 3abc aa35 a73d
00000040: dc65 40bd edd1 abbd 7ab6 0abe bf5a cc3d
00000050: ffcf dcbb 4873 aa3d 6a90 833c d45e 33bd
00000060: 9e1c 353d 492e 43be e38d 4abd 4b99 0bbb
00000070: 749a d9bd 7290 313d 31ba 253e ac01 eabd
00000080: a6c7 1fbd c483 af3d 2539 fd3d 3408 c7bd
00000090: e64c e7bd d271 1d3e 6433 d43d 4fa6 c8bd
000000a0: 9a8e 1bbe 6861 b73d a808 8a3c db80 3e3e
000000b0: 793b 8e3d df8d 313e 5ed6 04bd b2b5 25bd
000000c0: fc2d 363e ac9c 1abe d642 043e c3ae 843e
000000d0: 7e92 20be 44b9 af3d 9c87 cf3c 086f 01bc
000000e0: 6fe5 93be 27a1 94be 0164 babd 4121 05bd
000000f0: d6cc 943d 081d 8f3d 2b0e c8be b7f0 ef3c
00000100: 0284 98bc 966d 8f3d 236a 88be d46a 0a3d
00000110: 9029 98be 91cb a13c 3f86 c6be 9158 45be
00000120: 49e7 e1b9 2cb0 44bd a68b bdbc 168d d93e
00000130: 1938 e43b 3ce4 b93d 99a7 8bbd 5ceb 0fbe
00000140: d32a 433e fd10 ac3d b090 8bbd 4466 fcbd
00000150: 9415 4d3e 5fd0 01be 30e8 a8bc 1344 74bd
00000160: a442 9ebe 5327 2cbe fef3 4d3e cf41 1e3d
00000170: e37d 9e3d d7ba d6be b281 3a3d b697 bc3c
00000180: 4732 b43d cd32 663c e10d ea3d 90bf ebbe
00000190: df21 50be ebd1 08bf db4b 95bc d34a 5b3d
000001a0: 1f37 003e 4d01 2f3d 3034 843e eb2f 1fbe
000001b0: 8aa4 47bd ff1b 22bd 382e 863e 2565 fd3d
000001c0: 1d92 28be b1b4 cabd 8616 cf3c aaba 8dbd
000001d0: f317 51be 882a 583c 1a01 ea3b 52ff f1bb
000001e0: 8e01 9abb 4cf9 3c3e 4279 afbd b2ec f93d
000001f0: f098 84bd 4bd5 a93e 0584 523d 63f7 913d
00000200: eedf 93bc 5d2f e6bb 8001 98bd 3aef aa3c
00000210: 23cf ddbd f934 0c3e 034b e23d ea69 1dbe
00000220: a7a9 d83b 75a1 2d3e 61c8 4c3e 1927 893d
00000230: fb9e 33bc fb28 0f3e 2ce4 3f3c f6b5 3cbc
00000240: 0a7d 3cbd eb43 6abe a402 bdbc e9e2 223e
00000250: 0e0a bcbd d4d6 583e 144a 0dbd 464e d23d
00000260: c704 83bd eb70 f2bd e625 73bd 7198 dabd
00000270: da85 f63c f46c 303e f100 a9bd c4d9 c93d
00000280: c20b bbbd 4d4c 6f3d a539 62be 9065 c43c
00000290: dea2 9f3d b55b cebc 6a7e c43d 5e37 9d3c
000002a0: 071a ae3c 52f9 8dbe f324 46be 7c46 80be
000002b0: d5f7 d8bc 41b6 12bb 7746 3a3d 87f5 39be
000002c0: f60f cebd f779 463c b497 053d d70e b23c
000002d0: 47f4 90be 1b4a 23bd 0240 9b3d 8cbc 133d
000002e0: cb6b ba3c b16f a13e 120e 1d3d a1c1 75bb
000002f0: f950 8b3d 3d6b 943d e1b6 cc3d 8a65 9fbb
00000300: afc2 17bd 1a16 50bd f587 d43c 9813 5dbd
00000310: 2c7a 7dbd aa3c d33d a5e8 f9bd ec2a 0e3e
00000320: d34f 5d3e b960 95be 23a0 b7bd 1b1d 6dbd
00000330: 7a34 9bbb 3480 8abc c885 ac3d bd36 ed3d
00000340: 9070 87bd 6263 00bd d6da e93d 5d27 553c
00000350: 5f7f d6bd a35b c73c e6d2 c13c 3349 f6bc
00000360: 394c 95be 3c5c b7bc 8d1c ed3d a98f 813e
00000370: e6a3 653e c327 5dbe c275 cd3d 6803 b2bd
00000380: 19c4 bcbd d07c a9bd 1ad8 b5bd de3f 1c3c
00000390: b841 8e3d d497 93bc 5a0d 98be f045 2b3d
000003a0: 7e4c 4f3d 322c 55bd 4065 4a3b 13aa 40bd
000003b0: c950 d13d a7f4 61bd c2e6 a4be 2a3b 8f3d
000003c0: 70b7 763e ef86 d1bd a706 043e b691 06be
000003d0: 3d52 463d fc1d 153d 5c49 a43c 3e40 ba3c
000003e0: 0745 95bc b0f7 313e 74c4 bbbe 77f2 e63d
000003f0: 97a1 953d a46a b93d bfc7 a4bd e59b a83c

fc2.bias f4 [7]
0.17258686 0.18934266 0.025424412 0.14948077 -0.22398655 -0.22969241 -0.20185812
00000000: 9cba 303e 0be3 413e db46 d03c 7d11 193e
00000010: bb5c 65be 7d34 6bbe e5b3 4ebe

localization.0.weight f4 [8, 1, 7, 7]
0.027720898 -0.013140862 -0.0029138604 0.12041417 -0.08253127 0.07397224 -0.08681197 0.107986994
-0.10373321 0.124590605 0.005967874 0.045255177 0.14187965 -0.028029375 0.010386567 0.018506646
-0.112369195 -0.035157625 0.04161104 -0.103997156 -0.03700265 -0.09863753 -0.081436284 -0.06215033
0.1390478 0.08449692 0.14636049 -0.05300226 -0.11644115 -0.0081038335 0.0486191 -0.08147321
0.015230155 -0.0205372 0.022843849 -0.008643765 -0.06271637 -0.16119158 0.034761753 0.13097094
-0.03793903 0.049518257 -0.13386798 -0.13955395 0.057591565 0.050226983 -0.0021100778 -0.08786115
0.031564884 0.053890202 0.05660705 -0.020305742 -0.028898621 0.082123436 0.12555747 -0.0785664
-0.08310999 0.019176241 -0.08601842 -0.09553996 -0.078257784 -0.06697767 0.10545314 0.1550055
-0.07384801 0.099182256 -0.06725174 -0.039228447 -0.090334 0.012539262 0.09993832 -0.049299143
0.12096585 0.10575384 0.07364674 0.01109029 -0.07342008 -0.009532642 0.0024173518 0.03892859
0.072387055 0.006043509 0.017857688 0.119921625 0.06179101 0.15695105 -0.010462537 0.073333494
0.021433711 -0.051044315 0.005209798 0.049989145 -0.052402858 -0.05987427 0.14934136 0.118210144
0.060558323 -0.050422963 0.066296145 -0.06413066 0.0043349722 0.13087963 0.14659722 -0.05298325
0.09419528 0.1095337 -0.108154126 0.16053021 -0.0749776 0.1150954 -0.017409194 0.01253027
0.13061602 0.085136764 0.006008809 0.1368538 0.003631563 0.05854973 0.049796235 0.09281739
0.0022169598 0.025491213 0.09379283 -0.003631509 0.15726586 -0.08972866 -0.029937306 0.008950445
-0.10478369 -0.14149258 0.036695793 -0.06460263 0.078306966 0.02667427 -0.10171559 0.08846909
0.11332026 -0.019749299 0.021229086 -0.0075969896 -0.0030216658 -0.011103971 0.07002484 -0.122093454
0.11140866 -0.07146817 0.053404205 0.01804867 -0.15697165 0.034017354 0.08058509 0.07735238
0.061899923 0.058745697 -0.16009426 0.107166 -0.14409123 0.045934472 -0.12562427 0.010938958
0.07462358 0.11359896 0.0845441 -0.052739605 -0.0037427177 -0.09957631 -0.078158304 -0.115491115
-0.09257611 -0.056122135 0.006823057 -0.110410005 0.015556451 0.05580289 0.013747513 0.043595836
0.071683906 -0.1613403 -0.1493886 0.05561763 0.10240827 0.035105083 -0.041053705 -0.09357929
-0.001085131 -0.12846598 0.11806693 0.043991454 -0.057849742 -0.04932894 0.018211734 0.0113044875
-0.03070067 0.039609578 0.068142936 0.0008985277 0.04425485 -0.041849177 -0.13392651 0.06266808
0.042207845 -0.16094632 -0.081022315 -0.14278848 -0.17921092 0.0069972007 0.037923556 -0.14342034
-0.17949603 0.06965325 -0.0050974335 -0.04348045 0.021127896 0.07581261 0.053555775 -0.027350355
-0.049088124 0.015566109 0.021327881 0.032953653 -0.019220266 0.054519 -0.109252796 -0.12148299
0.0022390583 -0.16629611 0.08602334 -0.08032748 -0.060057987 0.059040967 -0.11035117 0.082310654
-0.13956907 0.008450216 0.080682084 -0.021944981 -0.07423104 -0.17688596 0.04362936 0.032607462
0.092760235 0.042519223 -0.18929394 -0.18236378 0.018153274 0.07125403 0.01871456 -0.04715653
-0.0006445029 -0.016287362 0.014843496 -0.0329498 -0.10577202 -0.0856678 0.09575699 -0.0995464
00000000: f016 e33c c54c 57bc 77f6 3ebb b49b f63d
00000010: 2806 a9bd c27e 973d 79ca b1bd 4928 dd3d
00000020: 1472 d4bd 5c29 ff3d 288e c33b 7e5d 393d
00000030: e648 113e dc9d e5bc 6b2c 2a3c 409b 973c
00000040: d221 e6bd 7101 10bd 5670 2a3d 76fc d4bd
00000050: 1790 17bd 7902 cabd 11c8 a6bd 5891 7ebd
00000060: 8c62 0e3e b90c ad3d 86df 153e e618 59bd
00000070: b378 eebd f1c5 04bc d224 473d 6ddb a6bd
00000080: e687 793c a13d a8bc 0623 bb3c 949e 0dbc
00000090: 7171 80bd 680f 25be 5762 0e3d 3f1d 063e
000000a0: f565 1bbd a8d3 4a3d b014 09be 3be7 0ebe
000000b0: 22e5 6b3d cfba 4d3d 3b49 0abb 8cf0 b3bd
000000c0: 2e4a 013d f9bb 5c3d cbdc 673d 3a58 a6bc
000000d0: cdbc ecbc 5530 a83d 2392 003e 6ce7 a0bd
000000e0: 9235 aabd 7e17 9d3c 6d2a b0bd 74aa c3bd
000000f0: 9e45 a0bd 972b 89bd d1f7 d73d c3b9 1e3e
00000100: a03d 97bd 1120 cb3d 48bb 89bd 02ae 20bd
00000110: 0801 b9bd 7a71 4d3c 76ac cc3d e6ed 49bd
00000120: f2bc f73d 7895 d83d 1ad4 963d 0cb4 353c
00000130: 445d 96bd cc2e 1cbc 6f6c 1e3b 9673 1f3d
00000140: aa3f 943d a108 c63b 494a 923c 7899 f53d
00000150: 9218 7d3d c7b7 203e 106b 2bbc df2f 963d
00000160: c095 af3c d813 51bd f4b6 aa3b 6bc1 4c3d
00000170: 61a4 56bd b93e 75bd f1ec 183e 2918 f23d
00000180: 010c 783d 4f88 4ebd 46c6 873d ef56 83bd
00000190: 620c 8e3b 4f05 063e 951d 163e f704 59bd
000001a0: 74e9 c03d 3453 e03d e97f ddbd 0862 243e
000001b0: db8d 99bd 23b7 eb3d ba9d 8ebc c34b 4d3c
000001c0: 35c0 053e 2f5c ae3d 8be5 c43b 6723 0c3e
000001d0: 84ff 6d3b d7d1 6f3d 23f7 4b3d 0b17 be3d
000001e0: 6a4a 113b f3d2 d03c 7516 c03d 9cfe 6dbb
000001f0: 4d0a 213e a9c3 b7bd 153f f5bc e3a4 123c
00000200: d598 d6bd 6ee3 10be 544e 163d 624e 84bd
00000210: 675f a03d 0084 da3c 4350 d0bd 482f b53d
00000220: 7414 e83d 48c9 a1bc 9fe8 ad3c 2bf0 f8bb
00000230: 2407 46bb 6eed 35bc 2f69 8f3d 220c fabd
00000240: 392a e43d e75d 92bd 5ebe 5a3d ceda 933c
00000250: 2dbd 20be c855 0b3d cc09 a53d ed6a 9e3d
00000260: c68a 7d3d 549f 703d c0ef 23be d979 db3d
00000270: a78c 13be c925 3c3d a6a3 00be 5139 333c
00000280: 3fd4 983d 92a6 e83d 7525 ad3d 7c05 58bd
00000290: 6248 75bb aaee cbbd 7611 a0bd 9b86 ecbd
000002a0: 8b98 bdbd 53e0 65bd f393 df3b a41e e2bd
000002b0: 7ce0 7e3c 9291 643d 403d 613c 8c91 323d
000002c0: 03cf 923d 6436 25be 53f9 18be 50cf 633d
000002d0: 6dbb d13d 59ca 0f3d ee27 28bd 80a6 bfbd
000002e0: f43a 8eba 968c 03be 13cd f13d 6230 343d
000002f0: daf3 6cbd 250d 4abd c630 953c 7536 393c
00000300: f97f fbbc a73d 223d 868e 8b3d 2c8b 6b3a
00000310: 9344 353d 0b6a 2bbd 0824 09be 1f58 803d
00000320: 22e2 2c3d 1dcf 24be 07ef a5bd 2537 12be
00000330: 1183 37be c648 e53b bb55 1b3d c8dc 12be
00000340: cfcd 37be 5da6 8e3d 5f08 a7bb 8e18 32bd
00000350: 6914 ad3c a443 9b3d 4d5d 5b3d da0d e0bc
00000360: a110 49bd fe08 7f3c cfb7 ae3c 69fa 063d
00000370: d273 9dbc 514f 5f3d eebf dfbd 13cc f8bd
00000380: 2abd 123b 8749 2abe 012d b03d bc82 a4bd
00000390: 5dff 75bd f1d4 713d cbff e1bd 7d92 a83d
000003a0: 32eb 0ebe c672 0a3c a63c a53d f6c5 b3bc
000003b0: 7206 98bd 9821 35be b3b4 323d 678f 053d
000003c0: 14f9 bd3d a328 2e3d 45d6 41be 92bd 3abe
000003d0: 2db6 943c a2ed 913d 474f 993c 3527 41bd
000003e0: dcf3 28ba 136d 85bc 2232 733c 5ff6 06bd
000003f0: 009f d8bd 9972 afbd 3e1c c43d fcde cbbd

localization.0.bias f4 [8]
0.014610979 0.07132797 -0.119597 -0.011678349 -0.13513762 -0.018407928 -0.14543617 -0.14003186
00000000: e362 6f3c 6614 923d 46ef f4bd 8c56 3fbc
00000010: 8461 0abe 39cc 96bc 38ed 14be 8364 0fbe

localization.3.weight f4 [10, 8, 5, 5]
-0.08418398 -0.0064227027 -0.018101085 -0.00852419 0.026096338 -0.07289618 -0.022173751 -0.024911862
0.006605047 -0.017302379 -0.048710212 -0.00663055 -0.05603111 -0.076643825 -0.05743954 -0.0647973
-0.009618298 0.015250912 -0.081631854 -0.008822092 0.019702308 0.038338676 -0.056337897 -0.04117416
-0.09109403 -0.0013469263 -0.0751569 -0.0536761 -0.084014244 0.03812042 -0.0929306 0.0032386668
0.008860631 -0.06362783 -0.06830869 -0.015961073 0.029081795 -0.027884727 -0.024863996 -0.098307155
0.012097942 -0.039982826 -0.031533718 -0.0026678115 0.01794198 -0.023675362 -0.057048857 -0.025815653
-0.03334924 0.007452622 -0.080941334 0.032553464 -0.09988789 -0.009582257 -0.008391732 -0.055307437
-0.020807981 -0.07842809 -0.07629534 -0.061102428 0.007994002 -0.02519696 -0.03575749 -0.0053436453
-0.114279605 0.013349778 -0.09189553 0.019897701 -0.08625697 0.0036296486 -0.036746085 -0.046394955
-0.006811588 -0.10874322 -0.11049898 0.011824346 -0.034704305 -0.0025042219 -0.080534965 0.025458585
0.030352946 -0.009822023 -0.08057423 -0.10140527 -0.04003829 0.036020286 -0.09390281 0.02498787
0.012660565 -0.040865302 -0.079485655 -0.027965946 -0.030451138 -0.106899664 -0.045586433 -0.089579076
-0.027881067 -0.0075844484 -0.08628637 -0.0951105 -0.07215633 0.05882649 -0.047935456 0.015812464
-0.08092882 -0.056617144 -0.070323564 -0.08687391 -0.07354655 0.019232696 -0.022503076 -0.075927444
0.0043300805 -0.045996018 0.007910268 0.028164282 -0.07151441 0.025101373 -0.031566087 -0.04529471
-0.11779438 0.0124187 0.006630595 0.01814192 -0.01522409 -0.07336671 -0.046856426 0.024196284
-0.06436965 -0.047753345 -0.028302336 0.011754073 -0.10974977 -0.07793164 -0.08865238 0.00064218696
0.03221683 -0.016630234 -0.008296446 -0.044612702 -0.08706782 0.0073356777 -0.088258296 -0.025009442
-0.09740403 -0.017351553 -0.018117154 -0.035977278 -0.104260206 -0.067954116 -0.08758254 -0.00443832
-0.09594599 -0.07298318 -0.06224843 -0.0018919802 -0.07764433 -0.04786286 -0.10078754 -0.097987674
-0.00046950887 -0.061133448 0.0069426154 -0.09034933 -0.111185625 -0.059219744 -0.0679693 -0.09854512
-0.03400466 -0.0332016 0.017527817 0.0081820255 0.005123401 -0.10635923 -0.11520657 0.014318119
-0.067510955 0.026107248 -0.085670404 -0.018186321 -0.007914605 0.026124647 -0.00812077 0.029751705
0.033774037 -0.004644134 -0.088109046 0.018377228 -0.0013350612 -0.019109586 -0.07802294 -0.020986924
-0.023504796 -0.09459228 0.03706465 -0.090259306 0.03860217 -0.05083822 -0.03524392 0.04364806
-0.026239013 -0.0024313019 -0.053565666 -0.037050657 -0.1076685 -0.01805699 -0.10764938 0.019306853
-0.068414874 -0.045372523 -0.04207463 -0.030563902 -0.01758283 -0.06852605 0.010397803 0.027036322
0.028675389 0.006153123 -0.040762432 -0.0063939695 0.016765596 -0.08856852 -0.061763223 0.024321433
0.037112635 -0.061259042 0.008730521 -0.036526423 -0.100991115 -0.036176234 -0.1143149 -0.03490602
-0.0928298 -0.06703862 -0.0070570293 0.021236971 0.017512102 0.015943948 -0.00049109437 -0.044902973
-0.034034718 -0.03635843 -0.10296147 -0.007236649 0.025069011 -0.094123594 -0.02711513 -0.038130675
0.012810866 0.025059817 -0.08516683 -0.0070385174 -0.082139015 -0.08015003 -0.0899005 -0.017194893
00000000: a768 acbd 8975 d2bb ba48 94bc 0ba9 0bbc
00000010: fdc7 d53c 984a 95bd baa5 b5bc f613 ccbc
00000020: 266f d83b b8bd 8dbc 5c84 47bd 1645 d9bb
00000030: e180 65bd 70f7 9cbd b945 6bbd 72b4 84bd
00000040: 1196 1dbc f6de 793c 9a2e a7bd 898a 10bc
00000050: bc66 a13c 0409 1d3d 91c2 66bd 3ca6 28bd
00000060: 828f babd 598b b0ba dceb 99bd 78db 5bbd
00000070: a90f acbd 2824 1c3d 6652 bebd d03f 543b
00000080: 2e2c 113c 4f4f 82bd 6de5 8bbd ccc0 82bc
00000090: f23c ee3c 836e e4bc 94af cbbc 4355 c9bd
000000a0: 7236 463c 08c5 23bd 8029 01bd 73d6 2ebb
000000b0: 0ffb 923c d5f2 c1bc 10ac 69bd 597b d3bc
000000c0: 3699 08bd 2035 f43b 92c4 a5bd c856 053d
000000d0: 0692 ccbd e6fe 1cbc 7a7d 09bc 0d8a 62bd
000000e0: 8075 aabc e89e a0bd bb40 9cbd 8a46 7abd
000000f0: 46f9 023c db69 cebc 7276 12bd bf19 afbb
00000100: 6d0b eabd 07b9 5a3c b933 bcbd 8100 a33c
00000110: 7fa7 b0bd 66df 6d3b 1083 16bd a308 3ebd
00000120: be33 dfbb c4b4 debd 4a4d e2bd e7ba 413c
00000130: 1a26 0ebd df1d 24bb 84ef a4bd 868e d03c
00000140: bea6 f83c 8dec 20bc 1a04 a5bd 91ad cfbd
00000150: 31ff 23bd 028a 133d 1e50 c0bd 5db3 cc3c
00000160: 426e 4f3c 6062 27bd 60c9 a2bd d718 e5bc
00000170: aa74 f9bc 36ee dabd d7b8 3abd 3c75 b7bd
00000180: d666 e4bc f786 f8bb e9b6 b0bd 4bc9 c2bd
00000190: b3c6 93bd 0cf4 703d f857 44bd 2489 813c
000001a0: 02be a5bd 61e7 67bd cd05 90bd f3ea b1bd
000001b0: 939f 96bd e38d 9d3c 5f58 b8bc d97f 9bbd
000001c0: 59e3 8d3b 5266 3cbd 129a 013c c8b8 e63c
000001d0: 2676 92bd 65a1 cd3c 714b 01bd f286 39bd
000001e0: 2e3e f1bd ce77 4b3c 7645 d93b 5d9e 943c
000001f0: 766e 79bc 4941 96bd 86ec 3fbd 4937 c63c
00000200: 3cd4 83bd 0399 43bd 4dda e7bc 2894 403c
00000210: 7dc4 e0bd a09a 9fbd 618f b5bd 7058 283a
00000220: cbf5 033d 213c 88bc d1ed 07bc cfbb 36bd
00000230: 9d50 b2bd 2060 f03b c4c0 b4bd 9ae0 ccbc
00000240: c47b c7bd d824 8ebc 6d6a 94bc e95c 13bd
00000250: 6086 d5bd 872b 8bbd 7a5e b3bd 546f 91bb
00000260: 557f c4bd 3578 95bd 36f8 7ebd 52fc f7ba
00000270: fe03 9fbd d90b 44bd b369 cebd c3ad c8bd
00000280: 6a28 f6b9 1167 7abd e17e e33b 1209 b9bd
00000290: 4ab5 e3bd 6790 72bd 7d33 8bbd 06d2 c9bd
000002a0: 7848 0bbd 67fe 07bd 7f96 8f3c e70d 063c
000002b0: 34e2 a73b ded2 d9bd 6cf1 ebbd 8b96 6a3c
000002c0: 2f43 8abd dede d53c f773 afbd 7bfb 94bc
000002d0: 42ac 01bc 5b03 d63c fa0c 05bc d9b9 f33c
000002e0: a556 0a3d d22d 98bb 8472 b4bd d78b 963c
000002f0: 38fd aeba b58b 9cbc 7eca 9fbd c5ec abbc
00000300: 218d c0bc 99b9 c1bd 1ad1 173d dfd9 b8bd
00000310: 4f1d 1e3d bd3b 50bd ee5b 10bd 4fc8 323d
00000320: 33f3 d6bc 7a56 1fbb ac67 5bbd 6ec2 17bd
00000330: 4d81 dcbd 41ec 93bc 4777 dcbd 6829 9e3c
00000340: 191d 8cbd 8ad8 39bd 7256 2cbd 2661 fabc
00000350: de09 90bc 6357 8cbd 8c5b 2a3c 477b dd3c
00000360: a6e8 ea3c 23a0 c93b 82f6 26bd 8184 d1bb
00000370: 0158 893c 6a63 b5bd 6ffb 7cbd be3d c73c
00000380: 6b03 183d c3ea 7abd 760a 0f3c bb9c 15bd
00000390: 6ed4 cebd 882d 14bd ee1d eabd 9df9 0ebd
000003a0: 8d1d bebd 8b4b 89bd a73e e7bb 28f9 ad3c
000003b0: 8a75 8f3c e29c 823c c9bc 00ba 2eec 37bd
000003c0: fd67 0bbd 94ec 14bd 77dd d2bd 6921 edbb
000003d0: 875d cd3c dfc3 c0bd 8d20 debc e92e 1cbd
000003e0: abe4 513c 3f4a cd3c f26b aebd 5da3 e6bb
000003f0: 8038 a8bd b325 a4bd c11d b8bd 4edc 8cbc

localization.3.bias f4 [10]
0.004923055 -0.017344005 -0.07326722 0.002519017 0.012566774 0.0037119584 -0.067374766 -0.025117232
0.004053947 0.020966815
00000000: 9451 a13b 0415 8ebc 200d 96bd 1816 253b
00000010: dfe4 4d3c 5444 733b c8fb 89bd a7c2 cdbc
00000020: f9d6 843b 99c2 ab3c
