deep_emotion-500-128-0.005_1.pt (torch, 274522 bytes, 24 tensors)

conv1.weight f4 [10, 1, 3, 3]
00000000: 0b9d 4c3e cc95 643d da04 f5be d4a4 45be
00000010: e312 893e 512f 6f3d a6e6 383e 6fa7 20be
00000020: 46f3 d23d 5f83 55be bba7 c43e a270 a1be
00000030: 8138 593d 569f 74be cf4d 8c3e 9943 543e
00000040: 591d e33d 18f5 a2be 8aa9 c13e 05e8 543e
00000050: 0cef 313e 27a7 383e 48c4 723d dad0 acbd
00000060: 1109 2bbe 2a5a d33b a940 06be 7565 53bd
00000070: a169 563e dbb2 66be bbbc 213e 7a3b a23e
00000080: ea6e 553e 8d0f 88be b7b8 e2bd f059 1d3e
00000090: 8fea 83be e071 2e3d 992b fe3d 1c75 d63c
000000a0: 9a9d b43e 475d ba3e a509 87be 2241 9abe
000000b0: 13e4 32be b746 733e 24d4 a0be 8a99 b4be
000000c0: 8b18 07bd bbff 533e ce22 103d 8ecd af3e
000000d0: da85 743e aa23 b4be 436c 8abe 2f42 2f3e
000000e0: ccfa cfbe fa36 553e 78b8 bc3d 1869 113e
000000f0: f5d5 89be 39cb 013e 6799 8e3e 3a7e 56be
00000100: b4ef 72be 6d59 c23e 471a 8abd 3ec0 40be
00000110: 7d13 13be 8e11 8b3e 5dad 273e 403b a6be
00000120: 6a30 f0bd caea 273e b41f d03b a70c 55be
00000130: 0f98 4dbe 1bb8 6ebe 3554 57be 7216 653e
00000140: 88a5 4ebe 4ab0 4ebd 7eb5 83be 7952 d03e
00000150: 6042 23be 065d edbd 1418 5dbe 909b a83e
00000160: 85b6 91be a086 353e
0.19981782 0.05580692 -0.47855264 -0.19301158 0.26772222 0.058394734 0.18056735 -0.15688871
0.10300307 -0.20850895 0.38409218 -0.31531245 0.053032402 -0.23888907 0.27403113 0.20728911
0.11089582 -0.31827617 0.3782466 0.20791633 0.17376345 0.18032514 0.05926922 -0.08438273
-0.16702677 0.0064499574 -0.13110603 -0.05161043 0.20938732 -0.22529165 0.15794651 0.31686002
0.20843092 -0.26574364 -0.11070388 0.1536634 -0.25764892 0.04258907 0.12410659 0.026178889
0.3527649 0.3639929 -0.26374546 -0.30127817 -0.17469816 0.23757444 -0.3141185 -0.3527339
-0.03298239 0.20703022 0.035189442 0.34336513 0.23879185 -0.3518346 -0.27035722 0.17115091
-0.4062103 0.20821753 0.09214872 0.14200246 -0.2692105 0.1267518 0.27851412 -0.20946589
-0.23724252 0.3795885 -0.06743293 -0.18823335 -0.14362903 0.2716183 0.16374727 -0.3246708
-0.11727984 0.16398159 0.0063514356 -0.20805608 -0.20077537 -0.23312418 -0.21028216 0.22371843
-0.20180333 -0.05046109 -0.25724405 0.40687922 -0.15943289 -0.115900084 -0.21591216 0.32931185
-0.28459564 0.17727137

conv1.bias f4 [10]
00000000: d0dd cfbe 956c 5dbe 88a7 2abe a1f6 8c3d
00000010: 519e 473e dfef 6cbe d0ca 083e a46e 683e
00000020: 5bf9 a43b 9b3e 71bc
-0.40598917 -0.21623452 -0.1666547 0.06882978 0.19493987 -0.23138379 0.13358617 0.22698456
0.0050346083 -0.014724399

conv2.weight f4 [10, 10, 3, 3]
00000000: 9ce8 823a e6e1 9f3d d9a3 623d 8727 01bd
00000010: fa45 1e3d a9c7 38bd c924 8ebc 5fbf bb3c
00000020: bf17 19bd 72e1 6bbd d7eb 573d 3a87 56bc
00000030: adb2 043c 39e6 213d 42ae a3bd 31c5 5bbd
00000040: e0f2 babd 3221 a0bd fbc2 8abd e565 5dbc
00000050: 062a 9ebc a415 eb3c 6ddb 333d a50a e6bd
00000060: 1f0b 8a3c e31b 533d f01a 40bd 4849 cbbb
00000070: ccb5 d0bd a20c 043d f1e5 5d3c eac6 edbd
00000080: 650c 65bd 85f0 4dbd 86b3 42bd 1b7c 8cbd
00000090: 9e0d a03c f8e7 97bd 7053 f1bd 84ea a2bd
000000a0: 7c94 bcbd 439f e0bd c05c c7bd c7f8 09be
000000b0: 4074 263d ff99 11be 25b6 c9bc 08e7 59bd
000000c0: cb29 943d ef60 e0bc e528 ffbd 5dc9 debd
000000d0: 10c4 a9bd 14e1 06bd cafa 2bbd e828 4abd
000000e0: 6e13 a6bd 51a0 b8bd 96f1 aebd a2d4 d23c
000000f0: d12b 243d 8aab efbd bfdd 5c3c 558f 35bd
00000100: 171f c93c 960b b13c 549f 183d 7433 09bb
00000110: 39d2 473d f080 1b3d fa15 0dbe d845 68bb
00000120: fe47 e53c ab01 1d3d 4edc 8dbd f792 913d
00000130: 9369 e9bd c6c5 0fbe d6b8 52bd 610d 59bd
00000140: 86f2 85bb f610 dabd 8bbb fcbc efab 16bd
00000150: a90e 393c 6ec6 293d 7cf1 413d 093a 00be
00000160: fa4e ad3b 71d1 ffbd 057e 3e3e 3d26 6dbe
00000170: 8317 c03c 1688 f4bc 6f67 92bd 3404 b5bc
00000180: 50d0 fd3d 09ff 3e3e c7fd 8b3c e069 45be
00000190: f877 863c f7ff dbbd e974 9abd 19c1 13bd
000001a0: ee46 21be 99db 9ebe de77 8c3e 814c 64bd
000001b0: d5be 60bd 43cd 27be b919 19be b4a3 50bd
000001c0: a580 d3bd 8495 25bd f1e8 503e f872 5e3c
000001d0: 1f16 4f3c 7bae 93bd 5b8f 0dbd 3fe6 513c
000001e0: 5b1c 193e 467d 173d c345 16bc 6ecf c63d
000001f0: e3fa 0e3d b568 98bd 911c d63b 206d e93c
00000200: 9fb0 253e 37d4 bfbd 292c 22be 3579 7abd
00000210: b906 32be 6f01 d7bd d67e 88bc 0100 8e3e
00000220: c31f d93d 9ac7 0fbe e587 dc3d ea59 7d3c
00000230: 88a5 cebb 72d6 0bbe 08c5 763e b8df 39bd
00000240: 886e a1bd c492 14bc 6a8a b3bd 5a66 20be
00000250: 0e7c 17be f011 63be 943f 673e 4e90 f63d
00000260: bb8b ccbd bf47 4a3e 4d91 a23d 497f c9bd
00000270: 0f58 fc3d 29f7 4f3d 1020 6e3e ba17 87be
00000280: 0113 00be 1711 6c3e a121 cd3d 8685 f63d
00000290: 7de4 1abd c643 c8bc ff4a 3a3e 1bf2 a1bc
000002a0: d955 2ebd 263c f13d efdc 883c 1434 353e
000002b0: 9989 96bd a9ae c6bb a7ea 303e 09db 373d
000002c0: 2cf6 853e 926c b53d 2fc9 6ebe 7fc7 4b3d
000002d0: 4216 41bb a8e5 a43d 2b00 31bd 4cb3 6fbc
000002e0: d0b4 a23d c5a9 263d d281 f0bd 33e0 753c
000002f0: 3b66 cf3d 0ed9 cc3c 48e7 e8bd 5bc7 87bd
00000300: c51e 9a3d 3605 86bd 323b 86bd fd08 81b7
00000310: 191b 203c 7b3c a6bd a5db 98bd 683f 6b3b
00000320: 0b1f 93bd d935 983d f1ea a3bd 2f5a 2c3d
00000330: 621e 493d 9bd1 49bd 3727 ccbc 51be 83bd
00000340: 108a 0abe 4b4f 6abc 56a9 cdbd c6cc e73c
00000350: 3326 283d 93d8 d9bd 9c62 a5bb f8da e5bc
00000360: 620b f1bb 5b98 45bd 8b1f f5bd ef3b c7bd
00000370: af3b ecbc 4eec 5bbc 6cd6 80bd 5e75 07be
00000380: e8aa 7c3d d1ff 4d3d 9382 47bd f919 873d
00000390: 32b6 533d bacb febb e68e 8e3d d13c 97bd
000003a0: 5df8 d5bd d6c7 abbc 3d00 b4bd ec19 03be
000003b0: ce62 94bc 05d0 35bd c9bf 0ebc 09e5 febd
000003c0: d8da 443d f3d0 65bd 3b60 06be 6e23 373d
000003d0: 44de 10bd ca29 47bd 5235 08be 566b c23b
000003e0: 913f 303d e59a 85bc 1247 d43c d5e6 f7bd
000003f0: 1b44 edbd d139 60bd 7e76 9abd 12be b5bd
0.0009987536 0.078067586 0.05533204 -0.031531837 0.038640954 -0.045112286 -0.017351525 0.022918401
-0.03737616 -0.05758805 0.05271515 -0.013093764 0.00809924 0.039526198 -0.079922214 -0.053654853
-0.09128356 -0.078188315 -0.06775471 -0.013513063 -0.019307148 0.028696842 0.043910433 -0.11232499
0.016851006 0.051540267 -0.04690069 -0.006203804 -0.10190925 0.03223861 0.013543592 -0.116102055
-0.055920023 -0.050278205 -0.04753449 -0.06859609 0.019537743 -0.074172914 -0.117834926 -0.079548866
-0.09208009 -0.10967877 -0.097344875 -0.13473807 0.04063821 -0.14218901 -0.024622986 -0.053198844
0.07234534 -0.027389972 -0.12458972 -0.10878251 -0.08289349 -0.032929495 -0.041987218 -0.049355417
-0.08109175 -0.09014953 -0.085421726 0.025736157 0.04008085 -0.1170264 0.013480603 -0.044326145
0.024550958 0.02161197 0.037261322 -0.002093521 0.04878447 0.03796476 -0.13777915 -0.003544202
0.02798843 0.03833167 -0.069267854 0.071081094 -0.1139709 -0.14040288 -0.051445805 -0.052991275
-0.004087749 -0.10647766 -0.030851146 -0.036785062 0.011294999 0.041449003 0.047349438 -0.12522139
0.0052889558 -0.1249112 0.1860276 -0.23159118 0.023448711 -0.029850047 -0.07148635 -0.02209673
0.12393248 0.18651976 0.017088784 -0.1927867 0.016414627 -0.10742181 -0.0754183 -0.036072824
-0.15749714 -0.31026915 0.274352 -0.055737022 -0.05486949 -0.16386895 -0.14951219 -0.05093737
-0.10327271 -0.040425792 0.2040136 0.013577215 0.012639551 -0.07211014 -0.034560543 0.012811243
0.14952223 0.036984704 -0.009171906 0.09707533 0.034907233 -0.07441846 0.006534167 0.028494418
0.16180657 -0.09366649 -0.15837158 -0.06115075 -0.17385377 -0.1049832 -0.016662043 0.27734378
0.10601761 -0.14040986 0.10768107 0.015463332 -0.006306354 -0.13656023 0.24098599 -0.04537937
-0.0788241 -0.009068195 -0.08766635 -0.15664044 -0.14793417 -0.22174811 0.22582847 0.12039243
-0.09987589 0.19753931 0.0793787 -0.09838731 0.12321483 0.05077282 0.23254418 -0.2638529
-0.1250725 0.23053394 0.1001618 0.12037186 -0.03781556 -0.02444638 0.18192671 -0.019768765
-0.04256234 0.117790505 0.016706912 0.17695647 -0.073504634 -0.0060633016 0.17277013 0.044886623
0.26164377 0.08858599 -0.23318933 0.0497508 -0.002946273 0.08051616 -0.04321305 -0.01463015
0.079446435 0.04068925 -0.11743511 0.015007067 0.10126921 0.025005843 -0.113722384 -0.06629821
0.075254 -0.06543963 -0.06554259 -1.5382184e-05 0.009772086 -0.081170045 -0.07463769 0.0035895947
-0.07183655 0.074321456 -0.08003796 0.042078193 0.04910124 -0.04927216 -0.024921043 -0.06432784
-0.13529229 -0.0143011315 -0.10042064 0.028295886 0.041052055 -0.106370114 -0.0050471555 -0.028058514
-0.0073560933 -0.048241 -0.11968907 -0.09728228 -0.028837053 -0.013423039 -0.06290898 -0.13228366
0.061686426 0.050292794 -0.04870851 0.06596751 0.051687427 -0.007775751 0.069608495 -0.07384647
-0.10447762 -0.020969313 -0.08789108 -0.12802857 -0.01811352 -0.044387836 -0.008712717 -0.12446029
0.04806027 -0.056107473 -0.13122647 0.044711523 -0.03536822 -0.048623838 -0.1330159 0.0059332056
0.04302937 -0.016309211 0.025912795 -0.121045746 -0.11585256 -0.054742638 -0.07542132 -0.08874144

conv2.bias f4 [10]
00000000: cdda 04be bad6 c93d f8f8 93bd 0cc1 acbd
00000010: 7e51 d33d f610 a13d 7bb3 34be ce0f 18be
00000020: 1f99 f4bd 3e28 89bd
-0.12974091 0.09855409 -0.072252214 -0.08435258 0.10318278 0.07864563 -0.17646591 -0.14849779
-0.11943268 -0.06697129

conv3.weight f4 [10, 10, 3, 3]
00000000: cbef 10be dd62 043e f4d8 873b fb9f 803d
00000010: f729 673d 46fe 503d 671e febb f9c6 47bd
00000020: 7da3 57bd 56f8 62be dadc a8bd e837 693c
00000030: fc4c 7d3d de77 093d 084d 2dbc cb46 c13d
00000040: 7cd0 e7bd 883c eb3d 9d93 863d 788e 87bd
00000050: 7bbd 11bc 37fb 92bd 381d 87bd 8edc 783d
00000060: f860 013e dc64 94bd cc95 28bb 6197 cebd
00000070: e2ab 993b 9aac bdbd ea24 b1bd 197a 103d
00000080: 3528 083d ade0 a93d b2b2 1d3d 2cf6 94bc
00000090: 6d5b d3bd 1ae0 82bd 7a74 75be 1f9c de3d
000000a0: 8aff f93d 6eac 2ebe 56b5 23bc dbd2 a33d
000000b0: c22a 7d3c 10a9 a13d 705f 353e 7b15 bebd
000000c0: ef17 0cbd c616 933c 6865 49bc 92f1 c5bd
000000d0: febc 5ebd 4fa3 713d 55b6 e3bc 8c3f f43d
000000e0: b242 d4bc d33c a8bd 7e94 afbc 2d48 7dbd
000000f0: c5cc 11be 0a80 03be 9691 6abc f72e 2abc
00000100: 56f8 dcbd b415 d43c 619b d23d d61d f6bc
00000110: 2b6b 383d 5bc1 aa3c cc96 36bd de78 443e
00000120: b4aa ff3c eaa1 903d 4c82 163e 1a72 01be
00000130: 108a c23d d4d7 cd3d 54f1 663e fa31 95bc
00000140: d710 233e 3e39 51bc bc32 ea3d 932c 183e
00000150: 5375 483d 2d3f ce3d 9446 283d ec33 20be
00000160: 1152 c83d 51e8 bfbd c575 20bd 5033 d03c
00000170: 9a25 1e3d fe96 a9bc 0ab0 15bd 3d06 e0bd
00000180: f4b1 ab3b 2242 d5bd efcd 9dbd ecf6 39be
00000190: a464 bb3d 7198 223e a570 793b 324e 503c
000001a0: 0fce 953d deca 403e cc4b 273e 41ec 3fbe
000001b0: 4baf bdbd 92e5 b13d f7e8 053d 3eaa a7bc
000001c0: 08d6 993d 9bfb 063c f160 b93d d60d a03c
000001d0: 5e5b cbbc 488c 893d 659f 69bd 57f5 1cbd
000001e0: 40d7 2bbe 6aa9 1ebd d870 b1be 225c 2b3e
000001f0: 22ff b03c 94f0 aa3d 83a7 3c3d aded 65bc
00000200: 7330 5e3e 998b d73d 4542 40be fe36 9d3d
00000210: 0df6 363d 9225 853d c485 06be e15d 393d
00000220: 3bf3 f0bd 4e02 23be 1739 4ebd 9f1a d33d
00000230: 0bd7 753e 1812 e93d f468 cfbc ee24 7dbe
00000240: 6037 2dbd 8239 d53c a618 cfbd e271 70be
00000250: c84f 14bd 07d6 c73d f3e7 9a3d 16d5 a13d
00000260: 5f54 ad3b aa10 d83d ed37 383d 2897 933d
00000270: 90be 85bd 6a5b 89bc bb8b ee3c 2a37 783d
00000280: 305a 5bbd 9f9b cf3d 0122 a4bc de12 3c3c
00000290: 570c 4fbd d588 b63d 46b1 893d af52 96be
000002a0: 95c7 203d b08c c63d f415 1a3e 6425 043e
000002b0: 1a05 dabd fe9e 44be 204f 263e d99c 153d
000002c0: 945a 7ebd d2fd bcbc 9992 4f3c 4067 aabd
000002d0: c0de 20bd e43f 64bc 5eae 7fbd 911d 81bd
000002e0: 02b0 fb3d 2540 bf3d c3b7 1c3d 576e 1fbc
000002f0: 0ccd dd3d 6b9a 8ebd f080 84bd 5c9c 47be
00000300: fae6 973d e408 21be 8b4d 94bd c25e da3d
00000310: 675e 973e 8bba b53c 2ff1 debc 16a1 20bd
00000320: 7e14 19bc 8ca6 2a3d ae24 eabd 4b33 80bd
00000330: cc4d 943c 6ac6 78bd 4429 3fbd 46eb 64bd
00000340: dc37 d83b a1a2 c33c ad97 893d 2c24 903c
00000350: 8eed 53bd 2a7f 27bc ce59 0dbd 6706 38bd
00000360: 9a25 293d 893f 8e3d 9a01 5cbb d401 2fbe
00000370: 7d1e 5b3d d1d6 7f3e e4e9 6f3e 6c01 43be
00000380: 7eda 18be c7cd b6bd 6374 85bd 0e73 30bd
00000390: a711 7f3c 6d3e d63d 9a07 9ebd 13c8 823e
000003a0: 751b 38bd c192 c0bd 2280 97bb 60ca 5d3c
000003b0: 3e5c d3bd 80f1 60bd 9783 7cbc 45f1 223c
000003c0: cec9 e93d 11a9 8ebe 5f16 e5bc 0d67 053d
000003d0: 9691 e7bc 6d40 c7bd 54a8 a1bb 0f93 e93d
000003e0: 7ffd 753b c781 833e 74d5 46be 693a 7e3e
000003f0: 1555 3f3e 39fd 85bd 57cc cf3c 3601 023d
-0.14153974 0.12928338 0.004145736 0.06280514 0.056436505 0.051023744 -0.007755089 -0.04877374
-0.05264615 -0.22165045 -0.08245249 0.0142345205 0.061840996 0.03356158 -0.010577448 0.09437331
-0.11319062 0.11486155 0.06571124 -0.06618971 -0.008895273 -0.07176822 -0.0659737 0.060757212
0.12634647 -0.072458 -0.0025724052 -0.10087467 0.0046896795 -0.09261437 -0.08649619 0.03527269
0.03324147 0.08294807 0.038500495 -0.01818379 -0.103201725 -0.063904 -0.23970214 0.108696215
0.12206943 -0.17057964 -0.009991964 0.07999202 0.015452089 0.07893574 0.17712188 -0.09281441
-0.034202512 0.017955195 -0.012292244 -0.096652165 -0.054379456 0.058993634 -0.027796904 0.11926183
-0.025910709 -0.08214726 -0.021433111 -0.06183641 -0.1423827 -0.12841812 -0.014316937 -0.010387174
-0.10789554 0.025889255 0.102835424 -0.030043524 0.04502408 0.020844152 -0.044577405 0.19186732
0.031209327 0.07062133 0.14698142 -0.12641183 0.094989896 0.100509316 0.22552997 -0.018212307
0.15924393 -0.012769995 0.11435458 0.14860754 0.048940014 0.100706436 0.041082934 -0.15644807
0.09781278 -0.09370483 -0.039174814 0.025415093 0.03861008 -0.020701881 -0.036544837 -0.1093869
0.0052397195 -0.104130045 -0.07705294 -0.181606 0.09150055 0.15878464 0.0038061526 0.012713956
0.07314693 0.18827388 0.16337508 -0.18742467 -0.0926195 0.08686365 0.032692876 -0.02046692
0.07511526 0.008238698 0.09051693 0.019537847 -0.02482384 0.0671621 -0.057036776 -0.03831991
-0.1678133 -0.038735785 -0.34656405 0.16734365 0.021606032 0.08346668 0.04605819 -0.014033717
0.2169817 0.10524673 -0.1877528 0.076765046 0.044668246 0.065013066 -0.13136965 0.045255546
-0.117651425 -0.15918848 -0.050347414 0.10307812 0.24007814 0.11380404 -0.0253186 -0.24721119
-0.042289138 0.026028398 -0.10112123 -0.23480943 -0.036208898 0.09757619 0.07563772 0.07901971
0.005289599 0.105500534 0.04497521 0.07206565 -0.065304875 -0.016767222 0.029119363 0.060599484
-0.053552806 0.10137104 -0.020035746 0.011479108 -0.050548878 0.089128174 0.06723265 -0.29359958
0.039252836 0.09694803 0.15047437 0.12904888 -0.10645504 -0.19201276 0.16241121 0.036526535
-0.0620981 -0.02307025 0.012669229 -0.083204746 -0.03927493 -0.013931248 -0.06242215 -0.063044675
0.1228943 0.093384065 0.038261186 -0.009730897 0.10830125 -0.06963047 -0.064699054 -0.1949324
0.07417102 -0.15726048 -0.07241353 0.10662605 0.2956421 0.022183677 -0.027214615 -0.039216124
-0.009343265 0.041662738 -0.11432777 -0.06259783 0.018103503 -0.060736097 -0.046670213 -0.055888437
0.006598456 0.023881258 0.06718383 0.017595373 -0.05174022 -0.010223189 -0.034509473 -0.04492798
0.041295625 0.06945712 -0.003357029 -0.17090541 0.053495873 0.2498429 0.23429066 -0.19043511
-0.14927098 -0.08925968 -0.0651634 -0.043078475 0.0155681735 0.104611255 -0.07716294 0.2554327
-0.04494806 -0.09402991 -0.004623429 0.0135370195 -0.10320328 -0.054917812 -0.015412233 0.009945218
0.11415444 -0.27863362 -0.027964769 0.03256898 -0.028267663 -0.09729085 -0.0049333964 0.11405002
0.0037535129 0.2568495 -0.19417363 0.24826969 0.186848 -0.06542439 0.025365992 0.031739436

conv3.bias f4 [10]
00000000: 49ca 613e 72ef 653c b7cb 433e 6499 783b
00000010: dcb6 81bd ff53 1ebe 8754 ae3e 9b0b 12be
00000020: 091b 5fbc 12bd b33c
0.22049822 0.014034139 0.1912068 0.0037933225 -0.06333706 -0.1546173 0.34048864 -0.1426224
-0.0136172855 0.021940742

conv4.weight f4 [10, 10, 3, 3]
00000000: 0085 f63d d8d3 cb3d 9098 c2bc 0e54 d9bc
00000010: e541 c0ba 5dbe 0fbe faee ea3c 6fa3 b5bd
00000020: fd7f 3bbd 5860 63bd 772b 91bd 025e 863c
00000030: cb81 44be 8c63 273e 63f3 1d3e 523b 3cbd
00000040: 8160 883c 87a4 aebd cdd5 b83d 64d2 063e
00000050: da7f 3a3d 071c 8dbd 1808 bdbd 8fcb f33d
00000060: a1ad 853c 2eee 7dbe a6d9 2b3e 52dd 6bbe
00000070: a580 24be 8797 c3bd 4abd 023e 394a 4f3e
00000080: 4c4a 963d 3978 373e d8df a4bc 2703 4abd
00000090: 79d6 92bc fe01 bbbd be25 53ba 9862 3f3d
000000a0: 6520 86bd dc98 69bd 3e3e 853c 4fb7 31bc
000000b0: 3302 da3d 2e17 b5bd 3c11 033d 9ead aabc
000000c0: 104a 643d 3487 d33c 00dd 51bd b27c da3d
000000d0: 796c 8c3d 2158 a03d 38ec d9bd e6ef b63e
000000e0: d583 663e 2b11 763d 6bb1 003e c748 a0bb
000000f0: ffda 67bd 9108 cc3d 7142 883e 4060 2c3d
00000100: 298e c7bc a062 0cbe e7ee f83d f1de a83c
00000110: 0a57 8ebb 5241 debd ea45 173c bfab cdbd
00000120: fdbf 86be 8599 8b3c ab6a a0be d35c 213d
00000130: 0884 913d 0727 943d ab3a 4d3d b1b2 debc
00000140: 39dd b8bd 1a91 e6bd 5209 443e 572c b1bc
00000150: 6809 05be 1cc2 c23d 0d96 dc3d ab95 e03b
00000160: 4e82 17be 1621 38be a05f 163e 3215 d63b
00000170: c654 38be 45dc 293e 8b7b 153d 6bb1 10be
00000180: ce8c 81bd 1c78 4d3d 2d0c bebc b394 083d
00000190: e52d 21be 07d5 eabd 8918 e7bc bb18 093e
000001a0: 7bdc c3bd ab73 13be d446 1a3e f53a 34be
000001b0: 9910 82bd 8763 0bbe 4188 5d3e 7635 623d
000001c0: fbc0 513d c2d1 123e 342f 8f3b f4ca 88be
000001d0: a872 26be c72f d73d 3a25 9abd e529 9dbe
000001e0: ad32 9dbd 90ff 14bc 8251 aa3d 1154 483e
000001f0: 03bc 1f3c b9ea 95bc 124f ecbd 3088 e0bd
00000200: f226 223d b39e 9dbc 6878 bc3d 98e0 77bd
00000210: cfac c23c 79da 1ebd 9698 29bd b1e0 a03d
00000220: c0ad 21bd c85b 833d b050 bebc bbf0 c63c
00000230: 60d3 863d 9240 e7bc fe6d cabd a6fa f43c
00000240: b8c0 05be 4991 493e 2936 eabd 39d0 96be
00000250: 66f5 f9bd 3e38 b13e c0f2 1ebe e687 563d
00000260: 5241 a73d 4ed0 dbbc f0f3 103c f355 62bd
00000270: 4ff3 003e 47cc 093e 3da9 173d f35c 143e
00000280: 4c84 843d 78cf 443e ed87 313d 5ad5 df3d
00000290: ea84 32be 47f5 5e3d 9b62 343e b600 1b3e
000002a0: 7118 a4bc efd9 80bd 14e0 5fbe 3134 efbd
000002b0: 5913 543e 3e05 d7bc b932 053e 5685 413d
000002c0: 5a96 323e 9180 05bd d649 dcbd 2374 babd
000002d0: bba8 73be 3a2e 9dbd c3c2 373e 7803 eabd
000002e0: f279 63bd e59a 963d 46d7 123d 12e3 243d
000002f0: e855 d03c fdc6 2ebd afca 47be f35d 313e
00000300: d4ad 4d3d 3711 20be 042c f83d 2646 68bd
00000310: 8789 8dbe 20a0 a83d 76c5 5ebc 9496 583d
00000320: ca03 f3bc d775 19be 808b 45be 870c 6c3e
00000330: 53fe 9cbd 03c4 dabd 28f3 0e3e 2bf3 eabc
00000340: 2bfa dc3d 66ec c3bd 884f 9a3d 871e 233e
00000350: fbc9 35bd d5f4 a33c 487e 54bd c585 c0bd
00000360: bf62 6cbd d632 b43c 121a 11be acc3 0bbd
00000370: 7c4f 8bbd 35a1 633c 37ca d63c 52cc 803d
00000380: 4982 9a3a 0275 1f3d 75c0 3ebd 278a b8bd
00000390: b1db 4a3d 43fb 0bbd 362d 583d 4e2f eaba
000003a0: ca6d 12bc 09a8 b6bd b4d5 dbbd c24e 4f3d
000003b0: 2194 903d 4783 cebc 723f 48be 119c 8c3e
000003c0: 5ea6 49be 7b00 813e 3475 193e fff2 89bb
000003d0: b12f 0abb ca57 a93d 41b1 cbbb 40ff 97bd
000003e0: 48e1 aebc 68f2 283e f35c ef3d 60aa 303d
000003f0: 94de 0f3e 4b0f 123e c2de 48be 2ce4 033e
0.120370865 0.09952515 -0.023754388 -0.026529338 -0.0014668076 -0.14037462 0.028678406 -0.08869063
-0.045776356 -0.055511802 -0.070883684 0.016402248 -0.19190137 0.16346568 0.15424876 -0.04595501
0.01664758 -0.08527475 0.09025154 0.13166195 0.045532085 -0.068901114 -0.092300594 0.1190406
0.016318144 -0.2479789 0.16782245 -0.23033646 -0.16064699 -0.09550386 0.1276752 0.20243157
0.0733839 0.17916955 -0.020126268 -0.049319413 -0.017924534 -0.09131239 -0.0008054635 0.046724886
-0.065491475 -0.057030544 0.016265031 -0.010846927 0.10644951 -0.08842312 0.031998858 -0.02083474
0.055734694 0.025821306 -0.051236153 0.10668315 0.06856627 0.07829309 -0.10640758 0.35729903
0.22511227 0.060074966 0.1256768 -0.0048914882 -0.056605335 0.099625714 0.2661319 0.04208398
-0.02435978 -0.13709497 0.12154942 0.02061412 -0.004343872 -0.108523026 0.009232977 -0.100425236
-0.2631835 0.017040977 -0.3133138 0.039395165 0.07105261 0.072340064 0.05010478 -0.027184816
-0.0902657 -0.11258145 0.1914418 -0.021627588 -0.1299187 0.0950968 0.107708074 0.0068537793
-0.14795801 -0.17981371 0.14684916 0.0065332884 -0.18001089 0.16587932 0.036494773 -0.1413018
-0.063256845 0.050163373 -0.023199165 0.033344936 -0.15740164 -0.11466413 -0.028209941 0.1338834
-0.09563538 -0.14399593 0.15066081 -0.17600615 -0.06350822 -0.13612185 0.21634008 0.055226766
0.05120943 0.14337829 0.0043696407 -0.2671734 -0.16254675 0.1050716 -0.07526632 -0.30696025
-0.07675681 -0.009094134 0.08316328 0.19563319 0.009749415 -0.018300401 -0.11538519 -0.10963476
0.039587922 -0.019240713 0.09202653 -0.060516924 0.023764042 -0.03878257 -0.041405283 0.078553565
-0.03947234 0.0641399 -0.023231834 0.024284711 0.06583285 -0.028229032 -0.098842606 0.029904675
-0.13061798 0.19684328 -0.114361115 -0.29455736 -0.12205009 0.34613222 -0.1552229 0.052375697
0.08166756 -0.026832726 0.008847222 -0.05525775 0.12592815 0.13456832 0.037026633 0.14488582
0.06470546 0.19219768 0.04334252 0.109293655 -0.17433515 0.054433133 0.1761574 0.1513699
-0.020031186 -0.062915675 -0.21862823 -0.116798766 0.20710506 -0.026247617 0.1300763 0.0472463
0.17440167 -0.032593314 -0.107562706 -0.091041826 -0.23794834 -0.07674833 0.1794539 -0.11426443
-0.055536218 0.073537625 0.035849832 0.040255614 0.025431588 -0.04267024 -0.19510911 0.17320995
0.050214604 -0.15631567 0.1211777 -0.056707524 -0.27643988 0.082336664 -0.013596883 0.052877977
-0.029664893 -0.14986359 -0.19291496 0.23051654 -0.07665696 -0.106819175 0.13959944 -0.028680405
0.10789903 -0.09566574 0.07534701 0.15929614 -0.044382077 0.020014206 -0.051878244 -0.094005145
-0.05771136 0.021996897 -0.14170101 -0.034122154 -0.0680227 0.013893415 0.02621947 0.06288971
0.0011788096 0.038929947 -0.04657026 -0.090107255 0.04952592 -0.03417517 0.05277749 -0.0017866881
-0.008937309 -0.08918769 -0.1073412 0.05061222 0.07059503 -0.025209082 -0.19555452 0.2746282
-0.1969237 0.2519568 0.14986116 -0.0042098756 -0.0021085555 0.082686976 -0.0062161987 -0.07421732
-0.021347657 0.1649872 0.116876505 0.043131232 0.1404975 0.14263646 -0.19616225 0.1288001

conv4.bias f4 [10]
00000000: f27b 61be 3d09 993d 3187 e6bd 380e 503d
00000010: 92db 83bd a2d2 bdbd 4f2c c23d 1813 ba3d
00000020: 57fc 0bbe a73d ecbd
-0.22019938 0.07472465 -0.112562545 0.05079481 -0.06438364 -0.09268691 0.094811074 0.09085673
-0.13670479 -0.11535197

norm.weight f4 [10]
00000000: f70b 853f 74ab 863f 5c07 7f3f a325 8d3f
00000010: 4e3d 873f cc39 8e3f c021 7d3f 4183 813f
00000020: 7124 913f 3751 843f
1.0394276 1.0521073 0.99620605 1.1027111 1.0565584 1.1111388 0.98879623 1.011818
1.1339246 1.0337285

norm.bias f4 [10]
00000000: cb13 1bbf dfa5 36bf 5ee8 2abf 6b28 04bf
00000010: a73a 11bf 0bed 47bf eedb 45bf 11a4 1cbf
00000020: bdcd 16bf 353e 08bf
-0.60577077 -0.7134685 -0.66760814 -0.5162417 -0.5673012 -0.78096074 -0.7728871 -0.61187845
-0.5890768 -0.5321992

norm.running_mean f4 [10]
00000000: c5a6 233d f050 71bd aab6 89bb 20a1 ae3d
00000010: e610 2abd a9b8 b23d 6478 b1be c826 dcbd
00000020: 85b8 02be f0bf 1bbe
0.039953966 -0.05891508 -0.0042026835 0.08526826 -0.04152002 0.087266274 -0.34662163 -0.107495844
-0.12765701 -0.15209937

norm.running_var f4 [10]
00000000: 1725 143d a035 193d 63b9 b63c e614 453d
00000010: e6f0 3a3d 2a67 d53c 2bd7 1a3d f93a ea3c
00000020: 0a5c 843d bfdf 283d
0.036168184 0.037404656 0.022305196 0.048115633 0.045639895 0.026050169 0.037802856 0.028592573
0.064628676 0.041229006

fc1.weight f4 [50, 810]
00000000: 1c3a 87bd 71b4 51bd 8439 71bc cb01 e83c
00000010: 3ce3 b93e 8763 9c3e c14b 273d 8b77 543c
00000020: 060f 76bd fc2c c0bd 4702 2d3d c0ef 5c3d
00000030: 093f e5bd 2003 c93d 2b26 3b3d c4a5 26bd
00000040: 6e9c 27bd b913 873d 9085 0fbe 523b 9d3d
00000050: b4cf 173e 49b3 8d3d d9e0 d13d 6b55 08bd
00000060: 1c1c cdbd 89b1 e0bd 97d9 0cbd e041 c6bc
00000070: dccd abbd 904d f13c c22f 38bd 70dc de3c
00000080: d371 25bd 9c56 7dbd 595f d33d edfb ccbd
00000090: b306 8a3c 1b93 883d 4fcb 96bd b3e3 8b3b
000000a0: a0b4 ed3c 4f6c 69bd ee16 dabd 9788 eebd
000000b0: 7fd6 12bd 8342 63bd 7d31 803e ee5c 41bb
000000c0: 026f c13d f1ab 8bbd 6879 423c a552 0cbc
000000d0: 82ee 85bd 9745 8a3c c6f5 78bd 5400 dfbd
000000e0: a3ca 89bd 56b5 4abc e6c3 3fbc ba80 863d
000000f0: 336f eabd b9f9 4c3d 2927 843c 4919 943d
00000100: 37fd 43be 9b8f 373d 5ad5 09be 7e48 fabd
00000110: 89f9 e73c 4868 5abd c4d1 7cbc 0c6a a1bc
00000120: 52b2 213c c352 923d d86f 2f3e 738f 143e
00000130: 5d56 a3bd 3f0f 05bd f99f 013d a4e7 253c
00000140: 170d 0b3e e67e 87bd 6b93 12bd bdcc 2b3e
00000150: 6eca b73c 37c0 403e b310 7a3e 9f6b 573d
00000160: d483 1e3c 2a99 e0bc ba1c 96bc 20e3 19bc
00000170: 2233 fcbd 0dec 20be 540b 393e f67a 99bd
00000180: e131 363d c7ea a9bd 6b0a b2bb 1d4e 05be
00000190: c68d 963d 96fc adbc 29ea af3c 1c32 2e3d
000001a0: be30 4ebd 4ca6 d1bd 40a4 613c 0f31 0abc
000001b0: f796 f2bd 0a19 803c 2a88 d93c 2205 0abe
000001c0: 689d 913c c6ed 553d fedb 6d3d a267 09be
000001d0: 0ab9 38bc a71f a63d bad8 fdbd d502 19bd
000001e0: 42a1 de3c 4c67 4f3e 4ac3 3abd 897d d9bb
000001f0: 0a7a c23d fefc 32bd f6ed e03c 6c9e 433b
00000200: 15ab ba3c 42f6 f63d 362a 58bc 6e18 ae3b
00000210: 18c9 1ebc baf8 3f3c 52ab 1dbd 6cf3 9cbd
00000220: d2c5 fe3d 766c 88bc 683d 42bd 663b 9bbc
00000230: e324 2b3e 2661 e5bc 152b b2bd f477 95bd
00000240: fd61 9e3d dd82 55bd 80cc fd3c a271 4f3d
00000250: 16f1 fabd 8957 083d e4f5 aebc b965 953d
00000260: 0b26 443e 3545 033c ce64 11be 5605 3a3d
00000270: b07e 973b e98f 6ebe e0b7 e43b cd41 9abd
00000280: 3af5 b53b a997 293e c51a 4b3d 6721 b23c
00000290: 089e 04be 16ea 013e ce57 ddbc 0167 ec3d
000002a0: fb9b 163d 9e28 a13c 82d2 4cbd ca99 62bd
000002b0: 9d8d 1bbd b168 4dbd 1b0d c7bd 7498 5f3e
000002c0: cff3 f23d a4ae 453d c80a 1abe c8e6 a73d
000002d0: 22c2 b8bd 39a9 5b3d 5c04 a03b 6bec b0bd
000002e0: 6756 9a3d d6c9 073e f540 b53d 49ae 383e
000002f0: 1182 a8bc a40f c6bc 9a55 33bd 7d30 31bd
00000300: 53fd 43bc d050 903d eaa4 c53c 55c6 973d
00000310: c57e 53bc 156a adbd a165 213e d24a 05bd
00000320: f94d 57bc 4222 47bc 10d3 98bd cf6c 9c3d
00000330: 0b28 4cbd e674 c4bd 1e14 993c 5649 d33d
00000340: 51ec ae3c e637 d7bc 9043 abbd e8f6 1abe
00000350: 2ac3 6abd beee 20be 50d5 723d 8dff 473d
00000360: e44d 1bbe 8613 393c 3265 0abe 2da7 45bd
00000370: 832e 5b3d f121 6b3d 26db a1bd a370 7abe
00000380: 5989 1cbe 746a 093d f79a 30be e328 d0bc
00000390: 87e5 8abe 4637 263c 3909 23bb f0f5 adbd
000003a0: c370 02be 3cf8 25bd 261d babc 5c5b 93be
000003b0: d616 7c3d 1511 a1bc 4934 a8bd 01a8 e1bc
000003c0: 9fff 233e f2de d6bc 36c1 813d 9b8a 80bd
000003d0: 1c95 303b 7a37 2ebd ae7f aabc 0236 0d3e
000003e0: 8dc2 113e eff7 653d 00f0 5bbb e00f febd
000003f0: e3d0 21be 7906 e93d efb5 e43c 0fc6 8bbd
-0.0660288 -0.051197473 -0.014723185 0.028321167 0.3630618 0.30544683 0.04084373 0.012967954
-0.06007292 -0.0938358 0.0422385 0.05393958 -0.111936636 0.09815049 0.045690697 -0.04068543
-0.040920667 0.06595559 -0.14015794 0.0767733 0.14825326 0.069189616 0.102479644 -0.033284586
-0.10015127 -0.10971362 -0.034387197 -0.024201334 -0.08388874 0.02945593 -0.04496742 0.027204722
-0.040391754 -0.061850175 0.103209205 -0.100089885 0.016848898 0.06668683 -0.07362997 0.004269087
0.029016793 -0.056988057 -0.10648905 -0.11647146 -0.03584909 -0.055483352 0.25037757 -0.0029504853
0.09445001 -0.068199046 0.011869766 -0.008564626 -0.065396324 0.016878886 -0.060781263 -0.108887345
-0.06728103 -0.012372335 -0.011704421 0.065675214 -0.11446991 0.05004284 0.016131954 0.07231385
-0.19139563 0.044814687 -0.13460293 -0.12220858 0.02831723 -0.053322107 -0.015430871 -0.019703887
0.009869175 0.07144692 0.17132509 0.14507847 -0.07975457 -0.032485243 0.031646702 0.010126028
0.13579212 -0.06616001 -0.03578512 0.1677732 0.022435393 0.18823324 0.24420433 0.05259287
0.009674985 -0.027416784 -0.018324245 -0.00939253 -0.1231444 -0.15715046 0.18070728 -0.07494156
0.044481162 -0.08296733 -0.005433371 -0.13018079 0.0735126 -0.021238606 0.021473961 0.042528257
-0.050339453 -0.10236797 0.01377207 -0.008434548 -0.118452005 0.01563694 0.026554186 -0.1347852
0.017775252 0.05222871 0.05807113 -0.13418439 -0.0112745855 0.08111506 -0.12394853 -0.037356216
0.027176503 0.20254248 -0.0455964 -0.0066372794 0.09495933 -0.043698303 0.027457219 0.0029849065
0.022786656 0.12058689 -0.013193658 0.005312971 -0.009691499 0.011717016 -0.038493462 -0.076636165
0.12440075 -0.01665328 -0.047421843 -0.018949222 0.1671329 -0.028000426 -0.086996235 -0.0729827
0.077335335 -0.052126754 0.030981302 0.050645478 -0.12253015 0.033286605 -0.021357484 0.07294793
0.19155137 0.008012106 -0.1419861 0.045415245 0.0046232566 -0.23297085 0.0069799274 -0.07532082
0.005552915 0.1656176 0.049586076 0.021744443 -0.12950909 0.12686953 -0.027019408 0.11543084
0.03676985 0.019672688 -0.050005443 -0.055322446 -0.03797685 -0.05014867 -0.097192965 0.218355
0.11862909 0.048262253 -0.15043175 0.08198315 -0.09021403 0.05362818 0.004883332 -0.08638843
0.07536011 0.13260588 0.0885028 0.18035235 -0.020569833 -0.02417738 -0.043782808 -0.043259133
-0.011962253 0.07046664 0.024126489 0.07410876 -0.012908642 -0.08467499 0.15761425 -0.032542057
-0.013141149 -0.012154164 -0.07462132 0.07637941 -0.049842875 -0.09592609 0.01868635 0.10316722
0.021352919 -0.026271772 -0.08362496 -0.1513325 -0.05731503 -0.15716073 0.059285462 0.048827697
-0.15166432 0.011296159 -0.13515165 -0.048255134 0.053511154 0.057405416 -0.07903127 -0.2445703
-0.15286769 0.033548787 -0.17246614 -0.025410121 -0.2712824 0.010145014 -0.0024877323 -0.084941745
-0.12738328 -0.040519938 -0.022718977 -0.2878064 0.061545216 -0.019661466 -0.082130976 -0.02754593
0.1601548 -0.026229355 0.0633568 -0.06276437 0.0026944345 -0.042533375 -0.020812836 0.13790134
0.14234371 0.05614465 -0.00335598 -0.12405372 -0.1580234 0.11378188 0.027918784 -0.06824886

fc1.bias f4 [50]
00000000: 37b5 a7bc 17e9 7abd 9702 89bc 4db4 02bc
00000010: 2e55 64bd 6e12 55bc 402d b7bb dfaa 33bd
00000020: bee5 92bc 0ff2 38bd bfd9 0bbd a7ca 3dbd
00000030: 0666 77bd b21b 663c 96c6 1ebd 4327 9abc
00000040: 22de 4d3d 6514 dcba a6a0 5e3d 3f8e 6ebd
00000050: 618d 13bd 5edd 6dbd 61f3 553d 60a6 323d
00000060: 4a8d ebbc 403d cabc 68d8 26bd 6c3d 73bd
00000070: 8be1 ba3b ae68 1b3d 822f 42bc b50d ba3c
00000080: 6cf2 3bbd 1787 86bc 5037 87bc cfab 5fbc
00000090: e969 42bd a9b0 1fbd 5c62 8ebc b3d6 2bbd
000000a0: 36e0 1c3d b9f4 74bd 5201 5abd 9c31 feba
000000b0: 1a4c dcbc e855 a1bc 5be9 32bd 6334 ee3d
000000c0: e21c d53b ae19 0dbd
-0.020472152 -0.061257448 -0.016724868 -0.007977557 -0.055745296 -0.013004882 -0.005590111 -0.043864127
-0.017931815 -0.04515272 -0.034143206 -0.046335842 -0.06040003 0.014044689 -0.038763605 -0.01881755
0.05026067 -0.0016790746 0.054352425 -0.058241125 -0.0360235 -0.05807244 0.052234057 0.0436157
-0.028753895 -0.02468741 -0.040733725 -0.05938475 0.0057031563 0.037941627 -0.011852147 0.022711614
-0.04588549 -0.016421838 -0.016505867 -0.013651802 -0.047464285 -0.038986836 -0.017380886 -0.0419528
0.03829976 -0.0598037 -0.053223915 -0.0019393447 -0.026891757 -0.019694284 -0.043679576 0.11631086
0.0065036872 -0.03444832

fc2.weight f4 [7, 50]
00000000: d6a7 33be 4b2f bebd 72ff 12bc 364a 60be
00000010: 5cc2 cd3b 3c2b 3ebe 1674 4cbb 8d48 eebd
00000020: 4528 b5bd 2caa 47be 0fad 77be e1e9 813b
00000030: 7a79 4a3d 0e77 ae3e 3888 4a3d f9f1 a9be
00000040: 7030 913e a47b 063e 2c61 3ebe 4feb 343d
00000050: 4df3 c8bd f154 453c 8100 4d3d 8da2 5e3e
00000060: fae1 1fbe 0c2f 233d a7db a63d 3977 febb
00000070: b589 0abd 3539 b83c a5cf 663c 3c29 4e3e
00000080: 500b 123d bd31 99be 0e77 483e 6deb 8ebe
00000090: fdb5 36be a76a 79bb b9a7 18be 9160 853b
000000a0: 7fe2 373d 8657 7abe d257 b13d 5500 1ebe
000000b0: a0eb 5dbe b12d 72bd 1da0 03bd ead7 8a3e
000000c0: db27 b0bd 85cc 7abd 70ae adbd 8190 cbbd
000000d0: d101 833d b08c df3d 2896 413c aa56 10be
000000e0: 1b07 e33d ab5f 18be c3ed b4bd 5f0e 193e
000000f0: adb9 a23e a7e4 01be 5546 523d 8c5d 83bc
00000100: 44ff 033c ab2a 3a3e dfa0 7cbd cb88 a53c
00000110: be72 5c3e 0206 923d 11c0 113d f4f3 833d
00000120: 33bc 213e 81cc 1c3e 2048 8fbe 5e4d 75be
00000130: cd3e 8abc 8cce 1a3d beb9 60be 175c acbd
00000140: 1649 17bd 349d d13d 5aa2 453e 5514 59be
00000150: ce9d 85be 9108 88be 66d5 9b3d baa7 ba3d
00000160: 557f 5abe f9e4 cf3d fc9b a73d 0baf 23be
00000170: 9052 38bc 5207 5e3d 21b5 b63b 0eba 3ebd
00000180: 6432 b2bc f585 fc3c 0726 a8bd 7417 8b3d
00000190: 4505 3d3e 7dcc a3bd 906c adbd f1c9 363e
000001a0: eb62 783d adbc f63d 519e 633e de4d d7bd
000001b0: d891 60bd 537e e73d 1802 4bbe 91c8 c93d
000001c0: df2e 023d 8856 4bbe 9718 ce3d 028b b03c
000001d0: b1f7 853d 95cf 4bbe 2351 dfbd c7bd e2bd
000001e0: 168b f6bc 12db d03d d4c9 93bd 4eea 3f3d
000001f0: 2fa6 453d bfbe 613d 9732 04be bafd bb3d
00000200: 8832 7bbe 4dd3 b0bd 7acd fc3d fd16 ae3b
00000210: 63c9 263d 6544 e1bd 7722 94be 1089 123e
00000220: 7329 cebc 400c b83d c1b4 3c3e d86a 8abd
00000230: 8d05 13be a0ee 45be 622b 9dbc 7113 e6bc
00000240: 29b5 b93d 7392 ba39 7675 c53d b693 003e
00000250: a08f 13be 5c7b 8d3d 4517 24be 8208 48bd
00000260: 85dc 29ba af63 04be 1463 39bd ed10 2c3d
00000270: 5cab d7bd 71e7 edbc 10ac 773d 1f61 843e
00000280: ccd9 31bd e9ae 5dbd 8390 b1bc 30a2 ee3c
00000290: e5bd ca3d ebb2 683e 538c aabd 9c90 1c3e
000002a0: cac1 36bd 5614 b43d 7df8 f7bc 8e08 203d
000002b0: 75c4 58be ad1d b43d 0408 043e 1a15 bf3d
000002c0: e39e bfbd d67c a43d de3b 84be 726e a7be
000002d0: 939c c5bd f335 e0bd 2325 f4bd dbd6 123e
000002e0: 7395 973d c9d6 c43d 19f1 45bd aa98 33be
000002f0: 6e9f 283e 4583 07be e09e 4dbe 8c7a 2e3e
00000300: 67cf 5c3d 0668 94b9 d9fd 38be 9a8c 8ebd
00000310: 8430 a4bd 32dd 9cbe 378e 783d 7197 30bc
00000320: a26d 37bc c3e0 f1bb 515e 2cbd 96b7 1d3e
00000330: 81aa 5ebd 4a3e 893d 4539 94bc ce05 97bd
00000340: 33d2 9d3c b44d 82bd a0d3 da3d cd73 00bd
00000350: fb2b 4cbc 3241 203e abfa 103d 5d05 56bd
00000360: e5ce c9bb 63e7 3abe 6fdf babc d884 d5bd
00000370: 54af ea3c 6708 27be c502 e03d f76c 1bbe
00000380: f055 623e b57f 67be 649f d33c d006 95bc
00000390: 824b 4abe 525a 6cbe 27e5 e3bd a99a 013e
000003a0: ac9f 683d d4a8 c4bd 71d1 3f3e 1986 083e
000003b0: a572 66bd b76b cb3d a9f6 1cbe d76c 3c3c
000003c0: 3d3b 89be ee5a e83c 9846 33bd 6f95 c93c
000003d0: cb07 aabb 527f f43d 0015 09be e686 5abd
000003e0: 4e58 a0bd 3ef8 123e 40af c2bd 4b29 ff3d
000003f0: 52d9 bb3d 5dcc 00be e1cc 08bd 093a bcbd
-0.17544493 -0.09286364 -0.008972036 -0.21903309 0.006279273 -0.1857118 -0.0031197122 -0.11634932
-0.088455714 -0.19498509 -0.2418711 0.003964648 0.049432255 0.34075207 0.049446315 -0.33192423
0.28357267 0.13133103 -0.18591756 0.04416972 -0.09812031 0.012044177 0.05004931 0.21741696
-0.15613547 0.03983979 0.08147364 -0.0077656773 -0.033822734 0.022488216 0.014087592 0.20132917
0.03565532 -0.2992076 0.19576666 -0.2791399 -0.1784286 -0.0038057955 -0.14907731 0.0040703495
0.044893738 -0.2444745 0.086593285 -0.15429814 -0.21671915 -0.059125606 -0.032135118 0.27117854
-0.08601352 -0.0612302 -0.08480537 -0.09939671 0.06396831 0.10915506 0.011815585 -0.1409556
0.1108534 -0.14880244 -0.08834412 0.14946888 0.31782284 -0.1268488 0.051336605 -0.016035818
0.008056466 0.18180339 -0.061676856 0.02020683 0.21528146 0.07130052 0.03558356 0.06443015
0.15794449 0.15312387 -0.27984715 -0.23955294 -0.016875649 0.037794635 -0.21945855 -0.08416002
-0.036934935 0.10235062 0.19300213 -0.21199162 -0.26096958 -0.26569036 0.07609062 0.091140226
-0.21337636 0.10151095 0.081840485 -0.15984742 -0.011250153 0.0542062 0.0055757915 -0.046564154
-0.021752544 0.030825594 -0.08210378 0.06791583 0.18459041 -0.079979874 -0.08467972 0.17850472
0.06064121 0.12047706 0.22228362 -0.10512899 -0.054826587 0.11303391 -0.19825017 0.09852708
0.03178298 -0.19857228 0.10063284 0.02155066 0.06541384 -0.19903405 -0.109041475 -0.110713534
-0.030095618 0.10198034 -0.0721623 0.04685431 0.04825419 0.05511355 -0.12909923 0.09179254
-0.24530995 -0.086340524 0.12343879 0.005312799 0.0407194 -0.10999373 -0.28932545 0.14310098
-0.025166249 0.089867115 0.18428327 -0.0675866 -0.14357586 -0.1932931 -0.019185726 -0.028085442
0.09067757 0.00035585798 0.096415445 0.12556347 -0.14410257 0.069082946 -0.16024502 -0.04883624
-0.00064796983 -0.12928651 -0.045260504 0.04200833 -0.10530731 -0.029041024 0.060466826 0.25855348
-0.043420598 -0.054121885 -0.021675354 0.029130071 0.09899501 0.22724502 -0.08327546 0.15289539
-0.044618405 0.08792941 -0.030269856 0.03907066 -0.21168692 0.08794723 0.12893683 0.09330197
-0.09356477 0.08031623 -0.25826925 -0.3270145 -0.09649005 -0.1094779 -0.11921146 0.14339773
0.07401552 0.096112795 -0.04832563 -0.17538705 0.16467068 -0.13233669 -0.20080137 0.17038935
0.05390873 -0.00028306263 -0.18065585 -0.06960411 -0.08017066 -0.3063751 0.0606825 -0.010778294
-0.011195572 -0.00738153 -0.042082135 0.15402064 -0.054361824 0.06701334 -0.018093714 -0.07374154
0.01926527 -0.06362477 0.106848955 -0.031360436 -0.012461658 0.1564987 0.035395306 -0.05225121
-0.006158697 -0.1825233 -0.02281162 -0.104257286 0.028648056 -0.16311799 0.10938028 -0.15178286
0.22103095 -0.2260731 0.02583284 -0.018191725 -0.19755366 -0.2308133 -0.11127692 0.12656654
0.0567929 -0.09602514 0.1873224 0.13332404 -0.056261677 0.09932654 -0.15328468 0.011500559
-0.26803008 0.028363671 -0.043768495 0.024607388 -0.0051889173 0.11938347 -0.13386917 -0.053351305
-0.07829343 0.1435251 -0.095060825 0.12459048 0.0917231 -0.12577958 -0.033398513 -0.09190757

fc2.bias f4 [7]
00000000: e811 113e 742f b9bd 2255 9dbd 2b88 733d
00000010: 74b6 c63d 5bfc 3cbd a8d3 d8bc
0.14166987 -0.09042254 -0.076822534 0.05945603 0.09702769 -0.046139102 -0.026468113

localization.0.weight f4 [8, 1, 7, 7]
00000000: 92af 40bd c0fb b2bd 3082 0b3c 6ce5 c83d
00000010: 5c0b d93d 6ed7 8cbd 5a49 ad3d b825 22bd
00000020: b8bc 433d 002b 5bbd 0a46 3cbd a004 013c
00000030: aa42 cbbd 5221 ec3d 4ee6 ab3d 1c31 34bd
00000040: dcf6 cfbc 88f5 c7bd ee74 71bd c82c 7b3d
00000050: 2f99 023e e8f0 263d 8898 753d 804d 193d
00000060: 00d2 273a 3065 00bc 0edf 07be 14aa 4f3d
00000070: e793 013e 1845 a03c 5c11 50bd 20b8 093c
00000080: dc27 f0bc 0068 17b9 5c30 bc3d 704e cdbc
00000090: cae2 cfbd ac9e b23d 05f3 03be eed3 5bbd
000000a0: aa08 7abd 3c43 81bd e021 343d 1ef8 94bd
000000b0: d83f 9b3c d8e1 42bd fa40 c43d a0d1 5ebc
000000c0: 40ab ae3b 4031 833b 9aec d33d 60e4 fb3b
000000d0: 10a2 cf3c 4621 da3d 38cd 5fbd 22ca 8b3d
000000e0: c749 9bbd 7cbe 063d ca46 f6bd a49e 05be
000000f0: f03d 703d 7074 13bc e545 cfbd f164 eabd
00000100: b642 08be 6b5e 0d3e 9290 953d 940c 703d
00000110: f0fe d8bd 8080 763c 6648 be3d 15cf f0bd
00000120: 1cca 91bd 7896 993c 9c0a 17bd f2cf 72bd
00000130: 00a9 443a 94b2 023d ac13 f0bd c0fb 38bd
00000140: 503d 073c d3ad f0bd 4e4e 87bd 4ebc b83d
00000150: 9633 bb3d e03c 463d f862 2f3d 5c1c e9bd
00000160: 20f5 b7bb 1ea5 11be 38d4 c8bd b0d0 d5bd
00000170: a7dd 033e 8716 a3bd 4cc3 bcbd f2c6 aa3d
00000180: bcf2 2c3d 2c80 c1bd b9e7 023e ae87 3fbd
00000190: 3cc2 d93d 12e4 33bd d066 db3d c08f a0bc
000001a0: 1e95 e83d c007 87bb 98bf be3c c063 283b
000001b0: 8eed 26bd 6685 7fbd 3aa2 debd 0769 113e
000001c0: 7853 c5bc 2adf ecbd f0be 5cbc f047 453d
000001d0: 5819 be3c 9cb0 d3bd 0adc a53d 405d e43c
000001e0: 454a d1bd 5849 0c3d 38b8 66bd 78a5 a2bc
000001f0: d6a5 9d3d f675 9b3d a15e f9bd d2b6 f83d
00000200: 129d 29bd 87b6 05be aff3 053e 4ebb c2bd
00000210: eaae a03d d02c 92bd 8bab 00be d2a7 16bd
00000220: d53b 08be 8cd1 f2bd 9009 bdbd fcba 65bd
00000230: 419b ecbd 12dd e63d 40ee f13c bec4 f23d
00000240: f07d 043d 60e7 85bb 201a ed3c c835 ff3c
00000250: 0014 b4bc e093 263c e693 b93d dccb c3bd
00000260: aa86 8abd 2a6e df3d 8349 043e 20eb ffbb
00000270: 10cf 303c 8408 01bd da9a dbbd 70d7 6d3c
00000280: a565 9dbd 468f ce3d 8414 8f3d 2e17 d33d
00000290: f83b 413d 9830 103d d011 763c 4b74 013e
000002a0: 0fc1 053e f5aa 0bbe e857 b7bd a01b 2dbc
000002b0: 6a48 2ebd 3ed2 d7bd 14cf 883d 0ea8 8c3d
000002c0: 64c5 873d f44e 253d c014 82bb 9758 90bd
000002d0: dcf1 24bd ee4f 22bd 403c 4fbb 350b 9dbd
000002e0: af0d 09be a71f 11be 880f 2b3d b67d da3d
000002f0: c258 a93d 9fb3 0d3e 6a97 78bd e78b 033e
00000300: 008b c3bd 0ee0 0cbd 0000 ad37 826f c13d
00000310: 9759 06be aa63 48bd 177f 94bd 8053 b9bd
00000320: 0849 b7bd 9ce6 3f3d c88c 11be c536 83bd
00000330: 8865 ae3c eae5 c6bd 3e1b c2bd 3ce7 143d
00000340: 605c fdbb 00ad 1aba ee79 e43d 8414 333d
00000350: 6550 acbd be94 ccbd c062 90bd 486a 8fbc
00000360: e532 0bbe ce87 49bd 6a65 9c3d 4e88 42bd
00000370: 2473 b7bc c09a c63b 10e4 0fbc 8eb7 833d
00000380: 0882 9c3d b5bf dabd dacd 8c3d e3bd 00be
00000390: b8b7 a4bc dc45 993d 9c76 08be e915 0c3e
000003a0: 24e8 853d 7a3e e6bd 488e 063d 64c9 a4bc
000003b0: 14b9 0bbe 84c4 703d 38da b0bd 9afa 11be
000003c0: c0f6 c73b 705b ae3d bcae af3d 3ec3 ac3d
000003d0: 0000 76bb a84a d83c b2ae bd3d d4ec a9bc
000003e0: 3c2b b23d 60e1 c0bd f093 3f3c 4782 8abd
000003f0: 34a2 613d d577 a8bd 60c0 983b 4826 c4bc
-0.047042437 -0.08739424 0.008514926 0.09809384 0.1059787 -0.068770275 0.08461256 -0.039586753
0.047787398 -0.053507805 -0.045965232 0.007874638 -0.099248245 0.11529793 0.083935365 -0.043992147
-0.025386266 -0.09763628 -0.058949403 0.061322004 0.12753747 0.04075709 0.05995992 0.037427425
0.0006401837 -0.007836625 -0.13268682 0.05069931 0.12654077 0.019564196 -0.050797805 0.008405715
-0.029315881 -0.00014439225 0.09188911 -0.025061816 -0.101506785 0.087216705 -0.12885673 -0.05366891
-0.06104342 -0.06311652 0.04397762 -0.07273887 0.018951342 -0.047578663 0.09582706 -0.013599783
0.005330473 0.004003674 0.103478625 0.0076871365 0.025345832 0.10650878 -0.05463907 0.06825663
-0.07582431 0.032896504 -0.12025221 -0.13048798 0.05865282 -0.008999929 -0.10120753 -0.11445034
-0.13306698 0.13805549 0.07302965 0.058605745 -0.105955005 0.015045285 0.09291153 -0.11758248
-0.071186274 0.018748507 -0.036875352 -0.059280343 0.00075019896 0.031908587 -0.11722502 -0.045161963
0.008254364 -0.11751904 -0.06606732 0.09020291 0.091406986 0.0483979 0.042818993 -0.11382362
-0.005613938 -0.14223143 -0.098061025 -0.104401946 0.12877522 -0.07963281 -0.092169374 0.08338727
0.042223677 -0.09448275 0.12783708 -0.046760254 0.106327504 -0.043918677 0.10712969 -0.019599795
0.11356567 -0.004120797 0.023284718 0.0025694221 -0.040753894 -0.062383078 -0.10870786 0.14200221
-0.024087653 -0.11566003 -0.013473257 0.048164308 0.023205444 -0.1033642 0.0809861 0.027876496
-0.10219244 0.034249634 -0.05632803 -0.019854292 0.07697646 0.07590859 -0.12176252 0.12144245
-0.04140956 -0.1305791 0.13081239 -0.09508382 0.07845862 -0.071374536 -0.12565438 -0.03678114
-0.13304074 -0.11856374 -0.092303395 -0.056086525 -0.1155305 0.112726346 0.029532552 0.11853932
0.032346666 -0.00408642 0.028943121 0.031153575 -0.021982193 0.010167092 0.090614125 -0.095603675
-0.067639664 0.10909684 0.12918667 -0.0078100115 0.010791555 -0.03150226 -0.10722895 0.014516696
-0.07685403 0.10085921 0.06986335 0.103071555 0.04717633 0.035202593 0.015018895 0.12642018
0.13061927 -0.13639434 -0.08952314 -0.010565668 -0.04254953 -0.105381474 0.06680122 0.068679914
0.06629446 0.0403585 -0.0039697587 -0.07048147 -0.040269718 -0.03962701 -0.0031621605 -0.07668153
-0.13384126 -0.1417223 0.04176286 0.10668509 0.08268882 0.13838051 -0.060691275 0.12846337
-0.095479965 -0.034393363 2.0623207e-05 0.094450966 -0.13120113 -0.048923172 -0.07250803 -0.090491295
-0.089494765 0.046850786 -0.1421386 -0.06406931 0.021288648 -0.097118214 -0.09477852 0.036353335
-0.007731959 -0.0005900413 0.11156069 0.043720737 -0.084137715 -0.09989308 -0.07050085 -0.017506734
-0.13593633 -0.04920178 0.07636531 -0.04749327 -0.02239377 0.006060928 -0.008782402 0.06431495
0.07641989 -0.106810965 0.068752006 -0.12572436 -0.020107135 0.07484028 -0.13326496 0.13680233
0.06538418 -0.11242385 0.032850534 -0.020115562 -0.1364482 0.058781162 -0.08635372 -0.14255753
0.006102413 0.08513534 0.0857825 0.08435677 -0.003753662 0.026402786 0.09261836 -0.020742811
0.086996526 -0.09417987 0.011692986 -0.0676313 0.05508633 -0.08225981 0.0046616048 -0.023944035

localization.0.bias f4 [8]
00000000: 8871 843d 0060 47b8 8e23 b73d 4a4b f3bd
00000010: 70bb 1dbc de80 afbd 18b4 c53d 0b1c 11be
0.06466967 -4.7534704e-05 0.089423284 -0.118795946 -0.009627208 -0.08569501 0.09653491 -0.14170854

localization.3.weight f4 [10, 8, 5, 5]
00000000: 711a 47bd 20ee 263d d0be 7abd 2a23 8fbd
00000010: 4e70 743d 2227 42bd 0ad9 e2bc 80a1 35bc
00000020: 36ff 8ebd e32f 86bd 64ac 373d 3e48 133d
00000030: 707f 2a3c 3038 6a3c 76f1 6bbd 96b9 43bd
00000040: f096 273c 0459 9e3c 9040 0e3c 801d c1bc
00000050: b1ab 8dbd 5cdb bf3c 0863 253c af54 0ebd
00000060: 9a8c 49bd 9d0e 85bd b32d 75bd 30ea d93b
00000070: 4e6e 31bd 3e14 42bd 9f75 883d b2fe 4a3d
00000080: 5cc2 e03c 09cc 8a3d e8ee a9bc 680f 5bbd
00000090: 7643 4a3d 0e68 babc de1c 51bd 6cf5 de3c
000000a0: aeea ddbc 005a e53a b4bc d1bc 6c75 4fbd
000000b0: 1c22 dd3c 98f8 453d 6a10 173d c611 793d
000000c0: 3825 593d 15da 813d 3731 8dbd d884 e03c
000000d0: bc8c dd3c d6a6 b8bc 24ac b0bc 602e 113c
000000e0: a8ef 993c 4ece 68bd 974c 8a3d 500a c8bb
000000f0: 2ec2 a4bc c03d 993a 145c b0bc b07d bc3c
00000100: ecd4 1bbc c219 493d 8005 e33a f495 8dbd
00000110: e78f 8fbd 40ca 61bd c07c d53a 876d 7ebd
00000120: 3960 8a3d 2496 893c 0852 213c d01e b4bb
00000130: c089 dabb 34ad bdbc 121c 37bd cec0 debc
00000140: 06cd 2fbd 3a6f 71bd c279 6d3d e6f5 083d
00000150: a256 003d c8f6 a83c a01e 53bd c46f 65bd
00000160: 926e 93bc dc10 8e3c 5c0d 48bd ea4b 183d
00000170: 2811 2bbd 5c15 53bd d87d 24bd 10e0 f93c
00000180: eaed 523d b0ac 283c 7e6d 793d 1070 6cbc
00000190: 40bd e33b 7ea2 623d b299 e1bc 37d7 883d
000001a0: 203c c13b de38 3bbd fcd5 1dbd 5496 57bc
000001b0: 17bc 0dbd 20dc 423c 8a99 3a3d d270 64bd
000001c0: 5bc7 52bd ac58 5abd a51a 14bd 139a 8f3d
000001d0: 2217 58bd 28d7 38bc a3d0 1cbd d4f6 e63c
000001e0: d894 7bbc f448 32bd 060b 8bbd dc42 c83c
000001f0: 1a70 773d 8096 02bc 5858 dd3c e437 30bc
00000200: abb4 4cbd b8cf 1a3d 263e 263d ec54 813c
00000210: 1251 393d ec93 fa3c 1c7e b53c 6817 0bbd
00000220: b064 cc3c f438 2abd 6d6e 2abd c60f e4bc
00000230: 2e32 7f3d c07c 523d 582f 85bd fa76 653d
00000240: d411 e93c 2032 fd3b 645d 2d3d 7efd 80bd
00000250: 7a68 393d ec07 553d 7316 71bd 86ba 093d
00000260: b84f 9ebc 32cc 713d d2aa ecbc 549c 45bd
00000270: 469b debc 4004 f5bb f01c adbb 3295 30bd
00000280: 5e57 633d 7456 023d c0eb f33b a0d8 5b3c
00000290: c6d4 d4bc e828 163d a8f5 20bc 6698 323d
000002a0: f8e4 f8bc 0281 463d abd7 18bd f458 59bd
000002b0: 08be e93c 28d2 983c 40b2 193c 9889 5c3d
000002c0: c4a0 da3c e800 d4bc fddd 8d3d 60fa 55bb
000002d0: 60a1 d7bc 9ed8 473d 27a4 50bd 8823 b7bc
000002e0: 4fd1 8bbd f672 1b3d 5bd1 24bd dc12 d43c
000002f0: e655 7f3d 24cc aa3c e02b 6ebb 6912 02bd
00000300: dc71 5abd aeed 0abd b0e1 d03b a88b 2e3d
00000310: c2d7 80bc b89a 3d3d 781e f03c 2a39 2a3d
00000320: 0cac 86bd 2ddb 01bd 5637 203d 326b 6c3d
00000330: b8d8 613c d4dc 3cbd 90a9 84bb 9ad9 203d
00000340: fa97 4dbd e0df 85bc d6c6 4ebd 30f6 fd3c
00000350: 9654 3b3d aef5 34bd 6452 5d3d e887 3f3d
00000360: 97cf 873d 5e18 7abd bb59 0fbd ca8d 233d
00000370: 5829 583c 022a f3bc c61d 9fbc 80a4 cdbb
00000380: a808 6d3c 262e 0abd f008 f33b d0d6 373c
00000390: 8815 82bc 0592 8a3d fa72 6b3d c0b0 0dbd
000003a0: 9e34 063d d48a a93c bc1b f43c 272d 873d
000003b0: 723c 503d 98d1 8fbd 3e68 153d aef1 7d3d
000003c0: c613 9ebc e275 8ebc ae01 493d f345 8b3d
000003d0: a880 37bd 87b0 25bd e4ab 29bd 48b7 1bbc
000003e0: eedd 67bd 8ce8 5c3d 4e25 d6bc 4026 8cbc
000003f0: d35e 21bd 80d8 2b3c 0095 c73c 0c67 a13c
-0.0486092 0.040754437 -0.06121713 -0.06989129 0.059677415 -0.0474006 -0.027691383 -0.011085868
-0.069822714 -0.065521024 0.04484214 0.035957567 0.01040636 0.014295623 -0.057603322 -0.04778441
0.010228857 0.019329555 0.008682385 -0.023573637 -0.06917513 0.023420028 0.010094412 -0.03474873
-0.049206354 -0.06496928 -0.059858035 0.006650232 -0.043318085 -0.047382586 0.066630594 0.049559303
0.027436428 0.06777198 -0.020743802 -0.05348149 0.049380742 -0.022754695 -0.05105292 0.027216636
-0.027089443 0.0017498136 -0.025602676 -0.05064909 0.026993804 0.04833278 0.036880888 0.060807966
0.05301401 0.06340424 -0.068941526 0.027407095 0.027044646 -0.022540491 -0.021566458 0.008861154
0.018791035 -0.056837372 0.067528896 -0.006104745 -0.020112123 0.0011691377 -0.021528281 0.023009151
-0.009511214 0.04909683 0.0017320365 -0.06913367 -0.07009869 -0.05512452 0.0016287789 -0.062116172
0.06756634 0.016795225 0.009846218 -0.005496837 -0.006669253 -0.023153879 -0.044704504 -0.027191546
-0.042920135 -0.058943965 0.057977445 0.033437632 0.03133262 0.020625487 -0.05154288 -0.05601479
-0.01799706 0.017342024 -0.048840865 0.037181772 -0.04176441 -0.05153404 -0.040159076 0.03050235
0.051496424 0.010295078 0.060895436 -0.014431015 0.0069500506 0.055330746 -0.027539108 0.06681674
0.00589706 -0.04570853 -0.03853415 -0.0131584 -0.034603205 0.011893302 0.045556583 -0.055771656
-0.05145965 -0.05330722 -0.036158223 0.07011809 -0.052756436 -0.011281766 -0.03828491 0.028193869
-0.015355311 -0.043526605 -0.06789212 0.024445944 0.060409643 -0.007970452 0.027019665 -0.010755513
-0.049976986 0.037795752 0.040586613 0.015787564 0.04524333 0.030588113 0.02215486 -0.03395787
0.024950355 -0.04155822 -0.041609216 -0.027839553 0.062303714 0.051388502 -0.06503171 0.056021668
0.028450884 0.0077269226 0.042325392 -0.0629835 0.045265652 0.052009508 -0.0588593 0.03362515
-0.019325122 0.059032626 -0.028890047 -0.04824479 -0.02717365 -0.0074773133 -0.0052829906 -0.043111034
0.05550324 0.03182073 0.007443875 0.013418347 -0.025980365 0.036660105 -0.009824194 0.04360237
-0.030382618 0.048462875 -0.037315052 -0.053063348 0.028532997 0.018654898 0.009380877 0.053842157
0.026687987 -0.025879338 0.069271065 -0.0032650456 -0.026322067 0.048790567 -0.050937798 -0.02235581
-0.06827032 0.037951432 -0.04023872 0.0258879 0.06233778 0.020849295 -0.003634207 -0.03175584
-0.05333124 -0.033918075 0.0063745603 0.042613655 -0.015727881 0.04629013 0.029311404 0.041558422
-0.06575784 -0.031703163 0.039115272 0.057719417 0.01378458 -0.046109036 -0.0040485337 0.03927002
-0.050193764 -0.016342103 -0.050482593 0.03100118 0.045734964 -0.04417961 0.054033652 0.04676047
0.066313915 -0.061058395 -0.034997683 0.039930142 0.013193451 -0.029683117 -0.019423377 -0.0062757134
0.014467396 -0.033735417 0.007416837 0.011220649 -0.015879408 0.06766132 0.057482697 -0.03459239
0.032765023 0.020696081 0.029798381 0.06600409 0.050838895 -0.07022399 0.036476366 0.06199806
-0.019296538 -0.017390195 0.049073867 0.06800451 -0.04480043 -0.040451553 -0.041423693 -0.009504147
-0.056608133 0.05393271 -0.026140835 -0.017108083 -0.039397072 0.010488629 0.02436304 0.019702457

localization.3.bias f4 [10]
00000000: 3ebe 53bd 6820 6c3c 4633 02bd 744d 1c3d
00000010: 64ec 73bd 36e2 23bd a060 66bb 7ef2 dbbc
00000020: ba6b 78bd f01a babb
-0.0516951 0.014412023 -0.03178718 0.038159803 -0.05955161 -0.040010653 -0.0035152808 -0.026849028
-0.06064961 -0.0056794807
