deep_emotion-ckplus-55-8-0.003.pt (torch, 274522 bytes, 24 tensors)

conv1.weight f4 [10, 1, 3, 3]
0.00043515058 0.19457439 -0.26067302 -0.23985372 0.25733492 0.07676739 -0.028197125 -0.09538914
-0.021433953 -0.052916475 0.37700516 0.19370304 0.3111012 -0.27022183 -0.28201526 -0.26240352
-0.25938082 -0.33204594 -0.32681254 0.15217113 0.00687463 -0.059325367 0.14776002 0.4542351
-0.40577602 -1.670717e-05 0.12720469 0.13750869 0.34215236 -0.12804307 -0.0072480664 0.21461523
-0.061869353 -0.45138294 0.05829393 -0.123824224 0.38446668 -0.25447148 -0.10480693 -0.07307625
0.11404187 0.24662067 -0.32632765 0.13825807 0.16988237 0.46242473 0.3887164 -0.37491307
-0.28707373 0.044359274 0.013076392 -0.01150531 -0.069451444 -0.09579744 0.1567793 0.043991663
0.10977691 0.32103732 -0.24468891 -0.32626945 -0.04589808 0.18420446 -0.071311146 -0.3780787
0.23089767 -0.08586507 -0.038557246 -0.19608913 -0.13299762 0.1804831 0.2135837 0.18133527
-0.12202809 -0.29873437 -0.12719749 0.04991627 0.17252162 -0.030346086 -0.13161252 0.11002228
0.27059865 -0.34087786 -0.10559333 -0.10057429 0.36386582 0.21874744 0.1611835 0.24785219
0.06381072 -0.16365422
00000000: ec24 e439 823e 473e ef76 85be 379c 75be
00000010: 67c1 833e 3938 9d3d a8fd e6bc 625b c3bd
00000020: 4296 afbc f2be 58bd d206 c13e 175a 463e
00000030: a848 9f3e 845a 8abe 4e64 90be c159 86be
00000040: 90cd 84be ed01 aabe f953 a7be c0d2 1b3e
00000050: 9444 e13b 28ff 72bd 674e 173e 8191 e83e
00000060: e0c1 cfbe 6026 8cb7 f241 023e 14cf 0c3e
00000070: 982e af3e b91d 03be 3081 edbb 18c4 5b3e
00000080: b86a 7dbd aa1b e7be 9ec5 6e3d 8e97 fdbd
00000090: d1d8 c43e 164a 82be 04a5 d6bd 00a9 95bd
000000a0: c98e e93d 218a 7c3e 6b14 a7be 8693 0d3e
000000b0: a5f5 2d3e efc2 ec3e d605 c73e 9bf4 bfbe
000000c0: 54fb 92be 12b2 353d 5d3e 563c c580 3cbc
000000d0: 8f3c 8ebd 7331 c4bd c18a 203e 9a30 343d
000000e0: b7d2 e03d 015f a43e bb8f 7abe ca0c a7be
000000f0: a0ff 3bbd 18a0 3c3e 940b 92bd 8893 c1be
00000100: 7070 6c3e 07da afbd 34ee 1dbd 97cb 48be
00000110: 8730 08be 90d0 383e afb5 5a3e f4af 393e
00000120: dde9 f9bd b6f3 98be 0f40 02be 0175 4c3d
00000130: 82a9 303e 5b98 f8bc 6fc5 06be 5c53 e13d
00000140: e88b 8a3e 8b87 aebe 5141 d8bd e5f9 cdbd
00000150: 9f4c ba3e 54ff 5f3e 4a0d 253e f7cc 7d3e
00000160: 32af 823d f994 27be

conv1.bias f4 [10]
-0.2522526 -0.114858374 0.15659067 0.24597357 -0.06168451 0.16288932 -0.0041104774 0.12403743
-0.20983018 -0.056090727
00000000: 4127 81be de3a ebbd 4e59 203e 7fe0 7b3e
00000010: e6a8 7cbd 75cc 263e 2fb1 86bb 5607 fe3d
00000020: b9dd 56be 64bf 65bd

conv2.weight f4 [10, 10, 3, 3]
0.05409429 0.08761404 -0.0679663 -0.06411129 0.029603325 0.11424168 -0.041951206 -0.12629017
-0.029981548 0.08697204 0.064920455 -0.025531292 -0.15246224 -0.20828697 -0.076542735 -0.1242045
-0.21749865 -0.21329531 -0.020721743 0.026073903 -0.1606553 0.23298417 0.09658518 0.066228256
0.13399594 0.11694675 -0.011234193 0.13974896 0.066243246 -0.0056878733 0.1768834 0.14627302
-0.0028420202 0.042468615 0.20779085 0.016974736 -0.007510752 -0.12978616 -0.21830069 0.3662128
-0.04871658 -0.057310548 -0.12458921 0.2147924 -0.042283628 -0.09725974 0.055795558 0.13279979
-0.0012531874 -0.045753043 -0.004543558 0.12380543 0.06855391 0.017593952 0.1500882 0.0019074819
0.010577277 -0.14292793 0.10064701 0.00700713 -0.036997736 0.1313164 0.17437136 0.023748338
0.12849912 0.17975725 -0.2061765 -0.15888727 -0.16941907 0.04929335 0.030207004 -0.048662443
0.26080346 0.20291926 -0.0291488 0.0018840979 0.093076155 0.12996109 -0.26339096 -0.05839735
0.019024568 0.10010615 0.07120795 0.17023772 0.023039076 0.22443704 0.20046154 -0.14719525
-0.14563839 -0.011816955 0.06259577 0.0105304215 -0.10165428 -0.007050112 0.05112266 -0.10986831
-0.020185698 0.101729356 -0.06453812 -0.12973204 -0.0756647 0.03032479 0.06658342 -0.03353912
-0.010756994 0.1782897 0.12689118 0.19944324 0.24145396 0.046001766 -0.0061865225 0.1702186
0.19192073 0.05445912 -0.029955816 0.016934488 0.2246902 0.08702157 0.1283082 0.090406924
0.11650706 0.10217054 0.026208311 -0.102039725 0.03393741 0.19522595 0.061853733 0.030478712
-0.03558992 -0.13417917 0.0114843575 0.21233708 -0.18870474 0.11029254 0.14050393 0.08022425
-0.055481013 -0.062511206 0.19176479 0.005463001 0.14632767 -0.06038434 -0.03500991 -0.021246629
-0.03646961 -0.034011442 0.16536747 0.005150542 0.019583091 0.108776405 -0.14624588 -0.09769766
-0.010031768 -0.20257796 -0.026314469 0.09014372 -0.09950159 -0.16614507 -0.12911394 0.051200043
-0.096636765 -0.053523727 0.23294927 -0.0060367654 0.026802965 0.15213554 0.029448066 -0.10433434
0.02562974 -0.0040218886 -0.062379498 0.009497909 0.055454675 0.029654117 0.018990146 -0.15389541
0.067081906 -0.013681727 0.055335104 -0.09788676 0.014681002 -0.07759882 -0.07262713 0.032968212
-0.087811895 0.009641697 0.0584908 -0.044701837 -0.048605442 -0.02067 -0.21036649 -0.09737569
0.005062008 0.18290137 0.16404867 0.2702677 0.29678735 0.14871772 -0.008471668 -0.1754676
-0.3529743 -0.0734818 -0.008199575 -0.01811987 -0.07326708 -0.15499592 -0.15427428 0.007690166
-0.08529614 0.11030139 0.10016526 0.1306709 -0.013369029 0.13661964 0.18125734 -0.023810653
0.16073634 -0.109184586 -0.13952406 -0.10791766 -0.2504095 -0.045568544 -0.10906532 0.017138686
0.010757263 0.0063842884 0.088378035 0.039653722 0.0077778054 -0.066591844 0.03161063 -0.021632047
0.23779628 0.05490043 0.03715314 0.007785454 0.16047437 0.013514633 -0.07755403 -0.061952714
-0.036767703 0.027460182 -0.08480469 0.07502869 0.089333445 -0.07703281 -0.13010499 0.024596272
-0.08715822 -0.107201256 0.054531015 -0.0038429394 -0.0075901416 -0.027868025 0.07194221 0.13726282
00000000: f991 5d3d fd6e b33d ea31 8bbd c84c 83bd
00000010: ac82 f23c 8bf7 e93d 07d5 2bbd 3652 01be
00000020: dd9b f5bc 661e b23d 04f5 843d 0027 d1bc
00000030: 101f 1cbe 2e49 55be 70c2 9cbd ee5e febd
00000040: f7b7 5ebe 166a 5abe a5c0 a9bc f098 d53c
00000050: d382 24be 6793 6e3e 73ce c53d aea2 873d
00000060: 3b36 093e c781 ef3d 9f0f 38bc 5a1a 0f3e
00000070: 8aaa 873d 5761 babb ec20 353e 98c8 153e
00000080: 3041 3abb 92f3 2d3d 20c7 543e 9a0e 8b3c
00000090: c11c f6bb aae6 04be 378a 5fbe 3e80 bb3e
000000a0: 098b 47bd 77be 6abd a128 ffbd 8af2 5b3e
000000b0: 9931 2dbd 1d30 c7bd e289 643d abfc 073e
000000c0: fe41 a4ba 8b67 3bbd 21e2 94bb b48d fd3d
000000d0: fe65 8c3d 3121 903c b9b0 193e 7904 fa3a
000000e0: 514c 2d3c b35b 12be 0520 ce3d 119c e53b
000000f0: f08a 17bd ce77 063e 688e 323e e08b c23c
00000100: 4695 033e 4912 383e ef1f 53be 58b3 22be
00000110: 317c 2dbe d3e7 493d ae74 f73c 4552 47bd
00000120: 0888 853e 11ca 4f3e 77c9 eebc d6f3 f63a
00000130: b69e be3d 8514 053e 2edb 86be 0f32 6fbd
00000140: 69d9 9b3c 7404 cd3d 79d5 913d cc52 2e3e
00000150: 72bc bc3c d3d2 653e ca45 4d3e 5aba 16be
00000160: 3b22 15be e79b 41bc 3632 803d ca87 2c3c
00000170: 1f30 d0bd a004 e7bb ff65 513d a302 e1bd
00000180: 7a5c a5bc 7b57 d03d 902c 84bd 7ad8 04be
00000190: 18f6 9abd b26b f83c e35c 883d 5160 09bd
000001a0: 1a3e 30bc 9391 363e c3ef 013e d93a 4c3e
000001b0: b53f 773e 596c 3c3d 50b8 cabb c94d 2e3e
000001c0: de86 443e 8710 5f3d e665 f5bc 32ba 8a3c
000001d0: 3015 663e 5d38 b23d 3a63 033e 4427 b93d
000001e0: 419b ee3d ca3e d13d d0b2 d63c 34fa d0bd
000001f0: f401 0b3d 50e9 473e 575a 7d3d 7eae f93c
00000200: bcc6 11bd 4466 09be e328 3c3c e46e 593e
00000210: d13b 41be 0ee1 e13d 43e0 0f3e 9d4c a43d
00000220: 0f40 63bd e005 80bd fd5d 443e f902 b33b
00000230: ecd6 153e 9255 77bd 8d66 0fbd 690d aebc
00000240: 2861 15bd 954f 0bbd 1756 293e e1c5 a83b
00000250: b86c a03c 2ac6 de3d 7bc1 15be b615 c8bd
00000260: 495c 24bc 9970 4fbe 7191 d7bc 459d b83d
00000270: 7dc7 cbbd ef21 2abe 7236 04be 23b7 513d
00000280: 7fe9 c5bd b23b 5bbd 418a 6e3e 0fd0 c5bb
00000290: e491 db3c 6bc9 1b3e 123d f13c 3ead d5bd
000002a0: 76f5 d13c 0cca 83bb a581 7fbd 1e9d 1b3c
000002b0: 7124 633d 31ed f23c 3991 9b3c c296 1dbe
000002c0: 3d62 893d 5329 60bc 10a7 623d db78 c8bd
000002d0: 9688 703c 21ec 9ebd 88bd 94bd ad09 073d
000002e0: b9d6 b3bd 35f8 1d3c 0d94 6f3d 4619 37bd
000002f0: 8016 47bd 2254 a9bc 506a 57be e86c c7bd
00000300: 33df a53b 7f4a 3b3e 60fc 273e 8760 8a3e
00000310: 83f4 973e 7549 183e c0cc 0abc c7ad 33be
00000320: 0cb9 b4be a07d 96bd 8357 06bc 1f70 94bc
00000330: 0d0d 96bd 40b7 1ebe 14fa 1dbe cafd fb3b
00000340: beaf aebd b2e5 e13d 7223 cd3d 98ce 053e
00000350: c609 5bbc 05e6 0b3e 869b 393e 8f0e c3bc
00000360: 1198 243e 2b9c dfbd 65df 0ebe ef03 ddbd
00000370: ad35 80be 15a6 3abd a35d dfbd 6e66 8c3c
00000380: 3b3f 303c 4b33 d13b 8bff b43d f16b 223d
00000390: f6dc fe3b 4e61 88bd 267a 013d b135 b1bc
000003a0: de80 733e 46df 603d e42d 183d 1f1d ff3b
000003b0: 6553 243e 7b6c 5d3c a6d4 9ebd 21c2 7dbd
000003c0: bb99 16bd 2df4 e03c 15ae adbd a4a8 993d
000003d0: 74f4 b63d 61c3 9dbd 3e3a 05be 1f7e c93c
000003e0: 0280 b2bd 558c dbbd ea5b 5f3d d3d9 7bbb
000003f0: b9b6 f8bb 7c4b e4bc 7056 933d a08e 0c3e

conv2.bias f4 [10]
-0.015158036 0.0251363 -0.0212752 -0.14076142 0.18345463 0.08122234 0.13326074 -0.060799837
-0.08255671 -0.0055330335
00000000: 6959 78bc a4ea cd3c 5449 aebc c323 10be
00000010: 88db 3b3e e657 a63d 8175 083e 4009 79bd
00000020: 7e13 a9bd 734e b5bb

conv3.weight f4 [10, 10, 3, 3]
-0.09656405 -0.07903663 -0.040345877 -0.0827754 0.0052805445 0.049221165 0.08503582 -0.008569933
0.038879804 0.04030808 -0.123754695 -0.045893684 -0.0022825724 0.0036866614 0.0538637 0.083562136
-0.063230366 0.0059659053 -0.1179325 -0.04490749 0.060198672 0.04330316 0.028464409 -0.09703019
-0.026610462 -0.058312617 0.07593209 -0.069745444 0.02245939 0.050013084 0.017719151 0.076256074
0.026920045 0.03495539 0.11453474 0.04845611 -0.025186507 -0.1123428 0.0595858 -0.008530593
-0.018018737 0.07294325 -0.135335 -0.13316889 0.04563266 0.039810628 -0.10897293 -0.060183447
-0.12746441 -0.075057596 -0.045048557 -0.087145485 -0.122793786 -0.016167717 0.03872564 -0.009022661
0.02452494 0.02421056 -0.08988513 0.0637073 -0.07932468 0.024751613 -0.054362163 -0.11169332
0.09908982 0.069427475 -0.11353102 0.095801696 -0.060232487 0.07508589 -0.047270972 0.08100988
0.06853129 0.05025453 -0.0656551 -0.015080232 0.10106327 0.024108669 0.07125608 -0.072141536
-0.10457362 -0.08495537 -0.010810561 -0.14973964 -0.029475125 -0.0942195 -0.18885112 0.014628717
0.008939328 -0.14253648 0.05526927 0.05692992 -0.108907394 -0.08430065 0.05467085 -0.0065427786
-0.013987587 0.047782708 0.04002088 -0.037614882 -0.13304453 -0.014234991 -0.06392082 -0.051953662
0.020539684 0.018006202 -0.10295471 -0.07323931 -0.07206744 -0.00800459 -0.12587415 0.048448227
-0.045956463 -0.10607988 -0.10991193 0.03216025 -0.08575966 0.030255761 -0.06546275 0.056720417
0.059699412 0.014764203 -0.115093336 -0.0640183 -0.054156173 0.07490688 0.03723537 0.04320413
-0.10351368 0.00016534196 -0.059699126 -0.11173032 -0.11483562 0.027247915 -0.009585334 -0.095462255
0.037503697 -0.12113164 -0.12339653 -0.091191635 -0.08590281 -0.06907168 0.0030778893 -0.061130807
-0.029597605 -0.030895406 -0.02749048 -0.061035655 -0.10609401 -0.020017827 0.02219744 -0.05007032
0.044691283 -0.04726409 -0.11441392 0.0010701872 -0.12098173 0.055219654 0.009483514 -0.07167466
0.036493897 -0.10031824 -0.046810966 -0.048875034 -0.060475588 -0.152441 -0.07159826 -0.0740157
0.05311264 -0.105978444 -0.15361278 0.04306482 -0.07681295 -0.05571462 -0.011992865 0.03335844
0.032081842 0.07897144 0.120157935 0.08050807 0.007223093 -0.016460666 -0.0068734544 0.04134556
0.007853987 0.2212441 -0.09550466 -0.19634917 0.10961583 0.01895895 0.10683844 0.044360884
0.032433685 -0.057500977 -0.06658599 -0.007299225 -0.084681675 0.0434203 -0.114159964 0.12338939
0.25879738 0.1057235 -0.13779868 -0.21297914 0.118258655 0.03786587 0.008657424 -0.01396501
0.081454836 0.025256444 -0.07011915 0.047776066 0.09409287 -0.030837303 0.047786545 -0.01238715
-0.07761749 -0.043057334 0.2031867 0.026905261 0.24038376 0.20894717 0.13080728 -0.037512902
-0.22920035 0.09139057 0.07736643 -0.047172185 0.19352277 -0.043621007 0.103569634 -0.10017209
-0.04787609 0.07260612 0.07091592 0.02965153 0.080660574 -0.04075929 -0.040904697 0.12154503
-0.16265897 0.0017864327 -0.01796997 -0.055762205 0.06870775 0.0839732 -0.007929282 0.05464317
-0.10039028 0.11703348 0.028929254 -0.04357525 -0.002111764 -0.10155511 0.052064415 0.16435091
00000000: 5fc3 c5bd f5dd a1bd b841 25bd 2686 a9bd
00000010: 6b08 ad3b 229c 493d 4327 ae3d e768 0cbc
00000020: 6e40 1f3d 161a 253d 1a73 fdbd 04fb 3bbd
00000030: 3697 15bb ea9b 713b 2fa0 5c3d a022 ab3d
00000040: ec7e 81bd a47d c33b 9886 f1bd ebf0 37bd
00000050: e292 763d a85e 313d 312e e93c c4b7 c6bd
00000060: 2ffe d9bc 36d9 6ebd 4982 9b3d b3d6 8ebd
00000070: c1fc b73c 85da 4c3d c127 913c 252c 9c3d
00000080: 6d87 dc3c 622d 0f3d 3191 ea3d ea79 463d
00000090: ef53 cebc fb13 e6bd 3d10 743d e6c3 0bbc
000000a0: 089c 93bc 4563 953d 4295 0abe 6d5d 08be
000000b0: 50e9 3a3d 7810 233d 332d dfbd eb82 76bd
000000c0: 0886 02be ccb7 99bd d684 38bd 5579 b2bd
000000d0: 4f7b fbbd 2972 84bc c79e 1e3d c8d3 13bc
000000e0: 87e8 c83c 3955 c63c b215 b8bd f978 823d
000000f0: fa74 a2bd e5c3 ca3c dcaa 5ebd 78bf e4bd
00000100: 9bef ca3d fe2f 8e3d f482 e8bd ae33 c43d
00000110: 57b6 76bd a2c6 993d 359f 41bd 82e8 a53d
00000120: 225a 8c3d b2d7 4d3d 2e76 86bd 1413 77bc
00000130: 42fa ce3d 8b7f c53c b5ee 913d f1be 93bd
00000140: b22a d6bd 15fd adbd c71e 31bc 5955 19be
00000150: d175 f1bc 27f6 c0bd 3062 41be 49ad 6f3c
00000160: 4276 123c 15f5 11be 0862 623d 592f 693d
00000170: d70a dfbd d2a5 acbd 8bee 5f3d ce64 d6bb
00000180: 312c 65bc cdb7 433d efec 233d 1012 1abd
00000190: d33c 08be e139 69bc ebe8 82bd 5dcd 54bd
000001a0: d742 a83c be81 933c ebd9 d2bd 7efe 95bd
000001b0: 1898 93bd af25 03bc 27e5 00be a671 463d
000001c0: d83c 3cbd 6840 d9bd 8219 e1bd 77ba 033d
000001d0: c3a2 afbd eeda f73c 5611 86bd ab53 683d
000001e0: 5f87 743d 8ee5 713c 0eb6 ebbd 071c 83bd
000001f0: ddd2 5dbd c768 993d 1e84 183d d0f6 303d
00000200: fbfe d3bd a55f 2d39 1287 74bd ded2 e4bd
00000210: f02e ebbd 0537 df3c ce0b 1dbc b781 c3bd
00000220: 7a9d 193d de13 f8bd 52b7 fcbd aec2 babd
00000230: d0ed afbd 7475 8dbd 6ab6 493b 4c64 7abd
00000240: ad76 f2bc 5d18 fdbc b733 e1bc 8600 7abd
00000250: d147 d9bd 6dfc a3bc 68d7 b53c 8916 4dbd
00000260: 350e 373d fe97 41bd d851 eabd 8645 8c3a
00000270: 45c5 f7bd 012e 623d be60 1b3c 2aca 92bd
00000280: a07a 153d a673 cdbd dbbc 3fbd 3031 48bd
00000290: 40b5 77bd 7e19 1cbe 1ca2 92bd 8b95 97bd
000002a0: a48c 593d 3a0b d9bd ab4c 1dbe bd64 303d
000002b0: 1c50 9dbd 0335 64bd b97d 44bc dca2 083d
000002c0: 4068 033d c7bb a13d 5d15 f63d 6ae1 a43d
000002d0: b2af ec3b 85d8 86bc b73a e1bb f659 293d
000002e0: 02ae 003c d08d 623e f297 c3bd c20f 49be
000002f0: 447e e03d cd4f 9b3c 1dce da3d c2b3 353d
00000300: 2fd9 043d 2586 6bbd 3c5e 88bd 562e efbb
00000310: 966d adbd 7cd9 313d b3cc e9bd 94b3 fc3d
00000320: 1781 843e 9085 d83d 191b 0dbe 3417 5abe
00000330: 9831 f23d 3e19 1b3d ded7 0d3c 7fcd 64bc
00000340: cbd1 a63d 9ae6 ce3c a19a 8fbd d6b0 433d
00000350: c3b3 c03d 839e fcbc d3bb 433d 79f3 4abc
00000360: ebf5 9ebd e35c 30bd 2d10 503e 6c68 dc3c
00000370: 2927 763e 3ff6 553e 58f2 053e 21a7 19bd
00000380: 7fb3 6abe fb2a bb3d 4a72 9e3d 9f37 41bd
00000390: d52a 463e f1ab 32bd 511c d43d 0627 cdbd
000003a0: b819 44bd 84b2 943d 5e3c 913d c4e7 f23c
000003b0: 5f31 a53d 37f3 26bd af8b 27bd 9aec f83d
000003c0: 1390 26be bc26 ea3a c235 93bc e966 64bd
000003d0: a6b6 8c3d 24fa ab3d d2e9 01bc 84d1 5f3d
000003e0: 6b99 cdbd 40af ef3d 0bfd ec3c f67b 32bd
000003f0: 8565 0abb 20fc cfbd 7f41 553d 9b4b 283e

conv3.bias f4 [10]
-0.03410829 -0.1242652 0.18938898 0.17506485 0.13604102 0.211836 -0.112096645 -0.109821916
0.117401935 0.07216245
00000000: 22b5 0bbd c17e febd 2fef 413e 3344 333e
00000010: 564e 0b3e 89eb 583e ed92 e5bd 50ea e0bd
00000020: 6d70 f03d e8c9 933d

conv4.weight f4 [10, 10, 3, 3]
-0.022521282 0.088756695 0.07207184 -0.03902401 0.09995778 -0.1307858 0.06619657 -0.0121806795
-0.028131915 -0.08808098 -0.04331097 -0.059986964 -0.03532346 0.12194683 0.01127863 0.010022536
0.1172382 0.015649624 -0.12375665 -0.060185935 0.08695979 -0.09598157 0.07219465 0.08299688
-0.06584227 -0.10005839 -0.011423169 0.13178498 0.028029587 -0.032511268 -0.03486364 0.008960202
0.037529413 0.01675132 -0.024454804 -0.19458465 -0.10058742 -0.23368432 0.023919111 -0.029071242
-0.19468203 0.10000319 -0.21649987 -0.26480103 0.12148117 -0.034975275 0.09507806 -0.030864337
-0.10276875 0.022356967 -0.20386395 -0.13993327 -0.05934965 -0.039845634 -0.0061355014 -0.0014587954
-0.07936505 -0.099797495 -0.0629586 -0.05189589 -0.07821707 -0.06422161 -0.013942951 -0.0805075
0.11470331 -0.005749998 0.038452987 -0.058337122 -0.04814803 0.11586062 -0.037541494 0.07379002
0.06254415 0.23976941 0.041649956 -0.10689305 0.0046977066 -0.17504856 0.047868468 -0.026726473
-0.21325752 0.11977074 -0.033050053 -0.17766833 0.26329517 0.0114459265 -0.13703097 0.19739875
-0.036554866 -0.077081524 0.04652988 0.046289172 0.01297253 -0.014455066 -0.06781496 0.029231103
0.06432724 -0.00015928168 -0.02522779 -0.020912463 -0.006698076 -0.038519073 -0.000871758 -0.09753537
-0.104835056 0.08293411 -0.08287878 0.080178484 0.05576193 0.16313961 -0.14742802 0.08930983
-0.0104872845 -0.00952855 -0.07481212 0.040263444 -0.011242997 0.22743963 0.13718897 -0.015699236
-0.3077848 0.31216505 0.23498185 -0.1534611 0.013298698 0.09192169 0.2052993 0.32830566
-0.26920173 -0.1013296 0.13581894 0.09514118 0.026649505 0.04614861 0.14575654 -0.21659727
-0.103847034 0.09376808 0.19075157 -0.22627808 -0.053493626 -0.085721694 -0.07270197 -0.019058827
0.026274012 0.08538847 -0.07749385 0.058545366 -0.053708088 0.016858922 -0.11473867 -0.09848314
0.023683734 -0.07048049 -0.04708674 0.023333918 0.103371635 0.037609816 -0.06101015 0.07542828
0.11591396 -0.08375768 -0.009919348 0.07220751 0.011593475 -0.07722082 -0.08302722 -0.017174425
-0.16307242 -0.013863612 0.1141392 -0.21495171 0.059580583 0.24265116 -0.068131246 0.021302877
0.02399841 -0.0063575828 0.060336594 0.020721462 0.07188162 -0.027964268 -0.109740205 -0.053677183
0.08466151 -0.035803452 -0.07395334 -0.021074742 0.034347933 -0.051300243 0.047311123 -0.06405284
-0.10166141 -0.060826402 0.05358496 -0.04774261 -0.07258522 0.0035440668 0.11630899 -0.22599187
-0.06044849 -0.07290354 -0.1915315 -0.030561186 -0.0594041 -0.09467364 0.32947454 0.115364105
-0.18943927 -0.1719885 -0.14960608 0.0018843315 0.07487866 -0.20477025 0.08241696 -0.061163817
0.09631298 0.08596982 0.105186485 0.059833664 0.020684002 0.006963472 -0.17743492 -0.3328898
-0.25614303 -0.034270365 0.041119333 0.065012 -0.031940013 0.07524893 -0.060250644 0.02603524
-0.108605735 -0.09342805 0.08485729 -0.017945988 0.11705685 0.09084252 0.13302323 -0.0044515664
-0.0035174144 0.067270964 -0.102353595 -0.0001964543 -0.09435183 -0.003997329 -0.008650684 0.06599424
0.053741124 0.056358323 0.04604355 -0.11923617 -0.19648974 -0.1251828 0.06735585 -0.0054323925
00000000: 8d7e b8bc 12c6 b53d 679a 933d a4d7 1fbd
00000010: aab6 cc3d b6ec 05be 1192 873d 7991 47bc
00000020: e774 e6bc cd63 b4bd d866 31bd e4b4 75bd
00000030: 55af 10bd 42bf f93d 01ca 383c 9035 243c
00000040: 951a f03d a433 803c 2074 fdbd 8785 76bd
00000050: f917 b23d fc91 c4bd cada 933d 45fa a93d
00000060: 50d8 86bd 6aeb ccbd 3e28 3bbc a4f2 063e
00000070: 4e9e e53c 892a 05bd 2dcd 0ebd d0cd 123c
00000080: 71b8 193d 103a 893c 7155 c8bc 3341 47be
00000090: c700 cebd f14a 6fbe 03f2 c33c d026 eebc
000000a0: ba5a 47be 79ce cc3d 24b2 5dbe 0094 87be
000000b0: 1fcb f83d 3c42 0fbd 49b8 c23d 35d7 fcbc
000000c0: 6c78 d2bd f525 b73c b6c1 50be ab4a 0fbe
000000d0: 9e18 73bd 2d35 23bd 510c c9bb 0d35 bfba
000000e0: 258a a2bd a162 ccbd 70f0 80bd c990 54bd
000000f0: 4530 a0bd 9f86 83bd fa70 64bc 1ee1 a4bd
00000100: 92e9 ea3d 7b6a bcbb e180 1d3d e8f2 6ebd
00000110: de36 45bd 5548 ed3d 1cc5 19bd 391f 973d
00000120: 2617 803d 1d86 753e 2599 2a3d beea dabd
00000130: 38ef 993b ee3f 33be ba11 443d 7af1 dabc
00000140: 2e60 5abe 5d4a f53d 7e5f 07bd b0ee 35be
00000150: a0ce 863e b287 3b3c d951 0cbe e622 4a3e
00000160: 8eba 15bd ebdc 9dbd 1e96 3e3d b799 3d3d
00000170: bc8a 543c f1d4 6cbc 92e2 8abd 1176 ef3c
00000180: 00be 833d da04 27b9 83aa cebc 9d50 abbc
00000190: 897b dbbb 2dc6 1dbd b086 64ba a0c0 c7bd
000001a0: c3b3 d6bd 5cd9 a93d 5abc a9bd 9e34 a43d
000001b0: 9f66 643d 120e 273e 5ff7 16be 12e8 b63d
000001c0: dcd2 2bbc a31d 1cbc 1937 99bd 48eb 243d
000001d0: 8c34 38bc efe5 683e 447b 0c3e af9b 80bc
000001e0: f895 9dbe 19d4 9f3e 159f 703e e824 1dbe
000001f0: c8e2 593c 7041 bc3d fb39 523e ae17 a83e
00000200: cfd4 89be e585 cfbd 1f14 0b3e 61d9 c23d
00000210: 1050 da3c 5306 3d3d 3441 153e adcb 5dbe
00000220: c1ad d4bd 7b09 c03d 6154 433e 71b5 67be
00000230: 221c 5bbd db8e afbd c5e4 94bd 4221 9cbc
00000240: 993c d73c 26e0 ae3d 18b5 9ebd 44cd 6f3d
00000250: 03fd 5bbd b91b 8a3c 1cfc eabd 87b1 c9bd
00000260: 6404 c23c 1358 90bd 07de 40bd c626 bf3c
00000270: 82b4 d33d c00c 1a3d c7e5 79bd 247a 9a3d
00000280: 4c64 ed3d 2689 abbd c384 22bc 88e1 933d
00000290: 8ff2 3d3c f325 9ebd 2d0a aabd 61b1 8cbc
000002a0: 75fc 26be 3424 63bc d0c1 e93d 4d1c 5cbe
000002b0: c50a 743d 8c79 783e 6588 8bbd 5f83 ae3c
000002c0: 5098 c43c 4553 d0bb 8123 773d 0ec0 a93c
000002d0: ac36 933d 5215 e5bc 79bf e0bd 9bdc 5bbd
000002e0: 0463 ad3d a4a6 12bd d974 97bd f0a4 acbc
000002f0: 6bb0 0c3d 3420 52bd 4fc9 413d 232e 83bd
00000300: db33 d0bd 1b25 79bd e77b 5b3d c18d 43bd
00000310: 8fa7 94bd 9343 683b 6833 ee3d 6a6a 67be
00000320: d698 77bd 744e 95bd d520 44be 745b fabc
00000330: b751 73bd 41e4 c1bd e3b0 a83e 0444 ec3d
00000340: 5efc 41be c11d 30be 5632 19be acfb f63a
00000350: fc59 993d 4baf 51be 39ca a83d e986 7abd
00000360: bd3f c53d f210 b03d 036c d73d 2514 753d
00000370: 7f71 a93c d62d e43b 80b1 35be 8870 aabe
00000380: 2e25 83be 155f 0cbd bf6c 283d 0325 853d
00000390: 88d3 02bd 1c1c 9a3d 61c9 76bd db47 d53c
000003a0: af6c debd 3557 bfbd a9c9 ad3d 7703 93bc
000003b0: 80bb ef3d a50b ba3d 3e37 083e 72de 91bb
000003c0: 6c84 66bb 5cc5 893d c39e d1bd 4dff 4db9
000003d0: 883b c1bd 07fc 82bb 99bb 0dbc fd27 873d
000003e0: a71f 5c3d fcd7 663d 2998 3c3d 1832 f4bd
000003f0: 9b34 49be ec2f 00be ddf1 893d 3602 b2bb

conv4.bias f4 [10]
0.081829116 -0.09874573 0.21653737 -0.051179554 0.08804857 -0.037510358 0.026276074 -0.063403174
-0.026408363 0.10324855
00000000: 0696 a73d 343b cabd f9bb 5d3e a7a1 51bd
00000010: cf52 b43d 76a4 19bd ec40 d73c 86d9 81bd
00000020: 5a56 d8bc fa73 d33d

norm.weight f4 [10]
1.1175473 1.1191907 1.1210458 1.1466703 1.0208116 1.1251932 1.0958794 0.9944855
1.0185926 1.1356487
00000000: ca0b 8f3f a441 8f3f 6e7e 8f3f 18c6 923f
00000010: f4a9 823f 5506 903f c745 8c3f 9a96 7e3f
00000020: 3e61 823f f05c 913f

norm.bias f4 [10]
-0.4295745 -0.41276336 -0.33788222 -0.5039156 -0.32867536 -0.52137786 -0.43426877 -0.27246192
-0.42178243 -0.43587348
00000000: 30f1 dbbe b855 d3be e6fe acbe 9d00 01bf
00000010: 2348 a8be 0579 05bf 7a58 debe 2180 8bbe
00000020: def3 d7be cf2a dfbe

norm.running_mean f4 [10]
-0.9969815 0.4382034 -0.7168386 0.02456859 -0.60786605 -0.53083116 0.78660065 0.011362465
-0.093658745 -0.11785519
00000000: 2e3a 7fbf 325c e03e bc82 37bf 1144 c93c
00000010: 1c9d 1bbf 8de4 07bf a95e 493f a229 3a3c
00000020: 28d0 bfbd 105e f1bd

norm.running_var f4 [10]
0.25923765 0.3437827 0.24731843 0.31092998 0.28125498 0.49381953 0.43323645 0.2648059
0.17270714 0.27154833
00000000: ccba 843e 4904 b03e 0b41 7d3e 3732 9f3e
00000010: a700 903e ead5 fc3e 2bd1 dd3e a494 873e
00000020: 24da 303e 6208 8b3e

fc1.weight f4 [50, 810]
-0.03414519 -0.018634925 -0.048434496 0.017402679 -0.0009998094 -0.007833215 0.01068936 -0.015500147
0.0021274993 0.003813099 0.0061529838 -0.01774856 0.012625198 -0.04239303 0.032577172 0.045391064
-0.0051263124 0.0074018226 -0.012048611 0.040482305 -0.006237095 0.027197216 -0.0050269254 0.00896598
-0.010939276 -0.016099796 -0.007916828 0.0057387673 -0.0071734893 -0.034466304 -0.027295493 -0.010182557
-0.027341295 0.017102975 0.011490452 -0.033456326 0.020739106 -0.032222897 -0.022374317 -0.049521066
-0.03129165 -0.0135631105 -0.04130837 -0.05245792 -0.031808168 -0.01655918 -0.04903448 -0.044461887
-0.025028309 -0.0228822 -0.036079593 -0.02164037 0.012670789 -0.018228529 -0.023463199 -0.015630016
0.0024651994 0.0075638457 0.006947643 0.011264971 -0.0120771825 -0.022258403 0.0017423184 -0.009698972
0.048577823 -0.031129034 -0.021994604 -0.0023192689 0.002673559 0.013046984 -0.0025222339 -0.039496236
0.012003638 -0.03781155 -0.0064331144 0.002923785 -0.052126553 -0.014354314 0.0021238714 -0.020954927
-0.036025938 -0.020908197 0.016266342 0.004330435 0.02281962 -0.016192088 -0.0054939315 -0.022740634
-0.0012761243 0.011586424 0.01639606 -0.046042148 0.0059465687 -0.04937623 0.015350714 -0.02355786
-0.01045526 0.006092392 0.02979167 0.01503074 -0.002121799 -0.016833853 -0.04497101 0.0058259815
-0.017267734 -0.023667088 -0.016866395 -0.041408822 -0.046466336 0.021425143 -0.012254377 -0.046743605
-0.044596676 -0.004483096 -0.02465153 -0.009147406 -0.04437939 -0.011445214 -0.0049032033 0.0033780485
0.013941097 -0.0130686015 -0.00017526318 0.013540534 -0.0047243536 0.038017347 -0.03257361 -0.05221549
0.0021977618 -0.041279897 -0.02607127 -0.011982494 -0.023889752 -0.007454539 0.048521463 -0.024951987
-0.05168277 0.002889303 -0.004529421 -0.025065659 -0.03204996 0.04266888 -0.0076383813 -0.041415647
-0.028712502 0.016903602 0.003651891 -0.05262915 -0.012557309 0.0020078367 -0.028598186 -0.037301853
0.0133152865 0.0011067522 0.008904326 -0.024805859 -0.029270686 -0.027614625 0.010148252 -0.03165311
-0.021706093 -0.027428241 -0.009768393 -0.003275553 -0.03274639 0.0043980516 -0.02249948 -0.042967502
-0.00078258675 -0.05164116 -0.020400457 -0.03452726 -0.031956553 -0.024619784 -0.012821828 -0.0013471151
-0.018128783 -0.052969016 -0.0015656911 -0.04014606 0.0075713093 -0.0014881231 -0.01870661 -0.040184204
-0.050033137 -0.04738521 0.011057548 0.052783452 -0.030161642 -0.009079104 0.014103146 -0.010805324
-0.014629902 0.007022823 -0.0417399 -0.035490464 -0.037276957 -0.029532384 -0.011839224 -0.032497354
0.003921835 -0.0085300105 0.020822022 -0.017722966 0.015907027 -0.007598624 -0.041012183 0.0010876626
0.00899021 -0.0469448 -0.03164649 -0.037962537 0.012913976 -0.019326566 0.014348215 -0.025391057
-0.015146091 -0.030377464 -0.020501498 -0.015392159 0.009571165 -0.0066272826 -0.0067097684 -0.04544711
-0.01143888 0.007822745 0.015009359 -0.020152556 0.018875279 0.0028868113 -0.034918655 -0.0075129387
-0.019234313 0.015561241 0.040995926 0.0051121134 -0.028400004 0.028114405 -0.01956789 0.0022202872
0.0026404043 -0.0042946846 -0.020292029 -0.0459157 0.01669614 -0.025633054 -0.03277492 -0.0209774
-0.0058038663 0.0124596385 -0.038895156 -0.0064647794 -0.037237115 -0.008437863 -0.04659506 -0.016276961
00000000: d4db 0bbd 45a8 98bc 4063 46bd 1090 8e3c
00000010: 090c 83ba e356 00bc 6d22 2f3c 54f4 7dbc
00000020: 846d 0b3b 30e5 793b f89e c93b 6e65 91bc
00000030: ebd9 4e3c 50a4 2dbd a46f 053d fbeb 393d
00000040: a0fa a7bb fd8a f23b 8a67 45bc c6d0 253d
00000050: 8c60 ccbb b2cc de3c e8b8 a4bb 0ce6 123c
00000060: a63a 33bc b8e3 83bc 95b5 01bc 450c bc3b
00000070: 970f ebbb 8a2c 0dbd cc9a dfbc bdd4 26bc
00000080: dafa dfbc 8a1b 8c3c 7342 3c3c 8009 09bd
00000090: 0fe5 a93c 28fc 03bd 584a b7bc 9ad6 4abd
000000a0: ac2b 00bd cf37 5ebc f732 29bd 1ede 56bd
000000b0: 4849 02bd 1ea7 87bc 61d8 48bd ab1d 36bd
000000c0: 2b08 cdbc 7473 bbbc 32c8 13bd 2547 b1bc
000000d0: 2499 4f3c ff53 95bc e535 c0bc 850a 80bc
000000e0: 2f8f 213b 23da f73b 0ea9 e33b b790 383c
000000f0: 60df 45bc 4157 b6bc 815e e43a 70e8 1ebc
00000100: 8af9 463d 5102 ffbc 072e b4bc e0fe 17bb
00000110: e036 2f3b 04c3 553c 104c 25bb cec6 21bd
00000120: e8aa 443c 49e0 1abd e0cc d2bb f99c 3f3b
00000130: a782 55bd 5b2e 6bbc a630 0b3b aba9 abbc
00000140: ef8f 13bd ab47 abbc fe40 853c 52e6 8d3b
00000150: 36f0 ba3c 45a5 84bc 7006 b4bb 914a babc
00000160: a043 a7ba fcd4 3d3c 0851 863c b196 3cbd
00000170: 6fdb c23b bb3e 4abd 9081 7b3c 6afc c0bc
00000180: 8a4c 2bbc b0a2 c73b a90d f43c 7e43 763c
00000190: e10d 0bbb 26e7 89bc 8633 38bd e0e7 be3b
000001a0: 1075 8dbc 7be1 c1bc 652b 8abc 4c9c 29bd
000001b0: 7c53 3ebd c883 af3c 95c6 48bc 3976 3fbd
000001c0: 01ab 36bd efe6 92bb 01f2 c9bc 00df 15bc
000001d0: 2ac7 35bd b584 3bbc 0dab a0bb 4062 5d3b
000001e0: 3369 643c b01d 56bc dac6 37b9 1ed9 5d3c
000001f0: c0ce 9abb 14b8 1b3d e86b 05bd e9df 55bd
00000200: 5308 103b 1c15 29bd 6b93 d5bc 3952 44bc
00000210: 71b4 c3bc 3545 f4bb 71be 463d 1c68 ccbc
00000220: 50b1 53bd 765a 3d3b 8a6b 94bb 7f56 cdbc
00000230: d246 03bd 90c5 2e3d 634b fabb 74a3 29bd
00000240: 7b36 ebbc 6c79 8a3c 9054 6f3b aa91 57bd
00000250: 2cbd 4dbc e995 033b be46 eabc d4c9 18bd
00000260: 5c28 5a3c 7110 913a 73e3 113c a835 cbbc
00000270: 14c9 efbc 1138 e2bc db44 263c b1a6 01bd
00000280: fad0 b1bc 31b1 e0bc 9c0b 20bc a9aa 56bb
00000290: 1421 06bd 881d 903b d450 b8bc b1fe 2fbd
000002a0: 8226 4dba ae85 53bd dc1e a7bc 756c 0dbd
000002b0: e0e4 02bd 6eaf c9bc a512 52bc af91 b0ba
000002c0: d082 94bc 0af6 58bd e037 cdba 3270 24bd
000002d0: bf18 f83b 200d c3ba 9b3e 99bc 3198 24bd
000002e0: 8cef 4cbd fe16 42bd b82a 353c 7633 583d
000002f0: 8c15 f7bc 86c0 14bc e210 673c d008 31bc
00000300: 42b2 6fbc b61f e63b 75f7 2abd 735e 11bd
00000310: b9af 18bd e6ed f1bc 4ef9 41bc f21b 05bd
00000320: bd82 803b 75c1 0bbc f292 aa3c c12f 91bc
00000330: 744f 823c e1fd f8bb 64fc 27bd e78f 8e3a
00000340: ac4b 133c 3149 40bd c09f 01bd 9b7e 1bbd
00000350: 2495 533c bf52 9ebc c714 6b3c e800 d0bc
00000360: 4f27 78bc 29da f8bc c2f2 a7bc 652f 7cbc
00000370: 60d0 1c3c ad29 d9bb 9edd dbbb c026 3abd
00000380: 246a 3bbc f82a 003c d1e9 753c f916 a5bc
00000390: 54a0 9a3c a830 3d3b dd06 0fbd 192f f6bb
000003a0: 4791 9dbc 93f4 7e3c 58eb 273d 8483 a73b
000003b0: 20a7 e8bc 2e50 e63c d74c a0bc 3d82 113b
000003c0: a20a 2d3b 6dba 8cbb 783b a6bc 1a12 3cbd
000003d0: 58c6 883c 69fc d1bc ff3e 06bd ccd8 abbc
000003e0: 5c2e bebb 8323 4c3c 8750 1fbd 80d6 d3bb
000003f0: f285 18bd f63e 0abc 76da 3ebd 4357 85bc

fc1.bias f4 [50]
-0.03896699 -0.027500879 -0.040914185 0.015313309 -0.056815457 -0.0073517677 -0.0039254283 -0.032028865
0.018382141 -0.007671795 -0.042012244 -0.029135086 -0.020805959 0.04849883 -0.043403402 -0.0076428093
0.016681176 -0.03951668 -0.12527326 -0.046159413 -0.02540462 -0.039417166 -0.022509484 0.12657446
-0.026075069 -0.025702313 0.1291985 0.09626839 -0.025638156 0.101321325 0.04293592 0.023635842
0.01615084 0.015932983 -0.053144105 0.017600287 -0.0017184608 -0.01805048 -0.0398917 0.11049819
-0.03872457 0.12376523 -0.022368006 -0.04240855 -0.025331452 -0.21871763 -0.022530781 0.086356044
-0.0390235 -0.02614986
00000000: da9b 1fbd 8649 e1bc a295 27bd ace4 7a3c
00000010: 53b7 68bd 19e7 f0bb e1a0 80bb b330 03bd
00000020: 2596 963c ae63 fbbb 0815 2cbd b4ac eebc
00000030: 4271 aabc b6a6 463d c4c7 31bd 8870 fabb
00000040: f6a6 883c 3edc 21bd a247 00be a711 3dbd
00000050: 5a1d d0bc e573 21bd cf65 b8bc bc9c 013e
00000060: 629b d5bc a88d d2bc 9d4c 043e 5d28 c53d
00000070: 1c07 d2bc 8e81 cf3d 93dd 2f3d f49f c13c
00000080: c44e 843c e385 823c a2ad 59bd 7a2e 903c
00000090: fa3d e1ba 9ade 93bc 7b65 23bd e04c e23d
000000a0: a89d 1ebd a078 fd3d 1c3d b7bc 96b4 2dbd
000000b0: e883 cfbc 84f7 5fbe 7992 b8bc 70db b03d
000000c0: 1bd7 1fbd 3b38 d6bc

fc2.weight f4 [7, 50]
-0.1267325 -0.11635996 0.08406348 0.032449823 -0.054525767 -0.023252876 -0.04182173 -0.017852433
-0.115919776 0.09820293 0.04708608 0.007601876 -0.023484074 0.004747137 0.03039634 0.0020390383
-0.025006315 -0.03313078 -0.14989172 -0.024364434 -0.0060486975 -0.025790447 -0.15076469 -0.04822681
-0.04697524 0.011155622 -0.077994786 0.022895152 0.10087196 -0.032504786 0.1391438 -0.099104434
0.027633352 -0.15636359 0.06766516 0.14778207 -0.14128421 0.11184226 0.22841042 0.13672909
-0.1395286 0.18633348 -0.20120631 0.11879037 -0.06327413 -0.22073138 -0.1279958 0.1133798
0.05083303 0.057107244 -0.1349212 -0.066194214 -0.025172114 -0.06400286 -0.20763004 -0.024075443
0.047096517 0.0047017406 -0.05187072 0.11690315 0.13039319 -0.08862068 -0.07191333 -0.0018336214
0.11111986 -0.058961283 0.07805292 -0.067416154 -0.3745964 0.04473276 0.06939174 0.09761683
0.057248656 0.26713562 -0.06990712 -0.0085960375 0.18872203 0.16201949 0.09320913 0.31790844
-0.29332832 -0.16321003 -0.06620637 0.086489044 0.057896268 -0.2868279 -0.009550134 0.10851843
-0.24381684 -0.033076722 -0.15609473 0.17647527 -0.14087285 0.058587108 -0.14412428 -0.25068346
0.079228014 0.13103579 -0.15245995 -0.1282091 -0.14614171 -0.11107861 0.16379999 -0.0037646117
-0.02583114 -0.019446671 -0.02275907 -0.00014656103 0.09419222 0.088183664 0.08148601 -0.0026414448
-0.05227387 -0.20768775 -0.0011432758 -0.0045715473 0.008825572 -0.06602927 0.11447346 -0.028477766
-0.01156262 -0.032919507 0.11139876 -0.029309899 0.020622825 0.12570602 0.108303286 -0.094067104
-0.06682968 -0.09067407 0.20078525 -0.018476505 -0.07604682 0.04309835 -0.069230594 0.013528419
-0.04116772 -0.13420166 -0.16871823 0.17587763 0.07614088 0.044947084 0.22133487 0.13459513
0.21616405 -0.20249559 -0.22112624 -0.18324706 -0.0954771 -0.06084546 -0.067408465 -0.016374176
0.11107624 -0.118214786 0.0016403159 0.08608684 -0.09941699 -0.12347055 0.032984387 0.0761284
0.0053786514 0.07863344 -0.022794055 -0.054497276 -0.12061152 -0.13886662 -0.11627211 0.09215948
0.2750312 -0.05834262 0.005227967 -0.1042256 0.04196115 -0.29015136 -0.043203156 -0.13406189
-0.040748376 -0.00878607 0.11972026 0.086836286 -0.15631811 -0.059742227 0.048889413 0.011385815
0.009826487 -0.17123702 0.03675037 0.025892917 -0.10775081 -0.26768842 -0.040683802 0.13144726
-0.08196083 0.03347212 -0.17734161 0.26093027 -0.11090523 0.054775078 0.070470065 -0.05984749
-0.080071345 0.13586284 0.062298067 -0.15190144 0.29199085 -0.0156955 -0.09162009 -0.098809764
0.06773622 -0.07454454 -0.0021698782 -0.115445025 -0.09214012 -0.22742853 0.027490176 -0.080186315
-0.050486475 -0.02335795 0.014587396 -0.103035495 0.12626463 -0.079541884 -0.073523015 0.20282601
-0.1054775 -0.06496322 0.0071705 -0.25261447 -0.025729336 0.2182761 0.0014229827 -0.045368902
-0.012402764 0.011548669 0.008926857 0.17605148 -0.065775156 -0.05960594 -0.1232164 -0.34721723
-0.02242003 -0.23944576 0.068798855 -0.14933345 0.17498048 0.058220286 -0.12547617 0.06359513
-0.065208726 0.023342695 -0.05753646 -0.3317173 -0.22182164 -0.22867912 -0.06074632 0.071689546
00000000: 2ac6 01be 214e eebd 7929 ac3d 1bea 043d
00000010: 6956 5fbd d17c bebc 434d 2bbd 443f 92bc
00000020: 5967 edbd 9e1e c93d 55dd 403d 2819 f93b
00000030: ac61 c0bc df8d 9b3b bf01 f93c 63a1 053b
00000040: 0bda ccbc 24b4 07bd 377d 19be ec97 c7bc
00000050: 2734 c6bb 7d46 d3bc 0f62 1abe 7a89 45bd
00000060: 1c69 40bd 12c6 363c bbbb 9fbd 9d8e bb3c
00000070: f595 ce3d bd23 05bd b67b 0e3e 44f7 cabd
00000080: 575f e23c c71d 20be 0894 8a3d 2f54 173e
00000090: cfac 10be 8e0d e53d 6ce4 693e b602 0c3e
000000a0: 96e0 0ebe 34ce 3e3e 0709 4ebe 5e48 f33d
000000b0: de95 81bd 6807 62be 5511 03be ab33 e83d
000000c0: 4c36 503d 49e9 693d c828 0abe d590 87bd
000000d0: c035 cebc ee13 83bd f89c 54be dd39 c5bc
000000e0: 47e8 403d 0f11 9a3b 6476 54bd eb6a ef3d
000000f0: cb85 053e c27e b5bd 4c47 93bd 2056 f0ba
00000100: cf92 e33d 6381 71bd 36da 9f3d 7b11 8abd
00000110: 19cb bfbe b339 373d 421d 8e3d 55eb c73d
00000120: 917d 6a3d 00c6 883e 772b 8fbd 65d6 0cbc
00000130: 5940 413e 70e8 253e 6ee4 be3d e5c4 a23e
00000140: 212f 96be 8820 27be 3597 87bd 2b21 b13d
00000150: a324 6d3d 1bdb 92be 2a78 1cbc e93e de3d
00000160: 1fab 79be 757b 07bd 4cd7 1fbe efb5 343e
00000170: f940 10be 09f9 6f3d 5195 13be 9559 80be
00000180: 4c42 a23d 3f2e 063e 761e 1cbe 3f49 03be
00000190: 2ca6 15be 2f7d e3bd 2fbb 273e b4b7 76bb
000001a0: d49b d3bc a04e 9fbc 3b71 babc 2dae 19b9
000001b0: dae7 c03d a399 b43d 23e2 a63d 171c 2dbb
000001c0: 201d 56bd 19ac 54be f8d9 95ba ebcc 95bb
000001d0: 2299 103c 5b3a 87bd 1071 ea3d 344a e9bc
000001e0: 2571 3dbc 9bd6 06bd 0825 e43d 501b f0bc
000001f0: 33f1 a83c 14b9 003e 1dce dd3d 41a6 c0bd
00000200: 00de 88bd 54b3 b9bd a69a 4d3e 0a5c 97bc
00000210: 6fbe 9bbd e587 303d c5c8 8dbd 4da6 5d3c
00000220: 7c9f 28bd 296c 09be 79c4 2cbe 4419 343e
00000230: c0ef 9b3d 6f1a 383d 9ca5 623e 4ed3 093e
00000240: 1c5a 5d3e 015b 4fbe eb6e 62be 1ea5 3bbe
00000250: 7f89 c3bd 1739 79bd 730d 8abd 2323 86bc
00000260: f17b e33d 981a f2bd deff d63a 4c4e b03d
00000270: 239b cbbd 21de fcbd a31a 073d 35e9 9b3d
00000280: 663f b03b 920a a13d 99ba babc 8938 5fbd
00000290: 2c03 f7bd 0d33 0ebe 1220 eebd 1cbe bc3d
000002a0: e4d0 8c3e acf8 6ebd 5e4f ab3b 3b74 d5bd
000002b0: 74df 2b3d b88e 94be cbf5 30bd 8547 09be
000002c0: c5e7 26bd 73f3 0fbc e52f f53d 39d7 b13d
000002d0: db11 20be 44b4 74bd 4440 483d 928b 3a3c
000002e0: 46ff 203c c258 2fbe 8e87 163d 621d d43c
000002f0: 75ac dcbd 750e 89be 0fa4 26bd 1c9a 063e
00000300: 14db a7bd 101a 093d 0a99 35be a798 853e
00000310: 4822 e3bd d55b 603d 9c52 903d a422 75bd
00000320: 72fc a3bd a11f 0b3e 422c 7f3d 0d8c 1bbe
00000330: d37f 953e d993 80bc 50a3 bbbd c65c cabd
00000340: 4ab9 8a3d cfaa 98bd 8434 0ebb 716e ecbd
00000350: f6b3 bcbd 06e3 68be 1433 e13c b938 a4bd
00000360: e8ca 4ebd 2c59 bfbc f9ff 6e3c 4604 d3bd
00000370: 844b 013e dbe6 a2bd 3c93 96bd 9fb1 4f3e
00000380: 9604 d8bd 700b 85bd 83f6 ea3b af56 81be
00000390: 54c6 d2bc c583 5f3e 6083 ba3a bed4 39bd
000003a0: f634 4bbc a136 3d3c f441 123c d746 343e
000003b0: 20b5 86bd 5c25 74bd e158 fcbd 75c6 b1be
000003c0: 36aa b7bc 4531 75be 6ae6 8c3d deea 18be
000003d0: 152e 333e 6578 6e3d d37c 00be 2a3e 823d
000003e0: 278c 85bd 2e39 bf3c 5aab 6bbd dad6 a9be
000003f0: 3625 63be dc2a 6abe 22d1 78bd f8d1 923d

fc2.bias f4 [7]
0.22885486 0.2021814 0.015438032 -0.069033556 -0.16695671 -0.07252112 -0.18362214
00000000: ee58 6a3e a408 4f3e cdef 7c3c 7761 8dbd
00000010: b3f6 2abe f485 94bd 7107 3cbe

localization.0.weight f4 [8, 1, 7, 7]
0.11603415 -0.021225957 0.082063295 0.06790517 -0.009425318 -0.045191504 -0.1018268 -0.05382675
-0.12904586 -0.05421155 -0.042400766 0.09136695 -0.10651151 0.012001351 0.062427495 -0.05807481
-0.13372634 -0.13356899 -0.030910054 0.04348166 -0.07376279 -0.1331637 0.052342318 -0.050911333
0.014412852 -0.020589394 0.01724224 -0.052276682 -0.055222034 -0.13346396 -4.5528977e-05 -0.12699606
0.04259194 -0.13875759 0.046157494 -0.088921845 -0.097586274 -0.004993011 0.06423225 -0.067682825
0.086819 -0.036579203 0.036006536 0.016736003 0.030499056 -0.06410321 0.062953055 0.0066265473
0.07641604 0.024913521 0.043806333 -0.07372607 -0.08410927 -0.054574087 0.01053266 -0.06435458
0.12330809 -0.0842044 0.034671456 0.06678735 0.08665657 -0.004439608 -0.126429 -0.12788953
-0.028960798 0.09184186 -0.046746973 -0.01359486 0.036902454 0.12977578 -0.10037765 0.071626335
-0.0687372 -0.1200826 0.0079234475 -0.0043313196 0.13827743 0.12541594 0.050506566 0.13107055
-0.08182608 0.058682606 0.14001106 0.117788196 -0.06267135 0.109619774 0.021521537 -0.104575306
0.02025055 0.033623416 -0.0100292 0.04707699 0.13881004 0.08367194 -0.0639858 0.13999492
-0.1299304 -0.07888889 0.00088476174 0.10420785 -0.08502613 -0.048053537 0.02878595 -0.13637015
-0.0034801422 -0.12960118 0.02858384 0.023161124 0.078617 0.11478405 0.10085694 0.08709997
0.030020313 -0.10637769 0.07053049 0.119359545 0.046612702 -0.14993425 0.039956663 -0.14384252
0.11403764 0.026072068 0.089616366 -0.1433282 0.027916478 0.053384155 0.004485479 0.050933335
-0.0222921 -0.12179717 0.03411757 0.043720778 -0.14887542 -0.14349414 -0.02896168 -0.010792084
-0.08849201 -0.090276964 0.12896587 0.023945533 0.036976133 -0.13220705 -0.09549951 0.02978174
0.058689103 -0.13882367 -0.072055615 -0.1296733 0.07921584 -0.033974346 -0.07543244 -0.10149295
0.012679662 -0.020509737 -0.058060102 0.10367926 -0.021016067 0.02215886 0.11204862 -0.0953931
-0.051339116 -0.10914678 0.11516835 0.050212204 0.11328187 -0.092271395 0.10560699 0.08329438
-0.049273744 -0.14407544 0.05386463 -0.09400942 -0.07915679 0.101481 0.006402218 0.13075535
-0.1256185 -0.025711214 -0.0714811 0.1281267 0.09498555 0.09462041 -0.03891933 0.13353044
0.0053309673 -0.03883214 -0.11958386 -0.05435818 -0.007876074 -0.1160081 -0.06387233 -0.033479597
0.066284694 -0.034264505 0.06035509 -0.0002965016 0.019930527 -0.00057967607 0.008782506 0.074097596
-0.0014166147 -0.000118758675 -0.0353628 -0.0016497319 0.054771036 0.017022135 -0.16015491 -0.11594624
0.11968151 0.06810593 0.054955635 -0.042003836 0.015020539 0.019833691 0.059512757 0.086763255
-0.079836756 0.10415659 0.084773615 -0.055162832 0.077676415 0.017752256 0.009368934 0.12225148
0.037768755 -0.069574535 0.0075292764 0.08907902 0.08497666 0.10645105 0.08574941 -0.10553559
-0.10922451 -0.06417651 0.09706183 0.12840928 0.030208146 -0.09284947 0.11357382 0.076242715
0.00022258343 0.052277114 -0.066809975 -0.08570959 0.0038845378 -0.048372056 0.019543204 0.042055
-0.12558636 -0.050230335 0.095513895 -0.050726444 -0.13348116 -0.0866315 -0.1099311 0.09921968
00000000: 50a3 ed3d 0fe2 adbc cd10 a83d de11 8b3d
00000010: a66c 1abc ba1a 39bd 928a d0bd 7079 5cbd
00000020: 9924 04be ee0c 5ebd 6dac 2dbd 981e bb3d
00000030: b522 dabd 51a1 443c f9b3 7f3d dadf 6dbd
00000040: 8fef 08be 4fc6 08be 1537 fdbc d319 323d
00000050: f210 97bd 115c 08be e664 563d 6788 50bd
00000060: e223 6c3c 17ab a8bc 993f 8d3c 1320 56bd
00000070: 8030 62bd c7aa 08be 5ef6 3eb8 410b 02be
00000080: e374 2e3d 7816 0ebe a40f 3d3d a81c b6bd
00000090: 50db c7bd 699c a3bb 338c 833d 4b9d 8abd
000000a0: 29ce b13d 13d4 15bd 977b 133d f119 893c
000000b0: 28d9 f93c 8b48 83bd 88ed 803d 8223 d93b
000000c0: 0380 9c3d 7117 cc3c 456e 333d b2fd 96bd
000000d0: 7b41 acbd 1489 5fbd 2e91 2c3c 56cc 83bd
000000e0: f488 fc3d 5b73 acbd a803 0e3d cec7 883d
000000f0: 0079 b13d 227a 91bb 9b76 01be 79f5 02be
00000100: 323f edbc 9617 bc3d c179 3fbd fabc 5ebc
00000110: 0727 173d f1e3 043e cc92 cdbd d4b0 923d
00000120: 17c6 8cbd deed f5bd 59d1 013c beed 8dbb
00000130: 9998 0d3e 096d 003e f9df 4e3d 5c37 063e
00000140: 6f94 a7bd 2c5d 703d 0f5f 0f3e f03a f13d
00000150: d659 80bd 5580 e03d ef4d b03c 942b d6bd
00000160: 7be4 a53c b5b8 093d 8451 24bc cdd3 403d
00000170: 3824 0e3e 325c ab3d fd0a 83bd d45a 0f3e
00000180: 7a0c 05be 8090 a1bd 5bef 673a ed6a d53d
00000190: 2e22 aebd c9d3 44bd 83d0 eb3c 9ea4 0bbe
000001a0: 1913 64bb 2cb6 04be a828 ea3c 66bc bd3c
000001b0: f301 a13d e613 eb3d 158e ce3d 7861 b23d
000001c0: 29ed f53c 8cdc d9bd 4a72 903d c772 f43d
000001d0: f6ec 3e3d 5d88 19be 99a9 233d 744b 13be
000001e0: 918c e93d 1795 d53c c988 b73d a1c4 12be
000001f0: 19b1 e43c 58a9 5a3d edfa 923b 799f 503d
00000200: ec9d b6bc cb70 f9bd ddbe 0b3d 8f14 333d
00000210: cc72 18be 21f0 12be 0c41 edbc 48d1 30bc
00000220: 4d3b b5bd 21e3 b8bd a10f 043e 6c29 c43c
00000230: 4974 173d 4961 07be 3f95 c3bd d6f8 f33c
00000240: fc63 703d cb27 0ebe e591 93bd 14c9 04be
00000250: ea3b a23d af28 0bbd 537c 9abd 89db cfbd
00000260: 5bbe 4f3c 0904 a8bc 6ed0 6dbd cb55 d43d
00000270: e329 acbc 7f86 b53c bf79 e53d 755d c3bd
00000280: f748 52bd 5988 dfbd 62dd eb3d 50ab 4d3d
00000290: 5300 e83d c9f8 bcbd 7a48 d83d 3e96 aa3d
000002a0: 44d3 49bd 8388 13be 29a1 5c3d 0388 c0bd
000002b0: f51c a2bd 45d5 cf3d b2c9 d13b bbe4 053e
000002c0: 23a2 00be 53a0 d2bc af64 92bd a533 033e
000002d0: c987 c23d 58c8 c13d e069 1fbd 34bc 083e
000002e0: 65af ae3b 730e 1fbd 62e8 f4bd afa6 5ebd
000002f0: a60a 01bc a895 edbd 7fcf 82bd e721 09bd
00000300: 45c0 873d f058 0cbd e636 773d c573 9bb9
00000310: 5845 a33c 67f5 17ba 80e4 0f3c 7bc0 973d
00000320: b4ad b9ba 140e f9b8 95d8 10bd d13b d8ba
00000330: 9857 603d 0172 8b3c a6ff 23be 3975 edbd
00000340: 941b f53d 1f7b 8b3d 2919 613d 370c 2cbd
00000350: b518 763c 447a a23c a6c3 733d efb0 b13d
00000360: 7481 a3bd 0d50 d53d ca9d ad3d 6cf2 61bd
00000370: d014 9f3d 2e6d 913c 2880 193c fc5e fa3d
00000380: 69b3 1a3d 187d 8ebd 26b8 f63b 106f b63d
00000390: 3e08 ae3d 0203 da3d 639d af3d 0b23 d8bd
000003a0: 1ab1 dfbd f96e 83bd 5ac8 c63d b97d 033e
000003b0: 1377 f73c dd27 bebd 6499 e83d 2425 9c3d
000003c0: 4965 6939 8720 563d abd3 88bd 8288 afbd
000003d0: bb93 7e3b c721 46bd 1219 a03c dd41 2c3d
000003e0: b699 00be 53be 4dbd ca9c c33d 88c6 4fbd
000003f0: 49af 08be db6b b1bd 8e23 e1bd b033 cb3d

localization.0.bias f4 [8]
-0.14747742 0.12450165 0.12694527 -0.119608015 0.109668344 0.08626258 -0.01587381 0.047603413
00000000: 5204 17be b9fa fe3d f1fd 013e 0cf5 f4bd
00000010: cc99 e03d 6faa b03d cb09 82bc ccfb 423d

localization.3.weight f4 [10, 8, 5, 5]
-0.065982856 -0.06695908 0.030386256 -0.1050729 -0.14313094 -0.016788868 0.0032890632 -0.046593033
-0.047490407 -0.09736271 -0.077469364 0.003325391 -0.04267109 -0.07463906 -0.087401085 0.021056024
0.029254235 0.0061894115 -0.079296604 -0.07042633 0.028230999 -0.065208726 -0.03965293 0.018575523
-0.025057403 0.023417018 -0.092069335 -0.0493767 0.0067210887 -0.042373218 -0.08258059 0.015851783
-0.07203851 -0.036998574 0.040975858 -0.09054738 0.0053297295 -0.028350314 0.009958427 0.007971984
-0.02846288 0.050910193 0.037217967 -0.04411725 0.010394961 0.025461873 -0.089314565 -0.0074478565
0.022961117 -0.059377678 0.018332688 -0.08009598 -0.048230022 0.03337797 0.03553064 -0.07360683
0.0427668 0.0074190106 2.964469e-06 -0.046675675 -0.045002475 0.008938592 0.02953004 -0.0033448872
-0.019570105 0.030375244 0.0028573554 -0.014683114 -0.058794457 -0.07144243 -0.03892224 -0.06553746
0.050308622 -0.06497831 -0.0817924 0.037829842 -0.025170425 -0.0029880588 0.020699069 -0.002486271
-0.07230055 0.015396611 -0.0016441267 0.058982216 -0.08138765 -0.03768302 0.041750588 0.02505659
0.037289325 -0.013512231 -0.045990672 0.00062161265 -0.07433772 0.034922358 -0.06561261 -0.023842946
-0.047576968 -0.032559775 0.02456936 0.00742676 -0.06454927 -0.08312842 -0.010847741 -0.05229277
0.0134588545 0.047808822 0.03612154 -0.04892548 0.018419651 0.03793696 0.004236287 0.02884133
0.0013765291 0.0031915577 -0.0775251 -0.025798837 0.0367229 -0.04634148 -0.06240559 -0.0879597
0.045081932 0.0064780093 -0.02215991 0.009913802 -0.047700305 -0.085595205 0.03839422 0.02024117
0.042182226 0.002783357 0.04667855 -0.07522784 -0.0040027383 -0.07820001 0.017409481 0.009251938
0.030197328 0.015656387 0.03263204 0.015877586 0.018045004 -0.002454079 -0.006512277 -0.040966146
-0.040291227 -0.012650549 0.033177793 -0.0019895253 0.029034225 0.022874016 0.04498705 -0.06992186
-0.0081022475 -0.05049526 -0.055924788 -0.047037683 0.04709547 -0.0035339126 0.028272051 0.04555962
0.015259547 -0.06590264 -0.05635473 0.046503764 0.026471961 -0.047031343 0.031390656 -0.033222508
0.021355132 0.0023230251 -0.08245239 0.005935054 -0.04382914 0.022358013 0.035257567 -0.024679985
-0.009705019 -0.025053263 0.009837442 0.00461104 0.056888085 0.025167286 0.0072907293 -0.062893435
-0.08500703 -0.04519245 -0.024673928 0.056477256 0.002233171 -0.017499514 0.049205966 -0.059087902
-0.085766345 -0.05069586 -0.06859935 -0.07767129 0.024029458 -0.04582917 -0.059876107 0.03906009
0.040561542 0.035878763 -0.0457341 0.046905633 -0.055754617 0.02556392 0.015640104 -0.04277077
-0.053034935 0.03585015 0.005556672 -0.0018982383 0.02888783 0.038509265 0.045769062 -0.06354818
-0.037118446 0.049872853 0.032055914 -0.010646553 -0.010511773 0.004969772 0.0039596586 -0.04037006
-0.07231811 -0.0061339615 -0.068087526 0.022495788 -0.056685824 -0.010076622 -0.07257812 0.0066507515
-0.071105346 -0.018635679 -0.0154701285 -0.028089078 -0.0064182454 -0.024754096 -0.032804295 -0.04644517
-0.038642142 0.0056177415 0.04776847 -0.007163464 -0.04616034 -0.062407285 -0.06941874 0.04848995
-0.06910413 0.04530501 -0.08219644 -0.007880182 0.043709956 -0.068427406 -0.04066346 -0.0825706
00000000: 0522 87bd d821 89bd 99ec f83c 7630 d7bd
00000010: eb90 12be cf88 89bc 538d 573b 56d8 3ebd
00000020: 4d85 42bd 1a66 c7bd 42a8 9ebd ceee 593b
00000030: e2c7 2ebd 5ddc 98bd 57ff b2bd af7d ac3c
00000040: 94a6 ef3c 8cd0 ca3b 4266 a2bd ae3b 90bd
00000050: b244 e73c 278c 85bd 1c6b 22bd b22b 983c
00000060: 2f45 cdbc 0cd5 bf3c d98e bcbd 393f 4abd
00000070: 943c dc3b 8a8f 2dbd 0320 a9bd 99db 813c
00000080: ed88 93bd d18b 17bd 4dd6 273d e870 b9bd
00000090: 03a5 ae3b eb3e e8bc ac28 233c ed9c 023c
000000a0: fc2a e9bc 3587 503d de71 183d 4ab4 34bd
000000b0: a04f 2a3c 6b95 d03c 8eea b6bd 260d f4bb
000000c0: f418 bc3c 0236 73bd 6f2e 963c 5c09 a4bd
000000d0: d88c 45bd 57b7 083d 9488 113d 2dbf 96bd
000000e0: 3d2c 2f3d 2c1b f33b 31f1 4636 fe2e 3fbd
000000f0: 8454 38bd 2c73 123c fce8 f13c e535 5bbb
00000100: 7c51 a0bc 81d5 f83c 7842 3b3b 7291 70bc
00000110: 75d2 70bd 6950 92bd ed6c 1fbd 8138 86bd
00000120: 6a10 4e3d 5913 85bd c682 a7bd 77f3 1a3d
00000130: 3532 cebc 4fd3 43bb 1891 a93c b5f0 22bb
00000140: 5012 94bd 1142 7c3c bd7f d7ba 5697 713d
00000150: 91ae a6bd 8359 1abd aa02 2b3d 7a43 cd3c
00000160: b1bc 183d 6862 5dbc b760 3cbd b8f3 223a
00000170: 603e 98bd bf0a 0f3d e75f 86bd 4852 c3bc
00000180: 11e0 42bd 665d 05bd af45 c93c 2e5c f33b
00000190: 6832 84bd 3c3f aabd b9ba 31bc f230 56bd
000001a0: 8782 5c3c 2fd3 433d 2ef4 133d 1666 48bd
000001b0: cfe4 963c c963 1b3d 8dd0 8a3b a744 ec3c
000001c0: a76c b43a 7429 513b 7bc5 9ebd 1558 d3bc
000001d0: c06a 163d 90d0 3dbd 019d 7fbd 3724 b4bd
000001e0: d5a7 383d 7b45 d43b b388 b5bc 806d 223c
000001f0: 6561 43bd 8a4c afbd 4243 1d3d cfd0 a53c
00000200: 45c7 2c3d fb68 363b 0232 3f3d 0e11 9abd
00000210: 6729 83bb 5427 a0bd 549e 8e3c 7195 173c
00000220: 6360 f73c d341 803c 2da9 053d b611 823c
00000230: 1ed3 933c 9dd4 20bb f064 d5bb 1ecc 27bd
00000240: 6a08 25bd 4044 4fbc 70e5 073d b262 02bb
00000250: 2fd9 ed3c 4a62 bb3c 5744 383d 3133 8fbd
00000260: 4abf 04bc 1ed4 4ebd 6411 65bd 96aa 40bd
00000270: 2ee7 403d 3799 67bb ca9a e73c b99c 3a3d
00000280: 2e03 7a3c f7f7 86bd 38d4 66bd bb7a 3e3d
00000290: badb d83c f0a3 40bd 7d93 003d 5314 08bd
000002a0: f5f0 ae3c e53d 183b ccdc a8bd d77a c23b
000002b0: 2f86 33bd 2728 b73c 3d6a 103d ae2d cabc
000002c0: cd01 1fbc 803c cdbc 392d 213c 3518 973b
000002d0: 7b03 693d a02b ce3c 12e7 ee3b 46ce 80bd
000002e0: 2a18 aebd b81b 39bd fa20 cabc b254 673d
000002f0: 645a 123b 245b 8fbc 328c 493d 2806 72bd
00000300: 44a6 afbd 76a6 4fbd d17d 8cbd 2012 9fbd
00000310: 6dd9 c43c 5eb7 3bbd a640 75bd 79fd 1f3d
00000320: dc23 263d 9cf5 123d ae53 3bbd 1f20 403d
00000330: f45e 64bd 6d6b d13c ad1f 803c 6730 2fbd
00000340: 293b 59bd 9bd7 123d be14 b63b 4fce f8ba
00000350: 2ca6 ec3c e4bb 1d3d 5778 3b3d 8c25 82bd
00000360: 8309 18bd 7a47 4c3d 104d 033d e16e 2ebc
00000370: 9239 2cbc 78d9 a23b 06c0 813b 135b 25bd
00000380: 841b 94bd 66ff c8bb 7971 8bbd 1649 b83c
00000390: 652f 68bd 6a18 25bc d6a3 94bd 8cee d93b
000003a0: ae9f 91bd daa9 98bc 6c76 7dbc 111b e6bc
000003b0: 2550 d2bb 1ac9 cabc cc5d 06bd 4a3d 3ebd
000003c0: 3947 1ebd 0815 b83b dfa8 433d 7ebb eabb
000003d0: a012 3dbd c89e 7fbd 6a2b 8ebd 669d 463d
000003e0: 7786 8dbd bf91 393d 9b56 a8bd e11b 01bc
000003f0: 3609 333d ab23 8cbd ba8e 26bd c61a a9bd
