deep_emotion-100-8-0.003.pt (torch, 274522 bytes, 24 tensors)

conv1.weight f4 [10, 1, 3, 3]
0	0x3e9c07ca	0.30474693
1	0xbe89160e	-0.2677464
2	0xbe682291	-0.22669436
3	0xbe42bd8d	-0.1901762
4	0xbd66e76a	-0.056373037
5	0x3ed10910	0.40827227
6	0x3eb7c3b9	0.35891512
7	0x3e4efc94	0.20213538
8	0xbeaf0b39	-0.3418825
9	0xbde564ea	-0.112008885
10	0x3ea122de	0.31471914
11	0xbb601a6d	-0.0034195438
12	0xbef5f497	-0.4803817
13	0x3e49e9b4	0.19718057
14	0x3d13855a	0.036015846
15	0x3cb3d3ca	0.021951575
16	0xbdfcacff	-0.12337684
17	0x3eb3a90c	0.3508991
18	0xbe0ed625	-0.13948877
19	0xbe3ad5d1	-0.18245627
20	0xbe6248fc	-0.22098154
21	0x3e574230	0.21021342
22	0x3e91c8d3	0.2847353
23	0xbe79fee8	-0.24413645
24	0xbe18cae7	-0.14921151
25	0xbec17114	-0.37781584
26	0x3e9d5331	0.30727533
27	0xbea072f8	-0.31337714
28	0xbe79ac46	-0.24382123
29	0x3e8b7857	0.2724025
30	0xbea809b8	-0.32819915
31	0x3ec24b6f	0.37948176
32	0x3e267b45	0.16257961
33	0xbe8f7721	-0.28020576
34	0x3e6de854	0.23233157
35	0xbd80d8fe	-0.06291388
36	0x3e99e826	0.30059928
37	0x3e0e4954	0.1389516
38	0xbe9c6a6d	-0.30549946
39	0xbeb89705	-0.3605272
40	0x3e67ce2a	0.22637239
41	0xbe1033a4	-0.140822
42	0xbd54d5ce	-0.051961713
43	0xbea7aa72	-0.32747227
44	0x3ea827e8	0.32842946
45	0x3e918e73	0.28428993
46	0xbec25a82	-0.37959677
47	0xbe8c46c7	-0.2739775
48	0x3ef2b914	0.47406828
49	0xbde60ce9	-0.11232931
50	0xbea519a3	-0.32246122
51	0xbd82012d	-0.063478805
52	0x3ed39e41	0.41331676
53	0xbe99e68b	-0.30058703
54	0xbee935f9	-0.4554899
55	0x3e85deaa	0.26146442
56	0x3e971215	0.29505983
57	0x3ea3da0d	0.32002297
58	0xbdd9282e	-0.10603367
59	0xbe6de9d8	-0.23233736
60	0x3e549abc	0.20762151
61	0xbe985b72	-0.29757267
62	0xbec48c8a	-0.38388473
63	0xbe1a317f	-0.15057944
64	0xbe87b4d5	-0.2650515
65	0x3e4e6c02	0.20158389
66	0x3e2f81cc	0.17139357
67	0x3ec5e26e	0.38649315
68	0x3eb51ca7	0.35373423
69	0x3e9ce347	0.3064215
70	0x3e3c6d3f	0.18401049
71	0x3e64ce94	0.22344428
72	0xbe9f5461	-0.31119063
73	0xbe718640	-0.23586369
74	0x3e50b756	0.20382437
75	0x3d40265a	0.046911575
76	0xbe8b69c2	-0.27229124
77	0x3e6b112e	0.22955772
78	0xbd9bafe4	-0.07601908
79	0xbe482f3b	-0.19549267
80	0xbe821bc9	-0.25411823
81	0xbe64935a	-0.22321835
82	0x3ea62320	0.32448673
83	0xbe9f7e78	-0.31151175
84	0x3ec75ce1	0.38938048
85	0xbccfcf26	-0.02536733
86	0x3e77dcda	0.24205342
87	0xbe88527a	-0.26625425
88	0x3e81cdc8	0.2535231
89	0xbe893a6e	-0.2680239

conv1.bias f4 [10]
0	0x3d973e6f	0.07384955
1	0x3b4c74c9	0.003119754
2	0xbe81a82b	-0.25323614
3	0xbd8ee68f	-0.06977569
4	0xbca29d03	-0.01985026
5	0xbe8c3bb1	-0.2738929
6	0x3e180e2f	0.1484916
7	0xbe3fc1c3	-0.18726258
8	0xbe58fc9f	-0.21190117
9	0xbda3df35	-0.08001558

conv2.weight f4 [10, 10, 3, 3]
0	0xbe08c9f3	-0.13358288
1	0x3d84d2fb	0.06485554
2	0xbd5ddfc2	-0.05416847
3	0x3e01d786	0.12679872
4	0xbd987921	-0.074449785
5	0xbe85aaf9	-0.26107004
6	0xbc819d7c	-0.015822165
7	0xbe12a32d	-0.14320059
8	0x3d8dc14f	0.06921636
9	0xbc2dd92e	-0.010610862
10	0x3d637812	0.05553443
11	0x3e42afe3	0.19012408
12	0x3c3dc400	0.011582375
13	0x3e0c52bc	0.13703436
14	0x3eb0a586	0.34501284
15	0xbdd66333	-0.104681395
16	0xbe005cfa	-0.12535468
17	0xbd017226	-0.031603
18	0x3d688c4b	0.05677442
19	0x3e24a2d1	0.16077735
20	0x3d3d2d7e	0.046185963
21	0xbe9802bc	-0.29689586
22	0x3d3b87a7	0.045783665
23	0x3e02e396	0.1278213
24	0x3d24c0b6	0.040222846
25	0xbe1e223e	-0.1544275
26	0xbde7b8b0	-0.11314523
27	0xbdf13aec	-0.117788166
28	0x3d67fb57	0.05663618
29	0xbda60656	-0.08106677
30	0xbdb3e481	-0.08783818
31	0xbdc05d9f	-0.09392857
32	0x3ea8cfcf	0.32971045
33	0x3d88ff74	0.06689349
34	0xbe3c3bbd	-0.18382163
35	0x3ea0430f	0.31301162
36	0x3dec9ddc	0.11553547
37	0x3deb1683	0.11478903
38	0x3d315204	0.043291107
39	0xbe652ce6	-0.22380409
40	0x3e00fc2a	0.12596193
41	0x3dba7466	0.091042325
42	0x3c6df238	0.0145230815
43	0x3d717511	0.058949534
44	0xbe219509	-0.15779509
45	0x3d41693d	0.047219504
46	0x3ae0bb09	0.0017145585
47	0x3d7fe685	0.0624757
48	0x3e8750e7	0.2642891
49	0xbe86994a	-0.26288825
50	0x3e631451	0.22175719
51	0x3ebf7caa	0.373998
52	0xbe6240bb	-0.22095005
53	0x3d45a84f	0.048256215
54	0xbc805b1a	-0.01566844
55	0xbe2ccbd2	-0.16874626
56	0xbd9a0f5c	-0.07522461
57	0x3e4a77cf	0.19772266
58	0x3d9d6a88	0.07686335
59	0xbe926ea2	-0.2860003
60	0x3d185f23	0.037200104
61	0x3e6d35e0	0.23165083
62	0xbe3b6922	-0.18301824
63	0xbe924fdb	-0.2857655
64	0xbe9e79db	-0.30952343
65	0x3e0db62c	0.13839024
66	0xbe86b16d	-0.2630724
67	0xbe4acc49	-0.19804491
68	0x3e2f697d	0.17130084
69	0xbd0f7e66	-0.035032652
70	0xbe47c705	-0.19509514
71	0xbe2fc32f	-0.171643
72	0x3db78214	0.08960357
73	0x3d2dbf53	0.04241879
74	0xbd9bc5cf	-0.07606088
75	0x3e45d6c6	0.19320211
76	0x3e2bc5aa	0.16774622
77	0x3e1012df	0.14069699
78	0xbe5a32ae	-0.21308395
79	0x3e17f073	0.14837818
80	0x3e1b9fdf	0.15197705
81	0x3e3107cb	0.17288129
82	0xbd3ff698	-0.04686603
83	0x3cbfc71e	0.023410376
84	0x3f0416c1	0.5159722
85	0xbe66396b	-0.2248284
86	0xbc87d752	-0.016582165
87	0x3c69ef61	0.014278264
88	0x3d948000	0.072509766
89	0x3d1d9eed	0.03848164
90	0xbe1af1f3	-0.15131359
91	0xbe056ef8	-0.13030612
92	0x3e1824ed	0.14857836
93	0xbca1e430	-0.019762129
94	0xbd2f5b94	-0.042811945
95	0xbd9109b6	-0.0708193
96	0xbdc7885a	-0.09742804
97	0xbe105427	-0.14094602
98	0x3c230aff	0.009951352
99	0xbe463276	-0.19355187
100	0xbe005005	-0.12530525
101	0x3db33fa9	0.087523766
102	0x3bf6eaf4	0.007535333
103	0x3e9ca5b6	0.30595177
104	0x3d78662d	0.060644317
105	0xbe3405b7	-0.17580305
106	0x3d30da12	0.043176718
107	0x3e4f5a86	0.20249376
108	0x3d8794c7	0.06620174
109	0x3e1382cc	0.14405364
110	0x3dd1f757	0.102522545
111	0xbe28d205	-0.16486366
112	0xbe544748	-0.20730317
113	0x3d8c80ad	0.068604805
114	0xbd0d1c3f	-0.034450766
115	0x3e1d2392	0.153456
116	0x3e21a53c	0.15785688
117	0xbd4d2b74	-0.05009027
118	0x3e36f47d	0.17866702
119	0x3da6a818	0.0813753
120	0xbe8d5761	-0.27605727
121	0xbe26f44e	-0.16304132
122	0xbd3ab15a	-0.045579292
123	0x3d5f3e6f	0.0545029
124	0x3e3d82ad	0.1850688
125	0xbe204a2b	-0.15653293
126	0x3dd0dfdb	0.10198947
127	0x3dd145df	0.10218405
128	0xbe130113	-0.14355879
129	0xbe190a44	-0.14945322
130	0x3e4795bd	0.19490714
131	0x3e778841	0.2417307
132	0xbe19b103	-0.15008931
133	0x3dadfc1a	0.0849535
134	0x3dad978b	0.0847617
135	0xbe647485	-0.22310074
136	0x3ddebebf	0.10876226
137	0x3e84b67e	0.2592048
138	0xbe291bbd	-0.16514488
139	0xbe207bd8	-0.15672243
140	0x3e18b5a4	0.1491304
141	0x3e67ca03	0.22635655
142	0xbe37cd9e	-0.1794953
143	0xbd9476a6	-0.07249193
144	0xb8e4c9c3	-0.00010909468
145	0xbdece3db	-0.115668975
146	0xbd9977ad	-0.074935295
147	0x3e0e6400	0.13905334
148	0xbb49dcb5	-0.0030801718
149	0xbe43211e	-0.19055602
150	0x3d743dae	0.059629135
151	0x3ddc3ee6	0.107541844
152	0x3d9b890b	0.07594498
153	0x3c2372da	0.009976113
154	0x3db1610e	0.0866109
155	0xbdbb8278	-0.09155744
156	0xbe4a16d4	-0.1973527
157	0xbda4f90e	-0.08055316
158	0x3e1203e6	0.142593
159	0xbd89bcf7	-0.06725495
160	0xbe25a860	-0.16177511
161	0xbe3cfa68	-0.18454897
162	0x3d319e6c	0.043363973
163	0x3e0b22e1	0.13587524
164	0xbd1b4c4f	-0.03791457
165	0xbe5c7ef3	-0.21532802
166	0xbe1dc55a	-0.15407315
167	0xbd97acab	-0.07405981
168	0xbd716bca	-0.058940686
169	0x3e66e3fb	0.22547905
170	0x3e119411	0.14216639
171	0xbe00e1ab	-0.12586085
172	0xbd80e654	-0.062939316
173	0x3eca9abf	0.39571187
174	0xbe125768	-0.14291155
175	0xbe9a8abb	-0.30183968
176	0x3c8048c8	0.015659705
177	0xbe0ab23d	-0.13544555
178	0x3beb8c95	0.0071883895
179	0xbadd53ca	-0.0016885933
180	0xbd98a2ed	-0.074529506
181	0xbd8de781	-0.069289215
182	0xbe6e09e0	-0.23245955
183	0xbe5f8c92	-0.21830967
184	0x3df2dbdf	0.11858343
185	0x3dba493f	0.09096002
186	0xbe78229e	-0.24231955
187	0x3e081395	0.1328872
188	0x3be41b87	0.0069612893
189	0x3d1532b3	0.036425304
190	0xbe6af5d2	-0.22945336
191	0xbded0d71	-0.11574829
192	0x3e240d37	0.16020666
193	0xbe4e7472	-0.20161608
194	0x3c328661	0.010896296
195	0x3e53701a	0.20648232
196	0xbe257087	-0.16156207
197	0xbe00488f	-0.12527679
198	0x3db1a4f2	0.08674039
199	0x3e689a74	0.22715169
200	0x3ea2e18b	0.318127
201	0x3e442101	0.19153215
202	0xbe8b910b	-0.27259097
203	0x3d10adef	0.035322126
204	0xbe3d6038	-0.18493736
205	0x3dba790f	0.09105121
206	0xbdf2e584	-0.11860183
207	0x3e65f186	0.22455415
208	0xbec91892	-0.39276558
209	0xbdf4f2f9	-0.11960406
210	0x3e17ddf8	0.14830768
211	0xbd2b6509	-0.0418444
212	0xbb1edd44	-0.0024240771
213	0x3d435148	0.047684938
214	0xbe893789	-0.26800182
215	0xbe3659c2	-0.17807677
216	0xbcc8d942	-0.02451766
217	0x3d3b9c4e	0.04580336
218	0x3c600942	0.013674082
219	0x3ddce0f2	0.107850924
220	0x3e25a803	0.16177373
221	0x3b3322ab	0.0027333896
222	0xbd9464b4	-0.0724577
223	0xbc5ba339	-0.0134056145
224	0xbe39c43a	-0.1814126
225	0xbd613ba5	-0.054988522
226	0x3badcd3c	0.005304007
227	0x3da3706f	0.079804294
228	0xbe0ebab8	-0.13938415
229	0xbd70d9b8	-0.058801383
230	0x3d3d1cf5	0.046170194
231	0xbd64875a	-0.055793144
232	0x3d95f65f	0.07322382
233	0xbd959596	-0.07303922
234	0xbe3c9c18	-0.1841892
235	0xbc92e123	-0.01792962
236	0xbda709eb	-0.081561886
237	0xbd307c98	-0.04308757
238	0x3c48f352	0.012265043
239	0xbe56d90c	-0.20981234
240	0xbd0ad8ce	-0.033898167
241	0xbc773cc4	-0.015090171
242	0x3dd16dcd	0.10226021
243	0xbc45d296	-0.012074133
244	0xbe48b0f6	-0.19598755
245	0xbc82e48a	-0.015978117
246	0xbd976d9b	-0.073939525
247	0xbe17ac4f	-0.14811824
248	0xbe3d0d33	-0.18462066
249	0xbccb6b9f	-0.024831591
250	0x3d2f0e1a	0.042738058
251	0xbc6798ea	-0.014135579
252	0xbe19ce5b	-0.15020125
253	0xbd812ddc	-0.06307575
254	0xbe3bf276	-0.1835421
255	0xbe083d0d	-0.13304539

conv2.bias f4 [10]
0	0xbd0727af	-0.03299683
1	0x3cdadc9a	0.02671652
2	0xbdf27a5f	-0.11839747
3	0xbd6cc9de	-0.057809703
4	0xbd7b1313	-0.061297487
5	0xbc5b8ed6	-0.013400754
6	0xbcae8df4	-0.021307923
7	0xbd80df58	-0.062925994
8	0xbc79a8d2	-0.015238004
9	0xbd85835d	-0.06519196

conv3.weight f4 [10, 10, 3, 3]
0	0x3e14c7a9	0.1452929
1	0x3c5c295b	0.013437594
2	0xbe3d5b9f	-0.18491982
3	0x3e0469fb	0.12931053
4	0x3da6479f	0.081191294
5	0xbe658ab5	-0.22416194
6	0x3ea63dce	0.32469028
7	0xbdae6e73	-0.0851716
8	0xbe3eb17a	-0.1862239
9	0x3dd4f0d6	0.10397498
10	0xbd65905f	-0.056045886
11	0xbe046e71	-0.12932755
12	0x3de7b573	0.113139056
13	0xbdd9c431	-0.10633124
14	0x3dc8b5e1	0.09800316
15	0x3e143710	0.1447413
16	0xbe5119d5	-0.2042001
17	0xbe337f69	-0.17529072
18	0xbdb7528a	-0.0895129
19	0x3dd46d4e	0.10372411
20	0x3e1df032	0.15423658
21	0x3d4f147d	0.05055665
22	0x3e223494	0.1584037
23	0xbe556169	-0.2083794
24	0x3e8f9f29	0.28051117
25	0x3de225f8	0.11042398
26	0x3c92044f	0.01782432
27	0xbd457ede	-0.048216693
28	0xbe327bbd	-0.17430015
29	0xbbc864fa	-0.006115553
30	0x3e2d0c45	0.16899212
31	0x3d8266b0	0.06367242
32	0xbde9e401	-0.114204414
33	0xbb400a9a	-0.0029303194
34	0x3d02e51d	0.03195678
35	0x3e79e923	0.24405341
36	0xbdb0efb8	-0.08639473
37	0x3e9673b5	0.29385152
38	0x3d956c8b	0.072960936
39	0xbdcb7b75	-0.09935657
40	0x3e2c744a	0.16841236
41	0x3d5a7f33	0.053343963
42	0xbc71f213	-0.014767188
43	0x3e12eff4	0.14349347
44	0xbe787d01	-0.24266435
45	0xbe21b55c	-0.1579184
46	0xbde83e50	-0.1134001
47	0x3c1d371f	0.009595661
48	0x3db720d7	0.089418106
49	0x3ead6770	0.3386798
50	0x3e90bc92	0.28268868
51	0x3cf23656	0.029566925
52	0x3cf45a48	0.029828206
53	0xbe46ffc7	-0.19433509
54	0xbe2ef8f4	-0.17087156
55	0x3e0e1c51	0.1387799
56	0x3d6e2b87	0.05814698
57	0x3d7ee9f6	0.06223484
58	0x3d58e5b6	0.052953444
59	0xbd7c2517	-0.06155881
60	0xbe133d6f	-0.14378904
61	0xbe207172	-0.15668276
62	0x3e491d41	0.19640066
63	0xbd344b11	-0.0440169
64	0x3e078651	0.13234831
65	0xbdf65506	-0.12027936
66	0x3d87913c	0.06619498
67	0x3d61f971	0.055169526
68	0x3d61ae1f	0.055097695
69	0xbe09db2d	-0.13462515
70	0x3dd977b8	0.10618538
71	0x3d2cdc23	0.042202126
72	0x3e1385aa	0.14406458
73	0x3cc6f084	0.024284609
74	0xbe0a2776	-0.13491616
75	0x3da7208e	0.08160506
76	0xbd285e95	-0.041105825
77	0xbd58c3bf	-0.052921053
78	0xbdcc7d91	-0.099848874
79	0xbdf043d4	-0.11731687
80	0x3deeefff	0.11666869
81	0x3dcb2274	0.09918681
82	0x3d560200	0.052248
83	0xbd2f9ec8	-0.042876035
84	0xbd36ae61	-0.044599894
85	0x3d30c8f0	0.04316038
86	0xbd69ba18	-0.05706224
87	0x3df875cb	0.12131842
88	0x3dbf944b	0.093544565
89	0x3d0b61db	0.03402887
90	0xbd3e9dbd	-0.04653715
91	0xbd914aaf	-0.07094323
92	0x3bf6f6b8	0.0075367354
93	0xbcb17b71	-0.021665307
94	0x3cfe79ed	0.031063998
95	0x3b55627c	0.0032559922
96	0x3d71d8bc	0.059044585
97	0xbdb39474	-0.087685496
98	0xbdb13c12	-0.08654036
99	0x3d3f1cf8	0.046658486
100	0xbccdc320	-0.025117457
101	0xbd060c67	-0.03272667
102	0xbdc0513d	-0.09390495
103	0xbd686540	-0.056737185
104	0xbd68e1b7	-0.056855883
105	0xbdf4715f	-0.11935686
106	0xbd765c98	-0.060146898
107	0x3c845139	0.016152011
108	0x3d6ad77e	0.057334416
109	0xbd7b92bc	-0.061419234
110	0xbccb12a4	-0.024789162
111	0x3d032817	0.032020655
112	0xbc569c83	-0.013098839
113	0xbd8eebce	-0.0697857
114	0xbcf05a5c	-0.029339962
115	0xbcbadf3e	-0.022811528
116	0x3d4c510e	0.049881987
117	0x3d8e70ff	0.06955146
118	0xbd0d471f	-0.034491654
119	0x3da08b31	0.07839049
120	0xbdad0456	-0.08448093
121	0xbd8098bf	-0.06279134
122	0xbd8bbfd9	-0.068237014
123	0x3c2940d8	0.010330401
124	0xbd1a0387	-0.03760102
125	0xbdfc03e2	-0.12305428
126	0x3c92f4e3	0.017939037
127	0x3b262ba5	0.0025355604
128	0xbe10d6c2	-0.14144424
129	0xbd46a56e	-0.04849761
130	0x3cb2ff00	0.02185011
131	0xbdf523a9	-0.11969692
132	0xbd8c15a4	-0.06840065
133	0xbdab6f9c	-0.08370897
134	0xbdd633ae	-0.10459076
135	0x3d1bdb16	0.038050734
136	0x3d1e95e2	0.03871716
137	0xbdc75c10	-0.097343564
138	0xbdcaa81f	-0.09895348
139	0xbdd8de83	-0.10589316
140	0x3ce05dd5	0.027388493
141	0x3d0ef471	0.034901086
142	0xbdc4f298	-0.096165836
143	0xbd887d95	-0.06664578
144	0xbdcf17d0	-0.10111964
145	0x3d5d649d	0.05405103
146	0xbdab3d26	-0.083612725
147	0x3d5ed9d7	0.054406967
148	0xbd79b7bd	-0.060966242
149	0xbe0060b3	-0.12536888
150	0xbdf99dd6	-0.12188308
151	0xbcb2591b	-0.021771004
152	0xbdf70bba	-0.120627835
153	0x3b82c95a	0.003991288
154	0x3c551b1e	0.0130069535
155	0x3caaf6d1	0.020869644
156	0x3d15c960	0.036569
157	0x3d9f7542	0.07786037
158	0x3cc531cc	0.024071597
159	0xbda3c93d	-0.079973675
160	0x3daf51ec	0.08560547
161	0x3c8c4c4c	0.017126225
162	0x3bab8c4e	0.0052352315
163	0x3d1ab03a	0.03776572
164	0xbd15630c	-0.03647141
165	0xbdb9da6d	-0.090748645
166	0xbcd78afd	-0.026311392
167	0x3d7a0014	0.06103523
168	0x3cf8fc2b	0.03039368
169	0xbd5569fe	-0.052103035
170	0xbe07995c	-0.13242096
171	0x3c1d1173	0.00958668
172	0xbd61638d	-0.05502658
173	0x3cda4e62	0.026648704
174	0xbdcd76e9	-0.10032446
175	0x3d7d002a	0.061767735
176	0xbddb0d8c	-0.10695943
177	0x3d7a6606	0.061132453
178	0xbdecdffb	-0.115661584
179	0xbc1c334e	-0.009533716
180	0xbdd2b80b	-0.1028901
181	0xbe86c00f	-0.26318404
182	0xbe8df80c	-0.27728307
183	0xbe1d473c	-0.15359205
184	0xbdb0ec84	-0.08638862
185	0xbd5ea673	-0.054357957
186	0x3d7e52bb	0.062090617
187	0xbe2044c0	-0.15651226
188	0x3e68f1c1	0.22748472
189	0xbdc56fb1	-0.09640444
190	0xbd5e4ffe	-0.054275505
191	0xbd8a091b	-0.06740018
192	0xbe3c8efc	-0.18413919
193	0xbe03fe5a	-0.12889996
194	0xbe16da18	-0.14731634
195	0xbdab36bf	-0.08360051
196	0xbdd8748d	-0.10569105
197	0x3da85c1a	0.08220692
198	0xbdd59439	-0.10428662
199	0xbdd54ca7	-0.10415011
200	0x3d7af6ee	0.061270647
201	0x3dc3c84a	0.095596865
202	0x3d64ffa5	0.055907864
203	0xbd91d160	-0.07120013
204	0x3dcefa50	0.10106337
205	0x3d89e46a	0.0673302
206	0xbe0ce1de	-0.13758036
207	0xbe435e1e	-0.19078872
208	0xbeb0aafd	-0.34505454
209	0xbe2d9fbe	-0.16955468
210	0x3d664208	0.056215316
211	0x3e08f957	0.13376366
212	0x3ddd0779	0.10792441
213	0xbc963148	-0.018334046
214	0xbc803114	-0.015648402
215	0x3daffc5c	0.085930556
216	0xbe8b2596	-0.27177113
217	0xbe07f20d	-0.13275929
218	0xbe211e2e	-0.15734169
219	0xbc78114c	-0.015140843
220	0xbd0553e5	-0.03255071
221	0x3e03ce66	0.12871704
222	0x3e1be8bd	0.15225501
223	0xbcbda7f1	-0.02315137
224	0x3d4f0e55	0.050550777
225	0xbc3b8d1a	-0.011447215
226	0xbd3595d9	-0.04433236
227	0x3d69f732	0.05712051
228	0x3d22cea9	0.039747868
229	0xbe07c81e	-0.13259932
230	0xbdd77a24	-0.10521343
231	0x3db620d7	0.088929825
232	0x3d3bcbc2	0.045848615
233	0xbd0ecf6e	-0.03486579
234	0x3abfe6ee	0.0014640966
235	0xbcfc2f97	-0.030784411
236	0xbe3a1eda	-0.18175831
237	0x3e3e4d44	0.18584162
238	0x3e054c06	0.13017282
239	0xbde1282f	-0.109939925
240	0xbd4ed22f	-0.050493415
241	0x3cd97e0e	0.026549365
242	0x3d3451ed	0.044023443
243	0xbcd13fad	-0.025543058
244	0xbe0c0aaa	-0.13675943
245	0x3d31ef52	0.043441124
246	0xbcad4672	-0.021151755
247	0xbd4e88d8	-0.050423473
248	0x3d04398a	0.032281436
249	0x3d8d60e3	0.06903245
250	0xbc0ade4a	-0.008475849
251	0xbd8eef8c	-0.06979284
252	0xbe17ad0a	-0.14812103
253	0xbec0e4b1	-0.37674478
254	0xbe3a3862	-0.18185571
255	0x3e47e2de	0.19520137

conv3.bias f4 [10]
0	0xbd8d5a7e	-0.06902026
1	0xbd8042c6	-0.06262736
2	0x3d85abb0	0.065268874
3	0x3cd3ad74	0.025839545
4	0xbd9c1990	-0.07622063
5	0x3d237b71	0.039912645
6	0xbdf20d54	-0.118189484
7	0xbe621c1c	-0.22081035
8	0xbd80f550	-0.0629679
9	0x3e874741	0.2642155

conv4.weight f4 [10, 10, 3, 3]
0	0xbce3dc59	-0.02781503
1	0xbdd0aa6e	-0.10188757
2	0xbdc54ba1	-0.09633566
3	0x3c9ff897	0.019527717
4	0xbc3929c9	-0.011301466
5	0x3b177112	0.0023108167
6	0x3e2dc1d4	0.16968471
7	0x3d11c07b	0.035583954
8	0xbc9d21b6	-0.019181114
9	0x3af49b75	0.0018662052
10	0x3d331a7a	0.043726422
11	0x3c9dc8bf	0.019260762
12	0x3d53ccbe	0.05170893
13	0xbdac1ac3	-0.08403542
14	0x3da07192	0.07834162
15	0xbd157bda	-0.036495067
16	0xbae2ffd7	-0.0017318678
17	0xbdbfa1be	-0.09357022
18	0xbc8de598	-0.017321393
19	0x3dc859b5	0.09782735
20	0xbe38ed93	-0.18059377
21	0x3e19439b	0.14967196
22	0xbcd8f49a	-0.026483823
23	0xbd16191e	-0.036645047
24	0x3e5d72ba	0.21625796
25	0x3ea35ca4	0.31906617
26	0x3ec491d8	0.3839252
27	0xbddd14f2	-0.107950106
28	0xbd0e4e7d	-0.03474282
29	0x3d78bc56	0.060726486
30	0xbd25c186	-0.04046776
31	0x3c84d07d	0.016212696
32	0x3e03d32e	0.12873527
33	0xbcc4e72d	-0.024036014
34	0x3d0f2c80	0.034954548
35	0x3e19043b	0.1494302
36	0x3d8dc8e3	0.06923082
37	0xbd425620	-0.047445416
38	0x3d822c1b	0.06356069
39	0x3dadb899	0.08482475
40	0x3d92dec8	0.071713984
41	0x3dfc2c67	0.123131566
42	0x3d0ba3b6	0.034091674
43	0x3db98bd5	0.09059874
44	0xbcedfc65	-0.029051015
45	0xbe0c9d91	-0.13731982
46	0x3da0951d	0.07840941
47	0x3e11e7f1	0.14248635
48	0xbe2ec46f	-0.17067121
49	0x3e23a7cf	0.15981983
50	0xbe12e828	-0.14346373
51	0x3ec5ad32	0.386087
52	0x3decdf24	0.11565998
53	0x3a70c0dc	0.0009184012
54	0xbd969c77	-0.07354062
55	0xbdbde724	-0.09272602
56	0xbde106ed	-0.10987649
57	0xbce63df1	-0.028105708
58	0x3d5b144c	0.053486153
59	0x3c3a9d04	0.0113899745
60	0x3d20c464	0.039249793
61	0xbc299612	-0.010350721
62	0xbe162eb7	-0.14666258
63	0xbda4dba9	-0.08049709
64	0xbd96b390	-0.073584676
65	0xbd8bb493	-0.06821551
66	0xbd3b9eab	-0.045805614
67	0x3d07c70e	0.033148818
68	0x3e5d002b	0.21582095
69	0xbd577d07	-0.05260947
70	0xbd0a6a72	-0.03379292
71	0xbd25568c	-0.04036574
72	0xbdb8ac9c	-0.090172976
73	0xbc386d7a	-0.01125657
74	0xbcf679b9	-0.030087339
75	0x3e03f189	0.12885107
76	0xbbb9f15c	-0.005674524
77	0x3d4b9e3c	0.04971145
78	0x3d6aee19	0.057355974
79	0xbd6d9642	-0.058004625
80	0xbd00803f	-0.031372305
81	0x3bbe4b1a	0.0058072926
82	0x3d40e263	0.0470909
83	0x3e335e4a	0.17516437
84	0xbe1b9fc6	-0.15197667
85	0xbe633aae	-0.22190353
86	0xbddde8a2	-0.10835387
87	0xbc39198a	-0.011297593
88	0xbd337288	-0.043810397
89	0xbdd072a3	-0.10178115
90	0xbe2c65e0	-0.16835737
91	0xbad000be	-0.0015869362
92	0x3e751bfb	0.23936455
93	0xbcdb75bd	-0.02678954
94	0x3e3dfb42	0.18552878
95	0xbcc75b0e	-0.02433541
96	0xbdd1f17f	-0.1025114
97	0xbe105cf8	-0.14097965
98	0x3d1c37c0	0.038139105
99	0x3d8dc140	0.06921625
100	0xbd5419ed	-0.051782537
101	0xbc207d2d	-0.009795469
102	0x3cb0a7fb	0.021564474
103	0xbd14de6e	-0.036344938
104	0xbd180df4	-0.03712268
105	0xbcf10739	-0.02942239
106	0x3bd6407b	0.0065384484
107	0x3ca80043	0.020507937
108	0xbe38f539	-0.18062295
109	0xbd79a214	-0.060945585
110	0x3da6ee5f	0.081509344
111	0xbd305913	-0.043053698
112	0x3d12bfb6	0.03582736
113	0xbd934b7b	-0.07192131
114	0x3e03aaee	0.12858173
115	0x3e27d970	0.1639154
116	0x3db232e7	0.08701115
117	0x3ebb0b65	0.3653213
118	0x3e27cc1a	0.16386452
119	0x3d74ebb4	0.059795097
120	0x3de94f96	0.11392133
121	0xbe25f76e	-0.16207668
122	0x3df31624	0.11869457
123	0x3b44467a	0.0029949234
124	0xbdce5fa3	-0.10076835
125	0xbe568643	-0.20949654
126	0x3d7950c0	0.060868025
127	0xbd05f48f	-0.032703932
128	0x3d8cbde7	0.068721585
129	0x3a16d7f6	0.00057542266
130	0xbdb7218a	-0.08941944
131	0xbca3183c	-0.019909017
132	0x3cfcc533	0.03085575
133	0xbd8da425	-0.06916074
134	0xbc006394	-0.007836241
135	0x3e46108a	0.19342247
136	0x3e9ae7d2	0.3025499
137	0x3de34c13	0.110984944
138	0xbde79e60	-0.113095045
139	0xbd8ba370	-0.068182826
140	0x3dbc13a8	0.09183437
141	0x3c63f587	0.013913519
142	0xbdcff291	-0.10153688
143	0x3e16258f	0.14662765
144	0xbd5abab0	-0.053400695
145	0xbc799c24	-0.015234981
146	0x3d6a2af6	0.057169877
147	0x3d6a65f1	0.057226125
148	0xbd929db5	-0.071589865
149	0xbb71f4f8	-0.0036919694
150	0xbdc4b405	-0.096046485
151	0xbd51cf41	-0.051223043
152	0xbd8e75da	-0.06956072
153	0xbd515da9	-0.051114712
154	0xb8ad47f7	-8.262687e-05
155	0x3cc2ae59	0.023764776
156	0x3d771f7d	0.060332764
157	0xbd0d5326	-0.034503125
158	0x3d5ea059	0.05435214
159	0xbdb32cb1	-0.087487586
160	0xbe39c6f2	-0.18142298
161	0x3cf4cc1f	0.029882489
162	0xbdcf5e49	-0.10125405
163	0x3d797100	0.06089878
164	0xbd91b329	-0.0711425
165	0x3d81836f	0.06323897
166	0xbd49a455	-0.049228985
167	0x3dcdd169	0.100497074
168	0x3d4d869d	0.050177205
169	0xbcecdb4e	-0.028913166
170	0xbc1eba3c	-0.009687956
171	0x3d7643d5	0.060123283
172	0xbd841134	-0.06448594
173	0xbdff8165	-0.12475852
174	0xbe3a5c43	-0.18199258
175	0x3e78ac03	0.24284367
176	0x3d2dd752	0.042441674
177	0x3d9a750b	0.075418554
178	0xbc895cd7	-0.016767902
179	0xbc5dc033	-0.013534593
180	0xbddbf40a	-0.10739906
181	0xbd6478d1	-0.055779282
182	0x3e895a20	0.26826572
183	0x3c939e82	0.018019918
184	0xbd3f84f1	-0.046757642
185	0x3e2fa10c	0.17151278
186	0xbe453b11	-0.19260813
187	0x3e27bc25	0.16380365
188	0x3e2ff32c	0.17182606
189	0x3d876854	0.06611696
190	0x3cc0e368	0.023545936
191	0x3da6c755	0.08143488
192	0x3d9f7dec	0.077876896
193	0xbde0134a	-0.10941179
194	0x3da2d0bc	0.07949969
195	0xbd0ab973	-0.033868264
196	0xbbf455d6	-0.0074565215
197	0x3cd84874	0.026401736
198	0xbe471ff7	-0.19445787
199	0xbca0c3ed	-0.019624675
200	0x3ded369f	0.11582684
201	0x3d27bb39	0.040950034
202	0x3e0a478e	0.13503858
203	0x3d840a8d	0.06447325
204	0xbd848d96	-0.06472318
205	0xbe3ab72b	-0.18233936
206	0xbc95a55d	-0.018267328
207	0x3e939979	0.28828028
208	0xbaa67e4a	-0.0012702432
209	0xbe532257	-0.20618568
210	0x3e9ff6d9	0.31243017
211	0xbd729257	-0.05922159
212	0xbc5f0f9e	-0.013614563
213	0x3e054a8a	0.13016716
214	0x3df5ac07	0.11995702
215	0xbd81aa43	-0.06331303
216	0xbb0b6e95	-0.0021275629
217	0x3d4d5e62	0.05013884
218	0x3d3ee7f6	0.046607934
219	0xbd67e274	-0.056612447
220	0x3df86264	0.121281415
221	0x3dfd44e4	0.123666555
222	0xbd62476a	-0.055243887
223	0x3d78df88	0.06076005
224	0x3dc14075	0.09436122
225	0xbdcadf66	-0.09905891
226	0x3e0ca383	0.1373425
227	0xbde538a0	-0.11192441
228	0xbbc237d4	-0.0059270654
229	0x3dc070c4	0.09396508
230	0x3e9de058	0.30835223
231	0x3db14576	0.08655827
232	0xbc5bf797	-0.013425729
233	0xbd79a0cc	-0.060944363
234	0x3dba78fc	0.09105107
235	0x3cf56999	0.02995758
236	0x3d9f37ea	0.07774337
237	0xbb92ef44	-0.004484089
238	0x3d545196	0.05183562
239	0x3de8244b	0.11335047
240	0x3c26e470	0.0101863
241	0xbc35bd5d	-0.011092511
242	0x3e1e5e33	0.15465622
243	0x3dc6ae34	0.09701195
244	0x3e22cacc	0.15897673
245	0x3dd02037	0.101623945
246	0x3e2ee578	0.17079723
247	0x3d18df67	0.037322428
248	0x3e0b5c25	0.13609369
249	0x3de489e4	0.11159113
250	0xbd31fa97	-0.04345187
251	0x3b3d6ccf	0.0028903966
252	0x3d3e37f8	0.046440095
253	0x3d6fe027	0.058563378
254	0xbd59c6fa	-0.053168274
255	0x3d9d4f86	0.076811835

conv4.bias f4 [10]
0	0x3e499805	0.19686897
1	0x3dabf6fd	0.08396719
2	0xbe204d8f	-0.15654586
3	0x3e04078b	0.12893502
4	0x3d77a3ba	0.060458876
5	0xbe980930	-0.2969451
6	0x3cfbe962	0.030750934
7	0x3cc31576	0.023813944
8	0x3dc1ab9b	0.09456559
9	0x3db5d61b	0.08878728

norm.weight f4 [10]
0	0x3f95afb8	1.169425
1	0x3f9521da	1.1650956
2	0x3f9e8a51	1.2385961
3	0x3f9eb8ef	1.2400187
4	0x3fabcb09	1.3421336
5	0x3fa74a05	1.3069464
6	0x3fa2b1c6	1.2710502
7	0x3fa19232	1.262274
8	0x3f9bea50	1.2180882
9	0x3f95540e	1.1666276

norm.bias f4 [10]
0	0xbeb01489	-0.34390667
1	0xbf07a3ec	-0.529845
2	0xbf077289	-0.5290914
3	0xbefe6d61	-0.49692824
4	0xbefda98f	-0.49543425
5	0xbef9c88d	-0.4878582
6	0xbef3d8fc	-0.47626483
7	0xbeaee2e9	-0.34157494
8	0xbec45d3e	-0.38352388
9	0xbe9e305c	-0.3089627

norm.running_mean f4 [10]
0	0x3cbe3fd6	0.023223799
1	0x3dc9b496	0.09848897
2	0xbe6fa07e	-0.23401067
3	0x3d595e10	0.05306822
4	0x3e511c25	0.20420893
5	0xbe9b4401	-0.3032532
6	0xbc8c4b41	-0.017125728
7	0xbe0eb81a	-0.13937417
8	0x3e125bf7	0.14292894
9	0xbc1307fe	-0.008974073

norm.running_var f4 [10]
0	0x3c1e009b	0.009643699
1	0x3c20bcee	0.009810669
2	0x3c60f962	0.0137313325
3	0x3c432030	0.01190953
4	0x3c90611d	0.017624432
5	0x3c33f3b1	0.0109833935
6	0x3c4832c1	0.012219132
7	0x3c230339	0.009949499
8	0x3c37b265	0.011211966
9	0x3c3274a5	0.010892068

fc1.weight f4 [50, 810]
0	0xbc01d49c	-0.007924225
1	0x3ccec578	0.025240645
2	0xbc48f810	-0.012266174
3	0x3c7f7f55	0.015594323
4	0xbbab4c31	-0.0052275886
5	0xbc20bc93	-0.009810585
6	0x3c047544	0.008084599
7	0x3c18ad10	0.009318605
8	0xbcd30522	-0.025759283
9	0xbd0aeac3	-0.033915292
10	0xbc31efeb	-0.010860424
11	0xbcbca8ef	-0.023029773
12	0xbcc7a9c2	-0.024372939
13	0x3c57e0c8	0.013176151
14	0xb914d169	-0.00014192391
15	0xbc7a6ce0	-0.015284747
16	0xbb8cc7b1	-0.004296266
17	0x3d041529	0.032246742
18	0xbc293d5c	-0.010329571
19	0xbcb4ea18	-0.02208428
20	0xbd1a6271	-0.037691537
21	0x3bcdb055	0.006277124
22	0x3d0e1c99	0.03469524
23	0x3d043a37	0.03228208
24	0xbc229585	-0.009923344
25	0xbb82358f	-0.00397367
26	0x3b8643f8	0.004097458
27	0xbd040e80	-0.03224039
28	0xbcc4f835	-0.024044136
29	0xb9881613	-0.00025956388
30	0x3c834f71	0.016029092
31	0xbcc7b019	-0.024375962
32	0xbd2bf417	-0.04198083
33	0xbc23e341	-0.010002912
34	0x3c7959bf	0.015219151
35	0xbc29c263	-0.010361287
36	0xbbd633d9	-0.0065369424
37	0x3ac3e1bc	0.0014944593
38	0xbd0f4e4c	-0.03498678
39	0xbd281e54	-0.04104455
40	0xbc8d63e1	-0.01725954
41	0x3c424900	0.011858225
42	0xbcca80dc	-0.024719648
43	0xbb9553c5	-0.0045571052
44	0xbd1bef7b	-0.038070183
45	0xbbbf5318	-0.005838763
46	0x3d320a53	0.043466877
47	0xbc068f77	-0.008212916
48	0xbaaccecf	-0.0013184192
49	0x3c5aeb08	0.0133617
50	0xbc01b871	-0.007917509
51	0x3c82b362	0.015954677
52	0xbd064199	-0.032777403
53	0x3c3e3d64	0.011611316
54	0xbceb6ee0	-0.028739393
55	0x3b105ebe	0.0022029127
56	0x37ba4805	2.2206465e-05
57	0x3c7450b2	0.014911817
58	0xbcb8384d	-0.022487784
59	0xbce37ea8	-0.027770355
60	0xbd326eb8	-0.04356262
61	0xbb03a5c0	-0.0020087808
62	0x3d439928	0.047753483
63	0x3c3c78cd	0.0115034105
64	0xbd0e0cb9	-0.034680102
65	0x3cc665f0	0.02421853
66	0xbbb8c06d	-0.0056381733
67	0x3c56ac17	0.013102553
68	0xbc16e1ea	-0.009209136
69	0x3b3506af	0.0027622392
70	0xbce03ae2	-0.027371828
71	0xbc078df5	-0.008273591
72	0xbc438fb4	-0.011936117
73	0xbd00c4f1	-0.031437818
74	0xbca14fa9	-0.019691305
75	0x3c02057f	0.007935881
76	0xbccdd187	-0.025124324
77	0xbb9f55db	-0.0048625297
78	0xbd015559	-0.031575534
79	0xbc8be77a	-0.01707815
80	0xbcacfcc7	-0.021116627
81	0x391d0fc4	0.0001497856
82	0xbcaa6783	-0.020801311
83	0xbd0d151d	-0.034443963
84	0x3b3aad12	0.0028484506
85	0x3ca5f342	0.020257596
86	0xbc6a946e	-0.014317615
87	0xbb809d90	-0.003925033
88	0x3c8c9e80	0.017165422
89	0xbd4d1d44	-0.050076738
90	0x3c5aca7b	0.013353939
91	0xbcac60db	-0.021042278
92	0x3c65588c	0.013998162
93	0x3ab8bfa3	0.0014095198
94	0xbc6f318e	-0.014599217
95	0x3cb607d0	0.022220522
96	0xbb31f720	-0.0027155355
97	0x3bb64a21	0.005563036
98	0x3978b500	0.00023718551
99	0xbd49bb85	-0.0492511
100	0xbaedc0d8	-0.0018139137
101	0xbb9162d9	-0.0044368324
102	0x3b75a48c	0.003748211
103	0x3b1bdaa7	0.002378145
104	0xbd0f81e4	-0.035035983
105	0x3c11580d	0.008871091
106	0xbcc3b685	-0.023890743
107	0x3c8aed26	0.016958784
108	0xbcb0c277	-0.021577103
109	0xbd0def3c	-0.03465198
110	0x38ce29c4	9.830625e-05
111	0xbd551379	-0.052020524
112	0xbcfa8be9	-0.030584292
113	0x3ce0718a	0.02739789
114	0xba098a1c	-0.0005246715
115	0xbbe52d51	-0.0069939275
116	0xbbd2ac94	-0.0064292643
117	0x3c100b69	0.008791783
118	0xbc96cf78	-0.018409476
119	0xbc0cfc98	-0.008605145
120	0x3c8ec1bc	0.017426364
121	0x3bac0696	0.0052498085
122	0xbbc5743c	-0.006025819
123	0xbc4959ea	-0.012289504
124	0xbbf6befc	-0.0075300913
125	0xba7804c0	-0.0009461157
126	0xbc08ee28	-0.008357562
127	0xbd07726d	-0.03306811
128	0x3c8acc2c	0.01694306
129	0xbca48e34	-0.020087339
130	0xbcb6162b	-0.022227367
131	0xbcb27f5b	-0.021789243
132	0x3c40e702	0.011773827
133	0xbc872d51	-0.0165011
134	0xbc5bdaa0	-0.0134188235
135	0xbb89fbef	-0.004210941
136	0xbd4680c0	-0.04846263
137	0xbce0d12f	-0.027443497
138	0xbcaf31be	-0.021386024
139	0xbd0dc547	-0.034611966
140	0x3c14198e	0.009039296
141	0x3c62741a	0.013821626
142	0xbc050152	-0.008117991
143	0x3cc512fa	0.0240569
144	0xbcdfe34e	-0.027330067
145	0xbc1717f2	-0.009222018
146	0x3a8bbc6c	0.0010661012
147	0xbbfd4edd	-0.0077303485
148	0xbcd4e290	-0.02598694
149	0xbd12520d	-0.03572278
150	0xbd0c2603	-0.03421594
151	0xbca4a05c	-0.020095997
152	0xbc0a66f9	-0.008447402
153	0xbd0e156f	-0.03468841
154	0xbaa1a87d	-0.0012333539
155	0x3c4b8d4f	0.012423827
156	0xbc85080e	-0.016239192
157	0xbd33ef51	-0.0439294
158	0x3c5b5f81	0.013389469
159	0xbcd010b0	-0.025398582
160	0x3c3a693b	0.011377628
161	0xbc54415a	-0.012955034
162	0x3c0367c5	0.008020346
163	0xbc350653	-0.011048871
164	0xbc5b1c1c	-0.013373401
165	0xbd369ba0	-0.04458201
166	0x3ccb2604	0.0247984
167	0xbba878b0	-0.00514134
168	0x3bfdc7b6	0.0077447547
169	0x3c6ac1e2	0.014328452
170	0xbd2be6dc	-0.04196821
171	0x3c57ae3f	0.013164102
172	0xbd1071d4	-0.035264805
173	0xbcc7a310	-0.024369746
174	0xbbe6d116	-0.007043968
175	0x3c1f079c	0.009706404
176	0xbc926b11	-0.017873319
177	0xbd06bf70	-0.032897413
178	0xbd078524	-0.033085957
179	0x3c6230e2	0.0138056
180	0x3c0aafe7	0.00846479
181	0x3c47aaef	0.01218675
182	0xbd2e7f51	-0.042601887
183	0xbce4d99b	-0.027935794
184	0xbc4ee2f5	-0.012627353
185	0xbd211cf2	-0.039334245
186	0xb7e96582	-2.7823033e-05
187	0xbd2bdc5f	-0.04195821
188	0xbcf46ce4	-0.02983708
189	0x3c56c323	0.013108048
190	0x3d42f19b	0.047593694
191	0xbcdf73ba	-0.027276862
192	0xbd285f22	-0.04110635
193	0xbc9bd63e	-0.019023057
194	0xbd11658c	-0.035497233
195	0x3c69b6ec	0.014264803
196	0xbd2d0013	-0.0422364
197	0xbd479a60	-0.048731208
198	0xbc6b490f	-0.01436068
199	0xbc063901	-0.008192302
200	0xbd1c0296	-0.038088404
201	0x3bd04e98	0.0063570254
202	0x3d0d1db5	0.03445216
203	0x3ad53970	0.0016267728
204	0xbc4684b0	-0.012116596
205	0x3c96cb4a	0.018407483
206	0x3d026c81	0.03184176
207	0xbd1d5b46	-0.038417123
208	0xbc7d4392	-0.015458005
209	0xbd0b47d8	-0.034004062
210	0x3ce96342	0.028489713
211	0xbd085225	-0.033281464
212	0xbd160596	-0.03662642
213	0x3ba17fa0	0.004928544
214	0x3aee1d00	0.0018166602
215	0x3c8ea8da	0.0174145
216	0xbc3d7a07	-0.011564738
217	0x3c589f78	0.013221614
218	0x3c86ed45	0.01647056
219	0x3c4a9a43	0.01236588
220	0xbcfa1ede	-0.030532297
221	0xbd36ea17	-0.04465684
222	0xbcb5fda1	-0.022215666
223	0x3c76f7c4	0.01507372
224	0x3c7e5dda	0.015525306
225	0xbd3edc29	-0.04659668
226	0x3c1ee43c	0.00969797
227	0xbd27910e	-0.04090982
228	0x3bc900d0	0.00613413
229	0xbb9f41cc	-0.0048601385
230	0x3ba536db	0.0050419397
231	0xbd2dd6e2	-0.042441256
232	0xbc292424	-0.010323558
233	0xbb9e6bd1	-0.00483463
234	0x3c8528f3	0.016254878
235	0xbcb2dc2d	-0.021833504
236	0xbcadbb69	-0.021207528
237	0xbd43d360	-0.047809005
238	0xbd0f073d	-0.034919012
239	0xbd003eaf	-0.03130978
240	0xbd2542a3	-0.040346753
241	0xbd1bdb88	-0.03805116
242	0xbc88d564	-0.016703315
243	0xbd3d9c32	-0.046291538
244	0xbca2f615	-0.019892732
245	0xbb4b8ab7	-0.0031058022
246	0xbd13e99a	-0.03611145
247	0xbd2f6a19	-0.042825792
248	0xbc9010c8	-0.017586127
249	0xbc02a96b	-0.007974963
250	0xbb78268a	-0.0037864768
251	0x3d059347	0.032611158
252	0x3a043824	0.0005043766
253	0xbd1945bb	-0.037420016
254	0xbbbc0761	-0.0057381843
255	0x3c865751	0.016399058

fc1.bias f4 [50]
0	0xbcf9bb9f	-0.030484973
1	0x3a9d95a7	0.0012022749
2	0xbd315264	-0.043291464
3	0xbcab902c	-0.02094277
4	0xbcc4391f	-0.023953019
5	0xbd37ead5	-0.044901688
6	0xbcd226c5	-0.025653252
7	0xbc558728	-0.013032712
8	0xbb983750	-0.0046452656
9	0xbc4aad5f	-0.012370436
10	0xbd0b2ef2	-0.033980317
11	0xbcd3ad0b	-0.02583935
12	0x3b164ea9	0.0022935069
13	0x3def4133	0.11682358
14	0xbc2ddc2c	-0.010611575
15	0x3c346038	0.011009268
16	0xbc596045	-0.013267581
17	0xbb1c8127	-0.0023880692
18	0xbcb40d63	-0.02197904
19	0xbcba2bfd	-0.022726053
20	0xbc913831	-0.01772699
21	0x3d6cd19b	0.057817083
22	0xbce69c44	-0.028150685
23	0x3ccc90bf	0.024971364
24	0x3c72c0ed	0.014816505
25	0x3b3e9b82	0.002908439
26	0xbcc721e6	-0.024308156
27	0xbc28e054	-0.01030739
28	0xbd3612b9	-0.04445145
29	0xbba6dcb6	-0.0050922288
30	0x365ccaa2	3.2900502e-06
31	0xbcfdec02	-0.030996326
32	0xbcdcf0f3	-0.026970362
33	0x3cfb030b	0.0306411
34	0xbccafcc7	-0.024778737
35	0xbcaa73e7	-0.02080722
36	0x3caf9bb1	0.021436544
37	0xbce1ee23	-0.027579373
38	0xbd5d3ac2	-0.054011114
39	0x385c8db6	5.2584066e-05
40	0xbc7ddcf2	-0.015494572
41	0xbbb0982b	-0.0053892336
42	0xbc1aa53e	-0.009438811
43	0xbc58f036	-0.0132408645
44	0xbce8460f	-0.028353719
45	0xbd9aa216	-0.07550447
46	0xbc858c51	-0.01630226
47	0xbd768a7d	-0.060190666
48	0xbd2a3f7d	-0.041564453
49	0x3c5584b7	0.01303213

fc2.weight f4 [7, 50]
0	0x3da1253c	0.0786843
1	0x3c260207	0.010132319
2	0xbd0a8739	-0.033820365
3	0xbc18ed3f	-0.009333908
4	0x3d94f09d	0.07272456
5	0x3ddfca8f	0.10927307
6	0x3ce5abc6	0.02803601
7	0x3db9a290	0.090642095
8	0x3de47e18	0.11156863
9	0xbcfaf465	-0.030634115
10	0x3d8c3f3f	0.06848001
11	0xbc4836fd	-0.0122201415
12	0x3d104161	0.0352186
13	0x3a6ab241	0.00089529535
14	0xbdf9c776	-0.12196247
15	0x3d72960e	0.059225135
16	0x3dd6b451	0.104836114
17	0x3de4c6e1	0.11170746
18	0x3d3f3199	0.04667816
19	0xbc3a066a	-0.011354068
20	0xbc82d38b	-0.015970012
21	0x3ea9a9ee	0.3313746
22	0xbd868f0e	-0.06570254
23	0x3dd27a74	0.10277262
24	0x3d71ad37	0.05900308
25	0xbd9adad6	-0.07561271
26	0x3d621562	0.055196173
27	0x3d8ff679	0.07029433
28	0x3c371633	0.011174726
29	0xbdc3a03a	-0.09552045
30	0x3de69a80	0.11259937
31	0x3c3229a8	0.010874189
32	0x3d8851fd	0.06656263
33	0xbe3e659c	-0.18593448
34	0xbd72941c	-0.05922328
35	0x3cfca7b9	0.030841695
36	0xbeae46f0	-0.34038496
37	0x3d7316c9	0.0593479
38	0xbe0c7d7b	-0.13719742
39	0x3ca06f21	0.01958424
40	0x3c8dfba5	0.017331908
41	0xbe2221d6	-0.1583322
42	0x3d4db2dd	0.050219405
43	0xbdb405cb	-0.087901674
44	0xbca94ecc	-0.020667456
45	0x3d656ec4	0.056013837
46	0x3cae22b1	0.021256777
47	0xbe4a271d	-0.19741483
48	0x3ddfd4c9	0.109292574
49	0xbd3e933c	-0.046527132
50	0x3c90017f	0.017578838
51	0x3db36957	0.08760326
52	0xbe20ce15	-0.15703614
53	0x3dc1dfa2	0.09466483
54	0xbd76e432	-0.060276218
55	0x3d269dec	0.04067795
56	0xbddf1017	-0.10891741
57	0xbbc79304	-0.0060905237
58	0xbdec370f	-0.11533939
59	0x3dc0b5b8	0.0940966
60	0xbd3a2a87	-0.045450713
61	0xbbda367b	-0.0066593266
62	0xbe02367c	-0.12716097
63	0x3e76f784	0.24117857
64	0x3d3b7b46	0.04577186
65	0xbd810abd	-0.06300876
66	0x3d87413a	0.06604238
67	0x3d968168	0.07348901
68	0xbd7827bb	-0.060584765
69	0xbdbe9cec	-0.09307274
70	0xbe0f8f31	-0.14019467
71	0xbe92b0d3	-0.2865053
72	0x3d3da7c7	0.046302583
73	0xbdbb75ed	-0.09153352
74	0x3d84a710	0.06477177
75	0x3c78681b	0.015161539
76	0x3d7f64ac	0.062351868
77	0x3e250d92	0.16118458
78	0xbccf4a81	-0.02530408
79	0x3ea92f38	0.33043838
80	0xbe1620bf	-0.14660929
81	0xbd402288	-0.04690793
82	0xbd834cf4	-0.06411162
83	0xbe32bdd9	-0.17455234
84	0x3dca9765	0.098921575
85	0x3c820037	0.015869243
86	0xbea6b11b	-0.32556996
87	0xbe160a44	-0.14652354
88	0x3ddb1eb6	0.10699217
89	0xbd1aff85	-0.03784134
90	0xbd8882be	-0.06665562
91	0x3c0864c0	0.008324802
92	0xbdaef500	-0.08542824
93	0xbdb7c0b5	-0.08972303
94	0xbd851d71	-0.06499756
95	0xbd9f493f	-0.077776425
96	0x3d56adbe	0.052411787
97	0xbdc1ad0e	-0.09456836
98	0xbdf7ea06	-0.12105183
99	0x3dd64cc8	0.104638636
100	0x3d954e3f	0.07290315
101	0xbddd7d16	-0.10814874
102	0xbc5b4149	-0.013382264
103	0xbd83a169	-0.06427271
104	0x3c73eb72	0.0148876775
105	0x3d646c94	0.05576761
106	0xbcab1bff	-0.020887373
107	0x3e1c76c8	0.15279686
108	0xbe046c84	-0.1293202
109	0xbe0e71cf	-0.13910602
110	0xbd81b029	-0.06332428
111	0xbdc0c0bf	-0.094117634
112	0x3dbe2899	0.09285087
113	0xbdd83a25	-0.10557965
114	0xbbeb18c8	-0.007174585
115	0xbdcc41ba	-0.09973474
116	0x3bff355f	0.0077883448
117	0x3a889e04	0.0010423069
118	0xbd992fa6	-0.07479791
119	0x3da0d509	0.07853133
120	0x3d8334ab	0.0640653
121	0xbe991b51	-0.29903653
122	0x3dec46c6	0.115369365
123	0x3e56d096	0.20978007
124	0xbcf05ec7	-0.029342068
125	0x3d1d7353	0.03844006
126	0xbdaa9aa1	-0.083302744
127	0x3e73c5f0	0.23805976
128	0xbc78a418	-0.015175842
129	0x3dab250e	0.08356677
130	0xbdeb4bdf	-0.11489081
131	0xbdfc8622	-0.12330271
132	0xbd094c1e	-0.033519857
133	0xbe692b1c	-0.22770351
134	0x3df61533	0.12015762
135	0x3da284b8	0.0793547
136	0x3dadf7b4	0.08494511
137	0xbdbcf1ed	-0.09225831
138	0xbdf3771b	-0.11887952
139	0x3d846cc0	0.06466055
140	0xbdecf455	-0.1157004
141	0xbd7f3f03	-0.062315952
142	0xbdffaef3	-0.12484541
143	0x3de6cb15	0.112692036
144	0xbd677bdc	-0.056514606
145	0xbdc4f78e	-0.0961753
146	0x3c8d386a	0.017238814
147	0x3e393c56	0.18089423
148	0xbde790be	-0.11306904
149	0x3b1bb328	0.0023757908
150	0x3dbd70d5	0.092500366
151	0x3ce1659a	0.027514268
152	0x3d85fffd	0.065429665
153	0x3d2728f4	0.04081054
154	0xbe179557	-0.14803062
155	0x3d485ff0	0.048919618
156	0x3de13932	0.10997237
157	0x3d8e8240	0.06958437
158	0x3ce248f8	0.027622685
159	0xbe01a858	-0.12661874
160	0xbd84b2e4	-0.06479433
161	0x3d53a2d7	0.051668968
162	0xbc858393	-0.016298091
163	0x3d8c2fe4	0.06845072
164	0xbe189ac5	-0.1490279
165	0x3de47b40	0.111563206
166	0xbe1264c7	-0.14296256
167	0xbc49bd6a	-0.012313226
168	0x3db2f4f4	0.08738127
169	0xbdb644ed	-0.08899865
170	0x3d93e4e7	0.07221394
171	0xbdb64722	-0.08900286
172	0xbcbc37ac	-0.022975765
173	0xbe2ecd5f	-0.1707053
174	0x3d94f190	0.07272637
175	0x3dee89fa	0.11647411
176	0xbe09bf8c	-0.13451976
177	0xbe67fe7e	-0.22655675
178	0xbd96b848	-0.073593676
179	0xbd005cc9	-0.031338487
180	0xbb9e71d6	-0.0048353476
181	0x3cbd6d2e	0.02312335
182	0x3ce0e8bd	0.027454728
183	0x3e8a028d	0.2695507
184	0xbdf935e2	-0.121684805
185	0x3dad80f5	0.08471862
186	0xbdf7a99c	-0.12092897
187	0x3d98a9c2	0.07454254
188	0x3de499d7	0.11162155
189	0xbe1cefee	-0.15325901
190	0x3d256bd8	0.04038605
191	0xbdd36e97	-0.10323828
192	0xbd8afa73	-0.06786051
193	0x3d515db7	0.051114764
194	0xbd29cf69	-0.041457567
195	0x3de948d8	0.11390847
196	0xbcecc8c3	-0.028904324
197	0x3e8f742f	0.2801833
198	0xbdc5a3af	-0.09650361
199	0xbd0d1188	-0.034440547
200	0xbde72dea	-0.11288054
201	0xbdade18c	-0.08490285
202	0xbde45174	-0.111483485
203	0x3cb7df32	0.022445295
204	0xbda129f0	-0.07869327
205	0xbdaf59ed	-0.08562074
206	0x3c3ffdf2	0.01171826
207	0xbc9031ac	-0.01760181
208	0x3d9eaa3e	0.07747315
209	0xbe25be6b	-0.1618592
210	0xbd4f1e0a	-0.050565757
211	0x3db7da42	0.08977176
212	0xbc5491d2	-0.012974219
213	0x3e3a319e	0.1818299
214	0xbdb25272	-0.087071314
215	0x3d446af4	0.04795356
216	0x3d99d4ab	0.07511266
217	0xbd27baae	-0.040949516
218	0x3d793be0	0.060848117
219	0x3dec447b	0.11536499
220	0xbd52d7b7	-0.051475253
221	0x3cb48def	0.022040335
222	0xbdfc1656	-0.12308948
223	0x3d0a4cc0	0.0337646
224	0xbdb7e9ca	-0.089801386
225	0xbd2fb8d4	-0.042900875
226	0xba024f8c	-0.000497096
227	0xbe9a9e23	-0.30198774
228	0xbde7434e	-0.11292134
229	0xbe448c0f	-0.19194053
230	0xbd18712b	-0.0372173
231	0xbd308c4b	-0.043102544
232	0xbc7175c0	-0.014737546
233	0xbe321789	-0.1739179
234	0x3c1bd1dc	0.009510484
235	0xbd844ade	-0.06459592
236	0x3e0b1cef	0.13585256
237	0xbdd9ca4b	-0.106342874
238	0xbd2f24e1	-0.04275978
239	0x3dbe9957	0.09306591
240	0xbdbe963d	-0.093059994
241	0x3acbd200	0.0015550256
242	0xbbbcd8b8	-0.0057631396
243	0x3d901674	0.070355326
244	0xbdc6a848	-0.09700066
245	0x3d2137fd	0.039360035
246	0xbd5bc9cc	-0.053659245
247	0xbe47dd93	-0.19518118
248	0xbd42b2df	-0.047533866
249	0xbdda7898	-0.10667533
250	0x3d28a930	0.041176975
251	0xbda75459	-0.08170385
252	0xbe08518e	-0.1331236
253	0x3c00cc46	0.007861203
254	0xbd876263	-0.06610563
255	0xbda869ca	-0.08223303

fc2.bias f4 [7]
0	0xbd776745	-0.06040122
1	0xbcf5ef9a	-0.030021477
2	0x3b90a353	0.004414001
3	0x3dacddc1	0.08440734
4	0x3e11b25a	0.14228192
5	0xbcbd822f	-0.023133365
6	0xbdbf4ead	-0.09341178

localization.0.weight f4 [8, 1, 7, 7]
0	0x3c9c2b98	0.019063756
1	0x3b91b700	0.004446864
2	0x3d7f5fa4	0.06234707
3	0xbd9f26f7	-0.07771104
4	0x3dd58e7c	0.10427567
5	0x3e01b597	0.12666927
6	0x3dbeb20a	0.09311302
7	0x3d37fae8	0.044917017
8	0xbe010648	-0.12600052
9	0xbdd975be	-0.10618161
10	0xbcf033a4	-0.0293215
11	0x3c806980	0.015675306
12	0xbe021ace	-0.12705538
13	0xbe101e54	-0.1407407
14	0x3c916010	0.017746001
15	0xbe05c337	-0.1306275
16	0xbd2af778	-0.04173991
17	0xbd4ca2e6	-0.04996004
18	0x3d428460	0.047489524
19	0x3daa4042	0.083130375
20	0xbdef06f3	-0.11671247
21	0x3ba37240	0.004987985
22	0x3d80c3d8	0.06287354
23	0xbe04b48b	-0.12959497
24	0xbd7b3a80	-0.061335087
25	0xbd5bf5fc	-0.053701386
26	0x3d96a61a	0.073559
27	0x3dd56836	0.10420267
28	0x3dff52f2	0.124669924
29	0x3da81a58	0.0820815
30	0x3e0c5c1b	0.1370701
31	0xbda247ae	-0.07923828
32	0xbdfcf51e	-0.1235144
33	0xbc4187f0	-0.011812195
34	0x3e0bfcb1	0.13670613
35	0xbe0e9064	-0.13922268
36	0xbd45f126	-0.04832568
37	0x3d94e44c	0.07270107
38	0x3dc810ea	0.09768851
39	0xbdba943a	-0.09110303
40	0x3e0e5801	0.13900758
41	0xbdcf63e3	-0.10126474
42	0xbd31d4aa	-0.043415703
43	0x3e0b1809	0.13583387
44	0xbcf0c830	-0.029392332
45	0xbbd79f00	-0.0065802336
46	0x3cf477f8	0.029842362
47	0x3d2fe510	0.04294306
48	0xbd5e7e40	-0.05431962
49	0xbda4899a	-0.08034058
50	0xbd0a6c0a	-0.03379444
51	0x3d9b98a2	0.07597472
52	0xbd8d6155	-0.0690333
53	0x3c24dab0	0.010061905
54	0x3dcfefa2	0.10153128
55	0xbd94f3ec	-0.07273087
56	0x3acd3a80	0.0015657693
57	0xbdae568e	-0.08512603
58	0x3dc6bb0e	0.097036466
59	0xbe030904	-0.12796408
60	0x3c1402d0	0.009033874
61	0x3e05ed9b	0.1307892
62	0xbdeee49e	-0.11664699
63	0xbe120f6c	-0.14263695
64	0x3b558180	0.0032578409
65	0xbdf092ce	-0.11746751
66	0x3d0b7118	0.0340434
67	0x3d1b2bd4	0.037883595
68	0x3d9deb40	0.07710886
69	0x3c379ce0	0.0112068355
70	0xbd601132	-0.0547039
71	0x3d55fb30	0.052241504
72	0xbd0fc43c	-0.035099253
73	0xbd9864b0	-0.074410796
74	0xbdec06c8	-0.11524731
75	0xbd2d076e	-0.042243414
76	0x3dbefa20	0.09325051
77	0xbdd63518	-0.104593456
78	0xbd80df87	-0.062926345
79	0x3c024570	0.0079511255
80	0x3d764cc0	0.06013179
81	0x3878d000	5.9321523e-05
82	0x3b0ee140	0.002180174
83	0xbe01a2ea	-0.12659803
84	0x3da7c298	0.08191413
85	0x3d2f3824	0.04277815
86	0x3d6e0714	0.05811222
87	0xbdc6fd30	-0.097162604
88	0xbe07a2d4	-0.13245708
89	0x3d98494e	0.07435857
90	0xbe0bd19f	-0.13654183
91	0x3c817810	0.01580432
92	0x3d24b1c4	0.040208593
93	0xbd02cc32	-0.031933017
94	0x3dc73612	0.0972711
95	0x3cb6f998	0.022335812
96	0xbdf782c3	-0.12085488
97	0xbe113030	-0.14178538
98	0xbde0a043	-0.109680675
99	0xbd8439da	-0.06456347
100	0xbc9d7400	-0.019220352
101	0xbdb0a5da	-0.08625384
102	0xbd71d700	-0.05904293
103	0x3d0c6ad0	0.03428155
104	0xbe0c1780	-0.1368084
105	0x3d910d5c	0.07082626
106	0xbd2c780e	-0.04210668
107	0xbda52378	-0.08063406
108	0x3ce9e6a8	0.028552368
109	0xbdc63ac3	-0.09679177
110	0xbd1cd7bc	-0.038291678
111	0xbd8ab71a	-0.06773205
112	0xbde06c60	-0.10958171
113	0x3e107fa3	0.1411119
114	0x3de87d5e	0.11352037
115	0xbd31f4f8	-0.04344651
116	0x3dbd5a78	0.09245771
117	0x3d9f5ede	0.07781766
118	0x3d641034	0.055679515
119	0x3e103a25	0.1408468
120	0xbcf9f8f8	-0.030514225
121	0xbb258440	-0.002525583
122	0xbda106cc	-0.078626245
123	0xbd9e04c3	-0.07715752
124	0x3e108071	0.14111497
125	0xbd483278	-0.048876256
126	0x3e02ce27	0.12773953
127	0x3e0eaba1	0.13932659
128	0x3e0f07d9	0.13967837
129	0x3c189f50	0.009315327
130	0xbd55ed7c	-0.052228436
131	0x3db7c3cc	0.08972892
132	0xbdd5f93c	-0.10447928
133	0x3d88414a	0.06653078
134	0xbe0e8613	-0.13918333
135	0xbc4ff230	-0.012692019
136	0xbd9ff1d3	-0.07809796
137	0xbdb02c58	-0.08602208
138	0xbdedc2ba	-0.11609407
139	0x3e08ea3f	0.13370608
140	0x3c971ed0	0.01844731
141	0x3ddc8d2e	0.107691154
142	0xbde9cf8a	-0.11416538
143	0xbdc2c650	-0.09510481
144	0xbd984b3c	-0.07436225
145	0xbdf4d131	-0.119539626
146	0x3d9b0df0	0.07571018
147	0xbe07a58a	-0.13246742
148	0x3d1af8e4	0.037835017
149	0xbe10aa37	-0.14127432
150	0xbdbfc5e0	-0.093639135
151	0x3e021cd7	0.12706314
152	0xbde75bd5	-0.112968124
153	0xbd6c0cc0	-0.057629347
154	0xbc1c6e30	-0.009547755
155	0xbe00bbb6	-0.12571606
156	0x3d920a50	0.07130873
157	0x3cbc0e78	0.022956118
158	0xbd32c85c	-0.04364811
159	0x3dced7e2	0.1009977
160	0x3d7aa0c4	0.061188474
161	0xbe0486bb	-0.1294202
162	0xbaa77f80	-0.0012779087
163	0x3c9bb8d0	0.019009024
164	0xbb905860	-0.0044050664
165	0x3d4a2148	0.049348146
166	0xbdc79d4c	-0.09746799
167	0xbcbbf6b8	-0.022944793
168	0xbd205200	-0.0391407
169	0xbe11e978	-0.14249218
170	0xbd8ac4b3	-0.06775799
171	0x3c101ab0	0.008795425
172	0x3dd3b2ea	0.103368595
173	0x3d8738d8	0.06602639
174	0xbd9a833c	-0.07544562
175	0x3d2d99bc	0.04238294
176	0xbe06290f	-0.131016
177	0xbd81b2f7	-0.06332963
178	0x3dba5676	0.09098522
179	0xbdbacb03	-0.09120753
180	0x3bc989e0	0.006150469
181	0x3dcb2308	0.09918791
182	0x3df5c6a2	0.12000777
183	0xbd0e7dea	-0.03478805
184	0x3d818214	0.063236386
185	0xbd81755a	-0.06321211
186	0x3d428960	0.047494292
187	0xbdb009c5	-0.085956134
188	0xbd7599f4	-0.059961274
189	0x3db6592e	0.089037284
190	0xbd7f7fae	-0.062377624
191	0x3c897280	0.01677823
192	0xbdb41388	-0.08792788
193	0xbcf546d4	-0.029941
194	0xbca36a64	-0.019948192
195	0x3d4dcbe4	0.050243273
196	0xbdc6d05a	-0.09707709
197	0xbdde39ce	-0.10850869
198	0x3d18fd30	0.037350833
199	0xbd8018fc	-0.062547654
200	0x3d57273c	0.05252765
201	0x3d908fd4	0.07058683
202	0xbdc9379c	-0.0982506
203	0xbcd46988	-0.025929227
204	0x3d936fac	0.07199034
205	0xbe066bf6	-0.13127121
206	0x3dbe0b2a	0.09279473
207	0x3d83c7a8	0.06434566
208	0x3c9f43e8	0.01944156
209	0x3d3c2b54	0.04593976
210	0xbd0194ce	-0.03163605
211	0xbdd06795	-0.10176007
212	0x3c89f148	0.016838685
213	0x3a790200	0.0009498894
214	0x3e041b4b	0.12901036
215	0x3c1bcd80	0.009509444
216	0xbdbdcdde	-0.09267782
217	0xbd2492f8	-0.040179223
218	0xbd82b5ce	-0.06382333
219	0xbd06a952	-0.03287632
220	0xbd33fb2e	-0.043940715
221	0x3bbfb2c0	0.005850166
222	0x3e00e0ef	0.12585805
223	0x3db0a490	0.08625138
224	0x3b4cc1c0	0.0031243414
225	0xbd41fbf2	-0.047359414
226	0xbd8b710c	-0.06808671
227	0x3dbc0c38	0.09182018
228	0xbe103ff4	-0.14086896
229	0xbd0dd09c	-0.034622774
230	0x3dfbd792	0.12296976
231	0x3c5db920	0.013532907
232	0xbd8f05d0	-0.069835305
233	0xbd202e2a	-0.039106525
234	0x3e08e443	0.13368325
235	0xbdce3d10	-0.100702405
236	0x3de7f2ee	0.11325632
237	0x3e073b1b	0.1320614
238	0x3daee910	0.08540547
239	0xbe1189af	-0.14212678
240	0x3d8f2898	0.069901645
241	0x3d5ab280	0.053392887
242	0x3d991ca6	0.074761674
243	0xbdf5f70c	-0.12010011
244	0x3c92b738	0.017909631
245	0xbe113713	-0.14181165
246	0x3d832f7a	0.0640554
247	0x3cb38430	0.021913618
248	0xbe0bd5e0	-0.13655806
249	0x3df68e76	0.12038891
250	0x3dff24d2	0.12458195
251	0xbcf8d8f8	-0.030376896
252	0xbda30b87	-0.07961183
253	0xbcd0b288	-0.025475755
254	0x3ca57288	0.020196214
255	0xbd37e846	-0.044899248

localization.0.bias f4 [8]
0	0xbe067c56	-0.13133368
1	0xbde8baa5	-0.113637246
2	0xbdfd699a	-0.123736575
3	0xbdba7bfa	-0.09105678
4	0x3d6b9238	0.057512492
5	0xbb7402c0	-0.0037233084
6	0xbd6755a6	-0.056478165
7	0xbdfcba23	-0.1234019
