init.pth (torch, 12567 bytes, 6 tensors)

net.0.weight f4 [16, 1, 3, 3]
0	0x3ddc0fa4	0.10745171
1	0xbd27dce8	-0.040982157
2	0xbe59d3c3	-0.21272187
3	0x3d592118	0.053010076
4	0xbda62f3c	-0.08114478
5	0xbe250730	-0.16116023
6	0xbdf485d6	-0.1193959
7	0x3d625760	0.05525911
8	0xbe841ef7	-0.25804874
9	0xbe9f95b2	-0.31168896
10	0x3e7e3f66	0.24828872
11	0x3e4027ba	0.18765154
12	0xbe6f3eee	-0.2336385
13	0xbdeaa3c0	-0.11457014
14	0xbc1ce3a0	-0.009575754
15	0x3d4db720	0.05022347
16	0xbe9e813f	-0.30957982
17	0xbea30373	-0.3183857
18	0xbd56e748	-0.05246666
19	0x3e00bea0	0.12572718
20	0xbe2240c3	-0.15845017
21	0xbe2798fb	-0.16366951
22	0x3ddc90c4	0.10769799
23	0x3ea3440b	0.3188785
24	0x3dbf3af0	0.09337413
25	0xbe1313fe	-0.14363095
26	0xbe5ce02e	-0.21569893
27	0x3e6a8ffa	0.22906485
28	0xbe170ae8	-0.14750254
29	0xbe5f02e0	-0.2177844
30	0x3de33c9c	0.11095545
31	0x3e359c0e	0.17735311
32	0xbe68da73	-0.22739582
33	0xbdddd476	-0.10831539
34	0x3dcc11a4	0.09964302
35	0xbd688e78	-0.056776494
36	0xbcf039d0	-0.029324442
37	0x3d8c2674	0.06843272
38	0x3e9b6851	0.30353025
39	0xbdf166d0	-0.11787188
40	0xbe29a8a0	-0.16568232
41	0xbea5c1d3	-0.3237444
42	0xbe80b1e7	-0.2513573
43	0x3e136660	0.14394522
44	0xbc85a490	-0.016313821
45	0x3ea0920f	0.31361434
46	0x3eaaa28b	0.33327135
47	0x3d8bb120	0.06820893
48	0xbc61b300	-0.013775587
49	0xbdb81c76	-0.089898035
50	0xbe52fe93	-0.20604925
51	0x3e942605	0.28935257
52	0xbdd7771c	-0.10520765
53	0xbe6d7683	-0.2318974
54	0xbc9737d0	-0.01845923
55	0x3e61feba	0.22069827
56	0x3d971764	0.07377508
57	0x3d957b40	0.07298899
58	0xbe8d4182	-0.2758904
59	0x3e177886	0.1479207
60	0x3d2991e0	0.041398883
61	0x3ea4a1eb	0.32154784
62	0x3e711b22	0.23545507
63	0x3e9d8071	0.30762056
64	0xbe03a163	-0.12854533
65	0xbdcaa0cc	-0.09893951
66	0xbd93a5bc	-0.07209346
67	0x3e215936	0.15756688
68	0x3e296e60	0.16546011
69	0x3ea3b631	0.3197494
70	0xbe8149de	-0.2525167
71	0x3dfd00d4	0.123536736
72	0x3e355826	0.17709407
73	0x3e14b0e6	0.14520606
74	0x3e028a12	0.12747982
75	0xbe51e586	-0.20497712
76	0x3e02fe18	0.12792242
77	0x3e92c245	0.2866384
78	0x3dd293bc	0.10282084
79	0xbdc2129c	-0.09476206
80	0x3e46f5fa	0.1942977
81	0x3d75f488	0.060047656
82	0xbe0c56fe	-0.1370506
83	0xbea7e086	-0.32788485
84	0x3dadb7a0	0.08482289
85	0xbdddfe20	-0.10839486
86	0x3d69c448	0.057071954
87	0x3d454f68	0.04817143
88	0xbd4d87f8	-0.050178498
89	0xbdf9f68c	-0.12205228
90	0xbd60e2f8	-0.054903954
91	0x3c2dd080	0.010608792
92	0xbe820b3c	-0.25399196
93	0x3df99684	0.12186912
94	0x3e86ab95	0.26302782
95	0xbd3030c8	-0.04301527
96	0x3d9f488c	0.07777509
97	0xbea125e3	-0.31474218
98	0x3e504e62	0.203424
99	0xbe253e3e	-0.16137025
100	0xbe838c28	-0.25692868
101	0xbe231350	-0.15925336
102	0xbe6f9348	-0.23396027
103	0x3e875d69	0.26438454
104	0x3d6e4838	0.058174342
105	0xbe7f9ece	-0.24962923
106	0xbdd1dc90	-0.10247147
107	0x3d9f6abc	0.0778403
108	0x3ea4de07	0.32200643
109	0xbda89c40	-0.08232927
110	0xbc7d3800	-0.015455246
111	0x3e665c9e	0.22496268
112	0xbe844c4a	-0.25839454
113	0xbe8d0c57	-0.27548477
114	0xbdf73d36	-0.12072222
115	0x3e7e66e6	0.2484394
116	0xbe99b053	-0.30017337
117	0xbdbe4dc6	-0.09292178
118	0xbe15c0a3	-0.14624266
119	0xbe1381a3	-0.14404921
120	0x3e918a59	0.28425863
121	0x3ddb2f2c	0.10702357
122	0x3ddc5924	0.1075919
123	0x3ea99055	0.3311793
124	0xbdf09516	-0.11747186
125	0xbe3d103b	-0.18463223
126	0xbdb15440	-0.086586475
127	0xbe8384b2	-0.25687176
128	0xbe0fe480	-0.1405201
129	0xbda9cdb4	-0.08291188
130	0xbe4a232e	-0.19739982
131	0x3cc63910	0.024197131
132	0x3de9e504	0.114206344
133	0xbda7cccc	-0.08193359
134	0xbccb7450	-0.024835736
135	0xbe7319a6	-0.23740253
136	0x3e30a1c2	0.17249206
137	0x3e9b742d	0.30362073
138	0x3d46fba0	0.048579812
139	0xbe129ca0	-0.1431756
140	0xbdb92f3c	-0.09042212
141	0xbd81fe60	-0.06347346
142	0x3d53d1b8	0.051713675
143	0xbe70d79b	-0.23519747

net.0.bias f4 [16]
0	0xbe690f96	-0.22759852
1	0x3e34ed22	0.17668584
2	0xbdacb2c6	-0.08432536
3	0x3ea545fd	0.3227996
4	0x3e1dab32	0.15397337
5	0x3d22b788	0.03972581
6	0xbea377af	-0.3192725
7	0x3e7dc26a	0.24781194
8	0x3e3a1162	0.18170694
9	0x3c939100	0.018013477
10	0x3e7e72aa	0.24848428
11	0xbdda9e80	-0.10674763
12	0xbb858240	-0.004074365
13	0x3e419bfe	0.18907163
14	0xbd69abb8	-0.05704853
15	0xbb9bfc40	-0.004760295

net.2.weight f4 [16, 16, 3, 3]
0	0x3d6676f2	0.05626578
1	0x3c12c640	0.008958399
2	0xbcaa9ad4	-0.02082578
3	0x3c509fb8	0.012733392
4	0xbd4680b6	-0.048462592
5	0x3d94f011	0.072723515
6	0xbce66d06	-0.028128158
7	0xbcda6290	-0.026658326
8	0x3c350218	0.0110478625
9	0x3d73dda6	0.059537552
10	0x3d4581ba	0.04821942
11	0x3d54f2b2	0.051989265
12	0xbd894bae	-0.06703888
13	0xbd8a019c	-0.06738588
14	0x3d9858b9	0.074387975
15	0x3ba00bb0	0.0048842058
16	0xbd569c36	-0.052395068
17	0x3c3f8fb8	0.01169198
18	0x3d32fe62	0.04369963
19	0x3d49dcb2	0.049282737
20	0x3d72317e	0.05912923
21	0x3d86122d	0.065464355
22	0x3d100eea	0.035170473
23	0xbd2ece20	-0.042677045
24	0xbd1f1828	-0.038841397
25	0x3c8eb7ac	0.017421566
26	0xbc042238	-0.008064799
27	0xbd9a94b6	-0.075478956
28	0x3d125fea	0.035736002
29	0xbd42db83	-0.047572624
30	0xbd1c2ca8	-0.038128525
31	0x3da009f7	0.07814401
32	0xbd9838c4	-0.07432702
33	0x3d97b729	0.07407982
34	0xbda26c18	-0.079307735
35	0x3d470036	0.048584186
36	0xbd3a565e	-0.045492522
37	0x3d4abfe2	0.0494994
38	0x3cd137c4	0.025539286
39	0x3cc72090	0.02430752
40	0xbd97c504	-0.074106246
41	0x3d9c6b1d	0.07637618
42	0xbd88b01e	-0.06674217
43	0x3cd46374	0.02592633
44	0x3d9bec99	0.07613487
45	0x3d986489	0.074410506
46	0xbd271830	-0.04079455
47	0x3da21e57	0.07915943
48	0xbd451296	-0.048113428
49	0x3d94f7d1	0.0727383
50	0xbd86fb34	-0.06590882
51	0x3cc6805c	0.024231128
52	0x3d1ffa96	0.039057337
53	0x3d1d0aea	0.038340487
54	0xbd68d9f8	-0.056848496
55	0xbd5591b0	-0.05214089
56	0xbd8352f3	-0.06412306
57	0xbc841cec	-0.016127072
58	0x3cdb85d0	0.026797205
59	0xbd1baf23	-0.03800882
60	0xbc333ff8	-0.010940544
61	0x3c13e8a8	0.009027638
62	0xbcb61f56	-0.022231739
63	0x3c6e2058	0.014534079
64	0x3c2c3978	0.0105117485
65	0xbd30976e	-0.043113165
66	0xbcc64ac6	-0.024205577
67	0x3d44a58a	0.048009433
68	0x3d949a05	0.072559394
69	0xbb96a9b0	-0.004597865
70	0xbda36a3f	-0.07979249
71	0xbcbfea10	-0.02342704
72	0x3cc82330	0.024430841
73	0x3d8e7b45	0.069571055
74	0xbd57b188	-0.05265954
75	0xbda685d2	-0.08130993
76	0x3d11311e	0.035447232
77	0x3d89ffd5	0.06738249
78	0x3d089570	0.03334564
79	0xbd39d58e	-0.045369677
80	0x3d132750	0.035926163
81	0x3cf6e870	0.030140132
82	0xbd690206	-0.056886695
83	0x3d9f745b	0.07785865
84	0xbd4aeb80	-0.049540997
85	0xbd9a8526	-0.07544927
86	0x3d90b565	0.07065848
87	0x3d581f6a	0.052764334
88	0xbcd0d166	-0.025490474
89	0x3cb4d39c	0.02207356
90	0xbd536300	-0.051608086
91	0xbd612a9b	-0.054972272
92	0x3aae3b00	0.001329273
93	0xbd557288	-0.05211118
94	0xbd449c10	-0.048000395
95	0x3d36b122	0.04460252
96	0x3c85ebd4	0.016347803
97	0x3d8c522b	0.0685161
98	0x3d567356	0.052356087
99	0x3d98de13	0.07464232
100	0x3b957070	0.0045605227
101	0xbb826890	-0.00397975
102	0x3d5ae4f2	0.053440996
103	0xbd8da13f	-0.06915521
104	0xbd86d557	-0.0658366
105	0x3d65d392	0.056109972
106	0xbc614518	-0.013749383
107	0x3d26c9a2	0.040719636
108	0xbd9ed5b4	-0.077556044
109	0xbd78228e	-0.06057983
110	0x3d893825	0.06700162
111	0xbc9ccfc0	-0.019142032
112	0x3c692778	0.0142306015
113	0xbd2bf140	-0.04197812
114	0x3b865030	0.0040989146
115	0xbd228c60	-0.039684653
116	0xbd43adf0	-0.0477733
117	0x3d3649de	0.04450404
118	0xbd92aab3	-0.071614645
119	0x3d090980	0.033456326
120	0x3cae42cc	0.021272086
121	0xbd8630ec	-0.065523
122	0xbda519f8	-0.08061594
123	0x3cb4c014	0.022064246
124	0x3d4f451a	0.05060301
125	0xbda98a13	-0.08278289
126	0x3cc98974	0.024601676
127	0x3d060a9a	0.032724954
128	0x3d49d4a2	0.049275048
129	0x3d644ffe	0.05574035
130	0x3d1dce6a	0.03852693
131	0x3d651646	0.055929445
132	0x3d99196d	0.07475553
133	0xbd76cb63	-0.06025256
134	0xbd6642e0	-0.05621612
135	0x3d648312	0.05578906
136	0x3da66a51	0.08125747
137	0xbca604b4	-0.020265914
138	0x3d86e7b5	0.06587163
139	0xbd7a00d0	-0.06103593
140	0xbd96e7d3	-0.07368436
141	0x3be5c970	0.0070125386
142	0x3d6fa2b2	0.058504768
143	0x3d31652a	0.04330937
144	0x3da3cbbf	0.07997846
145	0xbd5e3d23	-0.054257523
146	0x3d81da39	0.06340451
147	0xbd889d97	-0.06670683
148	0x3d149f8e	0.036284976
149	0x3d691da6	0.05691304
150	0x3aa01d00	0.0012215674
151	0xbd3c7a4e	-0.046015076
152	0x3da26a8d	0.07930479
153	0x3afa14c0	0.001907967
154	0x39f5ec00	0.00046905875
155	0xbcdc1a2c	-0.026867948
156	0xbd9b92ea	-0.07596381
157	0xbd93b36f	-0.072119586
158	0xbda9e7d2	-0.08296169
159	0x3d639082	0.055557735
160	0xbda96930	-0.08272016
161	0x3d40f18e	0.047105365
162	0xbd9798f6	-0.07402222
163	0x3cb37510	0.021906406
164	0xbcb56c7c	-0.022146456
165	0xbd1f1f23	-0.038848054
166	0xbc7cffe8	-0.015441872
167	0x3c07d820	0.008291274
168	0xbcb00b30	-0.02148971
169	0x3d01f4f8	0.03172776
170	0xbd5752f6	-0.052569352
171	0x3c34e980	0.011041999
172	0x3d314b2a	0.043284573
173	0x3d8cd607	0.0687676
174	0x3d822cef	0.06356227
175	0x3c7db758	0.015485607
176	0xbd01bf13	-0.031676363
177	0x3d0d21c2	0.034456022
178	0x3da79df1	0.08184422
179	0xbd575ef8	-0.052580804
180	0xbda77be7	-0.08177929
181	0xbd9518ce	-0.07280122
182	0x3a507280	0.0007951632
183	0xbc224938	-0.009905152
184	0x3da1ca11	0.07899869
185	0xbda41d90	-0.08013451
186	0xbc33f008	-0.010982521
187	0x3d9a1b7f	0.07524776
188	0xbc7b3360	-0.015332073
189	0x3d950bbb	0.07277628
190	0x3d9b154f	0.07572424
191	0x3d3850d6	0.044998966
192	0x3d3e0cd2	0.046398945
193	0xbd95c960	-0.073138
194	0x3da80461	0.0820396
195	0x3ca06c00	0.019582748
196	0x3d51c992	0.051217623
197	0x3d196290	0.037447512
198	0x3c1bc0a8	0.009506382
199	0xbda77a73	-0.08177652
200	0x3c3aa938	0.011392884
201	0x3bb52280	0.0055277944
202	0x3d622f32	0.05522079
203	0x3c5a2520	0.013314515
204	0x3d0acada	0.03388486
205	0xbc0fdec8	-0.0087811425
206	0x3d91455d	0.07093308
207	0xbca35d00	-0.019941807
208	0x3d2dec0e	0.042461447
209	0x3bcafdd0	0.0061948076
210	0x3d1961c2	0.037446745
211	0x3d2a337e	0.041553013
212	0x3d088bbe	0.033336394
213	0x3c0f5ae0	0.008749694
214	0xbca20ef4	-0.01978252
215	0xbd0140f8	-0.0315561
216	0x3d80b31b	0.06284162
217	0xbd16e683	-0.036840927
218	0x3cfdbdc4	0.030974276
219	0x3c3b2ca0	0.011424214
220	0xbccb3df6	-0.024809819
221	0xbd6f3d93	-0.05840833
222	0x3c994dc4	0.01871384
223	0x3ced27c0	0.028949618
224	0xbc94d2bc	-0.018166892
225	0x3c5d7108	0.013515718
226	0xbd80746b	-0.06272205
227	0x3d09d632	0.03365154
228	0xbd9f18b0	-0.07768381
229	0x3d80bb23	0.062856935
230	0x3d392772	0.045203634
231	0xbd88a34a	-0.0667177
232	0x3d3aa63e	0.045568697
233	0xbd998f02	-0.0749798
234	0x3d23ab4e	0.03995829
235	0x3be7f770	0.0070790574
236	0xbd86bdb4	-0.06579152
237	0x3cec070c	0.028811954
238	0x3d4e21b6	0.050325118
239	0xbd119bf0	-0.035549104
240	0x3d52d306	0.05147078
241	0x3d6d4d72	0.057935186
242	0xbd4b3623	-0.049612176
243	0xbcaffcec	-0.021482907
244	0x3d125126	0.03572192
245	0xbd99bfe3	-0.075073026
246	0x3b13cce0	0.0022552535
247	0x3d99ace5	0.0750368
248	0x3cd1a29c	0.025590234
249	0xbc4a8d48	-0.012362786
250	0x3d9fa2d9	0.077947326
251	0xbd8949cb	-0.06703528
252	0xbd10b343	-0.035327207
253	0x3cd1ff80	0.025634527
254	0xbc9b86ac	-0.018985115
255	0x3d01cb30	0.031687915

net.2.bias f4 [16]
0	0x3d9859b1	0.07438982
1	0x3d07f108	0.03318885
2	0xbcbb4626	-0.022860598
3	0x3d3e4f4e	0.04646235
4	0x3d8ca3db	0.068671905
5	0xbcd397c0	-0.025829196
6	0xbd56149b	-0.052265745
7	0xbd6a0073	-0.057129335
8	0xbd80adbb	-0.062831365
9	0xbd266400	-0.04062271
10	0x3d12be08	0.03582576
11	0xbd78f8ee	-0.060784273
12	0xbd9ddf32	-0.07708587
13	0xbd2b9836	-0.041893207
14	0x3d3236e6	0.043509386
15	0x3d1f306a	0.03886453

net.7.weight f4 [10, 16]
0	0x3d0def78	0.034652203
1	0xbbbd3740	-0.0057744086
2	0xbd91e910	-0.07124531
3	0xbdb02b10	-0.086019635
4	0x3e7789dc	0.24173683
5	0xbe4016e0	-0.18758726
6	0xbd6837c8	-0.056693822
7	0xbcc4f080	-0.02404046
8	0x3d4ba810	0.049720824
9	0xbe5282a6	-0.20557651
10	0x3e12817c	0.14307207
11	0x3da704bc	0.081552
12	0x3d01f170	0.031724393
13	0x3e7269f0	0.23673224
14	0x3dff5634	0.12467614
15	0x3e6b30d6	0.22967848
16	0xbdf4c21c	-0.11951086
17	0x3e362900	0.17789078
18	0x3e23fe0a	0.16014877
19	0x3e04a33c	0.12952894
20	0x3e323df6	0.17406449
21	0x3e6b0b92	0.22953632
22	0xbe46adec	-0.19402283
23	0x3e634aa2	0.22196439
24	0x3def5dc4	0.11687806
25	0xbe5e8a58	-0.21732461
26	0x3d93c970	0.072161555
27	0xbde0788c	-0.109604925
28	0xbe4648b4	-0.19363672
29	0x3e7b3306	0.24531183
30	0x3e63d6e8	0.22249949
31	0xbe2d5e9a	-0.16930619
32	0x3e762354	0.24036914
33	0x3c44da00	0.012014866
34	0x3e1fc6ec	0.15603226
35	0xbd50c5a8	-0.05096975
36	0xbc721ea0	-0.014777809
37	0xbe77e4ac	-0.24208325
38	0xbdcaabec	-0.09896073
39	0xbdfecf74	-0.12441912
40	0x3dc26920	0.09492707
41	0xbdfa8860	-0.12233043
42	0x3cd13830	0.025539488
43	0x3b6b5080	0.0035906136
44	0x3de5c270	0.11218727
45	0xbe572750	-0.2101109
46	0x3e5ef16a	0.2177178
47	0xbe76c24e	-0.24097559
48	0xbe10f19a	-0.14154664
49	0x3de2bdec	0.11071381
50	0xbd2dc258	-0.04242167
51	0xbd4bf198	-0.04979095
52	0x3e7ac8b6	0.24490628
53	0x3e3b3a00	0.18283844
54	0xbe1249f0	-0.14286017
55	0x3e31fd4c	0.17381781
56	0x3e3fa5d8	0.18715608
57	0xbd081a50	-0.03322822
58	0x3d8736ec	0.066022724
59	0x3d8c9ed0	0.068662286
60	0x3e49c868	0.19705355
61	0xbdb28f58	-0.08718747
62	0x3db085a8	0.08619243
63	0x3e063242	0.1310511
64	0xbe5da846	-0.21646222
65	0xbe7ac40a	-0.24488845
66	0xbe11108a	-0.14166465
67	0x3e2675dc	0.16255897
68	0x3d6ee920	0.058327794
69	0xbd1d86a8	-0.038458496
70	0xbded0f08	-0.115751326
71	0x3e3e5ab0	0.18589282
72	0x3e5c7b46	0.215314
73	0xbe0458c6	-0.1292449
74	0xbdff0608	-0.12452322
75	0xbe773fee	-0.24145481
76	0x3de09210	0.10965359
77	0x3d296f78	0.04136607
78	0x3e7333f4	0.23750287
79	0x3d9dc210	0.0770303
80	0xbe587d30	-0.21141505
81	0xbdd05ed0	-0.10174334
82	0x3e64cfbc	0.2234487
83	0x3d2a5578	0.041585416
84	0x3e0ed89c	0.13949817
85	0x3dcc052c	0.09961924
86	0x3dbabad0	0.09117663
87	0x3d9ef680	0.0776186
88	0x3ca94bd0	0.020666033
89	0xbe2efa68	-0.1708771
90	0xbe5a01c2	-0.21289733
91	0xbe58e7ec	-0.21182221
92	0x3e7569a0	0.23966074
93	0x3df5630c	0.11981782
94	0xbb07fe00	-0.002075076
95	0x3df60e90	0.12014496
96	0xbe7058fe	-0.23471448
97	0xbd8ac51c	-0.06775877
98	0xbcbcf9c0	-0.023068309
99	0x3e2a7716	0.1664699
100	0xbddef5fc	-0.108867615
101	0xbe7ad724	-0.24496132
102	0x3e4d377e	0.200407
103	0x3da50918	0.08058375
104	0x3e424d44	0.18974787
105	0xbe071a64	-0.13193661
106	0xbe32d01c	-0.174622
107	0xbce3b3b0	-0.027795643
108	0xbe404c10	-0.18779016
109	0xbe2daeec	-0.16961259
110	0xbdf8a798	-0.12141341
111	0x3deb1ab8	0.114797056
112	0x3dd4b084	0.1038523
113	0xbe4c9d02	-0.19981769
114	0x3e46b4fa	0.19404975
115	0x3e4dbe86	0.2009221
116	0xbd75f880	-0.06005144
117	0x3ca25c30	0.019819349
118	0xbe58d774	-0.21175939
119	0x3cff4a80	0.031163454
120	0xbe71af5c	-0.2360205
121	0x3ded37ac	0.11582884
122	0x3d3e08e0	0.046395183
123	0x3d79c738	0.060981005
124	0x3d9e0f44	0.077177554
125	0x3e3c6eac	0.18401593
126	0xbdddc2d8	-0.10828179
127	0xbd35be40	-0.04437089
128	0xbdcb9da4	-0.09942177
129	0xbc8e5840	-0.017376065
130	0x3bb44dc0	0.0055024326
131	0xbe5a9f78	-0.21349895
132	0xbe56c5da	-0.20973912
133	0x3e4e3b98	0.2013992
134	0x3e54387e	0.20724675
135	0xbd172e58	-0.03690943
136	0xbe38a964	-0.18033367
137	0x3e76790a	0.2406961
138	0xbdfd3294	-0.12363163
139	0x3d5d21f8	0.053987473
140	0x3d8a3b64	0.06749609
141	0x3ddcd9b0	0.10783708
142	0xbde12dec	-0.10995087
143	0xbd5d1018	-0.053970426
144	0xbd56bb08	-0.05242446
145	0xbe1530d2	-0.14569405
146	0x3dbee790	0.09321511
147	0x3e33666a	0.17519537
148	0xbdfe07b4	-0.12403813
149	0x3e25a720	0.16177034
150	0xbdf87be8	-0.12133008
151	0xbdf0af94	-0.11752239
152	0xbdb92c4c	-0.09041652
153	0xbc5d2500	-0.013497591
154	0x3e5d6e22	0.21624044
155	0xbe2583a0	-0.16163492
156	0xbdf09758	-0.117476165
157	0x3beeaf80	0.007284105
158	0xbc366fc0	-0.011135042
159	0xbd63e650	-0.055639565

net.7.bias f4 [10]
0	0x3d8fabac	0.07015166
1	0x3dd90684	0.10596946
2	0x3dc5f1ec	0.096652836
3	0xbe3a34de	-0.1818423
4	0xbdd5c52c	-0.10437998
5	0x3c2fe660	0.010736078
6	0xbe27d584	-0.16390043
7	0xbd2bb3c0	-0.04191947
8	0x3e12842a	0.14308229
9	0xbcf5b810	-0.029994994
